results/model/data_aug_596.model (torch, 686563 bytes, 21 tensors)

weight_ih f4 [384, 5]
0.062369566 -0.070526235 -0.03145822 -0.109990336 0.30834013 0.022725815 0.08573565 0.07655441
0.0055790693 -0.6711105 0.045827504 -0.0033280128 0.006068931 -0.019571897 -1.5986769 0.0029850793
0.07446947 0.0017892257 0.09233861 1.7385117 0.04544929 0.051254988 0.03847824 -0.015655182
1.2020572 -0.050799824 -0.04100233 0.029600924 0.039180145 2.1843345 -0.05222905 -0.023078427
-0.036102835 0.052262627 -0.7258017 0.05125117 -0.033672523 -0.09864729 0.03968147 0.103821956
-0.019252688 -0.060052536 -0.1218818 -0.043043118 0.113213494 0.11091468 0.019446332 0.094105385
0.025422083 -1.646389 -0.014508021 0.048013475 -0.08038193 0.08653564 1.7275376 -0.038788717
0.07211945 -0.03365628 -0.012292228 -1.7789154 -0.023927724 -0.12006063 0.010652498 -0.0094915405
-0.33782318 0.020718154 0.04892605 -0.070658594 0.14167418 -1.0603001 0.0707079 0.073589556
0.061661985 -0.0045361198 -1.2274401 -0.007289165 -0.04045037 -0.028896572 0.014230406 -0.16925734
-0.007841988 0.11557717 0.059004296 0.12458949 -0.83195865 -0.06910935 0.0155386245 0.0322246
0.07478269 -1.2979286 -0.082343675 0.015395163 0.049244538 -0.0512618 -1.3269919 0.046398953
0.04196773 -0.0036360847 -0.040524505 -1.4440695 0.023233626 -0.04664073 0.03111512 0.031307764
0.2974938 -0.07987589 0.0057253907 -0.09570313 0.08790594 1.3175653 -0.0008378945 0.05019906
0.054172758 -0.036422092 0.7696144 -0.003240742 -0.021044604 -0.003417438 -0.039968424 -0.70623296
-0.033356927 0.030866375 0.03797447 -0.015462358 -0.12609202 0.09718009 0.012897323 -0.06528979
-0.01207113 -0.4615245 0.04817007 -0.040308584 -0.105189 -0.000194459 -2.2687862 -0.06985377
-0.033973176 0.019206323 -0.015899865 -0.3853141 -0.025708513 -0.07146029 -0.005012219 -0.013301466
0.12969084 0.05439797 -0.06071915 -0.051382218 0.07921066 -0.9218662 0.027197968 0.020995967
0.05097514 0.09021127 0.2683803 0.07025497 0.013146602 0.021807564 -0.017956492 0.39458528
-0.025562232 -0.014708453 -0.08599817 0.027258206 0.14654027 0.07212124 -0.09104247 -0.0243204
0.042989116 -0.56128544 0.03902145 -0.079711415 -0.099440314 0.09435825 -1.4460467 0.08298306
-0.013682261 -0.015951063 0.104882546 1.5929278 0.04045516 0.06000577 -0.0056757694 0.10235198
0.36684513 0.020104073 0.020053998 -0.0802994 0.07296269 0.92499024 7.778631e-05 -0.031197445
-0.11225668 0.021950997 0.14381349 -0.07637361 0.10569832 -0.019497637 0.06013646 0.6216801
-0.06873022 0.040703427 -0.07027112 -0.034477916 -0.2503085 -0.109649956 -0.051916655 0.019155905
0.02888509 -2.1019344 -0.023909228 0.023361055 -0.013374959 0.065692715 -0.8115368 -0.07781157
-0.089574344 -0.05559934 -0.03968765 0.6779903 0.0643009 0.023709418 -0.05862311 0.034505997
-0.38033497 0.02416654 -0.05023003 -0.008571793 -0.08273822 0.40118 -0.046715185 -0.122029305
-0.046921924 0.03812413 0.91445667 -0.07950784 -0.043345846 -0.09572496 -0.028946621 -1.8274239
0.015864287 0.01465767 0.031004574 0.051835213 -1.1702911 0.0350741 -0.09903857 -0.018194163
-0.02605874 0.7216483 -0.055284698 0.07279183 0.093747765 -0.054399118 1.7811148 -0.1266475
00000000: 3b77 7f3d 0f70 90bd 56da 00bd 9d42 e1bd
00000010: c2de 9d3e 7d2b ba3c 2c96 af3d 8fc8 9c3d
00000020: a0d0 b63b e6cd 2bbf 9fb5 3b3d ca1a 5abb
00000030: e2dd c63b 3e55 a0bc 72a1 ccbf 52a1 433b
00000040: 7383 983d 7484 ea3a 061c bd3d 8d87 de3f
00000050: 0929 3a3d c0f0 513d 5c9b 1d3d 4c3f 80bc
00000060: 03dd 993f 7a13 50bd 0ff2 27bd a37d f23c
00000070: 5c7b 203d 23cc 0b40 21ee 55bd f80e bdbc
00000080: 91e0 13bd 5611 563d 24ce 39bf bfec 513d
00000090: 33ec 09bd 9707 cabd 0989 223d 9ba0 d43d
000000a0: d0b7 9dbc a6f9 75bd 2a9d f9bd fb4d 30bd
000000b0: 7adc e73d 3c27 e33d ea4d 9f3c 53ba c03d
000000c0: f941 d03c e0bc d2bf 0db3 6dbc c7a9 443d
000000d0: 489f a4bd 9939 b13d f41f dd3f ebe0 1ebd
000000e0: 5db3 933d 2bdb 09bd 5765 49bc 80b3 e3bf
000000f0: 1304 c4bc 59e2 f5bd d187 2e3c 6882 1bbc
00000100: 29f7 acbe 1eb9 a93c af66 483d 74b5 90bd
00000110: 0913 113e eab7 87bf 4ecf 903d 1fb6 963d
00000120: 4791 7c3d bba3 94bb c21c 9dbf f3d9 eebb
00000130: 4aaf 25bd 81b8 ecbc a626 693c cc51 2dbe
00000140: ae7b 00bc b9b3 ec3d 7dae 713d c628 ff3d
00000150: 3efb 54bf 3489 8dbd b795 7e3c f1fd 033d
00000160: ab27 993d 8622 a6bf cda3 a8bd fe3b 7c3c
00000170: a4b4 493d e5f7 51bd dfda a9bf d40c 3e3d
00000180: 5be6 2b3d 614b 6ebb 06fd 25bd 45d7 b8bf
00000190: 7254 be3c 5a0a 3fbd 23e5 fe3c 923c 003d
000001a0: 1b51 983e f895 a3bd 0f9c bb3b 0100 c4bd
000001b0: 0808 b43d fba5 a83f 26a6 5bba 889d 4d3d
000001c0: 41e4 5d3d 552f 15bd 7305 453f a162 54bb
000001d0: bc65 acbc 18f7 5fbb eeb5 23bd afcb 34bf
000001e0: 46a1 08bd 7bdb fc3c 1e8b 1b3d d455 7dbc
000001f0: 441e 01be 5b06 c73d 4b4f 533c a7b6 85bd
00000200: fdc5 45bc f04c ecbe fb4d 453d 9d1a 25bd
00000210: 556d d7bd b1e7 4bb9 cb33 11c0 7e0f 8fbd
00000220: 7527 0bbd 9456 9d3c 6f40 82bc e447 c5be
00000230: a99a d2bc c659 92bd 8a3d a4bb 64ee 59bc
00000240: adcd 043e 68d0 5e3d a5b4 78bd 2976 52bd
00000250: 3339 a23d 6cff 6bbf 46ce de3c bcff ab3c
00000260: 4fcb 503d b0c0 b83d 2569 893e d6e1 8f3d
00000270: d864 573c c7a5 b23c 7e19 93bc 1507 ca3e
00000280: e367 d1bc b9fb 70bc cf1f b0bd 9a4c df3c
00000290: a70e 163e 4db4 933d 7974 babd 933b c7bc
000002a0: 5b15 303d 67b0 0fbf f5d4 1f3d bd3f a3bd
000002b0: 5da7 cbbd e63e c13d 0f18 b9bf 06f3 a93d
000002c0: 902b 60bc ceab 82bc a9cc d63d 0fe5 cb3f
000002d0: 4fb4 253d 9cc8 753d cefb b9bb ea9d d13d
000002e0: 20d3 bb3e 4cb1 a43c 4848 a43c 0374 a4bd
000002f0: 766d 953d 29cc 6c3f 3521 a338 c991 ffbc
00000300: d5e6 e5bd 94d2 b33c d843 133e c469 9cbd
00000310: 5c78 d83d 82b9 9fbc a651 763d 6d26 1f3f
00000320: 6ec2 8cbd a3b8 263d 4eea 8fbd b738 0dbd
00000330: 7028 80be 2890 e0bd 8fa6 54bd d8ec 9c3c
00000340: 6da0 ec3c 1886 06c0 49dd c3bc af5f bf3c
00000350: a522 5bbc e789 863d e0c0 4fbf ac5b 9fbd
00000360: c172 b7bd 22bc 63bd 848f 22bd c690 2d3f
00000370: 31b0 833d 413a c23c c91e 70bd 2956 0d3d
00000380: 44bb c2be e8f8 c53c 01be 4dbd b570 0cbc
00000390: a872 a9bd 7767 cd3e 6c58 3fbd 80ea f9bd
000003a0: 3431 40bd 0c28 1c3d d519 6a3f 02d5 a2bd
000003b0: 6a8b 31bd 730b c4bd 7721 edbc 07e9 e9bf
000003c0: d2f5 813c b926 703c 4efd fd3c 2951 543d
000003d0: 19cc 95bf dca9 0f3d bcd4 cabd ed0b 95bc
000003e0: 2479 d5bc f1bd 383f 3572 62bd e213 953d
000003f0: d4fe bf3d 9cd1 5ebd 92fb e33f e2af 01be

weight_hh f4 [384, 128]
0.04764873 -0.034575783 -0.0042392584 -0.027497446 -0.016561862 0.061986737 -0.03296018 0.010485328
-0.02752048 0.08128162 0.0438534 -0.007054944 0.045459382 0.00823549 0.049772672 0.0808758
-0.10051158 0.00081502064 0.052283898 -0.06723112 0.068979815 0.03738192 0.080898255 -0.08096674
-0.082312 -0.042673282 -0.04473501 0.025840016 -0.052564763 0.001782191 0.07382939 -0.034163352
-0.032910988 0.07798701 -0.040825583 -0.013427735 -0.08093809 -0.02682458 -0.035705827 0.07118652
-0.031027647 0.084340975 0.01861578 0.010804088 -0.049618825 0.006770883 0.039181024 -0.0017413152
-0.02621615 0.012411679 -0.07874484 -0.045519456 0.008793159 0.039162833 -0.05226714 -0.015910387
-0.043739356 0.060253344 -0.045683198 -0.034511864 0.0710755 0.08942013 -0.0477622 0.090029806
0.0045721885 0.019589117 0.045583647 0.0894184 0.10299217 0.027854193 0.04608719 0.009760378
0.060701698 0.104476 -0.069905594 0.04098063 0.0030179434 -0.027371362 0.031883527 -0.028098714
0.06499273 -0.04973826 0.0665915 -0.0056916666 -0.0484297 0.055713005 0.024441132 0.036702503
0.023153944 -0.023617586 0.083614774 0.044277 -0.03041519 0.012376102 0.07876208 -0.07578297
0.04007927 -0.07870763 -0.06156014 -0.07133816 -0.05865795 0.065926574 -0.009584265 0.010389239
-0.009588829 -0.03533117 0.020363234 -0.020908084 0.039177753 -0.015879484 0.08648222 0.062008884
-0.057057165 -0.0811875 -0.060679846 -0.053695705 0.08217076 0.056890022 -0.035966717 0.032058522
0.0667564 -0.059971817 -0.06194723 -0.026672194 0.07474369 0.039993998 -0.041264422 0.075367585
-0.13106504 0.062263943 -0.09286992 -0.043437142 0.02449812 -0.015149506 0.12594053 0.07655115
-0.03815454 -0.0016986186 0.062604666 -0.005578619 0.009719332 0.007667112 -0.023631971 0.0016943124
-0.0419337 -0.08258736 -0.008138359 -0.041748837 0.015575468 -0.05173943 -0.085737586 0.06678231
-0.027541293 0.018812448 -0.028038684 0.13474339 0.0037229585 -0.029897893 0.064706 0.085955314
0.0015388321 -0.09230182 0.065801084 0.020166328 -0.033361096 -0.023005882 0.03453462 0.04917964
0.013247979 -0.011230024 -0.05838939 -0.05258624 -0.01367858 0.093724616 -0.010923956 0.038955152
-0.02139283 0.03494983 -0.08535275 0.014544717 -0.031926073 0.09121254 -0.11785343 0.018797107
0.024372673 0.06154608 -0.054727282 -0.038094025 -0.025710458 -0.045575634 0.1124487 0.06398297
-0.0061375 0.016693665 0.04745521 -0.038508154 0.10128543 -0.0016729087 -0.08123181 0.045985404
0.0061095427 -0.024941083 -0.086129785 -0.10187245 0.043301795 -0.07828485 -0.02203557 -0.032177795
-0.053632475 0.049900208 0.012422529 0.059263706 0.033034664 -0.056933057 -0.07815729 0.09150073
0.02740857 0.046915893 -0.034478016 0.047825754 0.07739263 -0.108556725 0.0848333 -0.06465306
-0.050122365 -0.037550654 -0.020280179 0.023348633 0.05937769 -0.009499564 0.0397442 0.015758969
0.07274057 -0.11618084 -0.022104101 0.04489215 -0.045455348 0.000121527475 -0.040997878 0.049788654
0.032148827 -0.08676726 0.00022123913 0.08086839 0.007880662 -0.098970704 -0.0012078623 -0.073249035
0.07859059 0.08688963 -0.01699292 0.048583694 -0.038505785 0.01798883 0.055009313 -0.073443696
00000000: 512b 433d 569f 0dbd 7ae9 8abb 5342 e1bc
00000010: beac 87bc cee5 7d3d 4101 07bd a7ca 2b3c
00000020: a172 e1bc fa76 a63d 9f9f 333d 292d e7bb
00000030: 9e33 3a3d 26ee 063c 6ede 4b3d 36a2 a53d
00000040: 04d9 cdbd 1ca7 553a a427 563d 78b0 89bd
00000050: 4a45 8d3d c91d 193d fcad a53d e4d1 a5bd
00000060: 3293 a8bd 2eca 2ebd 0f3c 37bd 71ae d33c
00000070: 264e 57bd 6898 e93a dd33 973d dfee 0bbd
00000080: accd 06bd a7b7 9f3d ba38 27bd 0100 5cbc
00000090: dfc2 a5bd 39bf dbbc 4640 12bd 3dca 913d
000000a0: b12d febc f6ba ac3d 1f80 983c a103 313c
000000b0: 1c3d 4bbd 49de dd3b 487c 203d d83c e4ba
000000c0: 40c3 d6bc 5b5a 4b3c fa44 a1bd 9c72 3abd
000000d0: 2f11 103c 3569 203d 1216 56bd 8056 82bc
000000e0: 0a28 33bd 36cc 763d 4e1e 3bbd 505c 0dbd
000000f0: 0890 913d e721 b73d 4ca2 43bd 8c61 b83d
00000100: 4cd2 953b 5b79 a03c ebb5 3a3d fe20 b73d
00000110: 8fed d23d 7a2e e43c ecc5 3c3d fee9 1f3c
00000120: 58a2 783d 83f7 d53d aa2a 8fbd 4edb 273d
00000130: b0c8 453b e839 e0bc 4d98 023d 462f e6bc
00000140: e91a 853d 59ba 4bbd 2061 883d 2981 babb
00000150: 395e 46bd 5233 643d c538 c83c 5d55 163d
00000160: 57ad bd3c ab79 c1bc 393e ab3d cd5b 353d
00000170: 4729 f9bc 22c5 4a3c 034e a13d 1a34 9bbd
00000180: 292a 243d 7731 a1bd 7c26 7cbd be19 92bd
00000190: 5243 70bd 8304 873d 5207 1dbc a037 2a3c
000001a0: 771a 1dbc 6bb7 10bd ccd0 a63c 6e47 abbc
000001b0: da78 203d b115 82bc 971d b13d 07fd 7d3d
000001c0: c6b4 69bd a245 a6bd 6e8b 78bd 07f0 5bbd
000001d0: 2549 a83d 8305 693d d651 13bd cc4f 033d
000001e0: 94b7 883d 02a5 75bd 61bc 7dbd a57f dabc
000001f0: 3813 993d bfd0 233d e204 29bd 525a 9a3d
00000200: ea35 06be 7a08 7f3d 9632 bebd 25eb 31bd
00000210: 48b0 c83c a235 78bc 8ef6 003e d9c6 9c3d
00000220: ef47 1cbd 2fa4 deba e036 803d d9cc b6bb
00000230: d53d 1f3c 663c fb3b d697 c1bc b113 de3a
00000240: acc2 2bbd 9023 a9bd c056 05bc d400 2bbd
00000250: 3f30 7f3c b9ec 53bd 3097 afbd 2ac5 883d
00000260: 479e e1bc 901c 9a3c 62b1 e5bc 2cfa 093e
00000270: e1fc 733b 6dec f4bc 9484 843d 5709 b03d
00000280: a3b2 c93a bd08 bdbd b8c2 863d db33 a53c
00000290: a5a5 08bd d576 bcbc 2c74 0d3d 9770 493d
000002a0: 0d0e 593c 22fe 37bc b729 6fbd ab64 57bd
000002b0: 1f1c 60bc b1f2 bf3d 64fa 32bc 708f 1f3d
000002c0: 0440 afbc 8e27 0f3d 6ccd aebd f74c 6e3c
000002d0: eac4 02bd a4cd ba3d 245d f1bd 64fc 993c
000002e0: 33a9 c73c be17 7c3d b729 60bd 7b08 1cbd
000002f0: bd9e d2bc 84ad 3abd 814b e63d 8109 833d
00000300: 151d c9bb 27c1 883c 6560 423d baba 1dbd
00000310: bc6e cf3d 8045 dbba dd5c a6bd 315b 3c3d
00000320: 8f32 c83b 3e51 ccbc d064 b0bd 81a2 d0bd
00000330: 395d 313d cf53 a0bd f183 b4bc ddcc 03bd
00000340: baad 5bbd 2964 4c3d dd87 4b3c 80be 723d
00000350: 5b4f 073d a332 69bd ee10 a0bd bc64 bb3d
00000360: f087 e03c e12a 403d d238 0dbd f0e4 433d
00000370: 0780 9e3d fd52 debd 15bd ad3d d368 84bd
00000380: 1c4d 4dbd b7ce 19bd 9e22 a6bc a245 bf3c
00000390: 0536 733d 0fa4 1bbc d0ca 223d f418 813c
000003a0: 02f9 943d 38f0 edbd a913 b5bc d5e0 373d
000003b0: 632f 3abd 91dc fe38 64ed 27bd 30ef 4b3d
000003c0: 7dae 033d 09b3 b1bd 6dfc 6739 549e a53d
000003d0: e41d 013c 27b1 cabd 2251 9eba 9703 96bd
000003e0: 1af4 a03d 31f3 b13d bc34 8bbc b2ff 463d
000003f0: 3eb8 1dbd 505d 933c 7251 613d a669 96bd

bias_ih f4 [384]
0.053421173 0.045920275 0.07732264 -0.07023051 0.08561893 0.107424304 0.047467314 0.011474463
0.043073654 -0.032062344 0.032415885 0.0081347665 -0.009140551 0.043175004 0.017188786 -0.010009442
0.09164188 0.055961985 -0.04709377 0.020675356 0.10101118 0.050060906 0.05564274 -0.062316597
-0.08290162 -0.016579594 0.039375857 -0.003621836 -0.04887966 -0.013844629 -0.043593932 0.03432675
0.049217246 -0.0067727976 -0.039675303 -0.008061047 0.010452336 0.07327017 0.027508391 0.045437746
-0.022066195 0.075379536 0.104579546 0.0522498 0.024250276 0.07273649 0.05372034 0.024480974
-0.07222056 -0.004740281 -0.017169552 -0.0015031961 -0.0067231525 0.020392794 -0.009587884 0.017349731
-0.080058694 0.020352092 0.047768533 -0.0605493 0.028730746 0.062129557 -0.0076374523 0.096235305
-0.11717801 -0.0027101892 -0.01930898 0.048934065 0.021441124 0.10782187 0.056002624 -0.05103149
0.028329544 0.07424717 0.032148097 0.029833961 -0.031285137 -0.0838646 0.07165781 0.017195953
0.027141571 0.02492569 0.072842866 0.005535621 0.045178834 0.056101058 0.008619898 0.10279797
-0.06689882 0.03248608 0.042066727 0.00090694847 -0.083576664 -0.072680056 0.042236283 0.050684202
0.06131656 -0.0046583507 -0.08102951 -0.03766651 0.06396951 0.08760265 -0.04036724 0.06914718
0.039165165 0.031377707 -0.053570725 -0.038079828 0.005134427 -0.06000143 0.028819425 -0.08848685
0.12740114 0.10024151 -0.032545544 -0.050492086 0.04792539 0.046161797 0.0056003453 -0.06598876
0.05175758 -0.0114306295 0.021846257 -0.01098733 -0.057225663 -0.07545554 -0.05188702 0.101683915
0.059489317 0.026327867 0.13336228 -0.04044565 -0.037607875 -0.024975967 0.005416959 -0.10606716
2.3617473e-05 -0.09017492 0.01112306 0.0011986685 0.1276312 -0.014796795 0.07216334 0.035094894
0.05941114 0.0037833164 -0.077874064 0.03794627 -0.09800309 -0.058486626 -0.08110203 0.045877196
0.03248194 0.020589745 0.122009516 -0.10304978 -0.120394334 0.067052625 0.03570004 -0.07465465
-0.12140936 -0.015138847 0.044004157 -0.0080444645 -0.092652194 -0.016098702 0.0036309538 0.005223795
-0.11975781 0.025162501 0.0048847096 -0.023417905 -0.08215927 -0.087479286 -0.042244826 0.0010495799
-0.02961183 0.02927532 -0.021870011 0.06850826 0.019881157 -0.0538822 -0.053822502 -0.09228459
0.0045135873 -0.04325217 0.00508476 0.06957774 -0.1475867 0.0084162075 0.034440506 -0.022587782
-0.045764558 -0.07775412 0.012811831 0.005835034 0.025406 -0.1107441 0.013715152 0.0019267434
0.0017289174 -0.093590744 0.06514992 -0.10465836 -0.021262161 -0.113501765 0.053296097 -0.14420773
-0.13880032 0.02453909 -0.049317528 -0.08309083 0.115778156 -0.113352194 -0.08730486 0.09128769
-0.004117343 -0.013411009 0.07500729 -0.015634565 0.012542189 -0.002825544 0.10440129 0.028858144
0.02319398 0.025163045 -0.07840591 -0.06811993 -0.045911748 0.040047687 -0.042939387 -0.00896051
0.018616593 -0.08234213 0.045533646 -0.09022978 0.018524032 0.02051752 -0.043847736 -0.093605146
0.019012596 -0.09746006 -0.10236399 -0.026899884 0.06855167 -0.10732955 -0.07241907 -0.08615576
0.06424413 -0.017493179 -0.054841947 -0.097303316 0.063163035 -0.07584076 -0.041377556 -0.15057108
00000000: 29d0 5a3d e616 3c3d 555b 9e3d 03d5 8fbd
00000010: fa58 af3d 4601 dc3d 166d 423d 63ff 3b3c
00000020: 006e 303d ce53 03bd 85c6 043d af47 053c
00000030: 40c2 15bc 46d8 303d 7fcf 8c3c a5fe 23bc
00000040: bdae bb3d 6538 653d 66e5 40bd 5d5f a93c
00000050: f3de ce3d aa0c 4d3d a4e9 633d b03f 7fbd
00000060: 53c8 a9bd eed1 87bc 9448 213d 535c 6dbb
00000070: 0a36 48bd 95d4 62bc 8d8f 32bd 359a 0c3d
00000080: 0698 493d 58ee ddbb 9282 22bd 7b12 04bc
00000090: 4640 2b3c ac0e 963d 4759 e13c ee1c 3a3d
000000a0: 2ac4 b4bc 9660 9a3d cd2d d63d e303 563d
000000b0: 84a8 c63c def6 943d dc09 5c3d 538c c83c
000000c0: 5fe8 93bd 5c54 9bbb 29a7 8cbc e406 c5ba
000000d0: e44d dcbb ca0e a73c 8016 1dbc 0621 8e3c
000000e0: d0f5 a3bd 6eb9 a63c f0a8 433d 8b02 78bd
000000f0: be5c eb3c 907b 7e3d 9843 fabb 0417 c53d
00000100: 06fb efbd 6e9d 31bb de2d 9ebc 166f 483d
00000110: 4ca5 af3c b6d1 dc3d 0263 653d 6506 51bd
00000120: 5c13 e83c e60e 983d b9ad 033d 5a66 f43c
00000130: d824 00bd 34c1 abbd 54c1 923d 87de 8c3c
00000140: 0058 de3c f630 cc3c a42e 953d 2864 b53b
00000150: 710d 393d 39ca 653d 793a 0d3c be87 d23d
00000160: 4002 89bd 2010 053d 294e 2c3d 48c0 6d3a
00000170: 3e2a abbd 48d9 94bd f4ff 2c3d 3d9a 4f3d
00000180: 1327 7b3d 14a5 98bb cdf2 a5bd 3348 1abd
00000190: 7202 833d 0569 b33d 1e58 25bd 099d 8d3d
000001a0: a76b 203d e985 003d fa6c 5bbd 98f9 1bbd
000001b0: b23e a83b 0fc4 75bd b716 ec3c 9838 b5bd
000001c0: 7275 023e 6c4b cd3d 7a4e 05bd cad0 4ebd
000001d0: 6a4d 443d 2714 3d3d 1a83 b73b 1d25 87bd
000001e0: c2ff 533d 8947 3bbc ecf6 b23c 3404 34bc
000001f0: 7565 6abd 6f88 9abd 7c87 54bd a83f d03d
00000200: 12ab 733d 8aad d73c 1f90 083e 57aa 25bd
00000210: b70a 1abd 669a ccbc bf80 b13b bd39 d9bd
00000220: 231e c637 a1ad b8bd 7f3d 363c a41c 9d3a
00000230: c1b1 023e 426e 72bc 60ca 933d aabf 0f3d
00000240: 1859 733d 84f1 773b 707c 9fbd 8c6d 1b3d
00000250: d8b5 c8bd ac8f 6fbd d218 a6bd bae9 3b3d
00000260: c80b 053d d3ab a83c 20e0 f93d c30b d3bd
00000270: 4e91 f6bd e352 893d 353a 123d 8ae4 98bd
00000280: 78a5 f8bd ed08 78bc b43d 343d eecc 03bc
00000290: 6fc0 bdbd 6de1 83bc 4cf5 6d3b 5e2c ab3b
000002a0: 9543 f5bd 9721 ce3c ea0f a03b e8d6 bfbc
000002b0: 1f43 a8bd 5728 b3bd e908 2dbd 0f92 893a
000002c0: 8294 f2bc ccd2 ef3c bd28 b3bc 0f4e 8c3d
000002d0: cfdd a23c 95b3 5cbd fc74 5cbd b4ff bcbd
000002e0: b7e6 933b 3029 31bd 0f9e a63b c67e 8e3d
000002f0: f820 17be 22e4 093c 7d11 0d3d 030a b9bc
00000300: 9e73 3bbd 8d3d 9fbd b7e8 513c d033 bf3b
00000310: 3e20 d03c cdcd e2bd 84b5 603c c88a fc3a
00000320: d79c e23a 81ac bfbd 526d 853d 1f57 d6bd
00000330: fc2d aebc 9d73 e8bd 024d 5a3d 31ab 13be
00000340: ac21 0ebe 3406 c93c 2d01 4abd 862b aabd
00000350: 191d ed3d 3225 e8bd e4cc b2bd 0af5 ba3d
00000360: c7ea 86bb d9b9 5bbc 6c9d 993d 0f14 80bc
00000370: c17d 4d3c c32c 39bb 58d0 d53d ea67 ec3c
00000380: 4d01 be3c bb22 ce3c 4793 a0bd 7682 8bbd
00000390: f50d 3cbd 0b09 243d 36e1 2fbd 1acf 12bc
000003a0: d381 983c fea2 a8bd 7d81 3a3d 64ca b8bd
000003b0: b6bf 973c 5c14 a83c af99 33bd 0eb4 bfbd
000003c0: 4ec0 9b3c 2499 c7bd 36a4 d1bd 255d dcbc
000003d0: d164 8c3d 98cf dbbd 7350 94bd 6e72 b0bd
000003e0: 6d92 833d db4d 8fbc f3a1 60bd f646 c7bd
000003f0: 9f5b 813d 6652 9bbd 837b 29bd 4e2f 1abe

bias_hh f4 [384]
0.03677585 -0.037477624 -0.024412017 -0.06857861 0.06887532 0.06933599 0.06171614 -0.07839853
-0.07763874 0.04474296 0.018381389 0.031659577 -0.14017697 0.105565265 0.054527458 0.11150222
0.12792608 -0.00494322 0.031351414 -0.052128684 0.06782717 0.020992124 0.03409404 -0.03230133
0.022963619 -0.039580382 -0.08618055 -0.022633778 -0.037425384 0.02275902 0.0054145926 -0.0037827592
0.08021456 0.00545871 0.033606935 0.060229555 0.06594793 0.062420044 0.00815841 -0.027395666
-0.11588545 0.05703524 0.10450921 -0.056370243 -0.04896647 -0.0563084 0.049779225 0.060648862
-0.04360374 -0.08185359 -0.05899754 -0.0044425223 0.054501623 0.07693573 -0.092361584 -0.053984385
0.02107755 -0.04278571 0.07386062 -0.08075973 0.0013204972 0.034083217 0.023349393 0.030537805
0.041319482 0.09744167 0.02878671 -0.043875422 0.009645802 0.06517783 0.018899761 0.03859168
-0.038828235 0.027463421 -0.008281491 -0.04186632 0.045646362 -0.0002178655 0.088027954 -0.040527634
-0.00042538848 -0.06368491 0.0036903329 0.07205568 -0.026312668 0.07283607 0.030317351 0.096412204
0.096090704 -0.09316665 -0.04555626 -0.064442955 -0.009363406 -0.09656498 0.043353967 -0.06436351
0.014089496 -0.06478264 -0.097065106 0.09876832 0.11243567 0.061629836 -0.037053563 0.07922525
-0.008772071 -0.07587066 0.02749369 0.11888623 -0.0010953905 0.00019385241 -0.07980119 -0.032439463
-0.027128648 0.022848336 -0.055923983 -0.018092247 -0.07857025 0.02799404 0.11644789 -0.005960795
0.09709836 -0.036407936 0.047377773 0.054955713 -0.0033890782 -0.012875523 -0.08103691 0.058817092
0.07641816 -0.043281548 0.015521543 0.082383424 -0.06564633 -0.09884501 -0.09262047 -0.05238863
-0.07248084 0.009826265 -0.10118498 -0.027224064 0.05006012 -0.04660293 0.017693516 -0.11049781
-0.020425629 -0.06509649 -0.09252679 -0.02041058 -0.08279705 -0.00389132 -0.049130924 -0.11108185
-0.09037239 -0.013740173 0.0556191 -0.100404315 0.03066953 -0.09014986 -0.022378568 -0.028928183
-0.009410002 -0.06585322 -0.069972515 0.002219659 -0.054751627 -0.056537744 -0.11024407 -0.021195319
0.033412997 -0.042326275 -0.08515006 0.022957379 0.002663647 0.03886846 0.06372255 -0.045231946
-0.063941926 -0.06632676 -0.012349199 0.0065261438 -0.024843754 0.042290762 -0.011612162 0.048584733
0.059258107 -0.04565143 0.03337323 0.04775096 -0.09753862 0.012113171 -0.118092254 -0.04161036
-0.0022245825 0.031980887 -0.005194351 -0.06483161 0.03458098 0.0414721 -0.07681851 -0.0067409803
0.016449196 -0.09766834 0.066370755 0.025728406 0.017677361 -0.020193173 0.009017 -0.070602894
-0.05411673 -0.09724794 0.04992102 0.024811743 -0.019082543 0.01818912 -0.002434704 -0.0394236
-0.022721363 0.065035574 -0.033462793 0.06697567 -0.0022341954 -0.10196321 0.030256921 -0.053453084
0.03479626 -0.03092069 -0.053695373 -0.08033853 -0.12181854 -0.095960975 0.02871836 -0.017784495
-0.09080939 -0.07746699 -0.08759089 -0.05178067 -0.11469854 0.021710476 -0.012536302 -0.0863988
-0.06432416 -0.071448244 0.0016412558 0.07762271 -0.021881288 -0.08492196 -0.08146461 0.0018055553
0.035989556 0.005864593 -0.04880067 -0.049032908 -0.031653076 0.0020800366 -0.049967814 -0.13647956
00000000: 46a2 163d 2382 19bd b6fb c7bc f172 8cbd
00000010: 810e 8d3d 0700 8e3d 10ca 7c3d 698f a0bd
00000020: 0f01 9fbd 6544 373d 9194 963c 79ad 013d
00000030: 8d8a 0fbe 9a32 d83d 2f58 5f3d 475b e43d
00000040: 0eff 023e bcfa a1bb 576a 003d e384 55bd
00000050: f9e8 8a3d adf7 ab3c 31a6 0b3d 664e 04bd
00000060: 331e bc3c 0a1f 22bd 6e7f b0bd 796a b9bc
00000070: 5c4b 19bd 2071 ba3c e56c b13b 2be8 77bb
00000080: 8847 a43d fade b23b 6da7 093d 44b3 763d
00000090: b50f 873d 29ac 7f3d daaa 053c e06c e0bc
000000a0: 5a55 edbd c99d 693d ed08 d63d 7ce4 66bd
000000b0: 1191 48bd a3a3 66bd 4de5 4b3d f16a 783d
000000c0: d699 32bd dba2 a7bd 68a7 71bd 9492 91bb
000000d0: 183d 5f3d 7b90 9d3d 1228 bdbd bb1e 5dbd
000000e0: d3aa ac3c 1240 2fbd 3d44 973d 5b65 a5bd
000000f0: 8914 ad3a d89a 0b3d 3a47 bf3c 6b2a fa3c
00000100: 9e3e 293d 808f c73d 1bd2 eb3c b7b6 33bd
00000110: 6d09 1e3c f47b 853d acd3 9a3c 4f12 1e3d
00000120: 5b0a 1fbd f8fa e03c 17af 07bc 057c 2bbd
00000130: aef7 3a3d d372 64b9 0048 b43d 4e00 26bd
00000140: ad06 dfb9 3c6d 82bd 83d9 713b ee91 933d
00000150: aa8d d7bc 142b 953d 185c f83c c373 c53d
00000160: 34cb c43d 28ce bebd 3399 3abd abfa 83bd
00000170: f968 19bc dcc3 c5bd ee93 313d 04d1 83bd
00000180: a1d7 663c c3ac 84bd 12ca c6bd 0c47 ca3d
00000190: ac44 e63d 916f 7c3d 7ac5 17bd d940 a23d
000001a0: bcb8 0fbc 1462 9bbd 723a e13c a07a f33d
000001b0: 3593 8fba dc44 4b39 ce6e a3bd 3edf 04bd
000001c0: e63c debc 6f2c bb3c 8c10 65bd 3136 94bc
000001d0: 70e9 a0bd c253 e53c 3b7c ee3d c652 c3bb
000001e0: 81db c63d 7d20 15bd 320f 423d 3e19 613d
000001f0: 4c1b 5ebb dcf3 52bc aef6 a5bd 31ea 703d
00000200: 2081 9c3d fe47 31bd 124e 7e3c a4b8 a83d
00000210: 9571 86bd 416f cabd cdaf bdbd 7695 56bd
00000220: d670 94bd 58fe 203c 123a cfbd 0005 dfbc
00000230: d70b 4d3d b7e2 3ebd fef1 903c ad4c e2bd
00000240: a653 a7bc 4f51 85bd b07e bdbd 1734 a7bc
00000250: 8091 a9bd 8405 7fbb 823d 49bd e27e e3bd
00000260: 2915 b9bd 761e 61bc dad0 633d c7a0 cdbd
00000270: ab3e fb3c 7da0 b8bd 4253 b7bc ccfa ecbc
00000280: 692c 1abc 0ede 86bd c04d 8fbd b377 113b
00000290: 3e43 60bd 1f94 67bd a5c7 e1bd cea1 adbc
000002a0: 11dc 083d 515e 2dbd 2863 aebd 1d11 bc3c
000002b0: 9590 2e3b 8934 1f3d f880 823d 2245 39bd
000002c0: fcf3 82bd 53d6 87bd 4b54 4abc 43d9 d53b
000002d0: 2185 cbbc 1439 2d3d f040 3ebc c900 473d
000002e0: a1b8 723d fefc 3abd 5eb2 083d 8396 433d
000002f0: 54c2 c7bd 5276 463c 5ada f1bd a06f 2abd
00000300: 4dca 11bb 64fe 023d 6035 aabb 6fc6 84bd
00000310: c9a4 0d3d a6de 293d 0653 9dbd 71e3 dcbb
00000320: 77c0 863c 5706 c8bd 64ed 873d 61c4 d23c
00000330: 1dd0 903c 276c a5bc 0abc 133c 4098 90bd
00000340: 81a9 5dbd ee29 c7bd fc79 4c3d ff41 cb3c
00000350: fe52 9cbc 5901 953c 8e8f 1fbb a47a 21bd
00000360: 2722 babc 5f31 853d 4810 09bd 8a2a 893d
00000370: 946b 12bb 16d2 d0bd 5ddd f73c 9ff1 5abd
00000380: 8686 0e3d 634d fdbc aeef 5bbd 8788 a4bd
00000390: 007c f9bd 3087 c4bd c442 eb3c cab0 91bc
000003a0: 46fa b9bd 03a7 9ebd da62 b3bd f817 54bd
000003b0: 11e7 eabd 2bda b13c 1065 4dbc dbf1 b0bd
000003c0: 63bc 83bd 7553 92bd 681f d73a a8f8 9e3d
000003d0: 6340 b3bc 91eb adbd ebd6 a6bd 62a8 ec3a
000003e0: c969 133d c62b c03b 36e3 47bd bbd6 48bd
000003f0: a8a6 01bd 3951 083b 0dab 4cbd 4cc1 0bbe

weight f4 [128, 128]
0.018433254 -0.0126944585 0.022775406 -0.11017308 -0.0049469387 0.11381539 -0.02566301 0.11321738
-0.0877977 -0.068363376 0.09505694 -0.07516358 -0.047146242 0.10411319 -0.1061695 -0.004566639
0.019855848 -0.033813875 -0.009606742 0.046354633 0.043427225 0.091251045 -0.111228704 0.032130018
-0.01678721 0.0814639 -0.019112451 0.05292598 0.0076306476 -0.01767728 0.0002301294 -0.0313645
0.039546095 -0.12480116 -0.035448834 -0.04429929 0.0062985243 -0.02959477 -0.07203363 -0.033280235
-0.0004995293 0.0056343265 0.021306137 -0.12088439 0.051942028 -0.008241936 0.027921215 0.015056763
0.030550031 -0.033578318 -0.05022406 0.036505975 0.0018137379 -0.06994752 -0.016807191 -0.095906734
0.0036100722 0.064546496 -0.055435076 0.023880243 -0.09657986 0.061943084 0.06116531 0.04954261
0.03429054 -0.037156753 0.058392283 0.02512269 -0.0052503794 -0.08226523 -0.014743183 -0.015806759
0.033088874 0.121684775 -0.0815481 -0.033487365 -0.035306457 -0.042595197 0.111209735 -0.07550947
-0.046606824 0.03448662 -0.076027244 -0.04560686 0.0493852 0.116011485 0.013380987 0.082703635
-0.019066582 -0.0051970156 -0.0509569 0.05471694 0.019565566 0.061084636 0.053047515 0.12550718
-0.026247669 -0.07956118 -0.027300667 0.0042205104 0.047912605 -0.13567083 0.061292045 0.033183314
0.0656317 -0.10053171 0.0152954785 0.084173284 -0.061476022 -0.029027678 -0.028196523 0.035845775
-0.13108683 -0.12127051 0.0043117483 -0.07246853 0.014920743 0.035197843 0.08115702 -0.08978799
-0.0110113295 0.034780838 0.060737524 0.019550068 -0.01131976 0.04222001 -0.032825246 -0.074256726
-0.060152777 0.026274575 -0.057503927 -0.013604434 0.1118366 -0.06636383 0.028327396 0.10850258
0.05203509 0.038519256 -0.052279126 -0.00905628 0.07149442 0.02159425 0.0988418 -0.009780147
0.07647341 -0.04733195 -0.039480846 -0.030708717 -0.0069042007 0.042105004 0.019049894 0.0483981
-0.0125904195 -0.0030131282 0.02928626 -0.013935496 -0.018792117 0.033421565 0.03551864 0.014674934
-0.060119867 -0.029342528 -0.031759232 -0.04218478 0.032539096 -0.015037815 0.0035304527 -0.065217465
0.030535016 0.029454412 -0.043009244 -0.08977705 0.08753616 0.06539065 0.055367023 0.024044087
-0.07852429 -0.07077143 0.036504596 0.035847377 -0.0055331704 -0.056418452 0.073547706 0.029316505
-0.013962471 -0.055476107 -0.101676255 0.07445802 0.045111135 0.021279005 -0.02395775 0.036100432
0.05821093 -0.03617136 -0.019033687 -0.060716294 0.04007571 -0.1000458 -0.04123538 -0.047529068
-0.0675813 -0.025609376 0.030449623 0.072686486 0.058790732 -0.06340934 0.004959896 -0.025212634
-0.043301366 0.035340745 0.058071118 -0.06974757 -0.04938372 -0.04651335 -0.04526492 -0.032519102
0.010870648 0.084308654 -0.060921706 -0.0643538 0.041325506 -0.023934849 0.0064504957 0.058103766
-0.060464904 -0.02734846 -0.0071546547 0.03292489 -0.052911427 0.035200465 0.083472654 0.02902953
-0.04718339 -0.014737792 -0.036742184 0.000211906 0.0376924 0.007870279 0.038396344 -0.024508629
0.05855152 -0.031475127 -0.0070310095 0.088294804 0.04342364 0.07073869 -0.006607943 -0.024919728
0.040441096 0.07337574 0.09974451 0.015268196 -0.027161015 0.06818808 -0.12152261 0.042222008
00000000: 5601 973c 6bfc 4fbc 7d93 ba3c 6ca2 e1bd
00000010: ee19 a2bb 0b18 e93d 3c3b d2bc 84de e73d
00000020: 48cf b3bd 1902 8cbd 37ad c23d 5def 99bd
00000030: 6b1c 41bd 4c39 d53d 656f d9bd bfa3 95bb
00000040: bba8 a23c 6b80 0abd 9965 1dbc 5bde 3d3d
00000050: bfe0 313d d4e1 ba3d e0cb e3bd c49a 033d
00000060: 5585 89bc 8cd6 a63d b791 9cbc eac8 583d
00000070: 830a fa3b f1cf 90bc e44e 7139 1078 00bd
00000080: 16fb 213d c097 ffbd cc32 11bd 2c73 35bd
00000090: da63 ce3b bb70 f2bc 5e86 93bd db50 08bd
000000a0: d8f2 02ba 28a0 b83b 358a ae3c 3c92 f7bd
000000b0: 2ac1 543d 2f09 07bc 08bb e43c a4b0 763c
000000c0: 0f44 fa3c 6b89 09bd beb7 4dbd 4a87 153d
000000d0: f2ba ed3a a540 8fbd 3caf 89bc c06a c4bd
000000e0: f696 6c3b f430 843d e40f 63bd 80a0 c33c
000000f0: a9cb c5bd 08b8 7d3d 7a88 7a3d 31ed 4a3d
00000100: 3d74 0c3d ae31 18bd bf2c 6f3d 19ce cd3c
00000110: 600b acbb ac7a a8bd 648d 71bc 2d7d 81bc
00000120: 3388 073d de35 f93d b102 a7bd 0c2a 09bd
00000130: 819d 10bd 4d78 2ebd eec1 e33d b6a4 9abd
00000140: cce6 3ebd d841 0d3d 2cb4 9bbd 42ce 3abd
00000150: 2348 4a3d 6e97 ed3d ed3b 5b3c 8660 a93d
00000160: 8531 9cbc ba4b aabb 2fb8 50bd df1e 603d
00000170: f747 a03c e233 7a3d 5a48 593d f484 003e
00000180: 5a05 d7bc f9f0 a2bd a6a5 dfbc 354c 8a3b
00000190: 0240 443d 4bed 0abe 5e0d 7b3d 3aeb 073d
000001a0: ea69 863d 92e3 cdbd e399 7a3c 0b63 ac3d
000001b0: 48ce 7bbd 74cb edbc 65fc e6bc 05d3 123d
000001c0: a03b 06be ac5c f8bd 9149 8d3b 616a 94bd
000001d0: 2276 743c 9d2b 103d a735 a63d c4e2 b7bd
000001e0: dd68 34bc 5a76 0e3d e9c7 783d 7727 a03c
000001f0: 8476 39bc e4ee 2c3d c473 06bd e913 98bd
00000200: c262 76bd c73d d73c 3d89 6bbd 22e5 5ebc
00000210: 960a e53d c2e9 87bd db0e e83c 9a36 de3d
00000220: bf22 553d 5ec6 1d3d a322 56bd cb60 14bc
00000230: ab6b 923d 6de6 b03c 926d ca3d e93c 20bc
00000240: 179e 9c3d 26df 41bd abb6 21bd d990 fbbc
00000250: a23c e2bb 4c76 2c3d 860e 9c3c 163d 463d
00000260: 0c48 4ebc e777 45bb bde9 ef3c b551 64bc
00000270: edf1 99bc 0de5 083d fe7b 113d 226f 703c
00000280: 4040 76bd be5f f0bc f815 02bd f3c9 2cbd
00000290: b747 053d 2b61 76bc 2b5f 673b bc90 85bd
000002a0: 9224 fa3c 614a f13c 762a 30bd 08dd b7bd
000002b0: 2946 b33d 88eb 853d 88c8 623d 1bf8 c43c
000002c0: 58d1 a0bd 9df0 90bd d885 153d b3d4 123d
000002d0: 994f b5bb 0917 67bd 2ea0 963d 2b29 f03c
000002e0: d9c2 64bc ea3a 63bd a43b d0bd 727d 983d
000002f0: 74c6 383d 4f51 ae3c 0b43 c4bc 0cde 133d
00000300: 966e 6e3d 6c28 14bd 89ec 9bbc a6b1 78bd
00000310: 6d26 243d d0e4 ccbd 6ee6 28bd d7ad 42bd
00000320: 1168 8abd c1ca d1bc 7d71 f93c a7dc 943d
00000330: 8dce 703d c2dc 81bd a086 a23b ba8a cebc
00000340: c65c 31bd 75c1 103d fbdb 6d3d d0d7 8ebd
00000350: 9546 4abd c884 3ebd b567 39bd c032 05bd
00000360: cd1a 323c 04aa ac3d 0a89 79bd edcb 83bd
00000370: ef44 293d 0413 c4bc ae5e d33b 37fe 6d3d
00000380: 0caa 77bd e109 e0bc 9871 eabb 40dc 063d
00000390: a7b9 58bd 5d2e 103d b6f3 aa3d 56cf ed3c
000003a0: 5f43 41bd c876 71bc f97e 16bd 1533 5e39
000003b0: 5963 1a3d 58f2 003c 7c45 1d3d 52c6 c8bc
000003c0: b8d3 6f3d 10ec 00bd 6264 e6bb e8d3 b43d
000003d0: fddc 313d 72df 903d 7287 d8bb 7524 ccbc
000003e0: 90a5 253d 0546 963d da46 cc3d 7527 7a3c
000003f0: c780 debc 31a6 8b3d d9e0 f8bd fcf0 2c3d

bias f4 [128]
-0.098129265 0.031013172 0.08908844 0.027841764 0.012455238 0.0322593 0.060114473 0.03414983
-0.16758974 -0.0056165224 -0.12882273 -0.008348187 -0.03428439 -0.12518223 -0.06695367 -0.12040517
-0.004862708 -0.077548295 0.10890055 -0.14049469 0.057298288 0.14105473 -0.01537383 -0.10465746
0.10718502 -0.007538403 -0.13106403 -0.16158041 -0.1308292 -0.14793421 0.07951897 -0.10862263
-0.04844236 0.022671899 -0.016328977 0.07949687 -0.0617219 0.03827528 -0.033788048 -0.047080263
-0.0038642061 0.084746405 -0.065431744 -0.159616 -0.0468846 0.041716486 -0.08832138 -0.13094817
0.09313305 -0.15428308 -0.059736487 -0.0376755 -0.12452154 -0.03050746 -0.12780343 0.042632878
-0.010168218 -0.012776206 -0.1086491 -0.09113288 -0.020914575 -0.08021019 -0.04814843 -0.08983171
-0.11108073 -0.14970587 -0.035821468 0.010310146 -0.09682969 -0.032863453 -0.05492384 0.03951078
-0.09174459 -0.028992299 0.009110146 -0.17971483 0.004979808 -0.035154928 -0.012115268 -0.014970517
-0.03333015 0.07565394 -0.010013235 -0.13052517 -0.11388918 -0.082986 -0.015654983 0.089226775
-0.16989705 -0.07764938 -0.13503283 0.11772198 0.068646215 0.06496287 -0.07859773 -0.08832127
-0.11303697 0.06345977 -0.015530836 -0.068808146 -0.1067133 0.08624244 -0.06840766 -0.05892578
-0.060913768 -0.07616891 0.058373556 -0.02661697 -0.1204895 -0.08668044 -0.064744696 -0.15479818
0.0036695255 -0.16474369 0.092486754 -0.05772827 -0.1150716 0.033264138 -0.09506179 -0.15245219
-0.10262894 -0.1383426 -0.11756063 -0.060154013 -0.10843844 -0.11575123 0.1107528 -0.16055009
00000000: fff7 c8bd 560f fe3c 0074 b63d 6914 e43c
00000010: 0e11 4c3c 5422 043d 983a 763d b1e0 0b3d
00000020: a59c 2bbe ce0a b8bb 1bea 03be d6c6 08bc
00000030: ca6d 0cbd c52f 00be 011f 89bd fc96 f6bd
00000040: 5a57 9fbb a4d1 9ebd 4007 df3d d7dd 0fbe
00000050: 9cb1 6a3d a770 103e 84e2 7bbc a656 d6bd
00000060: d283 db3d b504 f7bb a635 06be 5675 25be
00000070: 17f8 05be 117c 17be d7da a23d 8b75 debd
00000080: 7f6b 46bd 6bba b93c 59c4 85bc 41cf a23d
00000090: 1ad0 7cbd 8ac6 1c3d 5665 0abd 3cd7 40bd
000000a0: 9f3e 7dbb 868f ad3d 1401 86bd 6072 23be
000000b0: 110a 40bd e8de 2a3d d7e1 b4bd 4717 06be
000000c0: 8abc be3d 62fc 1dbe 3fae 74bd a051 1abd
000000d0: 2605 ffbd c8ea f9bc e7de 02be d09f 2e3d
000000e0: 9998 26bc 4b53 51bc 6b83 debd e0a3 babd
000000f0: 0b55 abbc 3d45 a4bd 4a37 45bd b0f9 b7bd
00000100: 4b7e e3bd 7f4c 19be 88b9 12bd e3eb 283c
00000110: a54e c6bd d49b 06bd d2f7 60bd 0ed6 213d
00000120: 96e4 bbbd 4281 edbc b942 153c 2a07 38be
00000130: a82d a33b 9dfe 0fbd 1e7f 46bc e646 75bc
00000140: 3285 08bd 74f0 9a3d 8d0e 24bc 64a8 05be
00000150: bb3e e9bd 90f4 a9bd e13e 80bc 87bc b63d
00000160: 7ef9 2dbe a306 9fbd 0c46 0abe 3918 f13d
00000170: 6396 8c3d 410b 853d d9f7 a0bd c8e1 b4bd
00000180: ed7f e7bd 32f7 813d 0c75 7ebc 49eb 8cbd
00000190: 818c dabd e09f b03d 5119 8cbd 295c 71bd
000001a0: b780 79bd 72fe 9bbd 1c19 6f3d d50b dabc
000001b0: 33c3 f6bd 8485 b1bd de98 84bd 6a83 1ebe
000001c0: 6c7c 703b 92b2 28be b269 bd3d 7a74 6cbd
000001d0: a9aa ebbd fa3f 083d c1af c2bd 6d1c 1cbe
000001e0: 1f2f d2bd afa9 0dbe a1c3 f0bd 0e64 76bd
000001f0: f914 debd fb0e edbd 5dd2 e23d 3e67 24be

weight f4 [128, 128]
-0.05483691 0.032534424 -0.10627435 -0.024465375 -0.06766481 0.052928243 0.069396116 -0.06348717
-0.013160233 -0.11339686 0.0047482518 -0.09778122 0.054398317 -0.040902253 0.050556358 0.094486535
-0.0779999 0.036535326 0.07720647 0.07971723 0.08849836 -0.09697252 0.051058076 -0.056588672
0.04278289 -0.11295017 -0.038350683 -0.034795485 0.0040023495 0.035040498 -0.05481823 0.024042128
0.05494108 -0.008849524 -0.07544624 0.0527944 -0.033314135 0.039228667 0.022582555 0.04303571
0.005985055 0.06738377 0.08246981 0.089052804 -0.029104007 -0.09451398 0.08369019 -0.03174449
0.07187657 0.10599779 -0.0118636275 0.06845107 -0.00536669 -0.059101634 0.104037106 -0.0035357706
0.07395032 0.086544335 0.0023776644 -0.012046749 -0.1182924 0.013496716 0.048579093 -0.08705165
-0.016011907 0.10450297 -0.053426813 -0.014393793 0.045507364 0.042503286 -0.024242185 0.03391393
-0.06829109 -0.044762734 -0.036732867 -0.004741833 -0.0819957 0.063350745 -0.007590963 -0.02491435
-0.044412337 -0.048457358 0.095164396 -0.034979753 0.021292081 -0.0032467598 0.027662395 0.09152423
0.042077303 0.013013052 0.038407356 -0.06261388 0.020140944 -0.009391968 0.0029055835 0.041582994
-0.03847235 -0.0008658908 -0.020132521 -0.062448118 0.045649547 0.031900644 0.06658906 0.04225541
-0.0076645897 0.05513408 -0.07008694 0.047442075 0.056273323 0.034463458 -0.0047361515 -0.029765524
-0.08168044 -0.05485313 -0.07175229 0.04920785 -0.017373664 -0.062609784 -0.06255078 0.09559855
-0.0021875512 -0.022223813 0.07736916 0.09043914 0.06680473 0.054949734 0.043339826 0.089780144
-0.040915612 0.054115985 0.061464578 -0.06479757 0.033340562 0.0396667 0.057525862 -0.06555995
-0.07598875 0.037045907 -0.07323855 0.012726734 0.052219965 -0.07763191 -0.00015390222 0.0311233
-0.055877537 0.0124322595 0.044913698 0.044086613 0.06857479 -0.008985401 0.015260286 0.00013202935
0.04833445 0.020564903 -0.04401541 -0.053858392 -0.019050524 -0.092424266 -0.06742148 -0.035568327
-0.056866027 -0.09040521 -0.030644372 -0.047443382 -0.035886846 -0.06526254 -0.07188158 0.0812795
-0.07067969 0.054169614 -0.03968295 0.018840685 -0.09300418 -0.021128353 0.007597848 0.05845997
0.08781315 0.063749604 0.031011747 -0.08306317 0.02838177 0.054834887 0.06877663 -0.011146814
0.083534345 0.05172945 0.09749152 -0.06542494 0.048067164 0.030935906 -0.032741774 0.01378373
-0.017789977 0.06697556 0.06794374 0.02805963 -0.04804027 0.03700691 0.06644636 0.02358094
0.116849735 -0.048744887 0.05830937 0.059299186 0.0043093655 0.053330343 0.02196244 -0.078945085
0.0014945667 -0.10126433 -0.014716247 0.09466008 -0.08264164 0.028828079 -0.044589993 -0.04481999
-0.061663248 -0.014299529 -0.042485535 -0.0027169003 -0.04372927 0.04974029 -0.04806444 0.07039676
-0.08281642 0.0100148935 0.10383274 -0.030396739 -0.045672793 0.08945102 -0.053918347 0.06499938
-0.008248247 -0.063571386 0.03626811 0.05157155 0.023200907 -0.021457717 -0.048457023 -0.012754578
0.06582603 -0.07514525 0.002556989 -0.044389468 0.073107064 -0.06704618 -0.041287478 0.06803531
0.022838106 -0.054571565 -0.019846376 -0.046390235 0.02073855 -0.022384936 0.09951578 0.042901076
00000000: ab9c 60bd d142 053d 5ea6 d9bd 9c6b c8bc
00000010: d993 8abd 49cb 583d 8d1f 8e3d 9005 82bd
00000020: 059e 57bc 9d3c e8bd 3997 9b3b 8541 c8bd
00000030: c5d0 5e3d 1f89 27bd 2f14 4f3d 2882 c13d
00000040: 69be 9fbd 11a6 153d 6d1e 9e3d c942 a33d
00000050: a13e b53d 8799 c6bd 4622 513d 86c9 67bd
00000060: 1d3d 2f3d 6b52 e7bd 9b15 1dbd b685 0ebd
00000070: 2426 833b a086 0f3d 1589 60bd fff3 c43c
00000080: e609 613d 98fd 10bc 8f83 9abd f13e 583d
00000090: 6774 08bd 3dae 203d 0dff b83c 3646 303d
000000a0: 481e c43b 8100 8a3d efe5 a83d 5161 b63d
000000b0: 876b eebc 8c90 c1bd c365 ab3d 8306 02bd
000000c0: 0634 933d 5f15 d93d a95f 42bc 1330 8c3d
000000d0: 0fdb afbb 8e14 72bd 6811 d53d 63b8 67bb
000000e0: 4473 973d 283e b13d 97d2 1b3b ba5f 45bc
000000f0: 4943 f2bd 5421 5d3c dffa 463d 2348 b2bd
00000100: 672b 83bc a705 d63d 13d6 5abd f2d3 6bbc
00000110: ee65 3a3d ed17 2e3d 8c97 c6bc 55e9 0a3d
00000120: 33dc 8bbd 2159 37bd 3475 16bd 6161 9bbb
00000130: 5ded a7bd 09be 813d 9dbd f8bb 2e19 ccbc
00000140: b6e9 35bd 397b 46bd 8de5 c23d ee46 0fbd
00000150: bb6c ae3c 97c7 54bb 3f9c e23c 0e71 bb3d
00000160: 4059 2c3d b234 553c 0851 1d3d b53b 80bd
00000170: 9ffe a43c c5e0 19bc 9a6b 3e3b ee52 2a3d
00000180: 2f95 1dbd f3fc 62ba f5ec a4bc 99c9 7fbd
00000190: 05fb 3a3d 40aa 023d d85f 883d 0214 2d3d
000001a0: 3d27 fbbb 46d4 613d be89 8fbd 9f52 423d
000001b0: db7e 663d 8e29 0d3d b831 9bbb d4d6 f3bc
000001c0: 1348 a7bd adad 60bd ddf2 92bd 2c8e 493d
000001d0: 3753 8ebc 8f39 80bd a01a 80bd 2cc9 c33d
000001e0: 055d 0fbb b70e b6bc b973 9e3d 2838 b93d
000001f0: ebd0 883d f912 613d 1a85 313d a7de b73d
00000200: 2197 27bd b9a8 5d3d 48c2 7b3d 97b4 84bd
00000210: 1d90 083d 8d79 223d 3da0 6b3d 4c44 86bd
00000220: fd9f 9bbd 73bd 173d 18fe 95bd cb83 503c
00000230: 9ae4 553d 7bfd 9ebd d060 21b9 4af6 fe3c
00000240: d8df 64bd adb0 4b3c 6df7 373d 2a94 343d
00000250: f170 8c3d 8137 13bc 4706 7a3c 5c71 0a39
00000260: 58fa 453d ba77 a83c 8149 34bd 9e9a 5cbd
00000270: d80f 9cbc ef48 bdbd 4614 8abd 18b0 11bd
00000280: 5aec 68bd 5e26 b9bd e809 fbbc fe53 42bd
00000290: 16fe 12bd 5ea8 85bd a636 93bd de75 a63d
000002a0: 83c0 90bd f5e0 5d3d 978a 22bd c857 9a3c
000002b0: fa78 bebd 5e15 adbc 5ef7 f83b b973 6f3d
000002c0: 61d7 b33d 278f 823d 590c fe3c 061d aabd
000002d0: e380 e83c 8c9a 603d c3da 8c3d 20a1 36bc
000002e0: 0e14 ab3d 42e2 533d a2a9 c73d 83fd 85bd
000002f0: 13e2 443d 4c6d fd3c 3d1c 06bd 27d5 613c
00000300: 49bc 91bc 7b2a 893d 1626 8b3d 4fdd e53c
00000310: e0c5 44bd 8f94 173d 0715 883d d12c c13c
00000320: ea4e ef3d b8a8 47bd ced5 6e3d b4e3 723d
00000330: 9435 8d3b eb70 5a3d 93ea b33c f6ad a1bd
00000340: 56e5 c33a ac63 cfbd 6a1c 71bc 25dd c13d
00000350: 0540 a9bd dd28 ec3c ffa3 36bd 2a95 37bd
00000360: 9a92 7cbd 9248 6abc 5005 2ebd 060e 32bb
00000370: 771d 33bd 79bc 4b3d 38df 44bd 2d2c 903d
00000380: a89b a9bd 8215 243c 42a6 d43d 9502 f9bc
00000390: 6513 3bbd 1932 b73d 7cd9 5cbd 651e 853d
000003a0: a823 07bc b731 82bd df8d 143d b13c 533d
000003b0: d40f be3c 18c8 afbc df7a 46bd 94f8 50bc
000003c0: cccf 863d c1e5 99bd 2893 273b bbd1 35bd
000003d0: 28b9 953d 824f 89bd 0f1d 29bd 1956 8b3d
000003e0: fb16 bb3c 6f86 5fbd de94 a2bc b003 3ebd
000003f0: e4e3 a93c 9d60 b7bc eece cb3d 0ab9 2f3d

bias f4 [128]
-0.08362993 -0.02754409 -0.06978147 -0.13827717 -0.024826786 -0.10244406 -0.05825565 -0.018615425
-0.071851395 -0.067397825 0.011804016 -0.11084421 0.048322167 0.026694333 0.032077752 0.0837643
0.0755247 -0.12547365 -0.118397206 -0.08174648 0.093976624 0.12586895 0.026283504 -0.090785086
-0.037522398 -0.13563111 -0.008666062 -0.060804114 -0.1227085 -0.020791123 -0.092562534 0.0150193665
-0.02640569 -0.026001891 -0.11647336 -0.09327111 -0.07417562 -0.14406115 -0.08085226 -0.04614053
0.029645566 -0.10788699 -0.09467433 0.006969616 -0.12680516 0.08435559 -0.081650354 -0.009475287
-0.16515322 -0.091276884 -0.08175392 0.0481289 0.095084384 0.05967884 0.071820505 0.035807416
0.014276682 0.065808445 -0.014514353 0.07338698 0.10505649 -0.00013828084 -0.023173673 0.012568699
0.05012245 -0.0007108137 -0.047879357 0.16771181 -0.032780685 -0.0035323016 0.050582718 -0.109367326
-0.0133342985 -0.13577735 -0.055930838 -0.009520987 0.11847098 -0.12317179 0.06321112 0.07242475
-0.0131456405 -0.049872182 0.0392575 0.021976631 -0.13164914 0.108119816 -0.13827519 0.022344114
-0.10371815 -0.12207525 0.06858297 0.031953488 -0.025967041 -0.055611853 0.016166199 -0.08112569
0.017563555 0.068187356 0.019433584 0.11594933 -0.07214572 -0.118250035 -0.055815507 -0.04138124
-0.011754934 -0.10395604 -0.10901872 -0.033536594 0.07882181 0.00051640096 -0.12143458 0.05348947
0.07927276 0.062249955 -0.10213813 -0.1265983 0.06537371 0.0052656955 0.14257908 0.007844684
-0.14455077 -0.027511904 -0.060119532 -0.038312346 -0.07070758 0.088528164 -0.026593268 -0.057972223
00000000: 2b46 abbd 25a4 e1bc 96e9 8ebd 8898 0dbe
00000010: 8b61 cbbc 31ce d1bd 7a9d 6ebd 607f 98bc
00000020: d326 93bd df07 8abd a265 413c 4a02 e3bd
00000030: 77ed 453d 13ae da3c f663 033d 9e8c ab3d
00000040: b2ac 9a3d 2a7c 00be 3c7a f2bd b36a a7bd
00000050: d176 c03d cae3 003e 8150 d73c 88ed b9bd
00000060: 16b1 19bd e2e2 0abe 19fc 0dbc bc0d 79bd
00000070: 984e fbbd 2552 aabc 6d91 bdbd ca13 763c
00000080: bf50 d8bc eb01 d5bc 9689 eebd ec04 bfbd
00000090: 63e9 97bd c484 13be df95 a5bd dafd 3cbd
000000a0: 42db f23c dbf3 dcbd 9de4 c1bd 6061 e43b
000000b0: 36d9 01be a0c2 ac3d 4d38 a7bd 3c3e 1bbc
000000c0: ed1d 29be 60ef babd 996e a7bd cf22 453d
000000d0: 9abb c23d cd71 743d a116 933d ccaa 123d
000000e0: bfe8 693c 94c6 863d 9ccd 6dbc ea4b 963d
000000f0: db27 d73d 7bff 10b9 b7d6 bdbc f2ec 4d3c
00000100: 334d 4d3d e655 3aba 251d 44bd a5bc 2b3e
00000110: 0a45 06bd 307e 67bb d32f 4f3d fafb dfbd
00000120: 1a78 5abc 3809 0bbe bc17 65bd eafd 1bbc
00000130: eaa0 f23d 7e41 fcbd d574 813d 6d53 943d
00000140: d060 57bc c646 4cbd 79cc 203d 5608 b43c
00000150: 08cf 06be ec6d dd3d 0398 0dbe 010b b73c
00000160: 2e6a d4bd 9702 fabd 3a75 8c3d a9e1 023d
00000170: d5b8 d4bc 41c9 63bd fa6e 843c 3a25 a6bd
00000180: 72e1 8f3c d0a5 8b3d 2e33 9f3c d876 ed3d
00000190: 23c1 93bd 132d f2bd cd9e 64bd 607f 29bd
000001a0: c497 40bc e8e6 d4bd 3545 dfbd ab5d 09bd
000001b0: 546d a13d 155f 073a b1b2 f8bd c617 5b3d
000001c0: c259 a23d cff9 7e3d cc2d d1bd fca2 01be
000001d0: a7e2 853d db8b ac3b 4000 123e fd86 003c
000001e0: 1e05 14be a560 e1bc e63f 76bd 68ed 1cbd
000001f0: 23cf 90bd 414e b53d 20da d9bc 4874 6dbd
