results/model/data_aug_552.model (torch, 686563 bytes, 21 tensors)

weight_ih f4 [384, 5]
00000000: 2a9e 9e3d a71e 71be deea 01be 0dbc 843d
00000010: d4e2 36be d34f a6b9 2d58 e63d 8f5f f03b
00000020: 0027 cebd 887e e8bc b13c 663d 00cb a93e
00000030: 5111 28be d4b2 083d 8891 52bd 8134 44bd
00000040: 8863 0b3e 480c 53bd c650 c43d fb99 fdbd
00000050: 9a9a 063d dff6 643e b6df a73d 73bc 72bd
00000060: f328 ab3c ec37 34bd b1bc 6a3d 8020 d53c
00000070: ad56 8abd 112d 9b3e daad 013d e097 a2bd
00000080: 8e3f 02be 6ba4 c03d eb59 51be a3dd 963d
00000090: 596e df3d 1c24 243b 3cf7 2bbc 5751 30be
000000a0: 1b80 a4bd 9cb8 ee3c a872 1ebd c488 e5bc
000000b0: 1ece b5bd db07 1a3c 6350 59bd 6777 bf3c
000000c0: 77dd 9dbd 9b12 c93d fe05 25bf 9ac2 16be
000000d0: 0a2e 073d 46e9 1abe b9fb 53bf 1bef 8fbd
000000e0: 7629 e43d 0e89 253e 14b0 923b 3e17 433e
000000f0: 3a8f 88bd 0afb 18be 85a7 c5bd 2031 0e3e
00000100: 1e72 ae3e 1f91 0abd 8572 8b3c 7f41 09be
00000110: f6b0 e2bc 5874 14bd d86a 5c3d 6139 963e
00000120: 9e32 fd3d 90a3 1ebc bbe0 59bd 0afb 3bbe
00000130: d462 d0bd e7c6 d2bd ae79 74be efff 7abe
00000140: 1eb2 89bd ec27 c2bc d332 213e 5840 d6b9
00000150: 3787 073e 7e9f f3bd da80 c4be 0b1e 6c3e
00000160: 237e f1bc d5de be3d 2262 c4bd 707d 9bbe
00000170: 5b02 cabd 367d e5bd f98c 5dbd 886c f73d
00000180: 472c 773e f44b 9ebc 3ed6 893d ede1 9bbe
00000190: f335 223d 1916 16be e0f2 63be 98f4 593d
000001a0: 3042 523e e8b8 233e 28e4 203e 8feb f9bd
000001b0: ffea e1bc 0471 d8bd 6ead ec3c d7ec 32be
000001c0: df65 c73d fa63 83bd 78d2 8abd 33fe 4c3d
000001d0: 473c 62be f7d2 4ebe e9b1 233e 8169 07be
000001e0: 0416 243e c539 0fbb b0ab bcbd c2f9 773d
000001f0: dac2 42be e056 ff3d 9c62 bb3d cd09 0abd
00000200: be02 953d 5623 0bbd 3b27 38bc fda0 84be
00000210: c18e 62bd 35c8 15be 4c23 853e 7f85 423d
00000220: f67f 383e 85c5 10bd ccd4 c53c 1200 1f3d
00000230: 450b 7c3d babc 59be 4911 c23b a57e ae3b
00000240: de19 86be 61cf c6bd 6430 413e f86c 4bbb
00000250: 26ae 073d f7cb 0d3e e06d f93d 81fd b6bd
00000260: 08b9 1cbd b0a5 ab3c 81bb 913d 8ad7 0dbe
00000270: 1ce2 84be 5d1d e23c 9cac 0dbe d5dc b43e
00000280: bcd2 863c c329 e23d 4885 1a3e 1d43 503e
00000290: a643 de3d f731 e0bd 1932 dcbc 28a7 2ebd
000002a0: d9db 51be 7173 bc3d cdba 01bd 51eb ea3c
000002b0: 2f73 fdbc bb36 f53d 636b 99bc fd38 ccbd
000002c0: 8057 38be eeac d53d ec24 ce3d fd44 45be
000002d0: 12cf 333d 4ecb 72bc 6199 413d d302 643d
000002e0: 01be a63e 82f5 bc3d 61c5 593e 00aa 80bc
000002f0: 50bc 283d c2c5 b2bc 0c81 8fbd 1259 43bd
00000300: 8b8f 883c bbda 0cbd 1945 a23e 6f95 0f3e
00000310: 4e19 8e3e e093 c6bd 4610 1b3c eb59 d7bd
00000320: 5245 0a3e ec2a 763d 9553 2e3d edab a73d
00000330: 6150 e93d e424 89bd 603b 85be e97a eebc
00000340: 1cb8 4a3c 410f 773c 7ee0 eebd 000a 18bc
00000350: 93a2 25bd ce28 a6bd 0aad 9abd ea5d 12bf
00000360: a142 483b 5b4b c0bb 6eb0 8b3c c8ff 11bf
00000370: ccbb ec3c e793 d1bd 101c 8bbd 2250 1dbd
00000380: 31be d1bd 3b3a 833e 68ea f23b f925 a73d
00000390: b668 1d3e 980a 913c 126e 713e df9d e53d
000003a0: 0fdf 9dbd bb3f 203d e20a 9f3d 92a9 a93d
000003b0: 8611 0cbe 3c9e 8f3d 33af 2ebe 4afa d7be
000003c0: f0da 84bd 4a1e 94be 16ae 9cbb 2348 3b3c
000003d0: f3b8 8b3d f614 db3d e92f 3abe d3f7 44be
000003e0: 0e20 5e3d 39f6 f3bd ab9e 32be 3993 b43d
000003f0: 0252 053e 0dd6 70bc 92e7 d13d 4b27 3d3d
0.07745011 -0.23546849 -0.12687251 0.0648118 -0.17859966 -0.0003172146 0.11247287 0.00733561
-0.100660324 -0.028380647 0.056210224 0.3316269 -0.16412856 0.03337367 -0.05140832 -0.047901634
0.13612187 -0.051525384 0.09585719 -0.12382885 0.032862283 0.22359799 0.08196966 -0.05926175
0.02089355 -0.043998644 0.057308856 0.026016474 -0.06754813 0.3030782 0.03165994 -0.07939124
-0.12719557 0.0940636 -0.20444457 0.073664926 0.10909719 0.0025045937 -0.010495957 -0.17218529
-0.08032247 0.029140763 -0.038683563 -0.028019316 -0.08877204 0.009401287 -0.05305518 0.023372365
-0.07708257 0.09818002 -0.6446227 -0.14722672 0.03300289 -0.15128049 -0.82805973 -0.070280276
0.111407205 0.16165563 0.0044765566 0.19051835 -0.06667943 -0.14939514 -0.096510924 0.13885927
0.3407144 -0.033829805 0.01702238 -0.13403891 -0.027672272 -0.036243767 0.05381283 0.29340652
0.1236317 -0.009682551 -0.053192835 -0.18357483 -0.101751 -0.10291844 -0.23874542 -0.24511693
-0.06723426 -0.023700677 0.15742044 -0.000408652 0.13235174 -0.11895655 -0.38379556 0.23058335
-0.029479092 0.093198456 -0.0958903 -0.3036914 -0.098637305 -0.11205523 -0.05408952 0.120812476
0.24137984 -0.019323327 0.067303166 -0.30445805 0.03960223 -0.14656867 -0.22260618 0.05321178
0.20533061 0.15988505 0.15712035 -0.12203132 -0.027577875 -0.10568431 0.028891291 -0.1747316
0.09736227 -0.064155534 -0.06778425 0.05004711 -0.22093306 -0.20197664 0.15985836 -0.1322384
0.16024023 -0.0021854502 -0.09212434 0.060540922 -0.19019642 0.12467742 0.091496676 -0.033700753
0.07275914 -0.033969246 -0.011239822 -0.25904074 -0.055311922 -0.14627154 0.26003492 0.047490593
0.18017563 -0.03534462 0.024149321 0.038818426 0.061534185 -0.212634 0.0059224707 0.005325156
-0.2619161 -0.09707523 0.18866116 -0.0031040292 0.033125065 0.13847338 0.1217916 -0.08935071
-0.038262397 0.02095303 0.07115842 -0.13851753 -0.25953758 0.027601892 -0.13835377 0.3532473
0.016457908 0.11043122 0.15089905 0.20338102 0.10852747 -0.1094703 -0.026879357 -0.04263988
-0.20494021 0.09201706 -0.031672288 0.02867666 -0.030938713 0.1197333 -0.018727964 -0.09971807
-0.18002129 0.10433374 0.10065636 -0.19264598 0.04389865 -0.014818979 0.047265414 0.055666756
0.32566836 0.092265144 0.212667 -0.015706062 0.041195214 -0.021822814 -0.070070356 -0.047692366
0.01667001 -0.034388285 0.31693342 0.14021848 0.2775368 -0.09696174 0.009464329 -0.10515197
0.13503006 0.060099527 0.04256018 0.08187089 0.11392284 -0.066964895 -0.26021862 -0.029111343
0.012372997 0.01507932 -0.11663912 -0.009279728 -0.040438246 -0.081132516 -0.07552536 -0.5717455
0.0030557292 -0.005868358 0.017051902 -0.57030916 0.028898142 -0.10233288 -0.06792462 -0.0384065
-0.10241354 0.25630364 0.0074131973 0.081615396 0.15371975 0.017705247 0.23577145 0.11211752
-0.07708561 0.039123278 0.077657476 0.08284296 -0.1367856 0.07012603 -0.1705902 -0.42183143
-0.064870715 -0.2892936 -0.004781495 0.011430773 0.06822386 0.10697357 -0.18182339 -0.19235162
0.05422979 -0.119121976 -0.1744334 0.08817143 0.13019565 -0.014699471 0.10249247 0.04618005

weight_hh f4 [384, 128]
00000000: 2f15 b7be 91ad d0bd ab8d 3a3c d0e4 963b
00000010: 1a95 6f3d 5866 20bd 80e7 4e3d f38a d23d
00000020: a6e0 663e 756b 34be 49f5 0bbd 605f babd
00000030: 9d3f fa3d 44e2 a83d 71df 06be 3ccc 65be
00000040: 6d40 bb3d b56d 44be 5af0 a53c 7594 93bd
00000050: 58ac 913d af50 aabd 8efe ddbd bb59 0c3e
00000060: 2391 8a3e 0163 223e 0a07 ea3c 337b 073d
00000070: 129b e43c 5914 a1bd 4087 46bd 0ac0 4cbd
00000080: 74d7 923d a0b4 d43b 933b b33d 4de0 0ebd
00000090: 76b4 15be 7320 5fba dea9 2bbd 5f48 533d
000000a0: 142d bdbd 83ca 60bd 5d05 fd3d 254a 583c
000000b0: ef9b 3ebd 323e aabd 7236 97bb 755e 35be
000000c0: ba36 f33c cf9b e03d fc7b 15be bc62 bfbe
000000d0: 5a4b af3c 4a08 833e c279 5d3d a390 363e
000000e0: 3be3 853e 8651 113e 8cb3 9d3e c303 97bd
000000f0: 1d7c 953e c96d 7a3e 3c0b bfbc 66ff e7bc
00000100: 09df 9dbd 0848 7c3d 37a4 54bd 0dc4 e23d
00000110: 01d5 373e e4e7 82bd e83d 053d 0002 84be
00000120: 1610 8c3e 0d95 203c 4779 47bd e904 9cbd
00000130: 7f82 833e 5d29 3ebc 6feb 51bc 5c7b 13be
00000140: 3281 29be 9f3c 73bd 70b3 08be 86e4 2d3c
00000150: 75c2 41be 7bcd 90be 272e a13d 259d a5be
00000160: 1d6e 7bbe 7128 35be ab2d 5abd 7063 433e
00000170: c209 f23c 75fc 15bd 6e8e ce3d 39ba 5abe
00000180: 8900 153e 35b4 49bc 959c 233b cf0e 0cbd
00000190: 063b d1bd 79e2 ce3d a8c3 04be 28d4 d6bd
000001a0: 5d57 39be 22c7 84bd 4d02 2bbd 01de f6bd
000001b0: c0fd d43c 9f48 6fbe 9118 be3d 4fc7 26bd
000001c0: 693c 81be 7a36 acbd c7c2 69be aaa6 06bc
000001d0: 5a1f 0e3e 1630 bebd 36e0 953d 9e0d 84b9
000001e0: a2dc 87be 6cb7 3ebd 42ab 83bc 3c82 4ebd
000001f0: 448f de3d fdd7 86bc 3379 9cbe aefc b7bd
00000200: 54f6 27bd 7e6c dd3d 658e e93d 5145 fc3d
00000210: ea07 783d b738 093e b57b 033d 30fc 7e3e
00000220: 0bd6 8e3c 7265 903e a531 f3bd 5042 97bd
00000230: 7989 b93d 387b 18be 0dca 8fbd 4e3e 3cbe
00000240: 1b96 50bc 0dae a23b f1a5 fcbd 7607 6f3d
00000250: f583 c0bd 32bd d53d fade ee3d 84d4 b13d
00000260: 3b9c 593d c5de 16be e4c2 96bd 8a3d ec3d
00000270: abaa c1bd 1089 483d 772a ffbd 831e 0d3e
00000280: 3ee3 0cbe 1c8a e73c a84d 413d 9e1a 07be
00000290: 6ece 99be a78a 6dbd 70f3 6b3e cd94 063d
000002a0: 404c debd 825e 563e ccb1 923d 2414 df3d
000002b0: 2627 26bc 8668 f4bd f2b5 44be 4044 85bd
000002c0: 7eba 62be fc0f 6a3e 329c 0abe 82b3 7ebe
000002d0: 0b25 7abe 2886 4fbc 7b79 573e 110c 8a3c
000002e0: 1c23 75bd 51a5 443e afc1 5bbe 9dd5 8e3e
000002f0: 3df4 223e 72a6 2b3d 0548 ec3d ca5a 08be
00000300: 6570 103e e006 e83d dc7c 453c e1aa 3c3e
00000310: 4964 1c3e a58c 963c a35d 52bd e75f 6abd
00000320: 54e5 33bb a498 be3c d6f6 01be aadf 9c3d
00000330: 5619 8fbc 8cab e6bd 0c1d 8bbd 0b30 04be
00000340: 5863 c23d 8139 9f3d 3658 033e ceee c3bd
00000350: c163 983d 8fc5 89be 93fa 723e 23fe 0b3c
00000360: 125b 47bd 9e6b f9bd 7a53 be3b dfb5 d9bd
00000370: 6836 5bbe 2c34 44bd bf5e ae3d 7ceb a4bd
00000380: 1192 c8be bb5e c63d 8da7 b7bd a53a 093c
00000390: 7494 8cbd bc5e a03d 34af 92bc 6033 7cbd
000003a0: 89c0 f73d 3694 833e 93f9 e53d 8ce1 bdbd
000003b0: 1644 7dbd 74e9 6bbe d62d 9a3c 6ffc bcbd
000003c0: f3eb 31be cbb4 59bd b923 43be d793 80bc
000003d0: 6d01 b13d 56b4 cbbd 66d6 1e3d add6 22be
000003e0: 419d f43d 0800 87be f706 e6bc ea29 91bd
000003f0: b454 f4bc 8395 45bd 7b9f 8bbb 76a3 1d3c
-0.3575835 -0.10189355 0.011386315 0.0046049133 0.058491804 -0.039160103 0.050513744 0.10280409
0.22546634 -0.17619117 -0.03416947 -0.091002226 0.122191645 0.08246282 -0.13171174 -0.2244119
0.091431476 -0.19182475 0.02025621 -0.0720605 0.0711295 -0.083161704 -0.10839568 0.13706104
0.27063856 0.1585808 0.02856781 0.033076476 0.027905975 -0.07865209 -0.04846883 -0.04998783
0.07170001 0.0064912587 0.08751597 -0.03488188 -0.14619622 -0.000851161 -0.041910045 0.05158269
-0.092371136 -0.05488063 0.123545386 0.013201271 -0.04653543 -0.08312644 -0.0046146447 -0.17711814
0.029689182 0.10967218 -0.14598078 -0.37380016 0.021398235 0.25592262 0.054071195 0.17828612
0.26149926 0.14191255 0.30801046 -0.07373764 0.29196253 0.24455942 -0.023320787 -0.028320026
-0.07708556 0.06159213 -0.05191442 0.1107255 0.17952348 -0.06391886 0.03252974 -0.25782776
0.27356023 0.0098011615 -0.048699643 -0.07618124 0.25685498 -0.011606541 -0.012812479 -0.14402527
-0.1655319 -0.059383985 -0.133497 0.010613566 -0.18921836 -0.2828177 0.07870131 -0.32346454
-0.24553724 -0.17691208 -0.05326621 0.19080901 0.029545669 -0.036617715 0.1008576 -0.21360101
0.14550985 -0.012311031 0.0024965156 -0.03419381 -0.10216336 0.1010179 -0.12965262 -0.10489684
-0.18099733 -0.06483294 -0.04175024 -0.12054063 0.025999904 -0.23367546 0.092820294 -0.04071742
-0.25241402 -0.08408828 -0.22828208 -0.008218447 0.13879147 -0.092865154 0.073181555 -0.00025187148
-0.26535517 -0.046561643 -0.016072873 -0.05041717 0.108671695 -0.016460413 -0.30561218 -0.08983742
-0.0410064 0.10811709 0.11404113 0.123179086 0.060554422 0.13400541 0.032100398 0.2490089
0.017436048 0.28202397 -0.11874703 -0.07385695 0.09059424 -0.14890754 -0.0702096 -0.18383142
-0.0127311 0.004964596 -0.12336338 0.058356725 -0.09400169 0.10436477 0.11663623 0.08683112
0.05312751 -0.14733417 -0.07361391 0.11535175 -0.094563805 0.048958838 -0.124592714 0.1378117
-0.13758561 0.028264098 0.0471932 -0.13193747 -0.30040306 -0.057993557 0.23042083 0.03285675
-0.10854387 0.2093449 0.07162818 0.108925134 -0.01014117 -0.11933999 -0.19210032 -0.06507158
-0.22141454 0.2285766 -0.13536146 -0.24873164 -0.24428193 -0.012666263 0.21042435 0.016851457
-0.059847936 0.19203688 -0.21460603 0.2789735 0.15913482 0.04190678 0.11537174 -0.13315883
0.14105375 0.11329436 0.012053695 0.1842456 0.15272631 0.018377611 -0.05135883 -0.057220366
-0.0027449923 0.023266144 -0.12691817 0.07659848 -0.017468136 -0.11263189 -0.067926496 -0.12908952
0.094916046 0.0777464 0.12826619 -0.09567033 0.074409015 -0.26908538 0.23728399 0.008544478
-0.048670836 -0.121787295 0.005808291 -0.10630392 -0.21407473 -0.047901317 0.08514165 -0.080527276
-0.3917394 0.09686037 -0.08967505 0.008375798 -0.06864253 0.07830569 -0.017905809 -0.061572433
0.1209727 0.25699013 0.11229243 -0.09271535 -0.06183251 -0.23038274 0.018820684 -0.092278354
-0.17375164 -0.053150933 -0.19056596 -0.015695496 0.0864285 -0.09946506 0.038778685 -0.15902205
0.11944056 -0.2636721 -0.028079493 -0.070880726 -0.029825546 -0.04823829 -0.004260955 0.009621492

bias_ih f4 [384]
00000000: 5867 753e 73ee 99bd 9b53 a3bd 6bfe 8cbc
00000010: 51d5 e6bd 25b6 3cbd bebe 37bd 3ab1 f5bd
00000020: 8c80 ea3c a782 bdba ad0d 13bd 2f2e 7c3d
00000030: b1c2 563e 1519 debd f0b8 8c3d dc08 16be
00000040: b866 753d a94c 833d bd23 0a3a 552e 0abd
00000050: 6cf0 403d 8236 d7bc 232a 02be dc93 c23d
00000060: 6dad 243e ef90 1d3e 2522 eebc 7170 9dbc
00000070: a327 a6bd 4794 b8bc f7a2 e03c 98fb b0bd
00000080: c065 f43d b363 95bd 4abc cf3d 63f3 6d3d
00000090: 16d2 053d a8ce 9e3d 963a d03d b311 e9bc
000000a0: 59b6 973d c275 e43d 36f8 9dbd 2e94 7c3d
000000b0: 0212 323d bb13 0d3e 3c0a 933d 3518 12be
000000c0: fb67 1a3c 9ccb ab3d 0e79 d9bd 453a dfbd
000000d0: 4241 0d3d 60ee ad3d c8af 00be 5305 c33d
000000e0: 1696 423b 7121 b93d 53de a2bc f93b 113d
000000f0: ee78 883d e49c 183d fc10 653d 6be2 193e
00000100: 699b b3bd 45a8 b6bd 8312 92bd 372c a3bb
00000110: 5eea 26be 7b81 aebd 3181 033e 7487 523e
00000120: 6541 313d 6801 fcbc 1219 cd3d 3d98 b8bd
00000130: a970 a53c ff6b bdbd 4ebf 2abe b18a 0a3e
00000140: d81a 1f3e e5fa 3bbe c789 0f3d cb39 fa3c
00000150: 0d12 cf3c b9b5 ca3c d471 f03c 1706 8f3d
00000160: b4d1 4a3d 88cd 58bd f150 093e 5385 3abc
00000170: 7dd3 13bd 6433 9bbd e68c 303e 68c4 4d3c
00000180: 33a1 c9bd a674 0a3e 9929 d3bb c08d 65bc
00000190: 73c4 c2bd a451 81bd 67e7 03bd 00f6 713c
000001a0: 7428 f03d acad 963d f708 dc3d 33e3 053d
000001b0: bfbc 6bbe 7fb8 60bd 01c7 89bd e6f4 5d3d
000001c0: 86bc 023e b1e5 183e 1e92 2c3e fb63 a33d
000001d0: dd12 a43c 1f80 edbc 8d47 84bd 0e45 823c
000001e0: 8ca3 423e 0be0 56bd 1d48 23be 4a07 67bd
000001f0: a732 50bd 0d28 16bd 4d62 313d f632 063e
00000200: fa85 28be 997d 47be 31ad d63d 63e3 3bbd
00000210: 0b33 25bb 8726 1b3e 0760 0ebd ebaa 3fbd
00000220: f2c2 69bc d33f dbbd 730a 9ebe 80de 313d
00000230: d986 0e3e 7d20 28bd 4d18 8cbd 806d 943d
00000240: 7947 afbd 21cb 90be 34a4 abbd e1c9 73bd
00000250: 37ae 103e 1d7a ce3d c7cd 633d 5fbe b2bd
00000260: 0a6e 57be e42f 253e 8eaf 43be 2de2 e4bb
00000270: 8378 acbd 5e99 fb3d d1a9 b5bd 880e 933d
00000280: 21e0 463d ada4 a1bd 984f 33be 8ffe 41be
00000290: 8f00 663d 0718 76be 709a 9c3d 79f7 d63d
000002a0: 6487 bdbd f903 d3bb 29ae e6bd 5c98 32be
000002b0: a4b0 1abb 8d30 40be 4599 573c 2fe0 233a
000002c0: ecb2 a0be c220 ccbd 8355 3dbe f6e3 c8bc
000002d0: 1c6a c13d 48c1 08be dffa 81bd 8e6f e1bd
000002e0: 6a75 9c3c 012c 86be 8470 c23d 6bc5 d4bd
000002f0: ec8a dcbc 3194 353e ad8f 45bd e72c e63c
00000300: 8f88 9dbe e3c4 aabc 4594 97bd b402 99bc
00000310: 8ac8 f4bd 4367 aa3d 7fef 2dbe a901 0dbe
00000320: 64f3 f73c 6f5e 17be a541 94bd 65be b1bc
00000330: 5cbe c6bd 80ab 37be d7a4 233d 4d35 a7bd
00000340: 1432 10be 0595 13bb 7e48 003e 6d49 053e
00000350: 7a6b 66bd 255c 71bd 48af 1cbe e628 513d
00000360: cd2f 10be ccab 25be be7f d5bb fb49 9d3d
00000370: c105 403b 54aa e73d 3a95 10bc 3f7e f3bc
00000380: f43b 553e 1343 3a3d b365 20be f915 26bd
00000390: a17c 093c 724a 94bd 4bd3 12be 4e41 62be
000003a0: 5ecb dfbd bb01 8c3b f6ed f23c 122a c43c
000003b0: 8000 f8bd fbbd 44be 0a54 283d fbd9 80bd
000003c0: 9f11 aebe 231b 5bbd e623 1abd 2893 55bd
000003d0: d706 463d 9d05 6c3c 702b 55be b061 5fbe
000003e0: a5cf 7abb ada5 97bd 2e53 f9bc ff7b f53c
000003f0: 0672 753d 657d 34bd c38b 3abb 5156 c5bd
0.23965204 -0.07516184 -0.07974931 -0.01721116 -0.112711556 -0.046072144 -0.04485964 -0.11996694
0.028625749 -0.0014458493 -0.035901714 0.06156748 0.20972706 -0.10844628 0.068712115 -0.14651817
0.059912413 0.06411106 0.00052696076 -0.033735592 0.047104284 -0.026271109 -0.12711386 0.09500858
0.16081782 0.15387319 -0.029069016 -0.019218655 -0.08113029 -0.022531642 0.027421458 -0.08641738
0.1193347 -0.07294407 0.10143335 0.05809344 0.032671057 0.0775426 0.101674244 -0.028450822
0.07407827 0.11155273 -0.07713358 0.061664753 0.043474205 0.13777058 0.071796864 -0.14267047
0.009424205 0.08388445 -0.106187925 -0.10899786 0.034486063 0.08492732 -0.12567055 0.095225
0.002969151 0.090395816 -0.019881403 0.035457585 0.066636905 0.037258998 0.0559244 0.15027778
-0.087698765 -0.089188136 -0.07132437 -0.004979636 -0.16300341 -0.0852079 0.12842251 0.20559484
0.043275256 -0.03076239 0.100145474 -0.09013412 0.020195322 -0.09249114 -0.1667454 0.13529469
0.15537584 -0.18357427 0.035043504 0.030545136 0.025277162 0.024744855 0.029351152 0.069835834
0.049516395 -0.052930385 0.13409783 -0.011384326 -0.036090363 -0.07578161 0.17241248 0.012559034
-0.098451994 0.1352106 -0.006444168 -0.014010847 -0.09510126 -0.063144 -0.032203104 0.014768124
0.11726466 0.07357344 0.107438974 0.032687377 -0.2302122 -0.05486345 -0.0672741 0.05418863
0.12767228 0.1493137 0.16852614 0.07978054 0.020028526 -0.028991757 -0.0645896 0.015902068
0.190077 -0.052459758 -0.15945478 -0.056403436 -0.050829556 -0.03665929 0.043306638 0.13105378
-0.16457358 -0.19481505 0.104822524 -0.04587115 -0.0025207426 0.15151416 -0.034759548 -0.04679386
-0.01426767 -0.10705533 -0.30867347 0.043425083 0.13918628 -0.04104661 -0.068405725 0.07247448
-0.08558554 -0.28279975 -0.08380929 -0.0595187 0.14128958 0.10081885 0.055616166 -0.08727717
-0.2103807 0.1613155 -0.19109938 -0.00698497 -0.08421423 0.12285112 -0.088702805 0.07180506
0.04855359 -0.078927375 -0.17510831 -0.18944763 0.056152876 -0.24032603 0.07646644 0.104964204
-0.09254339 -0.0064396826 -0.11263687 -0.17440933 -0.0023603821 -0.1876852 0.013159101 0.00062513625
-0.31386507 -0.099671856 -0.18489651 -0.024522763 0.09444067 -0.13354981 -0.06346678 -0.110076055
0.019098956 -0.26205447 0.09494117 -0.10389217 -0.026921712 0.17732312 -0.048232723 0.028097583
-0.30768248 -0.020845836 -0.07401327 -0.018678047 -0.11952312 0.08320477 -0.16985892 -0.13770165
0.030267425 -0.14782117 -0.07239083 -0.021697232 -0.09704277 -0.17936516 0.039952125 -0.08164463
-0.14081603 -0.0022519242 0.12527654 0.13016291 -0.05625484 -0.058925766 -0.1530124 0.051064394
-0.14080735 -0.16178817 -0.006515472 0.07680126 0.0029300305 0.113117844 -0.008824641 -0.029723285
0.20823652 0.045474123 -0.15663795 -0.0405483 0.00839153 -0.07240762 -0.14338414 -0.22095224
-0.10927461 0.004272667 0.029654484 0.023945842 -0.1210947 -0.19213097 0.04109577 -0.062915765
-0.3399782 -0.053492676 -0.03763189 -0.052142292 0.048346367 0.014405635 -0.20817351 -0.21814609
-0.0038270738 -0.07404647 -0.030435171 0.029966353 0.059923194 -0.044064898 -0.0028464652 -0.09635604

bias_hh f4 [384]
00000000: 1909 7f3e 8970 873c b6eb 52bd 1bd7 183d
00000010: a45c c6bd 62af 9dbd 841c 01bd 5166 a5bd
00000020: 9241 c33d 8489 c23d 3549 0b3b 9dad 96bc
00000030: 2dd3 fa3d c668 82bd 229a b0bd 37fa 77be
00000040: 44ba 96bd f5f5 4abb 7e29 5fbd 9a36 12bd
00000050: 7f85 5dbc 0b8b c5bc 7faf 06bc 5884 473e
00000060: 58d1 b33d cf54 ac3c ee3b b2bc 4c71 5dbd
00000070: ffa9 b73b 6d16 153e 9930 8a3d 801e 12be
00000080: 6428 a13d 5885 72bd 97d2 383d 8df5 adbd
00000090: 0ab8 b6bc abb2 67bc 5bee 6fbd 2997 59bd
000000a0: 76c9 cf3c fda9 ef3d 118a b83c 2e64 c53c
000000b0: 76fe 8ebd 141d 4b3e 5d5f 013e a560 13be
000000c0: 9866 173c ea32 d23d 309e 06be 5737 1fbe
000000d0: d3c3 ba3d 3796 9d3d 9d99 6f3c 05e3 863c
000000e0: cc3f 2a3d 37d0 973d af2f 2b3d cce8 f63c
000000f0: d1dd 373e 2dd4 213d 4de6 5a3d a997 4e3e
00000100: ca92 2abd 0c84 a1bc 9ade fc3c 4efd 913d
00000110: b598 55be 3e40 403c 2ea7 eabc 33e5 703e
00000120: 85ea cc3d 5c2b a3bd 896e 043e 2093 9ebb
00000130: 1dc4 913d 13bc cbbd a7bc 36be 3ecb 9c3d
00000140: 1481 173e 3ce0 1cbe 96ac f93d 6d59 7dbd
00000150: 692e 23bd 4565 dabc 7355 e63d d314 9c3d
00000160: 24d5 973c 077a d8bd 2d7c ec3d a15c 173c
00000170: 16a2 a83d ed32 35be e644 4a3e 8199 dcbb
00000180: 1096 17bd 5fd6 873e a84a a6bd 09de 3abd
00000190: 169b 92bd 8e91 1cbd 0e02 90bd 4167 fc3d
000001a0: 7781 043e ccf8 a13d e0a5 053e 5fe5 9bbd
000001b0: 5f0a 40be 922f afbd c314 2cbd d6a7 2c3e
000001c0: dfa9 183e 22c6 e13d 315d 2a3e ea4d 2f3d
000001d0: 286d ffbb 1140 0f3c 5c6e 1b3d c87d 283e
000001e0: e3ba 013d 5d00 4bbb c654 25be d317 643c
000001f0: 7324 32be d038 d5bd 26e3 053d f9e5 04bb
00000200: 11b0 93bd 273c b1bd 1f71 213d 3124 cfbd
00000210: c02b 18bc 507c 6a3d 139a f1bc b7d0 16be
00000220: 8e91 383d c255 d5bd ddb4 35be cf04 853b
00000230: 9b44 353b d120 4fbd baa7 0a3c 5773 093d
00000240: bd50 513d fac8 01be 92ad 1dbd e572 2cbe
00000250: 13bb ae3d c108 9c3d 65f8 e13d 3cda d2bd
00000260: 2ca5 9cbe 98d4 773d 3f7f 5abe ac41 0b3d
00000270: c134 8cbd f010 e73d 51e2 29bd 28c2 bbbd
00000280: bd45 95bc f7b9 c63c 2067 a5bd 4ce7 1bbe
00000290: 3853 313e 3eb7 93be 8911 0c3e 49e2 34bd
000002a0: 1a37 33be 135b 4d3d 9dca ebbd 20e9 c4bd
000002b0: ee46 41bd 515c 22be 9811 5e3b 376b ee3d
000002c0: d66f a6be e849 06bd 7810 8dbe a4eb 83bd
000002d0: 40a7 c63d 7b51 3dbe 561d 2bbe d862 30bd
000002e0: a0ed a33c b9c6 b2be 8b69 4b3d 74bb bdbd
000002f0: 8ece 29bd fead 463c 2623 52bd 8ee7 153d
00000300: 3976 85be 81b9 243c 711b dfbd b9c9 efbc
00000310: 87e6 70be 351c 28bd d069 91be ac21 0abe
00000320: dda3 253e 39ef 56be 2ad6 98bd 2128 c0bc
00000330: 6907 05be 7b45 30be d4ff dd3d 53dc 84bd
00000340: e106 06be 5711 ca3c 3c65 f03c 1e35 423d
00000350: 2270 22be 4366 863d cbfd 50be 9f55 78bd
00000360: d243 00be 08df 12be be77 90bd be6b ff3d
00000370: 00c0 803d a9d2 7d3c 0561 babd cf78 82bd
00000380: cabb 1b3e f6cc 83bc 95b6 dabc 6f51 11bd
00000390: 3123 fe3d 7747 33be 191d d6bd 3eca 0cbe
000003a0: 9fc3 01be 023d b73d b3f2 123d 0ea9 893d
000003b0: 7b47 9dbd eaf1 47be 6987 ad3c 3ad3 edbd
000003c0: 9537 c0be 6cb0 4bbd 9a1e 89bd 5612 debd
000003d0: 45d2 ad3a 4e80 98bd a9e7 38be ceaa 5bbd
000003e0: fd50 ddbd a06e a8bb 253f 4d3d e2f5 2c3d
000003f0: 1383 313d 0d7d 1fbd f93d 8dbc 7473 8f3c
0.24905814 0.016533153 -0.051494323 0.037314516 -0.096856385 -0.07699467 -0.031521335 -0.08076156
0.09533991 0.09498885 0.0021253352 -0.018393332 0.1224731 -0.0636764 -0.086231485 -0.24216543
-0.07359746 -0.0030969356 -0.05448293 -0.035696603 -0.0135205975 -0.024114152 -0.0082205525 0.19484079
0.087801635 0.021036534 -0.021757092 -0.054063126 0.005604982 0.14559336 0.067475505 -0.14269447
0.07869032 -0.059209198 0.04512271 -0.08494101 -0.022304554 -0.014141719 -0.058576923 -0.053122673
0.025364619 0.117023446 0.022526773 0.024095621 -0.06982128 0.19835311 0.12634034 -0.14392336
0.009240769 0.10263617 -0.13146281 -0.15548454 0.09119382 0.07694667 0.014624027 0.016465673
0.041564748 0.07412761 0.04179352 0.030140303 0.1795571 0.039508987 0.05344229 0.20175041
-0.041643895 -0.019716285 0.030867863 0.07128392 -0.20859034 0.0117340665 -0.02864417 0.23524933
0.100056686 -0.079672545 0.12932791 -0.004839316 0.07117484 -0.09947982 -0.17845403 0.07655953
0.14795333 -0.15319914 0.12191121 -0.06185286 -0.039839182 -0.026659617 0.11246767 0.076211594
0.01853425 -0.1057015 0.11547122 0.009238393 0.082340404 -0.17695208 0.19752845 -0.0067321663
-0.037008345 0.2653074 -0.08119708 -0.045621905 -0.071584865 -0.03822475 -0.07031642 0.123243816
0.12940012 0.07908782 0.13051558 -0.076121084 -0.18753956 -0.08553995 -0.042011987 0.168609
0.1490855 0.11024119 0.16637112 0.042798914 -0.007794995 0.008743302 0.037947044 0.16454232
0.03167237 -0.0030975558 -0.1614562 0.013921696 -0.17396717 -0.10411227 0.03268733 -0.0020278676
-0.072113164 -0.08654051 0.03941452 -0.10114325 -0.009287775 0.05724746 -0.029492414 -0.14728056
0.045060687 -0.10416748 -0.17744775 0.004059411 0.00276593 -0.050568406 0.008462841 0.033557262
0.05110239 -0.12674323 -0.038495608 -0.16840704 0.08531775 0.07618857 0.110337056 -0.10295531
-0.30594766 0.06050548 -0.21337603 0.033998176 -0.068459995 0.112825274 -0.041475598 -0.09167892
-0.01822173 0.024258597 -0.0807631 -0.15224952 0.17316902 -0.2885074 0.13678564 -0.044161115
-0.17501488 0.050135683 -0.11513255 -0.096147776 -0.047186784 -0.15855528 0.0033884998 0.11641543
-0.325072 -0.032785326 -0.27551627 -0.06441429 0.09699869 -0.18488114 -0.1671041 -0.043063015
0.02001077 -0.34917238 0.0496612 -0.092642695 -0.04145675 0.012126444 -0.05130305 0.03659778
-0.2606676 0.010053993 -0.10893906 -0.029270994 -0.23525439 -0.041042525 -0.2840104 -0.13489407
0.1617579 -0.20989694 -0.074627236 -0.023456635 -0.12991108 -0.17214005 0.10839811 -0.06487336
-0.13088562 0.024666471 0.029345147 0.047413938 -0.15863088 0.065624736 -0.20409314 -0.06062853
-0.12525871 -0.14342892 -0.07054089 0.12471722 0.06286621 0.01549212 -0.09100536 -0.06370699
0.15208355 -0.016088944 -0.02669839 -0.03547805 0.12409056 -0.1750773 -0.10454769 -0.13749024
-0.1267228 0.08947183 0.035875987 0.06721698 -0.076796494 -0.19525877 0.021182733 -0.11612554
-0.37542406 -0.049728796 -0.0669529 -0.10843341 0.0013261518 -0.07446347 -0.18057121 -0.05362969
-0.10806463 -0.0051401407 0.050109047 0.04222668 0.043337893 -0.038937617 -0.017241465 0.017511107

weight f4 [128, 128]
00000000: 7d47 b23b 2a6b adbd 87b4 683d e93f f6bc
00000010: c193 77bd 20ed 9d3d 5c19 343d 2bc1 083e
00000020: ab93 633d 1881 1cbd 90c3 e23c 7f50 75bc
00000030: d12d 8bbd d340 d73d 79f2 0fbd ba31 b53d
00000040: 65cd db3d a42d 063d bb5a 56be c125 db3c
00000050: 567f 843d d050 573d ac2f 843d 989c 8cbd
00000060: d349 873d da12 eabc 62bf 09b8 fabe 0f3d
00000070: ea60 44bc 6949 9d3d d12e 5d3c ebd9 06be
00000080: 51ac d9bc 29c8 6e3d 9f24 893b 62e9 233c
00000090: a05f 023e c895 913c 3ef7 193d 0a45 0abd
000000a0: a9c9 95bd 991f 383d d7d5 2c3d 2080 81bd
000000b0: 4158 b13d 0362 893d 7eb9 1bbc b625 963d
000000c0: ea26 b3bd fc01 9cbc 6f63 71bd fb76 763c
000000d0: 2c66 9c3d 99bd c73b 5450 cdbd 5d30 d2bd
000000e0: e7f8 953d d694 a6bd e8b4 0b3e 832b 62bc
000000f0: f418 493d 80ec f3bd c710 f93c f1bc 74bd
00000100: 1bb7 e93d 9c2f 58bc 200d 08bc 5ab4 58bd
00000110: be18 c7bd 6916 cdbd f0ea 403d 6df4 77bd
00000120: 8c3f 9e3b 77a9 133c b502 dcbd d35d 5fbb
00000130: 2713 4e3c 0db9 f33c 4a3b 9a3c 195a 6bbd
00000140: ac02 36bd 81a7 493d 4e79 4dbc bae4 613d
00000150: ff93 733d 4ad3 3cbc d731 e53c d1b8 0d3c
00000160: dc54 6abd a1f4 75bc 3fb0 113c de24 c03d
00000170: 6a8f e2bc b924 9c3d 15bf 823d a218 8c3d
00000180: d159 423e 909f 103e 0f79 dcbd e65c 053e
00000190: ae4c fbbc 285e cd3c 0317 15bc dd67 113a
000001a0: dd40 c6bd 2367 87bd 028c c5bd 6d9b 3bbd
000001b0: 4718 453d 7f1f fbbd a464 233d 930f 0f3d
000001c0: a442 a23c 6802 febd 4979 253d 850c b43c
000001d0: c9ae 9e3d 945b 4cbd fbee 363e 02ae 873c
000001e0: 21b2 d7bc 4192 473e 1032 b53c 0857 813d
000001f0: 8e33 65bd 619f 42bd adc8 9bbd bd70 0fbc
00000200: e402 563d 8f88 f8bd 911e ef3c 329b 25be
00000210: 0b73 0d3d 440b eebc aa25 123c d27e 3f3d
00000220: 9edc 6c3c d884 7cbd 56ce e53d e9bb 173e
00000230: f3f7 aa3d 83f7 843d 5be2 843d d712 8ebd
00000240: 1b6d 37bd 3cd0 76bc 5978 153e cbb3 0e3b
00000250: 3931 6ebd 897c e03d 7820 9cbb b183 b13c
00000260: e461 11bd 4bad a43d 14e8 843d af63 853d
00000270: 83a6 f2ba 053f 81bd 342d 0d3d ac56 44bd
00000280: fb4d 93bb 14bd ae3d 46c2 3f3b ed51 d53d
00000290: 1f47 3f3d 561d 40bc 36ad 293e d849 adbd
000002a0: a197 2e3d 8192 46bd 35d2 efbd 3075 d03d
000002b0: 527e a83d beef 9abd 9143 a5bd c825 35be
000002c0: 2afe f13d 09f8 f1bd 5d75 17be 65b5 b83c
000002d0: b877 9d3d 9e5c 3cbe 9bd9 dc3d 9c63 9c3d
000002e0: 1fbe d23b 1028 f0bb e053 09be 1331 02be
000002f0: d10a d1bd 654b 803d 2dc5 b2bc ff0e 6a3d
00000300: fc11 b63c 7a98 2f3d 3d1f 80bb 923b e7bc
00000310: abd5 f1bc 9523 1e3d 5597 3a3d dd26 e9bd
00000320: 1c12 05bd fe74 53bd e61c d4bc 69bf 40bd
00000330: 0dbc 08be 33ed 8a3d a469 28bd 4c84 373c
00000340: 4495 ccbd b8e7 eb3c 24bb 573c 3e5c d2bd
00000350: 3abd 2bbd 8046 893d f457 98bd 7967 b23d
00000360: 5448 76bd b878 e03b 7b87 f23c e8bf e3bb
00000370: ae80 8dbd 8b4f 283d aff6 1b3a 71d3 913d
00000380: d22b 3dbe 7869 05be 70cb c43d 68c8 333d
00000390: 0f85 423d 0e42 48bd 27c0 213d be21 1dbe
000003a0: 4f0f 4f3d 4b22 5fbd 52e5 eabd 65ee 15be
000003b0: 52c0 d83d 784c 9e3d 36cc 3a3d 1d3b cbbc
000003c0: 4f67 e8bd 7943 95ba 6b21 713c 3ef3 29be
000003d0: f91e cfbd 42b8 88bd f4fc 68be 7bf0 693d
000003e0: 314b a23b ba57 193c 8cda 1abd 7335 4dbd
000003f0: af17 c0bd d935 a8bd 0dac 803d 40f3 2b3e
0.005440651 -0.084677055 0.05681279 -0.030059772 -0.060443643 0.07711244 0.043969497 0.13354938
0.05556075 -0.03820905 0.027681142 -0.014972805 -0.06795848 0.10510411 -0.03514335 0.08847375
0.10732535 0.03275837 -0.20933048 0.0267514 0.064696 0.052567303 0.06454405 -0.068658054
0.06605878 -0.028573442 -3.2841584e-05 0.03509424 -0.011985997 0.076800175 0.013499931 -0.13169067
-0.026571425 0.058296356 0.004185274 0.010004373 0.1273179 0.017771617 0.037589304 -0.033757247
-0.07313854 0.04495201 0.04219612 -0.06323266 0.08659411 0.067081474 -0.009504674 0.073314115
-0.08747657 -0.019043915 -0.058932718 0.015043016 0.07636675 0.0060956 -0.10025087 -0.10263131
0.07322865 -0.08133857 0.13643229 -0.013804319 0.049096063 -0.11910343 0.030403508 -0.0597505
0.11411878 -0.013194945 -0.0083039105 -0.05290637 -0.09721516 -0.1001404 0.047099054 -0.060535837
0.0048293527 0.009012572 -0.10742704 -0.0034083023 0.012577808 0.029751325 0.0188271 -0.05745897
-0.04443614 0.04923201 -0.012541128 0.05514977 0.059467312 -0.011524985 0.027977867 0.008650021
-0.057209834 -0.015011937 0.008892118 0.09382032 -0.027656276 0.07624192 0.06384102 0.06840636
0.18979575 0.14123368 -0.107652776 0.13023719 -0.030676212 0.025069311 -0.009099725 0.0005546788
-0.096803404 -0.06611469 -0.09645845 -0.045802522 0.048118856 -0.12261867 0.0398909 0.034926962
0.019807167 -0.12402803 0.04039887 0.021978626 0.077481814 -0.049892023 0.17864601 0.016562466
-0.026330056 0.19489385 0.022118598 0.06315428 -0.05595737 -0.047515277 -0.07606635 -0.008754906
0.05224885 -0.121354215 0.02918938 -0.16172484 0.03453354 -0.029058106 0.008920113 0.046751805
0.014456896 -0.061650127 0.11220996 0.14817776 0.08348074 0.064925216 0.064884864 -0.06937187
-0.044781785 -0.015064295 0.1459669 0.0021774645 -0.05815241 0.10961253 -0.0047646128 0.02166924
-0.035493746 0.080408655 0.06489578 0.06513154 -0.0018512759 -0.06310848 0.034466937 -0.04793422
-0.00449538 0.085321575 0.0029260083 0.10416017 0.046698686 -0.011725744 0.16569981 -0.0846135
0.042625073 -0.04847956 -0.11710016 0.10178602 0.08227219 -0.075652584 -0.08069528 -0.17690194
0.11816056 -0.11814887 -0.14790864 0.022547433 0.0768885 -0.18394706 0.107836924 0.076361865
0.0064313556 -0.0073289946 -0.13410902 -0.12714033 -0.10207141 0.0626438 -0.021822536 0.057143208
0.022225372 0.042870022 -0.003909974 -0.028226648 -0.02952083 0.038608152 0.045554478 -0.11384366
-0.032487974 -0.051625244 -0.025892686 -0.047057543 -0.13352986 0.067835234 -0.04111637 0.011200976
-0.09989408 0.028797016 0.013167176 -0.102715 -0.041928507 0.067029 -0.07438651 0.08711142
-0.06012757 0.0068503283 0.029605618 -0.0069503672 -0.06909309 0.041091483 0.00059495395 0.071204074
-0.18473747 -0.13028514 0.09609115 0.043892294 0.047490176 -0.04889112 0.03948989 -0.15344903
0.05055171 -0.054476064 -0.11469521 -0.14641722 0.10583557 0.07729429 0.045604907 -0.02480846
-0.113478296 -0.0011387906 0.01471744 -0.16596696 -0.101133294 -0.066757694 -0.22752744 0.057114106
0.004952811 0.009359295 -0.03780608 -0.0500998 -0.09379517 -0.082133956 0.06282816 0.16792011

bias f4 [128]
00000000: 99b7 043c 8d47 4abd 5e8b a9bd 5fc7 6a3d
00000010: dfa0 eabd b65b fbbd 6326 35be 454d 2dbe
00000020: a453 61bd bdcc acbd a9b0 11bc cdfb f23c
00000030: d233 35be 9f84 2a3c bc80 8ebd b902 053c
00000040: 074c 083d 2cf8 dabc a153 453d 5166 3cbd
00000050: 2a11 46bb 627f 6b3d 25dd 4bbe fc62 123d
00000060: 6dc4 b7bd 0ee4 7cbd 7f2d ddbd 3d51 c8bc
00000070: b925 7abd 1346 32bd 5816 2ebd b634 933d
00000080: d012 3aba 7046 a03d 4788 86bd 67d8 0d3d
00000090: 23c8 05be c453 513d bd0e 5d3c 266c 11be
000000a0: 1dc3 3f3d 7896 95bd b84a f3bd 1a09 36be
000000b0: 9540 a2bc 4f8e a23c 0bd6 e7bd c259 9dbd
000000c0: ad3c c6bd 1427 6dbd 29a4 01be 76b0 e2bd
000000d0: 28dc bb3c 26f4 dfbc cac3 ef3b 1423 6c3d
000000e0: 9386 8f3d 89a0 48be fa04 00be f2d5 293d
000000f0: 365d 5b3d 42c3 6bbc 662f aebd f425 01be
00000100: 48a1 cebd 4c6f d8bd 7b28 a63c 1329 7f3d
00000110: 9faa 06be fd58 74bd 5cd0 913c def4 f53c
00000120: d22e 89bc 0626 9fbd cc4d 34bd 6959 c9bd
00000130: ab85 28bd d5ce 88bd 0238 66bd 97fc 35be
00000140: 7917 2fbd 6776 adbc 9814 05be 56e2 833d
00000150: 2e5e c6bd 8f40 313d 808b 66bd 1b8b 3bbe
00000160: d9ad 1e3d 6f8f 0bbe b5a3 48bd 4863 9a3b
00000170: 4a0e 613c bb2d 2bbc 9fea b1bb eae6 8f3d
00000180: da2b 293d 76ce 8ebc 4aa9 2c3c 48cb 68bd
00000190: f23d 0bbe dd25 4dbc 9720 23be 5400 6bbd
000001a0: 63f4 fabd e752 d8bd 8798 59bd fb6b 0a3e
000001b0: e2b5 88bd 8d73 d6bd 1b7b c9bd d79f 313d
000001c0: 2325 33bd 23d2 b8bd 9293 8c39 d5ea b53d
000001d0: ee72 df3d f92e 00bd 2428 45bc e30d 19bd
000001e0: fc6c 7e3b c43c 14bd 65b9 8fbd f626 d63d
000001f0: eb7b adbc f4d7 fabd df08 10bc 7d92 d3bc
0.008100414 -0.049384642 -0.08278535 0.05731904 -0.11456465 -0.12273352 -0.17690425 -0.16924007
-0.055011407 -0.08437488 -0.008892217 0.029661084 -0.17695549 0.010407596 -0.06958148 0.008118325
0.03327563 -0.026729666 0.048175458 -0.045996014 -0.0030222633 0.05749453 -0.19908579 0.03573893
-0.08973012 -0.061740927 -0.10799693 -0.0244528 -0.06107113 -0.04352386 -0.042501777 0.07187788
-0.000709814 0.07825935 -0.065689616 0.034630205 -0.13064627 0.051105276 0.013492283 -0.14201412
0.046816934 -0.0730409 -0.11879486 -0.1777691 -0.019806186 0.019843249 -0.11320122 -0.076831356
-0.09679542 -0.057898596 -0.12660278 -0.110688135 0.022932127 -0.027338099 0.007317041 0.05765064
0.0700809 -0.1959249 -0.12501898 0.0414638 0.05355569 -0.014389815 -0.08505134 -0.12612134
-0.10089356 -0.10568103 0.020282974 0.06229503 -0.13151024 -0.05965518 0.017799549 0.030023988
-0.016745958 -0.07770924 -0.044019505 -0.09831507 -0.0411431 -0.06680075 -0.056205757 -0.17772137
-0.042746995 -0.021174623 -0.12996137 0.064396545 -0.09685932 0.04327446 -0.05628538 -0.18314783
0.038740013 -0.13628934 -0.04898425 0.0047115423 0.013736317 -0.010447915 -0.0054295803 0.07026465
0.041301586 -0.017432433 0.0105384085 -0.05683449 -0.13597849 -0.012521234 -0.15930401 -0.05737336
-0.12253644 -0.10562687 -0.053123977 0.13517754 -0.066753164 -0.10471258 -0.09837934 0.043365326
-0.04373659 -0.090244554 0.0002681283 0.08882681 0.10910593 -0.031294797 -0.012033496 -0.03736676
0.0038822284 -0.036190763 -0.07017783 0.1045665 -0.021177253 -0.12248221 -0.0087911775 -0.025826687

weight f4 [128, 128]
00000000: ed81 33bc e3f0 343d 6c66 d03c dd44 bebd
00000010: fc1b 12bd 962a 993d b5fd aa3d 1910 ffbc
00000020: b033 e7bd fccc 7dbd 903d 003d 5758 9f3a
00000030: f23e 513e a39b c1bc db16 903d da47 e53b
00000040: e300 d8bd d3eb 87bd 3eb2 5d3d 709c bd3d
00000050: 1ebf cd3d 9528 d13c 9499 a63d 99d5 aebd
00000060: ef45 873d 1d49 e23d 8f37 dbbc 8e70 c43d
00000070: c0dd 39bd 6f1b 09bd 43a3 b43d d4e2 543c
00000080: acea 16bd 9971 873d 09e2 89bd 494a 053e
00000090: c2bd 3fbd 4199 b6bd 93ea 72bd d34f cfbd
000000a0: 03e9 cf3c 8498 363d aa94 bb3c b7e3 83bd
000000b0: 784e b2bd 11ae dbbb 9b06 923d ea4e 07bd
000000c0: 19ff ebbd d51c 383e 688e 59bc f02f 763c
000000d0: 8454 fdbd f796 703d c6dc 163d 5dd9 543d
000000e0: 7e29 123e a468 aa3d 8c7d 433d 3244 d7bd
000000f0: 6e65 59bd 770a c5bc b74e fd3b fda4 1bbc
00000100: 545f cfbe 0d21 13bd a860 b43e fb91 4b3d
00000110: a4e6 153d d41c 03bd 2cd9 d73d 4808 76bd
00000120: 7eb7 55bd eb96 a73b 4abf ab3c f1b9 88be
00000130: e639 003e 53e8 ef3c 8713 493d 6ea5 4dbd
00000140: 4c39 81bd 3a21 d63d 5d72 af3d 15c0 82bb
00000150: 45f0 ab3d 308d 3d3b b0ca 28bd 9f0a ce3e
00000160: e670 acbc e1cc 70bd cdcd 8a3d bcbd ad3d
00000170: 1c79 4bbe 653a acbd a9bd ccbd 3a14 85bb
00000180: 6111 a53c 2c9b a63c 89c8 043e 6d6f 79bc
00000190: 495a 10bd 35db e4bc b54c d93d 0a68 613d
000001a0: 1d64 c9bd 39cd 2f3d 5550 8cbd 9110 9bbe
000001b0: e751 08bc 4285 7a3d 1127 11be b464 8f3a
000001c0: 8217 0e3e c8d7 ea3c d167 b83c a310 9b3d
000001d0: 9183 6cbd 9a0d 89bc 0bac 50bd a87a 7cbd
000001e0: 2829 543d 39fc 8abc 0d1a 483d 52ad 5fbe
000001f0: 92b0 873d 65b5 4abc 1775 70bd a45b ba3b
00000200: bd65 c8bd a2ba f2bd 3992 9e3c af81 c5bd
00000210: 28d2 8d3c 457d 5a3c dd1a 503d 02e8 073e
00000220: 730d 233c ce11 653d d7f1 acbc 2418 3dbc
00000230: d8db 36bd 480f e2bd 06bb 533e eb2d b23d
00000240: 1f38 16bd 68a6 c33d 239a b43c 668d 97bd
00000250: c573 943e bbd5 94bd 020e e1bc b737 abbd
00000260: b024 2ebc c0f5 103e ff66 64bc edc9 e4bc
00000270: db09 e1bd d40a d7bd a14b 4b3d b88d 403d
00000280: ad17 4a3c fa4e 35bd 31a8 6cbd fb66 323e
00000290: ef57 223d b06f bfbd ecb3 b53c e29a b3bc
000002a0: f6c2 9ebd 054a 2b3c 7038 853d c88a 8e3d
000002b0: 4338 9fbd 3594 e43d fc18 9ebd 8aea a3bd
000002c0: f7f8 eebb f97c 6ebd fe1c 9e3d 17bd b3bb
000002d0: f79f d1bd 396a adbd 3f07 103d f935 8fbd
000002e0: 5ac4 a1bd bd65 3fbb bd5d 3bbe a089 45bd
000002f0: cb1c ebbd b798 bcbc bd70 bebd 398c 87bd
00000300: c8e1 67be 2890 3f3d e992 833e 38b9 0ebd
00000310: a1d2 78bc d61f 3ebd 194f b63c 286e 093d
00000320: 6765 a0bd da26 a4bd b682 8abd 905b 37be
00000330: 5495 e03d e6cb 163e afa9 0dbc 9ab4 a4bd
00000340: 2e51 b4bd 7d7d 41bc a30c fa3d 2921 103d
00000350: 33a0 653d b25e 9f3b 6b6b 87bc 7b16 bf3e
00000360: b5e7 0dbd 6849 f0bd e850 163e 4b27 3e3d
00000370: 3ab8 8a3b d091 08bd 7955 68bd e219 1abd
00000380: 1c35 c6bd 442f 49be 97c5 713e 5654 443e
00000390: af5c 7dbd afc4 e2bc 9f80 943e 3839 a03c
000003a0: 17e7 493d 5d9a 87bd 50e8 fa3c f45e f5bd
000003b0: 8a56 55bd 8645 68bb 613b 9ebb 6ff9 9a3d
000003c0: 1122 ea3d ab06 62bd 9cfb a3bd de52 033d
000003d0: aaa0 9abd 563c 5bbd c086 80bd e9eb c83c
000003e0: 48de b3bd 2517 6fbd d152 a43d 33b0 2bbe
000003f0: 6fc8 3f3d 2992 eebd 0419 4a3c 1671 66bd
-0.01095627 0.04417504 0.025439464 -0.092904784 -0.03567122 0.07478826 0.08349172 -0.031135606
-0.112891555 -0.061963066 0.03130871 0.0012157065 0.20434168 -0.023633784 0.07035609 0.0069970908
-0.10547044 -0.06636777 0.054125063 0.09258354 0.10046218 0.025532046 0.081347615 -0.08536834
0.06605136 0.110491015 -0.02675989 0.095917806 -0.045377493 -0.03347343 0.08820202 0.012993533
-0.036844894 0.06613464 -0.06732566 0.13016619 -0.046811827 -0.089159496 -0.05930574 -0.10122647
0.025379663 0.044579044 0.022898037 -0.064399175 -0.08706373 -0.0067041 0.07130166 -0.033034243
-0.115232654 0.17979749 -0.013278581 0.015026078 -0.12369636 0.05873772 0.03683164 0.051965106
0.1427364 0.0832074 0.047727153 -0.10511054 -0.053075247 -0.024052842 0.007730331 -0.0094997855
-0.40502417 -0.03592019 0.35229993 0.049699765 0.03659691 -0.032009915 0.10539469 -0.06006649
-0.052176945 0.0051144264 0.020965237 -0.26704362 0.12522087 0.029285586 0.04909089 -0.050206594
-0.06309757 0.10455556 0.08566735 -0.003990183 0.08395437 0.0028923266 -0.041208923 0.40242478
-0.021049928 -0.058789138 0.06777535 0.084834546 -0.19870418 -0.084095754 -0.09997112 -0.004061249
0.020149888 0.020337664 0.12967123 -0.01522432 -0.035242353 -0.027936557 0.10610334 0.05503086
-0.09833548 0.042920325 -0.068512596 -0.30286077 -0.008320308 0.06116224 -0.14175059 0.0010940046
0.13876155 0.028667346 0.022510441 0.075715326 -0.05774266 -0.016730119 -0.050945323 -0.06164041
0.051797062 -0.016965972 0.04885297 -0.2184346 0.06625475 -0.012372349 -0.058705416 0.005687194
-0.0978503 -0.11852004 0.019356834 -0.09643876 0.017312124 0.013335531 0.05080687 0.13272098
0.009951937 0.055925183 -0.021111412 -0.0115414 -0.044643253 -0.11038071 0.20676813 0.087001644
-0.036674615 0.09553224 0.022046154 -0.074000165 0.28994575 -0.07267328 -0.0274725 -0.08360236
-0.010628864 0.14156246 -0.013940572 -0.027928317 -0.10988208 -0.10500112 0.049632672 0.047010154
0.012334746 -0.04426477 -0.057777587 0.17422096 0.03963464 -0.093474746 0.02218052 -0.02192444
-0.077520296 0.010454659 0.06504905 0.06960064 -0.07774403 0.11161081 -0.07719609 -0.08003719
-0.0072928625 -0.058224652 0.077203736 -0.0054851878 -0.10235589 -0.08467526 0.03516316 -0.06992716
-0.07898779 -0.0029204928 -0.18297477 -0.048226953 -0.11480101 -0.023022039 -0.09298847 -0.06618542
-0.22644722 0.046768337 0.2569802 -0.034844607 -0.015186937 -0.04641708 0.022254514 0.03355232
-0.07831841 -0.08015223 -0.067632124 -0.17906022 0.10965982 0.14726219 -0.008646413 -0.080422595
-0.08804546 -0.011809704 0.122094415 0.035187874 0.05606098 0.0048635835 -0.016530713 0.3732184
-0.0346448 -0.11732751 0.14679301 0.04642419 0.0042333873 -0.033342183 -0.056722138 -0.03762234
-0.096780986 -0.19646937 0.23610531 0.19172797 -0.061855968 -0.027681677 0.2900438 0.019558534
0.04929265 -0.06621239 0.030628353 -0.119810015 -0.052084483 -0.003544183 -0.004828856 0.07567107
0.11432279 -0.05518214 -0.08006975 0.03206145 -0.075501755 -0.053524338 -0.062757015 0.024526553
-0.08782631 -0.05837168 0.080236085 -0.16766433 0.046822008 -0.116489716 0.012335066 -0.05626019

bias f4 [128]
00000000: ce02 41bd 98d3 00be 8abe e33c ff66 98bc
00000010: c0fb 923d dddd 81bd cf80 acbd 28c0 f7bd
00000020: bc56 893d 4517 873d 7112 303e 8342 e1b9
00000030: 6a81 803d b356 80bd a195 9abc 7118 06be
00000040: 564b 8abc 0d58 a4bd 6086 3a3c e2d2 133e
00000050: f4cb 72bd 087a 60bd da03 fbbd 6a68 25bd
00000060: 663a 1bbe 6b5c 8bbd cb83 bb3c 9414 0e3d
00000070: 9a27 40be ccfd 3cbd dd9e 07be 828b 56bd
00000080: e94f ffbd 306e a5bd 34cd 45bd 49d9 7bbd
00000090: 1726 c5bd 783b 9cbd e057 acbb d210 1abd
000000a0: 98ea 863d 02c2 81bd 04aa 99bd 1de1 5fbd
000000b0: 4b1b 883b 682c b13d 6c5d a8bc 2ba5 b53c
000000c0: 3d4f 80bb ba42 e0bd 8b4d d9bc 8023 353d
000000d0: 2ecb 99bd 1cbc 90bd 24c2 62bd fc34 1b3d
000000e0: d7ab 18bd b3cc a0bc 0bed 083e 24ff c3bd
000000f0: 2901 e0bd 5482 e5bd e4cf 5cbd a316 8e3d
00000100: 8e47 c8bb 4d57 8b3d a6c1 9bbd f591 4cbd
00000110: 9911 61bd 8819 d1bd 7054 dbbc b878 c6bd
00000120: e793 ccbd aefb d5bd 5bf4 7c3d 09fd a1bc
00000130: c9c8 bf3c 8067 29be b131 bcbd 706a 6cbd
00000140: 083b 183d 4320 d03c e04d 143c 33d1 2abe
00000150: b8d3 e53c 3add cf3d fea3 4cbd e5ff 97bd
00000160: 3b8c 5abd ec56 0f3e 89e2 b0bd c2f4 dbbd
00000170: 0de7 18bc cf09 3dbc eca1 8fbd 06c0 203d
00000180: 49e8 6a3d fe67 633c 5a28 ed3c 647e 693e
00000190: 7c26 c9bd f157 bcbd b561 64b9 5f2c ad3d
000001a0: c06a b3bd 2e43 90bd 8f0e c2bb 9d96 a7bd
000001b0: 13e9 cc3b 5490 3ebe d688 90bd ce3f 82bd
000001c0: 2dae eabd 98e1 16be e80c 44bc ebeb f43d
000001d0: 0ff8 78bd ee0b 023d 8709 a23b 0454 2abe
000001e0: 4f1a 2dbe 73b5 cabd fbe0 58bd ee82 d5bd
000001f0: 7640 ef3d ce40 9cbd ea21 f9bc ed61 95bd
-0.047121815 -0.12580717 0.027800817 -0.0186038 0.07176924 -0.06341145 -0.08423006 -0.12097198
0.067059964 0.06596235 0.17194535 -0.000429649 0.06274684 -0.062665366 -0.018870177 -0.13095261
-0.016881626 -0.08024607 0.011384577 0.14435914 -0.059276536 -0.054803878 -0.12256594 -0.04038278
-0.15158996 -0.06804737 0.022889992 0.034687594 -0.18765107 -0.046140477 -0.13244195 -0.05237914
-0.124664135 -0.08077657 -0.0482914 -0.061486516 -0.09626406 -0.0762853 -0.005259499 -0.037613697
0.06587714 -0.06335832 -0.07503131 -0.054658044 0.004153644 0.08651048 -0.02055236 0.022173485
-0.003915696 -0.10950227 -0.026526233 0.04422331 -0.075094566 -0.07067129 -0.05536093 0.037892327
-0.037273254 -0.019628858 0.13371675 -0.095701486 -0.10937721 -0.11206499 -0.053909197 0.06937911
-0.0061120456 0.06803761 -0.07605295 -0.049943883 -0.054948423 -0.10209948 -0.026773661 -0.09690994
-0.09989148 -0.10448395 0.061756473 -0.019773977 0.023411172 -0.16543388 -0.091891654 -0.057718694
0.03716567 0.025406009 0.00905177 -0.16681366 0.028055057 0.101496175 -0.049961083 -0.07421855
-0.05335639 0.13998002 -0.08636958 -0.10740043 -0.009332431 -0.011537983 -0.07013306 0.039245628
0.05735043 0.013879774 0.028949905 0.2280212 -0.098217934 -0.09196461 -0.00021780173 0.08455729
-0.08760595 -0.070440635 -0.0059221457 -0.08183024 0.0062533705 -0.18609744 -0.070573494 -0.06359826
-0.11459003 -0.14734495 -0.011965968 0.1195906 -0.060783442 0.03174966 0.0049449834 -0.16633612
-0.16904567 -0.0989789 -0.052948933 -0.104253635 0.11682217 -0.07629548 -0.03041168 -0.072940685
