results/model/data_aug_570.model (torch, 686563 bytes, 21 tensors)

weight_ih f4 [384, 5]
00000000: 6a94 c33d 4ddf 283e 6485 393e c0dc 703c
00000010: efbf 7b3b 366f 033e 8c24 473e d6c5 5abd
00000020: e923 4d3c ff48 ed3d 1931 713c a11f 61be
00000030: 8895 febc 9703 143d cbe3 4e3e da57 a63d
00000040: 4a6a febd b805 ecbd a014 ecbd 17d8 193c
00000050: 9c9c d63e f18d dabd ea5a aa3c 5733 d13e
00000060: 5cac ebb8 4993 2fbe 5a8b 3b3e 9c76 65bc
00000070: 6818 1fbd 79ce 993e 6db5 ac3e 8e84 5a3e
00000080: 30ab e5bd 06dd 813d 554f 2c3e 97f3 adbc
00000090: afb5 203e 20ee 2c3e cfa4 ebbd d543 da3d
000000a0: 522e ae3e 61c2 24be 9a9f febd 3c34 cd3e
000000b0: fec2 143d be7c 613e f82e adbb baae c33d
000000c0: c82d 743d 457e 0ebd 565f f03d f6ae 083e
000000d0: bb79 c9bb f715 c7bd b5e0 3dbe 2329 65bc
000000e0: 33ef c53e 19bc d43d f130 21be 3038 dfbd
000000f0: 88c3 9c3e 63d9 d3ba ba84 493c 7e48 493e
00000100: 92cb 383e dc76 c43e ca71 083e 8879 d43d
00000110: 5317 a73e e9ae dc3d 1242 ac3d 99ba 583d
00000120: b54a 6a3e 6d40 01be 319d 30be 21ef a9be
00000130: 1dc7 a13c 6d37 b5bd 7f51 dcbd 47c9 7cbe
00000140: 5c59 293e 5af8 aebd 5da6 c5bd 0dd7 533c
00000150: 77bd ff3c 808d 7f3c c63c bebc 64fc cb3c
00000160: 2616 f13c 8977 78bb 7309 b23e 4c80 f7bd
00000170: 0cc1 0d3e efdd aa3e dd1d 963c ab03 45be
00000180: fb31 86be d8d7 f4bd f73e 473e a7f6 02bd
00000190: c4cb ecbd 4aa0 a83d 34ca e23d 4a33 f33d
000001a0: 6ee3 2fbe cb20 3d3d d726 3d3e 8776 a73d
000001b0: 54e7 403d bc06 b53d 35a7 99bd 2e8b 303e
000001c0: 17a9 893d 0844 163d 039b 32bf a5bb 09bf
000001d0: 003e cb3b 4563 1e3d 7760 35be 62b3 6dbf
000001e0: d736 3dbd 0623 60be 1efa ae3d 38b0 bdbd
000001f0: 923a b4bd fc49 063d fae5 813c 9eca 913d
00000200: 4b29 443c a89d 59be 8acd 67bb b0f9 d6bd
00000210: 84d6 66bc b0fb d3bd 8850 6ebe 689a 5b3e
00000220: 0f12 dfbc 101f a13d 8ce2 c63d 3504 143e
00000230: 42d8 743e 7dd9 003e 8ff2 08b8 fb10 f23d
00000240: c1e3 3e3d 9c30 0c3d 86f4 5bbc 45db d23d
00000250: 3c8c fabc e274 763c 40bf b33e 10dd a93d
00000260: 524c 493d 5ad9 a23e 9f9b 923e cb77 e93d
00000270: 7176 07bc 0295 bb3d aea2 163e db93 aabb
00000280: 2c8d fe3c e8a9 9a3d 315b 8cbe 19e3 843d
00000290: e5ea ecbc 327d aebe 1722 c2bd 854a 683d
000002a0: f792 923d 8244 2cbf 06c5 bc3d 0b24 223e
000002b0: a4e7 933e c4ca cc3d c12e 013d bf8b 79bd
000002c0: 1361 3ebe e28c 513d 6261 bfbd 1044 18bf
000002d0: 59a0 febd 4a8e c9bd 2ce1 0d3c a735 c33b
000002e0: 40dc bebe c7fa 613e 1e68 cbbd e3dc 113d
000002f0: 32f3 523c a07e dcbc 92e5 5abd ed90 cabc
00000300: 230c 453e 8c3f a8bc 953a 463e b941 2abc
00000310: 7e8b 8f3e 4307 dabd 29cb d4bd 2eca 0d3e
00000320: d59c e13d 7f62 e93d ae48 69bd 2028 e5bb
00000330: 93d4 473b 3d5d a03e d25e 463e ef03 063e
00000340: c56c b83e c254 40bd 007d b03d 505e 10be
00000350: 67ac e2bc 966e cd3c fc7a 3fbe 84ad 75bc
00000360: 5977 90be cecf 923d a4b2 0abe 1847 fe3d
00000370: 20fd 333e c2e1 afbe f27c 783d 1dea a53d
00000380: 06f9 f53d f4d3 c7bd 6514 333d 8d40 f83d
00000390: bd29 53be a2c4 a03d dfc5 11be acb4 e5bd
000003a0: 5da5 16be df9d c1bc a5c2 a13b 297e 75be
000003b0: 4f4b 85bd 29a9 01be fcf2 3c3d 1be2 d6bd
000003c0: ff9d 0c3e d40d 13be a5e8 433d f53c 78be
000003d0: 680e 3e3d b6fa 723e faaf 2f3d 1572 473e
000003e0: 0eae 063e bc7e 11bd 7e03 e0bc 5554 cebc
000003f0: ecc1 fabd 7516 bf3c 3200 903e aa64 3b3d
0.09549792 0.16491432 0.1811729 0.014701068 0.0038413962 0.12835392 0.19447535 -0.053411327
0.012520769 0.115861885 0.014721178 -0.21984722 -0.031077161 0.036136236 0.20204084 0.08122225
-0.12422617 -0.11524528 -0.115273714 0.009389899 0.41916358 -0.106716044 0.020795304 0.40859482
-0.00011237778 -0.17146029 0.18314877 -0.014005329 -0.038841635 0.3004034 0.33732167 0.21339628
-0.11214292 0.06340985 0.16827138 -0.021234317 0.15694307 0.16887712 -0.11506044 0.10657469
0.34019715 -0.16089775 -0.12432785 0.40078914 0.03631877 0.22020242 -0.00528514 0.09554811
0.059613973 -0.03478839 0.11736934 0.13347992 -0.0061485446 -0.09720986 -0.1854275 -0.013986859
0.38659057 0.10387439 -0.15741326 -0.10899389 0.30617929 -0.0016162809 0.012299711 0.1965656
0.18046406 0.38371933 0.13324657 0.10374743 0.32634982 0.10775549 0.084110394 0.05291233
0.22880061 -0.12622233 -0.17247464 -0.33190253 0.019748265 -0.08848462 -0.10757732 -0.24686156
0.16537994 -0.08543463 -0.09650872 0.01292969 0.031218274 0.015597701 -0.023222338 0.024900623
0.029429507 -0.0037913045 0.34772834 -0.120850176 0.13843173 0.33372447 0.018324787 -0.1923968
-0.26210007 -0.119552314 0.19457613 -0.031973507 -0.11562303 0.08233698 0.110737234 0.11875017
-0.17176601 0.046173852 0.18471847 0.08176904 0.04709561 0.08839175 -0.07502595 0.17240593
0.067217045 0.036685973 -0.6976778 -0.5380195 0.0062024593 0.03866889 -0.1771258 -0.9285184
-0.046194877 -0.2188836 0.085438 -0.09262127 -0.08800234 0.0327854 0.015856732 0.07118724
0.011972736 -0.21251547 -0.0035370314 -0.10496843 -0.01408923 -0.1035074 -0.23272908 0.2144562
-0.02723029 0.07867253 0.09711179 0.1445473 0.23910621 0.12582965 -3.2650827e-05 0.11819645
0.04660392 0.034226045 -0.013424998 0.102957286 -0.030584447 0.0150425155 0.3510685 0.082941175
0.04914505 0.3180645 0.28634354 0.11399802 -0.008267985 0.0915928 0.14710495 -0.005205614
0.031073175 0.07551938 -0.27413324 0.06488628 -0.0289206 -0.3407989 -0.09479158 0.056711692
0.071569376 -0.67292035 0.09217267 0.15834062 0.28887665 0.09999612 0.03153873 -0.060924288
-0.18591718 0.051159747 -0.09344746 -0.59478855 -0.12432928 -0.098415926 0.008659642 0.0059573236
-0.37277412 0.2206832 -0.09931968 0.035611045 0.012875365 -0.026915848 -0.05344159 -0.02472731
0.19242911 -0.020538114 0.19358285 -0.010391646 0.28036112 -0.10645916 -0.10390312 0.13846657
0.110162415 0.1139574 -0.05695408 -0.0069933087 0.0030491694 0.31321135 0.19372109 0.13087438
0.36020485 -0.04695583 0.08617592 -0.14098477 -0.027670098 0.025077146 -0.18699259 -0.014994983
-0.28216055 0.07168542 -0.13544708 0.12415904 0.17577028 -0.34351927 0.060666032 0.08101294
0.12010388 -0.09757224 0.04372062 0.12121687 -0.2062139 0.07850005 -0.14235638 -0.11216101
-0.14711519 -0.02363485 0.0049365335 -0.23973908 -0.065085046 -0.12662186 0.046130165 -0.10492345
0.13732146 -0.14360744 0.04782929 -0.24242003 0.046400458 0.23728451 0.042892434 0.19477113
0.13152334 -0.035521254 -0.027345415 -0.025186697 -0.12244019 0.023326138 0.2812515 0.045750298

weight_hh f4 [384, 128]
00000000: 1123 403e 9390 9b3c 64a2 c3bd 5e52 1bbd
00000010: d170 0e3e 4c70 603c c506 12be df27 bf3d
00000020: a50f ed3d 9dd2 1c3e 1362 2cbd fa5d 353e
00000030: 86eb 1a3e 0674 d43c b373 34bd 3493 5ebd
00000040: ff47 313e ed47 52bd 2b20 2d3e 4829 cd3c
00000050: 7146 39be fe64 a63c 28b2 3a3d 665d 513e
00000060: 9596 a93d a9cb fdbd 5436 f0bd 8c7f adbd
00000070: a8d5 a93d a7ec 153e 5e94 483c 2c55 7c3d
00000080: 1734 f03d e940 f43d 2da3 99bd 9be1 31be
00000090: 8cb2 48be 63e1 94bc 05eb 483d 2434 18be
000000a0: e589 03bd eb01 5c3a dc31 4dbe 60ec e7bc
000000b0: c616 0cbe 2c91 05be 9d2c 693e 5f4f 55be
000000c0: d137 45be ddb9 23be 6461 b5bc e933 d83b
000000d0: 3217 603e 9aaf e8bb 48c4 c93d 8cdd 213d
000000e0: ad3e a83d 7793 b7bd e8ef 18be 611a 73bc
000000f0: ee99 15bd 2067 72bd 2aa0 023c 2a41 a23d
00000100: 39bf 803d 39f6 61bd ef53 0abd 1303 8f3d
00000110: 4c15 a73d 716a 403e 904f 4eb9 14ef 073d
00000120: 4460 dbbd 7d02 35be ce6d 323e 25d4 bebd
00000130: 8313 8a3d bbd4 1e3c a0e5 673e be32 68bd
00000140: 33d8 a7bd ba7e bdbd d68b 1cbc 5efb c83d
00000150: 885d 76bc ecc6 55bd 1b30 0f3d 3c31 413c
00000160: 2493 633c a2a5 4f3d 2aa3 073e bc0b 1a3e
00000170: b035 6f3d 5eac 9bbd ae6b 403e f3dc 1a3e
00000180: ca93 153d 18ae ec3c 6205 39be 7c5e d93d
00000190: 48bc 0fbe d49a 6f3d dbf4 1d3d 3a52 3c3e
000001a0: 7876 a6bc 8eb7 2d3e 6159 e4bd 24e8 90bd
000001b0: ebab 93be 92bd b2bd 5348 65be 0712 eabd
000001c0: 55b6 183d a5a2 68bc f25d 45bd 9cb3 acbd
000001d0: df61 d9bd 658b 3a3c 1c1e d7bd 6397 133d
000001e0: 73b2 a93c 68d6 5abd 3f2d f63d be08 fcbb
000001f0: 483e 673e 7cb5 1a3a 6cea 21be 6917 06bd
00000200: 09c5 173d 43ce 08be 0749 833d 9dd0 eabd
00000210: 94ec 813e 64f9 2e3e 9c36 81be aa6e 66bd
00000220: 165a 453c 26f9 1d3e 5e47 57bd 397b 223e
00000230: 5184 273e 79fe b13e 57a4 c53c fb79 25bd
00000240: d2c2 303e 7649 4dbd e291 053e 5c2d 813c
00000250: 424c cb3c 2a44 3f3e 7037 273e 14b9 573e
00000260: 9833 5dbd 0bcd 06be 2e4d 88bc a92c 0e3d
00000270: f4c8 d4bd eca3 a23d ecf8 213c 3447 1ebd
00000280: 7e17 c2bd 1c82 173e d245 f33d abc6 d9bd
00000290: fc28 f9bd 7d0b cfbd 0a77 e43d 62ea 1dbd
000002a0: 6ec0 3fbd c874 093e 3399 11be f6dd 6fbd
000002b0: 74f8 24bc 26dd 853e 9290 563d 9539 02be
000002c0: e67f 35bc 0068 16be 720d b6bc 3bf5 983d
000002d0: 8f40 c3bc f893 26bd 333f 5abe 74a1 fe3d
000002e0: ec8f deba 2fa7 e43d 2015 1fbd 4bf5 70be
000002f0: 34b5 0f3b 1be7 3fbe c903 983e 8310 acbd
00000300: 4806 033e 0caa 1ebe a304 f73d f24a ad3d
00000310: 9c39 a2bc 4fe1 cc3d 7d02 88bd 9a99 db3d
00000320: 53c3 0ebe e653 2cbe 4e0f cebc b15e 8a3e
00000330: 2413 33be 2d50 edbd 12d9 443d 0305 ebbd
00000340: 1808 263e f3c3 76be 3d97 e8bd 82aa ad3d
00000350: b7cc 26be 9ff0 d2bd 6272 babd 33b2 593d
00000360: f4e8 d6bd 213d 423e 4559 8bbd 6e75 5dba
00000370: 5207 333e 0035 18bd eca7 dcbd 8971 c33d
00000380: d8f6 133d 63da 39bc f3ef 8e3d a287 dc3d
00000390: 8066 9dbc e3f9 e6ba 4625 7abe 1269 8e3e
000003a0: 7f6e 4ebb abc6 2dbe 0284 163e 9e88 31be
000003b0: 82fe 82bc 821d 64be d193 3ebe e094 353d
000003c0: 6aa3 f73d 17eb 00be fe6c 17bd fe21 63bd
000003d0: dad7 09be bd08 b93d 3336 e6bd 20d8 f9bc
000003e0: ace5 c13c 14bf f53d 581a ce3e dc96 263e
000003f0: 3006 b03d 08dd 57bd 51f1 4dbb d064 ffbd
0.18763377 0.018989837 -0.09552458 -0.03792035 0.13910224 0.013698649 -0.14260395 0.09333777
0.115752496 0.15314718 -0.04208572 0.1771163 0.15128908 0.02593423 -0.044055652 -0.054339603
0.1731262 -0.051338125 0.16906802 0.025044098 -0.18093278 0.020311829 0.04558006 0.20445785
0.08280674 -0.12392361 -0.11729112 -0.08471593 0.08292705 0.14641057 0.012242405 0.061604664
0.11728685 0.11926443 -0.075018264 -0.17371218 -0.1959936 -0.018173879 0.049052257 -0.1486364
-0.03211393 0.000839262 -0.20038551 -0.028310955 -0.13680562 -0.1304366 0.22770925 -0.20831059
-0.19259574 -0.1598887 -0.022141166 0.006597985 0.21883848 -0.0071010115 0.09851891 0.039517924
0.082150795 -0.089636736 -0.14935267 -0.014837832 -0.036523752 -0.05918038 0.007972756 0.07922585
0.06286473 -0.055166457 -0.03377145 0.06983008 0.08158359 0.18790604 -0.0001967533 0.033186987
-0.107117206 -0.1767673 0.174247 -0.09317807 0.06742003 0.009694274 0.22646189 -0.056689017
-0.081955336 -0.09252687 -0.009554824 0.098135695 -0.015036948 -0.05219166 0.034957986 0.011791524
0.0138900615 0.05069507 0.13245836 0.15043539 0.05840081 -0.07601236 0.18791077 0.15123348
0.036517896 0.028891608 -0.1806846 0.106137246 -0.14036667 0.058497265 0.03856359 0.18390742
-0.020320162 0.16964552 -0.1114986 -0.07075527 -0.288421 -0.08727564 -0.22390871 -0.1142922
0.03728326 -0.014198934 -0.048185296 -0.08432695 -0.106143706 0.011385773 -0.1050379 0.036033046
0.020714974 -0.05342713 0.12020349 -0.007691472 0.22582352 0.0005901677 -0.15812081 -0.03273717
0.03705314 -0.13359933 0.06410413 -0.11465571 0.25375807 0.17087322 -0.25236976 -0.05625788
0.012045404 0.15427074 -0.052558295 0.15867318 0.16359068 0.3476446 0.024126215 -0.040399533
0.17261818 -0.050118886 0.13043931 0.0157687 0.024816636 0.18678346 0.16329741 0.21066695
-0.05400428 -0.13164155 -0.016638365 0.03471056 -0.10389891 0.07941422 0.009886008 -0.038642123
-0.09477137 0.14795727 0.118785515 -0.10633596 -0.1216602 -0.10109613 0.111555174 -0.038553603
-0.046814375 0.13423455 -0.14218597 -0.058561288 -0.0100690015 0.26145285 0.052383967 -0.12717278
-0.011077857 -0.1468811 -0.022223208 0.07468649 -0.023834495 -0.040668458 -0.21313171 0.124331385
-0.0016980148 0.111647 -0.038838506 -0.23531072 0.0021928074 -0.18740503 0.29690388 -0.08401587
0.12795365 -0.15494555 0.12061431 0.0846156 -0.01980286 0.10003912 -0.066410996 0.107226565
-0.13941698 -0.1682888 -0.025153782 0.2702537 -0.1748777 -0.11587558 0.048058577 -0.11475565
0.16214025 -0.24098186 -0.113569714 0.084797874 -0.1628903 -0.10299801 -0.09103848 0.05314846
-0.10493651 0.18968631 -0.06804136 -0.00084479793 0.17483261 -0.03715992 -0.10774216 0.095431395
0.03612408 -0.011343571 0.069793604 0.107680574 -0.019213915 -0.001762208 -0.24428281 0.27814537
-0.0031498966 -0.16970317 0.14698794 -0.17337272 -0.0159905 -0.22276881 -0.18611075 0.04433143
0.12091716 -0.1258968 -0.036969177 -0.05545234 -0.13461247 0.0903487 -0.112408064 -0.030498564
0.023669086 0.11999336 0.40254474 0.16268486 0.0859493 -0.052701026 -0.0031424353 -0.124704

bias_ih f4 [384]
00000000: bd5c 2b3e 73ee de3b ab8c a0bd 732a 8f3c
00000010: d151 063f 3097 78bd 2b3f 823d d691 29bd
00000020: 72dd 9b3e 635c 9a3d 63e2 b0bd 5a0e eebd
00000030: 8cdc 243e 730d ea3e 6e91 be3d 677e ffbd
00000040: 88c4 0b3c a1c2 b23d 6026 c33e 4e55 b2bb
00000050: a1c8 89bc 248b 973d bbca 233c c37a ca3d
00000060: 9bcf a13d ce29 653a 41b7 8d3d cb79 573d
00000070: df59 c33d ec2c cbbd eb5d cc3e 5553 653e
00000080: 19bc c33a f8e3 9e3d 6c31 283d d559 f23d
00000090: c99a 55ba dd93 4f3d e4b1 18bd 5788 eb3c
000000a0: 6bb9 fd3d 41eb 6d3e c3a0 0d3d 3615 4e3c
000000b0: cd97 063e 50fd 33bc 8482 2bbe 9729 1ebd
000000c0: 1ff9 4fbd 9b71 c03d a3b1 843d dcec c93d
000000d0: aae1 99bd a9f2 313d 64c4 a73b 1d2c 1b3e
000000e0: 8bd0 c3bd 4224 e6bb bf5a 0ebe 4e04 5cba
000000f0: 0d2e b53d 8390 653e e309 e4bd 021f 7c3d
00000100: 15c8 4a3e 1be0 0fbe e682 ffbc 4655 543e
00000110: 4c87 593c 57ed 473e a1f7 823d 3f41 153e
00000120: 8f13 273e 383a 9f3d 9a89 9c3e 75c9 0dbe
00000130: e212 083e 7490 afbd c984 abbd 164d 98bd
00000140: 3caa 153e eea0 81bd 5042 413e f5a3 0f3e
00000150: 540e 21be c977 9e3e a3a0 583e b393 873e
00000160: 308b 553e 424a 10bb 4abe e13d 07ca 133d
00000170: 9289 ca3d 4f71 63bc 291c 153d 5b1e b53d
00000180: 6b00 bebd 1f23 0ebe 9200 a23d 958d f03b
00000190: ffbe 603d f026 4d3c e5d0 bc3c 4e86 ee3d
000001a0: e786 d63d 42db 663d 4fdc af3d daa1 a83e
000001b0: 7348 7d3d 9ef9 b33d 409f 3ebd eabb 0ebe
000001c0: b032 e03b 777c 64bd f167 9e3d 4136 49be
000001d0: 8ff8 1dbc e473 4d3c b0b0 8bbd 3b13 d53d
000001e0: 443a 473d 49b6 453d a3df 653c a559 0fbe
000001f0: 0782 64bd 9a31 6f3e 9fbf c03d 5aef 883e
00000200: 7bf4 b5bc d4c7 55be 210d e5bc 3a1a 96bc
00000210: f9c9 28be 67ea 97be 1485 15be 4c81 803e
00000220: d8b8 89be 6cb2 f9bc 92b4 13be 7670 45be
00000230: 4317 f33d ae06 4fbe d241 813a 8fe3 48be
00000240: 7cc9 b1be 1ead 293e c113 72be ed59 8cbd
00000250: a8f3 993d 6285 cabd fd70 93bc c9fb 72be
00000260: be19 86bc 04ea e13e 095c cfbd a017 073e
00000270: 517b b2be cfb5 cd3e 1653 a2be 864b fcbc
00000280: f4e2 1abe 6ab6 30be c783 d0bd 46f3 22bd
00000290: 48f1 3cbe 19df b0bb 9a70 bebd 7d30 d03d
000002a0: 8fd5 b3bc f8be 88bd b758 b7bd 21f6 a53e
000002b0: 4551 b8be 6559 a3bd 6f6f 6f3e 9a6e 59be
000002c0: 6592 093d 90db 563e 1be3 053e 59d0 b9bd
000002d0: 9273 c23c db85 eb3d 59da e9bd a04e 8f3e
000002e0: cb84 98bd 58d8 95bd 23c5 78be 5011 8ebd
000002f0: b9b2 efbd 68ae a8be e384 d0be f51c 77be
00000300: 50fd abbe 1f34 e9bd ae25 19be 76b8 0cbc
00000310: 667c 25be ec17 dfbd 7656 87bc 5885 9abe
00000320: 5617 81be 17ef 723e 97c5 40be 272e fe3d
00000330: 1caf 85be 0b5a acbe 6d91 b73d 22aa 833d
00000340: 2def 59be 120a 92be 298f 0cbe b412 8ebd
00000350: 722a c63e 18f2 0dbe ac01 673e a806 8e3d
00000360: 349a 28be 1fa3 7dbe 436e a5bd 0522 723d
00000370: 7256 28be e53f 94be f6d1 6e3d ac0d 80be
00000380: 7cf6 ea3c 7982 2cbe d1c5 29be 3d59 c2be
00000390: 2a84 633c 37f1 2e3e dd76 8c3c c3e1 ebbd
000003a0: a77f 09be 8e3e 51be 9778 273d d370 b1be
000003b0: ae37 dbbd 29a3 8dbe 38d0 91be b351 203e
000003c0: f88d 753e 02f0 63be e173 d2bc ecf5 11bd
000003d0: de8d 01bd f05d 29bc dc0f 10be 5a22 cbbd
000003e0: a33f 70be a1a5 99bd 6c3b a2be 5316 b5bd
000003f0: 2a8d d0bd 9cc2 2abe d490 993d 0628 7cbe
0.16734596 0.0068033277 -0.0783933 0.017476296 0.5246859 -0.06069106 0.063597046 -0.041398846
0.30442387 0.075371526 -0.0863693 -0.11623831 0.16099757 0.45713386 0.09305082 -0.12475281
0.008530743 0.08728529 0.38115215 -0.005442298 -0.0168193 0.07399586 0.009997065 0.09886696
0.07900926 0.0008741886 0.069197185 0.052606385 0.09538626 -0.099206775 0.39915404 0.2239507
0.0014933377 0.07758325 0.041062757 0.1183354 -0.000814837 0.050678123 -0.037279025 0.028751535
0.12388881 0.23234273 0.034577142 0.012578299 0.13143845 -0.010985687 -0.16749007 -0.038613882
-0.05077469 0.093966685 0.06479194 0.098596305 -0.07513745 0.04344431 0.005119847 0.15153547
-0.09561261 -0.0070233652 -0.13901804 -0.00083929754 0.08846674 0.22418408 -0.11134698 0.06155301
0.19802888 -0.14050333 -0.031190347 0.20735654 0.013276886 0.19524132 0.06394888 0.1457567
0.16316055 0.07774776 0.30573732 -0.13846381 0.13288453 -0.08572474 -0.08374936 -0.07436578
0.1461572 -0.06329523 0.18872952 0.14027388 -0.15728122 0.30950764 0.21155028 0.26479873
0.20853877 -0.0022016917 0.11022623 0.03608134 0.09889521 -0.013881995 0.03640381 0.088436805
-0.092774235 -0.13880585 0.07910265 0.0073410966 0.054869648 0.01252149 0.023048827 0.1164671
0.10474949 0.056361444 0.085869424 0.32935983 0.06183667 0.08787845 -0.04653859 -0.13938871
0.00684198 -0.05578276 0.07734669 -0.19649602 -0.0096417805 0.0125398375 -0.0682081 0.104040585
0.04863955 0.048269544 0.01403037 -0.1399904 -0.055788066 0.23358765 0.09411549 0.2674511
-0.022211304 -0.2087701 -0.027960362 -0.018323053 -0.16483296 -0.29671022 -0.14601547 0.25098646
-0.26898837 -0.030480586 -0.14424351 -0.19281182 0.11869671 -0.20217392 0.0009861535 -0.19618057
-0.34724033 0.16569945 -0.23640348 -0.068530895 0.07517177 -0.09888722 -0.017998213 -0.23728861
-0.016369697 0.44123852 -0.10124976 0.13192606 -0.34859708 0.4017777 -0.31704015 -0.030797731
-0.15125638 -0.17257085 -0.101813845 -0.039782785 -0.18451416 -0.005397689 -0.09298821 0.101654984
-0.021952419 -0.066770494 -0.08952468 0.32414344 -0.35999504 -0.07976035 0.23382352 -0.21233597
0.03358688 0.20982194 0.13074915 -0.09072942 0.023736749 0.1150014 -0.114186 0.27989674
-0.07447203 -0.07316655 -0.24293952 -0.06936896 -0.117040105 -0.3294556 -0.40726385 -0.2413214
-0.335917 -0.113868944 -0.1495578 -0.008588901 -0.16160735 -0.108932346 -0.01652072 -0.30179858
-0.25213116 0.23724018 -0.18825375 0.124111466 -0.2611016 -0.33662447 0.08963285 0.06428935
-0.21282645 -0.28523308 -0.13726486 -0.06937161 0.38704258 -0.13861883 0.22559232 0.06934863
-0.16465074 -0.24769257 -0.080776714 0.059114475 -0.16439226 -0.28954998 0.058305703 -0.2501043
0.028681986 -0.16846646 -0.16579367 -0.37958708 0.013886491 0.17084204 0.017146522 -0.1151767
-0.13427602 -0.20434019 0.040886488 -0.3465639 -0.107039794 -0.27663544 -0.2847917 0.15656166
0.23979938 -0.22259524 -0.025690021 -0.03563492 -0.031629436 -0.010337338 -0.1406855 -0.099186614
-0.23461775 -0.07502294 -0.3168596 -0.08842149 -0.10183175 -0.166758 0.07498327 -0.24624643

bias_hh f4 [384]
00000000: 13d5 263e 127a 543d f217 d1bd 0f99 14be
00000010: d16c 073f 37b1 c5bd 1ca3 893d ac05 e5bc
00000020: 06a0 b03e 790a c03c d7c3 d13a bc20 09be
00000030: 7af3 9a3e 9c61 f33e 3ea5 053e 89ce 14be
00000040: 4dbc 0fbd 2220 13bd 73db 823e 4a91 123d
00000050: b015 55bd da70 2c3c 1353 3c3b 3bcd 5b3d
00000060: 9320 fd3b 1446 063d 214b b23d 824c 6e3d
00000070: 1596 f23d c8e4 2cbd 524a 973e 1078 313e
00000080: 5742 3bbd 5449 e23c d3a6 153e b888 323e
00000090: 6549 49bd 68ea 9c3d 0de3 cdb9 f70b 0bbe
000000a0: f4f6 d7bb a699 843e d14e 443d 4588 e03c
000000b0: 06a5 be3d d765 b8bd 3055 2dbe 595b 22bd
000000c0: 9b72 923d 992a ac3d f321 613d f4c2 d73c
000000d0: 51da eabd caf2 27bd 6278 483d 47ff bc3d
000000e0: 9bba 4bbd 71dd f93c 4c94 38be 5854 043d
000000f0: b5c1 c9bb 84af 893e 3d1b a5bd 0408 1f3e
00000100: d952 363e cb1a 3ebd 0837 d0bb c6eb 443e
00000110: 37ad 433d 7267 f63d 494e b53d 386b 553e
00000120: 886a 133e 4fc7 eb3d 2478 233e 96a2 04be
00000130: 1038 403d ac72 1cbe 3d7c 323b 0606 d8bc
00000140: de65 8e3e 0b97 18be dc1c 463e bad4 a13d
00000150: 8b44 61be 198a 8e3e 9db3 683d b198 3e3e
00000160: 8a62 e03d ec26 52bd e177 f43d 0cce eb3d
00000170: a453 c23d 454a 0cbe 525e 1b3e 9ddd d43a
00000180: 0cb0 fabd d0ba edbd 2fc5 023e 5d74 11be
00000190: 9643 933c dc76 63bd c819 583d 2cdb 173e
000001a0: 0e0c 23bd cb42 64bd cd7d 9b3b c78d 9c3e
000001b0: 1f3d 253e 2c82 5dbc aff5 c1bd 2883 d2bd
000001c0: 30ba bc3d 3fee 163d bd74 903d 39ac 07be
000001d0: 1f32 1abd abb5 4d3d f0bf 693d 7a16 813e
000001e0: 9d57 633d ea08 4e3d ec9e f03d 80b2 0cbe
000001f0: 3537 74bd 4dc2 843e 3106 953d c85f bb3e
00000200: addb 10be c4a8 88be 20de f8bc bf16 b33c
00000210: dc5e 84be 30e4 92be 3666 2ebe 4a43 8c3e
00000220: 2212 a0be 4dbd d3bd 118e ffbd c52e 83be
00000230: 2ebe 8e3d 9c62 49be 7973 0ebd f83e 60be
00000240: 2e7e 88be 5c3c 813d 358e acbe 08c8 43bd
00000250: f02b 2e3e 7b5a 03be b103 b9bc 220c 61be
00000260: cb39 373d 6f24 df3e fc6e 353c 6b64 633e
00000270: e491 bcbe 4741 923e 5340 b0be 4f06 ca3d
00000280: d130 93be 805c 20be 0959 1ebe f1ca 32bd
00000290: df14 a2be 5283 4ebc 1ea4 fabd c49c 023d
000002a0: 7dfa 733d e6d9 0fbd b5f1 3cbe 540d c53e
000002b0: bd21 9bbe 03d1 09be cf3a 3d3e fcbc 98be
000002c0: 8919 72bd 46e3 dc3d d379 943d 78e0 12be
000002d0: f8bc 5d3d 70f6 bb3d e1d0 ecbd caf9 493e
000002e0: ff8e 2cbe a3cf dabd e449 bdbd c580 80bd
000002f0: 8fa4 6bbd 9268 c2be 7595 9fbe b2e9 c5be
00000300: 0a4f a9be d3ba 84be 6051 62bd fee1 1a3c
00000310: e301 60be 0297 04bd 2ee0 b33b c016 63be
00000320: 6457 b8be 81c0 ba3d 44db c1bd 6d8c c43d
00000330: f56d 21be 29e6 79be f601 3f3d 7ea1 cf3d
00000340: 5e77 00be 490e c8be 0396 11be b6ea dabd
00000350: 530a dc3e 9ba8 d1bd 181c 813e 4179 493e
00000360: df1a 76be ad86 33be 1ef8 91bd a1de f8bb
00000370: c603 49be 2568 91be 31af e13c 3126 1fbe
00000380: 0244 213d 9dbe 8ebe fa02 b1bd 24f6 b5be
00000390: 92ca 99bd 816a 0e3e 5101 843d 4984 3ebe
000003a0: fd42 00be 786a 13be 055c 413d 505d 9abe
000003b0: 0390 453d 6ad9 b7be 506b 28be f405 1f3e
000003c0: e901 953e 984b 84be 12c5 af3d b0aa 8cbb
000003d0: 6967 4ebd d7d2 04bd 5535 00be 5cbf 97bd
000003e0: 9ddc 4ebe c5ee c9bd 8419 96be 5345 ffbc
000003f0: 690c 50be d17c 3dbe 1ddd 9fbd 23d6 acbe
0.16292219 0.051874228 -0.10209645 -0.14511512 0.52900416 -0.09652942 0.06720564 -0.027956806
0.34497088 0.023442494 0.0016003799 -0.13391393 0.30263883 0.47535408 0.13051316 -0.14531912
-0.035091687 -0.035919316 0.2555805 0.03578309 -0.052022636 0.010524953 0.002873604 0.05366252
0.0077248304 0.032781675 0.08705736 0.058178432 0.11845032 -0.04221037 0.2954889 0.17330956
-0.045717563 0.027622856 0.1461442 0.17434967 -0.04914226 0.07661897 -0.00039269813 -0.13578783
-0.0065907184 0.25898474 0.047926728 0.027408728 0.093088195 -0.090037994 -0.16927028 -0.039637897
0.071507655 0.08406562 0.054964017 0.026338078 -0.11467422 -0.041003026 0.04894293 0.09228378
-0.049738508 0.0305011 -0.18025321 0.032307 -0.006157125 0.2689172 -0.08061836 0.15530401
0.17805041 -0.04641227 -0.0063542165 0.19230565 0.047772612 0.120314494 0.08852822 0.20841682
0.14396107 0.115126245 0.15963799 -0.12952647 0.046928465 -0.15278119 0.0027234696 -0.02637006
0.27812093 -0.14901368 0.19346946 0.079019025 -0.21998803 0.27839735 0.056811918 0.18612935
0.10956295 -0.05130665 0.119369276 0.1151391 0.094886094 -0.13700207 0.15172699 0.0016240362
-0.122406095 -0.11607897 0.12770532 -0.14204545 0.017976563 -0.055533275 0.052758962 0.14829701
-0.039806418 -0.05572776 0.004745221 0.30576918 0.16136597 -0.013519805 -0.094706886 -0.10278922
0.092152 0.036848303 0.07053516 -0.13249291 -0.037645455 0.05022208 0.05706781 0.2521246
0.055503476 0.05030147 0.11749062 -0.13739967 -0.059622962 0.2592949 0.072765715 0.36596513
-0.141463 -0.26691258 -0.030379355 0.021861432 -0.25853622 -0.28689718 -0.17031178 0.27395087
-0.31263834 -0.10338841 -0.12478269 -0.2562162 0.06969868 -0.19666523 -0.034778092 -0.2189902
-0.26658767 0.06310341 -0.33702245 -0.047798187 0.17008948 -0.12827484 -0.022584768 -0.21977285
0.04473285 0.43582484 0.011073824 0.22206275 -0.36830056 0.28565428 -0.34424075 0.098644845
-0.2874818 -0.15660286 -0.15463652 -0.04365057 -0.31656548 -0.012604551 -0.12238334 0.031887785
0.059565056 -0.035119914 -0.18451579 0.3848673 -0.30299178 -0.13458638 0.18479465 -0.29831684
-0.059106383 0.107855365 0.072497986 -0.1434344 0.054135293 0.091778636 -0.11563278 0.19724193
-0.16851424 -0.10684135 -0.09242609 -0.06274561 -0.057529982 -0.37970406 -0.31168714 -0.38654858
-0.33068115 -0.25923786 -0.055253386 0.009453295 -0.2187572 -0.032370575 0.005489371 -0.22176647
-0.36004174 0.091187485 -0.0946565 0.095970966 -0.15764602 -0.24404205 0.04663273 0.10138224
-0.12545535 -0.390734 -0.14217381 -0.10689299 0.42976627 -0.10237237 0.25216746 0.19675161
-0.24033688 -0.17531843 -0.07127403 -0.007594899 -0.19630346 -0.28399768 0.027549358 -0.15541913
0.039371498 -0.278798 -0.08643146 -0.35539353 -0.0750934 0.13907816 0.064455636 -0.1860515
-0.12525554 -0.14396083 0.047206897 -0.30149317 0.048233043 -0.3590806 -0.16447186 0.15529615
0.2910302 -0.25838923 0.0858251 -0.0042928085 -0.05039159 -0.032427635 -0.12520345 -0.07409546
-0.20201345 -0.09859995 -0.29316342 -0.031160986 -0.20317234 -0.18504645 -0.07805846 -0.33757123

weight f4 [128, 128]
00000000: 505f b2bd 5c74 4a3d f928 c03c ebfc 853d
00000010: e035 27bd a90e 8d3d 1335 873d b3bc a53b
00000020: 294b a93b 3e8a ba3b 805d 62bb e71e 15b9
00000030: ce8e c93d c37a 52bd e8b4 653d eac0 b63d
00000040: ea01 60bd 8c98 0f3e 2f5d 94bc e2d5 dbbd
00000050: f7cd fbba fa4f e23d dc83 19be 01a1 8dbb
00000060: 0a87 413d 19fd b53c 910c 9cbd f1a8 2d3c
00000070: a2e4 943c 613d 6dbd 3937 4a3d 56c0 2abd
00000080: f40d 023e 0591 34be c1b3 fe3d 5bbe 9abd
00000090: 7c35 ce3c c3cf 083e 4f3a 57bd 0407 553d
000000a0: 5da8 7d3d 64fa 45bd 19ee 44bd eefd ba3d
000000b0: 43a2 7a3d 7b92 e2bc 3eaf 773d 521b f53b
000000c0: be55 b43c 195f d2bc 9a92 18be 6a0f 0e3d
000000d0: 373b 9ebd 8aa0 4bbe b026 ed3d 51e6 b83d
000000e0: f90c 8f3d 39b1 f1bb 401e 2e3d fe40 73bd
000000f0: 4206 b0bb 3e00 36bd aa3c 173c a3da f2bc
00000100: 9bb2 a8bc 5da4 10bd db0d 88bc b9c3 f9bc
00000110: b521 32bd e20f 57be a6c5 a2bb 903a 02bc
00000120: 5ebe cfbd d1c8 8b3d e0ed 033d a0df 09bd
00000130: 62b4 05be 220e 833d a000 d7bd 8a5f d93b
00000140: 27fa 4c3d bfd6 b2bd fc42 4cbc 0cbd 543e
00000150: 7ded 23bd c75f 1b3d ca35 9cbd 1b9b 7cbc
00000160: 3548 06bc 9fe1 be3c 415d 473c 6444 f9bb
00000170: 53ed 833b c405 45bd 1606 1fbe 4c28 14bd
00000180: 54af af3d 3764 0c3d 76e4 a9bb a14a b2bd
00000190: 3c1d 8d3d cc45 d1bd 835a 71bd 8cfc 353d
000001a0: c119 8e3d 40c0 f83d 47c7 48be 23e2 adbd
000001b0: a487 e6bd 2fb6 833e 400c 29be 10eb ee3d
000001c0: 92c7 363c 01d3 3f3e 6bd0 6dbd 4a16 013e
000001d0: 302f ca3d 56fc 0abe aca6 52bd 5656 043e
000001e0: 7f13 e83d 8408 4dbc dac8 e3bd 1da4 86bd
000001f0: 6251 243e d958 33bd 0dd7 aa3d c268 75bd
00000200: bc49 dabd a825 27bd 969f 203e 287c 0e3e
00000210: 3787 59bd 67ba ba3d ea9b dabd a311 e73d
00000220: 4f71 debd d154 e3bd 1c77 5d3d ea43 28bd
00000230: 5414 5bbe a76f 33be 59f8 da3e 338d 3d3d
00000240: e2d7 a6bd 6815 e63d afd0 8ebd 509e 2bbe
00000250: c56f 2f3e 1b16 813d b57d 33be c607 74bd
00000260: 9498 99bd 602d 5abe fa2f 21bd 8f3a 4f3d
00000270: f253 b13c 7080 5bbe 4fce 80be 6b5e c4bd
00000280: a60d 89ba 841d 9d3c babe 2b3e 2842 2abe
00000290: 3147 2b3d 19f7 893e 37f0 81ba 5542 f33c
000002a0: c714 213e 7587 0e3e df2e 91bd d345 2f3e
000002b0: 214d 85bd f9ec babc 195e 9d3d 5096 c33d
000002c0: 79aa 3d3e a87a 1c3e 5ef9 e5bd 330e c83d
000002d0: 5653 a6bd dc9e 7ebe 22c7 053e 19a8 4ebe
000002e0: 4754 a03d 05b1 f1bd afc2 8bb9 0831 003d
000002f0: 976b 833d 8f8c 693d ed59 11bc 8a03 323e
00000300: 9388 5cbc 60b1 f1bd 8d52 8fbd 8c06 66bd
00000310: 350d 98bd 1e6e 82be cb8a d13d db37 a6bc
00000320: a1b4 6e3b c63e 2b3d 5a2f 1cbe c233 e13d
00000330: 3f4c e8bc 8c69 4bbd f3ee a1bd 0974 57be
00000340: 107d 2bbe c6b9 dcbd e6af ba3d 1e3b 7a3d
00000350: 24ca 2cbe 5628 223e f8c3 5ebe 82cc 0ebe
00000360: 53eb 2a3e 8bd7 fcbd 10f6 d6bd 3314 ddbd
00000370: d60b fcbd 4b94 b7bd e1be dabd f63a 89bd
00000380: f28e 8d3e 7908 dfbd f68d fbbd 5bd0 d9bd
00000390: e5ad 1bbe b240 29be 4b7d c4bd 0e34 3e3e
000003a0: 7be8 503e 0179 4f3e 9891 c2be b189 093d
000003b0: ebd8 1e3d 03ae e23c efae c7be 54f6 d83c
000003c0: 4e31 793d 1ae0 fa3c 5ac5 e3bd 34d9 583e
000003d0: d0a0 e63d ebc2 79be 7f2b 073e f5d8 8f3e
000003e0: 7776 a2bc 7553 8a3a 59b4 e0bd a2c7 23be
000003f0: 16e2 ad3e 807d 2bbb 81d7 08be 5592 c43d
-0.08709586 0.049427375 0.023457037 0.06542381 -0.040822864 0.06887562 0.0660192 0.005057895
0.0051664305 0.0056927493 -0.0034540594 -0.0001422126 0.09841691 -0.051386606 0.05608073 0.08923514
-0.054689325 0.14023036 -0.01811084 -0.10734154 -0.0019211163 0.110504106 -0.14991707 -0.0043221717
0.047247924 0.022215413 -0.07619584 0.010599361 0.018175427 -0.057919864 0.04936907 -0.041687332
0.12700635 -0.17633446 0.12436629 -0.07555839 0.025171988 0.13360505 -0.05254584 0.052008644
0.06192814 -0.048334494 -0.04807863 0.091304645 0.0611899 -0.027657738 0.06046986 0.0074800635
0.022013541 -0.025680112 -0.14899674 0.03468267 -0.07726138 -0.1988546 0.11579645 0.09028304
0.06984896 -0.007375863 0.042509317 -0.059388153 -0.0053718397 -0.044433825 0.009230772 -0.02964527
-0.020592978 -0.035313 -0.01660817 -0.030488836 -0.043489177 -0.21002153 -0.004967409 -0.007948533
-0.101437315 0.06825412 0.032209277 -0.03366053 -0.13057092 0.0639918 -0.10498166 0.0066337036
0.05004325 -0.08732366 -0.012467142 0.2077524 -0.04002141 0.037933137 -0.07627447 -0.015417839
-0.008195926 0.023300944 0.01216823 -0.0076070298 0.004026094 -0.0481012 -0.15529665 -0.036171243
0.08578363 0.03427526 -0.0051847054 -0.087056406 0.06890342 -0.10218391 -0.05892421 0.0444303
0.06938506 0.12146044 -0.19607268 -0.08490398 -0.1125634 0.25724933 -0.16508579 0.11665928
0.01115598 0.18732835 -0.05806009 0.12606159 0.098722816 -0.13572821 -0.051428482 0.1292356
0.113318436 -0.012514237 -0.11122294 -0.06574271 0.1604667 -0.043785904 0.08341799 -0.059914358
-0.10658595 -0.040807396 0.15685877 0.1391455 -0.053107467 0.09117585 -0.106742695 0.11282661
-0.10861456 -0.11100162 0.05406867 -0.041080393 -0.21394473 -0.1752306 0.427676 0.046277236
-0.08146645 0.11234552 -0.06973397 -0.1675961 0.1713248 0.063030444 -0.17528422 -0.059577726
-0.07499805 -0.21306372 -0.039352395 0.050592955 0.021646474 -0.21435714 -0.251574 -0.09588321
-0.0010456338 0.019179113 0.16771975 -0.16626799 0.04181594 0.26946333 -0.0009913509 0.029694716
0.15730582 0.1391886 -0.07089018 0.1711648 -0.06508852 -0.022818075 0.07683963 0.09550154
0.18522061 0.15281165 -0.11229204 0.09768333 -0.08121364 -0.24865288 0.13064244 -0.20181312
0.07828575 -0.11801342 -0.00026657197 0.03129676 0.064170055 0.057018813 -0.008871538 0.17384163
-0.013460296 -0.1180141 -0.06998167 -0.056158587 -0.07424394 -0.25474638 0.10231551 -0.020290306
0.0036423581 0.041807912 -0.15252438 0.109962 -0.02835667 -0.049661204 -0.07906904 -0.21040358
-0.16746926 -0.10777621 0.09115581 0.061091535 -0.16873986 0.158357 -0.21754444 -0.13945201
0.16691332 -0.12345799 -0.104961514 -0.10794868 -0.12306945 -0.089638315 -0.106809385 -0.06700699
0.2764812 -0.10890288 -0.12282936 -0.10635444 -0.15203054 -0.16528586 -0.0959421 0.18574545
0.20401184 0.20261003 -0.38001704 0.03357858 0.038781088 0.027670866 -0.3900065 0.026484646
0.060838036 0.030624438 -0.11121626 0.21176606 0.11261141 -0.24390762 0.13200186 0.28095213
-0.019831879 0.0010553437 -0.109718986 -0.15994123 0.33961552 -0.0026167333 -0.13363458 0.09598223

bias f4 [128]
00000000: c861 293e 3a3f 68bd e5a5 55be 9aa9 d13b
00000010: 3ea4 313d 20e1 6abd d240 213e 739c 83bd
00000020: 4bb8 04bd 06df ae3d 0b0a d8bd 4888 95be
00000030: 98f1 b9bd 1451 4f3d f687 a6be e4ae e4bd
00000040: 9ce4 f63b 1302 17be 1eef b4bd 65bd fabc
00000050: 6a33 083e b957 5fbc 39c9 42bd 45ee 00be
00000060: 04a6 ebbd 280a a7bd 2018 cebe 2484 75bd
00000070: 9602 59be af8e 063d f675 8dbc 4739 f4bc
00000080: 504b e8bd f5fb 4fbe e133 0abd 326e 913e
00000090: f0d6 5dbe f07d f7bd b2c3 03be c4d8 60bd
000000a0: 4d88 56bd ad75 d3be cfb5 8bbd 8164 cebe
000000b0: 4546 f3be a462 afbe 845a a73d b2d6 eebd
000000c0: 80e8 0f3e 53ad d4be 4ab2 353e ff7d adbe
000000d0: faa4 f8bd fc44 dbbd 750f 283e 11b7 55be
000000e0: 1b2e a7bd f17d 81be 4af1 53be aa8f c4bd
000000f0: 2b3e 01bc 43d5 c6bb abc6 643d 6a35 d6bd
00000100: 5acb 4f3e 8a3a ab3d c9f3 14be 2e4f 573b
00000110: 0ed2 453d 10ab b4be 8305 073d d3dd d8bd
00000120: 394c 753d 071b 5dbe 2fc6 573e df3c fa3d
00000130: 213c abbd 9ca8 95bd fb77 033e e322 0cbe
00000140: d7dd c43d 13bb b1be c39c a9be 270a a1bd
00000150: 0065 15bd 3df4 e9bd 3d66 93bd 3324 5abc
00000160: e47c 83be 015d 36bd 5a31 91be 5ece d1bd
00000170: 0f7c 59be f1df b0be a5c8 403e 9d4a f5bc
00000180: 7344 d1be f1be 5bbe 37fa e0bd bdbc 96bc
00000190: 0f15 1ebf 6d24 603e 21b1 32bd adfe 1f3d
000001a0: e39e 8dbe e73b 6cbe 3fa9 35bc 19e5 e33d
000001b0: c408 b93c cff5 a1bc 1c0e 61be 7445 d8be
000001c0: 587f 91bd 0afd 4ebe ad0b 8dbe b72e 59bd
000001d0: 3037 fabd 3103 993c 6f36 45be 6e10 f4bc
000001e0: 36c0 e5bd 77fe 2ebd 5cda dabe 965e a5be
000001f0: b2e6 c5be d4bb e5bc 22dc f2bb 84a3 5f3e
0.16541207 -0.056700923 -0.20864065 0.006398392 0.043369524 -0.057343602 0.15747383 -0.06426325
-0.032402318 0.08538632 -0.105487905 -0.29205537 -0.090792835 0.05061443 -0.32525605 -0.1116617
0.0075345766 -0.14746885 -0.088346705 -0.030607888 0.13300863 -0.013631755 -0.047555182 -0.12590893
-0.11506274 -0.08156234 -0.4025278 -0.059940472 -0.21192393 0.032850917 -0.017268162 -0.029812468
-0.1134249 -0.20310958 -0.03374088 0.28404385 -0.21664023 -0.120845675 -0.1286762 -0.054894224
-0.05237608 -0.41300717 -0.068217866 -0.40311053 -0.4751455 -0.34254944 0.08171561 -0.11662044
0.14053535 -0.41538486 0.17743793 -0.3388519 -0.12140842 -0.10706517 0.16412146 -0.20870616
-0.08163091 -0.25291398 -0.20697513 -0.09597714 -0.007888357 -0.0060679032 0.055853527 -0.10459407
0.20292416 0.08360775 -0.14546122 0.0032853591 0.048296027 -0.3528676 0.03296424 -0.105891846
0.059887145 -0.21592341 0.21071695 0.122186415 -0.08361078 -0.0730755 0.12838738 -0.13685183
0.09612625 -0.3471304 -0.33127412 -0.078632645 -0.036473274 -0.11423538 -0.07197235 -0.013314295
-0.2568122 -0.04452229 -0.28357965 -0.102444395 -0.21238731 -0.34545854 0.1882654 -0.029942805
-0.40872535 -0.21459557 -0.10985225 -0.018400544 -0.6175088 0.21888895 -0.043625955 0.039061237
-0.27660283 -0.23069726 -0.011087715 0.11127681 0.022587188 -0.019770531 -0.21978039 -0.4224049
-0.07104367 -0.20213714 -0.2754797 -0.053023066 -0.122175574 0.01867828 -0.19259046 -0.02979299
-0.11218302 -0.042723145 -0.4274472 -0.32298726 -0.3865257 -0.028043665 -0.007411496 0.2183972

weight f4 [128, 128]
00000000: 0461 3abe 187c 1b3e 25e6 8ebe 9d52 0d3e
00000010: a842 08be 14f6 ce3c b757 68be 61eb 593e
00000020: c42a babd 5718 0bbe 1e88 293e 02e6 83be
00000030: e5bd 12be 1ffc 303e 2cc8 dabd 4234 aebd
00000040: 0172 8e3c c74a afba 7bd4 9abe d747 01be
00000050: dab9 24bb 83f6 8c3d 31f9 c2bd 8d6d 333e
00000060: d4a3 32be 3fd3 a4bb 38d6 0e3e 0fb5 93bc
00000070: e608 3b3e 3171 c73d ddfe f4bd 6a3a 653d
00000080: 1ff4 db3e f8b5 61be c1cb fcbd dae4 2abe
00000090: 9bdb 543d 7bf0 48bd 923a 17bd f2da 323e
000000a0: 6cdf 7ebc 54ea 35be 588c 95be 6f07 07be
000000b0: 161f 49be 1b8e 68bd be2b 693d 3069 1dbd
000000c0: f7a0 2dbd 1e43 efbd 4d57 af3d 8f0a 33be
000000d0: 38be d9bd a069 8a3e 26f9 e7be cf81 6cbe
000000e0: 08cb c2bd a6ea ebbd 42d6 ab3d f615 7dbc
000000f0: f7ef c33e acbc 57be 0892 8f3d 5ab1 9c3e
00000100: 6a35 523e bf0e aabc 5d23 e63d 60bd 53bc
00000110: f3eb 8d3d a6ba febd dd5e 8abe 200d 0d3e
00000120: 845e abbe fd47 863e a83b bbbe 8ccc 6b3e
00000130: 75a9 4bbd 8234 b63d eab9 333e 4526 81be
00000140: 77d5 5e3e 5459 58bc 9e21 9fbb 3aa5 64be
00000150: 2405 673d 90f0 70be c6bb 323d 1b5a c13d
00000160: ab94 bcbd 8751 973d eafb 8dbe 5396 64be
00000170: d47c 63bd 31f6 dfbd a916 853e f9ea b1bd
00000180: 5483 eabc 09bc a43d 8893 8abe a957 18bd
00000190: 6899 c9bd 979b 273e fa5c 4fbd c6cc 3e3e
000001a0: 9b27 69be 85f6 d0bd 9135 f3be 9ed5 0d3e
000001b0: 4511 b1bd 9d5f 9dbe 45b9 023d 9698 9d3d
000001c0: f40c e9bd 4bfe b23d c9dd 51bd ca76 3c3e
000001d0: 91f3 85be 4675 b7bd 4037 18be 35b4 73bb
000001e0: d506 61be 7f0f dfbd b9cf 90bd d3af af3e
000001f0: 57a4 d8bd 7053 18bd 45cd b93e f1c8 57bc
00000200: 6474 133d 2387 85bd a0b5 833d 87f9 063e
00000210: ac0e 5cbe 41b6 093e b34b 293c df1a d2bc
00000220: 1448 3b3e 5697 84be e7fe 0a3d 826e da3d
00000230: 3145 1b3d 0d43 b6bd 8c89 9ebd 2c4e 0f3d
00000240: ba8f d3bd ab2c 093e 1e60 a0bd 923b 89bd
00000250: 6e2f 66bd bc6f 9b3e e15e b8bd 6a6e 883d
00000260: 2e29 e53c 3e38 5c3d 2560 d73c 8e39 673d
00000270: 4f31 d7bd 770f 7abd 0759 2dbd 948e cebd
00000280: 30dd c2bd 888a 193e 9d9c 29bd b519 70bc
00000290: 0d60 f63c f533 a6bd dc8b 64bd 8511 6b3d
000002a0: 32c5 853d 338c 9a3d 254f 5abd 98ec 873d
000002b0: 26f1 5bba ec30 123e d221 7ebd 32c2 e8bc
000002c0: ee11 173b 4ed6 083c 992e f3bd fedd 893c
000002d0: bfd3 803d 6c93 f0bc dda2 d4bd 7ca9 0dbe
000002e0: 33e2 b9bc 83df 833d b80a 1cbe 5161 00be
000002f0: 5183 bcbd 2a26 d4bb 8bb3 f83d 6c6c b8bc
00000300: 0139 d3bd 0a15 8fbc cf77 18bd ffc0 abbc
00000310: df58 e3bd 934e c8bc 6a1c bcbc 0e30 aabd
00000320: 84c3 033d 5463 f2bb f0a5 d0bc bb2f 99bc
00000330: 8f47 fd3d 6425 e8bd 8432 4bbd aedc c1bd
00000340: c05b babc 5aac c63b a44b 0a3d a50b d6bd
00000350: b500 493d 9f4f 01bb 8339 95ba 896b 2b3d
00000360: 9ce7 a6ba 73ca ef3c 4361 1d3d 25fd b0bd
00000370: f762 d83d 2b7c 3e3d d494 b13a ea75 b8bd
00000380: 0560 04bb 5ee7 b03d f8a4 2e3c ad17 0b3b
00000390: a587 483d 9a40 adbd 4f5d 103e 706e 96bd
000003a0: d057 7bbb 2622 d5bb b13f e73d aed7 56bd
000003b0: 708d 993c 73df c8bd f1c2 083d 9f83 2a3d
000003c0: 0232 91bd 7f55 0d3e 1099 6bbc 00ed e0bd
000003d0: ef04 b53d e959 aabc 7776 87bd 5021 60bd
000003e0: d83f 06be 93b2 833c cc77 69bd d60f acbd
000003f0: bb51 9cbb b918 1dbd 34e8 18bd a9de 52bc
-0.18201071 0.15184057 -0.2790996 0.13801046 -0.13306677 0.025263824 -0.2268971 0.21281196
-0.09090188 -0.13583504 0.16555831 -0.2576142 -0.14330252 0.17283677 -0.10682711 -0.08506061
0.017388346 -0.0013373726 -0.30240235 -0.12625061 -0.002513519 0.06882956 -0.09520186 0.17522259
-0.17445308 -0.0050300653 0.13948905 -0.018030671 0.18265113 0.097383864 -0.11962674 0.05596391
0.42959687 -0.22042072 -0.123435505 -0.16688862 0.051967245 -0.049057465 -0.03692109 0.17466334
-0.015556198 -0.1776517 -0.29208636 -0.1318643 -0.19640765 -0.056776147 0.05692648 -0.038430393
-0.042389836 -0.116827235 0.08561573 -0.17484497 -0.106319845 0.2703371 -0.45307273 -0.23096393
-0.095113814 -0.11519365 0.08390476 -0.01544713 0.38269016 -0.21068066 0.07010275 0.30604059
0.20528188 -0.020758985 0.11237214 -0.0129235685 0.06929769 -0.12437944 -0.270255 0.13774538
-0.33470547 0.26226798 -0.36568952 0.23027247 -0.049722154 0.08896734 0.1755139 -0.2522451
0.21761118 -0.013204891 -0.0048563024 -0.22328654 0.056401387 -0.23529267 0.043636106 0.094410144
-0.09208044 0.07388597 -0.27731258 -0.22322969 -0.055538967 -0.10935629 0.2599385 -0.086873956
-0.028627075 0.08043677 -0.27065682 -0.037192974 -0.09843713 0.16367947 -0.05062578 0.18632802
-0.22769015 -0.1020327 -0.47501805 0.1385102 -0.08645872 -0.3073701 0.031914968 0.07695119
-0.11379424 0.08739909 -0.0512369 0.1840469 -0.2616239 -0.08957915 -0.14864826 -0.003718627
-0.21975262 -0.108916275 -0.0707087 0.3431383 -0.1057822 -0.037188947 0.3628942 -0.013170467
0.03599967 -0.06519916 0.064311266 0.13181125 -0.21489972 0.1344843 0.0103329895 -0.025647579
0.18289214 -0.2589671 0.0339345 0.10665609 0.037907783 -0.08899508 -0.07741079 0.03498666
-0.10330148 0.13395946 -0.07830833 -0.06700815 -0.056197576 0.30358684 -0.09002472 0.06661685
0.027973738 0.053764574 0.026290962 0.056451373 -0.10507452 -0.061049905 -0.04232123 -0.10085788
-0.095148444 0.14994252 -0.041409124 -0.0146545665 0.030075097 -0.08115379 -0.055797443 0.057389755
0.06531753 0.07546272 -0.053298134 0.066369236 -0.0008390121 0.14276475 -0.062043972 -0.028412912
0.0023051458 0.0083518755 -0.11874122 0.016829487 0.06290387 -0.029367171 -0.10382626 -0.13834184
-0.022690868 0.06439116 -0.15238464 -0.12537123 -0.09204734 -0.006474276 0.1214362 -0.022512637
-0.10313607 -0.017466087 -0.037223633 -0.020966051 -0.11100935 -0.02445153 -0.022962768 -0.08309947
0.03216888 -0.0073970947 -0.02546975 -0.018699517 0.12367164 -0.11335257 -0.049608722 -0.094659194
-0.022748828 0.0060630264 0.033763543 -0.1045144 0.04907294 -0.0019731296 -0.0011384938 0.0418506
-0.001273382 0.02927134 0.038422834 -0.086420335 0.10565751 0.046505135 0.0013548383 -0.09006865
-0.0020198834 0.0863788 0.010659449 0.0021223829 0.048957486 -0.084595874 0.14098094 -0.07345283
-0.00383519 -0.006504315 0.11291445 -0.052451782 0.0187442 -0.098082446 0.033389036 0.04162943
-0.07089616 0.13802145 -0.014379755 -0.10982704 0.08838832 -0.020794826 -0.06614392 -0.05471927
-0.13110292 0.016076362 -0.056999013 -0.08401458 -0.004770485 -0.038353655 -0.03733082 -0.012870469

bias f4 [128]
00000000: da4d 1fbc c59b 09be 09a0 b5bd 2225 373e
00000010: 62db 5b3e de3a 2bbe 65ad 763d af27 bbbd
00000020: 45aa 983d d672 98bd e86e 783d 9e15 75be
00000030: 5b47 0ebc f2dc b2bd 53d7 32bd 5f7f 87bd
00000040: e9d5 15be 070e 3cbe c735 253c 5fda 0ebe
00000050: 05bf 6fbd 3994 01bc c7ce b2bb 28d7 22be
00000060: 42ed e7bd 1721 a53b c867 6abe 489d 1e3e
00000070: 341c b43d d7b2 afbd 8674 4a3e fc32 a8bd
00000080: aeec 33be bd50 44be dc53 4f3d 2649 b6bc
00000090: e410 0d3d 2133 1fbe 2282 f23c ac5d 043c
000000a0: 9b83 2cbe 8320 333a a991 f3bd 9e39 c33d
000000b0: 16f2 193d 3a8a 1fbb 0b74 b7bd a8a5 1abe
000000c0: d137 04be a990 14bd 105b c13d 50d8 e03c
000000d0: a048 08be 1eef 3d3e 7510 17be ea2a 5d3d
000000e0: 4c0f 32be bad4 033d 3164 33be d420 e13d
000000f0: b1bb 83bd e98c 01be b326 db3d 23e7 763d
00000100: 7f7f c63d e7a9 c2bd 549f f3bd 5a3a d5bb
00000110: e4d7 babc abae debd d981 13bd 32a7 2ebe
00000120: 93fa 2ebe 1a7b 5fbe 38cb 9fbd 94f7 eebb
00000130: 9871 6bbd 77fd a6bb 5130 a7bd 9295 86bd
00000140: 6b97 43be 20b5 123e 7c53 3dbe f374 9bbc
00000150: 013c 85bd c97d 90be 196f 5abd 9bf7 9e3c
00000160: ef06 99bc ad2b 57bd cca5 053e 9ed2 b6bd
00000170: c0cb 38be 8e7f 6fbe 4578 a43d 8bcd 503c
00000180: 9c67 a7bd f951 483d e88d ea3c 8836 f13d
00000190: 465a 2dbe edd1 a33d 8607 12be 9e5c 2ebe
000001a0: 82a2 913d 4d3a afbd c4bd 50be d108 e4bd
000001b0: e468 95bc 5985 52be 09ba 41be 03e0 d7bd
000001c0: cd64 8a3d 02bc 3dbe 01f9 2abe 7ae0 2dbd
000001d0: 89c8 313e 9376 15be 7af1 0fbe 0b71 cc3c
000001e0: 5c68 cabb ce5c 19bc 513f a63d 47cc d7bd
000001f0: bf80 163e 3700 41be e31f adbb 22aa 8dbd
-0.009723151 -0.13438328 -0.08868415 0.17885259 0.21470407 -0.16721675 0.060223956 -0.091384284
0.07454351 -0.07443778 0.060652643 -0.23934028 -0.008684005 -0.08733548 -0.04366238 -0.06616091
-0.14632381 -0.18364726 0.010083622 -0.1395049 -0.05853178 -0.007908874 -0.0054567787 -0.15902388
-0.1132455 0.005039345 -0.22891152 0.15489686 0.08794442 -0.08579033 0.19771013 -0.082128495
-0.17570755 -0.19171424 0.050617084 -0.022251677 0.034439936 -0.15546848 0.029603068 0.008078974
-0.16847079 0.0006833153 -0.11893017 0.09532474 0.037584387 -0.0024343864 -0.0895768 -0.15102255
-0.12911917 -0.03627077 0.09441197 0.027446896 -0.13308954 0.18548247 -0.14752372 0.053996004
-0.17388648 0.032185294 -0.17518689 0.109925896 -0.06432284 -0.12651409 0.10700741 0.060279023
0.09692287 -0.095050626 -0.11895624 -0.0065072 -0.022808023 -0.10873159 -0.036012504 -0.17055967
-0.17087774 -0.21824303 -0.07802433 -0.007292697 -0.05748138 -0.0050961333 -0.081635125 -0.06571497
-0.1910073 0.14326906 -0.18488878 -0.018976664 -0.065055855 -0.28220966 -0.053328607 0.019405177
-0.018680064 -0.052531887 0.13051528 -0.08926891 -0.18046474 -0.23388502 0.08030752 0.012744318
-0.08174059 0.0489063 0.02863212 0.11777979 -0.16928968 0.079990245 -0.14260682 -0.17027518
0.07111074 -0.08556042 -0.2038489 -0.11134494 -0.018238492 -0.2055868 -0.18918623 -0.10540774
0.067575075 -0.1852875 -0.1669655 -0.042450406 0.17361654 -0.14596014 -0.1405696 0.024956247
-0.0061769914 -0.009360505 0.081175454 -0.1053701 0.1469755 -0.18847738 -0.005283342 -0.06917216

weight f4 [128, 128]
00000000: 686d 4d3d fe3c 233e 525d 5d3d 1852 973d
00000010: 0f19 81bd 2e31 d03d 764d e13c d594 a83d
00000020: c27e 80bc 668d 893d 6ffd 0f3e f87b ba3d
00000030: 3e9f 053d dbb9 073e ac97 d53d d99b 12be
00000040: 6f9b bd3d 09ca 72bb 4138 ba3d 1fc3 c4bb
00000050: 2e64 0dbd e65b 6d3e 3d8d 103d fe8f ad3d
00000060: a67e 903d cc22 55bd 106a 243e 6d87 123c
00000070: 9587 f73d 3812 9dbb c62c 053d 497e 1b3e
00000080: 5d90 833c 3a17 b03a 1dce 08bc bdbe 4b3d
00000090: 267b 23bd 5405 143e 1e84 8abb e9c9 fcbd
000000a0: 0937 b8bd 834b 173e 1987 e23d 8a38 b03c
000000b0: 6b47 8e3d a540 babb 11da bdbd 8527 493d
000000c0: b9ff 273e 8043 d03b 43f6 bebd 564e 5b3d
000000d0: 4e83 eb3a 3a31 0a3a 004b f93d 3f3a 8abd
000000e0: a27b 793d b630 153e 46cb a7bc e560 c83d
000000f0: 0877 7a3c a626 9f3d abb6 e33c f0ba 993d
00000100: 82e0 d53d 8a44 a43d cacd 583d dfa7 1b3e
00000110: eb7d 17be 424f a4bd d646 a4bb 0408 063e
00000120: 119e 96bb 99de 2ebd 0b13 873d 261d ed3d
00000130: 5d07 183e baae 2e3e 2796 1e3d 1a0b 963d
00000140: f804 c63d ccb5 8b3c 0552 70bc 75bf 183d
00000150: 53c1 753c 50e0 bd3d 6625 50bc a59a d83d
00000160: 8deb 4c3e 9b34 3ebd 8f73 75bc b677 8f3d
00000170: 5707 f33d 11d0 ed3d c7f5 043d d77c 8b3c
00000180: cf64 d63d d8d6 f83d e449 b4bd e527 5b3c
00000190: 4bdb 0a3e 6134 1e3e d0fc ed3d ced8 3f3d
000001a0: 92d8 41be 4bcc 463c 0335 bd3d 10b1 a93d
000001b0: 0528 3e3e 17fc 213e b6ee af3d ab47 ddbc
000001c0: 1fc7 ef3d 3883 183e f0fa fa3d baf1 59ba
000001d0: 38c9 13be 12e2 ec3d 874b 5abc 3733 353c
000001e0: 02c3 09be fe83 373e a16c af3d 52ff c13d
000001f0: d48c 903e d5a7 143d ef82 a83d 3f3e 0c3e
00000200: d55b 463d a7fa 99bd 75e6 343e d6ba 393b
00000210: 5911 243e 472d bc3c 001a 893c 0927 193d
00000220: 9ceb a03d d476 92bd 73a4 2ebd 9850 8cbd
00000230: e006 773d 2356 1e3d d725 abbe d1b1 5fbd
00000240: 4e82 45bd 4fb0 2ebc bec9 ab3e b4fc 8d3c
00000250: 7348 393c 7af2 fb3c dc46 18bc 8cbe 8e3c
00000260: 33aa 6fbb 968c 363d c3cd a4bd c227 49be
00000270: ce31 38bd 0f25 d1bd ed9d 2ebe f1ca e8bd
00000280: f825 9abb 66bd 4fbd 3fbd 08bb da7c c13b
00000290: 4ea5 08bd 6c04 143d 59aa 9b3d cb7b a23e
000002a0: 6047 23bc 4501 b3bd 580a bfbc 68e7 793e
000002b0: 9458 2d3d 675d ffbd 9556 bf3d 7f84 433d
000002c0: 6ed1 2bbd acc5 19bd 0758 583e 0c2a b5bd
000002d0: 5869 8dbc 7c05 0fbe 343f 51bd 9fae 2c3e
000002e0: beb0 973d df0b 4cbd 4c2a a8bb 42af 2a3d
000002f0: 59b3 1f3d cd05 2f3c bb7f 02be 30ea f6bc
00000300: e07b 903c d364 18be f0ca f33d 2d8d f8bc
00000310: 1374 e7bc 85a6 15be 8718 4abc e0b7 e53a
00000320: e93c acbb 965f 783d 5dd4 113e ed3c 8bbe
00000330: af4f 66bd 875c bb3c ece7 4ebd b165 e4bd
00000340: 5d0a d5bc bad8 993d 8cd9 02be 697c 4bbe
00000350: b635 253d a852 923d fdba 823e 542b adbc
00000360: 3955 20be 1f68 34bd 790d da3d d8b3 8a3d
00000370: ab76 76bd dc5f ccbd 1a98 ff3d dab9 c73d
00000380: 664f b8bd 5676 a43e 0a0a 9a3d a304 873d
00000390: 3580 cfbd e0a3 f33d aa08 863c 5757 21bd
000003a0: eb0a 363e 07d1 82bb 6337 20ba 82e3 cabd
000003b0: 0a21 973d 13c2 0c3e 2c42 063c aa94 2d3d
000003c0: e3ec 33bd ae64 963c dd2b 00bd 1cde 963d
000003d0: 8f43 9b3d 8290 36bd d4f6 373d c652 5bbd
000003e0: f53f 7e3e 6af2 8abd ec44 d6bd 8049 34bd
000003f0: e79e 2e3e a21a 91bd 19eb 1d3d a273 dfbd
0.050153166 0.15941235 0.054044075 0.07388705 -0.06303608 0.1016563 0.027502757 0.082315125
-0.015685443 0.06716423 0.14061521 0.091056764 0.03262257 0.13254492 0.1042932 -0.14317264
0.09258162 -0.0037046692 0.09092761 -0.0060047056 -0.034519367 0.23179588 0.035290945 0.0847473
0.07055406 -0.052035138 0.16056085 0.008943421 0.12086407 -0.0047934316 0.032513402 0.15184893
0.016060049 0.0013434656 -0.0083499225 0.04974245 -0.039912365 0.14455158 -0.0042271754 -0.12343199
-0.08994872 0.14774899 0.11060924 0.021511335 0.06947216 -0.0056839758 -0.092701085 0.049109954
0.16406144 0.006355703 -0.093243144 0.053541504 0.0017968209 0.00052716176 0.12172508 -0.06749391
0.06090892 0.14569363 -0.02048267 0.09784106 0.015287168 0.077710435 0.027797064 0.075063586
0.10443212 0.08020885 0.05293063 0.15200756 -0.14794128 -0.0802293 -0.005013327 0.13088995
-0.0045964797 -0.042692754 0.06595429 0.11577825 0.14846559 0.1705884 0.038717415 0.07326336
0.096689165 0.017054461 -0.0146679925 0.037291963 0.014999705 0.092713 -0.012704229 0.10576371
0.2001173 -0.046436887 -0.014981165 0.07005255 0.11866634 0.11611951 0.032460954 0.017027302
0.104684465 0.12150353 -0.08803156 0.013376211 0.13560216 0.15449668 0.11620486 0.04683762
-0.18930271 0.012133668 0.09238627 0.08285725 0.18569954 0.15818821 0.085904524 -0.027011713
0.11707901 0.14893806 0.12254894 -0.0008313913 -0.14432228 0.11566557 -0.013323671 0.011059574
-0.13453296 0.17921445 0.08565641 0.094725266 0.28232443 0.03629287 0.082280986 0.1369562
0.04842742 -0.07518511 0.17666037 0.0028340123 0.16022243 0.022970809 0.01673603 0.037390742
0.07857439 -0.07151571 -0.0426373 -0.068513095 0.06030929 0.038656365 -0.33427307 -0.05461294
-0.04821997 -0.010662152 0.33552355 0.017332412 0.011308777 0.03075527 -0.009294238 0.017424844
-0.0036569952 0.044567667 -0.080470584 -0.19644073 -0.044969372 -0.102121465 -0.17052431 -0.11366833
-0.0047042333 -0.050717734 -0.0020864753 0.005904776 -0.03336077 0.03613703 0.076008506 0.31735072
-0.009965748 -0.087404765 -0.023320362 0.2440468 0.042320803 -0.12468987 0.09342686 0.04773378
-0.041947775 -0.03754203 0.2112733 -0.088459104 -0.017262146 -0.13966936 -0.051085666 0.16863488
0.07406758 -0.04981601 -0.0051319953 0.041671045 0.0389894 0.010682535 -0.12744038 -0.030140966
0.017637193 -0.14882211 0.11903942 -0.030340755 -0.02825359 -0.14614303 -0.012334949 0.0017526112
-0.0052562845 0.060638033 0.14241166 -0.2719492 -0.056228336 0.022871269 -0.050514147 -0.111522086
-0.026005918 0.075120404 -0.127783 -0.19871677 0.040334426 0.07144672 0.25533286 -0.021138825
-0.1565751 -0.04404461 0.10647101 0.06772584 -0.060171764 -0.09979221 0.12480183 0.09752245
-0.08999519 0.32121533 0.07521446 0.06592681 -0.101318754 0.11896491 0.016361553 -0.039389934
0.17777602 -0.003992203 -0.0006111769 -0.09906675 0.073793486 0.13745908 0.008194488 0.042378105
-0.043927085 0.018358555 -0.03129183 0.07366583 0.07581245 -0.044571407 0.044913128 -0.053545736
0.24829085 -0.06784518 -0.104623646 -0.044015408 0.17052804 -0.07085158 0.038554285 -0.10910727
