results/model/data_aug_559.model (torch, 686563 bytes, 21 tensors)

weight_ih f4 [384, 5]
0	0x3dac5939	0.08415455
1	0x3d4112ad	0.04713695
2	0xbd0c289f	-0.034218427
3	0x3d38e56f	0.04514068
4	0xbc31ec5d	-0.010859576
5	0x3dc57a27	0.09642439
6	0xbc65e629	-0.014031925
7	0x3acb3774	0.0015504197
8	0x3d2ebf9b	0.042663198
9	0x3c7c2b5b	0.015391196
10	0x3e038119	0.12842216
11	0xbdb2cc30	-0.08730352
12	0xbd55a0fb	-0.052155476
13	0x3e037bcd	0.12840195
14	0x3d959edc	0.07305691
15	0xbc379266	-0.011204338
16	0xbd493976	-0.049127065
17	0x3d26c7c4	0.040717855
18	0x3b3a5b5b	0.00284358
19	0x3d673e2e	0.056455784
20	0x3ca08eba	0.019599307
21	0x3daeffeb	0.08544906
22	0x3dc7c894	0.09755054
23	0xbcd9fc45	-0.02660955
24	0x3da80549	0.08204133
25	0xbd3c2d20	-0.045941472
26	0x3d46c3c8	0.048526555
27	0xbcae4351	-0.021272333
28	0x3e0822be	0.13294503
29	0x3e0947fa	0.13406363
30	0x3d9bc506	0.076059386
31	0xbd0a0e0e	-0.03370481
32	0xbcc6899c	-0.02423554
33	0x3db108d8	0.08644265
34	0x3c80cacc	0.015721701
35	0x3d31a1b5	0.043367106
36	0x3d236572	0.039891668
37	0x3d27f5b7	0.041005816
38	0x3d83a413	0.06427779
39	0x3d8101ab	0.06299146
40	0xbc1518a4	-0.009100113
41	0x3dbe7842	0.09300281
42	0xbdf834c8	-0.12119442
43	0x3dbe8201	0.0930214
44	0xbc28af08	-0.010295637
45	0xbaf6081d	-0.0018770728
46	0xbc333c2d	-0.01093964
47	0x3ce642cf	0.028108029
48	0x3df6acdc	0.12044689
49	0xbc880d01	-0.016607763
50	0xbdc127a2	-0.094313875
51	0xbddd691c	-0.10811064
52	0xbd11e47e	-0.035618298
53	0xbc8fcbb8	-0.017553195
54	0xbdfc9f34	-0.12335053
55	0x3cccf77b	0.025020352
56	0xbd5e1fd1	-0.05422956
57	0xbd93e13b	-0.07220694
58	0x3d810f92	0.06301798
59	0x3dd6ebb4	0.104941756
60	0x3ce11449	0.027475493
61	0x3d1f043b	0.038822394
62	0xbb51fc80	-0.003204137
63	0x3daba8b3	0.08381786
64	0x3dd140da	0.102174476
65	0x3cdf7c89	0.027281063
66	0x3d25487c	0.04035233
67	0x3c52bed5	0.012862881
68	0xbc697de3	-0.014251205
69	0x3c7dabbf	0.015482842
70	0x3ddd4070	0.10803306
71	0x3d1d65d6	0.038427196
72	0xbdafd991	-0.085864194
73	0x3d970179	0.07373328
74	0x3d354d53	0.044263195
75	0x3d0da22e	0.034578495
76	0xbc986551	-0.018602999
77	0x3d8ee742	0.06977703
78	0x3cbadfa0	0.02281171
79	0x3c3794be	0.0112048965
80	0xbb79b898	-0.0038104411
81	0xbd891be6	-0.06694774
82	0x3d571484	0.0525098
83	0x3d950873	0.07277002
84	0x3d6ae832	0.057350345
85	0x3dcaf9f6	0.099109575
86	0xbd48c021	-0.049011353
87	0xbd6b606a	-0.057464994
88	0x3d8bc97a	0.06825538
89	0xbcac5531	-0.021036716
90	0xbd7fa9c5	-0.062417764
91	0x3d82e2fd	0.06390951
92	0x3bb88005	0.0056304955
93	0x3c89e2d9	0.016831802
94	0xbc81b12c	-0.015831552
95	0x3c7ce85b	0.015436257
96	0xbdea9e2a	-0.11455949
97	0xbda0f301	-0.07858849
98	0x3da8322f	0.08212697
99	0xbda6ccfa	-0.08144565
100	0x3d79d945	0.06099822
101	0x3d91e7b0	0.07124269
102	0x3d38f9af	0.04515999
103	0x3db613f1	0.08890522
104	0x3c7dc8f4	0.0154898055
105	0x3b360cde	0.0027778666
106	0x3b2f5de6	0.0026758849
107	0xbdb557c4	-0.088546306
108	0x3dda6ce1	0.10665298
109	0x3cb6d544	0.02231849
110	0xbb70d922	-0.0036750515
111	0x3ddd6f4a	0.10812242
112	0xbd34d3bf	-0.04414725
113	0xbd1a8cab	-0.037731808
114	0xbd9e1bb7	-0.0772013
115	0xbd4d731b	-0.0501586
116	0x3d402594	0.046910837
117	0xbda4e78f	-0.08051979
118	0x3df604f6	0.12012665
119	0x3d738b5b	0.05945907
120	0x3d8b6163	0.068056844
121	0x3ca8051b	0.020510247
122	0xbda94d14	-0.082666546
123	0x3da3ae29	0.07992203
124	0xbbc13a24	-0.0058968235
125	0xbd043c28	-0.032283932
126	0xbcde41ee	-0.027131047
127	0x3d6e167b	0.058126908
128	0x3c36fd7d	0.011168835
129	0xbd356fa2	-0.044295914
130	0xbd8a70db	-0.06759807
131	0xbd6bca9e	-0.057566278
132	0x3dc76f3f	0.097380154
133	0x3dc9f623	0.098614
134	0x3ce3e1d9	0.027817653
135	0x3cff27be	0.03114688
136	0x3d2ed94d	0.042687703
137	0xbd4921d3	-0.049104523
138	0x3d89302c	0.06698641
139	0x3df78410	0.12085736
140	0xbdd2e183	-0.10296919
141	0xbd8ee84d	-0.069779016
142	0x3dbb8a54	0.09157243
143	0xbda58f2b	-0.08083948
144	0x3b33ee7f	0.0027455387
145	0x3d4bb70f	0.049735125
146	0x3cd8ea4d	0.02647891
147	0x3d134cee	0.035962038
148	0x3d84906f	0.06472861
149	0x3dd4118b	0.103549086
150	0x3d6f0eab	0.058363598
151	0xbc50ff49	-0.012756177
152	0xbdbab969	-0.091173954
153	0x3d8ebd87	0.06969743
154	0x3d68d3a4	0.05684246
155	0xbac3aad6	-0.0014928232
156	0x3d01c23b	0.031679373
157	0xbd36a500	-0.04459095
158	0x3be399be	0.0069458177
159	0xbd6a12c6	-0.05714681
160	0x3c9ecc7d	0.019384617
161	0x3d97bc06	0.074089095
162	0x3d871405	0.06595615
163	0x3ddd119c	0.10794374
164	0x3d5904ee	0.052983217
165	0xbd16bcee	-0.03680127
166	0x3df28591	0.11841882
167	0xbde89e73	-0.11358347
168	0x3dd25716	0.102705166
169	0x3dc7ff74	0.09765521
170	0x3bd29ba2	0.0064272443
171	0x3d7f7d7f	0.06237554
172	0xbd020410	-0.031742156
173	0x3d02a5f5	0.03189655
174	0xbd90268f	-0.070386045
175	0xbd6f086a	-0.058357634
176	0x3d828a65	0.06374053
177	0x3df5aebb	0.11996218
178	0x3d48d3ba	0.049030043
179	0xbd1a572c	-0.03768079
180	0x3dbf3a2b	0.093372665
181	0xbba84d03	-0.0051361336
182	0xbd1bcb37	-0.038035598
183	0x3dcc6e38	0.0998196
184	0xbd5c3f12	-0.053771086
185	0x3ca1819f	0.019715128
186	0x3d88d6d9	0.06681604
187	0x3d41b399	0.04729042
188	0x3de5e242	0.11224796
189	0x3db2a600	0.08723068
190	0x3db04552	0.08606972
191	0x3c15dbc8	0.009146638
192	0xbcc4294e	-0.023945477
193	0xbda0be7f	-0.07848834
194	0x3d7de7ac	0.061988518
195	0x3d8750fc	0.066072434
196	0x3d7779bb	0.060418826
197	0x3d34fe1e	0.044187658
198	0x3d8bdfa0	0.068297625
199	0xbca55a15	-0.020184556
200	0x3d907589	0.07053668
201	0xbd859c93	-0.06524005
202	0xbd3cd00e	-0.046096854
203	0x3cf7ef86	0.03026558
204	0x3cc8bad5	0.024503151
205	0x3bee9eca	0.0072821127
206	0x3d96ad5b	0.07357284
207	0x3dc68188	0.09692675
208	0xbd1bf32e	-0.03807371
209	0x3b93157c	0.004488645
210	0xbcefb8d7	-0.029262943
211	0x3d9a5188	0.07535082
212	0x3bda39b5	0.0066597112
213	0xbd3b09e1	-0.045663718
214	0x3cfb621a	0.030686427
215	0x3cccef13	0.025016343
216	0xbdaa7cb1	-0.08324564
217	0x3d507479	0.050892327
218	0x3dc003c7	0.093757205
219	0xbd540173	-0.051759195
220	0x3db018e9	0.08598501
221	0x3c3b5a03	0.011435035
222	0x3acf54fe	0.0015818176
223	0xbcfd1dca	-0.030897994
224	0x3ba2e2c9	0.0049708826
225	0x3dfbd68c	0.12296781
226	0x3c5d98c0	0.013525188
227	0x3cd33438	0.025781736
228	0x3dd63519	0.10459346
229	0x3c3d6e51	0.011561946
230	0x3d5e03a5	0.054202694
231	0xbc028d52	-0.007968264
232	0xbc885cf5	-0.016645888
233	0x3b0767dd	0.0020661273
234	0xbd85b097	-0.065278225
235	0xbd3f7ace	-0.046747975
236	0xbd4bf387	-0.049792793
237	0x3bcf060b	0.006317859
238	0x3c0d29d1	0.008615927
239	0xbd8de9ac	-0.06929335
240	0x3dca3b8d	0.0987464
241	0x3e284081	0.16430856
242	0xbd8355dc	-0.06412861
243	0x3be57891	0.007002898
244	0x3d25ccc1	0.04047847
245	0xbcaeb957	-0.021328611
246	0x3d41be7e	0.047300808
247	0x3d6bb4b4	0.05754538
248	0x3d919f77	0.07110494
249	0xbda4615f	-0.080263846
250	0xbd2959d9	-0.04134545
251	0x3d70d18d	0.058793593
252	0x3bc1a595	0.0059096315
253	0xbd56f465	-0.052479167
254	0x3dc44a4b	0.09584483
255	0x3e02ebe0	0.12785292

weight_hh f4 [384, 128]
0	0xbdaae75c	-0.083449095
1	0x3d7f8f3e	0.062392466
2	0xbdb7b874	-0.089707285
3	0xbd3f86a5	-0.046759266
4	0x3c3eb501	0.011639834
5	0x3cada727	0.021197869
6	0x3d8872e6	0.0666254
7	0x3ad8207f	0.0016489177
8	0xbdae4fe6	-0.08511333
9	0x3d9c3ceb	0.07628807
10	0xbcc1f84c	-0.023677967
11	0x3d1f3f39	0.038878653
12	0xbd947d68	-0.07250482
13	0xbd839c95	-0.0642635
14	0xbd0bd382	-0.034137256
15	0x3d594fb3	0.053054523
16	0xbd919579	-0.07108588
17	0xbdb5343b	-0.08847853
18	0x3dd1faa3	0.10252883
19	0xbd70eb6d	-0.05881827
20	0x3d02cd6a	0.03193418
21	0xbca56c2d	-0.020193184
22	0xbc9410a7	-0.018074347
23	0xbc1432f9	-0.009045356
24	0x3c20954e	0.009801222
25	0xbd67513a	-0.056473948
26	0xbc4c7b9a	-0.012480641
27	0x3d8217e0	0.0635221
28	0x3c864176	0.016388636
29	0x3d808a11	0.06276334
30	0xbd4e5742	-0.050376184
31	0xbd5afa27	-0.05346122
32	0x3cbf4f64	0.023353286
33	0xbd2b2d19	-0.041791055
34	0x3cfae51b	0.030626824
35	0x3c9c22b1	0.01905951
36	0xbbacae9d	-0.005269839
37	0xbd5aceee	-0.05342
38	0x3c0a32db	0.008434976
39	0x3d6c13fd	0.05763625
40	0x3d04e147	0.032441404
41	0xbdb347fc	-0.08753964
42	0xbd03ce64	-0.03217925
43	0xbcce00c9	-0.025146859
44	0xbd5ba834	-0.053627208
45	0x3cd2e8ed	0.025745833
46	0xbd5dce3b	-0.054151755
47	0x3d5a2512	0.05325801
48	0x3cd0b97b	0.025479069
49	0x3d8f3a1d	0.06993506
50	0xbdcff016	-0.10153215
51	0xbd802c44	-0.06258443
52	0x3d68b388	0.05681184
53	0x3cd4e1f4	0.02598665
54	0xbc5f5bc9	-0.013632723
55	0xbd784711	-0.06061465
56	0x3db155be	0.08658932
57	0x3c22a17e	0.009926198
58	0xbb399b34	-0.0028321268
59	0xbcbb7e77	-0.022887452
60	0x3d0785e8	0.033086687
61	0x3d655e20	0.055997968
62	0x3d8e1f8a	0.06939609
63	0x3d0be378	0.034152478
64	0x3d459bb7	0.048244204
65	0xbd997946	-0.07493834
66	0xbd8f00b6	-0.069825575
67	0x3cbabebd	0.02279603
68	0xbd8d69a6	-0.069049165
69	0x3bee402b	0.007270833
70	0xbd2bbfc3	-0.041930925
71	0x3d4f72dc	0.050646648
72	0xbd3c7bde	-0.046016566
73	0xbd370b29	-0.044688378
74	0x3bfb17fc	0.0076627713
75	0xbd6e36a6	-0.058157586
76	0xbd9aadbe	-0.0755267
77	0xbccab8cb	-0.02474632
78	0x3bd16087	0.006389681
79	0xbaf18e66	-0.0018429279
80	0xbd84ace3	-0.06478288
81	0xba8aad68	-0.0010580244
82	0x3cba111f	0.022713242
83	0x3da751dc	0.0816991
84	0xbd03c843	-0.032173406
85	0xbd8a95b3	-0.06766834
86	0x3d8a58b5	0.06755201
87	0xbd3ac51e	-0.04559814
88	0x3da460f6	0.08026306
89	0x3d3435c6	0.043996595
90	0x3db1d6ee	0.08683573
91	0x3be442cd	0.006965971
92	0xbd23354e	-0.039845757
93	0x3bc3a6ca	0.0059708105
94	0xbd8105a9	-0.06299908
95	0x3d8fdd75	0.070246615
96	0x3d02e043	0.031952154
97	0x3d8de173	0.06927767
98	0xbe13ac7c	-0.14421266
99	0xbd892de2	-0.066982046
100	0x3d70ac4c	0.058758065
101	0xbd35d98b	-0.04439692
102	0xbd4037e4	-0.0469283
103	0x3b59591f	0.0033164693
104	0xbd620d3f	-0.055188414
105	0x3c0fe15d	0.008781758
106	0xbd068f5b	-0.03285156
107	0x3dca732c	0.098852485
108	0x3d6e756f	0.058217462
109	0x3c40869c	0.011750843
110	0xbd9757a5	-0.07389764
111	0xbd5be290	-0.053682864
112	0xbd3fe82f	-0.046852287
113	0xbd795cc8	-0.0608795
114	0x3dc5c45f	0.096565954
115	0xbbf361fa	-0.007427451
116	0xbd6751c7	-0.056474473
117	0x3d990bc4	0.07472947
118	0xbcf832a4	-0.030297585
119	0x3da14ef8	0.0787639
120	0xbd2c26d0	-0.042029202
121	0xbc2e0c15	-0.010622998
122	0x3d9ac06a	0.07556231
123	0xbdcce1db	-0.10004016
124	0xbd72109f	-0.059097882
125	0xbcee108d	-0.029060626
126	0x3ab5c6dc	0.0013868469
127	0xbc8523c2	-0.016252402
128	0xbde50891	-0.111832745
129	0x3d94b5c4	0.072612315
130	0x3c7d40a1	0.015457303
131	0xbd8fb326	-0.07016592
132	0xbca6afdb	-0.020347526
133	0x3de22bb2	0.110434905
134	0xbdb8287c	-0.08992097
135	0x3dd8d50a	0.10587509
136	0x3db361e4	0.087589055
137	0x3cf82a91	0.030293735
138	0xbd421345	-0.047381658
139	0xbdb3cb04	-0.087789565
140	0x3cdb855c	0.02679699
141	0xbd5e4154	-0.05426152
142	0xbd1ed61c	-0.03877841
143	0xbc4eb1de	-0.012615649
144	0x3d8f4a3c	0.06996581
145	0xbc3c34c6	-0.011487192
146	0xbdda0d62	-0.10647084
147	0xb987a6be	-0.0002587344
148	0xbdad016d	-0.084475376
149	0xbd4d663c	-0.050146326
150	0x3d578d4b	0.05262498
151	0x3c0badca	0.008525321
152	0x3c4d3ec2	0.01252717
153	0xbcaacf3f	-0.020850776
154	0x3da7956f	0.08182799
155	0x3d92a86f	0.071610324
156	0xbd13edaf	-0.036115345
157	0xbdb351cc	-0.08755836
158	0x3d927235	0.071506895
159	0xbd8b2759	-0.06794614
160	0xbd8ad660	-0.0677917
161	0xbdde36a4	-0.108502656
162	0x3d894195	0.06701962
163	0xbdd58767	-0.104262166
164	0xbd338ddb	-0.043836456
165	0x3d8a79d9	0.06761522
166	0x3d237bf9	0.03991315
167	0x3c4bd85f	0.012441724
168	0x3d4fbed6	0.050719105
169	0x3db06486	0.08612923
170	0xbd9194fe	-0.07108496
171	0x3da25cdd	0.079278685
172	0x3dab3475	0.08359615
173	0x3dcc79c9	0.09984166
174	0xbd9ee5fb	-0.07758709
175	0x3de769d9	0.11299486
176	0xbd114731	-0.035468284
177	0xbd622a5f	-0.05521619
178	0x3b50252b	0.0031760435
179	0x3dd7b206	0.10532002
180	0xbd4a73a2	-0.049426682
181	0xbdd28350	-0.10278952
182	0xbdbbd9b8	-0.09172386
183	0x3cc1ff34	0.02368126
184	0x3c72d56b	0.014821391
185	0x3d193721	0.03740609
186	0xbc15ad80	-0.009135604
187	0xbdc7dc78	-0.09758848
188	0x3b0b5944	0.0021262923
189	0xbcec7928	-0.028866366
190	0xbd723351	-0.05913097
191	0xbdcf44b9	-0.1012053
192	0x3cd1fc16	0.0256329
193	0x3c4f083f	0.012636243
194	0x3dc2b7e2	0.09507729
195	0x3d9f6e80	0.07784748
196	0x3d6c312c	0.05766408
197	0x3cd269ab	0.025685152
198	0x3d2fe3f6	0.04294201
199	0x3d4eba03	0.050470363
200	0xbc9b3c6c	-0.01894971
201	0x3dbea87b	0.09309479
202	0x3d9565c6	0.07294802
203	0xbc6d9568	-0.014500953
204	0x3d209d18	0.039212316
205	0x3d99a9dd	0.07503102
206	0xbd11d4f2	-0.03560347
207	0xbc2c2819	-0.010507607
208	0x3da70a93	0.08156314
209	0x3d09dee8	0.033659846
210	0xbd7aaffa	-0.06120298
211	0x3ccfbc59	0.025358366
212	0x3d4e25c3	0.05032898
213	0x3d8c02b6	0.068364546
214	0x3c948047	0.018127574
215	0xbd338f17	-0.043837633
216	0xbd2b1c45	-0.041775007
217	0xbdab32be	-0.08359288
218	0x3d45de36	0.04830762
219	0xbd913b81	-0.070914276
220	0x3d958cd8	0.073022544
221	0xbdc407f3	-0.09571829
222	0xbc852f62	-0.016257945
223	0x3c7e4813	0.0155201135
224	0x3dfa0e3b	0.122097455
225	0x3da274ca	0.07932432
226	0x3adb5294	0.0016732984
227	0xbd14d9f6	-0.036340676
228	0x3d20c789	0.03925279
229	0x3ceb14e8	0.028696492
230	0xbd275ee2	-0.04086197
231	0x3ddec415	0.108772434
232	0x3d27edde	0.040998332
233	0x3be497da	0.00697611
234	0xba983e8e	-0.0011615322
235	0xbca9c36b	-0.020723065
236	0xbc2853bc	-0.01027387
237	0xbdfb4315	-0.12268654
238	0xbdc22a4b	-0.09480723
239	0xbcd12e15	-0.025534669
240	0xbbcba7e1	-0.006215081
241	0xbda82e7c	-0.08211991
242	0xbc225ca3	-0.009909782
243	0xbc2c2bfb	-0.010508533
244	0x3cf7bf1f	0.0302425
245	0x3d49a50f	0.049229678
246	0xbde65055	-0.11245791
247	0xbd9fb5f1	-0.077983744
248	0x3dab2582	0.083567634
249	0x3c86c29e	0.016450223
250	0x3cd2dc61	0.02573985
251	0x3cb263ac	0.021776043
252	0xbd0145c1	-0.031560663
253	0xbd0b7df8	-0.03405568
254	0xbb2d030c	-0.002639952
255	0x3d597146	0.05308654

bias_ih f4 [384]
0	0x3ccffd9a	0.025389481
1	0xbc15bb48	-0.00913889
2	0x3c136901	0.008997203
3	0x3d1782ce	0.03698998
4	0xbd855be5	-0.06511668
5	0x3b825cef	0.0039783637
6	0x3d9c5992	0.07634272
7	0x3d6e179c	0.058127984
8	0x3d9e02af	0.077153556
9	0x3d941eb4	0.07232419
10	0x3d757ffe	0.059936516
11	0x3ce5570d	0.02799561
12	0x3da5bc9d	0.08092616
13	0xbc1a568b	-0.0094200475
14	0xbbaefd66	-0.005340266
15	0xbddd012a	-0.10791238
16	0x3dd5da4e	0.10442029
17	0xbcf3eecf	-0.029776959
18	0x3d3ec906	0.04657843
19	0x3e00c263	0.12574153
20	0x3c27adec	0.010234337
21	0x3d567f42	0.052367456
22	0x3bef8381	0.0073093777
23	0xbd4a0fb4	-0.049331382
24	0x3de06610	0.10956967
25	0x3db514f5	0.08841888
26	0xbc879738	-0.016551599
27	0x3d503edd	0.0508412
28	0x3cd2c1c7	0.025727166
29	0x3d97793c	0.073961705
30	0x3c8fd7d6	0.017558973
31	0xbd10407a	-0.03521774
32	0x3db1d7d4	0.08683744
33	0x3dbeff35	0.09326021
34	0xbdb4a102	-0.08819772
35	0xbb8250ab	-0.0039769015
36	0x3dbbb0ee	0.09164606
37	0x3b1973ae	0.0023414898
38	0x3d1ddc08	0.038539916
39	0x3d8ecdf0	0.06972873
40	0xbc95b98c	-0.018276952
41	0xbd049ed4	-0.032378033
42	0xbd12f68b	-0.035879653
43	0x3c4f9bf9	0.012671464
44	0x3dad9ea0	0.08477521
45	0x3ce45592	0.027872834
46	0x3d932fe7	0.07186871
47	0x3cf2aa7d	0.02962231
48	0x3d19dabf	0.03756213
49	0x3d763d94	0.06011732
50	0x3c274765	0.010209893
51	0x3d94decf	0.0726906
52	0xbd82b6bd	-0.06382511
53	0x3de9e18c	0.11419973
54	0x3dbfa073	0.09356775
55	0xbda1f602	-0.079082504
56	0x3dd0c7df	0.101943724
57	0xbd715351	-0.058917347
58	0xbbdb53ef	-0.0066933553
59	0x3d544d38	0.051831454
60	0xbd4f47dd	-0.050605644
61	0xbd36419b	-0.04449616
62	0x3ac45544	0.0014979024
63	0xbd8fd179	-0.070223756
64	0x3d6bc1ec	0.057557985
65	0x3dd808f0	0.1054858
66	0x3d70a8b9	0.058754656
67	0x3ded55de	0.115886435
68	0xbd1316bc	-0.035910353
69	0x3ce66e84	0.02812887
70	0x3c7767d8	0.015100442
71	0x3cd57ed8	0.02606146
72	0x3d1d118e	0.03834682
73	0x3da65a78	0.08122724
74	0xbba97a78	-0.00517207
75	0x3c70986e	0.01468478
76	0x3df0f839	0.11766095
77	0xbda1a02e	-0.0789188
78	0xbdd6ad96	-0.10482328
79	0xbcca38b8	-0.024685249
80	0xbc28961d	-0.010289696
81	0x3cc4eaba	0.024037708
82	0x3cab4378	0.020906195
83	0xbd66f924	-0.056389943
84	0x3db0c835	0.086319365
85	0xbcf36a40	-0.02971375
86	0xbb8598d7	-0.004077058
87	0xbd7c28a5	-0.0615622
88	0xbd041f58	-0.032256454
89	0x3d47d450	0.04878646
90	0x3d80c481	0.0628748
91	0x3da69832	0.08134498
92	0xbcb72154	-0.02235476
93	0x3d72cbee	0.059276514
94	0x3d938db1	0.0720476
95	0x3d63d15a	0.055619575
96	0x3d482f4f	0.048873242
97	0x3d8ec562	0.069712415
98	0x3d18f552	0.03734333
99	0x3d379d8c	0.044827983
100	0x3dc4efbe	0.0961604
101	0xbb4c203a	-0.0031147138
102	0x3d5fea3e	0.05466675
103	0x3db8a64a	0.09016092
104	0x3bb4d6b9	0.005518761
105	0x3dadcb30	0.084860206
106	0x3c461d24	0.012091909
107	0xbda6adab	-0.08138593
108	0x3d5a8f7a	0.053359486
109	0x3c2514ec	0.010075789
110	0xbd4579e9	-0.048211966
111	0x3d7c15c0	0.06154418
112	0x3c991ed3	0.018691456
113	0x3d873244	0.06601384
114	0xbcee14ec	-0.02906271
115	0xbb6ed4f3	-0.0036442846
116	0xbdd660eb	-0.104677044
117	0xbdd6fc70	-0.104973674
118	0xbd665cf3	-0.056240987
119	0x3db9a430	0.090645194
120	0x3d797ad8	0.06090817
121	0x3cca9ae4	0.02473206
122	0x3d7730c0	0.060349226
123	0x3dae7bf1	0.08519734
124	0xbc9a795b	-0.018856695
125	0xbd1f7555	-0.038930256
126	0x3d120633	0.035650443
127	0xbd5c8419	-0.053836916
128	0xbd2138e8	-0.03936091
129	0xbdd424f9	-0.103586145
130	0xbdca21b5	-0.0986971
131	0xbdbe7cdc	-0.09301159
132	0xbcd69394	-0.026193418
133	0xbdacb38e	-0.08432685
134	0xbd96d317	-0.07364481
135	0x3dc0f540	0.09421778
136	0xbdda63b6	-0.106635496
137	0xbcd6e465	-0.026231954
138	0x3d375346	0.04475715
139	0xbdbcea94	-0.0922443
140	0xbe11d593	-0.14241628
141	0xbd9ab91f	-0.0755484
142	0xbdce7077	-0.10080045
143	0x3dd561bd	0.10419033
144	0x3c44b4fc	0.012006041
145	0x3db0a104	0.08624461
146	0x3d18ebb5	0.037334163
147	0xbd812ef4	-0.06307784
148	0x3d7f5233	0.06233425
149	0xbab78df3	-0.0014004096
150	0x3ca5d067	0.020240976
151	0xbd82f070	-0.06393516
152	0x3bd06225	0.006359356
153	0x3ceaf1b4	0.028679706
154	0x3d84d7a5	0.064864434
155	0xbc1948ac	-0.009355705
156	0xbdf193b4	-0.1179575
157	0xbdb8ce16	-0.09023683
158	0xbcf1fec0	-0.02954042
159	0xbd352910	-0.044228613
160	0xbddf166c	-0.108929485
161	0xbd227ca1	-0.039669637
162	0x3c1f1340	0.009709179
163	0xbc6d5203	-0.014484885
164	0xbd9cfe91	-0.07665742
165	0xbd7268c2	-0.059181936
166	0xbc3738fd	-0.011183021
167	0x3cd77c51	0.026304396
168	0xbcda8a42	-0.026677255
169	0x3daa93e5	0.0832899
170	0xbcd5f39b	-0.026117137
171	0x3d0a00c1	0.033692125
172	0xbc7ac51c	-0.015305784
173	0xbda16af5	-0.078817286
174	0xbcc4faa5	-0.024045298
175	0xbd837d8e	-0.06420432
176	0x3d5ac1f7	0.053407636
177	0xbd904751	-0.070448525
178	0x3a24ed82	0.0006291495
179	0xbdb45258	-0.08804768
180	0xbbd7e69b	-0.0065887696
181	0x3cb11143	0.021614676
182	0x3cf0d3b1	0.029397817
183	0xbd89ec87	-0.06734567
184	0x3c8d2128	0.017227724
185	0x3bb85ebb	0.005626527
186	0xbca75658	-0.020426914
187	0xbd4dbdff	-0.050230023
188	0x3d48e4da	0.049046375
189	0xbc002769	-0.007821896
190	0xbb68842e	-0.0035479176
191	0xbd17915f	-0.03700387
192	0x3d744afc	0.059641823
193	0xbdc4def9	-0.09612841
194	0xbd427ff5	-0.04748531
195	0xbd494ddc	-0.049146518
196	0xbe00aa36	-0.1256493
197	0x3cafe77c	0.021472685
198	0xbc5447a5	-0.0129565345
199	0x3d9ddcd3	0.077081345
200	0xbc8dba76	-0.017300826
201	0xbd94bc07	-0.07262426
202	0x3cd7e395	0.026353637
203	0xbd329541	-0.04359937
204	0x3d89c0df	0.0672624
205	0x3d2961ed	0.041353155
206	0xbd67e481	-0.056614403
207	0xbdfd9161	-0.123812445
208	0xbda87939	-0.082262464
209	0x3c17991f	0.0092528155
210	0xbd8b7163	-0.06808736
211	0xbe1154dc	-0.14192528
212	0x3d92b611	0.07163633
213	0xbd375c4b	-0.04476575
214	0xbcd4eff8	-0.025993332
215	0x3d15c14e	0.036561303
216	0xbbc15a7b	-0.0059006787
217	0xbd93637a	-0.07196708
218	0xbcb9bbe1	-0.022672595
219	0x3d4fa6c5	0.050696153
220	0xbd812f01	-0.063077934
221	0x3d97eff9	0.07418818
222	0xbd9e4790	-0.07728493
223	0xbccd0f80	-0.025031805
224	0xbdb3d87b	-0.08781525
225	0xbd91515e	-0.07095598
226	0x3d97cd7e	0.074122414
227	0xbdaac8f8	-0.08339113
228	0xbc937187	-0.01799847
229	0xbd809d0b	-0.062799536
230	0x3d61bf27	0.055113938
231	0x3c509eae	0.012733145
232	0x3c66684c	0.014062952
233	0xbe0c3f18	-0.13695943
234	0x3cfbee9f	0.030753432
235	0x3dbf95df	0.093547575
236	0x3bfc99bc	0.0077087563
237	0x3ca80001	0.020507814
238	0xbcded48b	-0.027200958
239	0xbd6ba192	-0.057527132
240	0x3c2e4d40	0.010638535
241	0xbd2f5c68	-0.042812735
242	0x3d342f54	0.043990448
243	0x3d785543	0.060628187
244	0x3d07c43d	0.03314613
245	0xbd486b25	-0.048930306
246	0xbd76cfca	-0.060256757
247	0xbd8fcd6c	-0.07021603
248	0x3ac32fb2	0.0014891534
249	0xbb2326a0	-0.0024894848
250	0xbc515229	-0.012775936
251	0xbd7b280d	-0.061317492
252	0xbd04aa10	-0.032388747
253	0x3dadd423	0.084877275
254	0x3c89de7b	0.01682972
255	0xbd2db284	-0.042406574

bias_hh f4 [384]
0	0x3d621173	0.055192422
1	0x3d10cb0b	0.035349887
2	0x3df062a7	0.117375664
3	0x3c126e53	0.008937436
4	0x3d2de012	0.04245002
5	0x3d356a33	0.044290733
6	0xbd7b3b5b	-0.061335903
7	0xbd983699	-0.07432289
8	0x3dc51b50	0.0962435
9	0x3c8cfb0a	0.017209549
10	0xbd968327	-0.07349234
11	0x3e106dfa	0.14104453
12	0x3db05868	0.08610612
13	0xbd64c88f	-0.05585533
14	0x3d98b1e4	0.07455805
15	0xbd856480	-0.065133095
16	0x3d54d216	0.051958166
17	0xbd03e91b	-0.03220473
18	0xbd313ee5	-0.04327287
19	0x3d460063	0.048340213
20	0x3ddc543e	0.107582554
21	0x3b3f3bf5	0.0029180024
22	0xbda6cbbf	-0.0814433
23	0x3ddcf936	0.10789721
24	0x3b9538be	0.0045538833
25	0xbd3c647a	-0.04599426
26	0xbd7608b7	-0.060066905
27	0x3c929066	0.01789112
28	0x3d242a55	0.040079433
29	0x3da08142	0.07837154
30	0xbd48dab6	-0.049036704
31	0x3d828cd3	0.06374516
32	0x3da7a38d	0.08185492
33	0xbc82e2e4	-0.01597733
34	0xbdb7ebab	-0.08980497
35	0x3ccb9d54	0.024855293
36	0x3d9adfd5	0.07562224
37	0x3d8fbb86	0.07018189
38	0xbd78e052	-0.060760804
39	0x3cbb5f90	0.022872716
40	0x3c453c53	0.012038308
41	0xbcb505cf	-0.022097496
42	0x3cbf956f	0.023386685
43	0x3c8238bd	0.015896196
44	0xbc13e9bf	-0.009027897
45	0x3d8da4eb	0.06916221
46	0xbd178682	-0.03699351
47	0x3c6d81b7	0.014496258
48	0x3de40142	0.111330524
49	0xbc3e8fa0	-0.011630923
50	0x3c250b5a	0.010073507
51	0x3c29c72e	0.01036243
52	0xbd822310	-0.06354344
53	0x3ded52a7	0.1158803
54	0x3d829f8a	0.06378086
55	0x3d1f7ac7	0.03893545
56	0x3dafbd22	0.08580996
57	0xbcdb280f	-0.0267525
58	0xbd5735f6	-0.052541696
59	0x3d3d6821	0.046241883
60	0xbdae1358	-0.08499783
61	0xbc49ab0d	-0.012308848
62	0xbc8a85ee	-0.016909566
63	0xbb7ee2a1	-0.0038892406
64	0xbd7f2f34	-0.062300876
65	0x3d3d3c37	0.046200003
66	0x3d9de88e	0.07710372
67	0xb9cab11f	-0.00038660408
68	0xbcb92f60	-0.022605598
69	0x3d0a9866	0.033836745
70	0xbd388ca3	-0.045055997
71	0xbc32c3ee	-0.010910971
72	0x3d5d17f1	0.05397791
73	0xbc57f772	-0.013181554
74	0x3d6558a3	0.055992734
75	0x3d990f3f	0.07473611
76	0xba7b0609	-0.00095757894
77	0xbd8bf3b4	-0.06833592
78	0xbd729610	-0.059225142
79	0x3c6e467d	0.014543173
80	0xbc882581	-0.016619446
81	0x3d025d5d	0.03182732
82	0x3dc2c941	0.095110424
83	0x3c75f851	0.0150128165
84	0x3da03c1e	0.078239664
85	0x3d86db3e	0.06584786
86	0xbd128b0e	-0.035777144
87	0x3ddc8f4c	0.10769519
88	0xbdc2b89c	-0.09507868
89	0x3cbde1c0	0.023178935
90	0x3dc5270a	0.09626587
91	0xbd67439b	-0.056460958
92	0x3d775868	0.060387045
93	0x3dae57f2	0.08512868
94	0xbca81731	-0.020518871
95	0xbd9612e5	-0.073278226
96	0xbd6bca63	-0.057566058
97	0x3cdedd02	0.027204994
98	0x3dbfa5c1	0.09357787
99	0xbd33f57d	-0.043935288
100	0xbd4881ca	-0.0489519
101	0x3b63285e	0.0034661512
102	0xbc3dab9b	-0.011576558
103	0x3d52e89a	0.051491357
104	0xbc1de7c0	-0.009637773
105	0x3d918de6	0.07107143
106	0xbc821da9	-0.015883284
107	0x3ce430d4	0.027855314
108	0x3de6cc0b	0.11269387
109	0x3d88a005	0.06671146
110	0x3d014a27	0.031564858
111	0x3cfffb65	0.031247804
112	0xbcba00ba	-0.022705425
113	0xbcea4ccd	-0.028601075
114	0xbda84e98	-0.082181156
115	0xbd01a454	-0.031650856
116	0x3b450e8e	0.003006849
117	0xbcd6e411	-0.026231797
118	0x3d81db61	0.06340671
119	0xbbea6649	-0.0071533066
120	0xbd95eb53	-0.07320275
121	0x3e05b1e0	0.13056135
122	0x3dc724fd	0.09723852
123	0x3d9eb615	0.07749573
124	0x3da8c864	0.082413465
125	0x3d6a701f	0.057235833
126	0x3d2f3a09	0.042779956
127	0xbd820696	-0.063489124
128	0xbd25511d	-0.04036056
129	0x3cb60101	0.022217276
130	0xbdd21b75	-0.10259143
131	0x3ccbffc5	0.024902234
132	0x3d840dec	0.06447968
133	0xbd9f08e6	-0.07765369
134	0xbdd70e3b	-0.10500761
135	0xbd2dd260	-0.042436957
136	0xbe00adfe	-0.12566373
137	0x3d6a8c2e	0.057262592
138	0x393db363	0.00018091271
139	0x3bbb8b51	0.005723395
140	0x3c02962c	0.007970374
141	0xbd3be375	-0.045871217
142	0x3d13740e	0.03599935
143	0x3d42f5b5	0.047597606
144	0xbd5b3a05	-0.05352213
145	0x3da640fd	0.08117864
146	0xbd87a87f	-0.06623935
147	0xbc92cd49	-0.017920153
148	0x3d24c443	0.040226232
149	0xbd99f4cd	-0.07517395
150	0xbd8cb6eb	-0.06870826
151	0xbbc70a3c	-0.006074218
152	0xbae8e6fe	-0.0017769036
153	0xbc891691	-0.016734393
154	0x3d834936	0.06410448
155	0xbbe5b8a6	-0.007010537
156	0xbcc8f862	-0.0245325
157	0x3d1fa16c	0.038972303
158	0x3cdbd1bd	0.02683341
159	0x3c714ea2	0.01472822
160	0xbcf13878	-0.029445872
161	0xbda47d64	-0.08031729
162	0xbd1515b0	-0.036397636
163	0xbdc32b26	-0.09529714
164	0xbd90a166	-0.07062034
165	0xbdfba86e	-0.12287985
166	0x3c86ff97	0.016479297
167	0xbdde9764	-0.10868719
168	0x3dcc1056	0.09964053
169	0x3cf74aec	0.030187093
170	0xbd985659	-0.074383445
171	0xbd443006	-0.04789736
172	0x3d0b01db	0.033937316
173	0xbd92ad7d	-0.071619965
174	0xbda0af89	-0.07845981
175	0xbd3ee665	-0.04660644
176	0xbd273069	-0.040817652
177	0xbbf6cf39	-0.007532027
178	0xbca52f35	-0.020164112
179	0x3cb76968	0.022389129
180	0xbd5319ec	-0.051538393
181	0x3cf66bf1	0.030080767
182	0xbd35e998	-0.044412225
183	0xbdb2242f	-0.08698308
184	0xbcb64f09	-0.022254484
185	0xbdcee41b	-0.101021014
186	0xbcad3aa0	-0.021146119
187	0xbc2ad795	-0.010427375
188	0x3d835d76	0.06414311
189	0xbac92e5f	-0.0015348903
190	0xbd32a054	-0.043609932
191	0x3d6b592b	0.057458084
192	0x3d23f256	0.04002603
193	0xbe072d5a	-0.13200894
194	0xba78a5f0	-0.0009485176
195	0x3da5e0d5	0.08099524
196	0xbd85c098	-0.06530875
197	0x3dadf4ea	0.08493979
198	0xbd34b9a3	-0.04412235
199	0x3df7790e	0.12083636
200	0x3ca4a3ac	0.020097576
201	0x39f35ea5	0.00046419087
202	0xbd7d9311	-0.06190783
203	0x3d6d314e	0.05790835
204	0x3c892a43	0.016743785
205	0x3d4871d6	0.048936687
206	0xbe0e9a9c	-0.13926166
207	0xbdae030c	-0.08496675
208	0xbdcc2b56	-0.09969203
209	0x3d6dd9c2	0.058069
210	0xbdf484cb	-0.11939391
211	0xbce20dcc	-0.02759447
212	0xbda95c4a	-0.08269556
213	0x3d426170	0.047456205
214	0xbd0e10c7	-0.03468397
215	0x3b9c06bb	0.0047615445
216	0xbb86e1bb	-0.0041162646
217	0x3cf84b25	0.03030927
218	0x3c1af591	0.009457962
219	0x3db693f5	0.08914939
220	0x3bac89f8	0.0052654706
221	0x3cc59a2e	0.02412137
222	0xbd6951bc	-0.056962714
223	0xbe1d6988	-0.15372288
224	0x3c04d299	0.008106851
225	0xbde44213	-0.11145415
226	0xbdc56399	-0.09638137
227	0x3d4b42ff	0.04962444
228	0xbc2c904a	-0.010532448
229	0xbdac1e13	-0.08404174
230	0x3d437216	0.047716223
231	0x3d9fead0	0.07808459
232	0xbda029e4	-0.0782049
233	0xbdd914ea	-0.10599692
234	0x3d11382d	0.035453964
235	0x3dc97e20	0.098385096
236	0xbe0182fc	-0.12647623
237	0xbdd518ff	-0.10405158
238	0x3d2e8b29	0.042613182
239	0x3d8896a6	0.06669359
240	0xbdcae99a	-0.09907837
241	0x3d7f560e	0.062337928
242	0xbdb6a1a6	-0.08917551
243	0xbd3d7b60	-0.046260238
244	0x3d2e4539	0.042546485
245	0xba1e63e8	-0.0006042109
246	0xbca16f8a	-0.019706506
247	0x3d87e78b	0.0663596
248	0x3d1bcaca	0.03803519
249	0xbd74e9d2	-0.0597933
250	0xbd31e85b	-0.043434482
251	0xbd873a78	-0.06602949
252	0x3c2fda6c	0.010733228
253	0xbd88eec1	-0.06686164
254	0xbdcc1403	-0.099647544
255	0x3cfc368f	0.030787734

weight f4 [128, 128]
0	0x3d9b4483	0.07581427
1	0x3da5b872	0.08091821
2	0xbccafbc4	-0.024778254
3	0xbda2d5ed	-0.07950959
4	0xbd63ec7c	-0.05564545
5	0xbdb865aa	-0.09003766
6	0x3ccc38f2	0.024929497
7	0x3da664a1	0.08124662
8	0xbd9fd831	-0.07804907
9	0xbd9e5e39	-0.07732815
10	0x3cd63292	0.02614716
11	0x3d8a3fad	0.067504264
12	0xbdb2acbd	-0.087243535
13	0xbd645438	-0.05574438
14	0x3c19a843	0.009378496
15	0xbd7d5191	-0.061845366
16	0xbc842dd0	-0.016135126
17	0x3bd7fd94	0.006591508
18	0xbd0c8b46	-0.03431251
19	0xbd8dc393	-0.069220684
20	0x3c97ef8e	0.018546846
21	0xbd847740	-0.06468058
22	0x3d3aa1b4	0.04556437
23	0x3b0981b6	0.0020981855
24	0x3da7e88e	0.08198653
25	0x3d7dba71	0.061945383
26	0x3e0edf63	0.13952403
27	0xbd33f2e0	-0.043932796
28	0x3ceffece	0.029296305
29	0xbd1b61a2	-0.037934907
30	0x3dd41353	0.10355248
31	0x3da71733	0.08158722
32	0x3d8d18d2	0.068895
33	0xbc386164	-0.0112536885
34	0x3dc4e33a	0.096136525
35	0xbd024342	-0.031802423
36	0x3d76b99a	0.060235597
37	0xbc032419	-0.008004212
38	0x3db0b603	0.08628466
39	0x3ccd5636	0.025065523
40	0x3b25a535	0.0025275473
41	0xbc8efa17	-0.017453237
42	0x3d09b840	0.03362298
43	0x3ddee294	0.1088306
44	0x3c619190	0.013767615
45	0x3d940bee	0.07228838
46	0x3a32a675	0.0006814965
47	0x3c85f47d	0.016351933
48	0xbd0c14e9	-0.03419963
49	0xbdaf591f	-0.085619204
50	0x3dbb9f1a	0.091612056
51	0x3d328da6	0.043592118
52	0x3d8866c4	0.06660226
53	0xbbfee6a3	-0.007778959
54	0x3c407331	0.011746214
55	0x3d95d105	0.07315258
56	0x3d7053f4	0.058673814
57	0x3da8e356	0.08246486
58	0x3aa0e9f4	0.0012276755
59	0x3dc9146d	0.09818349
60	0x3ce47d04	0.027891643
61	0xbc95f53f	-0.018305419
62	0x3d88fbcd	0.06688652
63	0xbdad5850	-0.0846411
64	0xbde2d742	-0.110762134
65	0x3dbffeba	0.09374757
66	0xbcc3037c	-0.023805372
67	0xbcfa547e	-0.030557867
68	0xbdb7238d	-0.08942328
69	0x3d86d7cd	0.065841295
70	0x3d19df06	0.037566207
71	0xbda356e0	-0.079755545
72	0xbd85378e	-0.06504737
73	0xbcc2ace3	-0.02376408
74	0xbc72da81	-0.014822603
75	0x3cca7168	0.02471228
76	0xbe1e3541	-0.15450002
77	0xbcea9b65	-0.028638551
78	0xbcce68a6	-0.025196385
79	0x3d0a2b90	0.03373295
80	0x3b887df6	0.0041654063
81	0xbdecbc05	-0.115592994
82	0x3d36f8b5	0.04467078
83	0xbd2a2f45	-0.041548986
84	0x3dd35ad7	0.10320061
85	0xbd4ff512	-0.050770827
86	0x3d33c486	0.04388859
87	0xbbaa1c11	-0.005191334
88	0x3d37fc8e	0.04491859
89	0xbd9b9322	-0.07596423
90	0x3cbe274c	0.023212098
91	0xbe04a08c	-0.12951869
92	0xbd8bf2d1	-0.06833423
93	0x3d41ee3a	0.04734633
94	0xbda2fc66	-0.079582974
95	0xbd8b9d97	-0.06817167
96	0xbca361bc	-0.019944064
97	0xbcffb9ea	-0.03121658
98	0x3d8cdb88	0.0687781
99	0x3c33722a	0.010952512
100	0xbdc41ddd	-0.095760085
101	0xbd9ca30e	-0.07648288
102	0xbd3938f6	-0.045220338
103	0xbd7a9040	-0.061172724
104	0x3d64b4bd	0.055836428
105	0x3d0d0ee0	0.034438014
106	0x3d938ec6	0.07204966
107	0xbdc64839	-0.09681744
108	0x3d5e2ac6	0.05424001
109	0xbdae4880	-0.08509922
110	0xbd2085df	-0.03919017
111	0x3d7c6ec5	0.061629076
112	0x3ced4e9a	0.028968144
113	0xbd8fe8e6	-0.07026844
114	0x3bade614	0.0053069685
115	0xbe22a09d	-0.15881582
116	0x3d4ab083	0.04948474
117	0xbdcfe209	-0.10150535
118	0x3cf7bb68	0.03024073
119	0x3db5e8a7	0.088822655
120	0xbcd2d824	-0.02573783
121	0x3d81c240	0.06335878
122	0x3da3590e	0.0797597
123	0x3b82897d	0.003983675
124	0x3d598a27	0.053110268
125	0x3c641a53	0.013922292
126	0xbd2d2621	-0.04227269
127	0x3ccc5dd3	0.024947083
128	0xbd55090b	-0.052010577
129	0xbc3fbd83	-0.011702898
130	0xbdc6b5e5	-0.097026624
131	0x3d2d0c2b	0.042247932
132	0x3d4aca9f	0.04950964
133	0x3da391d4	0.07986799
134	0xbd5ffd5f	-0.054684993
135	0xbdbdb00b	-0.09262093
136	0xbdd2f29c	-0.1030018
137	0xbc425b3a	-0.01186257
138	0xbd2cb9c2	-0.04216934
139	0xbb6f762f	-0.0036538949
140	0x3d05aedd	0.032637466
141	0xbd9425a7	-0.07233744
142	0xbd5a2b7f	-0.053264137
143	0xbd15c70c	-0.03656678
144	0x3c600c10	0.013674751
145	0xbdb3c6f2	-0.0877818
146	0x3dd68085	0.10473732
147	0x3dbd9757	0.092573814
148	0x3c2fd428	0.010731734
149	0x3dd68260	0.10474086
150	0x3d1e3c5b	0.03863178
151	0xbd6e6b82	-0.058207996
152	0x3d7970de	0.060898654
153	0xbd120fcc	-0.035659596
154	0xbcfd9570	-0.030955046
155	0x3cc72d87	0.024313701
156	0xba80e34d	-0.0009833366
157	0x3c6d9908	0.0145018175
158	0xbcc04fff	-0.023475645
159	0x3db53cc9	0.088494845
160	0xbc8b4323	-0.016999787
161	0x3d1a0259	0.037599895
162	0xbd690c79	-0.05689666
163	0x3db354da	0.087564185
164	0xbd4a526a	-0.049395002
165	0xbd698df4	-0.057020143
166	0xbda4b785	-0.08042816
167	0xbd9be8f7	-0.07612794
168	0x3dcbf041	0.09957934
169	0xbd2a49ba	-0.041574217
170	0x3c1b0ca5	0.009463464
171	0xbe1363fc	-0.1439361
172	0x3de68e54	0.11257616
173	0xbb5d5189	-0.0033770523
174	0x3dbe24c6	0.09284358
175	0xbda31396	-0.0796272
176	0xbdb4bd10	-0.08825123
177	0xbcd8b25d	-0.026452238
178	0xbdf23c39	-0.11827893
179	0xbc4673cf	-0.012112572
180	0xbe0956f5	-0.13412078
181	0xbc913e27	-0.017729832
182	0x3d4b58a4	0.04964508
183	0x3d2da0c9	0.042389665
184	0x3d891359	0.066931434
185	0xbd065fe7	-0.032806303
186	0x3d007973	0.031365823
187	0xbc8a0ba8	-0.016851261
188	0xbc3ec548	-0.011643715
189	0x3d389ff7	0.04507443
190	0xbdc814ff	-0.0976963
191	0x3c9c95e5	0.019114444
192	0x3dc7aa21	0.097492464
193	0x3d9c8f64	0.07644537
194	0xbd4e72f6	-0.050402604
195	0x3d8b5923	0.06804111
196	0x3d25d03d	0.040481795
197	0xbdf6f138	-0.120577276
198	0xbd3e18b3	-0.046410274
199	0xbdc02763	-0.093825124
200	0x3cd0ef41	0.02550471
201	0xbd1ea757	-0.038733806
202	0xbde00833	-0.10939064
203	0x3dde813a	0.10864492
204	0x3c57be6d	0.01316796
205	0xbd146dbd	-0.036237467
206	0xbb9bc019	-0.0047531244
207	0xbe0a2370	-0.13490081
208	0x3d1f44b1	0.03888387
209	0x3d077d8e	0.033078723
210	0x3d3410f9	0.0439615
211	0x3c5b53e5	0.013386701
212	0xbaccc770	-0.0015623402
213	0x3d497a7f	0.049189087
214	0xbcbd6c7f	-0.023123024
215	0x39cb291f	0.00038749815
216	0x3d90235a	0.07037993
217	0x3cd84c07	0.02640344
218	0x3d7a2c13	0.06107719
219	0x3d2064c2	0.03915859
220	0x3d457361	0.048205737
221	0x3db7b78a	0.08970554
222	0x3cec52df	0.02884811
223	0xba1c1250	-0.00059536565
224	0xbdff6149	-0.124697275
225	0xbd2deae1	-0.042460326
226	0x3c067c8e	0.008208407
227	0xbd6d7fb0	-0.0579831
228	0x3c168939	0.00918799
229	0x3d9676c0	0.073468685
230	0x3df3d2b0	0.1190542
231	0x3d222750	0.039588273
232	0xbcd88bab	-0.026433786
233	0xbcb8a32d	-0.022538746
234	0x3c04a33d	0.00809556
235	0xbcac67d7	-0.021045608
236	0x3dd5d920	0.10441804
237	0x3db671d3	0.08908429
238	0xbc7a3817	-0.015272162
239	0xbcb116b6	-0.021617275
240	0x3cbc1d71	0.022963258
241	0xbcf68ac7	-0.030095471
242	0x3aaef155	0.0013347069
243	0x3dff296e	0.12459074
244	0xbe1d501b	-0.15362589
245	0xbac5383f	-0.001504667
246	0x3dccc3ec	0.09998307
247	0x3d5fe184	0.054658428
248	0xbdd090ba	-0.101838544
249	0xbd2961a1	-0.04135287
250	0xbca24559	-0.019808458
251	0x3c2f0516	0.010682365
252	0x3c914755	0.01773421
253	0x3d19c537	0.037541594
254	0x3dcab1af	0.09897172
255	0xbdde09c1	-0.10841704

bias f4 [128]
0	0x3d39ba52	0.045343705
1	0xbd7d9797	-0.061912145
2	0x3bf670f4	0.0075207893
3	0x3d7a71ef	0.06114381
4	0xbdc9829a	-0.098393634
5	0xbbce5a4f	-0.0062973867
6	0xbdc64a2b	-0.09682115
7	0x3d6ed090	0.05830437
8	0xbd0cc704	-0.034369484
9	0x3e0763d7	0.1322168
10	0xbdb4e785	-0.08833221
11	0x3caafdf0	0.02087304
12	0x3c889e05	0.016676912
13	0xbd09567d	-0.033529747
14	0xbd8a21c8	-0.067447245
15	0x3dace258	0.08441609
16	0xbd7af18a	-0.061265506
17	0xbd39bd1a	-0.045346357
18	0xbdc26e98	-0.0949375
19	0x3cab7493	0.02092961
20	0x3c9ef1e7	0.019402457
21	0xbdd44eb9	-0.10366578
22	0x3dc6e283	0.097111724
23	0xbcbc7aaf	-0.023007719
24	0x3aa1314c	0.0012298017
25	0x3dad7ee6	0.084714696
26	0x3db8a3ff	0.09015655
27	0xbc1211b5	-0.0089153545
28	0xbda9cea2	-0.08291365
29	0xbd2151ef	-0.03938478
30	0xbdb35215	-0.0875589
31	0xbe1f2e1d	-0.15544935
32	0xbdfba037	-0.12286418
33	0xbc0f6b79	-0.008753651
34	0x3b8e656d	0.004345587
35	0xbdaf4b8d	-0.08559332
36	0xbe1c6434	-0.152726
37	0xbdfe8bad	-0.12428985
38	0x3c3c1e1c	0.011481788
39	0xbe00d246	-0.12580213
40	0xbd3d1660	-0.046163917
41	0x3dad08a1	0.084489115
42	0xbda11b30	-0.07866514
43	0xbe12bff3	-0.14331035
44	0xbca9c4d4	-0.020723738
45	0xbd83fd4f	-0.06444799
46	0x3d1686cf	0.036749657
47	0xbe1c107b	-0.15240662
48	0xbd06b849	-0.03289059
49	0x3d44120a	0.047868766
50	0x3cf2167b	0.029551735
51	0x3da1a974	0.07893649
52	0xbbf1268f	-0.007359333
53	0x3cf923f9	0.03041266
54	0x3d2ddff6	0.042449914
55	0x3c08afa8	0.008342661
56	0x3b34e9bb	0.0027605135
57	0xbe0095ea	-0.12557188
58	0x3d7dcd89	0.06196359
59	0x3d174d70	0.036939085
60	0x3d9cc86d	0.07655416
61	0x3c67ec83	0.01415551
62	0x3d8e1eb4	0.0693945
63	0x3d9448d5	0.07240454
64	0x3d722ba4	0.05912365
65	0x3d33bb76	0.04387995
66	0xbd0a704c	-0.0337985
67	0xbe01d2cd	-0.1267807
68	0x3d73b880	0.059502125
69	0xbd6c2b93	-0.057658743
70	0xbafd573f	-0.001932837
71	0x3d8be45d	0.06830666
72	0xbdfebef3	-0.124387644
73	0x3d8a54c9	0.06754453
74	0x3dac46c2	0.084119335
75	0x3de700c2	0.112794414
76	0x3c2268c1	0.009912671
77	0x3ddcb9ef	0.107776515
78	0x3d2b3b7f	0.041804787
79	0x3de0ec9e	0.10982631
80	0x3db9e577	0.0907697
81	0x3e07ff20	0.13280916
82	0xbc862c21	-0.016378464
83	0xbdbe2296	-0.092839405
84	0x3c28d221	0.010304005
85	0xbdd3c73b	-0.103407346
86	0xbd8ae3ae	-0.06781708
87	0xbdac1fe3	-0.084045194
88	0xbe00cab7	-0.1257733
89	0xbd17f960	-0.037103057
90	0xbd6badc9	-0.05753878
91	0xbd2059a2	-0.03914798
92	0x3d7bddd2	0.06149084
93	0xbd418820	-0.04724896
94	0xbe1df43b	-0.15425198
95	0x3daa7a8e	0.08324157
96	0xbdafc039	-0.085815854
97	0xbdd52ab3	-0.10408535
98	0xbbcb1c53	-0.006198445
99	0xbc78ad7f	-0.015178083
100	0xbd8e2530	-0.06940687
101	0xbd725d60	-0.05917108
102	0xbccd5ca4	-0.025068589
103	0x3a132d6a	0.0005614372
104	0xbe0461b1	-0.12927891
105	0x3d9042f4	0.0704402
106	0xbc1355d2	-0.008992629
107	0x3ca5abf7	0.0202236
108	0xbd270064	-0.040771857
109	0xbd9da28f	-0.07697021
110	0x3d6fdb14	0.05855854
111	0x3dac48dc	0.08412334
112	0xbdff781e	-0.124740824
113	0xbe1454da	-0.14485493
114	0x3cb4c750	0.022067696
115	0x3bcbe500	0.0062223673
116	0xbd3744f3	-0.04474349
117	0x3d8d70ed	0.069063045
118	0xbde71e0b	-0.11285027
119	0xbd249ec2	-0.040190466
120	0x3d3fe7e6	0.046852015
121	0x3d513f93	0.05108602
122	0xbe126049	-0.14294542
123	0x3d4691d3	0.048478913
124	0x3c6e6d41	0.014552415
125	0xbcf43a09	-0.02981283
126	0xbe1eca1c	-0.15506786
127	0xbdfedd7a	-0.12444587

weight f4 [128, 128]
0	0xbcddab96	-0.027059358
1	0xbc81ffe8	-0.015869096
2	0x3d70c152	0.058778115
3	0x3d98181f	0.07426476
4	0xbd53e380	-0.051730633
5	0x3c638557	0.013886771
6	0xbb51a0b9	-0.0031986667
7	0x3c8510ea	0.016243417
8	0xbb2e1efc	-0.002656876
9	0xbd1f7238	-0.038927287
10	0xbd981e13	-0.07427611
11	0xbd536ba9	-0.051616345
12	0xbd03db79	-0.032191727
13	0x3df4ee28	0.11959487
14	0xbd75ad96	-0.059979998
15	0x3da58b85	0.08083252
16	0x3d9cac34	0.07650033
17	0xbda044eb	-0.07825645
18	0xbda33464	-0.07968977
19	0x3c8c7890	0.017147332
20	0x3d0a6c5d	0.03379475
21	0x3dab4416	0.08362596
22	0xbdadd4ae	-0.08487831
23	0x3da68f34	0.081327826
24	0xbd665b95	-0.056239683
25	0xbc5d323d	-0.013500747
26	0x3a82b688	0.0009972611
27	0xbd635ea1	-0.055510167
28	0x3d829776	0.06376545
29	0xbd95b438	-0.073097646
30	0x3d281615	0.041036684
31	0xbdbe3ba1	-0.09288717
32	0xbdc2bd78	-0.095087945
33	0xbd5585df	-0.052129623
34	0xbdd4c61a	-0.103893474
35	0xbd7c36b5	-0.06157561
36	0x3da4d877	0.080491
37	0x3d0efd7c	0.03490971
38	0xbd3304b7	-0.04370567
39	0x3daf00d0	0.08545077
40	0xbbc3b2ed	-0.0059722573
41	0x3cdc6412	0.026903186
42	0x3d9dc2fb	0.07703205
43	0xbd5dcfa7	-0.05415311
44	0xbdb22e08	-0.08700186
45	0xbda9c620	-0.082897425
46	0xbda3cf49	-0.07998521
47	0xbd06e0a6	-0.032929085
48	0x3ca550c1	0.020180108
49	0xbd61277e	-0.054969303
50	0xbd7e3e41	-0.06207109
51	0xbcf6510d	-0.030067945
52	0xbdb18e08	-0.086696684
53	0x3d0012ea	0.031268038
54	0x3d54765d	0.051870693
55	0x3d383e60	0.04498136
56	0x3d13af15	0.036055643
57	0x3d5bd6d4	0.053671673
58	0xbd67acfe	-0.056561463
59	0x3ceda631	0.02900991
60	0x3d813e95	0.06310765
61	0x3cbfdfc3	0.023422128
62	0x3d0460b6	0.032318793
63	0x3d004ae1	0.03132141
64	0x3d606de1	0.05479229
65	0x3c1c88b6	0.009554079
66	0xbc9ee2a0	-0.019395173
67	0xbd835765	-0.064131536
68	0xbcdd751e	-0.027033385
69	0x3bfdd031	0.0077457656
70	0xbda57423	-0.08078792
71	0x3d80fbed	0.06298051
72	0x3cf40596	0.02978782
73	0x3c295b4e	0.01033671
74	0x3b234338	0.0024911892
75	0xbc98f60d	-0.018672014
76	0x3cd1dd47	0.025618209
77	0xba99c6b1	-0.0011732188
78	0xbd3c066b	-0.04590456
79	0xbd63bfe7	-0.055602934
80	0x3d79f843	0.061027776
81	0xbc62760c	-0.01382209
82	0xbce57da4	-0.028014012
83	0xbd34766b	-0.044058245
84	0x3d5f646a	0.05453912
85	0xbd8463cc	-0.06464347
86	0x3d588ff7	0.05287167
87	0xbc9e9738	-0.019359216
88	0x3d344551	0.044011418
89	0xbcb1f289	-0.021722095
90	0x3c936317	0.017991586
91	0xbd56b194	-0.052415445
92	0x3d35ee84	0.04441692
93	0x3d4358ab	0.047691982
94	0x3c8d0b7d	0.017217392
95	0xbdd2be5a	-0.10290213
96	0xbc2b4ce1	-0.010455341
97	0xbdb43842	-0.08799793
98	0xbd70a126	-0.058747433
99	0x3d1744e8	0.03693095
100	0xbbb59e07	-0.00554252
101	0xbd39a99e	-0.045327775
102	0xbd6c99b0	-0.057763755
103	0x3da92375	0.08258716
104	0xbc2d71ea	-0.010586241
105	0xbdbec983	-0.09315779
106	0x3d0ff71d	0.035147775
107	0x3d71ec86	0.059063457
108	0x3dab24dc	0.0835664
109	0x3d499742	0.049216516
110	0x3d99fa12	0.075184
111	0x3d26a928	0.040688664
112	0x3d32f261	0.04368818
113	0xbcc4a75a	-0.02400558
114	0xbcf662b9	-0.030076372
115	0xbd28a548	-0.04117325
116	0xbcb62857	-0.022236032
117	0xbdb40d12	-0.087915555
118	0xbddbb28f	-0.10727417
119	0x3d70e767	0.058814432
120	0xbda5301f	-0.08065819
121	0xbd23de9b	-0.040007215
122	0xbd0c9745	-0.03432395
123	0x3a97034f	0.0011521372
124	0x3b8aac62	0.0042319754
125	0xbd9f2a12	-0.07771696
126	0x3bb33837	0.005469348
127	0xbcce201e	-0.025161799
128	0x3d478bc0	0.04871726
129	0xbdc0345e	-0.09384988
130	0xbdd818d7	-0.10551613
131	0xbd877cd4	-0.06615606
132	0x3d01a84f	0.031654652
133	0xbdd1cfdd	-0.10244725
134	0xbd68160c	-0.05666165
135	0x3caccd1e	0.021093901
136	0xba9be5d9	-0.0011894061
137	0x3d020d64	0.03175105
138	0xbc5863a1	-0.013207347
139	0xbc607cd5	-0.013701637
140	0xbde39453	-0.11112275
141	0x3dc337a0	0.09532094
142	0x3d982fb2	0.07430972
143	0xbd58e943	-0.05295683
144	0x3d07cb3c	0.033152804
145	0x3de3a15d	0.11114762
146	0x3da396cb	0.07987746
147	0xbd2981a5	-0.041383404
148	0xbda503e6	-0.08057384
149	0x3db851f7	0.090000086
150	0xbda1f993	-0.07908931
151	0x3ccef413	0.025262868
152	0xbd3bc820	-0.04584515
153	0xbd70bc0e	-0.058773093
154	0xbdfa3eda	-0.12219019
155	0x3bf89503	0.007586123
156	0xbd5afef8	-0.053465813
157	0xbde443c0	-0.11145735
158	0x3d86b341	0.06577159
159	0x3d0bcf25	0.034133095
160	0x3d85cda6	0.06533365
161	0xbd562e62	-0.052290328
162	0xbd922e43	-0.0713773
163	0x3d858402	0.06519319
164	0x3cc55cea	0.024092156
165	0x3dbb097e	0.0913267
166	0xbda85322	-0.08218981
167	0xbc8bd575	-0.017069558
168	0xbcae42b9	-0.02127205
169	0xbdb406e3	-0.08790376
170	0xbd1c0fed	-0.038101126
171	0xbbf2c456	-0.007408659
172	0xbe0b7f6c	-0.13622826
173	0x3db891cf	0.09012186
174	0xbbb34580	-0.0054709315
175	0x3df04e12	0.11733641
176	0x3b36a000	0.0027866364
177	0xbddf23c3	-0.10895493
178	0x3d704706	0.058661483
179	0xbc86a0eb	-0.016434154
180	0x3d2c195d	0.042016376
181	0xbd68be4e	-0.056822114
182	0xbc660356	-0.014038881
183	0xbdaca9af	-0.08430802
184	0xbd9a96d2	-0.07548298
185	0x3e0434f8	0.12910831
186	0xbc1de98a	-0.0096382
187	0xbdd63f9c	-0.10461351
188	0xbdc55b3d	-0.09636543
189	0xbd02557e	-0.031819813
190	0x3ca5ba10	0.020230323
191	0xbdbd655d	-0.09247849
192	0xbdaef962	-0.0854366
193	0x3d9d34ce	0.07676087
194	0x3de3aba5	0.11116723
195	0x3dfccd26	0.123438165
196	0xbdee527b	-0.11636826
197	0x3e171cbb	0.14757054
198	0x3d0b9ec1	0.034086946
199	0xbe0d1775	-0.1377848
200	0xbbc4bd4d	-0.0060040117
201	0x3d279014	0.040908888
202	0xbe000991	-0.1250365
203	0xbd738fac	-0.059463188
204	0xbdb41b04	-0.08794215
205	0xbdd80c60	-0.10549235
206	0x3d48c5a2	0.049016602
207	0xbbadc895	-0.0053034523
208	0xbd8df521	-0.0693152
209	0xbde954f1	-0.113931544
210	0xbda1448e	-0.07874404
211	0x3d69b91e	0.057061307
212	0xbcb11a56	-0.021619003
213	0x3c9572fe	0.01824331
214	0x3c235b4a	0.0099704955
215	0x3d54c5f6	0.051946603
216	0x3e06fbb2	0.13181952
217	0xbdd0150c	-0.101602644
218	0x3d962735	0.07331697
219	0xbd9fa596	-0.07795255
220	0xbcfd86d3	-0.030948078
221	0x3d102f98	0.03520164
222	0x3df1d40d	0.118080236
223	0xbcbf4422	-0.023347918
224	0x3d4dd88a	0.050255336
225	0x3df1e3fb	0.11811062
226	0xbd8456ba	-0.06461854
227	0xbcb1238e	-0.0216234
228	0x3dab47cd	0.08363304
229	0x3cd1ef31	0.02562675
230	0x3d485173	0.0489058
231	0xbd61cae7	-0.055125143
232	0x3d13253d	0.035924185
233	0xbcc0df56	-0.023543995
234	0xbcee5f6f	-0.02909824
235	0x3da23c1b	0.079216205
236	0x3cf594df	0.029978214
237	0x3c27dde9	0.010245779
238	0xbd771a04	-0.060327545
239	0x3d1b247e	0.0378766
240	0xbca58006	-0.020202648
241	0xbbe635db	-0.007025463
242	0x3da9ef76	0.08297627
243	0x3a06cf35	0.00051425706
244	0x3aa2c90c	0.0012419536
245	0x3d8356f8	0.06413072
246	0x3e028092	0.12744358
247	0x3e007850	0.12545896
248	0x3d01cfc2	0.031692274
249	0x3cdd2d23	0.026999062
250	0x3e0455e1	0.12923385
251	0xbd2944a9	-0.041325245
252	0xbc25b1de	-0.010113208
253	0x3e04af97	0.12957607
254	0x3ca0234d	0.019548083
255	0x3e017e1f	0.12645768

bias f4 [128]
0	0xbcd376fb	-0.02581357
1	0xbdefb2d5	-0.117040314
2	0xbda58bd1	-0.080833085
3	0x3cd5ca14	0.026097335
4	0x3d754bdb	0.059886795
5	0xbdb546be	-0.088513836
6	0xbda060c0	-0.078309536
7	0x3db0b235	0.0862774
8	0xbdbfcb75	-0.09364978
9	0xbd83336a	-0.06406291
10	0x3e127bed	0.14305086
11	0xbd8749eb	-0.066058956
12	0x3dc313f9	0.09525294
13	0x3d8042e5	0.06262759
14	0x3dcb6a94	0.099324375
15	0xbd9c9e62	-0.076473966
16	0xbcef666e	-0.029223647
17	0x3d6772fa	0.056506135
18	0xbc1ed611	-0.009694592
19	0xbda66b58	-0.08125943
20	0x3c3a6dc7	0.011378712
21	0x3debd1af	0.11514603
22	0xbdad1436	-0.084511206
23	0x3d8a71f9	0.0676002
24	0xbc072ce1	-0.008250446
25	0xbc4911af	-0.0122722825
26	0x3de0110d	0.10940752
27	0xbd880400	-0.06641388
28	0x3dcd380f	0.10020458
29	0xbd6b32e0	-0.057421565
30	0xb960f99a	-0.00021455289
31	0xbd92520e	-0.07144557
32	0x3d1f70d9	0.03892598
33	0xbd0b4038	-0.03399679
34	0xbd990a83	-0.07472708
35	0xbdbc91fd	-0.092075326
36	0x3d87f18c	0.06637868
37	0x3c92d44c	0.017923497
38	0x3d63140a	0.055439033
39	0x3df91424	0.12162045
40	0x3cbff301	0.023431303
41	0x3d912b86	0.070883796
42	0xbc0d8b83	-0.008639219
43	0xbd70eb8b	-0.05881838
44	0xbda890f9	-0.08230776
45	0xbdfe60c0	-0.12420797
46	0x3bf9196e	0.0076019084
47	0xbd0c8b36	-0.03431245
48	0xbd777d57	-0.060422268
49	0x3d5635de	0.052297466
50	0xbdc1bf97	-0.09460371
51	0x3df45802	0.11930849
52	0xbd94c833	-0.072647475
53	0x3e273ee8	0.1633259
54	0xbd80270a	-0.06257446
55	0xbcaf920b	-0.021431943
56	0x3bed9cba	0.0072513493
57	0xbd5fc3b7	-0.054630008
58	0x3be5f7c5	0.007018062
59	0x3c87dd15	0.016584912
60	0xbd8571d1	-0.065158494
61	0xbe0db81e	-0.13839766
62	0xbc58b55b	-0.013226832
63	0x3d2a2b31	0.041545097
64	0xbd990d0b	-0.07473191
65	0xbdc8db9d	-0.09807513
66	0xbd390964	-0.04517497
67	0x3d9a1c13	0.07524886
68	0xbdad4acf	-0.08461534
69	0x3e11982e	0.14218208
70	0xbd87e188	-0.066348135
71	0x3d7945b9	0.06085751
72	0xbd980cfb	-0.07424351
73	0xbd536d2d	-0.05161779
74	0xbd6cb7f3	-0.057792615
75	0xbdec746d	-0.11545644
76	0x3dd33a9c	0.10313913
77	0xbd2dea4f	-0.042459782
78	0xbd5e3fed	-0.054260183
79	0xbbc3564a	-0.005961214
80	0x3caafcfb	0.020872584
81	0xbc41d81b	-0.011831309
82	0xbdcd2a02	-0.10017778
83	0x3bf8e4f0	0.007595651
84	0xbd1a119f	-0.03761446
85	0xbd3f7e4e	-0.046751313
86	0xbb345053	-0.0027513697
87	0x3c8ee8d5	0.017445007
88	0xbcb5cfa2	-0.022193734
89	0x3d8319ec	0.064014286
90	0x3d65534d	0.055987645
91	0x3d4c2973	0.049844217
92	0xbcd28ce5	-0.02570195
93	0xbd91d39a	-0.07120438
94	0x3d8ce772	0.06880082
95	0xbd85ed87	-0.06539445
96	0xbd09b959	-0.033624027
97	0xbddfdb1e	-0.10930465
98	0x3ca2e7ec	0.01988598
99	0xbdd0a24e	-0.10187207
100	0x3d94328a	0.07236202
101	0x3cdcc401	0.02694893
102	0xbda4ff9c	-0.08056566
103	0xbdac3937	-0.0840935
104	0x3d8575de	0.06516622
105	0x3dbb7074	0.09152308
106	0xbd18c0db	-0.037293296
107	0xbd5c434f	-0.053775128
108	0x3dae2cea	0.085046604
109	0xbd5b4e7e	-0.053541653
110	0xbd0c323d	-0.0342276
111	0x3de8ba35	0.11363641
112	0x3be88cf2	0.00709688
113	0x3ba1bc99	0.0049358127
114	0xbd42bbe2	-0.04754246
115	0x3c246e80	0.010036111
116	0xbbdd9c10	-0.006762989
117	0x3ddb3a75	0.10704509
118	0x3d81b196	0.063327
119	0x3d2e0bbb	0.042491656
120	0x3e110c52	0.14164856
121	0xbcf0b02c	-0.02938088
122	0x3dd5dae4	0.10442141
123	0x3deca1a6	0.115542695
124	0x3d8ed3da	0.06974001
125	0xbdd02ee6	-0.10165195
126	0xbda4bb32	-0.08043517
127	0x3dba3713	0.09092536
