results/model/data_aug_591.model (torch, 686563 bytes, 21 tensors)

weight_ih f4 [384, 5]
0.004060285 -0.072439104 0.061199795 -0.072032996 -0.033552065 0.124640435 0.09089151 -0.051212948
0.04464129 0.034423377 0.09699147 -0.08588308 0.028769406 0.124954805 -0.038496833 -0.022068752
-0.009085707 -0.05724108 0.054760437 -0.06626519 0.03761042 -0.09797062 0.07093246 -0.068277575
-0.039667066 -0.022136867 -0.03622713 0.04890598 0.005758325 -0.066033624 -0.031265747 0.08355136
-0.06405117 0.026912354 -0.0027739322 -0.032119397 -0.064591534 -0.06555314 0.09418725 -0.035075206
0.021248972 0.030177845 0.04623024 -0.01481714 -0.015681075 -0.073468596 0.024910653 -0.044981536
-0.023140812 0.11071518 -0.012488088 0.0924955 0.069268994 -0.047655005 -0.12218313 -0.12377168
0.04355746 -0.057772227 -0.05902608 0.049550686 -0.08208872 -0.057529714 -0.039097667 -0.058278173
0.0010460565 0.053405188 0.013388305 -0.07704661 0.0055995993 -0.06366503 0.029628363 0.0748722
0.04927295 0.109593615 -0.100963034 0.053177293 -0.09956035 -0.07679472 0.028944956 -0.040307622
-0.06277145 0.032742992 -0.07115083 0.07993167 -0.11804522 -0.014848034 -0.06469322 -0.089627676
-0.020303516 0.012834922 0.0534417 0.012178828 -0.10970967 0.05041637 -0.10740956 0.044437606
0.09022141 -0.04902495 0.063077115 0.087409236 0.042714823 -0.104638234 0.09991993 -0.03777443
-0.03780816 -0.05658448 0.046192013 -0.03500891 -0.11324513 0.082413785 -0.06524243 -0.079139434
0.041030664 -0.08801943 0.06833846 -0.07261064 0.0041999677 0.014541468 -0.00048767225 -0.0453984
-0.0404527 -0.0843485 -0.0755255 -0.06943064 -0.092651196 -0.07804934 -0.04396891 -0.08408765
0.016844694 0.005007234 -0.009324166 0.037254103 -0.04242259 0.069102116 0.0056752735 -0.024138182
0.0643493 0.09577666 0.14542384 0.030164817 -0.07076663 -0.20167063 -0.080755785 0.07133016
0.010849826 -0.034087606 -0.056938644 0.0043763556 0.07251607 -0.02874199 -0.019695416 0.06514566
0.0054481523 -0.010462757 0.054578364 0.12690899 -0.01140427 -0.06627693 0.0039715716 -0.017711231
0.059825398 -0.10397698 0.003448684 0.03605351 0.061507557 0.04015699 -0.052300062 -0.021740412
0.10374166 0.08699281 0.046662353 -0.026917897 -0.0348116 -0.029664835 0.07119296 -0.19072814
0.15912841 -0.01956771 0.16057035 -0.22724923 0.09621042 0.022783259 0.0052253506 0.052512
-0.0477314 -0.068478726 -0.16310777 -0.074844055 0.07722019 0.004492842 0.0892201 0.11020869
0.022649776 0.046941478 -0.004315097 0.04235796 -0.082200676 0.05199935 -0.041202717 0.016886069
-0.022077095 -0.12950072 -0.021567333 0.053852398 0.011296778 -0.121367976 0.039814103 0.047746528
-0.02191382 0.006099772 -0.060475916 -0.07518445 -0.07117889 -0.019171484 0.030166863 0.004933805
0.041831568 -0.08365068 -0.061733022 0.03164598 0.11151763 -0.025827521 0.044653617 0.16429618
0.04459676 0.039457172 -0.060333334 -0.10635231 0.043112867 0.013028073 -0.009744945 -0.04869593
0.055719197 0.04299656 0.044231735 -0.1096328 0.08137368 0.019083375 0.09284463 0.03417061
0.02817551 -0.037990086 -0.10622935 0.09687754 0.10693566 -0.033157274 0.013274493 0.053916994
0.022040848 -0.038514215 0.052414294 -0.029461375 0.10622977 0.006053955 0.04478222 0.012719872
00000000: 240c 853b f45a 94bd a3ac 7a3d 0986 93bd
00000010: e46d 09bd 7c43 ff3d 5425 ba3d abc4 51bd
00000020: c9d9 363d 87ff 0c3d 77a3 c63d 78e3 afbd
00000030: d1ad eb3c 4ee8 ff3d dbae 1dbd 87c9 b4bc
00000040: 38dc 14bc 9f75 6abd 7b4c 603d 0bb6 87bd
00000050: 620d 1a3d d2a4 c8bd 0a45 913d 1dd5 8bbd
00000060: ef79 22bd 6058 b5bc e662 14bd a351 483d
00000070: 55b0 bc3b a33c 87bd 8310 00bd fa1c ab3d
00000080: 432d 83bd 4c77 dc3c dcca 35bb a18f 03bd
00000090: 9148 84bd ba40 86bd 3fe5 c03d 05ab 0fbd
000000a0: 5312 ae3c 8737 f73c ec5b 3d3d 97c3 72bc
000000b0: 9975 80bc b476 96bd 6d11 cc3c 8f3e 38bd
000000c0: cd91 bdbc a4be e23d d69a 4cbc 486e bd3d
000000d0: e7dc 8d3d e531 43bd 263b fabd 027c fdbd
000000e0: 4f69 323d 92a2 6cbd 55c5 71bd a9f5 4a3d
000000f0: 211e a8bd 47a4 6bbd e024 20bd 18b5 6ebd
00000100: d51b 893a 66bf 5a3d 9f5a 5b3c 9dca 9dbd
00000110: d87c b73b d062 82bd 2eb7 f23c 9956 993d
00000120: 6fd2 493d 9e72 e03d b5c5 cebd 6fd0 593d
00000130: 4ce6 cbbd 8d46 9dbd f91d ed3c 9b19 25bd
00000140: 518e 80bd 841d 063d 87b7 91bd 37b3 a33d
00000150: b1c1 f1bd 2b45 73bc e17d 84bd b78e b7bd
00000160: 8f53 a6bc 9149 523c afe5 5a3d b589 473c
00000170: 77af e0bd 6581 4e3d 8bf9 dbbd 3504 363d
00000180: 01c6 b83d 63ce 48bd 932e 813d 9d03 b33d
00000190: bdf5 2e3d 924c d6bd d2a2 cc3d 5cb9 1abd
000001a0: bbdc 1abd 21c5 67bd d633 3d3d 8165 0fbd
000001b0: 10ed e7bd 8fc8 a83d d39d 85bd db13 a2bd
000001c0: c50f 283d 8843 b4bd 09f5 8b3d e3b4 94bd
000001d0: e29f 893b 563f 6e3c 43ae ffb9 acf3 39bd
000001e0: bbb1 25bd e8be acbd 1dad 9abd a731 8ebd
000001f0: e9bf bdbd 55d8 9fbd be18 34bd 2536 acbd
00000200: e2fd 893c b913 a43b 63c4 18bc c297 183d
00000210: 4fc3 2dbd 6985 8d3d a5f7 b93b 70bd c5bc
00000220: 91c9 833d 8e26 c43d fde9 143e 351c f73c
00000230: 18ee 90bd bf82 4ebe 4a63 a5bd 8c15 923d
00000240: 78c3 313c 729f 0bbd 7f38 69bd 8867 8f3b
00000250: 4e83 943d 5274 ebbc 4858 a1bc 166b 853d
00000260: 6a86 b23b fc6b 2bbc 908d 5f3d 6ef4 013e
00000270: fad8 3abc 33bc 87bd f523 823b 2517 91bc
00000280: 7a0b 753d e2f1 d4bd 5103 623b d8ac 133d
00000290: 59ef 7b3d a87b 243d 9738 56bd f318 b2bc
000002a0: 8276 d43d 4929 b23d 0621 3f3d ec82 dcbc
000002b0: 9c96 0ebd ab03 f3bc 9dcd 913d 3d4e 43be
000002c0: 8ff2 223e 764c a0bc 8e6c 243e 06b4 68be
000002d0: f809 c53d f5a3 ba3c 6b39 ab3b d316 573d
000002e0: 0082 43bd 933e 8cbd b905 27be d747 99bd
000002f0: 9e25 9e3d b138 933b 07b9 b63d 18b5 e13d
00000300: 068c b93c b545 403d a865 8dbb 8a7f 2d3d
00000310: d458 a8bd 45fd 543d 2ec4 28bd a754 8a3c
00000320: 06db b4bc d69b 04be faad b0bc 5594 5c3d
00000330: 1f16 393c c68f f8bd 1d14 233d dd91 433d
00000340: 9d84 b3bc 99e0 c73b 98b5 77bd 4efa 99bd
00000350: 3dc6 91bd 840d 9dbc 7f20 f73c c2ab a13b
00000360: 9457 2b3d 0c51 abbd c4db 7cbd 379f 013d
00000370: 5b63 e43d 3d94 d3bc b6e6 363d 423d 283e
00000380: 18ab 363d d89d 213d 1620 77bd 3dcf d9bd
00000390: 1e97 303d b373 553c 43a9 1fbc 6275 47bd
000003a0: d039 643d 291d 303d 562c 353d 2987 e0bd
000003b0: 3ea7 a63d bd54 9c3c 5325 be3d 7bf6 0b3d
000003c0: 54d0 e63c 7e9b 1bbd c68e d9bd bb67 c63d
000003d0: 1501 db3d eccf 07bd 427d 593c 11d8 5c3d
000003e0: 028f b43c 15c1 1dbd 5fb0 563d fb58 f1bc
000003f0: fe8e d93d 4160 c63b 906d 373d 0367 503c

weight_hh f4 [384, 128]
-0.053906325 -0.027977988 0.0054063 -0.035397056 -0.028563306 -0.042607494 0.05266592 -0.07875878
-0.037759744 0.00013353217 0.049923547 0.07874017 0.07317556 -0.06430503 0.07555453 0.0124343755
-0.01344425 0.057247903 0.0092493 0.036131714 -0.021806307 -0.06470395 -0.026378887 0.014901165
0.03823891 -0.09113263 -0.05786761 -0.048535306 0.015216126 -0.040274467 0.0027939335 0.023398615
0.08145186 -0.015533735 0.040952664 -0.011078673 -0.070909195 0.032512177 0.076977834 0.05678315
-0.06930599 -0.06625161 -0.042296093 0.0030888012 0.0023732327 0.0074505727 0.0333978 -0.09665828
0.068460576 0.013265923 -0.069367334 -0.07363303 0.051041696 -0.003797094 0.033899676 0.09135055
-0.051414724 -0.069714226 0.05208474 0.02272947 0.07214965 0.033302836 0.035609312 0.040956236
-0.024126012 0.055419017 -0.002811512 -0.032002784 -0.072884955 0.041565273 -0.03152238 0.00983421
-0.02777996 -0.061001506 0.029626692 0.06850203 -0.085955605 -0.029546812 -0.026620224 0.013813904
0.030283196 -0.018957945 0.04576394 0.06202374 -0.03222706 -0.06302409 0.031952884 -0.024143271
0.101467475 0.09473176 0.076870665 -0.040776975 -0.011713376 -0.0018971598 0.06848722 0.06589059
0.05137011 0.045292556 0.04254645 -0.02184079 -0.044608563 -0.058921795 0.06505598 -0.012812432
-0.0665553 -0.00897901 -0.031701025 -0.08009168 0.026005628 -0.06525459 -0.056648217 -0.011366841
-0.007939807 0.069703355 -0.07074696 0.077733025 0.0685524 0.04533338 0.033142492 0.048702028
-0.035868835 0.081065685 0.016349407 -0.04165999 0.048160493 -0.062211327 -0.06945418 -0.024933193
0.02714942 0.013744191 -0.07059567 0.019564651 -0.05180139 -0.06276834 -0.024476795 0.07486874
0.029027915 0.009116031 -0.024360746 -0.026085667 -0.07817741 0.00033749416 -0.09237844 -0.059522286
-0.033039022 0.052532434 -0.09428021 0.03710822 -0.07294821 0.024019785 0.042675767 0.029152576
0.050332934 0.033017263 -0.05895185 -0.06219608 0.060218226 -0.066957295 -0.07358026 0.052402206
0.042473093 -0.004061692 0.08094377 -0.0080999285 0.038702544 0.057637364 0.050698884 -0.1003838
0.0727883 0.003755569 -0.055349678 -0.028025087 0.0414526 0.042676806 -0.031504456 0.0406799
0.004219774 0.014118364 0.05007087 -0.019153113 0.0010486455 0.052320648 -7.819395e-05 -0.03172151
0.030893652 -0.044545412 0.047733553 0.032368787 -0.03821077 -0.08626834 -0.039290555 -0.016848952
0.05098679 0.017838806 0.03101749 -0.05041514 -0.07877758 -0.039484847 -0.09088154 -0.042532913
-0.10983545 0.08276724 0.018311316 0.0014953457 0.076826096 -0.023507865 -0.05201615 0.08262753
0.08497692 -0.07704855 0.0067186174 0.07741585 -0.0379668 -0.027006147 -0.060664374 0.07121977
-0.029848807 -0.12360518 0.023437798 0.058805645 0.036909655 -0.064401545 -0.047131386 0.009389055
-0.029445946 -0.069562614 -0.05500807 0.020503098 0.065653175 0.043308277 0.028675815 -0.036441598
0.081727184 0.0030524659 0.070676185 0.011946677 -0.06051741 -0.00010979961 -0.076634735 0.021990415
0.091275886 0.043738954 -0.00023656199 0.02673476 -0.0033861056 -0.0881439 -0.0042936844 0.07483419
0.017531304 0.0012729375 -0.0119454665 -0.08932701 -0.04897468 -0.053157862 0.079980336 -0.0078529045
00000000: e1cc 5cbd 1832 e5bc 5527 b13b 81fc 10bd
00000010: 98fd e9bc 3285 2ebd 38b8 573d 494c a1bd
00000020: f6a9 1abd c504 0c39 a27c 4c3d 8742 a13d
00000030: 11dd 953d 5bb2 83bd 55bc 9a3d 8db9 4b3c
00000040: 4645 5cbc c77c 6a3d 608a 173c d9fe 133d
00000050: 24a3 b2bc 8183 84bd 8918 d8bc 0424 743c
00000060: 67a0 1c3d bfa3 babd 9606 6dbd f5cc 46bd
00000070: 0f4d 793c d7f6 24bd 6d1a 373b 74ae bf3c
00000080: 3cd0 a63d 3581 7ebc fbbd 273d 5383 35bc
00000090: d738 91bd 7d2b 053d 8ea6 9d3d 7395 683d
000000a0: 4df0 8dbd edae 87bd ab3e 2dbd 7c6d 4a3b
000000b0: 3d88 1b3b ef23 f43b 22cc 083d c7f4 c5bd
000000c0: 0f35 8c3d 5059 593c 7610 8ebd eacc 96bd
000000d0: 1911 513d abd8 78bb 63da 0a3d ff15 bb3d
000000e0: 3f98 52bd 55c6 8ebd cf56 553d 2733 ba3c
000000f0: 32c3 933d 8e68 083d 12db 113d bac1 273d
00000100: eaa3 c5bc 0dff 623d 5841 38bb 5a15 03bd
00000110: b544 95bd 5940 2a3d 9c1d 01bd ab1f 213c
00000120: cc92 e3bc b7dc 79bd adb3 f23c cb4a 8c3d
00000130: 7e09 b0bd 280c f2bc a812 dabc b653 623c
00000140: 7714 f83c b14d 9bbc f872 3b3d 9b0c 7e3d
00000150: 8600 04bd c612 81bd 07e1 023d 1cc8 c5bc
00000160: 2ece cf3d ba02 c23d 5e6e 9d3d c205 27bd
00000170: 76e9 3fbc 1faa f8ba 0743 8c3d a5f1 863d
00000180: 7769 523d b084 393d 3045 2e3d 75eb b2bc
00000190: 78b7 36bd fb57 71bd 123c 853d 3ceb 51bc
000001a0: 254e 88bd b31c 13bc efd8 01bd 1b07 a4bd
000001b0: c109 d53c 33a4 85bd f607 68bd fd3b 3abc
000001c0: f715 02bc a2c0 8e3d c8e3 90bd 7e32 9f3d
000001d0: 3365 8c3d 7faf 393d 6cc0 073d c77b 473d
000001e0: 33eb 12bd c405 a63d 31ef 853c aaa3 2abd
000001f0: f043 453d 4ed1 7ebd fe3d 8ebd b240 ccbc
00000200: 7668 de3c 512f 613c 7694 90bd 0c46 a03c
00000210: b22d 54bd b08c 80bd 8f83 c8bc c854 993d
00000220: f3cb ed3c 685b 153c 3090 c7bc 9cb1 d5bc
00000230: 7a1b a0bd b3f1 b039 e830 bdbd a4cd 73bd
00000240: ed53 07bd 402c 573d fc15 c1bd cafe 173d
00000250: df65 95bd 24c5 c43c c9cc 2e3d 62d1 ee3c
00000260: e829 4e3d 1c3d 073d 7f77 71bd 51c1 7ebd
00000270: 63a7 763d e820 89bd 3fb1 96bd b2a3 563d
00000280: 44f8 2d3d f117 85bb d9c5 a53d 90b5 04bc
00000290: 8f86 1e3d 2815 6c3d a2a9 4f3d 0696 cdbd
000002a0: 0812 953d fe1f 763b 58b6 62bd de94 e5bc
000002b0: 34ca 293d e0cd 2e3d d10a 01bd f89f 263d
000002c0: 0846 8a3b b650 673c 1d17 4d3d fde6 9cbc
000002d0: b472 893a 2d4e 563d 0ffc a3b8 6aee 01bd
000002e0: af14 fd3c 4075 36bd 4284 433d 2295 043d
000002f0: e582 1cbd 75ad b0bd 22ef 20bd d006 8abc
00000300: 86d7 503d b022 923c 6418 fe3c 1b80 4ebd
00000310: 2456 a1bd ddba 21bd 1a20 babd fe36 2ebd
00000320: 69f1 e0bd df81 a93d 9d01 963c 7aff c33a
00000330: 0057 9d3d 9193 c0bc e30e 55bd 9f38 a93d
00000340: 6108 ae3d a1cb 9dbd d927 dc3b 338c 9e3d
00000350: 1383 1bbd ff3b ddbc 357b 78bd acdb 913d
00000360: 7c85 f4bc b624 fdbd a000 c03c 30de 703d
00000370: 942e 173d f5e4 83bd d70c 41bd 8dd4 193c
00000380: a038 f1bc d876 8ebd 2450 61bd 1df6 a73c
00000390: 2c75 863d 0564 313d 8be9 ea3c c943 15bd
000003a0: 9560 a73d e10b 483b adbe 903d ffbb 433c
000003b0: 1be1 77bd 3744 e6b8 acf2 9cbd 3e25 b43c
000003c0: daee ba3d 9e27 333d a00d 78b9 db02 db3c
000003d0: 6de9 5dbb ca84 b4bd 09b2 8cbb ab42 993d
000003e0: cf9d 8f3c b2d8 a63a ebb6 43bc 14f1 b6bd
000003f0: ad99 48bd 0fbc 59bd bbcc a33d 78a9 00bc

bias_ih f4 [384]
0.080470785 0.09118775 -0.03810355 -0.098435454 0.07168973 -0.08128193 -0.048916634 0.034552384
0.03570206 -0.049777776 0.092471 0.005746072 -0.028990936 0.08052831 0.049524065 -0.08909461
0.06638344 -0.06147758 -0.053063005 0.15476313 -0.0130726425 -0.032735072 -0.044359293 -0.013410159
0.060828317 -0.0911106 0.08826691 -0.024422897 0.1190413 -0.00039901226 0.04032128 0.041317374
-0.05827059 -0.00055245013 0.13204801 0.050534815 -0.046402942 0.12177421 0.059491437 -0.019364052
0.112392075 0.011268154 -0.055437427 0.009156836 0.042926356 0.024538662 0.020941552 0.036646735
-0.06334518 -0.041344617 -0.061939996 -0.031522922 0.08390772 -0.03885947 0.08139691 0.028906733
0.095478706 -0.021931972 -0.001093751 -0.027936958 -0.047920257 -0.055657215 -0.06089611 0.123011
0.0077149575 0.009163354 0.07337424 0.041994333 -0.095867716 0.029305538 0.038025454 0.030937793
-0.02857757 0.044424973 -0.0070440886 -0.031904064 0.062711634 0.041937925 0.06167661 0.064947896
-0.06666557 -0.049046144 0.029594917 -0.110191554 -0.11616878 -0.008464932 -0.029858671 0.12519656
0.012927673 0.019756606 0.057206966 -0.066964306 0.030972822 0.0033325455 0.032160968 0.036756966
0.072297245 0.025859205 0.01792751 -0.017449498 0.0039424263 0.07620846 0.045316286 0.025965609
0.043656442 0.067631096 0.021544553 0.11857311 0.04104152 -0.026806919 -0.029396228 0.012779229
-0.015961247 -0.07955225 0.09578417 0.1287135 0.010766146 -0.066537805 -0.07032266 0.090188034
-0.0051140203 0.054819267 -0.051136572 -0.06883066 0.062831804 0.023846403 0.06667966 -0.10548112
-0.018581482 0.011430782 -0.060189642 -0.14176236 0.071077794 0.041545134 0.00017824567 -0.020903228
0.034344465 0.016336799 0.05312157 -0.051184952 -0.0156558 -0.16417857 0.041028805 0.06876183
-0.015297341 -0.12326043 0.06739547 0.08604452 -0.089980885 0.005006226 0.052626584 0.014312393
0.023354601 -0.081579 0.041645706 -0.042992942 -0.09285203 -0.011329874 -0.071521886 -0.17075789
0.019787187 -0.05242951 -0.12931257 0.068306416 -0.02761564 0.011676969 -0.0018612077 -0.0320189
-0.11437983 -0.003613203 0.019809436 -0.019048883 -0.16976337 -0.04468489 -0.047300585 -0.018215803
-0.16191976 0.09755329 -0.008734443 -0.16332585 0.020598333 -0.028673643 -0.20466043 0.008267898
-0.08700945 -0.06456798 0.028056169 -0.08696989 -0.08252568 -0.07537714 0.0047773407 -0.057408817
-0.155357 0.0746701 0.03778444 0.036990944 -0.044716492 0.026857197 -0.08164609 -0.05862822
0.054810487 -0.034835547 -0.14124727 0.02508597 -0.08815291 0.062090557 -0.053700637 -0.091162935
0.04760994 -0.0033207051 0.092849694 -0.13217787 0.09256037 -0.08262935 -0.25668573 -0.026272055
-0.014911983 0.08025698 -0.13177842 0.07877888 0.002479979 -0.02015781 -0.06525131 -0.044725865
0.054463163 -0.018774621 0.095422715 -0.08546299 -0.06484817 -0.11905978 -0.14328505 0.014680254
-0.1082965 0.06878107 -0.017554775 0.047480896 -0.06381412 -0.043847173 -0.049076088 -0.101874806
0.088165894 0.11240893 -0.06409249 -0.0003900355 -0.06168615 0.10725935 -0.11873732 -0.08759405
0.01891968 -0.055742282 -0.023474446 -0.11440877 0.076555654 0.057421774 0.039182365 -0.04491834
00000000: decd a43d a5c0 ba3d 7812 1cbd 8798 c9bd
00000010: 11d2 923d 2477 a6bd cf5c 48bd cd86 0d3d
00000020: 533c 123d c8e3 4bbd 7061 bd3d 8c49 bc3b
00000030: 667e edbc 07ec a43d bfd9 4a3d 3c77 b6bd
00000040: 0af4 873d eacf 7bbd 9858 59bd 3a7a 1e3e
00000050: a32e 56bc 3615 06bd 17b2 35bd 49b6 5bbc
00000060: 1d27 793d 3298 babd 48c5 b43d 8712 c8bc
00000070: edcb f33d 8532 d1b9 ed27 253d 683c 293d
00000080: 24ad 6ebd 4dd2 10ba 9837 073e 98fd 4e3d
00000090: 0311 3ebd c264 f93d 4bad 733d 5ca1 9ebc
000000a0: d12d e63d 109e 383c 5b12 63bd 8e06 163c
000000b0: 8cd3 2f3d 4e05 c93c 9e8d ab3c e31a 163d
000000c0: 1ebb 81bd f958 29bd cbb4 7dbd 2e1e 01bd
000000d0: d0d7 ab3d 1c2b 1fbd 6cb3 a63d d0cd ec3c
000000e0: 578a c33d aeaa b3bc 325c 8fba 0cdc e4bc
000000f0: 0848 44bd d2f8 63bd 336e 79bd 31ed fb3d
00000100: c1cd fc3b e421 163c 3c45 963d 4002 2c3d
00000110: 4b56 c4bd 2b12 f03c 94c0 1b3d 4171 fd3c
00000120: 821b eabc f6f6 353d 19d2 e6bb d6ad 02bd
00000130: f56e 803d 1ac7 2b3d 9da0 7c3d 6703 853d
00000140: f587 88bd 9ce4 48bd 0a71 f23c 1cac e1bd
00000150: e6e9 edbd 80b0 0abc 2c9a f4bc 8733 003e
00000160: 97ce 533c 9bd8 a13c da51 6a3d 9524 89bd
00000170: b7ba fd3c d666 5a3b 38bb 033d 798e 163d
00000180: 9410 943d afd6 d33c b7dc 923c 40f2 8ebc
00000190: 782f 813b 2e13 9c3d 929d 393d d4b5 d43c
000001a0: 19d1 323d 2c82 8a3d 347e b03c 75d6 f23d
000001b0: 271b 283d 2f9a dbbc 5cd0 f0bc f95f 513c
000001c0: 29c1 82bc 4aec a2bd 7e2a c43d 79cd 033e
000001d0: 7d64 303c f944 88bd 5405 90bd 81b4 b83d
000001e0: 8393 a7bb 2b8a 603d 9574 51bd 17f7 8cbd
000001f0: f6ad 803d 8859 c33c 588f 883d 7c06 d8bd
00000200: 3138 98bc 2d48 3b3c 6a89 76bd 272a 11be
00000210: 3c91 913d 3b2b 2a3d 75e7 3a39 3f3d abbc
00000220: c8ac 0c3d c0d4 853c 0196 593d 50a7 51bd
00000230: 9840 80bc 6d1e 28be d20d 283d 01d3 8c3d
00000240: b3a1 7abc f76f fcbd a306 8a3d 1c38 b03d
00000250: e647 b8bd 440b a43b f98e 573d 877e 6a3c
00000260: 2652 bf3c e412 a7bd b094 2a3d 5e19 30bd
00000270: 3529 bebd f0a0 39bc 117a 92bd 28db 2ebe
00000280: bd18 a23c 53c0 56bd 846a 04be 3ce4 8b3d
00000290: 323a e2bc c250 3f3c c4f3 f3ba 4026 03bd
000002a0: f93f eabd 7dcb 6cbb 6647 a23c 670c 9cbc
000002b0: 73d6 2dbe 8107 37bd 42be 41bd 4f39 95bc
000002c0: 4bce 25be 05ca c73d e91a 0fbc e43e 27be
000002d0: d6bd a83c fde4 eabc 8192 51be 1476 073c
000002e0: 0332 b2bd 383c 84bd 0dd6 e53c 451d b2bd
000002f0: 3903 a9bd 545f 9abd 3d8b 9c3b 8225 6bbd
00000300: e815 1fbe a3ec 983d dbc3 1a3d d183 173d
00000310: a428 37bd a003 dc3c 1136 a7bd 2524 70bd
00000320: f680 603d b8af 0ebd 20a3 10be 1881 cd3c
00000330: 8389 b4bd ab52 7e3d 33f5 5bbd a2b3 babd
00000340: a402 433d 30a0 59bb fb27 be3d a359 07be
00000350: 4b90 bd3d 9439 a9bd 506c 83be 7e38 d7bc
00000360: 6451 74bc c65d a43d ecf0 06be d256 a13d
00000370: 2587 223b fe21 a5bc 7ba2 85bd 7832 37bd
00000380: c414 5f3d 3ccd 99bc fc6c c33d 3807 afbd
00000390: 1ecf 84bd 9dd5 f3bd 51b9 12be 7385 703c
000003a0: 8eca ddbd 17dd 8c3d 08cf 8fbc 547b 423d
000003b0: fab0 82bd 1899 33bd 0204 49bd bda3 d0bd
000003c0: 5290 b43d a736 e63d ec42 83bd ae7d ccb9
000003d0: 9eaa 7cbd caaa db3d 8d2c f3bd 8264 b3bd
000003e0: 72fd 9a3c 0552 64bd 7b4d c0bc 254f eabd
000003f0: 36c9 9c3d 1833 6b3d b07d 203d 4bfc 37bd

bias_hh f4 [384]
-0.04409875 0.053249672 -0.0012518457 0.020147022 -0.0062503857 0.020919781 -0.008210873 0.043227974
0.04626767 -0.008657505 -0.00041345521 0.066757046 -0.06041638 0.03251025 -0.014389602 -0.044031397
0.08397987 -0.013120711 -0.08148531 0.09180952 -0.015382325 0.004227957 0.042090695 0.03677829
-0.021926412 -0.068587564 -0.015719926 0.05938329 0.13808596 -0.08479694 0.0075559253 -0.024644563
-0.061897025 0.08795054 0.0538728 0.12337106 -0.021191014 0.03701645 0.091739796 0.0037153626
-0.04730858 0.033370413 -0.110252686 0.0065471954 0.068764694 0.006542872 0.067062885 -0.038063075
0.09697808 0.04944751 0.104320966 0.011878759 0.021692235 0.016817266 0.10736111 0.03672195
-0.0003675948 -0.0022495459 -0.06875859 -0.006916557 -0.05643377 0.012869858 -0.0129613895 -0.043833315
0.116917424 -0.006075308 0.105286136 0.069342375 -0.02799428 -0.05490481 -0.03837038 0.15094699
-0.023857871 0.0015397503 -0.020745516 -0.091964126 0.043565255 0.005968607 0.06283114 -0.019573722
-0.10505098 -0.06392511 -0.057861537 -0.014643522 -0.082821995 0.022689458 0.06937439 -0.021267468
0.07611836 -0.021923674 0.028325642 -0.078512676 -0.03984403 0.019402973 -0.03010179 -0.0075220377
0.02499551 0.022273317 -0.08801988 -0.034922034 -0.08689107 0.008118397 -0.0037468842 0.026646182
0.06119483 -0.02658987 0.02213231 0.13094954 0.09063536 0.041732512 0.018491441 -0.12399518
0.0050396738 0.017546814 -0.07172498 0.07268958 0.0027241579 0.03586571 -0.0123274885 0.07611243
-0.08918124 -0.017230239 -0.017322022 -0.041106198 -0.06901523 -0.003147466 0.034561057 0.039523017
-0.0013581918 0.074055284 -0.093966514 -0.17982875 -0.0035289482 -0.085784875 -0.08548423 -0.12923604
-0.020405723 0.068932824 -0.00880763 -0.088283904 -0.08966313 -0.1536933 0.031912718 -0.0144070545
-0.0026549997 -0.039991956 0.012188861 -0.04313462 0.012597595 0.022817077 0.013231039 0.032444593
-0.0396227 0.025211819 0.032439098 -0.021190427 -0.041859016 0.07223314 -0.10091752 -0.13751645
0.056261655 -0.15189233 -0.13627636 0.046834685 0.011779407 -0.15469058 0.06780304 -0.025542082
-0.08852522 -0.08368586 -0.06348159 -0.06630417 -0.16656749 -0.028234554 0.031941906 0.077862225
-0.09322469 0.09482888 0.078440934 -0.14476876 -0.1391798 0.07620206 -0.20200878 0.035090286
-0.08593205 0.0020784596 -0.11616721 -0.018830419 0.052725576 -0.017547978 -0.018348102 -0.02953191
-0.20659691 0.032979246 -0.09488467 0.030399844 0.014083176 0.020546632 -0.16859463 -0.08892395
0.072194405 0.056934815 -0.035400096 0.0027148644 -0.16952807 -0.03519855 -0.016870802 0.02025054
0.034648478 -0.09629484 0.08206738 -0.14223059 0.0772974 -0.043611143 -0.13380322 0.08509778
-0.030444084 0.042333744 -0.06489665 0.02678291 -0.00018230821 -0.039980743 -0.021754757 -0.03763398
-0.06256212 -0.062186908 0.046571672 -0.028354397 0.0771334 -0.0170104 -0.1195675 -0.0015956885
0.0010615943 0.08782829 0.0046030874 -0.041163683 -0.018218657 -0.08991214 0.039137278 -0.18168616
0.09533301 0.09750877 -0.027086314 0.024743237 -0.00406497 0.06850152 -0.09772771 -0.07503068
0.0938257 0.021433452 0.04824637 -0.0092221545 0.080112875 0.039402626 -0.026390925 -0.07176587
00000000: e4a0 34bd 541c 5a3d f914 a4ba 5e0b a53c
00000010: 09d0 ccbb f65f ab3c e686 06bc d10f 313d
00000020: 2b83 3d3d 35d8 0dbc 05c5 d8b9 ebb7 883d
00000030: 2b77 77bd 7829 053d 5dc2 6bbc 445a 34bd
00000040: a3fd ab3d 40f8 56bc c5e1 a6bd a106 bc3d
00000050: 2606 7cbc ad8a 8a3b 4b67 2c3d d5a4 163d
00000060: 059f b3bc a377 8cbd 13c7 80bc e53b 733d
00000070: 6866 0d3e 05aa adbd b297 f73b 65e3 c9bc
00000080: bc87 7dbd 6a1f b43d baa9 5c3d f7a9 fc3d
00000090: c798 adbc 909e 173d 13e2 bb3d 717d 733b
000000a0: a4c6 41bd 6aaf 083d 29cc e1bd db89 d63b
000000b0: 81d4 8c3d 9765 d63b 4458 893d 07e8 1bbd
000000c0: 729c c63d 7989 4a3d 3ba6 d53d 209f 423c
000000d0: eab3 b13c 5dc4 893c 24e0 db3d c169 163d
000000e0: bdb9 c0b9 1e6d 13bb 4ed1 8cbd 49a4 e2bb
000000f0: 1927 67bd 19dc 523c 025c 54bc 908a 33bd
00000100: 6772 ef3d 6113 c7bb 42a0 d73d 6003 8e3d
00000110: 4354 e5bc dee3 60bd 422a 1dbd d991 1a3e
00000120: 9571 c3bc 72d1 c93a 80f2 a9bc b057 bcbd
00000130: 7b71 323d 4e94 c33b 9dad 803d 1259 a0bc
00000140: f824 d7bd 2beb 82bd 3800 6dbd 62eb 6fbc
00000150: 949e a9bd 3edf b93c 2914 8e3d 1d39 aebc
00000160: f1e3 9b3d 4799 b3bc 2d0b e83c 41cb a0bd
00000170: 7e33 23bd fcf2 9e3c 0798 f6bc 6d7b f6bb
00000180: 62c3 cc3c 8876 b63c c443 b4bd 680a 0fbd
00000190: f2f3 b1bd 0603 053c 498e 75bb 1849 da3c
000001a0: 6ea7 7a3d 00d3 d9bc d14e b53c a317 063e
000001b0: 089f b93d b6ef 2a3d 5d7b 973c 2ff1 fdbd
000001c0: d923 a53b 56be 8f3c 8ce4 92bd 46de 943d
000001d0: c987 323b ece7 123d 3cf9 49bc d5e0 9b3d
000001e0: a7a4 b6bd 6e26 8dbc eae6 8dbc f95e 28bd
000001f0: db57 8dbd b845 4ebb e58f 0d3d e3e2 213d
00000200: 5b05 b2ba 4caa 973d 8471 c0bd 0725 38be
00000210: ed45 67bb fbaf afbd 5b12 afbd 7456 04be
00000220: e729 a7bc a72c 8d3d e14d 10bc 31ce b4bd
00000230: 4ea1 b7bd c761 1dbe e9b6 023d 910b 6cbc
00000240: 81ff 2dbb 9bce 23bd cab3 473c edad 30bd
00000250: 2566 4e3c e1ea ba3c 00c7 583c 9fe4 043d
00000260: 6a4b 22bd 0489 ce3c dcde 043d 8c97 adbc
00000270: 5c74 2bbd f8ee 933d d8ad cebd 1dd1 0cbe
00000280: 9f72 663d aa89 1bbe 088c 0bbe bad5 3f3d
00000290: 6afe 403c 3567 1ebe 52dc 8a3d a13d d1bc
000002a0: b64c b5bd 7e63 abbd a302 82bd 7bca 87bd
000002b0: ab90 2abe 274c e7bc 84d5 023d 3b76 9f3d
000002c0: 96ec bebd a535 c23d a4a5 a03d 433e 14be
000002d0: 2685 0ebe d30f 9c3d 64db 4ebe d5ba 0f3d
000002e0: 25fd afbd c436 083b 13e9 edbd 4042 9abc
000002f0: c6f6 573d c7c0 8fbc c24e 96bc e7ec f1bc
00000300: 248e 53be 3f15 073d e552 c2bd 1809 f93c
00000310: 1fbd 663c 6951 a83c 12a4 2cbe c31d b6bd
00000320: a9da 933d 7b34 693d b1ff 10bd deeb 313b
00000330: c498 2dbe 5b2c 10bd a334 8abc 76e4 a53c
00000340: 90eb 0d3d 3b36 c5bd f112 a83d e5a4 11be
00000350: 194e 9e3d 99a1 32bd b603 09be bf47 ae3d
00000360: df65 f9bc 2666 2d3d 89e8 84bd d567 db3c
00000370: fd29 3fb9 d9c2 23bd 0837 b2bc 1726 1abd
00000380: 9220 80bd b3b7 7ebd f0c1 3e3d 7b47 e8bc
00000390: 1ef8 9d3d 6559 8bbc cedf f4bd 6c26 d1ba
000003a0: 3225 8b3a 52df b33d 7fd5 963b 409b 28bd
000003b0: 4b3f 95bc db23 b8bd 694e 203d f00b 3abe
000003c0: f43d c33d aeb2 c73d 1ee4 ddbc 54b2 ca3c
000003d0: 7133 85bb 864a 8c3d 7725 c8bd afa9 99bd
000003e0: b027 c03d 3595 af3c fc9d 453d 8518 17bc
000003f0: 3812 a43d a664 213d c831 d8bc fcf9 92bd

weight f4 [128, 128]
-0.022412056 0.0315647 -0.04640781 -0.08882865 -0.0032408107 -0.09041604 0.17802401 0.03554025
0.011278437 -0.011451437 0.043010134 0.078788415 -0.031198326 0.050703783 -0.0036805836 0.081468634
-0.029034588 0.062881835 -0.10625386 0.0050015114 -0.033284478 -0.011927654 0.11152813 0.044729657
-0.06817624 0.02243953 0.00944422 0.06427364 0.05099241 -0.034680046 0.0074392073 0.044156224
-0.05299921 0.066375986 0.10334618 -0.06575149 0.048555166 0.08942343 0.10686359 0.040494807
0.09355387 -0.015152521 0.025607932 -0.009265272 0.106329784 -0.113686405 -0.038568825 -0.008938571
-0.028895974 -0.046571247 -0.06536466 -0.008260715 0.022069313 0.06360139 0.06052177 0.035509255
-0.0560722 -0.08635432 -0.11386332 -0.02371454 -0.028742297 -0.03686961 -0.10244323 -0.09122786
0.06792857 -0.030150032 0.037288193 0.023665702 0.036631357 0.11823089 -0.089956656 -0.010710416
-0.18097772 0.028655764 -0.0994857 -0.053530943 -0.05542928 -0.04022725 -0.082218215 -0.10449131
0.14560248 0.04614791 -0.025813593 -0.09278859 -0.059106365 -0.0005954427 -0.12943581 -0.076272346
-0.0065635066 -0.14151138 -0.046503004 0.036682494 0.04070114 0.01406846 -0.04848967 0.044022415
0.06638722 0.052887466 0.10573348 -0.042001083 0.055592492 0.0056339526 0.026751388 -0.038857367
0.03262286 -0.007332948 0.020453928 0.027631804 0.079097 0.03553181 0.049109638 -0.05691028
0.12102574 -0.053726736 0.060342863 0.09559514 -0.07102307 -0.100891955 -0.026244989 -0.03456144
0.09839505 0.116624154 -0.030813042 0.0095230555 -0.092425734 -0.041646212 0.14475508 0.09541474
0.0043539163 0.05287458 0.05213675 0.061508656 -0.08180216 -0.05896745 -0.13458766 0.08629515
-0.0658436 0.09546527 -0.061090164 -0.02985757 0.024395198 0.08311359 0.024194669 0.05873081
0.07049473 -0.025740303 -0.038486786 0.06718124 0.045878686 0.005868052 -0.1611437 -0.07427293
-0.031390633 -0.033369604 -0.039192744 0.05676683 0.0072563146 0.16570467 0.12269226 -0.07953976
-0.0663849 0.046069574 0.01702902 0.0055471105 -0.00072933413 -0.0791581 0.036042895 0.014624089
-0.054573733 0.14149362 0.04303541 0.022675056 -0.049062107 -0.0031920583 0.01974674 -0.05072162
0.07550029 -0.059424356 -0.08084482 -0.08609643 -0.015396132 -0.064839244 -0.012122893 -0.027354624
-0.06858271 0.032168433 -0.003820912 0.079559736 0.040205587 -0.010076709 0.15091245 -0.025056995
0.048234574 -0.057661485 -0.049436565 0.09805537 0.049752057 -0.121279046 0.058111444 -0.074271016
0.16453822 0.06520878 0.0620012 0.11837605 -0.0030349477 -0.07139094 -0.024544934 0.013434081
-0.07363687 0.07962654 0.053170327 -0.025688743 -0.04189635 -0.009486696 -0.04701911 -0.045810573
0.012985312 -0.0015779138 0.0828845 0.09131778 -0.059006345 0.014976522 0.16484393 0.028040214
-0.05717655 -0.053577505 -0.021046452 0.0027491844 -0.10412205 -0.07597021 -0.029117184 0.067622386
-0.0052779145 0.041748192 0.05880079 -0.02415295 -0.004300513 0.06898546 -0.05813954 -0.009351779
-0.015929868 0.08152587 -0.012373471 0.025750466 0.0445694 0.12279738 -0.036148317 -0.0763281
-0.013254309 -0.11057583 0.014433689 0.04144758 0.060145132 0.029488454 -0.08495339 0.05432321
00000000: 7d99 b7bc fd49 013d 1e16 3ebd cceb b5bd
00000010: c863 54bb 0b2c b9bd ed4b 363e a792 113d
00000020: 32c9 383c cf9e 3bbc 652b 303d d25b a13d
00000030: a293 ffbc c5ae 4f3d f235 71bb 07d9 a63d
00000040: f2d9 edbc 31c8 803d a09b d9bd b8e3 a33b
00000050: 4e55 08bd 356c 43bc dc68 e43d 7236 373d
00000060: fc9f 8bbd 1bd3 b73c eebb 1a3c e6a1 833d
00000070: 6bdd 503d aa0c 0ebd 98c4 f33b 28dd 343d
00000080: b315 59bd 22f0 873d 29a7 d33d b8a8 86bd
00000090: c8e1 463d a223 b73d 4cdb da3d e2dd 253d
000000a0: 2c99 bf3d 4842 78bc bac7 d13c 5ecd 17bc
000000b0: 6ec3 d93d 6bd4 e8bd 58fa 1dbd 1673 12bc
000000c0: 40b7 ecbc 7ec1 3ebd e8dd 85bd f357 07bc
000000d0: b4ca b43c 7241 823d ade5 773d 2772 113d
000000e0: f7ab 65bd 89da b0bd 2c31 e9bd ff44 c2bc
000000f0: f774 ebbc 9704 17bd c2cd d1bd acd5 babd
00000100: 221e 8b3d 33fd f6bc 81bb 183d 93de c13c
00000110: c30a 163d 0923 f23d 323b b8bd be7a 2fbc
00000120: 3952 39be 7ebf ea3c 29bf cbbd 4343 5bbd
00000130: d009 63bd 54c5 24bd 0662 a8bd 8aff d5bd
00000140: d118 153e 9705 3d3d 0777 d3bc f207 bebd
00000150: 8419 72bd 7c17 1cba d28a 04be ad34 9cbd
00000160: af12 d7bb 5ce8 10be ef79 3ebd 6240 163d
00000170: 3db6 263d 667f 663c 1b9d 46bd d950 343d
00000180: 06f6 873d 87a0 583d cb8a d83d 5409 2cbd
00000190: f4b4 633d 059d b83b ba25 db3c e728 1fbd
000001a0: 8c9f 053d 3a49 f0bb ff8e a73c 185c e23c
000001b0: 9cfd a13d ce89 113d 3027 493d c11a 69bd
000001c0: 58dc f73d 9110 5cbd 142a 773d 62c7 c33d
000001d0: 8b74 91bd 71a0 cebd bbff d6bc 4c90 0dbd
000001e0: 5883 c93d a5d8 ee3d a26b fcbc 9706 1c3c
000001f0: b449 bdbd 3895 2abd ad3a 143e ce68 c33d
00000200: 4cab 8e3b 0493 583d 588d 553d 80f0 7b3d
00000210: e487 a7bd da87 71bd 59d1 09be 83bb b03d
00000220: 02d9 86bd 4c83 c33d ae39 7abd dd97 f4bc
00000230: 70d8 c73c 7537 aa3d e633 c63c b88f 703d
00000240: 8a5f 903d 54dd d2bc 52a4 1dbd 5196 893d
00000250: 4aeb 3b3d ca48 c03b db02 25be 681c 98bd
00000260: 7793 00bd 91ae 08bd 9288 20bd 5684 683d
00000270: 61c6 ed3b 7cae 293e 1446 fb3d bee5 a2bd
00000280: cef4 87bd 73b3 3c3d 7180 8b3c 89c4 b53b
00000290: c930 3fba a41d a2bd b7a1 133d e099 6f3c
000002a0: b588 5fbd b4e3 103e e645 303d 0ac1 b93c
000002b0: 59f5 48bd da31 51bb eac3 a13c 79c1 4fbd
000002c0: e59f 9a3d f466 73bd f891 a5bd 5353 b0bd
000002d0: 0f40 7cbc 70ca 84bd 199f 46bc ce16 e0bc
000002e0: 1875 8cbd 0cc3 033d 4468 7abb 37f0 a23d
000002f0: 9dae 243d c818 25bc cb88 1a3e 5444 cdbc
00000300: 9e91 453d 732e 6cbd ff7d 4abd 41d1 c83d
00000310: d0c8 4b3d 2661 f8bd 4406 6e3d 671b 98bd
00000320: b57c 283e 2e8c 853d f8f4 7d3d 246f f23d
00000330: f9e5 46bb 6a35 92bd 7512 c9bc 9f1a 5c3c
00000340: edce 96bd 3d13 a33d 21c9 593d 3371 d2bc
00000350: 829b 2bbd 166e 1bbc 1c97 40bd dea3 3bbd
00000360: 59c0 543c 00d2 ceba 59bf a93d d104 bb3d
00000370: a3b0 71bd 1660 753c d9cc 283e 97b4 e53c
00000380: f531 6abd 1674 5bbd 9c69 acbc a92b 343b
00000390: f13d d5bd 4596 9bbd 2987 eebc 9b7d 8a3d
000003a0: 5bf2 acbb 2700 2b3d 19d9 703d 68dc c5bc
000003b0: 51eb 8cbb 4048 8d3d ba23 6ebd 3438 19bc
000003c0: 5b7f 82bc 09f7 a63d 19ba 4abc a4f2 d23c
000003d0: 678e 363d 317d fb3d 4210 14bd e851 9cbd
000003e0: 9a28 59bc 9575 e2bd 487b 6c3c f0c4 293d
000003f0: be5a 763d c591 f13c 0bfc adbd 0482 5e3d

bias f4 [128]
-0.05823653 0.00064065895 -0.003945781 -0.074870035 -0.019208258 -0.10438513 -0.03878743 -0.023851812
0.09933758 0.017431496 -0.14187935 0.037990805 0.15885276 -0.06353617 -0.11622246 -0.04756649
-0.062369745 0.07011062 -0.15017806 0.03441812 0.04215076 -0.019222291 -0.0050027096 -0.06166146
0.04930479 -0.116247565 0.05144625 -0.065006904 -0.006035869 0.12333419 0.05124423 0.025084887
-0.024195515 -0.03827307 -0.041785818 0.03140606 -0.13242626 -0.046814185 -0.0328548 0.026391735
0.007627705 -0.05147828 0.03571017 -0.116922185 -0.06295581 0.007932612 0.032620303 0.014874543
-0.023012424 -0.087742426 -0.046504363 -0.11906745 0.02509578 -0.16432627 -0.010061168 -0.1203082
-0.04693714 -0.009393227 0.03789499 -0.15522116 -0.05566122 0.017857192 -0.07617945 -0.13336325
-0.103851505 -0.070591636 0.08903041 -0.104036495 0.09700274 -0.02940269 -0.076647654 -0.07735291
0.09046634 0.05905811 0.014477986 -0.06653598 -0.011474955 0.09309023 0.041943848 -0.08187961
-0.03888316 -0.13453193 0.05497373 0.059787743 0.03027707 -0.00018285743 -0.13902579 -0.053752452
0.092035785 -0.11641978 0.038151678 0.0023143815 0.01983164 -0.02036714 -0.0043902164 -0.004796461
-0.15143192 -0.1414342 -0.061646707 0.019037195 0.09420778 0.10633403 -0.06979605 0.0701647
-0.0069157444 0.0034634012 0.0071383677 0.121049054 0.019460335 -0.03089043 0.07061636 0.11066122
-0.023382183 0.024106555 -0.12365179 0.06731493 -0.028005796 0.14926589 0.03950318 -0.08303348
-0.08974085 -0.08907459 -0.07652113 0.09538838 -0.14511368 -0.010296695 0.016203681 -0.08062076
00000000: 6d89 6ebd e5f1 273a 9c4b 81bb 7655 99bd
00000010: a35a 9dbc dfc7 d5bd 91df 1ebd e064 c3bc
00000020: 8071 cb3d 7fcc 8e3c d248 11be 3f9c 1b3d
00000030: 4caa 223e 401f 82bd 0b06 eebd 14d5 42bd
00000040: 6b77 7fbd 2896 8f3d 47c8 19be 04fa 0c3d
00000050: 46a6 2c3d 1178 9dbc c5ed a3bb ba90 7cbd
00000060: d2f3 493d 3413 eebd 4eb9 523d 5722 85bd
00000070: 8ac8 c5bb a396 fc3d 78e5 513d d27e cd3c
00000080: ac35 c6bc 39c4 1cbd 9b27 2bbd a4a3 003d
00000090: c09a 07be 3bc0 3fbd c192 06bd 7b33 d83c
000000a0: d4f1 f93b e4da 52bd d444 123d e674 efbd
000000b0: faee 80bd c9f7 013c de9c 053d 5bb4 733c
000000c0: 8d84 bcbc 4db2 b3bd 5c7b 3ebd a3d9 f3bd
000000d0: aa95 cd3c 2545 28be 99d7 24bc 2564 f6bd
000000e0: 2941 40bd 0de6 19bc c737 1b3d 4cf2 1ebe
000000f0: 05fd 63bd 3f49 923c f903 9cbd 6090 08be
00000100: 19b0 d4bd 5992 90bd 9355 b63d 1611 d5bd
00000110: 5fa9 c63d e9dd f0bc 72f9 9cbd 346b 9ebd
00000120: 6b46 b93d ebe6 713d 1335 6d3c 0444 88bd
00000130: 7301 3cbc 17a6 be3d 50cd 2b3d 7fb0 a7bd
00000140: f343 1fbd bdc2 09be 222c 613d fee3 743d
00000150: 9e07 f83c 6bbd 3fb9 c75c 0ebe 882b 5cbd
00000160: 427d bc3d 7e6d eebd ef44 1c3d e1ac 173b
00000170: f775 a23c fdd8 a6bc cedb 8fbb a22b 9dbb
00000180: f810 1bbe 20d4 10be 4281 7cbd e4f3 9b3c
00000190: 02f0 c03d a8c5 d93d 3bf1 8ebd 83b2 8f3d
000001a0: 789d e2bb 3bfa 623b f8e8 e93b 91e8 f73d
000001b0: 486b 9f3c ed0d fdbc 4f9f 903d 5aa2 e23d
000001c0: fe8b bfbc 1c7b c53c 263d fdbd 69dc 893d
000001d0: 696c e5bc 28d9 183e 16ce 213d 750d aabd
000001e0: 0dca b7bd bd6c b6bd 1cb7 9cbd fc5a c33d
000001f0: ae98 14be 78b3 28bc 95bd 843c 7f1c a5bd

weight f4 [128, 128]
0.06878833 -0.06368628 -0.030243801 0.016241862 0.1294697 0.022400586 0.03583755 -0.06395754
-0.08407878 0.039227225 0.085614026 0.0037087062 -0.023987388 0.061560117 0.11502101 -0.024180468
0.0111734485 0.065892525 -0.014549419 0.033389978 0.029207975 -0.14050591 0.0721993 -0.08236708
-0.03704042 0.03149003 0.009663663 -0.038617443 -0.029198201 0.062022682 -0.07476167 -0.01602695
0.024425255 -0.024436926 -0.027505932 -0.014991239 0.12078859 0.0007160417 0.058085386 -0.064269125
-0.11955527 -0.06086079 -0.023521498 0.0630844 -0.037138484 0.007807419 -0.024141444 0.01990904
0.082984015 0.015405166 0.036906056 0.13245429 -0.0012717741 0.013698339 0.07660644 0.16913572
-0.0078043574 -0.044187974 0.018909415 -0.005311921 0.1011292 0.06407996 0.0031209472 0.06538409
-0.044358384 0.02591149 -0.012462107 -0.02389158 -0.0058894726 0.01945249 0.11598366 0.013950463
-0.011359461 0.04857587 0.07018793 -0.041409314 0.07295024 -0.033261973 -0.037735935 0.038929876
0.06919492 0.038315106 0.09015312 -0.02172894 0.035362873 -0.013270015 -0.07849836 -0.011106271
-0.041189756 0.081134304 -0.094744444 0.07068669 0.092686936 -0.043351855 0.11904765 0.076790385
0.027376559 0.069202445 -0.07269568 -0.08703608 0.06353416 0.037189282 -0.07802868 -0.0022485252
-0.0027837774 0.05695209 -0.06733505 -0.087261215 -0.08057997 0.023458205 -0.042823873 0.054988407
0.08059063 0.065255195 0.0055645653 -0.06641958 0.13250896 0.040222753 -0.035277173 -0.008391549
0.064289786 -0.015708167 0.10729079 -0.029502474 0.046747554 0.0073448783 -0.045403328 0.09325224
-0.010436027 -0.054167736 0.07981969 -0.058768637 0.115908176 0.0029319285 -0.01651271 0.046653003
-0.03688039 -0.098122105 0.10756839 0.033652216 0.019521087 0.0154296765 0.1043174 0.101696275
0.07306787 0.028803194 -0.046892602 0.06140241 -0.02852529 -0.05876409 -0.014536778 -0.08834806
0.07580876 0.06431557 0.019553712 0.031254444 -0.014489021 -0.0016100145 -0.04445709 0.015961364
-0.08376074 -0.006634129 -0.07999336 0.076778404 0.0644029 0.06392366 0.008232401 0.085146844
0.025292445 -0.04212395 -0.007148673 -0.056037277 -0.035502683 0.029262695 -0.005600691 0.039604362
-0.012990194 0.06614599 -0.04910402 -0.0187669 -0.009154941 0.06082828 -0.08660985 0.030703431
0.01474093 0.011290844 -0.00993172 0.08323838 0.060480952 -0.08816176 -0.005192129 0.077220716
-0.0601929 -0.029561752 -0.035030667 0.064595096 -0.068805955 0.066165365 0.008966244 0.116109505
0.015587792 0.04501072 -0.07967677 -0.04661126 0.015756287 -0.064388074 -0.04558162 0.11176858
0.041685876 -0.040919304 -0.029141298 -0.020756211 0.033296857 -0.052396502 0.09531614 -0.040027075
0.041297466 0.022885956 0.10203056 -0.044892866 -0.03937925 -0.032026246 -0.061887007 0.04011523
-0.04035817 0.068122685 0.08971682 0.021673163 0.03578372 0.050413102 0.050721303 -0.063376084
0.076760255 0.07251715 0.11557011 0.020498566 0.09198713 0.064047866 0.016958684 -0.025675008
0.077329114 0.10120605 0.08699021 0.021500085 -0.06374841 -0.09757421 0.005297468 0.08218156
0.014496599 -0.0013979615 0.12953816 -0.12376842 0.060676116 -0.049489316 0.07539881 -0.07069044
00000000: e5e0 8c3d f46d 82bd d9c1 f7bc a70d 853c
00000010: b493 043e 6f81 b73c 65ca 123d 2cfc 82bd
00000020: 7f31 acbd baac 203d 6856 af3d c40d 733b
00000030: 3381 c4bc 7626 7c3d 2390 eb3d 1e16 c6bc
00000040: d710 373c a9f2 863d b060 6ebc eec3 083d
00000050: 9045 ef3c c8e0 0fbe 3add 933d 12b0 a8bd
00000060: b2b7 17bd b1fb 003d 5754 1e3c 532d 1ebd
00000070: 1131 efbc 7f0b 7e3d a51c 99bd f34a 83bc
00000080: 7917 c83c f32f c8bc 1f54 e1bc d09d 75bc
00000090: 0260 f73d bfb4 3b3a f1ea 6d3d 889f 83bd
000000a0: 65d9 f4bd 2a49 79bd 28b0 c0bc 6532 813d
000000b0: 861e 18bd 61d5 ff3b 47c4 c5bc 4818 a33c
000000c0: 86f3 a93d f365 7c3c ce2a 173d 19a2 073e
000000d0: a8b1 a6ba 006f 603c d6e3 9c3d ea31 2d3e
000000e0: b2bb ffbb 73fe 34bd ebe7 9a3c 9f0f aebb
000000f0: d31c cf3d 5b3c 833d ce88 4c3b 18e8 853d
00000100: 23b1 35bd 5544 d43c de2d 4cbc 46b8 c3bc
00000110: 7afc c0bb d45a 9f3c d788 ed3d 7c90 643c
00000120: 081d 3abc 7ef7 463d b0be 8f3d d09c 29bd
00000130: ef66 953d b53d 08bd ff90 1abd ef74 1f3d
00000140: 11b6 8d3d 4df0 1c3d 33a2 b83d e400 b2bc
00000150: a9d8 103d 7a6a 59bc c0c3 a0bd 14f7 35bc
00000160: 97b6 28bd be29 a63d 6009 c2bd 2fc4 903d
00000170: a6d2 bd3d b791 31bd 41cf f33d 4744 9d3d
00000180: ce44 e03c 03ba 8d3d 79e1 94bd f93f b2bd
00000190: 331e 823d ca53 183d 80cd 9fbd fe5b 13bb
000001a0: 0970 36bb 9846 693d f5e6 89bd 02b6 b2bd
000001b0: 1c07 a5bd 6c2b c03c 1668 2fbd 863b 613d
000001c0: b30c a53d 84a4 853d f556 b63b fd06 88bd
000001d0: 6eb0 073e 9dc0 243d cc7e 10bd b57c 09bc
000001e0: 5daa 833d 6aae 80bc 46bb db3d 2caf f1bc
000001f0: 5d7a 3f3d 4ead f03b d7f8 39bd 08fb be3d
00000200: dffb 2abc fdde 5dbd 8178 a33d 62b7 70bd
00000210: 4461 ed3d 9925 403b aa45 87bc 3817 3f3d
00000220: e40f 17bd 3ef4 c8bd d14c dc3d e8d6 093d
00000230: b0ea 9f3c c1cc 7c3c 5ca4 d53d 2346 d03d
00000240: 9ca4 953d adf4 eb3c 7512 40bd 1881 7b3d
00000250: dead e9bc 9db2 70bd ab2b 6ebc d4ef b4bd
00000260: a041 9b3d e2b7 833d 1b2f a03c a904 003d
00000270: 5c63 6dbc 1f07 d3ba a318 36bd 68c1 823c
00000280: c08a abbd 1c63 d9bb 8fd3 a3bd ff3d 9d3d
00000290: abe5 833d 68ea 823d 31e1 063c 7861 ae3d
000002a0: 1a32 cf3c 2a8a 2cbd 6a3f eabb 5887 65bd
000002b0: 436b 11bd 52b8 ef3c 0086 b7bb 2f38 223d
000002c0: d3d4 54bc 8c77 873d 4c21 49bd 0bbd 99bc
000002d0: 9bfe 15bc 1327 793d 8160 b1bd c385 fb3c
000002e0: f183 713c 3bfd 383c a7b8 22bc e278 aa3d
000002f0: e0ba 773d 278e b4bd bc22 aabb e525 9e3d
00000300: d58c 76bd 7d2b f2bc 517c 0fbd 6f4a 843d
00000310: 23ea 8cbd b581 873d 27e7 123c d2ca ed3d
00000320: f063 7f3c 295d 383d 932d a3bd 73eb 3ebd
00000330: 5413 813c e5dd 83bd cbb3 3abd ede6 e43d
00000340: cfbe 2a3d 009b 27bd bbb9 eebc ee08 aabc
00000350: 4962 083d b79d 56bd 1c35 c33d 6ef3 23bd
00000360: 8827 293d 547b bb3c 66f5 d03d 95e1 37bd
00000370: 234c 21bd f42d 03bd 3b7d 7dbd de4f 243d
00000380: 9c4e 25bd e883 8b3d 74bd b73d eb8b b13c
00000390: f391 123d f87d 4e3d 24c1 4f3d 52cb 81bd
000003a0: 7b34 9d3d df83 943d 06b0 ec3d 9cec a73c
000003b0: c063 bc3d 872b 833d f0ec 8a3c 6554 d2bc
000003c0: ba5e 9e3d 1e45 cf3d ec27 b23d f220 b03c
000003d0: 878e 82bd fdd4 c7bd 6296 ad3b ce4e a83d
000003e0: 2583 6d3c ce3b b7ba a7a5 043e 4c7a fdbd
000003f0: 8587 783d 4fb5 4abd b16a 9a3d 26c6 90bd

bias f4 [128]
-0.023654003 -0.05442467 -0.043855675 -0.009744245 0.027700761 -0.07035696 0.012175577 -0.07956726
-0.08101789 0.05925493 0.0032145423 0.123999715 0.0014255398 -0.0066276193 0.09301418 -0.053710133
-0.0029721735 0.011803432 0.15968232 0.07628512 -0.011017714 0.07113613 0.03523769 -0.08450537
0.050882157 0.14085467 -0.04441764 -0.055422988 -0.080167845 -0.0008219374 0.102611534 -0.12677395
-0.06752969 0.020504607 0.03635225 -0.074187234 0.017115679 -0.016581964 0.07861479 -0.086208716
0.07392068 -0.059433304 0.043142974 0.06416676 -0.06388689 0.08595651 -0.08941229 0.01835149
0.071135536 -0.10986616 -0.06388386 0.10484403 0.08341533 -0.074963056 0.019635975 -0.09082023
-0.12111134 0.075126186 -0.08578719 0.07246742 -0.014020848 0.04598417 0.010393627 0.06434598
-0.010542531 -0.07102596 0.035073906 0.06635529 -0.109341055 -0.09359549 -0.0779554 0.03357352
0.020548176 -0.08462381 0.07368118 -0.05972637 -0.04700304 -0.055523336 -0.006837327 0.032132383
0.05632478 -0.014161857 0.034435917 -0.010510578 0.026227472 -0.040838417 -0.059866004 -0.020297445
-0.037984144 0.058758132 0.046533447 -0.15267518 0.10696077 0.0451595 -0.029612869 -0.048732955
-0.01857148 0.07212411 -0.05939768 0.015997218 -0.005365654 0.023947487 0.005837967 0.056044504
-0.10384112 0.048758715 0.03774573 0.046257064 0.025059037 0.023347942 -0.0050187954 0.015443395
-0.05012707 -0.0888282 0.015454291 -0.028000852 -0.0847409 -0.05620309 -0.018868072 0.07598616
0.019511148 -0.019851277 0.01170208 -0.12303383 0.036679164 -0.087577745 -0.04473345 0.019263366
00000000: 0ac6 c1bc 67ec 5ebd 02a2 33bd 53a6 1fbc
00000010: b5ec e23c 4f17 90bd 127c 473c 29f4 a2bd
00000020: b5ec a5bd 4cb5 723d 12ab 523b 90f3 fd3d
00000030: 2ed9 ba3a 802c d9bb 387e be3d 28ff 5bbd
00000040: ccc8 42bb 2f63 413c c383 233e 5f3b 9c3d
00000050: a483 34bc d2af 913d 6555 103d 2711 adbd
00000060: cf69 503d 353c 103e 45ef 35bd 3703 63bd
00000070: 0a2f a4bd 4977 57ba ff25 d23d 08d1 01be
00000080: 024d 8abd 47f9 a73c 19e6 143d 7aef 97bd
00000090: 2e36 8c3c e6d6 87bc cb00 a13d 328e b0bd
000000a0: ba63 973d 5670 73bd b0b6 303d dd69 833d
000000b0: 21d7 82bd f709 b03d ca1d b7bd dd55 963c
000000c0: 82af 913d 8201 e1bd 8bd5 82bd 78b8 d63d
000000d0: a8d5 aa3d 3b86 99bd a0db a03c f5ff b9bd
000000e0: 3909 f8bd c2db 993d 32b1 afbd cc69 943d
000000f0: b3b7 65bc e659 3c3d 084a 2a3c d3c7 833d
00000100: 94ba 2cbc 0f76 91bd a8a9 0f3d 48e5 873d
00000110: 34ee dfbd feae bfbd 15a7 9fbd 6384 093d
00000120: a654 a83c 404f adbd 29e6 963d a3a3 74bd
00000130: 4286 40bd 706c 63bd a80b e0bb 3f9d 033d
00000140: d0b4 663d 2207 68bc ad0c 0d3d 8f34 2cbc
00000150: ffda d63c 2f46 27bd 0e36 75bd d446 a6bc
00000160: 4395 1bbd 5eac 703d db99 3e3d e256 1cbe
00000170: 400e db3d 2bf9 383d b096 f2bc 359c 47bd
00000180: 3723 98bc ceb5 933d fb4a 73bd 990c 833c
00000190: 5ed2 afbb 852d c43c 6b4c bf3b ec8e 653d
000001a0: a7aa d4bd 38b7 473d 449b 1a3d 0c78 3d3d
000001b0: 9c48 cd3c 2f44 bf3c b574 a4bb 4b06 7d3c
000001c0: 0b52 4dbd 8feb b5bd ff33 7d3c 0b62 e5bc
000001d0: a38c adbd 3635 66bd 3791 9abc a29e 9b3d
000001e0: d8d5 9f3c 259f a2bc 15ba 3f3c 29f9 fbbd
000001f0: e43c 163d f65b b3bd 6c3a 37bd 35ce 9d3c
