results/model/data_aug_584.model (torch, 686563 bytes, 21 tensors)

weight_ih f4 [384, 5]
00000000: 1f81 11bd c891 5b3d 65c5 afbd 7db5 1f3d
00000010: daae 443d 13be 583d 9e40 bd3d d53e b7bd
00000020: 81cc 683d 62e6 32bd 8af5 953d 1efa 8a3d
00000030: fbd2 8f3d 1498 863d 7ec5 e43d 5fdf b53d
00000040: 380d c73c 7b84 9d3d 2fe4 3fbd 236c ec3d
00000050: a07f 753c 9a66 0a3d 6962 bcbc 315f 883d
00000060: 6c9a 9bbc 47c8 233d 25d7 773d 4f94 5cbd
00000070: 9829 b2bc 3e53 6f3d 17da cbbc b3f2 b33d
00000080: d347 aa3d 52ed c1bc 7ca7 2b3d 9505 40bd
00000090: 84e1 d8bd 83c5 3ebc 7ae0 113d 2484 f5bd
000000a0: 7664 e3bc f960 ac3c 399e f23c 83fd b73d
000000b0: c5c6 7d3d cc6d 0bbc c243 5b3b ff2b 86bc
000000c0: 1193 403d 01a7 eabc e1e4 823d 3ca9 a93d
000000d0: 727f 79bd f941 ebbc 096b 2f3d 86b8 11bc
000000e0: 5b01 02bc 1010 f43c d8e9 863c 1929 cfbd
000000f0: 4b34 c43b 6437 dd3c 4021 8abd ef44 27bc
00000100: 7e52 f13d 539e 18bd bdcb 8e3d de1f 16bd
00000110: a577 91bd 2bb0 9bbc 95bd 853c cc3c 2e3d
00000120: e8dd be3d 31fb e33d faff b3bc a14e 5cbc
00000130: 56c9 55bc 395a 83bc 29df 683d c657 d43d
00000140: a4d3 af3d 658d b7bd 55cd 06be 193d b43d
00000150: a81b febc acdf 673d 44bb 92bd 7f52 3abd
00000160: 5bc3 61bd bf68 113d 6e22 053d 7caf 56bd
00000170: 917e c1bd 8b3d 053b 752f f5bc 3b0b 8b3d
00000180: 569d 16bd 3535 c23d 4522 c83d 6989 303d
00000190: 25db c43c e480 803d 26b1 2a3d b726 d03d
000001a0: f369 80bd 1de1 09bd 8577 933d 5bad 8c3d
000001b0: ea63 b1bb 510f 483d 7b45 6e3d 4816 903d
000001c0: 7ab2 b33c 7d84 18bc 4401 bb3d e5b4 f73c
000001d0: 701d 3d3d 20ff 90bc 5d4b ca3d 58f9 ad3c
000001e0: f4f3 043d b1d6 dd3c 477c 8bbd 1c2f 50b9
000001f0: 451d 7e3d f24f f4bb 5282 d3bc 6fe5 25bd
00000200: f1cf 5cbd e24c 503d 4f1d 02be 1c72 5cbd
00000210: 83ab 223d 0f70 9ebc 0008 c5bd eabb 143e
00000220: 75a4 e13c c323 603d 4da4 b9bc 4313 86bc
00000230: 7d05 a33d 99a8 d8bc da28 04be dddc 1d3b
00000240: 4874 463d d2ec dbbb 8809 483d 2ffe 883d
00000250: 8b18 86bc 5560 65bd 03c3 833d e23d 16bd
00000260: 6af7 ce3d e30a 92bc d658 e5bc ac63 a03b
00000270: 4e85 883d 5325 6b3d 3950 813d 5a59 923d
00000280: 896a 2b3c 9a6f 26be 2cf3 8ebc 52bb a7bd
00000290: f737 debc c3d9 c53c a240 153c 9eba 3bbd
000002a0: 7b10 d63d 88bc 8cbc 7f1c f5ba ded6 ac3c
000002b0: 099f a53c d20d 59bd c0f4 b83c e055 233d
000002c0: a097 7d3d 7238 c9bc ed1d 42bd 0532 59bc
000002d0: f7b3 63bc 5713 a43c 07c9 713d 6981 fcbc
000002e0: b717 88bd a35d aebb 771c 85bc 4512 bc3d
000002f0: 57f0 b53d b5d6 85bb 625b 12bd 2c8d 01bc
00000300: 5723 f03b 00f2 15bd f19b 36bd 4f63 a53d
00000310: ca7b 153c a7ad 973d 89ee a3bd 9948 fc3c
00000320: 661c 813d 9409 25bd 628a 3f3d b22c c43d
00000330: 0b84 b7bc beb8 da3d e28b 963c 3387 aa3d
00000340: 6ae3 7ebd 4f7a 32bd 7155 0cbd 58e3 8e3d
00000350: 4359 9f3d ae15 debc 49fa 47bd b76c d33b
00000360: 3e40 14bc cd64 3bbd 9394 aa3d debf 82bd
00000370: 97b6 8cbd 690f b43d db83 053d 0a1d 8fbc
00000380: e2d9 68bd 4874 b0bd 535a 81bd 7b28 2b3c
00000390: 2aa0 053d e3aa 0e3b 44bf dc3d 5f54 75bd
000003a0: 970f 8b3c d301 25bd 6725 5dbd ca6f 53bd
000003b0: 877d aa3d 4c64 163d b093 4bbb fcae 1dbd
000003c0: 92e0 8f3d a79d f43c c87b 613c f37e 00bd
000003d0: 5f02 ccbc 1a68 083d ea0d 12bd c654 ae3d
000003e0: 3648 ef3d ac60 9c3d 4de8 cfbd 3fae ab3b
000003f0: 020f 9b3c 7b3e dc3c 8456 d0bd 59ff e0bc
-0.03552353 0.053605825 -0.08582572 0.03899144 0.048018314 0.052915644 0.092408404 -0.08947531
0.056835655 -0.04367674 0.073222235 0.06785987 0.07022663 0.06571975 0.11170481 0.08880495
0.024298295 0.07691284 -0.046848472 0.11544063 0.014984041 0.033789255 -0.022996144 0.06658781
-0.018994533 0.03998592 0.060507912 -0.053852376 -0.02174835 0.058428995 -0.024884267 0.087865256
0.08314481 -0.023672733 0.041907772 -0.046880323 -0.10589889 -0.01164377 0.03561447 -0.119880944
-0.027757864 0.021042334 0.029616462 0.089839004 0.06195714 -0.008510064 0.0033457135 -0.0163784
0.047015253 -0.028644087 0.063913114 0.08284232 -0.060912557 -0.028717982 0.042826686 -0.0088940915
-0.0079348935 0.029792815 0.016468927 -0.10115261 0.005987679 0.027003951 -0.06744623 -0.010209306
0.11783312 -0.037260365 0.06972454 -0.036651485 -0.071028985 -0.019004902 0.016325751 0.04253845
0.09319669 0.11131895 -0.021972645 -0.013446481 -0.0130484905 -0.016034232 0.056853447 0.10368304
0.08585289 -0.08962516 -0.13164265 0.08800716 -0.031019047 0.056609794 -0.07164624 -0.04548883
-0.055117946 0.035500284 0.032503538 -0.05241345 -0.09447969 0.0020330872 -0.029929856 0.067892514
-0.03677114 0.09482805 0.097721614 0.043099795 0.024030278 0.06274584 0.04167285 0.10163634
-0.06270208 -0.03366195 0.07200531 0.068690024 -0.005413522 0.048842732 0.05817173 0.070355
0.02193569 -0.009308931 0.09131101 0.030237624 0.046170652 -0.017699778 0.09877656 0.02123706
0.032459214 0.027079912 -0.068108134 -0.00019853975 0.062039632 -0.0074558193 -0.025818978 -0.040502008
-0.053909246 0.05085457 -0.12706493 -0.05381976 0.039714348 -0.019340543 -0.096206665 0.14524809
0.02754424 0.054721605 -0.022661353 -0.016366607 0.07960031 -0.026447581 -0.12906209 0.0024087944
0.04845074 -0.006711581 0.048837215 0.06689107 -0.016369125 -0.056000073 0.0643368 -0.03668011
0.10105784 -0.017827457 -0.027996462 0.0048946943 0.06666051 0.057408642 0.063141294 0.07145949
0.010462412 -0.1625351 -0.017449938 -0.081900254 -0.027126295 0.024151688 0.009109648 -0.04583227
0.10452362 -0.017179742 -0.0018700509 0.02109855 0.020217435 -0.052991696 0.022577643 0.03987682
0.06191218 -0.024563048 -0.04739182 -0.0132565545 -0.013897887 0.020028753 0.059029605 -0.030823426
-0.06645148 -0.005321221 -0.016248925 0.09183172 0.08883732 -0.004084433 -0.03573168 -0.007907193
0.0073284316 -0.036607742 -0.04458231 0.08075582 0.009123752 0.074061684 -0.08004481 0.030796336
0.06304245 -0.040292338 0.04676283 0.095788375 -0.02240183 0.10679768 0.018377248 0.083265685
-0.062228598 -0.043573674 -0.03426117 0.06976956 0.07780697 -0.027109947 -0.048822675 0.006452169
-0.00904852 -0.045750428 0.083291195 -0.06384252 -0.06870764 0.08792002 0.03259645 -0.017469902
-0.056848414 -0.08615929 -0.06316056 0.010446663 0.032623447 0.0021769337 0.107786685 -0.059894916
0.016975207 -0.040284943 -0.053990748 -0.051620282 0.08324724 0.036716744 -0.003106337 -0.038496956
0.07025255 0.02986033 0.013762422 -0.03137107 -0.024903474 0.033302404 -0.0356578 0.08512263
0.11683695 0.07635626 -0.1015173 0.0052392776 0.018928055 0.026885262 -0.101727515 -0.02746551

weight_hh f4 [384, 128]
00000000: 585a 91bd 8baf 973c 88cf 6f3b 0abe 7f3c
00000010: 118e ebba 7541 abbd f85c 51bd 0b49 c1bd
00000020: 1e9b 0fbd 1521 403c e031 ad3d 9acc 1ebd
00000030: 83eb cb3d 879b 793d c005 b03d 1246 b33d
00000040: 2434 183d 391e b03d a821 453d de93 b4bd
00000050: 951b 0dbd 8d17 5ebc 165e 263c 8d48 b53c
00000060: 8dc4 533c fedc 5c3d 9cf6 7fbd b792 90bc
00000070: 45d7 b5bc b075 1e3c a204 163d d2f3 bc3c
00000080: 79c8 a53d dac2 c6bd bdea 2f3d f12d 733d
00000090: b687 bf3d 1434 07bd 46a0 a1bc b85d 613c
000000a0: 5503 abbc aedc b63c e8de 223d 6aee 833c
000000b0: 6ba8 3d3d af44 9f3d 067b 31bc 586a 15bd
000000c0: 1cd8 693d cd80 c53d cead 183d 5966 c13d
000000d0: 1958 b03b 1f2c b93d 355f aebc 970c e7bc
000000e0: 48c2 a2bb b9d5 173c 5ba7 6f3b c48a 173d
000000f0: 16b2 57bc bc1c 1cbd 3af9 743c e23a acbd
00000100: c3fa 9fbd 5330 af3c bada eb3c 3f87 aa3c
00000110: 38d4 18bd ad44 6dbc 7976 c6bd 2cec 61bd
00000120: dd83 683d 8f09 5e3d 40a7 b4ba 0415 6e3d
00000130: 1f63 de3d 8ff5 a2bb 25a5 503c c5b1 3abd
00000140: 19f4 d03c 29b4 65bd 56cb b13c 52fc 14bc
00000150: f0bd 89bd f044 3e3d 8416 403d 83cb da3c
00000160: 9c03 39bd 57f3 8dbd 47f2 cfbd 278e 803d
00000170: efad a2bd 93d5 d6bc 40d4 6a3c 762e 84bd
00000180: 8328 073d c67c 893d e69a 4d3d 63cf 133d
00000190: 9efc cb3c 6a89 8a3d 5cfd 0cbd 777d ccbd
000001a0: d095 0cbd 68c7 80bd 5d3a f63b 391c 1fbd
000001b0: 9d25 7b3d feac 8b3d 3063 80bd 08ee 43bc
000001c0: fa1e 873c 26b1 bebd a50c cc3d 4054 a63d
000001d0: 0008 953a 6275 a3bc 7dfd 803d 19bd 15bc
000001e0: 2787 0f3d ff9a 4abc 280e 5ebd 8e26 18bd
000001f0: 44f0 78bd f0ff ed3c 6227 1c3d 4319 c73c
00000200: 083a 263c cdd7 abbd 19e7 033d ad5a 35bd
00000210: 5025 eebc 2902 633d a9ff 8b3c 9c9f 923d
00000220: 5880 e1bc 2bd0 093d 6058 9ebc a4ea 933a
00000230: d24d 883c ad95 8dbd f007 ce3d 70f6 313d
00000240: 9787 543d 2952 76bd 8f0a af3d 4af4 2abb
00000250: e39c b5bc 30cd 963c 8ec4 fabc 55b9 8d3d
00000260: d776 1b3d f49c 2ebd e2cd 51bc 6448 b83d
00000270: 6a3b a33c 8ecc dd3c 4602 8bbd ab3f a63d
00000280: b8d4 6dbc cc72 01bd 2764 21bc 4e61 a03d
00000290: 8628 493d 5a6e 803c 2bf0 593d 78a7 7fbd
000002a0: dcef 8cbd 9695 03bb 82fc 70bd 75b2 c4bd
000002b0: 6d2f 853d c633 74bd b9fd 60bd ecd5 a23c
000002c0: de88 a13d 40d1 9ebc e9d9 26bd 0b67 59bd
000002d0: 534d c23c 8c13 4ebd 0f96 8cbd fea0 4e3d
000002e0: d5fa 04bd f675 1fbd 8355 5d3d 6322 1a3d
000002f0: 77fb 88bc 7fc2 bdbd 1195 babc d9b0 6a3d
00000300: e651 9dbd ce74 bb3d 9766 0ebd b122 25bd
00000310: b130 87bd 4b3e 753c 0d7e a8bc 6d7a 313d
00000320: d8d6 c23d 69ac a2bd 355a bc3c 93f5 fb3c
00000330: f8fb 783d f84e 4ebc 4b57 eebc 0174 aabd
00000340: d907 6c3d f1e0 423d 9308 90bd 73e4 993d
00000350: b819 7dbd b852 d53c dbcf 63bd a892 053d
00000360: 6fe9 943d b798 08bd 6eac 193d 7330 6dbd
00000370: d182 50bd c97b e7bc 3887 0cbc cc78 35bc
00000380: 1b9d ebbb 5870 a0bd 6ea2 ebbd 9bdb 44bc
00000390: 11b2 74bc 15df 36bd 2ab1 25bd 50bd f63b
000003a0: 4210 00bd f81f 66bd f3b5 8abc 44d1 07bc
000003b0: e7c3 ad3d 2e3d 50bc 9d60 a2bd 0c87 90bc
000003c0: 3297 1e3d 04c9 283d a4d4 37bd 17f0 4e3d
000003d0: 251b 4b3c 92ca 87bd 2f53 3ebd d993 a6bd
000003e0: 35b9 5e3d dd8f 9c3d d71b 11bd 7624 f53b
000003f0: b91b adbd 976e a2bd c218 853c f63b 52bd
-0.0709731 0.018516323 0.0036592204 0.015609274 -0.0017971416 -0.08362094 -0.051114053 -0.0943776
-0.03506004 0.011726637 0.084567785 -0.038769342 0.0995703 0.060939338 0.08594847 0.08753599
0.0371591 0.085995145 0.0481278 -0.08817266 -0.034450132 -0.01355542 0.010154268 0.022129321
0.012925279 0.053921692 -0.062491044 -0.017648084 -0.022197375 0.009671614 0.036625512 0.023065481
0.08094878 -0.09705134 0.042948473 0.059369985 0.09352057 -0.03300865 -0.019729745 0.013755254
-0.020875612 0.022322025 0.03976336 0.016104896 0.046303194 0.07776772 -0.010832554 -0.03647837
0.057090864 0.096437074 0.037275128 0.094433494 0.005381596 0.090416186 -0.021285633 -0.028204245
-0.004967008 0.009267264 0.0036568257 0.03699757 -0.013165018 -0.03811334 0.014951998 -0.084096685
-0.07811501 0.021385347 0.02879082 0.020816443 -0.037311763 -0.014481706 -0.096905656 -0.05515687
0.05676638 0.054208335 -0.0013782755 0.05812551 0.108587496 -0.0049731205 0.012734686 -0.04557969
0.02550702 -0.056080017 0.021703403 -0.009093361 -0.06725681 0.046452463 0.046896473 0.02670837
-0.045169458 -0.06931179 -0.101536326 0.062771134 -0.079433315 -0.026224887 0.014332831 -0.06454174
0.03299762 0.06713252 0.05019655 0.03608645 0.02490073 0.06764491 -0.03442131 -0.09984868
-0.03432256 -0.06288034 0.0075142817 -0.038845275 0.061315168 0.06820105 -0.062689185 -0.011958607
0.016494263 -0.09311132 0.09963349 0.08121538 0.0011370182 -0.019953433 0.06298349 -0.009139323
0.035041 -0.0123660555 -0.05421272 -0.037146144 -0.06077601 0.029052705 0.038123496 0.024304038
0.010145672 -0.0839077 0.032202814 -0.04427593 -0.029070526 0.055421982 0.017089682 0.07159349
-0.02752702 0.03364579 -0.01932925 0.0011285138 0.01663867 -0.06913314 0.10060108 0.04344791
0.05188712 -0.060136948 0.08546936 -0.002608555 -0.022169536 0.018408388 -0.030611303 0.06920115
0.03795513 -0.04263015 -0.012805434 0.089981824 0.019925792 0.027075078 -0.06787543 0.081176125
-0.014516048 -0.03160362 -0.009850538 0.078310594 0.04911091 0.01567762 0.053207558 -0.06241557
-0.06881687 -0.0020078174 -0.05883456 -0.096043505 0.065031864 -0.059619687 -0.05492947 0.019877397
0.078874335 -0.019386888 -0.04073516 -0.053076785 0.023718512 -0.05031161 -0.06864559 0.050446503
-0.032465775 -0.038930856 0.05403663 0.03763045 -0.01672147 -0.09265613 -0.022776159 0.05729756
-0.076816365 0.09153138 -0.034765806 -0.040316287 -0.06601084 0.014968465 -0.020567918 0.043329645
0.095136344 -0.07943041 0.022992233 0.030756747 0.06078717 -0.01259207 -0.029094359 -0.08322907
0.05762467 0.047577802 -0.070328854 0.07514276 -0.061792105 0.02604042 -0.05561815 0.032610565
0.072710864 -0.033348765 0.037517957 -0.057907533 -0.050906006 -0.028257268 -0.008577161 -0.0110761635
-0.0071903593 -0.07833928 -0.115055904 -0.012015249 -0.014935032 -0.04464634 -0.04045216 0.007529892
-0.031265505 -0.05618283 -0.016932463 -0.008289639 0.08484631 -0.012709899 -0.07928584 -0.01764252
0.03871841 0.04120733 -0.044880524 0.050521936 0.0123966085 -0.06630434 -0.04646605 -0.081336685
0.054375846 0.07644627 -0.03542694 0.007481153 -0.08452553 -0.079312496 0.016247157 -0.051326714

bias_ih f4 [384]
00000000: 8ecb a4bd 4fd3 ff3c f20c af3d ef84 2d3d
00000010: 259d a33d 0e5b 6c3c b859 c43d 515f 4e3d
00000020: 6db7 6cbd 62f4 e83c d162 093c a39d 38bd
00000030: 7a8e 06bd 91fd 413d 3c65 32bd b0df a7bd
00000040: 5f53 0d3d 2aad 653d 3066 9f3d ca31 00bb
00000050: 4597 a43d defa 69bd 9547 b33c 41bf 73bd
00000060: 8b89 683d 4451 dd3c 7562 b6bd 76e7 ed3d
00000070: 8cea 0cb9 3d56 153c 75e2 7d3c 2bd2 cc3b
00000080: 84ad 003c 2081 e33b 4e2f 773d 6ebd 013e
00000090: cb15 2abc 3284 66bc 5cd7 1abc fb61 b13d
000000a0: 2beb 14bc ebcb 22bd f237 b2bd 3406 ab3d
000000b0: 17c3 d9bc e115 a53d 502f d1bb 777a 103d
000000c0: ac1c 37bd b620 ad3d 2eb4 68bd f828 663c
000000d0: ad06 f6bc 5751 90bc 7d3e 13bd a45c f13c
000000e0: f624 b83d fc8c 873c ebbc 7dbd 5359 113d
000000f0: 608b b13c 6e5d 15bc 5932 91bc 2126 f13b
00000100: 858b 27bd c7bc 103d d54e a9bb 8a82 943d
00000110: b1e6 783c b168 973d 3a4c 09bd 353f 353d
00000120: a010 813c 03e5 293d c688 c03c 2ac2 dc3d
00000130: 8f45 4d3d 0d94 6fbd 1ede 65bd 5216 0b3e
00000140: 7901 893c d559 343d 5446 49bd 625a 5a3b
00000150: 7ad6 a5bd 5cb3 c33d f1a7 ea3d b6b4 1fbd
00000160: c17d 0cbd 6bdc d0bd 83b6 5dbd 8a78 733c
00000170: 7e7b 763d be90 813d 8a40 0ebd 730a 82bd
00000180: 0ef9 84bc c417 65bd 640a 2c3d 2922 893d
00000190: 0f31 163d b283 aabc aa34 a73d 6a9c 033d
000001a0: 5179 36ba 7e36 75bb c770 42bb 2293 3dbd
000001b0: 72bf 0d3d 02d9 9dbd d631 24bd 53c8 22bd
000001c0: e908 db3d 497a dbbd 7460 e43d 6ba2 cf3d
000001d0: af60 b63c 2475 b13d 53d7 4a3c 5e7d b43d
000001e0: 915f d93d 19b6 01bd a0dd 95bb 8629 b7bc
000001f0: 1595 aabd d6a1 08bd 82aa 29bd d239 233c
00000200: b758 653c be6d 09bd 7f03 aa3c 5c7a 22bd
00000210: 1c5c dbbc 07f4 533d 67bf 04bd a32b 513d
00000220: c90b 773d d2d6 c13c d76e 9cbd ea64 94bd
00000230: f9ee a53d ee76 06bd 9d69 de3b b29f 0bbe
00000240: c0f2 9fbc 6630 9bbd d052 efbd 1583 ae3c
00000250: b4c9 8d3d a73d 8f3d c36d c8bc 50b3 b23d
00000260: 7266 de3d d59f b1bd 5e30 0c3c 275b 24be
00000270: d83c 953d fb89 7abd e48a 3c3d a9f3 29bd
00000280: 95ab 2fbd 8f7a 5d3c d32b 483b 1981 023d
00000290: 6fd4 0cbe 11fa ca3b 64c8 91bd 0859 0cbd
000002a0: 2638 86bd cc6e 14be 253d 073d 4f85 6b3c
000002b0: 8e6c 0cbe 18c1 1ebe aee8 8d3d 77e2 d13d
000002c0: c5a0 bcbd e374 45bd ca77 32bd 3e49 1a3c
000002d0: 507b 9abd c80a 543d 1aba bcbc d830 33bd
000002e0: 42f7 223c 14f4 ae3d e35e e73c 68e4 b3ba
000002f0: 3127 76bd 0d93 29bb ff8b 75bd 7a69 a7bd
00000300: 62d6 4cbd ea48 87bd 6dc2 2dbd 1b5c 733d
00000310: b0ad 05bd a04e 713d 2594 27bd 394c 063d
00000320: 47eb 85bd 0c19 83bc 422c 34bd 1014 05be
00000330: dc7b 0c3d f3c9 f0bc ce79 f6bd efe5 46bd
00000340: 197c 61bc 3076 69bd 3b53 973d b581 a03c
00000350: 3c67 c3bc a60d b53b e73b c1ba da48 2cbd
00000360: 7283 393d 4be9 04be a1e9 d3bd 6271 09be
00000370: 3a08 1c3d bb01 d7bd b081 4abe 2aa3 54bc
00000380: 6679 84bd 44b4 92bd 7d4c 10bd b826 de3c
00000390: 82a5 91bd 50be 323d f513 9abc 2a43 fbbc
000003a0: a390 4b3d 342e 8abd 7ddf 30bc 8e21 16bc
000003b0: aa60 6dbd 9f83 0abd 4e8f b2bc f2cd bdbd
000003c0: 8271 26bd e572 4fbd ee0f c83c a61d 4dbd
000003d0: 6fb5 5d3d ebd0 603a b354 9fbd 72e2 36be
000003e0: 0701 aebd 3ea3 123d ed5e 2d3d 6b34 4bbd
000003f0: 1976 2ebe b062 20bc 5e14 d33d 5b89 fcbd
-0.080466375 0.03122869 0.08547391 0.042363103 0.07988957 0.014426006 0.09587425 0.05038387
-0.057792116 0.028436843 0.008385376 -0.04507221 -0.03285072 0.04736096 -0.043553576 -0.08196962
0.034503337 0.056073345 0.077831626 -0.0019560927 0.08036665 -0.05712401 0.021884719 -0.059508566
0.056771796 0.02701629 -0.08905498 0.11616413 -0.00013438816 0.009114799 0.015495886 0.00625064
0.007853869 0.006942883 0.060347848 0.12669918 -0.010381172 -0.014069604 -0.00945076 0.086612664
-0.009089272 -0.039745253 -0.08702077 0.083507925 -0.026582284 0.08060814 -0.006383814 0.03527304
-0.044705078 0.08453505 -0.056812458 0.014047854 -0.03003248 -0.01761691 -0.035948265 0.02946312
0.08991425 0.016546719 -0.061947744 0.035485577 0.021672904 -0.009116514 -0.017724203 0.0073592816
-0.04090454 0.035336282 -0.005166868 0.07251461 0.01519172 0.07393015 -0.03351996 0.044249732
0.015754998 0.04147817 0.023502719 0.10779221 0.050115164 -0.0584908 -0.05612003 0.13582733
0.016724335 0.044030983 -0.049139336 0.0033318033 -0.08097549 0.095556945 0.114578135 -0.0389907
-0.034299616 -0.101982914 -0.054129135 0.014860282 0.060176365 0.063264355 -0.034729518 -0.06349649
-0.01623204 -0.055930868 0.042002097 0.06695969 0.03666788 -0.02081475 0.08164342 0.03213159
-0.00069608266 -0.0037416513 -0.0029669271 -0.046282895 0.034606405 -0.077074066 -0.04008659 -0.039741825
0.10695059 -0.107166834 0.111512095 0.10138401 0.0222629 0.08664921 0.012380439 0.088129744
0.10613931 -0.031667802 -0.004573539 -0.022358667 -0.083292164 -0.033357464 -0.041422375 0.009962516
0.013998202 -0.033551924 0.02075362 -0.039667472 -0.02677732 0.051746394 -0.032409098 0.051067006
0.060313974 0.023662005 -0.076383285 -0.0724581 0.08102221 -0.032828264 0.0067874924 -0.13635138
-0.019524932 -0.07577591 -0.11685717 0.02130274 0.069232374 0.06994181 -0.024466401 0.087256074
0.10859384 -0.08673064 0.0085564535 -0.16050397 0.07286996 -0.061166745 0.046030894 -0.041492138
-0.042888243 0.01351799 0.00305437 0.0318614 -0.13752912 0.006194361 -0.071182996 -0.034264594
-0.06553678 -0.1449539 0.033017296 0.014375045 -0.13713285 -0.15503347 0.06929146 0.10248273
-0.09210352 -0.048207175 -0.04357127 0.009416876 -0.07543051 0.051768094 -0.023037959 -0.043747753
0.009946646 0.08542648 0.028243488 -0.0013724687 -0.06009597 -0.0025875003 -0.059947964 -0.08174415
-0.05000914 -0.06605704 -0.042421747 0.05941401 -0.032636344 0.058912873 -0.040912766 0.032787535
-0.06539016 -0.016003154 -0.04398752 -0.12995934 0.03429781 -0.029393172 -0.12034951 -0.048559126
-0.013762497 -0.056997478 0.07388922 0.0195931 -0.023852937 0.0055253087 -0.0014742584 -0.042061664
0.04529137 -0.12979619 -0.103472956 -0.13422158 0.038093783 -0.10498377 -0.19776034 -0.0129783545
-0.064684674 -0.07163289 -0.035229195 0.027118072 -0.07111646 0.043638527 -0.018808344 -0.030671675
0.049698483 -0.06747094 -0.010795471 -0.0091632735 -0.057953514 -0.03381693 -0.021796849 -0.092677966
-0.040635593 -0.05064668 0.024421658 -0.050077103 0.054128107 0.0008576053 -0.07779827 -0.1785982
-0.0849629 0.03580021 0.042326856 -0.049610537 -0.17037238 -0.009789154 0.10306619 -0.12330886

bias_hh f4 [384]
00000000: f2e7 213d 03bd 61bd b49b 3b3d a51a 52bd
00000010: 1054 c43c 5882 6d3d 6d05 553d aa9d 95bd
00000020: 7d9b 083d e03c 833c 85e2 3cbd 505d 903d
00000030: 7c94 3c3d 8cc5 4cbd 84a5 7e3d c6a7 09bd
00000040: 8285 4b3d a754 fdbc 5187 40bd 11ef afbc
00000050: f024 89bc e667 ce3d 0d35 82bc a84e 633c
00000060: f774 18bd f019 963d 2874 90bd 7dcc 093e
00000070: 1520 b3bd b1ea 4abd 593d be3d c121 993d
00000080: 48bf 17bd 0ced d73d 5230 003e 95dd 1ebd
00000090: 87b9 d0ba 4cb0 f2bb efec acbd f6a1 44bd
000000a0: d9b8 32bc 3d24 a23d 726c 86bd ce70 82bd
000000b0: c84e 61bd e72e a83c 767d 6f3d 78dd 0b3b
000000c0: ba1f f13d b513 ad3d e9e2 8dbd ae93 913d
000000d0: 7021 ec3d 2c21 6e3d 91bc c13d eec6 603d
000000e0: 8155 b63d a2f1 72bc b17f a03d 5cb0 10bd
000000f0: 7cf9 053c d041 c43d 4a5d 873b a770 04bb
00000100: e153 883c 1175 babd b64b ecbb c159 86bd
00000110: f350 143d 9818 003d a509 0dbb 2bfe 89bd
00000120: 6c2c b9bd abbf ef3c 6256 663c e2e8 ed3d
00000130: 668b 72bd 5c13 80bc c667 6e3d bfb8 333d
00000140: f9b3 563d 4ee5 9f3d 6c82 153d 7515 a5bc
00000150: 68e6 0abd 634f 5b3d 9805 9f3d d843 90bd
00000160: 557c 3ebd 5980 58bd 64e2 8fbd ffde 70bc
00000170: adaa de3c 1aa5 38bc 4fdb 4a3d 854c b13d
00000180: 1e60 d93d ad66 0ebc bfb1 a23c b75e 5db9
00000190: 3f0a b43d 4acc 403d a8b8 dd3d 9faf 323d
000001a0: 2f3e 00bd b90b 833d 25f0 b23d 4e9b cb3d
000001b0: ff16 aa3d 11a4 96bd ddeb 04bd 40b1 943d
000001c0: 67e7 d13d 4dde 463d 3821 6cbd 7ef3 74bc
000001d0: e55c 0b3d 5db3 9dbd acb8 db3d 31d3 413c
000001e0: b327 9a3d c0bb 5e3d 5322 943d 83ef 213d
000001f0: b1be b3bc b48f b23d e481 813d 5133 573d
00000200: c1cf 133d d061 2bbd 12fd 81bd c3b9 b23b
00000210: 03ec e4bc 7a1f 2abc e3bc f8bc 26e0 7c3d
00000220: 0535 03bd 951f 453d 12c5 9ebc bcb1 673d
00000230: 4a73 633d 5d66 363d b85b 493c 0579 7ebc
00000240: e3b6 82bd ce2e 1f3d 3d9a 79bd 15d4 7c3c
00000250: 534b 4f3d 2b3c 5abc 7942 ccbc 534a 8a3d
00000260: 8216 e53c 454a ddbd 541e 11be 2cd0 c4bc
00000270: 20e8 a5bc 0800 813d 702e a6bd eb08 473d
00000280: 0a1e ad3b 2dd3 033d 9b57 0c3c 5c0e 9d3b
00000290: 95b0 8fbd 19d5 8a3d 7e86 8bbd aeb5 45bd
000002a0: 2301 693c 7327 2f3c 6bfd 2a3d 1170 3b3d
000002b0: 4c24 b9bd cc5f b7bd db95 21bd d6ae ba3d
000002c0: bde3 20bc b6a2 0bbc 6cd3 2f3c 7bef 08bd
000002d0: d00b 333c c957 36bb 6044 abbd ffb6 403d
000002e0: a24e 823d c39b b1bc 5fe7 7c3d 3dbd 3fbd
000002f0: c06b b23c 3f74 1dbd eb67 813d 371b 9e3d
00000300: f0f1 8cbd b4b4 98bc 697c 68bd 7441 9fbc
00000310: 5329 3cbd a73b 75bd 8ab2 2dbd e198 913d
00000320: aa06 133d c15e b3bc fc9e 87bd 2fd0 babd
00000330: ae2f adbd 3891 1c3d 1b13 31bd 1a5a 6abd
00000340: 20d9 babd 23c8 b7bd e725 aebd 962f 3a3d
00000350: b8e3 163d 6c78 0a3d f980 00be cd85 853d
00000360: bb37 e53d b312 94bd 341d 74bc 32b4 ebbd
00000370: 6642 0cbd 34a4 91bd f28d 10be 8d98 2fbc
00000380: 5594 25bd 9634 363d ae4e d83d d2c1 913b
00000390: 7614 6b3d 8fca 843d 3433 11bd d76c 0cbe
000003a0: 1774 c5bd 107b 2b3d 6017 e83d 21a3 333d
000003b0: ded5 1cbe a34a 9cbd 7e79 d9bd 279a bcbd
000003c0: bad1 cf3c a52c 3d3a fafb bcbd a649 26be
000003d0: 2c60 873d c530 56bd 8765 a6bc aaaa 82bd
000003e0: fce2 c9bd 0736 ba3d f3ef 693c 1992 62bd
000003f0: 0991 25be 6781 a2bd 34fd 10bd 659c 77bd
0.03952784 -0.055111896 0.045802787 -0.05129494 0.023965865 0.057985634 0.052007128 -0.07305463
0.03335141 0.016020238 -0.046114463 0.07049048 0.046040043 -0.049993083 0.062169567 -0.033607267
0.04968787 -0.030924154 -0.047004048 -0.0214763 -0.016741246 0.10078411 -0.015894437 0.013873734
-0.03722092 0.07329166 -0.07053405 0.13456912 -0.087463535 -0.049540225 0.09289045 0.07477141
-0.037047654 0.1054326 0.12518433 -0.038785536 -0.0015924432 -0.00740627 -0.08443629 -0.04800602
-0.010908329 0.07917068 -0.06563653 -0.06369172 -0.055006772 0.020530177 0.05846926 0.0021341722
0.117736295 0.084510244 -0.06928045 0.07108246 0.11529815 0.058137104 0.09459794 0.054877214
0.08903027 -0.014828118 0.07836855 -0.03532444 0.0081771575 0.09582865 0.004130994 -0.0020208748
0.01664156 -0.0910436 -0.007211174 -0.06560088 0.03621001 0.031273454 -0.0021520641 -0.06737932
-0.09041676 0.0292662 0.014058681 0.116166845 -0.059214972 -0.015634231 0.058204435 0.04387736
0.05241773 0.07807408 0.036501333 -0.020151833 -0.03391114 0.053542506 0.07764739 -0.0704419
-0.04650529 -0.052856777 -0.070256025 -0.014701604 0.027180994 -0.011269832 0.049525555 0.08657173
0.10614036 -0.008691472 0.019860147 -0.00021111486 0.08791017 0.047069825 0.10826236 0.043624517
-0.031309303 0.0639872 0.0873721 0.099417314 0.083051674 -0.07355512 -0.0324515 0.0726037
0.102492146 0.048551846 -0.057648867 -0.014950631 0.034024138 -0.077002265 0.10728583 0.011830137
0.07527103 0.05437827 0.07233109 0.039535057 -0.021941515 0.087188154 0.06323603 0.052539174
0.0360868 -0.04184133 -0.063470975 0.0054542734 -0.02794457 -0.010383481 -0.030363506 0.061737202
-0.032032985 0.048125822 -0.01938108 0.056565985 0.05552987 0.044531215 0.012289934 -0.015531783
-0.06382539 0.038862996 -0.06093811 0.015431424 0.050608944 -0.013320009 -0.02493404 0.067524575
0.027964834 -0.108051814 -0.14171726 -0.024025045 -0.020252287 0.06298834 -0.08114326 0.04859249
0.005283122 0.032183815 0.008565809 0.0047929715 -0.07016102 0.067789264 -0.06812762 -0.048268966
0.014221462 0.010690558 0.041745584 0.04576117 -0.09040126 -0.08953819 -0.039449554 0.091153786
-0.009819922 -0.00852268 0.010731559 -0.03343151 0.010928109 -0.002782332 -0.08362651 0.04704952
0.06362654 -0.021680718 0.06174409 -0.04681133 0.021779895 -0.03844094 0.06318649 0.077200346
-0.068820834 -0.018640853 -0.05675927 -0.01944039 -0.045937847 -0.059871342 -0.042406596 0.071092375
0.035895027 -0.021895768 -0.06622121 -0.09121739 -0.0845636 0.03822443 -0.04323111 -0.057214834
-0.091234446 -0.0897372 -0.08503323 0.045455538 0.036838263 0.03380625 -0.12549199 0.06519661
0.1119227 -0.07230129 -0.014899541 -0.11508979 -0.03424301 -0.071113974 -0.14116648 -0.010717523
-0.040424664 0.044483744 0.10561882 0.004448154 0.05739256 0.064839475 -0.03544922 -0.13713394
-0.09641283 0.04186541 0.113325834 0.043856744 -0.15315959 -0.07631423 -0.10618876 -0.0920909
0.02536856 0.00072164304 -0.09227748 -0.16239032 0.0661014 -0.052292604 -0.020312084 -0.06380208
-0.09857747 0.09092336 0.0142784 -0.05531511 -0.16168608 -0.07934838 -0.035397723 -0.060451884

weight f4 [128, 128]
00000000: c69d fabc 2b28 843c 6ff9 91bc 5fc2 e43c
00000010: 04a5 1b3c f592 2b3d f325 0dbc d729 cd3c
00000020: f140 693c d7e2 17bd d5ae e1bc 4171 8e3d
00000030: ee48 4c3c 5967 5bbd 5472 6e3d 2ff5 54bc
00000040: f795 fcbd 4441 bdbd fd2d 98bd d5db 94bd
00000050: b63f 9fbc 38d6 a3bc 36d6 86bb 062b bebc
00000060: 0135 51bc 7268 203d a5b2 ac3c a9a8 9bbd
00000070: 06e8 413d af03 70bc 2646 eb3b 6f43 773d
00000080: 107d 293d b802 92bd a7f9 403b 9c2f 90bd
00000090: 4cc0 8a3c c584 c9bd c895 8e3d fd02 903c
000000a0: dcf1 31bd 0462 453d 6af0 963c 263b 6bbd
000000b0: 6d1c 58bd 2027 673d e1f9 72bb 0b57 e4b9
000000c0: f372 913d 2c01 fc3c 3b0b 543d 1036 ddbc
000000d0: 8362 6e3d 3324 5d3d 72f6 b43b 7e0a 083d
000000e0: 39fd 67bd 5d44 3a3c d621 bbbc c2f2 853d
000000f0: 3c27 863d 8eab b3bc 2ca0 923d 9ea8 65bd
00000100: e316 bfbc 6010 0fbd c923 423d e915 13bc
00000110: bbc1 903d d9b7 05be c2dc 7a3d c2cd 79bc
00000120: 2b55 88bd af6d ed3b eb67 383d 2cf3 e63b
00000130: 85de f33c 8a7e 163e 8db6 b4bc d0e4 09bd
00000140: 94f6 61bc 289d bcbc b690 cf3c e7ae 6b3d
00000150: 59be 9cbc f3dc 1ebd 558f babd 1e3e 2c3d
00000160: 80e1 f5bd 57a3 f43c 7428 963d 153a da3c
00000170: a287 813d 5723 4ebd 0eff 6cbd 8079 133d
00000180: 2523 85bd e744 c2bb 1758 233d b915 d83c
00000190: 4b46 76bd 1607 e3bd 8c2e 523d 54f3 39bd
000001a0: 6093 74bd d5b7 113d 838b 433c 1c28 cfbb
000001b0: 3342 c33c d9f6 1b3d 6680 9cbd f92d 763d
000001c0: fab5 9abd 7293 403c 7703 da3c 10ee 92bd
000001d0: 37ec 2b3d 7d76 d63d cbcf 8abd 8c40 84bd
000001e0: 3c3c 87bd 2083 903d 5388 ed3d ce70 a93d
000001f0: 4461 abbd 0f74 7d3d 2a45 9dbd 9081 28bd
00000200: a890 97bd f2ce e73c 49e7 8e3c 7b29 883d
00000210: a708 2dbc 1b29 62bd 70bf 1abd 4138 8dbd
00000220: c4ac b2bc 1234 acba e4cc 633b 8fdd 9e3d
00000230: 2aa3 1f3d 9387 d13d 7078 5fbd 5f08 22bd
00000240: 67ea 233d 59a7 183d f989 b13d 1e96 1bbd
00000250: 7363 75bd 05ee a03c b8c9 01ba e059 413d
00000260: 7ab5 92bd 8af1 adbd 9467 c0bc 9bcb 833d
00000270: 4831 733d cda0 6dbd 19c9 a13d 09da a43d
00000280: eed8 953d de7f 7c3d 6ba7 8c3d c7d0 31bd
00000290: 8fda 76bd 4a1b 5e3d 8ba4 1c3d 6a8e 15bc
000002a0: af06 67bd b12c 1f3d 33e6 13bd 5f0d 74bd
000002b0: 80ec 12bd a4b3 953d 7642 91bd cd07 a2b9
000002c0: 120c ba3c 7a49 3f3d 93d9 afbd 51ee 52bd
000002d0: c519 e83d 41cc 4d3d 0319 843d 3f85 e0bc
000002e0: e65c b43c b06c 823d 5e4d 803d 2f0f e7bc
000002f0: 668c 59bb e377 683d b2ab 093d 2ceb c63c
00000300: 2a74 fdbc 62b9 773d 1cf1 95bd 89e4 dd3c
00000310: c7c0 453d 00f6 54bd da70 a5bd 6875 8fbd
00000320: 5e99 203d b317 3ebd 0d9a 0dbd b2eb cfbc
00000330: 1984 7c3d bdd3 d9bd c299 3b3d a73f 353d
00000340: b8fa 583d b67a a4bd 5076 67bd b678 81bd
00000350: 9177 56bc 8228 c53d fa8a e7bd 9c87 103d
00000360: c5f3 55ba 03ed 1bbc 69ba fa3c 0768 64bd
00000370: 8100 483d 7ba0 ab3d 33a3 8dbd 4928 3a3d
00000380: 0702 703d 9f40 0ebd 2dd4 963d f534 163d
00000390: 6eb8 1d3d a8cc 4ebd 7e32 44bb 48b7 b4bc
000003a0: 7abf 56bd 3559 863b 23df 8d3c 3e6e 20bd
000003b0: f73c d0bb a18e 423c 6794 86bd 161e 273d
000003c0: 94de e8bb 90f2 713d e929 fd3c be94 1cbd
000003d0: 732a 69bd ed12 c7bd 084f afbc 21ad aabd
000003e0: a0d3 ac3c 7da1 40bd c629 973d 0d7c 443d
000003f0: d874 673d c12f 29bc 2efc 883d ad1d a2bd
-0.03059281 0.016132435 -0.017819135 0.027924715 0.009499792 0.041888196 -0.008615005 0.025044365
0.014236675 -0.037081566 -0.027549187 0.06955195 0.01246856 -0.053565357 0.0582145 -0.012997909
-0.12333291 -0.09240964 -0.074306466 -0.07268492 -0.01943956 -0.019999608 -0.0041148914 -0.023213875
-0.012768985 0.039162107 0.021081278 -0.07600529 0.047340415 -0.014649316 0.007179993 0.060367044
0.041379035 -0.07129425 0.002944568 -0.07040331 0.016937397 -0.09839777 0.06962162 0.01757955
-0.043443546 0.048189178 0.018425185 -0.057429455 -0.052761484 0.056433797 -0.003707521 -0.000435524
0.07102003 0.030762278 0.051768523 -0.027003318 0.058199417 0.0539896 0.0055225426 0.03321313
-0.056637976 0.011368838 -0.022843283 0.06540443 0.06550452 -0.02193239 0.071594566 -0.05606901
-0.023326343 -0.034927726 0.04739741 -0.008977392 0.07068201 -0.13058414 0.061245687 -0.01524681
-0.066568695 0.0072457413 0.04502098 0.0070480313 0.029769192 0.14696708 -0.022059703 -0.03366548
-0.013791699 -0.023024157 0.025337558 0.057539847 -0.019133734 -0.038784932 -0.0910937 0.042051427
-0.12005901 0.029863043 0.073319346 0.026639024 0.06324698 -0.05032667 -0.057860427 0.036004543
-0.06500844 -0.005928624 0.03987893 0.026377546 -0.06012563 -0.11085336 0.05131392 -0.04539807
-0.05971086 0.035575707 0.011935118 -0.00632192 0.023835277 0.03807721 -0.076416776 0.060102437
-0.075542405 0.011753904 0.02661298 -0.07174313 0.04197332 0.104718186 -0.067779146 -0.06457624
-0.06603286 0.0705626 0.115982674 0.08273469 -0.08368161 0.06187826 -0.076792076 -0.041139185
-0.07400638 0.028296921 0.01744427 0.06648537 -0.010561145 -0.055214982 -0.037780225 -0.06895495
-0.021810897 -0.0013138077 0.0034759576 0.07757103 0.038973965 0.10230937 -0.054558218 -0.039558765
0.040018465 0.03726897 0.08668894 -0.03798496 -0.059909295 0.019644747 -0.0004951018 0.047204852
-0.0716352 -0.084933355 -0.02348689 0.06435319 0.05937317 -0.05801468 0.078996845 0.080493994
0.07316767 0.06164538 0.0686787 -0.043411996 -0.060267027 0.054225244 0.038242858 -0.009128192
-0.05640286 0.03886098 -0.036108207 -0.059583064 -0.035870075 0.07309654 -0.070927545 -0.0003090486
0.022710834 0.046700932 -0.08586421 -0.051496807 0.1133304 0.05024362 0.06450083 -0.027407287
0.022016954 0.06368387 0.062647566 -0.028205482 -0.0033195256 0.056754958 0.033611007 0.02428206
-0.03093918 0.06047953 -0.073213786 0.027086513 0.04827955 -0.051992416 -0.08078165 -0.07004815
0.039208762 -0.04640932 -0.034570742 -0.025380943 0.061649416 -0.10636089 0.04580093 0.044250157
0.05297348 -0.08031218 -0.056509316 -0.06321852 -0.01309003 0.09626867 -0.113058046 0.035285577
-0.00081616297 -0.009516957 0.030606465 -0.05576327 0.048828606 0.083802186 -0.069158934 0.045448575
0.058595683 -0.034729596 0.07364688 0.036671598 0.038505964 -0.050488144 -0.0029937322 -0.022060052
-0.0524287 0.00409999 0.017318314 -0.039167635 -0.006354924 0.011874826 -0.06571274 0.040800177
-0.0071066115 0.059069216 0.030903773 -0.03822779 -0.05692525 -0.09720407 -0.02139999 -0.08333803
0.021097004 -0.047029007 0.073810145 0.047969867 0.056507915 -0.010326327 0.066887245 -0.079158165

bias f4 [128]
00000000: 0381 3f3d bb5c 22bd bd57 b1bd e7f6 23bc
00000010: 1b51 48bd 0c91 673c 6b4f 2b3a fa00 a33d
00000020: 7cdf 11bd c0e7 9c3d 7547 9abd f414 79bd
00000030: ca1b efbc 5b4e 58bd a9ce c0bd 89a0 10bd
00000040: 0c0d 3d3d 06c9 45bd a6c1 9fbc 3971 753d
00000050: 0f88 ac3b a861 36bd 4f6f 013d a303 9cbd
00000060: 2e12 d2bd 54f7 48bd 0e67 713b 881f 213c
00000070: f478 8d3d 3b67 19bd f0fa 10bd 8d02 483d
00000080: 42c0 b5bc 92e2 79bd a310 093c 57ea 98b8
00000090: 74fe db3c 48ec 8dbd 0a0d 19be 53d3 d6bd
000000a0: 0eb8 c43d 5c02 8d3c c185 b43d 0d7e c2bd
000000b0: f2c8 7abc d399 14be 6df8 353d 13c5 903d
000000c0: f93c 503d 508d 7ebd b6a0 4b3d 4f25 a73d
000000d0: f7f2 33bd 6d9c 663d ac3a bd3d 5f44 bd3d
000000e0: f5b9 5a3c ad79 3d3d 2e53 0abd 8711 c0bc
000000f0: b3ac 93bc 7fa6 0a3d 0558 09bd fc22 02be
00000100: f7b3 1e3c db71 1fbe 8083 943c ff46 bc3d
00000110: 371a 963c add3 033c 1cd5 a6bc 6a4a 883d
00000120: 34ab 803d 42af 8fbc 219d 2d3d b0a9 223d
00000130: b211 953d 2c63 853c daf5 0d3d e43b 963d
00000140: 372e 54bd 6bfe 8f3d 1a70 ce3d 9c12 29bd
00000150: 025f 8abd f582 703c 8d6a 633d 88b2 be3b
00000160: 474b 70bc 1958 b4bd 7f4b 4fbc 8f02 b43d
00000170: dba8 afbc c462 50bc ecc9 68bd c424 b33d
00000180: 6d76 a3bd 1315 e33c 22b6 b9bc 532f 5a3c
00000190: c282 cbbc 51f8 27bd 34eb f0bc e6cb bdbc
000001a0: 4214 9b3d 4bf8 763d 7b10 9d3d 58dd 03be
000001b0: 369a 293d 5b67 9c3c 5f7f cdbc 9993 64bd
000001c0: 0115 b33d 0a6d 8f3c 83db ebbc 4ffe b6bd
000001d0: e2e4 04be cec0 f8bd ed44 9cbd cc8d 52bc
000001e0: a8a0 c53d 090f 673d 3505 02be 7651 213d
000001f0: 5ecb a2bd 469c 9e3d 5fba 89bd b122 77bd
0.046753895 -0.039639216 -0.08659313 -0.010007597 -0.048905473 0.014133703 0.00065349665 0.07959171
-0.035613522 0.0766139 -0.075331606 -0.060810998 -0.029188056 -0.0528091 -0.09414417 -0.03530935
0.04615502 -0.048287414 -0.019501518 0.05992243 0.005265243 -0.044526726 0.031600293 -0.07617881
-0.10257374 -0.049063995 0.0036835107 0.009834178 0.069078356 -0.037451964 -0.035395563 0.048830558
-0.022186402 -0.06100709 0.008365783 -7.291574e-05 0.026854731 -0.06929833 -0.1494638 -0.10489526
0.09605418 0.01721304 0.08814574 -0.094966985 -0.015306698 -0.14511804 0.04442637 0.07068839
0.050839398 -0.062146485 0.049713813 0.08161413 -0.04393288 0.056301523 0.092397064 0.092415564
0.01335 0.046258617 -0.033770733 -0.023445858 -0.018026685 0.03385019 -0.033531208 -0.12708658
0.009686462 -0.15570776 0.01812911 0.09193229 0.018323047 0.008046073 -0.02036529 0.06654818
0.062826544 -0.017539624 0.042386178 0.039712608 0.07278766 0.01628264 0.03465829 0.07335642
-0.051801886 0.07030948 0.100799754 -0.041277513 -0.067564026 0.01467966 0.055521537 0.0058196224
-0.014666385 -0.08805866 -0.012652277 0.087895505 -0.021442821 -0.01271886 -0.056833193 0.08747247
-0.07981572 0.02772001 -0.022669856 0.013316947 -0.024842624 -0.041008297 -0.029409029 -0.023168515
0.07572223 0.060295384 0.07669159 -0.12877405 0.041406833 0.019092252 -0.02508515 -0.055804823
0.087442406 0.017508049 -0.028791195 -0.08935224 -0.12977937 -0.121461496 -0.07630334 -0.01285119
0.096497834 0.056410823 -0.12697299 0.039384328 -0.079489455 0.077446505 -0.067250006 -0.06033582

weight f4 [128, 128]
00000000: 06ac 90bd 7c4a 8abd 09dc 403d c2bd ce3d
00000010: fe5d 7c3d 924d 8c3c 2614 6fbd 8b8a 773d
00000020: 38d5 2dbc da1f 63bd f472 d8b8 4687 7fbd
00000030: 7b51 283d d2ca 7bbd 9d96 5f3d e6ca 143c
00000040: 362b a4bd d1c1 013d ba90 aabd 9ae8 8e3d
00000050: 0eb5 fd3c 3884 153c 9c8d f8bc d334 af3c
00000060: 040c 49bd bf79 36bc 23e4 0bbd b362 c03c
00000070: 3458 2f3b 542f 803d 12da c23c 2110 aabd
00000080: fceb 79bd 8df5 af3d 2a79 62bb cb28 3bbb
00000090: 0561 b1bc 0cb8 63bd cbe8 7f3b 643a 6fbd
000000a0: 5e35 8ebd b84d 5ebc ad58 aabb 61a4 b93d
000000b0: f4f5 003d 0524 f03c 4cd3 6cbd a564 f73c
000000c0: e753 933c bff8 303d 0086 423d 0bc4 3b3d
000000d0: 5ad2 403d a992 9dbd 6b6a 233d 9612 393d
000000e0: 9c28 613d 1165 5cba d4d7 83bd be3a fc3c
000000f0: d8a3 1e3d 0b5c 983d 91b7 963c 9617 a3bd
00000100: 3d58 dfbb 7b52 b93d 225d 1ebd 186b 703c
00000110: 1b62 8dbc aab4 97bd edf9 83bd e45f 5e3d
00000120: 747a 8f3c fe6e 573c a28f 3b3d 89a4 833d
00000130: b9d7 8fbd 759f 4abc 8386 0abc 4c43 623c
00000140: b005 ac3d fabc a0bd fc26 903c 0fac 5c3c
00000150: f0e4 debc 7f95 94bd 3a6d ba3d 7cd2 a23c
00000160: c5ab 133b db35 983d 5c14 113d 8168 94bd
00000170: 8c49 443d 39c2 393d 0e89 90bd 2350 4fbc
00000180: aff5 6d3c 082b 68bd 7c2e 8ebc 5b4b 09bc
00000190: 2c19 2cbd 2574 5f3d 386c 853d 7546 503d
000001a0: 1ae6 d9bd acc1 8fbd e316 483b 7227 c93d
000001b0: 0be6 25bd 23d4 403d 3e6d 85bc 1812 9abd
000001c0: a58c 833d b2e4 0c3d fe10 403c 579e 1e3c
000001d0: 85d6 023d f877 1f3d dd4d a9ba 481b b33d
000001e0: cdca 9b3d 1296 153d 63ec a73c 9c17 4abd
000001f0: ffea d83d 5601 443d f1ca e8bc 4aec 80bd
00000200: 3b29 95bd 09bc 82bc a8e8 adbc 895f 8c3d
00000210: 3a71 543d 380e 72bd 91a8 bcbb 979b 07bd
00000220: 7ffe e73c 9b2c b73c 0d92 d63d 77f1 e0bc
00000230: 54a6 02be b8a4 5d3d 5429 c63d 35bd bfbc
00000240: 18ba 033d 652f d83d 420f 74bd ce4e 11bd
00000250: eed8 e73d d48f 673d 5805 173d 5a59 ec3c
00000260: 78fd 213d 1d54 01bd 8ff9 273d d5a5 3e3d
00000270: 1b7a f1bc f8f6 db3d 4109 f7bb f8e1 adbd
00000280: 5624 61bd 5413 17bd c6b3 cbbb 80fa 0e3d
00000290: 0bae b13d 1d87 053d 7628 9d3d 0431 f43d
000002a0: f708 553d b6f9 883c cca9 1a3c 3fbb 1f3d
000002b0: 086f b4bd aab4 4bbc 74d9 543c 4425 b1bd
000002c0: 0afb 973c c668 92bd 017c febc 8b9c acbc
000002d0: d1ce 1a3d 15e9 ebbc 3d35 73bc fa27 14be
000002e0: 06e8 623c 61e1 86bc fe89 62bc 0367 ccbd
000002f0: 7931 54bb 3524 043c a17f 763c 5116 083d
00000300: cea3 c73c ec5a dd3c 86f1 c7bd 8d5c 3fbd
00000310: b51d 0e3c 7106 73bd 74a1 cebd 6b76 8b3c
00000320: 6ad3 503c 9354 ddbd a943 d8bd 1b39 0abd
00000330: d73a f0bd cbae 9f3c e128 0bbd bb5e 34bd
00000340: b64f f03c 363c 283d 8894 c2bd 95dc c93b
00000350: dc04 6dbb a4f5 69bd 12d3 bebc a75d 1f3d
00000360: 89c0 df3c 84c9 1d3c 8f9c 7e3d 1858 bbbc
00000370: a050 f33d fbd1 9dbd c85e 593d a487 73bd
00000380: 5d44 323d 25e6 40bd 6307 cabd 5e3e 9abd
00000390: 80d7 ed3d c826 9ebd ed7f 6c3d 0a34 acbd
000003a0: 8eae 9cbd ec10 88bd 0166 20bd e3d7 843c
000003b0: 3221 d13d e164 9fbd d700 073e b0f4 63bd
000003c0: 2a0f 37bd 95f8 a1bd 999c 0e3d cf69 023e
000003d0: e658 913d 4466 973d cd93 8ebd f8b3 61bd
000003e0: cb75 71bd 05d2 ef3c d97e cfbc f413 1d3c
000003f0: 26c6 473d 6186 a33c 6d4b 5f3d d641 3cba
-0.07064061 -0.06752488 0.047084842 0.10094787 0.061613075 0.017126832 -0.058368824 0.06043486
-0.010609917 -0.055450298 -0.00010321094 -0.062384866 0.04109333 -0.06147272 0.054586995 0.009081578
-0.08016054 0.03167898 -0.08328386 0.06977959 0.030970123 0.009125762 -0.030340962 0.021387493
-0.049083725 -0.011137425 -0.034153115 0.023484563 0.0026755454 0.06259027 0.023785625 -0.083038576
-0.061016068 0.08591757 -0.0034557083 -0.002855825 -0.021652708 -0.055595443 0.0039048668 -0.058405295
-0.06943773 -0.013568334 -0.0051985593 0.09064556 0.03148456 0.02931405 -0.057818696 0.030199358
0.017984344 0.043205973 0.047491074 0.045841258 0.047075607 -0.07693989 0.03989641 0.04518374
0.05497037 -0.0008407394 -0.0643765 0.03078973 0.038730472 0.07439431 0.018398078 -0.07963483
-0.0068159387 0.09048935 -0.038663037 0.014673971 -0.017258694 -0.07407506 -0.06444154 0.054290667
0.017514445 0.013149021 0.045791276 0.06427867 -0.07023568 -0.012367119 -0.008454922 0.01380999
0.08399522 -0.078485444 0.017596714 0.013468756 -0.027208775 -0.072550766 0.091028646 0.019875757
0.0022532803 0.07432147 0.035419807 -0.07246495 0.047921702 0.04535124 -0.07057391 -0.012653383
0.014523908 -0.056681663 -0.01735615 -0.008379783 -0.042016193 0.054554123 0.06514782 0.050848443
-0.106395915 -0.07019362 0.003053122 0.09821977 -0.04050259 0.04707731 -0.016287442 -0.07522982
0.0642331 0.03439779 0.011722801 0.009681306 0.031942863 0.03893277 -0.0012916882 0.08745438
0.076070406 0.03652007 0.02049846 -0.049338922 0.10591697 0.047852837 -0.028417083 -0.062950686
-0.07283255 -0.015958803 -0.021229103 0.068541594 0.051865794 -0.05909559 -0.0057573994 -0.033107366
0.028319595 0.022360137 0.10477076 -0.02745889 -0.12758762 0.054112166 0.096758515 -0.02340565
0.032159895 0.10555915 -0.059584863 -0.035475545 0.11320673 0.05653365 0.03687033 0.0288512
0.039548367 -0.031574357 0.041009482 0.04654487 -0.02947717 0.10740465 -0.007538945 -0.08490366
-0.054966293 -0.036883667 -0.006216499 0.034906864 0.08675774 0.032599557 0.07673733 0.119234115
0.052010503 0.016720634 0.009439897 0.03899693 -0.0881024 -0.01243321 0.012991298 -0.08649686
0.018552322 -0.0714889 -0.031064989 -0.02107074 0.03779489 -0.028797666 -0.014844236 -0.14468375
0.013849264 -0.01646489 -0.013826845 -0.099805854 -0.003237812 0.008065273 0.015045078 0.033224408
0.0243701 0.027020894 -0.09762864 -0.046719123 0.008674075 -0.059332315 -0.100893885 0.01702424
0.012745718 -0.10807147 -0.1055978 -0.033745866 -0.11729973 0.019492527 -0.033974532 -0.044035655
0.029334884 0.041073047 -0.09500986 0.0061603286 -0.0036166226 -0.057119027 -0.023294006 0.038907673
0.027313488 0.009630565 0.062161025 -0.022869155 0.118806124 -0.07706066 0.053068906 -0.05945553
0.043522228 -0.047094483 -0.0986469 -0.07531427 0.11613369 -0.07722241 0.057739187 -0.08408363
-0.07650481 -0.066438526 -0.03915978 0.016216224 0.1021141 -0.07782913 0.13183914 -0.055653274
-0.044692196 -0.079087414 0.034817312 0.12735675 0.07097034 0.073925525 -0.069617845 -0.055103272
-0.058950227 0.02927495 -0.02532904 0.009587277 0.048772953 0.019961538 0.05451529 -0.0007181441

bias f4 [128]
00000000: 3ac1 b3bd d9fc 06bd 75b2 b43d 9837 0cbe
00000010: b595 35bd 5dc5 8d3d a0d8 58bd c279 56bb
00000020: bfd8 9abc 7580 acbd 99dd 0fbd 0228 aa3d
00000030: 1b09 12bd bc15 833d c170 91bd 7221 bdbc
00000040: de00 1abc 85f4 abbc 2c7a 863b 5339 69bd
00000050: c063 5cbd 089d 2ebd e8d3 88bc 55fb a7bc
00000060: f3c0 abbd 1938 73bd 2f0a 94bd c80f 99bb
00000070: f889 5abd 421e 3abb eab8 d13b 0747 a83d
00000080: 1dfd 58bd be71 483c afdc 9a3a ec2a d1bc
00000090: b38f 4e3d 3bad b1bd 0811 c83c 3c95 6a3b
000000a0: a5cc 27bc 3ea1 85bd 968b bcbd 852e 2b3d
000000b0: 74bf 00be c968 01be d668 96bd 2e03 5b3d
000000c0: 1faf b23c 1bb8 03be a2e4 a03d dccd 4a3d
000000d0: ddfa ac3d 7c11 8cbb 0c1d 8fbd 8644 54bc
000000e0: 60d8 cbbd bd9f 903d 3f32 3bbd 1298 eabc
000000f0: 4765 afbc c8ab 293d 72e7 213c b80b b73d
00000100: a7c6 4dbd d195 ac3b 9812 54bd a2fa 1c3d
00000110: 983f 90bd 2651 b43d 6763 08bd f252 a53d
00000120: 355e 9e3c ceed 16bd bb26 a43d 2019 91bd
00000130: 9f72 b8bd 61a0 193c 6b41 a6bd 0c34 a33d
00000140: b436 e0bc 9eaf 903d f6c5 d7bc 3cb0 11bd
00000150: c1b9 91bb 5b73 103d b1a3 763d 24a7 bbbd
00000160: 98eb a03d 844c 68bd 141a debb e408 6e3c
00000170: 4874 85bd 903c 3d3d 032a d3bd 3778 8bbd
00000180: 0ff4 0d3d 88fd e4bc bd22 2cbc af14 b4bd
00000190: 88bc 0abe 7d5b 183d 69f5 7a3d 6d93 023d
000001a0: 9a1e 873c d525 b43b b18b 01bd dc82 e43d
000001b0: 0598 89bd 6882 203c 5c7d 19be 495b 8bbd
000001c0: d31e 913c e443 e2bd 93cf ad3d 3b64 853c
000001d0: cb04 cabc d80c 7abd d3e9 81bd 15c8 1a3b
000001e0: 54d5 d8bd 0e31 9e3d 300b b5bd 5807 cb3d
000001f0: 6ab3 40bd 0c12 883b 38c2 e9bd 6ed8 e63d
-0.087770894 -0.032955978 0.088231005 -0.13693082 -0.044332225 0.0692241 -0.052940965 -0.0032726382
-0.01890218 -0.08422939 -0.03512344 0.08308412 -0.035653215 0.0640063 -0.07101584 -0.023087237
-0.009399621 -0.02099062 0.0041039195 -0.056939434 -0.053806067 -0.042630225 -0.016702607 -0.020505587
-0.083864115 -0.05937967 -0.07228505 -0.0046710707 -0.053354234 -0.0028399383 0.0064002173 0.082166724
-0.052975763 0.0122341495 0.0011815036 -0.025533162 0.05043001 -0.08675619 0.024422184 0.0035794517
-0.010241662 -0.06524895 -0.092063114 0.04179241 -0.12573034 -0.12637629 -0.073442146 0.05346983
0.02181202 -0.128632 0.07856108 0.04951273 0.08446286 -0.0042745452 -0.06987962 -0.01295579
-0.0995338 0.07061718 -0.045702215 -0.028636966 -0.021410597 0.04142359 0.009881841 0.08937782
-0.050238278 0.005266883 -0.051775545 0.03832496 -0.070433795 0.0880454 -0.033297922 0.08072461
0.01933203 -0.036847882 0.080152 -0.0708487 -0.09006237 0.009376616 -0.08117946 0.079689115
-0.027369834 0.07064746 -0.026339512 -0.03556846 -0.0044471924 0.03526626 0.060214702 -0.09162739
0.07857436 -0.056713596 -0.006778011 0.014528487 -0.065163195 0.046200335 -0.103107475 -0.068100385
0.03465658 -0.027952924 -0.010506329 -0.087930076 -0.13548481 0.037196625 0.061269198 0.031878877
0.016494084 0.005497674 -0.03162736 0.11157772 -0.067184485 0.009796716 -0.14989227 -0.06804521
0.017714893 -0.11048105 0.08486857 0.016283145 -0.024660489 -0.061047405 -0.063434266 0.0023617793
-0.10587564 0.077242 -0.088400245 0.0991351 -0.047046103 0.004152542 -0.114139974 0.112717494
