results/model/data_aug_567.model (torch, 686563 bytes, 21 tensors)

weight_ih f4 [384, 5]
0.07858765 0.061282273 -0.032202285 -0.017661348 -0.00046928864 -0.017841525 0.08638131 -0.073656745
0.041930165 0.0498771 -0.16991152 -0.07670032 0.040797863 0.006972921 0.008409004 -0.061524373
0.03012648 -0.010820611 -0.036602873 -0.14697573 -0.020068135 -0.16566849 0.08650708 0.031897753
0.0563283 0.07952275 0.012112428 -0.020204874 0.036230057 -0.05103998 0.04416165 0.061872005
0.1337482 -0.014856115 -0.032801054 0.0145096835 -0.022861933 0.00827037 -0.018390693 -0.17831136
0.041638296 0.10157385 -0.062416527 0.045709185 0.10925121 -0.037085705 0.12315618 -0.101264365
0.04017712 0.011108576 0.03448148 0.081321605 -0.025029553 0.028775759 0.09632266 0.00853839
-0.01887234 -0.051207803 0.009172517 -0.016063731 0.062329564 0.025006529 -0.084747516 0.0632189
0.04108472 0.090381905 0.07717316 0.11319012 -0.010039656 0.08456368 -0.018978918 0.022013003
-0.0754232 0.013316657 0.011275999 0.1110494 -0.04835631 0.021300497 0.00480003 0.019737495
-0.122024216 -0.12747878 0.03135063 -0.029083937 -0.040652502 -0.07200107 -0.005024114 -0.0994387
-0.0781741 0.046692323 -0.010618512 -0.054427467 0.10137326 0.13398305 0.017354622 0.028663637
0.078921646 0.012617156 -0.014603995 0.070504494 -0.006650681 0.01077162 -0.035211764 -0.021012772
-0.021668894 0.13547519 0.12876897 0.05085776 -0.016055534 -0.05731114 -0.070383154 -0.09123491
0.044107683 -0.063995 0.09464438 -0.051581144 0.027714396 0.073943235 0.015661245 -0.026069384
0.072828874 0.031996474 0.03166314 0.09586073 0.02900673 -0.005297045 0.099404745 0.0061740093
0.09282419 0.09946753 -0.011594323 -0.029095845 0.045107774 -0.025637439 -0.038256437 0.014036105
0.029932693 -0.10172769 0.043815356 -0.0015276646 0.113528185 0.109277554 0.03723109 0.050176468
-0.03150832 0.089115605 -0.19959731 -0.066603355 0.09307373 0.12603341 0.10901869 0.06603019
0.046156336 0.031014718 0.016944312 -0.07867271 0.05445628 0.010473496 0.07909564 -0.15748511
0.0111896405 0.010177926 -0.07859575 -0.0735566 0.089200996 -0.063278444 -0.023721756 0.06810597
0.0046193316 -0.11441779 0.0024687487 0.031299967 -0.084392935 0.03235607 -0.088681504 -0.05572219
-0.006191608 -0.059689764 0.06536137 -0.014518625 -0.022525962 0.041594107 -0.12112519 -0.03935384
0.02000691 0.019745322 0.05368576 -0.038695097 0.053443138 -0.1476627 -0.011885582 0.04212308
-0.051336672 0.03700993 -0.08781212 0.007818141 0.113608085 0.076855764 -0.021443889 -0.059378363
0.03560028 -0.0241088 -0.08152264 -0.07747749 -0.10298565 -0.09124904 -0.03194644 0.047473256
0.077978425 -0.09853001 -0.051551852 0.054290097 0.052159984 -0.07358854 0.101509504 -0.120877706
-0.14220847 -0.037401892 -0.07719463 -0.11870295 -0.09499376 0.072971635 0.0074446686 0.059296373
0.09438604 0.07770722 0.024156902 0.045776203 0.10234669 -0.061378635 0.049653552 0.05976345
-0.05780744 -0.039779663 -0.04394494 -0.077013716 0.080458425 -0.029112563 -0.026230251 0.067036025
-0.00062591484 -0.036901627 0.047680162 -0.018229049 -0.022070872 0.032565333 0.010199937 0.019015964
-0.10577655 0.04466436 -0.07261783 0.07941206 0.04771392 0.032508425 -0.008348 0.022763053
00000000: 90f2 a03d 1f03 7b3d 8be6 03bd 88ae 90bc
00000010: db0a f6b9 6428 92bc afe8 b03d 59d9 96bd
00000020: f7be 2b3d ee4b 4c3d 49fd 2dbe 0f15 9dbd
00000030: a91b 273d 1a7d e43b ebc5 093c fb00 7cbd
00000040: cfcb f63c ef48 31bc e5ec 15bd ce80 16be
00000050: ee65 a4bc 00a5 29be a02a b13d 38a7 023d
00000060: 81b8 663d d3dc a23d 3573 463c b184 a5bc
00000070: f865 143d 4c0f 51bd d9e2 343d 806d 7d3d
00000080: 4af5 083e 1067 73bc 665a 06bd 06ba 6d3c
00000090: f348 bbbc 7280 073c 14a8 96bc 4197 36be
000000a0: eb8c 2a3d f305 d03d 79a8 7fbd 8e39 3b3d
000000b0: 19bf df3d 2ee7 17bd 4f39 fc3d b163 cfbd
000000c0: c490 243d bf00 363c 743c 0d3d f18b a63d
000000d0: c70a cdbc 24bb eb3c d144 c53d 9ae4 0b3c
000000e0: 2a9a 9abc 46bf 51bd 5348 163c 1698 83bc
000000f0: 494d 7f3d 7eda cc3c 1b90 adbd e978 813d
00000100: 7448 283d 261a b93d f60c 9e3d 39d0 e73d
00000110: 5f7d 24bc b92f ad3d ad79 9bbc 9d54 b43c
00000120: 7b77 9abd 1c2e 5a3c f8be 383c de6d e33d
00000130: 4411 46bd 617e ae3c 9249 9d3b 87b0 a13c
00000140: d5e7 f9bd cc89 02be 8569 003d 7041 eebc
00000150: 3d83 26bd 4c75 93bd 53a1 a4bb 84a6 cbbd
00000160: be19 a0bd 7340 3f3d 44f9 2dbc 56ef 5ebd
00000170: c99c cf3d da32 093e 482b 8e3c 01d0 ea3c
00000180: aca1 a13d 30b8 4e3c 9845 6fbc a964 903d
00000190: f5ed d9bb 737b 303c 363a 10bd fa22 acbc
000001a0: f782 b1bc 02ba 0a3e 03dc 033e 3a50 503d
000001b0: e586 83bc 16bf 6abd 0b25 90bd 5ed9 babd
000001c0: 42aa 343d d00f 83bd ead4 c13d c046 53bd
000001d0: 4d09 e33c 8d6f 973d 034c 803c 768f d5bc
000001e0: 4e27 953d bc0e 033d 35b1 013d a152 c43d
000001f0: 869f ed3c d692 adbb b794 cb3d 584f ca3b
00000200: 9c1a be3d a2b5 cb3d 1ef6 3dbc 695a eebc
00000210: eec2 383d 9b05 d2bc c8b2 1cbd b1f7 653c
00000220: 6835 f53c 9b56 d0bd bb77 333d eb3b c8ba
00000230: 7781 e83d e9cc df3d a17f 183d d785 4d3d
00000240: de0e 01bd 3e82 b63d 3d63 4cbe 5767 88bd
00000250: 719d be3d e70e 013e 3145 df3d d63a 873d
00000260: 6d0e 3d3d 9412 fe3c ccce 8a3c 281f a1bd
00000270: 8c0d 5f3d 0799 2b3c e5fc a13d c743 21be
00000280: c154 373c 51c1 263c cff6 a0bd d8a4 96bd
00000290: 03af b63d 2198 81bd 2154 c2bc 257b 8b3d
000002a0: c35d 973b e053 eabd bbca 213b 6534 003d
000002b0: 34d6 acbd cc87 043d a69e b5bd f33c 64bd
000002c0: f9e2 cabb 417d 74bd 2fdc 853d 87df 6dbc
000002d0: 5e88 b8bc 955e 2a3d 7c10 f8bd 7e31 21bd
000002e0: 88e5 a33c f1c0 a13c 99e5 5b3d c07e 1ebd
000002f0: 31e7 5a3d e434 17be bebb 42bc 4089 2c3d
00000300: 6746 52bd b997 173d d7d6 b3bd a917 003c
00000310: 5bab e83d 8e66 9d3d 18ab afbc ba36 73bd
00000320: 99d1 113d d17f c5bc 58f5 a6bd 85ac 9ebd
00000330: 24ea d2bd c7e0 babd 45da 02bd 5173 423d
00000340: 27b3 9f3d 1aca c9bd 0928 53bd 4b5f 5e3d
00000350: b5a5 553d 97b5 96bd 37e4 cf3d bb8e f7bd
00000360: 199f 11be ba32 19bd 3818 9ebd 881a f3bd
00000370: 178c c2bd 2772 953d 68f2 f33b c1e0 723d
00000380: 784d c13d f724 9f3d b2e4 c53c d47f 3b3d
00000390: 249b d13d 2a68 7bbd 8661 4b3d 85ca 743d
000003a0: 7fc7 6cbd 00f0 22bd 9cff 33bd 5eb9 9dbd
000003b0: 63c7 a43d 787d eebc d3e0 d6bc 2f4a 893d
000003c0: 6f14 24ba 2926 17bd 464c 433d 1655 95bc
000003d0: f9cd b4bc 3a63 053d a31d 273c 5ec7 9b3c
000003e0: 60a1 d8bd faf1 363d a8b8 94bd caa2 a23d
000003f0: ac6f 433d 8e27 053d 0dc6 08bc 9579 ba3c

weight_hh f4 [384, 128]
0.038114067 -0.0058124242 0.008340642 0.026805092 0.10026524 0.03586139 0.073948056 -0.05164643
-0.038191155 0.099088944 -0.08843681 0.027866216 0.038313534 0.006210317 -0.05359354 -0.030537765
-0.05492105 -0.05510237 -0.0008388111 -0.027898448 -0.0028834885 0.07983195 -0.07692792 -0.012289931
0.011479289 -0.00840759 -0.006778968 0.0002763374 0.02559681 -0.10335624 -0.013523147 0.09633084
-0.07877794 0.07455782 0.06455971 0.03375027 -0.06120574 0.05424078 -0.038237464 -0.05722888
-0.045091007 0.0553405 -0.07569349 0.0054583144 0.0015428246 -0.036895912 0.06181072 -0.05799943
-0.028434556 0.027377352 0.10362242 -0.01309542 0.052797448 -0.08544038 -0.09716378 -0.0014242015
-0.056643624 0.08893047 -0.080130786 0.12563445 0.047565397 -0.03209184 -0.08797346 0.017825406
-0.07488474 0.019845884 -0.005141908 -0.027021244 -0.013599112 -0.063638605 0.041457023 -0.05857115
0.08365887 0.13808909 0.002683337 0.041196726 -0.047117174 0.08686715 0.049934976 -0.05162646
0.00095576217 0.031875223 -0.048691068 -0.059881054 -0.042473584 -0.029767519 0.093627095 0.09803418
0.09513427 -0.04160915 0.033549283 0.010763946 -0.015625339 0.098658204 0.003154268 -0.030873934
-0.008617992 0.027091142 0.08470494 -0.08001345 -0.016521981 -0.087072104 -0.0395989 -0.20708211
0.03676677 0.03772553 0.06466274 0.0384484 -0.018768061 0.07381866 0.037430923 0.12948997
0.06532148 -0.03245549 -0.048958745 -0.04680187 -0.08600599 0.020656954 0.009107122 0.067011684
0.004206206 0.060914613 0.095814146 -0.021372844 -0.034140427 0.08155573 -0.040229823 0.065831974
-0.02063709 0.055929683 -0.01270936 -0.012316491 0.033241767 -0.003200166 0.10378409 0.07049101
0.00020941207 0.020056756 0.07104122 0.016368594 0.07070756 -0.06768256 -0.07380179 0.01563486
0.08122898 -0.011037278 -0.088301696 -0.04238007 0.07846101 0.02337027 -0.09617268 0.14338897
0.0050129397 0.011123089 0.04565527 0.06842599 0.07047611 0.08642433 0.022031944 0.019745247
0.14417806 0.056184664 -0.019352376 -0.03533272 0.036099933 -0.029896952 -0.06764483 0.05843596
-0.07271206 -0.07976036 -0.042001568 -0.055580128 0.025535246 0.077164255 0.13914359 0.035226345
0.090961374 -0.06406505 0.10317518 -0.05151383 0.030749777 -0.0023258317 0.12135748 0.04204348
0.023372414 -0.035955593 -0.0022098206 0.06626981 0.043582354 -0.03166217 0.040936165 -0.0075654793
0.0050198687 0.03572099 0.01497471 0.043200497 0.070776865 -0.026538616 -0.010200636 -0.028732121
0.08720541 0.07054316 -0.03396827 -0.11437023 -0.009229697 0.012077312 -0.005331807 -0.021884471
0.103137806 -0.06542071 -0.090523474 0.085396945 -0.018762138 0.11005098 -0.030418025 0.017302364
-0.06913908 0.028123852 0.017549317 0.04268166 0.016212206 0.092883125 -0.092765026 0.096598536
-0.011096821 0.017392447 0.05126295 -0.023851858 -0.03185968 0.07454623 -0.0064912164 0.034473017
0.0027990115 0.13765359 0.06610313 -0.09590802 -0.12379371 0.05119466 0.0065551656 -0.007292247
0.07139944 -0.025707092 -0.046972547 -0.028092546 0.009603587 -0.028929286 0.059639808 0.016366802
-0.04281866 0.1026936 -0.03268309 -0.12475825 -0.10748616 -0.061771482 -0.02342059 0.082189
00000000: 7f1d 1c3d 2676 bebb 30a7 083c 5a96 db3c
00000010: dd57 cd3d 65e3 123d 1472 973d 358b 53bd
00000020: 546e 1cbd 25ef ca3d 5c1e b5bd b147 e43c
00000030: a7ee 1c3d ea7f cb3b e684 5bbd 562a fabc
00000040: e5f4 60bd 06b3 61bd a9e3 5bba 498b e4bc
00000050: e9f8 3cbb ef7e a33d 638c 9dbd b55b 49bc
00000060: a113 3c3c fdbf 09bc 1b22 debb 61e1 9039
00000070: 67b0 d13c 70ac d3bd 3190 5dbc 1a49 c53d
00000080: 5456 a1bd c5b1 983d e237 843d b93d 0a3d
00000090: dfb2 7abd 952b 5e3d e39e 1cbd d468 6abd
000000a0: 59b1 38bd b8ac 623d 3005 9bbd a9db b23b
000000b0: 9a38 ca3a 2b20 17bd 3d2d 7d3d cf90 6dbd
000000c0: 96ef e8bc 7846 e03c fe37 d43d 2c8e 56bc
000000d0: 2342 583d 5efb aebd cefd c6bd 46ac baba
000000e0: 2503 68bd 2e21 b63d 9c1b a4bd 51a6 003e
000000f0: efd3 423d bc72 03bd 6e2b b4bd 9606 923c
00000100: 2c5d 99bd d693 a23c 737d a8bb a85b ddbc
00000110: cfce 5ebc f554 82bd d7ce 293d 4de8 6fbd
00000120: 5755 ab3d 3a67 0d3e edda 2f3b e6bd 283d
00000130: f0fd 40bd 68e7 b13d 9e88 4c3d 4476 53bd
00000140: 1d8c 7a3a 988f 023d 4970 47bd d645 75bd
00000150: c8f8 2dbd 03db f3bc 90bf bf3d 25c6 c83d
00000160: c2d5 c23d 5b6e 2abd f96a 093d 435b 303c
00000170: b600 80bc 500d ca3d d6b7 4e3b 55eb fcbc
00000180: 7a32 0dbc 3eee dd3c c979 ad3d 17de a3bd
00000190: 1b59 87bc dc52 b2bd 7532 22bd 550d 54be
000001a0: c198 163d 1686 1a3d e66d 843d 127c 1d3d
000001b0: 7abf 99bc 3d2e 973d 2b51 193d 0599 043e
000001c0: 45c7 853d 0cf0 04bd f788 48bd 51b3 3fbd
000001d0: e923 b0bd c638 a93c 0a36 153c 6c3d 893d
000001e0: 37d4 893b 9a81 793d 353a c43d 1a16 afbc
000001f0: d5d6 0bbd b106 a73d 07c8 24bd ead2 863d
00000200: 1d0f a9bc 8616 653d eb3a 50bc 1ccb 49bc
00000210: 8528 083d e0b9 51bb c18c d43d 975d 903d
00000220: a095 5b39 114e a43c 0f7e 913d 6e17 863c
00000230: 20cf 903d 279d 8abd 6525 97bd ae14 803c
00000240: 615b a63d b3d5 34bc 85d7 b4bd b996 2dbd
00000250: 2ab0 a03d 0273 bf3c 2ff6 c4bd 8fd4 123e
00000260: 9643 a43b 9e3d 363c 0501 3b3d ed22 8c3d
00000270: c755 903d 3dff b03d 567c b43c c9c0 a13c
00000280: 6aa3 133e e421 663d e088 9ebc 0bb9 10bd
00000290: 86dd 133d 74ea f4bc 5f89 8abd 8c5a 6f3d
000002a0: 0fea 94bd 6659 a3bd d609 2cbd fda7 63bd
000002b0: 4b2f d13c 4b08 9e3d a87b 0e3e 8049 103d
000002c0: f549 ba3d 8934 83bd 824d d33d 2a00 53bd
000002d0: f5e6 fb3c fb6c 18bb 458a f83d c935 2c3d
000002e0: 8177 bf3c 2c46 13bd a3d2 10bb 77b8 873d
000002f0: 6983 323d 31b0 01bd aeac 273d d7e7 f7bb
00000300: b67d a43b 2c50 123d 7c58 753c 01f3 303d
00000310: 76f3 903d 8367 d9bc 9220 27bc a05f ebbc
00000320: c098 b23d ef78 903d 5022 0bbd f03a eabd
00000330: 2838 17bc ebdf 453c 70b6 aebb 1047 b3bc
00000340: ea39 d33d 4bfb 85bd 5f64 b9bd 98e4 ae3d
00000350: 0eb3 99bc 6862 e13d 392f f9bc b0bd 8d3c
00000360: ca98 8dbd fe63 e63c 96c3 8f3c f7d2 2e3d
00000370: 76cf 843c 8239 be3d 97fb bdbd 74d5 c53d
00000380: 71cf 35bc 9b7a 8e3c 19f9 513d f964 c3bc
00000390: 4c7f 02bd b2ab 983d 45b4 d4bb 9433 0d3d
000003a0: 9f6f 373b 10f5 0c3e 1461 873d 6d6b c4bd
000003b0: 8e87 fdbd 7eb1 513d b7cc d63b cdf3 eebb
000003c0: df39 923d ae97 d2bc 4966 40bd 5722 e6bc
000003d0: 5d58 1d3c 1cfd ecbc df48 743d ac13 863c
000003e0: 9f62 2fbd 0651 d23d b4de 05bd 4181 ffbd
000003f0: b421 dcbd 1804 7dbd 8adc bfbc b552 a83d

bias_ih f4 [384]
0.024488354 0.12128797 -0.09236828 -0.013914131 0.013841469 0.07281591 0.024690704 -0.0401299
0.032221474 -0.042578608 -0.010268108 0.032381363 0.034575157 -0.008678123 0.016749542 0.11175038
-0.060796175 0.044149548 -0.025925182 0.101318926 0.0125982035 0.039801225 -0.0081525985 0.08856694
0.12428447 0.018372627 -0.047259342 0.068012886 0.13036366 0.083222166 0.13382865 -0.004282782
-0.05291809 0.06920377 0.055688594 0.02774885 0.089814566 0.015089071 0.058495197 0.041254297
0.0077648466 0.028506631 0.059347488 -0.093183964 0.05999311 0.15007067 0.015617275 0.034652576
-0.05712458 -0.0316816 0.088685654 0.023509117 -0.02829238 0.023068773 0.014385651 -0.06255967
-0.08463536 0.052109536 -0.0037904473 0.08148487 0.0009483163 -0.016756123 0.051530633 0.07894365
0.055697735 -0.02619188 0.04519115 -0.03974464 0.012830197 0.11666642 0.013887999 0.070063636
0.14986968 -0.07425291 0.056085102 0.15159456 -0.087657705 -0.015297272 0.046532467 0.028313508
0.041254673 0.12114851 0.04886644 -0.03723397 0.04986307 -0.05570263 0.04426282 0.067489535
-0.026674012 0.030836113 0.01715067 -0.09513269 -0.011503276 0.007827893 -0.015749728 0.095425904
0.03513818 0.0147723565 -0.073620774 -0.09776294 0.10105086 0.0066754012 -0.1287823 -0.010813014
-0.06943326 0.094618924 0.044771656 -0.09581504 0.032282606 0.039840285 -0.029023618 -0.054678045
-0.0009379617 -0.013495393 0.076706715 0.08891439 -0.05532458 0.09457407 -0.0827731 -0.018427584
0.061078284 0.06391363 0.09622744 -0.0026182812 0.11334059 0.083185755 -0.012758707 0.07684153
0.009805145 -0.0057564587 0.05350621 -0.05334114 0.025771538 -0.0659003 -0.0805279 0.042664938
0.043566853 -0.1591561 -0.07649908 -0.13645595 -0.07307567 0.014026843 -0.004989952 -0.08223764
-0.12522955 -0.07042466 -0.052144088 0.0065084402 0.07415642 -0.02537591 0.058294944 -0.039160118
-0.021282874 -0.05456006 0.017430877 -0.041798394 0.04012192 0.13340029 0.04836689 0.030310923
-0.15864186 -0.17867368 -0.009596023 0.0008555716 -0.07239097 -0.046957694 -0.21507914 -0.11877191
-0.08061086 -0.07584046 -0.065953046 -0.15683818 0.00054091203 0.03225751 -0.04954791 -0.03155547
-0.031212606 0.034210768 -0.0021686184 0.05693943 -0.09548856 -0.09118715 -0.06913662 -0.03834713
0.028751394 0.04657417 -0.018107828 -0.027385117 -0.13840662 0.03599649 -0.123567715 -0.1482015
0.039153703 0.023826908 -0.089234576 0.04025469 0.051779035 -0.026568998 -0.034851663 0.020473272
-0.0076453425 -0.099097624 -0.031036377 -0.19533576 0.06784403 0.015944848 -0.049851473 0.04775284
-0.09324702 -0.20044099 0.04222328 -0.06353175 -0.0055663567 -0.013626523 -0.11638015 -0.0848661
-0.035387993 0.09975895 -0.03353892 -0.11439535 -0.062989466 -0.05683469 -0.015246803 0.06158281
0.0112336455 -0.009339799 -0.10246 0.04473692 0.05122195 -0.13565232 -0.13128251 0.040155105
-0.005187587 -0.12992784 0.03651797 -0.06721539 -0.049057525 0.05531236 -0.0141050955 0.043706506
-0.18256603 -0.122274965 -0.0856732 -0.13675117 0.054956347 -0.07759595 -0.007355246 -0.04606918
-0.15970989 -0.053609725 0.004021941 -0.014635858 0.0269006 -0.008570535 -0.09350984 0.009999361
00000000: cd9b c83c d465 f83d 952b bdbd 18f8 63bc
00000010: 54c7 623c 8220 953d 2944 ca3c 405f 24bd
00000020: aafa 033d e866 2ebd 913b 28bc 52a2 043d
00000030: ae9e 0d3d b02e 0ebc 5636 893c 62dd e43d
00000040: 6905 79bd 28d6 343d 0c61 d4bc 4c80 cf3d
00000050: b268 4e3c 9c06 233d 7a92 05bc 9562 b53d
00000060: db88 fe3d 3182 963c 0393 41bd 574a 8b3d
00000070: 0d7e 053e 6270 aa3d 610a 093e 9456 8cbb
00000080: a4c0 58bd b5ba 8d3d b919 643d 8e51 e33c
00000090: b3f0 b73d 2738 773c a998 6f3d 44fa 283d
000000a0: 4170 fe3b bd86 e93c 5a16 733d 3cd7 bebd
000000b0: 56bb 753d 20ac 193e 99df 7f3c dcef 0d3d
000000c0: 77fb 69bd 91c4 01bd d3a0 b53d 3196 c03c
000000d0: 6cc5 e7bc b9fa bc3c cbb1 6b3c 491f 80bd
000000e0: 4e55 adbd cf70 553d 2769 78bb 8ae1 a63d
000000f0: 6e98 783a 2344 89bc c911 533d 35ad a13d
00000100: 4f23 643d 5b90 d6bc 5b1a 393d 47cb 22bd
00000110: bf35 523c ceee ee3d 7d8a 633c 867d 8f3d
00000120: 7077 193e e911 98bd 7eb9 653d 9b3b 1b3e
00000130: e285 b3bd 69a1 7abc d498 3e3d bbf1 e73c
00000140: a9fa 283d b61c f83d 2d28 483d a682 18bd
00000150: 383d 4c3d 7128 64bd ee4c 353d f437 8a3d
00000160: 7583 dabc 049c fc3c 907f 8c3c eed4 c2bd
00000170: 3d78 3cbc 9040 003c 9305 81bc a86e c33d
00000180: 0ded 0f3d c107 723c 7dc6 96bd f037 c8bd
00000190: c1f3 ce3d 53bd da3b 82df 03be 1129 31bc
000001a0: 0633 8ebd 91c7 c13d 7c62 373d ad3a c4bd
000001b0: c43a 043d 912f 233d f0c2 edbc 16f6 5fbd
000001c0: 8be1 75ba c81b 5dbc 6918 9d3d bf18 b63d
000001d0: 079c 62bd 0db0 c13d f184 a9bd 72f5 96bc
000001e0: 392d 7a3d 26e5 823d e412 c53d 7897 2bbb
000001f0: 1c1f e83d 4b5d aa3d e509 51bc 185f 9d3d
00000200: c2a5 203c ada0 bcbb 5429 5b3d 3d7c 5abd
00000210: d51e d33c bdf6 86bd d0eb a4bd 6ec1 2e3d
00000220: 2873 323d d1f9 22be 8dab 9cbd 1cbb 0bbe
00000230: b2a8 95bd d8d0 653c c082 a3bb 356c a8bd
00000240: 2d3c 00be ce3a 90bd 0a95 55bd c144 d53b
00000250: 52df 973d 24e1 cfbc aec6 6e3d 5c66 20bd
00000260: 6c59 aebc 5f7a 5fbd 33cb 8e3c cb34 2bbd
00000270: e256 243d 169a 083e 5c1c 463d 9d4e f83c
00000280: 0373 22be 3cf6 36be a338 1dbc 7048 603a
00000290: b841 94bd b656 40bd b53d 5cbe b03e f3bd
000002a0: 4e17 a5bd 3e52 9bbd 6412 87bd 309a 20be
000002b0: fecb 0d3a 7320 043d c0f2 4abd 4f40 01bd
000002c0: 94b1 ffbc 9720 0c3d 611f 0ebb 5239 693d
000002d0: 828f c3bd 54c0 babd 8097 8dbd e111 1dbd
000002e0: 0b88 eb3c 8fc4 3e3d de56 94bc c156 e0bc
000002f0: 77ba 0dbe 0e71 133d 1211 fdbd 22c2 17be
00000300: a25f 203d a630 c33c 9ec0 b6bd 1ae2 243d
00000310: 4116 543d 3aa7 d9bc 9ec0 0ebd 90b7 a73c
00000320: c885 fabb b2f3 cabd 0040 febc 1906 48be
00000330: d0f1 8a3d c59e 823c 0f31 4cbd 7b98 433d
00000340: 4bf8 bebd 6740 4dbe 51f2 2c3d ef1c 82bd
00000350: fc65 b6bb c841 5fbc b758 eebd 47ce adbd
00000360: 00f3 10bd 6c4e cc3d 1b60 09bd 1c48 eabd
00000370: 9f00 81bd 7ecb 68bd bacd 79bc 423e 7c3d
00000380: 530d 383c f505 19bc 8cd6 d1bd 103e 373d
00000390: 1cce 513d 71e8 0abe ec6e 06be ae79 243d
000003a0: a2fc a9bb ce0b 05be de93 153d 39a8 89bd
000003b0: 8bf0 48bd 378f 623d 0f19 67bc 9805 333d
000003c0: 97f2 3abe 4c6b fabd 6e75 afbd 8008 0cbe
000003d0: e819 613d a0ea 9ebd 4704 f1bb 09b3 3cbd
000003e0: fd8a 23be df95 5bbd 7dca 833b 3dcb 6fbc
000003f0: a65e dc3c 6e6b 0cbc 1682 bfbd 5cd4 233c

bias_hh f4 [384]
0.00015099096 0.008186822 -0.14737731 0.05112904 0.0031184189 0.08805235 0.052128665 0.059546396
-0.0080257105 0.04489371 -0.06909924 0.0014182171 0.06799176 0.114274696 -0.060276754 -0.033482064
0.0115459915 0.013460694 -0.011032561 0.07400528 -0.04004757 0.11539096 -0.0068765213 0.05102835
0.073808 -0.031367037 -0.010227194 0.011566353 -4.113419e-05 0.05244194 0.08295689 -0.05344345
0.10180273 -0.0011636835 0.021614406 0.008784896 0.093535036 -0.07062165 -0.03387633 -0.012032148
-0.090437315 -0.030151883 0.0011440129 -0.06631406 0.028619627 0.057827882 0.031387854 0.022002738
-0.034161784 0.035397895 -0.056096297 -0.09140623 -0.042835727 -0.062117018 0.09494742 -0.07106602
0.072958685 0.09874895 0.07154418 0.03137395 0.08220024 0.05739307 -0.08807067 0.09632439
0.061069548 0.107272126 -0.047032047 -0.070558526 0.008961823 0.13389505 -0.046679426 -0.07197108
0.096628204 0.035942942 0.01770406 0.11915198 0.0055407216 0.011113669 0.052850176 0.1383058
0.04831494 -0.0011703735 -0.06389101 -0.11835598 -0.06457833 0.075187296 0.07120093 0.017805327
0.06772611 0.047743063 0.1075232 -0.06589565 0.030240534 0.056763094 0.06778511 0.0704394
0.08951242 0.019248182 0.037621606 -0.0066344175 0.06316173 0.082005605 0.036020808 -0.019043304
-0.020072352 0.05933276 0.017144574 0.010438705 -0.052769378 0.08041577 -0.026358671 0.03943238
0.10903354 0.043260667 -0.040630706 -0.016118592 0.11474193 0.13425891 -0.037076615 0.12749279
0.111117244 0.09681804 0.04688749 -0.0388495 -0.0382512 0.10331513 -0.004444003 0.093680315
-0.06676617 -0.064369805 0.044060804 0.06621325 0.017359378 0.018842157 -0.029939445 0.09794134
0.04878423 -0.07019884 -0.06401195 -0.089035034 -0.030541774 -0.066229984 -0.079041086 -0.1452209
-0.14599432 -0.032379005 0.012576035 0.099128366 0.072667494 -0.010009471 0.029666744 -0.015331517
-0.09937401 0.014277283 -0.08857609 -0.03311368 -0.07434183 0.05347834 -0.02093882 0.011167056
-0.02150838 -0.20543231 -0.05655467 0.028343942 -0.05808312 0.058756836 -0.20647867 -0.11536289
-0.020964384 -0.08351796 0.012029441 -0.17265922 0.0031584261 -0.039966814 -0.0060229497 0.013268395
-0.07350492 0.06895389 -0.012396587 0.15823607 -0.015257639 -0.048135024 -0.0636439 -0.054129716
-0.025454577 -0.034317907 -0.028967625 -0.007941958 -0.07681242 0.054061208 -0.28024456 -0.06357805
-0.015270821 0.045209143 -0.10959963 -0.04539371 -0.011081175 -0.14751105 0.006461271 0.07965582
-0.06611006 0.0046653748 -0.05060328 -0.099023834 0.03002107 0.06567471 0.021076994 -0.11186483
-0.029480137 -0.14519373 0.031817324 -0.05943445 0.024553584 0.004540978 -0.11981619 -0.020522589
-0.12758079 0.013419332 -0.1552698 -0.10688591 -0.0610508 0.037103977 -0.06816495 0.006251749
-0.015421044 -0.113274425 -0.07674905 -0.080246225 0.03797909 -0.10834577 -0.062594056 -0.08973528
-0.13229588 -0.08303639 -0.06663467 0.03753719 0.03404441 -0.04098953 -0.054904006 0.10275077
-0.094478615 -0.13213505 -0.10038584 -0.08193411 0.00015016198 0.048350476 -0.08282685 -0.06048245
-0.10306799 0.0094086435 -0.09719473 0.09624784 -0.05854146 -0.024383817 -0.05179148 -0.08512191
00000000: 5453 1e39 0522 063c 14ea 16be af6c 513d
00000010: 635e 4c3b ca54 b43d de84 553d ece6 733d
00000020: 457e 03bc 78e2 373d e783 8dbd 78e3 b93a
00000030: 443f 8b3d da08 ea3d c2e4 76bd 7d24 09bd
00000040: 662b 3d3c 3e8a 5c3c eac1 34bc 1590 973d
00000050: ec08 24bd 1852 ec3d 7154 e1bb 1a03 513d
00000060: a628 973d b97a 00bd f68f 27bc cd80 3d3c
00000070: 8087 2cb8 5ccd 563d 4de5 a93d 85e7 5abd
00000080: f37d d03d bd86 98ba b210 b13c 86ee 0f3c
00000090: 4c8f bf3d 15a2 90bd e8c1 0abd 7d22 45bc
000000a0: 3337 b9bd 1501 f7bc b4f2 953a aacf 87bd
000000b0: b573 ea3c eedc 6c3d 8d90 003d 163f b43c
000000c0: 3aed 0bbd 62fd 103d 3bc5 65bd 3133 bbbd
000000d0: 8474 2fbd 6a6e 7ebd cb73 c23d 108b 91bd
000000e0: 5d6b 953d e43c ca3d c185 923d f981 003d
000000f0: 9958 a83d ff14 6b3d 655e b4bd b945 c53d
00000100: 1024 7a3d 7db1 db3d ada4 40bd fd80 90bd
00000110: 9cd4 123c c91b 093e ed32 3fbd 9365 93bd
00000120: 02e5 c53d e838 133d 1b08 913c f405 f43d
00000130: f18e b53b 1b16 363c 6d79 583d 09a0 0d3e
00000140: e3e5 453d 3867 99ba 4ad9 82bd 9f64 f2bd
00000150: a541 84bd ccfb 993d cbd1 913d 7adc 913c
00000160: fdb3 8a3d 3b8e 433d 2035 dc3d 4cf4 86bd
00000170: ffba f73c 6b80 683d ebd2 8a3d 8842 903d
00000180: 4a52 b73d 5dae 9d3c 1d19 1a3d 8765 d9bb
00000190: f05a 813d 8ef2 a73d 8e8a 133d b400 9cbc
000001a0: c66e a4bc e806 733d c772 8c3c 1a07 2b3c
000001b0: b424 58bd 06b1 a43d 24ee d7bc d983 213d
000001c0: fa4c df3d 1932 313d 626c 26bd 230b 84bc
000001d0: d1fd ea3d 2b7b 093e a6dd 17bd 788d 023e
000001e0: 7091 e33d 8948 c63d 190d 403d a720 1fbd
000001f0: 4aad 1cbd e296 d33d 009f 91bb 77db bf3d
00000200: b4bc 88bd 51d4 83bd 1a79 343d d09a 873d
00000210: 4135 8e3c de5a 9a3c 9143 f5bc 7895 c83d
00000220: f9d1 473d 69c4 8fbd b218 83bd 0058 b6bd
00000230: be32 fabc 96a3 87bd 4be0 a1bd cab4 14be
00000240: 897f 15be d99f 04bd b70b 4e3c d003 cb3d
00000250: b2d2 943d c4fe 23bc ac07 f33c 0b31 7bbc
00000260: 9a84 cbbd 44eb 693c 6267 b5bd 36a2 07bd
00000270: 8840 98bd 1b0c 5b3d e387 abbc 07f6 363c
00000280: 5832 b0bc d95c 52be dfa5 67bd 8e31 e83c
00000290: 91e8 6dbd 02ab 703d 256f 53be 6143 ecbd
000002a0: 80bd abbc 770b abbd 2217 453c 94cd 30be
000002b0: 99fd 4e3b 3eb4 23bd 2a5c c5bb af63 593c
000002c0: bf89 96bd b237 8d3d 0e1b 4bbc a308 223e
000002d0: 2dfb 79bc 3b29 45bd bc57 82bd 1fb7 5dbd
000002e0: 1e86 d0bc ef90 0cbd 834d edbc fc1e 02bc
000002f0: d44f 9dbd 496f 5d3d 377c 8fbe 3535 82bd
00000300: 7732 7abc 392d 393d c575 e0bd c1ee 39bd
00000310: d18d 35bc 230d 17be 12b9 d33b 9722 a33d
00000320: b664 87bd 00e0 983b 6345 4fbd 02cd cabd
00000330: bfee f53c 7680 863d a9a9 ac3c 6319 e5bd
00000340: 5480 f1bc aaad 14be e252 023d 8a71 73bd
00000350: 9924 c93c 7ccc 943b 3162 f5bd fd1e a8bc
00000360: 8aa4 02be c2dc 5b3c 0cff 1ebe 00e7 dabd
00000370: 6710 7abd 57fa 173d 119a 8bbd 79db cc3b
00000380: 8ca8 7cbc 6cfc e7bd 9b2e 9dbd 2258 a4bd
00000390: f68f 1b3d 63e4 ddbd 5031 80bd 21c7 b7bd
000003a0: 9278 07be fc0e aabd c277 88bd 99c0 193d
000003b0: 2772 0b3d a3e4 27bd 06e3 60bd ff6e d23d
000003c0: 017e c1bd 694e 07be 1797 cdbd 12cd a7bd
000003d0: cd74 1d39 260b 463d 20a1 a9bd 72bc 77bd
000003e0: 4f15 d3bd b626 1a3c 080e c7bd 961d c53d
000003f0: 2cc9 6fbd 92c0 c7bc 4e23 54bd 6554 aebd

weight f4 [128, 128]
0.050249178 -0.012062011 -0.06793927 -0.064548716 -0.022543985 0.111501426 -0.055716187 0.049159013
-0.112102926 -0.060624067 0.021327868 0.034673523 -0.07963062 -0.0033789978 -0.01648391 -0.13445488
0.066301376 0.059224866 -0.10786881 -0.1109562 -0.029957348 -0.0490307 0.03615307 0.085636266
-0.037897117 0.06002042 -0.022230675 -0.035209518 -0.0134816095 -0.088191494 -0.072859675 -0.027630137
0.050534572 -0.06684789 -0.003115314 0.06890843 -0.036069755 -0.1031508 -0.036343396 -0.09960962
0.013232768 0.040448587 -0.034977436 -0.03311113 -0.014665807 0.041976437 -0.014500176 -0.035840493
0.028721847 0.041690804 0.14992319 0.068300866 -0.006913369 0.09191278 0.009989315 0.058112834
0.029224837 0.033051707 -0.05021517 0.14653356 0.08043238 0.010877281 0.03766381 -0.016521195
-0.06970399 0.13641919 -0.09623325 -0.108516745 -0.026588572 -0.11247895 0.07890589 0.02781756
-0.06724154 0.090952985 -0.05547692 0.14509846 0.020618524 -0.029918887 -0.05335488 -0.0072257607
0.0100079365 -0.097683035 -0.1335693 -0.000990947 0.06581383 -0.015774371 0.019453876 -0.11079392
-0.10386525 -0.09221226 -0.10057738 0.05625476 0.055664595 -0.07788482 -0.09676773 0.0027588643
0.07325024 0.038455937 -0.024150964 0.046562903 -0.14059336 -0.059357975 -0.053125937 0.0777231
0.020752024 -0.033193447 0.004814884 0.019128013 -0.017550487 -0.0016173982 -0.028935602 0.051322296
0.10707637 0.097857125 0.06829158 0.023065254 -0.050302327 -0.05452293 -0.06505022 0.04245697
0.0050700316 -0.069034286 -0.026747836 -0.030599127 0.08525184 0.012288468 -0.0023200088 0.10127905
0.07802087 -0.060937736 0.055990472 0.009700832 0.027095536 0.008603996 0.068240464 0.07219512
0.01872941 -0.0013186467 -0.02147108 0.0026456614 -0.095180534 -0.047954828 0.0570073 -0.010382302
-0.003740984 0.020859653 0.01804726 -0.025378834 0.027734075 -0.0769798 -0.08097197 0.02915965
-0.0641084 0.04919034 0.051936515 0.11366592 0.07641306 0.008962271 -0.0420721 -0.052036837
-0.05338276 0.09137013 0.031951517 0.047321446 -0.06550923 0.06678153 -0.011181354 -0.016866561
-0.06481384 0.04684451 0.012634793 -0.007254707 0.046331286 0.060902953 0.018779235 0.06886103
-0.048276953 0.009482718 -0.05937278 -0.012945169 0.03984696 0.02549541 -0.12991066 0.09333235
0.071366236 -0.025307832 -0.03634082 0.10667394 -0.0504203 -0.049832072 -0.010806095 -0.07633109
0.0243754 0.07043917 -0.09665981 -0.048926897 0.06974849 0.072018325 -0.067632966 -0.028083513
0.0566389 0.15281002 -0.012133133 -0.032217015 0.03942469 0.029160617 0.094796136 0.00026780012
-0.009710452 -0.025345884 -0.03396522 -0.09084094 0.084365316 0.121585235 0.058035582 -0.005870678
-0.058893707 -0.1358119 -0.00913589 0.08488899 0.007009471 -0.0156100765 0.009903557 0.027073383
-0.051519103 -0.019149568 -0.03556694 0.03033346 -0.02141638 0.08034504 0.047340475 -0.115332104
-0.028765736 -0.011840939 0.013201524 0.07552049 -0.084088154 -0.08004901 -0.007966395 -0.006821424
0.061364535 -0.04620621 -0.051245674 -0.0413166 0.02532314 0.056222986 0.026724327 0.04179911
-0.035004318 0.017530503 0.08066525 0.04828721 0.068736896 0.05282516 0.009528279 0.025649814
00000000: 15d2 4d3d be9f 45bc be23 8bbd 1e32 84bd
00000010: 2aae b8bc dc5a e43d a836 64bd f65a 493d
00000020: 3896 e5bd f150 78bd c8b7 ae3c d305 0e3d
00000030: 6115 a3bd 2d72 5dbb 4409 87bc 8aae 09be
00000040: 04c9 873d c695 723d 53ea dcbd 013d e3bd
00000050: 1d69 f5bc 6ad4 48bd 3e15 143d 1162 af3d
00000060: 023a 1bbd f9d7 753d 1b1d b6bc db37 10bd
00000070: f8e1 5cbc be9d b4bd 7437 95bd 9958 e2bc
00000080: 57fd 4e3d 8ce7 88bd 4c2a 4cbb dd1f 8d3d
00000090: e1bd 13bd ba40 d3bd d0dc 14bd 2100 ccbd
000000a0: 40ce 583c 6bad 253d 8044 0fbd 899f 07bd
000000b0: da48 70bc 7cef 2b3d 2592 6dbc 7bcd 12bd
000000c0: 144a eb3c fac3 2a3d 7785 193e 53e1 8b3d
000000d0: 8b89 e2bb c53c bc3d 39aa 233c b907 6e3d
000000e0: ed68 ef3c 3a61 073d 6cae 4dbd e50c 163e
000000f0: bbb9 a43d a036 323c 5e45 1a3d 7557 87bc
00000100: f7c0 8ebd 79b1 0b3e f015 c5bd 073e debd
00000110: 47d0 d9bc 5d5b e6bd 6999 a13d a7e1 e33c
00000120: efb5 89bd 8f45 ba3d c43b 63bd b194 143e
00000130: 2ee8 a83c 7418 f5bc a68a 5abd 13c6 ecbb
00000140: 54f8 233c 0b0e c8bd 64c6 08be aae2 81ba
00000150: 67c9 863d 4139 81bc bc5d 9f3c ece7 e2bd
00000160: 4eb7 d4bd c8d9 bcbd 83fb cdbd 646b 663d
00000170: 8f00 643d 1482 9fbd 292e c6bd 10ce 343b
00000180: 3904 963d f983 1d3d 3ed8 c5bc beb8 3e3d
00000190: b5f7 0fbe 5921 73bd 959a 59bd 4a2d 9f3d
000001a0: 2600 aa3c daf5 07bd 2dc6 9d3b 5ab2 9c3c
000001b0: 0ac6 8fbc e1fe d3ba 5b0a edbc 5437 523d
000001c0: db4a db3d 5169 c83d 75dc 8b3d 58f3 bc3c
000001d0: d009 4ebd 7053 5fbd 0d39 85bd 5ce7 2d3d
000001e0: 8222 a63b d961 8dbd 471e dbbc 05ab fabc
000001f0: 8498 ae3d 9255 493c 4a0b 18bb 646b cf3d
00000200: 68c9 9f3d d999 79bd 4456 653d 3df0 1e3c
00000210: 75f7 dd3c c6f7 0c3c a8c1 8b3d 09db 933d
00000220: 6b6e 993c 71d6 acba 1ee4 afbc d562 2d3b
00000230: 03ee c2bd 486c 44bd 7d80 693d 881a 2abc
00000240: 4c2b 75bb dde1 aa3c d9d7 933c 46e7 cfbc
00000250: 9232 e33c 96a7 9dbd a2d4 a5bd 38e0 ee3c
00000260: 444b 83bd cf7b 493d 62bb 543d aec9 e83d
00000270: 737e 9c3d 7dd6 123c cb53 2cbd 9424 55bd
00000280: e2a7 5abd 4320 bb3d 98df 023d 22d4 413d
00000290: b429 86bd c1c4 883d ff31 37bc be2b 8abc
000002a0: 1ebd 84bd 07e0 3f3d 2a02 4f3c e5b8 edbb
000002b0: e0c5 3d3d 6075 793d e9d6 993c 0307 8d3d
000002c0: 0ebe 45bd 675d 1b3c df30 73bd f917 54bc
000002d0: 9136 233d c0db d03c 4d07 05be 0825 bf3d
000002e0: 7628 923d 5f52 cfbc 1dda 14bd de77 da3d
000002f0: 8485 4ebd b71c 4cbd 0c0c 31bc 7953 9cbd
00000300: ebae c73c 6942 903d 94f5 c5bd 9267 48bd
00000310: 4cd8 8e3d 587e 933d 2783 8abd 650f e6bc
00000320: 31fe 673d 3b7a 1c3e 0cca 46bc fdf5 03bd
00000330: c97b 213d 3fe2 ee3c 7a24 c23d 8667 8c39
00000340: 9618 1fbc 2ca2 cfbc 1d1f 0bbd d10a babd
00000350: b9c7 ac3d ae01 f93d b8b6 6d3d d15e c0bb
00000360: 873a 71bd 4612 0bbe b3ae 15bc 47da ad3d
00000370: b4af e53b 68c1 7fbc 8742 223c 00c9 dd3c
00000380: b205 53bd 8edf 9cbc a4ae 11bd e07d f83c
00000390: 6771 afbc f18b a43d 16e8 413d 3d33 ecbd
000003a0: 1fa6 ebbc 7f00 42bc 344b 583c 7daa 9a3d
000003b0: 6936 acbd bcf0 a3bd 7b85 02bc 4086 dfbb
000003c0: 6159 7b3d b942 3dbd fce6 51bd 983b 29bd
000003d0: 7972 cf3c 134a 663d faec da3c 8b35 2b3d
000003e0: b060 0fbd 219c 8f3c d333 a53d cfc8 453d
000003f0: eec5 8c3d 325f 583d 801c 1c3c 8f1f d23c

bias f4 [128]
-0.00781399 -0.039261978 -0.051772892 0.044611324 -0.05227664 0.06998961 -0.06639905 0.034938
-0.10880242 0.018406076 -0.00351874 -0.020229027 -0.07515053 0.10183865 0.024064362 0.04370313
-0.042382114 -0.11265568 -0.0028391252 -0.08365806 0.031631418 -0.06835242 -0.032945566 -0.06687167
-0.049518462 -0.059993073 -0.083319664 -0.10924168 -0.053922206 0.03711915 0.007304199 0.03930547
-0.029098988 -0.012395574 0.06445884 -0.10073225 -0.014828132 -0.08160365 -0.04286991 -0.03392407
-0.13973692 -0.00486027 -0.0008672235 0.049561266 -0.0019339786 0.06350543 -0.048328154 0.09998332
-0.056885574 0.030103575 0.08617585 -0.074588954 -0.06613117 0.06642856 0.08024105 -0.077368714
0.10558086 -0.013575608 -0.09047868 0.06712215 0.07890397 -0.013921007 -0.029404169 0.04984101
0.075414784 -0.05091642 0.024233934 0.12777531 -0.0336063 -0.056899462 -0.08063133 0.044239663
0.023698771 -0.08616932 0.0009829956 -0.0051829657 -0.12531795 0.067511655 -0.13072108 -0.040444653
0.103090756 -0.0005291947 -0.102736 -0.0745206 -0.08588213 0.026210325 0.044711895 0.009891181
0.051874314 -0.12577197 0.0481922 -0.0800134 0.0391816 0.0144697 0.036965456 -0.058898736
-0.013761312 -0.09344132 -0.063033715 -0.089244775 0.038577758 -0.07446701 -0.08666069 -0.18506451
-0.0715826 0.028366726 0.058692306 -0.10752495 -0.07937818 -0.08351218 0.026023256 -0.086933434
0.03287321 -0.06922153 -0.0008186277 -0.022524472 0.02539987 0.014690967 0.07439674 -0.03382712
-0.0048889047 0.06065603 0.120666444 -0.0607999 -0.01984596 -0.09713512 -0.020807063 -0.07112464
00000000: 4006 00bc 2bd1 20bd d00f 54bd 5dba 363d
00000010: 0820 56bd b656 8f3d 3afc 87bd 261b 0f3d
00000020: ced3 debd 57c8 963c a99a 66bb 58b7 a5bc
00000030: 85e8 99bd c890 d03d a022 c53c 0e02 333d
00000040: de98 2dbd 05b8 e6bd 9e10 3abb eb54 abbd
00000050: f28f 013d 5bfc 8bbd eef1 06bd 04f4 88bd
00000060: dfd3 4abd 4cbb 75bd 80a3 aabd 1aba dfbd
00000070: 88dd 5cbd 400a 183d 1058 ef3b c6fe 203d
00000080: 0061 eebc ce16 4bbc ff02 843d b64c cebd
00000090: b2f1 72bc d01f a7bd 5c98 2fbd f7f3 0abd
000000a0: 3217 0fbe e642 9fbb 6256 63ba c100 4b3d
000000b0: 8e7d fdba 230f 823d bef3 45bd 0ec4 cc3d
000000c0: d900 69bd c69b f63c f77c b03d 18c2 98bd
000000d0: c76f 87bd b20b 883d 6b55 a43d 7d73 9ebd
000000e0: c73a d83d 3a6c 5ebc e34c b9bd 5677 893d
000000f0: 6898 a13d ef14 64bc 03e1 f0bc 1626 4c3d
00000100: 1173 9a3d bc8d 50bd 3e86 c63c 88d7 023e
00000110: c2a6 09bd 690f 69bd 0a22 a5bd a634 353d
00000120: ed23 c23c 8a79 b0bd dcd7 803a ded5 a9bb
00000130: 5953 00be 8d43 8a3d bfdb 05be 4ba9 25bd
00000140: 3f21 d33d a8b9 0aba 4167 d2bd 429e 98bd
00000150: f8e2 afbd 09b7 d63c d223 373d 9f0e 223c
00000160: 297a 543d 5eca 00be 2f65 453d 11de a3bd
00000170: e37c 203d 5212 6d3c 1769 173d cd3f 71bd
00000180: 2077 61bc 2a5e bfbd d217 81bd f7c5 b6bd
00000190: b603 1e3d 2982 98bd 297b b1bd 8d81 3dbe
000001a0: e699 92bd 5661 e83c 5867 703d 0a36 dcbd
000001b0: 0791 a2bd 6f08 abbd b92e d53c 280a b2bd
000001c0: 0fa6 063d 04c4 8dbd 2d99 56ba 3e85 b8bc
000001d0: 6313 d03c 62b2 703c 515d 983d 4e8e 0abd
000001e0: 1b33 a0bb 7572 783d f81f f73d 5109 79bd
000001f0: ff93 a2bc c7ee c6bd 9373 aabc cca9 91bd

weight f4 [128, 128]
-0.09162534 0.018799743 -0.06523918 0.044569883 0.029486144 -0.023727616 -0.034302436 -0.15036942
0.1465577 -0.06004812 -0.0042219665 0.05090913 0.012639513 -0.01720434 0.03535527 -0.030760113
-0.037612602 0.023636665 -0.024817504 -0.08221031 -0.13312505 -0.027402602 0.047399558 0.08693451
-0.023014944 0.05957746 0.05399861 0.045104984 -0.0027320192 0.028564986 0.07259359 -0.13974085
0.03093977 0.037646007 -0.015768738 -0.0140026 0.08298257 -0.0038640846 0.046497863 0.0017023137
0.101890214 -0.0036940128 0.03561778 -0.11381773 -0.00987231 0.06667196 -0.0053061415 -0.041443583
0.12411958 -0.027892357 -0.07139008 -0.008274354 0.054957557 -0.15160447 -0.12107344 0.012905449
-0.10747463 -0.008974729 0.05998004 -0.015961997 0.038820326 -0.023146674 -0.10504409 -0.14217995
0.01967195 0.014390281 0.064852774 -0.054615963 0.05094026 -0.038075395 0.03655183 0.109439544
-0.04479038 0.102444746 -0.02224449 0.060086593 -0.008576846 -0.054116 -0.057272866 -0.019295614
-0.1366879 -0.10346232 0.002661288 0.008649523 -0.03970396 0.04267613 -0.025475344 -0.05486004
0.011398653 0.09387387 -0.017975675 -0.024255041 -0.10551518 0.1126186 0.025368392 -0.032872178
-0.0069802087 0.0665063 -0.069234475 0.017489959 -0.05960294 0.16116081 -0.07487948 -0.0032138925
0.06302416 0.008477494 -0.12382466 -0.013037326 0.15963049 -0.030578295 -0.15408261 -0.03243949
0.011625795 -0.029312523 0.03849701 0.05166992 -0.09632699 0.07211686 0.0025206478 0.020050427
0.06479695 0.028481564 -0.07641543 0.108771555 0.07380817 -0.00710145 0.024883395 0.042698063
0.040659077 0.050922055 -0.062267985 -0.039941967 -0.0637465 0.0601665 0.053636692 0.055818915
0.019397158 -0.014613213 -0.046150886 -0.008310934 -0.039435145 0.041499484 0.033447094 0.06172697
-0.019933406 -0.05554763 0.027007543 -0.025934013 0.09755718 0.09374757 -0.046959754 -0.091772884
-0.018307373 0.0020898187 -0.07104486 -0.011949594 -0.050443232 0.012153209 0.039925724 -0.05110402
0.08628038 0.024646632 0.019251905 0.034499146 0.0007828897 0.040525414 0.04538502 0.06445709
-0.029691778 -0.077222444 -0.1030481 -0.023358695 0.04398679 0.03319203 0.019385878 -0.020645438
0.03677789 0.084366545 0.08531684 -0.047655355 -0.04481278 0.08733397 0.09793027 -0.03499798
0.072186664 0.009611042 -0.06833585 0.07184676 -0.031175045 0.07955727 0.022771493 -0.07359601
-0.01741625 -0.073220566 0.0014661619 -0.0014795121 0.05294647 -0.023897933 -0.0040555983 0.039114017
-0.049395274 -0.0832941 0.087453745 0.07840601 0.039119896 0.005745309 -0.007086694 -0.0760649
0.034512095 -0.0017588158 -0.05887609 0.012612302 -0.08379045 -0.029996412 -0.027933532 -0.06933257
-0.038884405 -0.100490384 0.08194294 0.040896695 0.08175471 -0.08148287 -0.068841256 0.04561293
0.060372345 0.00050143385 -0.08455713 -0.053490974 0.09063983 -0.10990857 0.061294395 -0.0013534938
-0.0005355593 0.027618125 -0.0015027792 -0.021719327 -0.102876365 0.06232436 0.03693549 0.05896325
-0.04286968 -0.043955144 0.0685062 -0.0845378 0.07264501 -0.004365677 0.05260985 0.026871515
-0.074248455 -0.018145071 -0.015001059 -0.05324695 -0.04383575 0.006984429 0.06728564 -0.071149066
00000000: 11a6 bbbd eb01 9a3c 1f9c 85bd e98e 363d
00000010: ed8c f13c 6b60 c2bc b680 0cbd 71fa 19be
00000020: 3913 163e 04f5 75bd 6c58 8abb 1886 503d
00000030: f615 4f3c 1ef0 8cbc b0d0 103d a2fc fbbc
00000040: ac0f 1abd aea1 c13c 144e cbbc e15d a8bd
00000050: ef51 08be 6c7b e0bc 0a26 423d b80a b23d
00000060: d689 bcbc 7f07 743d a52d 5d3d 01c0 383d
00000070: ad0b 33bb 1e01 ea3c f3ab 943d 3a18 0fbe
00000080: 6775 fd3c b332 1a3d 712d 81bc 296b 65bc
00000090: c4f2 a93d 953c 7dbb 8b74 3e3d 2b20 df3a
000000a0: d1ab d03d 4017 72bb f3e3 113d 4519 e9bd
000000b0: 78bf 21bc 4f8b 883d 24df adbb bfc0 29bd
000000c0: 6832 fe3d 837e e4bc f634 92bd 2891 07bc
000000d0: 2d1b 613d 343e 1bbe 5af5 f7bd 6071 533c
000000e0: a91b dcbd be0a 13bc a1ad 753d bcc2 82bc
000000f0: 1002 1f3d 189e bdbc 5b21 d7bd 9f97 11be
00000100: 1227 a13c 37c5 6b3c 88d1 843d fdb4 5fbd
00000110: bca6 503d f2f4 1bbd 5fb7 153d d721 e03d
00000120: 1e76 37bd 8dce d13d 143a b6bc 5c1d 763d
00000130: e685 0cbc bda8 5dbd f496 6abd d611 9ebc
00000140: eaf7 0bbe 0ee4 d3bd 0169 2e3b bbb6 0d3c
00000150: 9fa0 22bd 2acd 2e3d abb1 d0bc ecb4 60bd
00000160: 6ac1 3a3c f240 c03d b941 93bc 82b2 c6bc
00000170: 5818 d8bd 95a4 e63d 60d1 cf3c faa4 06bd
00000180: 3cba e4bb 7434 883d ceca 8dbd 1a47 8f3c
00000190: 3622 74bd 5707 253e 6a5a 99bd 2ba0 52bb
000001a0: d012 813d 30e5 0a3c c997 fdbd 829a 55bc
000001b0: 2d76 233e 557f fabc d5c7 1dbe 45df 04bd
000001c0: 1e7a 3e3c d120 f0bc 0aaf 1d3d d7a3 533d
000001d0: 1647 c5bd 01b2 933d 7431 253b cb40 a43c
000001e0: 43b4 843d 2b52 e93c b17f 9cbd 9fc3 de3d
000001f0: bd28 973d 48b3 e8bb 43d8 cb3c 2ae4 2e3d
00000200: 228a 263d a593 503d b70c 7fbd 309a 23bd
00000210: 868d 82bd 2671 763d 26b2 5b3d 60a2 643d
00000220: cae6 9e3c 426c 6fbc b608 3dbd 952a 08bc
00000230: bf86 21bd 5dfb 293d d2ff 083d 6bd5 7c3d
00000240: 624b a3bc e985 63bd ec3e dd3c 9173 d4bc
00000250: 0fcc c73d bafe bf3d df58 40bd 6cf3 bbbd
00000260: 58f9 95bc 57f5 083b f87f 91bd 3bc8 43bc
00000270: 909d 4ebd 411e 473c 2889 233d 7352 51bd
00000280: c5b3 b03d bce7 c93c 2cb6 9d3c fa4e 0d3d
00000290: d73a 4d3a fafd 253d a5e5 393d 1402 843d
000002a0: 2c3c f3bc cd26 9ebd e20a d3bd bc5a bfbc
000002b0: 7e2b 343d 5ef4 073d 22cf 9e3c 9f20 a9bc
000002c0: 6aa4 163d 5ec8 ac3d 98ba ae3d 4332 43bd
000002d0: 9b8d 37bd 27dc b23d aa8f c83d 0b5a 0fbd
000002e0: 9ad6 933d a277 1d3c abf3 8bbd 6524 933d
000002f0: cf62 ffbc ecee a23d 488b ba3c 81b9 96bd
00000300: 86ac 8ebc aaf4 95bd 3b2c c03a 30ec c1ba
00000310: 66de 583d 99c5 c3bc d3e4 84bb 0536 203d
00000320: b352 4abd 1996 aabd f31a b33d 5593 a03d
00000330: 2f3c 203d 2543 bc3b 7f37 e8bb eac7 9bbd
00000340: 8e5c 0d3d 1188 e6ba 0e28 71bd d4a3 4e3c
00000350: 549a abbd 09bb f5bc ddd4 e4bc 3cfe 8dbd
00000360: 4145 1fbd e7cd cdbd b3d1 a73d 4b83 273d
00000370: 036f a73d 7ee0 a6bd a5fc 8cbd a0d4 3a3d
00000380: fe48 773d a872 033a 4a2c adbd 5a19 5bbd
00000390: 60a1 b93d bf17 e1bd d50f 7b3d b767 b1ba
000003a0: c764 0cba 683f e23c e7f8 c4ba bbec b1bc
000003b0: d8b0 d2bd d447 7f3d ab49 173d 7383 713d
000003c0: 1e98 2fbd 4f0a 34bd fb4c 8c3d 2722 adbd
000003d0: e8c6 943d f40d 8fbb 6d7d 573d a721 dc3c
000003e0: 930f 98bd f9a4 94bc 00c7 75bc 7919 5abd
000003f0: 1e8d 33bd a3dd e43b 0ecd 893d 9ab6 91bd

bias f4 [128]
-0.05649551 0.10017069 -0.06779802 -0.08122731 -0.06211126 -0.032950174 -0.10236566 0.044564944
-0.16011734 -0.035850607 -0.061581217 0.022917064 -0.07177734 -0.05129512 0.0390882 -0.07046694
-0.12453074 0.074848 -0.0593536 -0.08404316 -0.051231317 -0.12630136 -0.02381782 -0.06182215
-0.03690607 0.07355351 -0.112380594 0.0161022 -0.010186586 0.025452849 -0.11781989 -0.09355509
0.06455083 -0.08273411 -0.05137856 0.034248956 -0.025569793 0.05847502 -0.07173712 -0.08319286
0.062387384 0.039661307 -0.11169208 -0.10150444 0.024938382 -0.1073449 -0.0841422 0.0540629
0.08399341 -0.12901373 -0.045835827 0.07762937 -0.03445288 -0.026975447 -0.107732184 -0.15049723
-0.10329345 -0.018884713 0.006664994 0.03515045 -0.0057907626 0.16652867 -0.0022702084 -0.1365289
-0.14378172 0.047576826 -0.084447354 -0.1283295 -0.13317823 0.028375944 -0.13914144 -0.1442081
0.1242879 -0.039315 -0.14838916 0.055917524 -0.014329147 -0.09881506 0.085831426 -0.013520616
-0.014003755 -0.045376398 0.021200137 -0.022839373 0.03131496 -0.10963539 -0.063180424 -0.002332242
0.02511748 -0.11130072 0.03425305 -0.033814363 -0.10204388 0.0064098034 0.024839332 -0.011147428
0.05118404 -0.14030245 -0.016788056 0.005108239 -0.06223896 -0.106167905 0.05261733 0.049198117
0.05991239 0.10426049 -0.044618633 -0.049897667 0.00021327658 -0.060082898 -0.061122537 0.0999254
0.0065988596 -0.04478357 0.06193932 -0.111233234 0.044242445 -0.117072865 -0.0035159949 -0.04691206
-0.027786102 -0.008679584 -0.029191481 -0.119343445 -0.088495426 -0.05660961 -0.063448176 -0.11378426
00000000: d667 67bd 4a26 cd3d b0d9 8abd 815a a6bd
00000010: 6068 7ebd c3f6 06bd 16a5 d1bd bb89 363d
00000020: cdf5 23be 16d8 12bd 963c 7cbd 91bc bb3c
00000030: ffff 92bd d51a 52bd f31a 203d f950 90bd
00000040: f909 ffbd e949 993d c31c 73bd d21e acbd
00000050: eed7 51bd 2555 01be 971d c3bc 3939 7dbd
00000060: d22a 17bd 39a3 963d cc27 e6bd c3e8 833c
00000070: a3e5 26bc 7e82 d03c 8e4b f1bd d099 bfbd
00000080: 3a33 843d 8070 a9bd 5372 52bd a248 0c3d
00000090: be77 d1bc 8183 6f3d e9ea 92bd 0561 aabd
000000a0: ea89 7f3d e573 223d d1be e4bd 8fe1 cfbd
000000b0: 944b cc3c a5d7 dbbd bf52 acbd 0f71 5d3d
000000c0: bd04 ac3d 2d1c 04be 59be 3bbd 26fc 9e3d
000000d0: 771e 0dbd 9dfb dcbc b1a2 dcbd f21b 1abe
000000e0: 848b d3bd 1db4 9abc 0666 da3b ebf9 0f3d
000000f0: 70c0 bdbb 7e86 2a3e c7c7 14bb 3bce 0bbe
00000100: 843b 13be ebdf 423d bcf2 acbd cf68 03be
00000110: e05f 08be ab74 e83c 187b 0ebe 4aab 13be
00000120: a88a fe3d c408 21bd 54f3 17be c609 653d
00000130: ccc4 6abc 8d5f cabd 63c8 af3d 9385 5dbc
00000140: 0170 65bc 9adc 39bd e9ab ad3c a319 bbbc
00000150: 1e44 003d 8588 e0bd bd64 81bd 87d8 18bb
00000160: 2cc3 cd3c a2f1 e3bd ed4c 0c3d ee80 0abd
00000170: 62fc d0bd 5409 d23b db7b cb3c b4a3 36bc
00000180: 5ba6 513d 72ab 0fbe 1b87 89bc 0463 a73b
00000190: 48ee 7ebd 8f6e d9bd 4585 573d f783 493d
000001a0: b266 753d 8686 d53d 07c2 36bd 7f61 4cbd
000001b0: ffa2 5f39 7c19 76bd a05b 7abd b0a5 cc3d
000001c0: 3f3b d83b fa6e 37bd 16b4 7d3d 40ce e3bd
000001d0: 9137 353d e6c3 efbd 9b6c 66bb dc26 40bd
000001e0: ae9f e3bc d034 0ebc f922 efbc 566a f4bd
000001f0: 173d b5bd 7adf 67bd 1ef1 81bd b907 e9bd
