results/model/data_aug_588.model (torch, 686563 bytes, 21 tensors)

weight_ih f4 [384, 5]
00000000: 937a 60bd c62a 0abe d34c 8dbd 5e47 6a3d
00000010: 627b 083c e266 053e 0cab 8a3d 03ef 8fbd
00000020: 6048 99bc 2c89 a43e 4ab3 5a3d e1e9 033e
00000030: 4dca 673d 9ae8 2dbd 15a7 c43b 1627 73bb
00000040: eb79 1a3e 9b4c ca3d f8f6 393e 21b7 91bd
00000050: 9614 5ebd 565f f9bc 6baa bfbd e6a2 b43c
00000060: 6f78 103e f7e4 5cbe c8d0 68bc a8d7 9ebd
00000070: 1d94 ef3c 43d5 1abe bd01 0ebd 16f3 ce3c
00000080: e6ee c03c 8d53 05be 1996 01be 73e0 91bd
00000090: 1779 183e 65a0 093c 91aa f33d 65cc b3be
000000a0: d164 aa3d bdbb 8bbd 9a91 0d3e 3aa2 f73d
000000b0: a1f0 c93c 8ff2 233d 62cc b4bd 6b76 d7bd
000000c0: 8f7b c7bd 512f 3fbd b7d0 b0bd 13c8 563b
000000d0: beae 0f3e 75ed 4a3c 2c99 e6bd 6a67 023c
000000e0: 2530 763c 32a6 323e 1314 73bd 9dc2 b53d
000000f0: 8848 87bd 5069 8a3c 45cf b03d 53cc e2bd
00000100: 3cb5 c0be 6a22 6fb9 14a1 a83d fa26 82bd
00000110: cf02 0b3d ec53 833d a956 fdbc f100 96bd
00000120: f1ab c1bd 26b4 703c 540a cf3d ae2f eebc
00000130: b598 efbc 93d5 45bd 4d8e 6fb9 1b6e dcbd
00000140: 5708 273e 6163 4bbc f04e 903c 468d a03e
00000150: d251 693d 8a07 3abe b6ac 74bd 15f8 87bd
00000160: d90e 0ebd 5dbf 313c 6cbb 503d 22ef e4bd
00000170: eaaa 99bc eea4 c2bd b02f b1bd c832 adbd
00000180: 579c 43be c61c 98bd 774d 023e be85 8b3d
00000190: 3083 2d3e 6bb2 5ebe 2065 043d b094 c53d
000001a0: 9c81 8bbe ddaf 76be 5978 c33d 7338 85bd
000001b0: 0229 24bd d1bf 00be 7a4c 9ebd be3f 9fbd
000001c0: c057 cc3a 51e4 ea3d f787 09be 626f b1be
000001d0: d6e2 08be 38a2 093d 040c b2bd 23a9 1ebf
000001e0: 7429 a53c 9881 3bbe fe51 1cbe ed81 753d
000001f0: 891a 4a3e 5f7c a7bd 1e20 d33d 6859 45bd
00000200: 5968 dcbc 53ff 983d b37f 523d f2ca ab3c
00000210: 0a1d 01be 1a1e 1a3e 817a 51be be3f ac3d
00000220: da63 0ebc c857 0e3e 06e6 ba3c 7cd2 a43d
00000230: f4fb 70bc 17f8 acbd 4d96 b83b b822 ce3c
00000240: be84 34be c13b 003e cb2b c3bc 9eba 4ebd
00000250: fa3a 223d fb48 13bd 0ca0 f3be 83fc 873e
00000260: 766e 44bd 1314 61bd f574 363e 7ebe f13b
00000270: 4a98 10be a765 aabd cd07 e5bb 849b 1b3e
00000280: 486f 71be e18a 1ebd 04d8 6cbd 3d41 8bbd
00000290: 91ef 6bbc 4fb0 273d 84bb 41bc 789b 79bc
000002a0: 8968 8c3d 07de 893c 525c 74bd 0a3a 1dbd
000002b0: a804 a3bd 7e7c 15bd 2ca3 fa3b 23fc 2dbe
000002c0: d75f 44bd cae3 c9bd a60c 7fbd 3c3a 1bbe
000002d0: e47f bfbd e75a 8d3c ced4 0bbe 9711 c9bd
000002e0: 9281 073e d058 5cbd c57c eb3c 3bce 863c
000002f0: 1d6c 8b3d 55a1 2ebc 649f 5a3d 759b 253e
00000300: 3cda 0abe 6a4d 173e 5b9f 5a3c acd8 08bc
00000310: 8f59 7dbc 535a 0a3d bd36 843d 212d 5ebd
00000320: 4495 dd3d 6d3a 723d ad65 e23c 7df8 d93d
00000330: f838 e53d a84b 8c3d 8fd5 ca3c 5a46 3cbd
00000340: 0f98 cb3d f3c1 423e 6965 18be 9b9e f6bd
00000350: b1b6 3fbd 10e1 7cbd af83 f03e df25 903c
00000360: 33de 20bd 7b28 b6bc b128 183c b564 b63d
00000370: adc6 b7bc 339b 63bb 704d 8fbd a3aa 713d
00000380: 0e4e bb3d fe51 1cbd 6243 a43d 5636 8d3d
00000390: 41b9 d43d 3c41 47bc 60eb 8fbb 3dab a13d
000003a0: 6f69 e53d 09c4 bc3d 69d8 f1bd 9516 25ba
000003b0: 0726 e43d 97c3 1f3e e5b5 67bc a22d 283e
000003c0: dffb 863c 4083 143e 18d0 dc3d 8c6f c2bd
000003d0: 5ec8 7b3e 3ae9 333c 9ffb c7bd 73bb 9dbd
000003e0: da68 c9bd 2e22 443d 7502 9dbd af79 0fbe
000003f0: fa91 5fbd fe79 c4bc 02e4 023e e9d7 19be
-0.054804396 -0.1349288 -0.06899419 0.057196967 0.008330198 0.13027528 0.06770906 -0.0702801
-0.018711269 0.32135904 0.05339364 0.12882186 0.056589413 -0.042458154 0.006001363 -0.0037102154
0.1508557 0.098778926 0.18160617 -0.07115007 -0.05421885 -0.030440968 -0.093586765 0.022050332
0.14108442 -0.21571718 -0.014209934 -0.07755977 0.02924543 -0.15120415 -0.034669627 0.025262397
0.023551416 -0.13020153 -0.12654914 -0.071228884 0.14889942 0.008400057 0.11897767 -0.35116878
0.083200105 -0.068229176 0.13825074 0.12091489 0.024650874 0.040026244 -0.088280454 -0.10520633
-0.09740364 -0.046675984 -0.08633559 0.0032773062 0.14031503 0.012385716 -0.11259684 0.007959226
0.015026127 0.17446211 -0.059345316 0.0887501 -0.06605631 0.01689592 0.086332835 -0.11074128
-0.3763827 -0.00022805636 0.08233848 -0.063550904 0.033938225 0.06412491 -0.030925112 -0.07324398
-0.09456623 0.014691388 0.10109392 -0.02907547 -0.029247621 -0.048299383 -0.00022845827 -0.107631885
0.16311775 -0.0124138305 0.017615765 0.31357783 0.056962796 -0.18166938 -0.059735022 -0.06639115
-0.03468213 0.010848847 0.05095999 -0.111784235 -0.018758256 -0.09504114 -0.08651674 -0.084569514
-0.19102608 -0.07427363 0.12724863 0.06812619 0.16944575 -0.21747749 0.032323003 0.096475005
-0.27247322 -0.24090524 0.09544439 -0.065049075 -0.04007817 -0.12573172 -0.077294305 -0.0777583
0.0015590116 0.11469329 -0.13430773 -0.3465529 -0.13367781 0.03360197 -0.08693698 -0.6197683
0.020161368 -0.18311155 -0.15265653 0.05993836 0.19736685 -0.08178019 0.1030886 -0.048180968
-0.026905226 0.07470574 0.051391315 0.020970795 -0.12608734 0.15050545 -0.20456888 0.08410595
-0.008690799 0.13900673 0.022814762 0.08047959 -0.014708508 -0.08445757 0.0056331516 0.02516304
-0.17628762 0.12522794 -0.023824593 -0.05047094 0.039607026 -0.03595827 -0.47583044 0.2655984
-0.047956906 -0.054950785 0.17818053 0.0073774448 -0.14120594 -0.0832017 -0.0069894553 0.15196043
-0.23577607 -0.038706664 -0.057823196 -0.067995526 -0.014400379 0.040939625 -0.011824492 -0.015234821
0.06855876 0.016829504 -0.059658356 -0.03838543 -0.079598725 -0.036495678 0.007648846 -0.16990714
-0.047942962 -0.098579004 -0.062267922 -0.15158933 -0.09350565 0.01725526 -0.13655397 -0.09817808
0.13233021 -0.053795636 0.028746018 0.01645576 0.0680773 -0.010658582 0.053374663 0.16172583
-0.13559812 0.14775625 0.013343657 -0.00835244 -0.015463247 0.033777546 0.06455753 -0.054242257
0.10819486 0.05913775 0.027636373 0.106430985 0.111925066 0.06850368 0.024760036 -0.04596553
0.09941112 0.19019298 -0.14882435 -0.1204197 -0.046805087 -0.061738074 0.46975467 0.017596183
-0.039274406 -0.0222361 0.009287045 0.08905927 -0.022433603 -0.0034729957 -0.06997192 0.059000622
0.09145747 -0.03816413 0.08020665 0.068951294 0.10386897 -0.012161549 -0.0043920726 0.07893989
0.112017505 0.09217078 -0.11808855 -0.00062976155 0.11140066 0.15601955 -0.014142488 0.16423658
0.016477523 0.14503193 0.10781878 -0.09493932 0.24588153 0.0109808985 -0.0976479 -0.07701769
-0.09834452 0.04788416 -0.07666484 -0.14011262 -0.054582573 -0.023983952 0.1278229 -0.1502377

weight_hh f4 [384, 128]
00000000: a4ae 2d3e 6ed7 993c 5973 6b3d 179c 923d
00000010: a7df 113e 4a03 ae3d e3e0 e33c 44f9 e4bc
00000020: 0d80 aa3d f3a1 43be 06e0 e43c 6d3e 6cbc
00000030: 9262 3c3e 4212 73bb 3ab8 59ba 4849 523d
00000040: 497a 31bd d4e1 f33d 526f b63c b490 e5bc
00000050: f7a6 e73d e7d7 b03d 11cd b13d 0e88 4fbd
00000060: 6f0e 84bd e1b9 6d3d 05de 4d3d 2d97 063e
00000070: c4db 053e ceac fcbc 9d07 133c d752 cf3c
00000080: 25f0 0e3d 8ac7 c9bd ded3 2f3e f202 28bd
00000090: 9dad c7bd ff4c 8a3d 29f7 b9ba 5d44 443d
000000a0: 0a73 debc d425 84bd fc16 263d 91f6 72bd
000000b0: 4ba0 51bd e493 503d 81ae 0b3e 716b 19be
000000c0: 83d7 97bd b039 61bd 9434 223c 5dac 0ebd
000000d0: 260b dabd dab4 023d 01b7 af3c 6c38 5f3d
000000e0: 439b f5bd d34e 01bc 6456 b2bd b9df a33d
000000f0: 5353 383b 8b78 323b c190 5bbd 51bb 013e
00000100: f0e3 dd3d c868 863c 47e2 e8bb cc87 6b3d
00000110: 42be ae3d 3439 f9bc cb07 e83d adcc 90bd
00000120: 12e3 0dbc 8713 873d c8fb 9d3d 3aa3 6fbd
00000130: 3f52 0d3e 5cfd 93bd 6e08 6c3d 6b12 90bc
00000140: db62 9e3d 98ee c03c 2e79 043d 7ec5 e93a
00000150: 3c5e c3bd 9d2e aabd 5867 dabd b463 203d
00000160: 9e59 c33c 9d4e dd3c bd17 e43c f7cf a7bd
00000170: f03e 01be 0a17 a23c 99dc 7e3d 4f6c 25bd
00000180: 3977 603b 9440 a33d 7622 ac3d 1176 bd3c
00000190: 1550 cdbc 572d e9bc 9dda 9d3d 8ebd c63d
000001a0: e40d 1f3c 5636 96bc a1fc 113e 1909 383e
000001b0: 3c4d c2bc 4b0e 94bd cfd4 84bd 54a2 fbbd
000001c0: 327e 0d3d 7c1b d2bd fa6c bebd 54f9 9a3c
000001d0: 41cc f8bd 0d66 92bb 908e 1ebd b58a c9bc
000001e0: 83e2 f33c 3b37 0abb 1daa aabd dea7 6ebd
000001f0: 0cc0 e1bd a044 0d3e d404 ed3d 33c6 663d
00000200: e9b8 d03d ed1c 42bd a076 523e 0be7 e3bc
00000210: b188 8bbb 142c e33c c292 853d 7591 9dbd
00000220: 6db4 1abe 95e0 23be 5494 60bd 1fce 883d
00000230: e2a9 183e b92a 08be 2b17 623e 2dc5 61be
00000240: d1e6 1f3b f8f9 99bc 761c cd3d 747f b13d
00000250: abd3 e8bb 5f08 e93c d392 863d a8dc 59be
00000260: 6be7 d93d d30b a13d fbc9 7cbd 21f1 e93c
00000270: 1829 4b3e 505a cb3c 8ed7 293b 3a76 9b3d
00000280: 1d79 083d cac6 de3d c3ce 613d 5bfe 6dbe
00000290: e1ae 893d cdd6 9cbd 0912 8b3d c574 153e
000002a0: 8f08 fd3d 17a9 db3c 8617 b4bd d4ff 7f3e
000002b0: 78e9 febc 804f bbbd 64ee 6a3d 2063 a53c
000002c0: 9f5c 05be df72 8abd ea9f 56be d847 ac3d
000002d0: 955b 01bd 8b56 cdbd f137 043c 2388 31be
000002e0: b5f4 803a 15e2 903b 0027 8539 8e8e 06bd
000002f0: eb7c 71bd 62cc 333d ecd4 3e3d 6d86 493e
00000300: 0d63 bebd a0fd 03bb 607c 53bd df41 50bd
00000310: d12a db3d c42e 593b 3ad0 3a3c d9af 08be
00000320: c8ef 2c3c f1e9 5c3d 1200 12bd ce61 263d
00000330: 2381 a0bd aa18 1dbe 46e3 913c 37d7 01bc
00000340: 902e b1bc b980 c13d 9cda 053e 7b84 9b3d
00000350: e5ee c13c ebc6 d33d 0b2b a43d 2d43 e33c
00000360: d803 793d 9b75 89bd 6444 9abd 24eb 4cbd
00000370: b898 713d 511e 863c a0c9 fb3c f167 0abd
00000380: b423 2d3e eb29 a0bc 0056 1f3e ef14 07be
00000390: b527 cd3c 5aeb d9bd 1107 30be f046 3a3d
000003a0: af9e 833d 1c61 ee3c 2571 003d 8402 273d
000003b0: 03a6 a83d a463 ab3d 4fe6 4c3d 3328 153a
000003c0: 2239 11bd 91d0 283e 5586 bd3d e108 d63c
000003d0: 5d28 2d3d 2e77 6cbc b95e c33d 97a1 ad3d
000003e0: 55be 92bd ea70 c2bc 013b 983d 31ab a53d
000003f0: 949b ccbc b336 663d 3c04 12bd d1aa 50be
0.16961151 0.018779483 0.05748305 0.07158678 0.14245473 0.08496721 0.027817195 -0.02795089
0.08325205 -0.19104747 0.027938854 -0.01441918 0.18396977 -0.003708974 -0.0008305345 0.051339418
-0.04332951 0.11908308 0.022269879 -0.028023101 0.11311143 0.0863493 0.086816914 -0.05066686
-0.064480655 0.058038596 0.050260562 0.13143606 0.13072115 -0.030844118 0.008973983 0.025308056
0.03489699 -0.09852512 0.17170665 -0.041018434 -0.09749911 0.06752967 -0.0014188039 0.04791676
-0.027154464 -0.06452528 0.040549263 -0.059317175 -0.051178258 0.05092229 0.13640787 -0.14982392
-0.074141525 -0.054986656 0.009900231 -0.034832347 -0.10646658 0.031910755 0.021449568 0.054497167
-0.119925044 -0.007892328 -0.08707884 0.08001656 0.0028125837 0.0027232494 -0.053604845 0.12669112
0.10834491 0.016407385 -0.0071070525 0.057502553 0.085323825 -0.030422784 0.113296114 -0.07070289
-0.008660095 0.065955214 0.07714039 -0.058505274 0.13800906 -0.07226059 0.057625227 -0.017586907
0.07733699 0.02355127 0.03234213 0.0017835347 -0.09539458 -0.08309672 -0.106642425 0.039157584
0.023846444 0.027015025 0.02784335 -0.08193963 -0.12621665 0.019786377 0.062222097 -0.040386494
0.003425075 0.07971302 0.084050104 0.023127588 -0.0250626 -0.028464003 0.07707713 0.097041234
0.009707902 -0.018336456 0.14256527 0.1797222 -0.023718469 -0.07229289 -0.064859025 -0.12286821
0.034544177 -0.102591485 -0.092981294 0.018917717 -0.12148333 -0.004467732 -0.038710177 -0.024602273
0.029771095 -0.0021090049 -0.08333228 -0.05826556 -0.11022958 0.1379571 0.115731865 0.05634136
0.10191519 -0.047390867 0.20553064 -0.02782013 -0.0042582382 0.027730979 0.065221325 -0.07693759
-0.1510789 -0.1600364 -0.054828957 0.066799395 0.14908555 -0.13297547 0.2207915 -0.22047873
0.0024399052 -0.018795952 0.10015194 0.08666888 -0.007105311 0.028446374 0.06570973 -0.2127558
0.106398426 0.078635834 -0.06171606 0.028557362 0.19839895 0.024823338 0.0025915834 0.07590909
0.033318628 0.1087776 0.055128824 -0.2324156 0.06722809 -0.076581575 0.06790549 0.14595325
0.12355148 0.026814027 -0.08793549 0.24999934 -0.031117186 -0.09146023 0.057356253 0.020188868
-0.13023613 -0.06760191 -0.2095944 0.084121406 -0.03158148 -0.100262724 0.008069978 -0.17337088
0.0009838553 0.0044214823 0.00025396794 -0.032850794 -0.05895702 0.043896087 0.046589777 0.19680186
-0.09296236 -0.0020140186 -0.051632285 -0.05084407 0.10701526 0.0033139447 0.011402184 -0.1334833
0.010555215 0.05393404 -0.0356446 0.040620618 -0.07837131 -0.1534144 0.017808568 -0.007924846
-0.021628648 0.0944838 0.13071674 0.07593628 0.023673484 0.10340675 0.08016022 0.027741993
0.06079468 -0.067118846 -0.07532576 -0.050028935 0.058983535 0.016371878 0.03073579 -0.033790532
0.16908151 -0.019551238 0.1556015 -0.1319158 0.025043348 -0.10640593 -0.17190196 0.045477808
0.06426751 0.02909904 0.031357903 0.040773883 0.08234789 0.08368614 0.050024327 0.0005689889
-0.035454877 0.16485812 0.092541374 0.02612728 0.04227482 -0.0144327115 0.09539551 0.084780864
-0.07165209 -0.023735482 0.07433129 0.08089293 -0.02497653 0.05620451 -0.03564857 -0.20377661

bias_ih f4 [384]
00000000: 2ff8 01ba 0f17 e5bd b5b8 01bd 508a 3b3e
00000010: 8e34 c73d 29ab a23d 7436 86bd 4e51 da3d
00000020: 54e6 0a3e 4ba4 c1bc 5bb0 ad3d 1916 b43c
00000030: d92a 4c3c b035 663d 19e4 cdbd 946b 2f3d
00000040: 043b 3c3e 0c58 08be 4a99 143c a5a5 d13d
00000050: 17d2 8f3d c3da 02bd 43e1 8a3d 676d 30bd
00000060: 66b0 a33d e381 a7bd d4a1 7fbc f202 d43d
00000070: b7aa e1bd ffe4 303c 25de fd3c c691 0f3d
00000080: 95fb 043d 5e60 66bc d315 65bd 4780 d4bc
00000090: cd02 9cbd d3c6 293e eff7 9c3d faf5 463d
000000a0: 1c6c 0b3d c00b bc3c e0b7 9f3d e53f 123e
000000b0: f681 9dbd 847b 263c b249 dd3c ae78 d33d
000000c0: 3d85 85bc cf05 4fbd 1adf 0c3d 4d9f 4abd
000000d0: 0858 96bc 86d5 c0bb d0e5 42bc 2ef5 08be
000000e0: 202f aebc a647 3ebe 428c a63d e640 323d
000000f0: cfd3 28bd ae2a abbd 1979 d83b 9c3c 663b
00000100: 4f63 f63d ac21 1abd 9184 e53a fc72 893d
00000110: 7bac 693c 8e45 88bc 3b90 ad3d 0d92 043e
00000120: 9dec eebc a5ba 873d 4708 d3bd e4bc ef3d
00000130: 1cf1 9dbc 62aa 80bc aab2 88bc d1b6 133c
00000140: b85d f9bd 898f d4bc 349a 343b f5cb c53d
00000150: e71d 4d3d 6a62 97bc 4ce8 fbbc 2584 13bc
00000160: 4edd 0f3e 69f5 9bbd 4aef 2d3c c1c0 e33b
00000170: cde8 803d 3918 aaba 0dfc 19bd 7862 d43d
00000180: e20b 023d 0ef4 033d 2091 8dbc bc20 ae3c
00000190: ab8b 7c3b 034d f2bd b3f9 bbbc ab34 efbd
000001a0: c84d 903d d29a 983c eb4a 71bd cdc4 08bc
000001b0: dbbf dabc f5b0 bcbc ea11 6a3d 3c3b 23bd
000001c0: f8ee f03b 8ad9 7a3d f2eb c5bb cb47 823d
000001d0: 102a 22be 9d71 203d ca4f f8bb cc45 8d3d
000001e0: 04b8 db3d 5a3f adbd 4acb bf3c ee85 873c
000001f0: 5465 84bd 5803 cb3b fce2 83bb add5 ce3d
00000200: 047b 4abd 7791 553d 4a07 c23d 3e35 24be
00000210: d9d4 c73d a066 98bd b5d0 5cbd 3d5b f03c
00000220: d197 5dbd 687f 283e 5875 003e 15db 0abe
00000230: 7195 35bc d4c4 b03d 81c6 bebb 6bb1 713d
00000240: cdac fdbc 58ef 283d 6b7a 61be dc3b e63c
00000250: a574 2ebc 97fc 51bb a5b7 d73c 7d32 13be
00000260: 33da 1cbd 3bd7 af3d ce30 23bd 1621 24bc
00000270: 0d9a ac3c 1255 efbd 310c 3fbd bb31 18be
00000280: 8783 8bbb 5c8a 0ebe ef7a 523d f8c6 f3bd
00000290: 7f67 1ebe 7df3 16bc 02e4 f9bd a815 8a3a
000002a0: 8958 7abe 3676 ccbd 25ac 353c 12e9 43bd
000002b0: 6b55 30bd 9e4e bdbc 2993 a23d 18a7 f1bc
000002c0: 03c3 093d e554 29bd ca3c 3ebc 0bb1 0b3e
000002d0: 6b94 c0bc 892e 20be 5d42 503d 4573 aebd
000002e0: 2826 12be e93e a7bc 3f4c 9d3d 979d b0bd
000002f0: 9715 a3bd 9a07 0d3c 79d4 99bd 1e45 26bd
00000300: 76f5 1a3c 0c47 10be 1945 0d3d ca57 233d
00000310: 1ef1 7bbd 7fa8 063e a120 1a3d ba3a 2bbd
00000320: 567f c0bc 96e5 d2bd 8e40 b8bd 4991 b6bd
00000330: ca96 00bd 092c 9f3d 140a f53c e7e6 c6bd
00000340: 0702 edbc e5c8 0f3e 3d12 693d d39d 863d
00000350: 2ae6 2abe 6da9 1b3e 6d5f 3d3d 07ab cbbc
00000360: 18fc f0bd 4cc0 583d 3f53 3dbd d994 9b3d
00000370: 95ab a0bd a520 33bd 244e 99bd de71 a4bc
00000380: 5ed8 5dbb db2a ae3b bc10 d73d 2a82 5b3d
00000390: e657 063c bf08 dabd ae21 20be 4fb3 2f3d
000003a0: 8669 633d 552d 90bb 94c5 f23d 8a94 d9bc
000003b0: c6e7 483c 4796 4a3d 186b 94bd cfd0 93bc
000003c0: f300 143d ac4c 9abc f99c c03c 2e96 b9bd
000003d0: d89f 9e3d 47f8 a43c 1187 fabd 8a77 8d3d
000003e0: d1d5 8bbd a7e8 c73d a647 b0bb b00e 61bd
000003f0: 7f5c 20bd 020a 1e3e c5c8 103d 49c5 2dbd
-0.0004957942 -0.11186039 -0.03167029 0.18314481 0.09726821 0.079428025 -0.06553355 0.10660039
0.13564426 -0.023637911 0.08480903 0.021983193 0.012461388 0.056203544 -0.10053272 0.042827204
0.18381888 -0.13314837 0.00906975 0.10236672 0.07022493 -0.03194691 0.067812465 -0.043073084
0.0799263 -0.08179071 -0.015602548 0.10352124 -0.110188894 0.010796784 0.030989716 0.03505113
0.03246649 -0.014061062 -0.055929016 -0.025940074 -0.07617722 0.16579752 0.07664477 0.048574425
0.034038648 0.022954822 0.07798743 0.14282186 -0.07690804 0.010161284 0.02701268 0.10325752
-0.016298885 -0.05054265 0.034392454 -0.049468327 -0.018352523 -0.005884829 -0.011895612 -0.13374779
-0.021262705 -0.18582019 0.08132221 0.043518923 -0.04121762 -0.0835775 0.006606233 0.003513134
0.1203066 -0.03762977 0.0017510821 0.06711385 0.014262314 -0.016634729 0.084747754 0.12946339
-0.02916556 0.066273965 -0.10304313 0.1170595 -0.019280009 -0.015706245 -0.016686756 0.009015755
-0.121760786 -0.02594735 0.0027557733 0.09658042 0.050077345 -0.018479545 -0.030750416 -0.009003674
0.14049265 -0.07615168 0.010616133 0.0069504683 0.06294403 -0.001297719 -0.03759389 0.10370344
0.031749614 0.03221517 -0.017281115 0.021255843 0.0038535397 -0.11831095 -0.022946214 -0.116799675
0.070460856 0.018628512 -0.058909338 -0.008347702 -0.026702812 -0.023033598 0.05714599 -0.039851412
0.007352706 0.061242618 -0.0060400898 0.0636135 -0.15836358 0.03917085 -0.007577871 0.06898078
0.107284576 -0.08459349 0.023412365 0.016543355 -0.06464639 0.006195467 -0.0040248614 0.10099349
-0.049433723 0.05214068 0.094740465 -0.16035935 0.09757394 -0.07441449 -0.053909976 0.02934038
-0.05409986 0.16454852 0.12544763 -0.13560136 -0.011082993 0.08631292 -0.0058220034 0.05900709
-0.030966187 0.04124388 -0.22019355 0.028104715 -0.010647927 -0.0032041424 0.026332686 -0.14374729
-0.03829403 0.08585974 -0.039841466 -0.010017654 0.02106955 -0.11686148 -0.046642486 -0.1486272
-0.0042576226 -0.13919967 0.05138677 -0.11903185 -0.15469168 -0.009213326 -0.12201692 0.0010535019
-0.24447836 -0.099834844 0.011088406 -0.047829695 -0.04305021 -0.023108777 0.07938225 -0.029498622
0.033633243 -0.041340727 -0.011611173 0.13641755 -0.023508271 -0.15642752 0.05084454 -0.0851808
-0.14272368 -0.02041574 0.076805584 -0.08623808 -0.07963102 0.008607769 -0.07511229 -0.04059326
0.0094579365 -0.14089602 0.034489725 0.039878644 -0.061509244 0.13150214 0.037628774 -0.041804053
-0.023498219 -0.10297696 -0.08996688 -0.0891443 -0.031393804 0.07772071 0.029912032 -0.0971201
-0.02893163 0.14041479 0.05690216 0.06573071 -0.16689363 0.1520135 0.046233583 -0.024861826
-0.11766833 0.052917764 -0.046221968 0.0759675 -0.07845227 -0.043732304 -0.07485607 -0.020073827
-0.0033850889 0.0053151674 0.10501239 0.05359093 0.008199668 -0.106461994 -0.15637848 0.04289561
0.055520557 -0.0043999352 0.11854091 -0.026560087 0.01226229 0.049459722 -0.07246989 -0.018043904
0.036133718 -0.018835388 0.02351235 -0.090618476 0.077453315 0.02013792 -0.12232793 0.06907566
-0.068278916 0.09761172 -0.005379635 -0.054945648 -0.03915071 0.15433505 0.03534772 -0.042424474

bias_hh f4 [384]
00000000: 271a 903d 424d 91bc 4b6e d53d 164b 483e
00000010: ae8f 1a3c 50a4 603d 2d29 063d 154d b23d
00000020: 4079 d13d c3ed 02be b047 8a3d afae 83bd
00000030: ad0c 8cbd b195 70bd fcc4 9ebd ebeb 043d
00000040: c557 903e 6d38 54bd 4ee5 be3c 0726 1ebc
00000050: 9c50 843d cb77 74bd 4d52 7c3d d788 a3bd
00000060: 3c32 7d3d f4a9 633b 42da 35bc 97a1 023e
00000070: 88b9 ccbd f763 db3c 9dea 563b dcb9 f5bc
00000080: 9599 403d e682 3fbc 652d 063d 1763 a1bc
00000090: 254d 7abc e314 c13d 5e34 123e eb53 35bd
000000a0: 21c8 06bc bb8e 343d b129 383d 1beb fa3c
000000b0: 5948 983d 51a3 95bb 670b e73d e3aa 853c
000000c0: 03d6 1ebe 347d 8b3c d4c2 3f3d ed64 44bd
000000d0: d257 313b a029 96bd cf07 103d 2b45 ebbd
000000e0: 1eee 093e f7e3 18bd f083 963c 6149 abbd
000000f0: 1e33 7c3b 682f 09bd 1c24 ba3d c336 9a3d
00000100: 39e5 96bb b5df 18bd 868d 7d3c 86f8 4fbd
00000110: 73e0 a3bc f12f 98bd ac3c edbb eb3c 09bc
00000120: 7e4c 5bbd 09a5 623d 6afb 393d 2970 e23d
00000130: b3f1 3f3d 700a 5ebd cc31 833d 5040 7e3b
00000140: eac2 aebd 12cd 16bd 628e c2bd e11a 13bc
00000150: c000 893d 93bb d0bd d75e 01be 5ec3 773d
00000160: 7414 993c a666 05be ad03 c3bd 8642 50bd
00000170: 4560 09bd 6a53 e03d 0ce2 953d fd30 41bc
00000180: 8c0d cdbd 27a2 833d 3e56 293d 36d7 82bd
00000190: cc5b d2bd cbae 223d f846 bc3d 0365 c13c
000001a0: 0bce 033e e509 5f3d 4abe 87bd 49b4 633c
000001b0: 34f9 cabd 885d bb3d 02cd 0c3c 6008 abbb
000001c0: 1395 143d 6098 db3c fc15 483c c69e 9a3c
000001d0: 4ae1 bdbd fd57 64bc 4440 5f3d 85ea 413d
000001e0: 60bc 183e f40c eabd 3793 76bc 1eb4 f33d
000001f0: 85be acbd cb15 a2bc e580 edbd 7e24 933c
00000200: 6e3a d83c 6a69 a2bc 799c a33d 8beb 44bd
00000210: 994c 71bd be7e 92bd a5b3 9bbd 0afd f23d
00000220: f6ae 0fbe dc98 ca3d cd6b b43c da8b abbc
00000230: 5290 4cbd 4d47 5a3d 78e3 3abd da3e 803d
00000240: 2783 c7bd 1159 0e3d 6906 a4be 3091 0dbd
00000250: d437 f53c 5556 9bbd 2f5c 0f3d 4cb3 01be
00000260: 202f b8bd 9412 03bd 8236 8dbd 08ba 19bd
00000270: 7535 f23c eaf4 2dbe 30ea f23c 1bf1 2bbd
00000280: 6ebd c3bd 1406 f4bd 511a cd3c 26c6 dfbd
00000290: eccd 06bb 0eeb b4bd 907c 2cbe a417 e1bd
000002a0: 72c1 38be 2ec2 a3bd 28f5 61bd 9887 0dbe
000002b0: 34ba 05be 17b4 46bd 2192 e1bc 6c93 4b3d
000002c0: 09f8 f03d d3a6 efbc f195 0a3d 5996 ca3c
000002d0: 8de1 2dbb 61b0 d5bd 1625 003d 7e87 e9bd
000002e0: 64bb 31bb de19 6ebd 1653 8e3d 4fcb 99bd
000002f0: 82cb 29be d92e 133b 6052 92bd 4c19 1dbd
00000300: 106d a03c 04f3 40be b6fe 69b9 5fd2 013d
00000310: 39f5 b63d 3cbe ae3d 025f febd b2da bcbd
00000320: 67ec b83d adad c4bd f488 1ebd 7d39 52be
00000330: 0582 8bbc eaf4 76bd 7c1e bc3d ca3d 2f3c
00000340: e972 743b d768 b93d 8518 6d3d d31c 4cbd
00000350: a46c 66be 7126 ba3d f6cd 59bd 1b14 c93d
00000360: ac3c f9bd 9e9f 963d 781a 0bbe 801e f13d
00000370: 32ac b0bd 5c1a 023d 9018 edbd c35b 6cbc
00000380: 1d06 a83d 91a7 d4bc 329d 0a3d 8a42 16bc
00000390: a8b0 8bbd 188e 83bd 94cb 43be 1199 dcbc
000003a0: b6f8 983c c1ed 61bd 07de a9bc e9ed 913d
000003b0: 3f0e 8f3c 857a b13d 601e 48bd a9a2 c6bb
000003c0: 7a3f 5abc 7452 cdbc 420f 593d 35ed 6dbd
000003d0: f538 413d 475f 1c3c 0f24 77bd df44 f7bc
000003e0: 5898 873c 4f41 9abb 8f1c e0bd 3337 dabd
000003f0: aed7 ff3c 64c7 a43c 38d9 3dbd 85f5 8dbc
0.07036238 -0.017737035 0.10421427 0.19559893 0.00943367 0.0548442 0.032754112 0.087061085
0.10228205 -0.12786011 0.067519546 -0.064298026 -0.06838355 -0.058736507 -0.077524155 0.03245155
0.28191963 -0.051811624 0.0233027 -0.009652621 0.064606875 -0.059684556 0.061601926 -0.079850845
0.061815485 0.003473875 -0.0110994 0.12756954 -0.09996325 0.026781065 0.003279365 -0.029995851
0.047021467 -0.011688923 0.032758135 -0.01970057 -0.015277182 0.09427812 0.14277789 -0.044269484
-0.008226425 0.04408143 0.044961635 0.030629685 0.07435674 -0.004566588 0.11281472 0.016316837
-0.15511326 0.017027475 0.046816662 -0.047947813 0.0027060402 -0.07332158 0.035163697 -0.11487802
0.13469741 -0.03732678 0.01837346 -0.08363605 0.0038482617 -0.033492476 0.090889186 0.07529976
-0.004604962 -0.03732272 0.015475636 -0.05077412 -0.020004487 -0.07431019 -0.0072398987 -0.00837634
-0.053539746 0.05533317 0.045405783 0.11056549 0.04686136 -0.054209173 0.064059824 0.0038795657
-0.08533271 -0.036816664 -0.094998136 -0.008978576 0.06689596 -0.10192027 -0.12633835 0.06048905
0.01868651 -0.13027439 -0.095221855 -0.05084469 -0.033539075 0.1095341 0.07318506 -0.011791465
-0.100123495 0.064274125 0.041342013 -0.063887045 -0.10271415 0.039717477 0.09193224 0.023607736
0.12871568 0.054452796 -0.06628092 0.013897964 -0.09910813 0.09148699 0.0085938 -0.0052195042
0.03627498 0.026806056 0.012212273 0.018874537 -0.09271486 -0.013936994 0.054504648 0.047342796
0.1491561 -0.11428252 -0.015049747 0.11899589 -0.08434776 -0.019785782 -0.1159685 0.017961737
0.026395049 -0.019825656 0.07988829 -0.048076194 -0.05891094 -0.071530804 -0.07602624 0.118646696
-0.14031586 0.09892437 0.02202406 -0.02094071 -0.049942322 0.053290654 -0.045627087 0.06261988
-0.09741812 0.03475291 -0.3203614 -0.03456229 0.029933847 -0.07584826 0.035000023 -0.12666053
-0.089933634 -0.03200014 -0.06895162 -0.03753093 0.029566506 -0.16987959 0.029652685 -0.041977983
-0.09557615 -0.11915222 0.025036963 -0.10926466 -0.0020569516 -0.088338956 -0.16844392 -0.10990837
-0.18042544 -0.07996021 -0.05516544 -0.13821256 -0.13059312 -0.04851159 -0.0275355 0.04970114
0.11766059 -0.029254353 0.0338344 0.024729894 -0.0026532144 -0.10434032 0.031285368 -0.11402796
-0.002711975 -0.058130138 0.06949441 -0.07509481 -0.16581538 0.0022458343 -0.07144618 -0.038354203
0.019583255 -0.18842703 -0.00022315499 0.031694766 0.08933491 0.08532378 -0.12420465 -0.092214
0.09029465 -0.096034385 -0.038704827 -0.20529743 -0.017029772 -0.060292162 0.09185502 0.010695884
0.0037299937 0.090532 0.05788471 -0.049832176 -0.2250238 0.09089363 -0.053174935 0.09818288
-0.12169775 0.07354663 -0.13584316 0.117733955 -0.08626594 0.03176342 -0.115769506 -0.014426175
0.08204291 -0.025958808 0.03384132 -0.009171138 -0.06820804 -0.064235866 -0.19120628 -0.026928457
0.018673282 -0.05515838 -0.020735754 0.07125456 0.017462848 0.08665947 -0.048857093 -0.006061871
-0.013320798 -0.02506373 0.052993067 -0.058087546 0.04717346 0.0095442 -0.060337123 -0.030184207
0.016552135 -0.0047074924 -0.10942947 -0.1065506 0.031230774 0.020114608 -0.046349734 -0.017328987

weight f4 [128, 128]
00000000: 6777 87bd aedf 193e d8f5 28be 1f29 103e
00000010: dde1 4d3b 19ac e13b b5d7 c73d 8e6f 2b3d
00000020: 928a b93b e718 513d b74a b83d 4c54 4e3d
00000030: 5851 8cbc 389c b8bc 9a54 20be d4bd edbd
00000040: 50b7 70bd d2ab 193d e923 b23d 4af7 a7bd
00000050: 7539 86bd 1cdc dbbd dc96 ae3c 87ac 813c
00000060: 4a4a 8b3d c5a7 07be 10e5 e43d 5cd5 7d3c
00000070: 6e05 45bd e8c3 e3bc d9c3 9bbc e3a4 afbd
00000080: f722 9ebb e48d 6b3c 802e 6c3c e6da 353e
00000090: e78c 473c f90a 5fbd 5574 a2bc d515 5dbc
000000a0: 4c9c 6e3c 0869 80bd 52b9 9cbd 7dd8 e8bd
000000b0: d07f 4e3d 6930 40bd 0ed2 e53d 0fbe abbd
000000c0: c1de c03d 92c2 e5bd c0d4 083e 8730 0fbd
000000d0: 5b18 21be fa54 3abd 1115 793d d10f 5a3e
000000e0: d952 053e 072f db3c b5ce 05be 9e5a f3bc
000000f0: 2856 363d 89b4 40bb e9d0 04bd 37a1 d93d
00000100: c409 b23d c149 ed3c 2150 acbd d673 b83d
00000110: a87c a1bd 23ae 983d 3b93 81bb 045a 97bd
00000120: 21a9 6f3d e1f4 01bd 575c c03c 198b 9dbd
00000130: 1ec4 533d f9f2 7d3d 9a03 79bd dea0 0b3e
00000140: 6ca7 263e 9c60 bbbd e858 da3c 09d5 473d
00000150: b4e3 6e3d 064c 2bbd f040 71bd 17c4 2cbe
00000160: d5ce 27bd cc91 e23d 0bec 3c3d 9963 92bc
00000170: fee5 9fbc 9a21 113e 0627 803c cb31 9fbd
00000180: 73e9 e1bd defe e33c ca37 aebd 3a9e dbbc
00000190: 32eb b5bd b7b0 dd3d c4e4 603d 5ffc c7bc
000001a0: 67b4 e13d 4c1c 163e f0a9 bf3d d4c0 84bc
000001b0: e59c 7d3d 4f9e 11be e621 023e 54fd 373c
000001c0: 3637 473e 2f05 8bbd 79f5 2ebd e3d2 e4bd
000001d0: a8b0 b73d ea74 373c e9d7 c5bd 208d d83d
000001e0: 0ec1 e4bd 5bc5 1ebe e0ee d13d 1857 d83d
000001f0: 712b 003e 4f82 36bd f103 06be 3889 093e
00000200: 01ff f03d 236e 95bd 581e 283e 1858 fe3c
00000210: 2912 1a3d c9f8 eebc b793 02bb 0e90 3b3b
00000220: 7a6b c13c f37a 38bd 5cc6 723e 9cf7 89bd
00000230: 3874 dcbd d856 063c 0e35 2e3d f622 983d
00000240: 5f50 083e 3992 9abc ffea d8bc 30e8 9fbd
00000250: 58fa e23d a986 91bd 19d9 f03d 2768 8bbd
00000260: 9f41 c5bd 10e2 0d3d cc72 e8bb 2b7c b33c
00000270: a7d2 73bd e0a3 1abd d22f 53bd 49e6 80bd
00000280: 0c61 90bd cc1c 5e3c c711 6f3b ed02 933d
00000290: dc02 edbd 1203 bc3d ac6e af3c c9f6 863c
000002a0: 4219 7d3c a14f e2bc 125b 7bbd 2dcd e53b
000002b0: cbea 203d 827c 253d bb17 68bd 084d 01be
000002c0: 4ea5 0b3d 076f c53d 99dd 5b3c 641e 02be
000002d0: f551 0b3d 97d9 ac3c ba87 b53c 0c36 203e
000002e0: a116 5ebd 87f3 64bd 2a81 48be 4a0e 5cbd
000002f0: 1b65 5e3d 1334 a4bc 9ba7 70bd eaa1 a1ba
00000300: 4360 063d 0dc9 ab3d a2c8 e4bd dbf5 60bd
00000310: d1dc 6ebd c699 bdbd 7155 14bc 7ba4 0abe
00000320: be56 003e 5e29 c83d 4a0c f9bc 68c4 25be
00000330: 17e6 bd3d eb8b e73d d121 ec3d e266 093d
00000340: 0be8 e23d 3e78 003e d2c9 113b 5ffc 703d
00000350: d638 3fbd 09c1 e8bc d2d4 543c 9cf2 d7bd
00000360: b9d2 843c ba3a 3ebd 5261 4a3d e2be ba3c
00000370: 6100 57bc 5f16 443c db92 da3d 614a 6dbd
00000380: 151c a9bd 3845 2bbb d6cc 1bbe c6ad a73d
00000390: f147 673d ccce 3c3d d0d3 773e 340d c23c
000003a0: 5479 813d dbd9 1bbd b060 883b cf06 723d
000003b0: 60d4 d3bd c465 8dbd 6f65 093e 1569 28be
000003c0: 1148 173e 8561 a9bd 71e0 1e3d e802 1bbe
000003d0: 4aa8 9b3d 1e89 793e 0d1f 203c 9f56 7abd
000003e0: 36b1 973c 1b83 2fbe c800 44bc 47e3 87bd
000003f0: 1e44 70bd b3ac 2ebe 3751 18bd 9603 8a3d
-0.06614571 0.15026733 -0.16500032 0.14078186 0.0031415143 0.0068869707 0.0975794 0.041854434
0.005662271 0.05104914 0.08998626 0.05037336 -0.017128631 -0.022535428 -0.15657273 -0.116084725
-0.05876857 0.037517376 0.086982556 -0.082014635 -0.06553928 -0.10735342 0.02131217 0.015829338
0.06801279 -0.13247593 0.11176503 0.015492763 -0.04810088 -0.027803376 -0.019014286 -0.085763715
-0.0048259455 0.014377091 0.014415383 0.17759284 0.01217959 -0.054453824 -0.019830862 -0.013493975
0.014563631 -0.06270033 -0.076525345 -0.11369417 0.05041486 -0.046921168 0.112217054 -0.0838586
0.09417487 -0.11218752 0.13362408 -0.03495839 -0.15731947 -0.045491196 0.060811106 0.21295096
0.13019885 0.026755823 -0.13067134 -0.029706296 0.04451576 -0.0029404482 -0.032425795 0.106264524
0.08693269 0.028965833 -0.08413721 0.09006469 -0.078851044 0.07455089 -0.003954319 -0.07390216
0.058510903 -0.031727675 0.023481531 -0.076925464 0.051700704 0.061999295 -0.06079445 0.13635585
0.16274804 -0.09149286 0.026653722 0.04878715 0.058322623 -0.04182055 -0.05889982 -0.16871677
-0.040968735 0.11062965 0.046123546 -0.017869757 -0.019518849 0.14172974 0.015643608 -0.07773169
-0.11030855 0.027831491 -0.08506735 -0.026808847 -0.088827506 0.10824721 0.054905668 -0.024412332
0.11020737 0.14659232 0.09358585 -0.016205229 0.061917204 -0.14220546 0.12708244 0.011229832
0.19454655 -0.06788098 -0.04271457 -0.11173036 0.089692414 0.011197308 -0.09660322 0.105737925
-0.11169635 -0.15504973 0.1025064 0.10563487 0.12516572 -0.044557866 -0.13087441 0.13431251
0.11767388 -0.072963975 0.16417825 0.031047866 0.037614975 -0.029171364 -0.001992447 0.0028619799
0.02361082 -0.04503913 0.2370848 -0.06736681 -0.107643545 0.008199416 0.042531066 0.07428543
0.13311909 -0.018868553 -0.026479242 -0.07807958 0.110829055 -0.071057625 0.11760158 -0.06806975
-0.09631657 0.034639418 -0.007093763 0.021909794 -0.059527066 -0.03775394 -0.051559277 -0.062939234
-0.0704976 0.01355667 0.0036479102 0.071782924 -0.11572811 0.09180273 0.021415077 0.016475098
0.015447916 -0.02762586 -0.06136615 0.0070129842 0.039286416 0.040401943 -0.056663256 -0.12627041
0.034093194 0.096403174 0.013419532 -0.12706906 0.034013707 0.021099849 0.022159446 0.15645617
-0.0542208 -0.05589631 -0.19580522 -0.053724565 0.05429564 -0.020044362 -0.05875359 -0.0012331579
0.032806646 0.08387957 -0.1117108 -0.054921966 -0.058316056 -0.092578456 -0.009053574 -0.13539307
0.1253309 0.09773515 -0.030401368 -0.16188204 0.09272402 0.11305984 0.115298875 0.033545382
0.11079415 0.12545869 0.0022245538 0.05883443 -0.046685062 -0.028412359 0.012990193 -0.10544321
0.016213762 -0.046442725 0.049409218 0.022796098 -0.013122649 0.011968224 0.10672542 -0.05793226
-0.08257309 -0.0026133787 -0.15214857 0.081874415 0.056465093 0.046095654 0.24201894 0.023687936
0.0632197 -0.03804956 0.0041619167 0.059088524 -0.10343242 -0.06904176 0.134176 -0.16446336
0.14773585 -0.082705535 0.038788263 -0.15137827 0.07600458 0.24368712 0.009773028 -0.061117765
0.018517118 -0.17139857 -0.011963077 -0.066351466 -0.05865871 -0.17058067 -0.037186828 0.06738965

bias f4 [128]
00000000: d0f5 6fbd 180e 003e 85f1 183e 1f17 ff3c
00000010: 6366 013c 92e9 fd3c 166a 5e3d a4d2 483d
00000020: e5b6 9b3d 137b 3abe 2031 02be 25d8 c8bd
00000030: 6bfd 2b3d a8c7 10be 88e2 b93d 67d0 03be
00000040: 6e34 c5bd aa65 243d 1b6a c23c e76e 3cbe
00000050: 3b35 b5bd 1ee0 d23d 8572 8e3d 536a 3cbe
00000060: 03c1 b3bd a48f e13d 76cc 37be b027 1dbd
00000070: 8aeb fbbd 98a5 0d3e aa85 793d 99dc a5bb
00000080: 2058 883d 423b 67be 22c0 4ebe 2d6f d83d
00000090: 9f2a fe3c 3847 a1bb 2052 36be a98f 5bbd
000000a0: a083 0bbe 4ed2 39bd 566f 1bbe 4b36 df3d
000000b0: 5dfe b5bd 517d b6bd 5ab3 6ebd 5892 e6bd
000000c0: 1a5d e23c 7d08 f2bd a40d 15be de96 cf3d
000000d0: 7138 ff3d 0e75 dabd 300a efbd a5ac 0f3e
000000e0: 92d9 4f3d 0e8d 353d 7ca7 9dbd d1a8 f43c
000000f0: 820d f9bc b574 23be 27d9 dabd 4b5e 00be
00000100: eb4f fdbd 206b 1dbe 23f3 9abd 1e1a 82bc
00000110: af66 c4bd 7ee0 323d 7fce 05be 8d60 c93c
00000120: e6a9 443c 942d ed3d 1fd7 bd3c aa7e 453d
00000130: 6508 df3c ab25 a7ba d584 c0bc d53d 303d
00000140: f75f af3d dbb9 fdbd 9c98 d0bd 424d 35bd
00000150: e6b3 20be 6867 8b3d de82 27be b461 a9bc
00000160: 5817 c6bd e3fb d0bd 461d 83bd d5cb 36be
00000170: 5a91 c73d 5c06 73bd 3b59 873c 9f3f 32be
00000180: 040a d33d ed26 babd 47e1 b33d 42a4 37be
00000190: 58f7 9f3d 5949 8f3d fcee 4abe 192a 8f3c
000001a0: b77f 8c3d 0e09 26be b282 19be aad7 ac3d
000001b0: bb16 7fbd c7c3 3ebe c097 1dbe 327a 993c
000001c0: 7b6f 96bd 1660 e4bd 2d8e e8bd ca3b a0bb
000001d0: 221b 25be 70e8 02be 1814 e8bc a449 8b3d
000001e0: 6ee5 ec3d 7414 99bd 5dc3 7bbd 3667 89bd
000001f0: 84f5 8f3d 15b2 a53b 9236 123e 8af1 e23d
-0.058584034 0.12505376 0.14935882 0.031138955 0.007897946 0.030995164 0.05430039 0.049029008
0.07603244 -0.18211012 -0.12714052 -0.09806851 0.041989725 -0.14138663 0.090764105 -0.12872468
-0.09629141 0.040136017 0.023732236 -0.18401681 -0.088480435 0.10296653 0.069554366 -0.18399934
-0.087770484 0.110137254 -0.1794909 -0.038367927 -0.12300785 0.138327 0.060918488 -0.0050616977
0.066574335 -0.22581199 -0.2019048 0.1056808 0.031026183 -0.00492182 -0.17804766 -0.053603802
-0.1362443 -0.045366578 -0.1517919 0.108990274 -0.088864066 -0.08910621 -0.05827651 -0.112583816
0.027632285 -0.11818025 -0.14555985 0.101361975 0.12461937 -0.10666858 -0.11671865 0.14030702
0.0507446 0.044323973 -0.07697961 0.029865654 -0.030401949 -0.15962489 -0.1068595 -0.1253597
-0.12368759 -0.15372896 -0.07565906 -0.015881594 -0.09589898 0.043671124 -0.13067053 0.024582172
0.012003398 0.11580959 0.023173867 0.0482165 0.027225683 -0.0012752315 -0.02350084 0.043027718
0.08563226 -0.12388965 -0.10185358 -0.044263132 -0.15693626 0.068068326 -0.16358516 -0.020676471
-0.09672421 -0.102042936 -0.06402068 -0.17851193 0.097445205 -0.059332237 0.01652204 -0.17407082
0.10304645 -0.09089456 0.087832026 -0.17933753 0.07810849 0.06996412 -0.19817728 0.017476128
0.06860297 -0.16214392 -0.14991263 0.08439572 -0.062277537 -0.1862937 -0.1538992 0.018735025
-0.07345482 -0.111511394 -0.11355243 -0.00488994 -0.16123632 -0.1278398 -0.028329894 0.06801155
0.11567198 -0.07474604 -0.06146561 -0.06709139 0.0702925 0.0050566294 0.1427863 0.11081226

weight f4 [128, 128]
00000000: 9dc7 e7bb 8da5 0cbd a5f9 953c 99ce cabc
00000010: 0413 5ebd 85cd 853d a3cd f33d 1f63 5b3c
00000020: e2b9 c13d 6e83 0b3b 5c91 323c e1b3 27bd
00000030: 53c3 e8bc 89ee 0ebd 39c4 a4bd 4d5e 853d
00000040: 0d8d 74bc 355b ac3d b559 443d 7fbd fb3c
00000050: b1b6 22bb 64c1 163c 97e0 cc3c b58f 8d3d
00000060: b42b 8a3d 2c23 243c 01e9 083d 11e0 f4bc
00000070: dd3b 303d ddcf f73c 3467 b03c 948f 0a3c
00000080: d92b acbd 407e 7a3d a5da 923c 957c c13c
00000090: 06fb 0a3c b571 003e 7ce7 d23d 30c5 de3c
000000a0: 13ec 993d e1d6 413d a12a 1f3d 0b0f 7dbd
000000b0: 2dcb 903d c8de a03c d037 80bc 3f92 bfbd
000000c0: 26ed b1bd ab18 183d 0d21 703d ac57 f83c
000000d0: 388e 09bd ad04 08bc 8c92 933d c8dd b03d
000000e0: cb52 0abe f932 203d 5c77 e63d 3d1d 1c3d
000000f0: 93b4 153d e0ad bb3d 5694 8b3d bed7 883d
00000100: 8290 953d 88ca c73c 47a3 023d f1ba f03d
00000110: cd29 353d 9ef6 043c ab75 d33d 5b54 a33c
00000120: 42ee 93bd cace 953d f071 373d 2ae6 ff3c
00000130: 2e35 8ebb 7342 a6bd fd06 8ebd 3213 cd3c
00000140: 2a79 0d3c 3540 133e 90ca 333d d933 c3bd
00000150: afcd 173d 4271 c93c 7d9e 203d 7d1a 9fbd
00000160: f748 0a3d 0719 5f3d 8c13 0bbe 95df a43d
00000170: 2101 123e b118 1b3d ca59 cabd 0af0 8c3d
00000180: a09d 303d 0bac 10bc 8701 073e fd76 053d
00000190: bf8b 3fbd 83c2 683d e1d0 653c 656a d8bd
000001a0: 9ed4 dd3d 353d 103c 54e4 84bc 0afa 9bbd
000001b0: 521a 71bd 2220 d4bd 175e 7abc b592 c13c
000001c0: d789 963d e59f 5ebd 06cf 633b 4cdd 333d
000001d0: a5a3 013e e1c3 833d 1ed3 cc3c cf88 2a3d
000001e0: 3978 773c e478 ec3d 6073 7cbd 396b f6bc
000001f0: e210 e0bd 42a2 4e3c d8b4 e7bd cc12 e13c
00000200: 4055 883d f684 c6bd fa93 89bc 11db bfbd
00000210: 3735 fabd 534c eabd f52f 5aba fb0c 9dbd
00000220: f6ba 96bd 563e 73bd c499 c9bc f59b a33c
00000230: 0cc1 70bc 8cfc 083c 2f72 103d ae93 0bbd
00000240: 75a5 493d 2b09 c03d 5fb1 7fbd 1cd7 993d
00000250: 98ba bfbd 58ac acbd 9370 023c 384d 6abd
00000260: 4ced 493d 9d8d 8abb ee09 6fbd 8fea 4cbc
00000270: 00bb 22bd 2baf 1cbe dd09 84bc 1411 23bd
00000280: 3649 bbbd 5472 75bb 2791 6f3d 42cf 903d
00000290: ff4e 8fbc 7cc6 8fbd 4f81 32bc c0a3 39bd
000002a0: 1204 9a3c 85c9 493d 707d a23d f306 c43c
000002b0: 1b18 84bc c906 49bd 9426 bcbd 88e8 ffbd
000002c0: 949f 0b3c 4998 a7bc 7fbe b2bd b6d3 a03d
000002d0: e3b3 b93c a349 1d3d fdce 93bd 8f1e 0e3e
000002e0: 9a95 03be bd79 d8bd 7de4 eebc 6552 1c3d
000002f0: c33a 063d ca6a 9e3d b5ff 12bc c8a5 b73c
00000300: 2b68 b33d 3ee1 ac3d 3714 893d 389a 1abd
00000310: 791d 91bd b0ba 2fbd e2e7 49bd 622e 083c
00000320: d2fd 263d 99a9 ec3d 6e20 67bd 10d8 b2bd
00000330: 431b eebd 6f9b b6bd bde2 e2bd 4738 d4bd
00000340: c78c b73c 9424 0ebd 8f13 fdbc e2b3 223d
00000350: 1083 b8bd 9d2c 963b 1406 fdbc 5731 9bbd
00000360: 47ad 983d 45b9 c9bc 030e 5abc a724 01bd
00000370: 17f7 843d 245d 9cbd 0837 d8bc a1f5 17bd
00000380: 49de aabd 209f 64bd be94 31bd 1ac7 11be
00000390: 6ab3 91bc b1fc 6ebc ecec acbd 94e7 c5bd
000003a0: 2be8 d63c 3179 e0bd 2476 68bd 889a f4bc
000003b0: cdcd febc dd27 f6bd bdb6 753c aaf3 bc3c
000003c0: 8cd1 b7bc c781 f53c 9831 043d 675e a33d
000003d0: 72dc 153d 2887 d73c c360 563d 9b26 04bc
000003e0: 9280 77bd efed c6bd 0049 173c da51 f5bc
000003f0: f5b0 5eb6 45fa a9bd dc5d e3bc c8f8 1fbe
-0.0070733563 -0.03433757 0.018307516 -0.024756717 -0.054217353 0.0653334 0.119044565 0.0133903315
0.094592825 0.0021288055 0.010898914 -0.04094303 -0.02841345 -0.034895454 -0.08045239 0.06512127
-0.014926207 0.08415834 0.047937114 0.030730007 -0.002482813 0.009201381 0.025009437 0.069121756
0.06746617 0.010018151 0.033425335 -0.029892 0.04302584 0.030250484 0.021533586 0.008457083
-0.08406801 0.061155558 0.017926523 0.023618976 0.0084827 0.12543376 0.102980584 0.027193636
0.07515731 0.047324065 0.038859013 -0.061781924 0.07070003 0.01963748 -0.015651613 -0.09354066
-0.086878106 0.0371329 0.05862527 0.030315243 -0.033582896 -0.008301896 0.07205686 0.086360514
-0.13508146 0.03911111 0.11253235 0.03811382 0.036549162 0.091640234 0.06815402 0.066817746
0.07302953 0.024388567 0.031893995 0.11754406 0.044229317 0.008115439 0.10325178 0.019937685
-0.072231784 0.073148325 0.044786394 0.03123768 -0.0043398356 -0.08118143 -0.06934927 0.025033567
0.008634845 0.14379962 0.04389435 -0.095313735 0.03706139 0.024590138 0.039213646 -0.07768724
0.03376099 0.054467227 -0.13581675 0.080504574 0.14258243 0.037865344 -0.09880407 0.06881721
0.043119073 -0.008830081 0.13184176 0.03258418 -0.04676413 0.056826126 0.014026851 -0.10567168
0.10831569 0.008803655 -0.016222157 -0.076160505 -0.05886299 -0.10357691 -0.015281222 0.023629526
0.073505096 -0.054351706 0.0034760847 0.043912217 0.12660082 0.06433845 0.025003012 0.041634377
0.015104347 0.115464956 -0.061633468 -0.030080425 -0.1094072 0.012611927 -0.1131379 0.027474783
0.06656885 -0.09693329 -0.016794194 -0.093679555 -0.12217181 -0.11440339 -0.0008323186 -0.076684915
-0.07359879 -0.05938562 -0.024609454 0.019971827 -0.014694463 0.008360993 0.035265144 -0.034076385
0.049230058 0.09376749 -0.062425014 0.07511732 -0.09361762 -0.084313095 0.00796141 -0.057202548
0.04929857 -0.0042283074 -0.05835908 -0.012507095 -0.03972912 -0.15301196 -0.016117984 -0.03981121
-0.09144823 -0.0037452178 0.058488037 0.07070781 -0.017493723 -0.0702028 -0.010895087 -0.04532218
0.018800769 0.04926445 0.079340816 0.023929095 -0.016124776 -0.049078736 -0.09187046 -0.12495524
0.008521933 -0.020458357 -0.087277405 0.07852881 0.022668784 0.038400304 -0.07217214 0.13878845
-0.12850037 -0.10570095 -0.029161686 0.038164515 0.032770883 0.07735212 -0.008972098 0.022417918
0.08760103 0.08441399 0.06693309 -0.03774473 -0.070856996 -0.04290265 -0.049293406 0.00831184
0.040769406 0.11555786 -0.05642741 -0.08732617 -0.116262935 -0.08916365 -0.11078403 -0.103622966
0.022405995 -0.034702852 -0.030893115 0.03972233 -0.09009373 0.004582955 -0.030886687 -0.0757777
0.07454925 -0.024624476 -0.013309005 -0.031529095 0.06492441 -0.07634953 -0.026393428 -0.037099484
-0.08343179 -0.055815816 -0.043354742 -0.14236107 -0.017785747 -0.0145866135 -0.08443627 -0.09663311
0.026233753 -0.109606154 -0.056753293 -0.029858842 -0.031103993 -0.12019322 0.0149971815 0.023065407
-0.022438787 0.02996911 0.03227386 0.0797699 0.036587186 0.026309565 0.052338373 -0.008065845
-0.06042535 -0.09713351 0.009233713 -0.029946256 -3.318358e-06 -0.08299688 -0.027754717 -0.15622246

bias f4 [128]
00000000: 23eb e03b 7754 96bc 2489 7cbd 19a0 1dbe
00000010: f517 f5bd b132 2d3e 64b8 25be d07b a33d
00000020: e4f4 a43d adf3 c1bc a267 9ebd 38ab e63d
00000030: 39f8 c3bc aa96 e1bd df7c 803c 12dc 423d
00000040: 3731 6cbd ca99 85bc 98ff 893b bb8c e9bb
00000050: 8381 373d d39a d8bd fe26 96bd 59fc a63a
00000060: e1d8 0d3e ec65 113d aa1b 483d 5417 81bd
00000070: e917 45bd b69b 143d 0385 b4bd 4ab2 02be
00000080: f267 123e 25f0 033e 79c4 013e 1d16 b5bc
00000090: 7ba2 c0bd 26f8 abbd 0650 dbbd d5b1 763d
000000a0: 48c5 84bd fae0 a83c cd4f e4bd d5e5 07be
000000b0: 80b5 1dbd 604b 963b 496a 98bd 2d1a 84bd
000000c0: ba59 c6bc 5330 4f3d be88 403d da00 193e
000000d0: 12d4 b83d 7e59 00be c252 c0bc 2166 fcbd
000000e0: fde9 033e 8a02 c53c a255 05be 8b74 29bc
000000f0: 15b4 393d 2a5b 6fbc 33cf e93d 9fc2 f9bd
00000100: 29c8 b13b e4d6 e9bd b98a 09be 2258 9f3d
00000110: 36be bfbd 56d7 453c da4d d53d 435a 22be
00000120: d538 7a3c 2da4 eabd ff8c 5c3c 93f4 bb3d
00000130: 412d d1bd fab3 20be 1b09 cfbd a274 dbbc
00000140: ad04 1eb9 9557 df3b fe59 13be 0f5c 043c
00000150: a582 61bb 1c3c 433c 2497 643c 60a4 8fbc
00000160: 9f2b 4dbd ad39 0fbe ee15 19be ba84 9c3c
00000170: 32bb edbd 81b9 a43d a955 4e3d fdb3 ac3c
00000180: 6630 0a3e d014 c3bd d1fe 82bd 8611 c5bd
00000190: 0886 bcbd ad12 4b3b aa47 e5bd 91ea 8bbd
000001a0: bb7c 18be 3466 c4bd aaa4 703c 5078 4dbd
000001b0: b427 d1bd 4709 e13d 5e28 c63d 270a 583d
000001c0: 0f0f 8f3d 5f04 863d 157a a53d 6694 ef3d
000001d0: fa40 3fbd 80e1 a0bc 235b 6f3d 84b2 51bc
000001e0: ec08 d7bc 75ec a7bc a86c 643b 54d8 abbd
000001f0: 20e7 0cbe f233 493d 0b74 88bd e8c2 9dbd
0.006863968 -0.018350823 -0.061654225 -0.15393104 -0.1196746 0.16913868 -0.1618362 0.079826
0.08054522 -0.023675764 -0.0773461 0.11263126 -0.023922073 -0.11015065 0.015684543 0.047573157
-0.057664122 -0.016308684 0.0042113774 -0.007127372 0.044801246 -0.105764054 -0.07331656 0.001274
0.13852264 0.03549759 0.048854508 -0.063032776 -0.048118506 0.03628131 -0.088144325 -0.12763324
0.14297464 0.12884577 0.12672605 -0.022105271 -0.09405991 -0.0839694 -0.10708623 0.060228188
-0.06482941 0.02061509 -0.11148033 -0.13271268 -0.03850317 0.004586622 -0.07442147 -0.06450305
-0.024212707 0.050583195 0.047005408 0.14941731 0.09024824 -0.12534139 -0.023476962 -0.12324167
0.12882228 0.024049062 -0.13020948 -0.010342727 0.045337755 -0.014609138 0.11416473 -0.12195324
0.0054254723 -0.1141794 -0.13431825 0.07780482 -0.09362452 0.012075266 0.1041524 -0.15854745
0.015272339 -0.11457095 0.01346135 0.09177508 -0.102137096 -0.15693656 -0.101091586 -0.026789013
-0.00015069796 0.0068158605 -0.14389798 0.008078589 -0.0034410146 0.011916187 0.01395205 -0.017534435
-0.05009043 -0.13986845 -0.14949772 0.019106258 -0.1160797 0.080431946 0.05037466 0.021081919
0.13495025 -0.09525454 -0.063962586 -0.09622483 -0.09205252 0.0030986473 -0.111953095 -0.06831849
-0.14891331 -0.09589806 0.0146876965 -0.050163567 -0.10212651 0.10988098 0.09675668 0.052744057
0.06985294 0.065438025 0.08079926 0.11698227 -0.046692826 -0.019638777 0.058436524 -0.012798909
-0.026249371 -0.020498494 0.0034854803 -0.08390871 -0.13760042 0.049121805 -0.066627584 -0.07703191
