results/model/data_aug_544.model (torch, 686563 bytes, 21 tensors)

weight_ih f4 [384, 5]
0	0xbbf4dc19	-0.0074725267
1	0x3dd2f91f	0.10301422
2	0x3e5d0b2d	0.21586294
3	0xbdef2075	-0.116761126
4	0x3d140162	0.03613413
5	0x3dbd2fc5	0.09237627
6	0x3dfeeb20	0.1244719
7	0x3d51d4af	0.05122822
8	0x3dd43bf3	0.10362997
9	0x3ecf288b	0.4046062
10	0x3d962ba4	0.073325425
11	0x3c953335	0.018212894
12	0x3e269507	0.16267787
13	0x3e2a156d	0.16609736
14	0xbd422d43	-0.047406446
15	0x3d662efa	0.056197144
16	0x3bb00cad	0.005372605
17	0x3e387a39	0.18015374
18	0xbdd8291d	-0.10554717
19	0x3dafecdc	0.08590099
20	0x3d3dc599	0.046331022
21	0xbe546de5	-0.20745046
22	0xbd92c096	-0.07165639
23	0xbc9b199b	-0.018933108
24	0xbd829032	-0.06375159
25	0xbe850503	-0.25980386
26	0xbe8a01d7	-0.2695453
27	0x3d06b531	0.03288764
28	0x3d96896b	0.07350429
29	0xbf0b0133	-0.54298705
30	0x3de5e3f6	0.11225121
31	0xbc9ba558	-0.01899974
32	0xbd934a1e	-0.07191871
33	0x3ba2c6cc	0.004967546
34	0xbe7841ee	-0.242439
35	0x3e5f97b7	0.21835218
36	0xbd048d33	-0.03236122
37	0x3c833e80	0.016021013
38	0xbccd39fc	-0.025052063
39	0x3d90244b	0.07038172
40	0x3d61d1bc	0.05513166
41	0xbd9f0016	-0.07763688
42	0x3e297066	0.16546783
43	0x3ab57d0d	0.0013846472
44	0xbe7c12d6	-0.2461656
45	0x3d22712b	0.039658707
46	0x3dc80019	0.097656436
47	0x3df16858	0.1178748
48	0xbbc34ee8	-0.005960334
49	0xbde69663	-0.11259153
50	0x3d9ddf3d	0.07708595
51	0xbe6ca685	-0.23110397
52	0x3e6d9e27	0.23204862
53	0x3e078eb4	0.1323803
54	0x3d6c2609	0.05765346
55	0xbd0b82c5	-0.03406026
56	0x3e396f9b	0.1810898
57	0xbe366569	-0.17812122
58	0xbb47fd99	-0.0030516146
59	0xbd8c83ef	-0.06861102
60	0xbcef95e8	-0.029246286
61	0xbdaa4c12	-0.083152905
62	0x3d85223b	0.065006696
63	0xbca583ec	-0.020204507
64	0xbe404a37	-0.1877831
65	0xbdae9fa4	-0.08526543
66	0x3cc0401a	0.023468066
67	0xbdebf3cb	-0.11521109
68	0xbd0b6d4f	-0.03403979
69	0xbd3a870d	-0.04553895
70	0x3bd4afe9	0.0064906967
71	0xbe817c6c	-0.2529024
72	0x3e050470	0.12989974
73	0x3c9ba8d7	0.019001408
74	0xbc2bc489	-0.010483869
75	0x3d51d775	0.051230866
76	0xbe2bc0c3	-0.16772752
77	0xbddddd91	-0.10833276
78	0x3e0d1dc5	0.13780887
79	0x3da1b5dd	0.07896016
80	0x3e120c9f	0.14262627
81	0xbe282447	-0.16420089
82	0xbd321d5a	-0.043485023
83	0x3d61aa90	0.0550943
84	0xbd9928a3	-0.07478454
85	0x3cb47cfd	0.022032255
86	0xbe0ab501	-0.1354561
87	0xbe4865a4	-0.19570023
88	0x3b833977	0.004004653
89	0xbe2d0149	-0.16895021
90	0x3e6cece3	0.2313724
91	0x3e46717e	0.19379231
92	0xbdbad51c	-0.09122679
93	0xbd6089ef	-0.054819044
94	0x3e2854ab	0.16438548
95	0x3cb968d3	0.022632992
96	0x3dad4330	0.084600806
97	0x3da7caa6	0.08192949
98	0x3aaace59	0.0013031467
99	0xbc39fd76	-0.011351934
100	0x3deab4d6	0.11460273
101	0x3e32cddb	0.1746134
102	0x3e89291a	0.2678917
103	0x3da88f7e	0.08230494
104	0xbd9cd3b1	-0.076575644
105	0x3d15526a	0.03645555
106	0x3cb3c275	0.02194331
107	0x3e490c52	0.19633606
108	0xbadadecc	-0.0016698479
109	0x3ef3a8d3	0.4758974
110	0xbe8136c1	-0.25237086
111	0xbdba9568	-0.09110528
112	0xbd9a870b	-0.07545289
113	0xbd91e64a	-0.07124002
114	0xbe2cc0f6	-0.16870484
115	0x3e04c7d0	0.12966847
116	0x3d9ddc18	0.07707995
117	0x3dd51fa3	0.10406425
118	0x3e248429	0.1606604
119	0xbe095359	-0.13410701
120	0x3e8011a8	0.2501347
121	0x3e00c945	0.12576778
122	0xbd0a3816	-0.033744894
123	0xbd3c434e	-0.045962624
124	0xbe05f9f6	-0.13083634
125	0xbe97df69	-0.29662636
126	0xbde24923	-0.11049106
127	0x3d169a8b	0.036768477
128	0x3c252348	0.0100792125
129	0xbb88ab92	-0.0041708434
130	0xbe2e5be2	-0.17027238
131	0xbe0223a5	-0.1270891
132	0xbd875ee7	-0.06609898
133	0xbdaf5126	-0.085604
134	0xbe87b019	-0.2650154
135	0x3db30bcb	0.08742484
136	0x3e0b66a4	0.13613373
137	0x3e38e002	0.18054202
138	0x3d382694	0.044958666
139	0xbd56fd0c	-0.052487418
140	0xbda53fe4	-0.08068827
141	0x3c3d98a5	0.011572038
142	0xbc8f82e5	-0.01751847
143	0x3c1b4644	0.009477202
144	0xbbb06332	-0.0053829188
145	0x3e5d117c	0.21588701
146	0x3cd51815	0.02601246
147	0xbc8f0508	-0.017458454
148	0x3e4088f4	0.18802243
149	0xbe524241	-0.20533086
150	0xbce4f545	-0.027948985
151	0xbd90f09d	-0.07077143
152	0x3c88e6ce	0.016711619
153	0x3e52f54c	0.20601386
154	0xbe2205f8	-0.1582259
155	0xbe63b6cb	-0.22237699
156	0x3dc3d9c1	0.09563018
157	0x3cc567a9	0.02409728
158	0x3d900d4a	0.07033785
159	0xbf0ebcc9	-0.55756813
160	0x3c31bcc6	0.01084823
161	0x3c26ae72	0.010173427
162	0xbe624d67	-0.22099839
163	0xbce99b59	-0.028516458
164	0xbe030d3e	-0.1279802
165	0x3c24cbba	0.010058338
166	0x3e952ee4	0.29137337
167	0x3e082e2e	0.13298866
168	0xbd3c1b87	-0.04592469
169	0x3e005cf3	0.12535457
170	0xbcead3bf	-0.028665422
171	0xbe69347f	-0.22773932
172	0xbca4caa0	-0.02011615
173	0xbe0b5edd	-0.13610406
174	0x3e1f29b3	0.1554325
175	0x3d8f0196	0.06982724
176	0xbdbb1228	-0.091343224
177	0xbdc1531c	-0.0943968
178	0xbdf3c49d	-0.119027354
179	0xbd9b1eb4	-0.075742155
180	0x3e13db2e	0.14439079
181	0x3dd0a77c	0.10188195
182	0xbd7538a3	-0.059868466
183	0x3de16cd0	0.110070825
184	0xbda3e3f8	-0.08002466
185	0x3a78740d	0.0009477742
186	0x3d4f10f1	0.050553266
187	0x3da729c7	0.08162265
188	0x3ea7b0b6	0.32752007
189	0xbe33c0fc	-0.17554086
190	0xbdb8a72c	-0.090162605
191	0x3df1a7b9	0.11799569
192	0xbb8c2928	-0.004277367
193	0xbcf4af85	-0.02986885
194	0x3e1859df	0.14878033
195	0xbca19f2d	-0.019729221
196	0xbe24cfbd	-0.16094871
197	0xbc88138c	-0.016610883
198	0x3e4baea1	0.19890834
199	0xbd8d6111	-0.069032796
200	0x3e38d220	0.18048906
201	0xbdd6840e	-0.10474406
202	0xbe1e2e42	-0.15447333
203	0x3cddd693	0.027079856
204	0x3e69007c	0.22754091
205	0x3dc649db	0.096820556
206	0x3db12fd8	0.086517036
207	0x3ef8a519	0.4856346
208	0x3dc5e8eb	0.09663566
209	0xbdc8c8d8	-0.09803933
210	0xbd1bdca2	-0.03805221
211	0x3c695762	0.014242025
212	0x3e4cda52	0.20005158
213	0x3e42109f	0.18951653
214	0x3cc373b5	0.023858884
215	0x3e21c14e	0.15796396
216	0xbee717ed	-0.4513544
217	0xbc3359e7	-0.010946727
218	0x3e3bee13	0.18352537
219	0x3eb74062	0.35791308
220	0xbe855713	-0.26042995
221	0xbdedbd7e	-0.116084084
222	0x3dc890d8	0.09793252
223	0x3e29ac1d	0.16569562
224	0xbe47fff2	-0.19531229
225	0xbe803780	-0.25042343
226	0xbb870e59	-0.0041215834
227	0x3df42ac3	0.11922219
228	0x3d5a7f2d	0.05334394
229	0xbdeaf0ec	-0.114717335
230	0xbd46f575	-0.04857393
231	0xbc932255	-0.017960707
232	0x3dccacee	0.09993921
233	0xbe5e7efd	-0.2172813
234	0x3e355fa4	0.17712265
235	0x3e889866	0.2667877
236	0x3e3feb39	0.18742074
237	0xbe0de14c	-0.13855475
238	0x3e4b83ac	0.19874448
239	0xbdfd3c7b	-0.12365051
240	0xbe6a2853	-0.22866945
241	0xbdadd924	-0.08488682
242	0x3ad27d51	0.0016059076
243	0x3da39700	0.07987785
244	0xbeeada7c	-0.45869815
245	0x3e8e7803	0.27825937
246	0xbe61281b	-0.21987955
247	0xbe1c4fc0	-0.15264797
248	0x3dfcdacc	0.1234642
249	0xbf0bb7cd	-0.5457733
250	0x3cd37cee	0.025816407
251	0xbe021eef	-0.12707113
252	0xbdce4e6e	-0.10073553
253	0x3d8dae41	0.06918002
254	0xbdbcc2ee	-0.092168674
255	0x3ec4b4f6	0.38419312

weight_hh f4 [384, 128]
0	0xbd191baf	-0.037379917
1	0x3df18648	0.1179319
2	0xbe10c0b2	-0.14136007
3	0x3d6ca0cc	0.057770535
4	0xbde5c871	-0.11219872
5	0x3d9a2c9f	0.07528042
6	0x3da3b9eb	0.079944454
7	0xbd2b28ac	-0.041786835
8	0x3e22bace	0.15891573
9	0xbdc3f12d	-0.09567485
10	0xbdeecded	-0.11660371
11	0x3d925e39	0.07146878
12	0x3db62bfd	0.08895109
13	0x3c52daf0	0.012869582
14	0xbe2618f0	-0.1622045
15	0xbe00d94e	-0.12582895
16	0xbd8d10a5	-0.0688794
17	0xbb6316a9	-0.0034650958
18	0x3d8365dd	0.06415913
19	0x3e14ecba	0.14543429
20	0xbe074792	-0.13210896
21	0xbd4ca541	-0.049962286
22	0x3e0c93a2	0.13728192
23	0xbd148a56	-0.03626474
24	0xbdd9e189	-0.106387205
25	0xbcae542e	-0.021280374
26	0xbd1c666c	-0.038183615
27	0xbe48d397	-0.19611965
28	0x3d5f70c8	0.054550916
29	0xbca556ea	-0.020183045
30	0x3d0b1780	0.03395796
31	0x3b8d99d8	0.004321318
32	0x3d9f7b55	0.077871956
33	0x3d28f974	0.041253522
34	0xbc132f96	-0.008983513
35	0x3da1d059	0.07901067
36	0xbdac27c4	-0.08406022
37	0x3e28832e	0.16456291
38	0xbe80e3bd	-0.2517375
39	0x3dc8f19e	0.0981171
40	0x3da9a01a	0.0828249
41	0x3ded286a	0.11579974
42	0xbad93c3a	-0.0016573735
43	0x3e59db9e	0.21275184
44	0x3d75e4c5	0.060032625
45	0x3d91dc75	0.07122127
46	0xbdb12ef1	-0.086515315
47	0xbd81f34b	-0.063452326
48	0xbd7794d2	-0.06044466
49	0x3dcd4466	0.100228116
50	0xbb553e9a	-0.0032538534
51	0xbe2dbac3	-0.16965775
52	0xbdeade1d	-0.11468146
53	0xbc65c7dd	-0.014024702
54	0x3d64d9db	0.055871826
55	0xbda0e52b	-0.0785621
56	0xbce62707	-0.028094782
57	0xbe47e06f	-0.19519208
58	0xbdfb10d7	-0.12259071
59	0x3dc1ffe7	0.094726376
60	0xbd663da0	-0.056211114
61	0x3d2cc41e	0.04217922
62	0xbe03b337	-0.12861334
63	0xbc315e6d	-0.0108257355
64	0x3df47538	0.1193642
65	0xbd779b2f	-0.06045073
66	0x3de4f5c0	0.111796856
67	0x3d16aec6	0.03678777
68	0xbcb78aa2	-0.022404972
69	0x3e15beca	0.14623562
70	0xbd66d7f3	-0.05635829
71	0xbcdbfc5b	-0.02685373
72	0xbe6ee858	-0.2333082
73	0x3cc5e18e	0.024155404
74	0xbdc99f60	-0.098448515
75	0x3e0a029e	0.13477561
76	0x3d7f2e51	0.06230003
77	0xbd2004d8	-0.03906712
78	0x3d4773c7	0.0486944
79	0xbb331913	-0.0027328178
80	0x3e618706	0.22024164
81	0x3db72386	0.089423224
82	0xbdbc8687	-0.092053466
83	0x3c330718	0.010926984
84	0xbcb850f6	-0.022499543
85	0xbd9c2cba	-0.076257184
86	0x3c8eb894	0.017421998
87	0x3e6cdfae	0.23132202
88	0xbe1db3b6	-0.15400586
89	0xbd65b742	-0.05608297
90	0x3dbb6e3a	0.091518834
91	0xbe31cb34	-0.17362672
92	0x3de31056	0.110871
93	0x3e3795e1	0.17928268
94	0xbd03cfbc	-0.032180533
95	0xbab63dab	-0.0013903877
96	0xbe734756	-0.23757681
97	0xbb440a67	-0.0029913427
98	0xbe1e55f6	-0.15462479
99	0x3d13a714	0.03604801
100	0xbd4a4ab2	-0.04938764
101	0x3d6382e1	0.055544738
102	0xbd12f35c	-0.035876617
103	0xbe693887	-0.2277547
104	0x3e58f2a4	0.2118631
105	0x3d4317f3	0.04763026
106	0xbddeacd2	-0.108728066
107	0xbd4375bf	-0.047719713
108	0x3e3af609	0.18257917
109	0x3e283d60	0.16429663
110	0xbd96746d	-0.07346425
111	0xbe12a061	-0.14318992
112	0xbd6ef4a3	-0.058338773
113	0xbe876c42	-0.26449782
114	0xbddd0168	-0.10791284
115	0xbd2b3d3b	-0.04180644
116	0xbd934298	-0.07190436
117	0xbd4ba0b0	-0.04971379
118	0x3dc3d5f0	0.0956229
119	0x3e05bbc3	0.13059907
120	0x3cfbc5f7	0.030734045
121	0xbc7bd6df	-0.0153710535
122	0xbd64288a	-0.055702724
123	0x3e1f553d	0.1555986
124	0xbd156057	-0.03646883
125	0xbe1a9a95	-0.15098031
126	0xbdb76ba7	-0.0895608
127	0xbcfa2208	-0.030533805
128	0x3de039f5	0.109485544
129	0xbdb1cd58	-0.08681744
130	0x3bfe5605	0.007761719
131	0xbcf51c90	-0.029920846
132	0xbd63e165	-0.055634875
133	0x3e38c74b	0.18044774
134	0x3e0ebf46	0.13940153
135	0x3e2936b7	0.16524778
136	0xbe136bc1	-0.14396574
137	0x3ccc9860	0.024975002
138	0xbdb635b0	-0.08896959
139	0x3da0c5e7	0.07850247
140	0x3d34e8cc	0.044167325
141	0xbdc82352	-0.09772362
142	0x3ea645dc	0.32475173
143	0x3e11556c	0.14192742
144	0xbd6415ab	-0.055684727
145	0x3d6ffffc	0.058593735
146	0x3c05fe93	0.008178371
147	0x3df59e11	0.119930394
148	0x3e6213a3	0.22077803
149	0xbdc3c9f7	-0.09560006
150	0x3de4dc52	0.11174835
151	0x3e3c4f27	0.18389569
152	0xbdb8aabb	-0.09016939
153	0x3e6bfa3f	0.2304468
154	0x3cbf70bf	0.023369191
155	0xbd991df2	-0.07476415
156	0xbe0c2b20	-0.13688326
157	0x3cf1a525	0.029497692
158	0x3c08a88c	0.008340966
159	0xbd6346c5	-0.055487413
160	0xbc380533	-0.011231708
161	0x3df57f5a	0.11987181
162	0xbdac2d83	-0.08407118
163	0xbde87616	-0.11350648
164	0xbd9b7969	-0.075915165
165	0xbda83097	-0.08212393
166	0xbd24b1ff	-0.040208813
167	0x3ca82ddb	0.020529678
168	0xbe858e2d	-0.26085034
169	0xbc9a2a33	-0.01881895
170	0x3e961b55	0.29317728
171	0x3d8e748f	0.069558255
172	0xbe81546e	-0.25259727
173	0xbe231e8d	-0.15929623
174	0x3c58b745	0.013227289
175	0xbc28fb3f	-0.010313808
176	0xbe3ac545	-0.18239315
177	0x3dd019df	0.101611845
178	0xbcfd4265	-0.030915448
179	0x3c3e9c5a	0.011633957
180	0xbcd9d3dd	-0.026590282
181	0xbd4aa1ea	-0.04947082
182	0xbdaf6688	-0.08564478
183	0x3deee10a	0.116640165
184	0xbd9f0401	-0.077644356
185	0x3d98e397	0.07465284
186	0xbe31146b	-0.17292945
187	0xbdaf54d8	-0.085611045
188	0x3d84a372	0.06476487
189	0xbdba44ea	-0.090951756
190	0xbd801f0e	-0.06255923
191	0x3e0eada6	0.13933429
192	0xbc6d5ed1	-0.014487938
193	0x3c891bee	0.01673695
194	0xbe032dc1	-0.12810422
195	0x3d2b046a	0.041752256
196	0x3dfc2a7b	0.1231279
197	0xbda4c57b	-0.08045479
198	0xbdb306ea	-0.08741553
199	0x3e13ba5a	0.14426556
200	0x3de9ef9c	0.11422655
201	0x3d563062	0.052292235
202	0xbb62c941	-0.003460482
203	0xbdeb1fa1	-0.11480642
204	0x3e5e3ce4	0.21702915
205	0x3ab67330	0.0013919827
206	0xbd50c29f	-0.050966855
207	0xbce95395	-0.028482238
208	0x3e0fc01b	0.14038126
209	0x3daffb86	0.08592896
210	0xbcd0cbff	-0.025487898
211	0x3cc50457	0.024049921
212	0x3b7708ef	0.0037694534
213	0xbe0ea3df	-0.139297
214	0xbdfdde7e	-0.12395953
215	0xbd006dfe	-0.031354897
216	0x3d52487c	0.051338658
217	0xbb9f439d	-0.004860355
218	0xbe433b79	-0.19065656
219	0x3c21bc2f	0.009871527
220	0x3e02ceb6	0.12774166
221	0xbd4fc8dd	-0.050728668
222	0xbdd65904	-0.10466197
223	0xbe4bed3f	-0.19914721
224	0x3e671ac4	0.22568804
225	0xbdcf29ba	-0.101153806
226	0x3e081d6a	0.1329247
227	0x3ddc9655	0.10770861
228	0xbd9137fe	-0.07090758
229	0x3e47afbc	0.19500631
230	0x3d8b3e8d	0.0679904
231	0xbd270c10	-0.040782988
232	0xbe31478b	-0.17312448
233	0xbd99a2a7	-0.075017266
234	0x3d41e5e4	0.04733838
235	0xbe0a2c80	-0.13493538
236	0xbde5fbc5	-0.11229662
237	0x3d2a8d97	0.041638937
238	0x3d74cefe	0.059767716
239	0xbddffbcf	-0.109367006
240	0xbdae4619	-0.08509464
241	0xbcdddfae	-0.027084198
242	0xbe0178be	-0.12643716
243	0x3d9fb32e	0.07797848
244	0x3cf70814	0.03015522
245	0xbe52bad7	-0.20579086
246	0x3d85fbf9	0.065422006
247	0xbdb502bf	-0.088384144
248	0x3c117529	0.008878031
249	0x3d0d1648	0.034445077
250	0x3ba11d43	0.0049168183
251	0x3d1ebf0b	0.03875641
252	0x3c329466	0.010899639
253	0xbda096c0	-0.07841253
254	0xbd846a37	-0.064655714
255	0x3c797d79	0.015227669

bias_ih f4 [384]
0	0xbdea68cb	-0.11445769
1	0x3cc45f64	0.023971267
2	0x3bdb9ce9	0.0067020548
3	0xbd472cd3	-0.048626732
4	0xbbe3fede	-0.006957873
5	0x3d800ed5	0.06252829
6	0x3df19e43	0.11797764
7	0xbd020e68	-0.03175202
8	0x3dd6be29	0.10485489
9	0x3c556c8e	0.01302637
10	0x3e1e558a	0.15462318
11	0x3d28b7a6	0.041190766
12	0x3b3cc102	0.0028801565
13	0xbc9ab2fe	-0.018884178
14	0x3d96f5dd	0.073711134
15	0x3cd81a92	0.026379857
16	0x3d39a2a7	0.045321133
17	0xbc29bcd2	-0.01035996
18	0x3dad9b61	0.08476902
19	0x3dc12fd6	0.09432952
20	0x3e23b752	0.159879
21	0x3dd3894c	0.10328922
22	0xbd1b90fb	-0.03798006
23	0x3e5e7f8d	0.21728344
24	0x3c283cf7	0.010268441
25	0xbb4c0498	-0.0031130668
26	0xbdaf8ba5	-0.08571557
27	0x3e061a9c	0.13096088
28	0x3c097cad	0.008391541
29	0x3e9b11ba	0.30286962
30	0x3d9d9015	0.07693497
31	0xbdd653b9	-0.104651876
32	0xbd97ea9b	-0.07417794
33	0xbd8003a2	-0.06250693
34	0xbc96a761	-0.01839036
35	0x3d8274b9	0.06369919
36	0x3e1b2836	0.15152058
37	0x3e1b7f31	0.15185238
38	0xbe30afcf	-0.17254566
39	0x3dfa3238	0.1221661
40	0x3cee7112	0.02910665
41	0x3da38a50	0.079853654
42	0x3df764dc	0.12079784
43	0x3cc7b246	0.024377
44	0xbd818394	-0.06323925
45	0x3d8f4291	0.069951184
46	0xbe65eab0	-0.22452807
47	0x3dc56954	0.0963923
48	0x3d3aa87a	0.045570828
49	0x3e230823	0.15921073
50	0xbd4aba64	-0.049494162
51	0x3d2eff51	0.042723957
52	0x36fc433f	7.5180137e-06
53	0xbe12dff2	-0.14343241
54	0xbda33142	-0.079683796
55	0xbcd2ca9b	-0.025731375
56	0xbce948f9	-0.028477179
57	0x3dae5ba8	0.08513576
58	0x3cf4e3b8	0.029893741
59	0x3d627c98	0.055294603
60	0xbe067533	-0.13130645
61	0x3d305111	0.04304606
62	0x3db26eec	0.08712563
63	0xbbe198ed	-0.0068846853
64	0xbca664c3	-0.020311719
65	0xbda1d8ef	-0.07902705
66	0xbda85b15	-0.082204975
67	0x3e00232b	0.12513416
68	0xbe3b5212	-0.18293026
69	0x3d143e63	0.03619231
70	0x3e2b679f	0.16738747
71	0x3e6b0ffb	0.22955315
72	0x3d1aee11	0.037824694
73	0x3ba06af8	0.004895564
74	0x3bbd7479	0.005781707
75	0x3d179085	0.03700306
76	0x3d505e63	0.050871264
77	0x3bbd1232	0.0057699913
78	0xbdb1e8dc	-0.086869925
79	0xbd9a5dad	-0.075373985
80	0x3d525634	0.05135174
81	0x3dd1a61b	0.1023676
82	0x3da86a6d	0.08223424
83	0xbe228175	-0.15869696
84	0xbd9748ae	-0.073869094
85	0x3e6013b3	0.21882515
86	0xbdde525c	-0.108555526
87	0x3db2fed2	0.08740009
88	0xbd72e8ba	-0.059303977
89	0x3e2ddf20	0.16979647
90	0x3e4094c6	0.18806753
91	0x3dec5f9b	0.11541673
92	0x3dc6c943	0.097063564
93	0x3ddaa3ff	0.10675811
94	0xbdb3a49a	-0.0877163
95	0x3d1d8ac0	0.0384624
96	0x3e558a25	0.20853479
97	0x3e491a54	0.1963895
98	0xbdff97b3	-0.12480106
99	0xbcad095e	-0.02112263
100	0xbc28746f	-0.010281666
101	0x3d7effbe	0.062255614
102	0x3d21c5d8	0.03949532
103	0xbd0fc23c	-0.035097346
104	0x3e70f75c	0.2353186
105	0x3e5d4b8d	0.21610852
106	0xbd23c8fa	-0.039986588
107	0x3d505aac	0.05086772
108	0x3d398d4c	0.045300767
109	0x3da7222a	0.08160813
110	0xbc39c340	-0.011338055
111	0x3e7a24c3	0.24428086
112	0xbe28a0d2	-0.16467598
113	0x3de00fe4	0.10940531
114	0xbdd5b395	-0.10434643
115	0x3c82f69e	0.015986737
116	0x3e475b5b	0.19468443
117	0x3c31a005	0.010841374
118	0xbd2b2ed1	-0.041792694
119	0xbd179a9f	-0.037012693
120	0xbd281791	-0.0410381
121	0x3bbc4614	0.0057456587
122	0x3c9561d4	0.018235125
123	0x3cf39c61	0.029737653
124	0xbc79e112	-0.015251415
125	0x3d9931ca	0.074802
126	0x3e0e9c58	0.13926828
127	0xbd8b69a0	-0.06807256
128	0x3db7fcb0	0.08983743
129	0x3e07c54a	0.13258854
130	0xbe0e16ee	-0.13875934
131	0xbe1ee5f0	-0.15517402
132	0xbe320930	-0.17386317
133	0xbd1c5b8a	-0.038173236
134	0xbe952592	-0.29130226
135	0x3c156802	0.009119036
136	0xbd5c8560	-0.053838134
137	0x3c7fadf6	0.01560544
138	0xbe08ad1d	-0.13347287
139	0xbdec8f63	-0.11550786
140	0xbdf01381	-0.1172247
141	0x3da72363	0.08161046
142	0xbd8273e8	-0.063697636
143	0xbdef4680	-0.11683369
144	0xbd9a994e	-0.07548772
145	0x3da7481e	0.08168052
146	0xbe928dda	-0.2862385
147	0xbd16418c	-0.036683604
148	0x3d0afa7e	0.033930294
149	0xbd86fede	-0.06591581
150	0x3ce65afc	0.028119557
151	0xbe2a663d	-0.16640563
152	0xbe829e7a	-0.25511533
153	0x3e16d71e	0.14730498
154	0x3cbfc4e5	0.023409316
155	0x3c0d1697	0.008611343
156	0xbbf89644	-0.0075862724
157	0xbdf2a184	-0.11847213
158	0x3e054635	0.13015063
159	0xbd208027	-0.039184716
160	0x3e3c3b99	0.1838211
161	0xbdac2d60	-0.08407092
162	0xbda8eac2	-0.082479015
163	0xbe049d49	-0.12950625
164	0xbdb04627	-0.086071305
165	0x3cd5f6fe	0.026118752
166	0xbd5a7133	-0.05333061
167	0x3cb1b5c6	0.021693122
168	0xbdb65815	-0.08903519
169	0xbdd6febd	-0.10497806
170	0xbb56a144	-0.003274993
171	0xbdb043fb	-0.08606716
172	0x3d22b6c1	0.03972507
173	0x3cecbfea	0.028900106
174	0xbd3254dc	-0.04353796
175	0xbde5a60d	-0.11213312
176	0xbb308b51	-0.0026938508
177	0x3c217998	0.00985565
178	0xbe13ad03	-0.14421467
179	0x3d0256fb	0.031821232
180	0xbe428cc0	-0.18999004
181	0xbe54dcab	-0.20787303
182	0x3e79cc7d	0.24394412
183	0x3df1fe49	0.11816079
184	0xbe3bf7ab	-0.18356197
185	0xbd191ae5	-0.037379164
186	0xbcfde6b8	-0.030993804
187	0xbce1efe5	-0.027580211
188	0x3e5cf939	0.21579446
189	0xbe2977e1	-0.16549636
190	0xbda0d292	-0.07852663
191	0xbe02dee7	-0.12780343
192	0x3e0cc7de	0.13748118
193	0xbd8e9c0d	-0.06963358
194	0xbe876e63	-0.26451406
195	0x3e271db7	0.16319929
196	0xbd1151d7	-0.03547844
197	0xbe07be12	-0.132561
198	0x3c64668b	0.013940464
199	0xbd2bb5ff	-0.041921612
200	0x3c47e28b	0.012200008
201	0xbe4a6100	-0.19763565
202	0x3d9040cf	0.07043611
203	0xbe035f9a	-0.12829438
204	0xbe6fa0cf	-0.23401187
205	0x3e0cf7ed	0.13766451
206	0x3db32d00	0.087488174
207	0x3d7677e7	0.06017294
208	0x3cd593d8	0.026071474
209	0xbd85b3de	-0.065284476
210	0xbe041230	-0.12897563
211	0xbe6354a3	-0.22200255
212	0xbe4fc094	-0.20288306
213	0xbd081618	-0.033224195
214	0xbd99b544	-0.07505277
215	0xbe5cd5ac	-0.21565884
216	0xbe03f461	-0.12886192
217	0xbdcb6424	-0.0993121
218	0x3dbfe5e0	0.09370017
219	0x3e101a52	0.1407254
220	0xbd7aa2fa	-0.061190583
221	0xbe57d22a	-0.21076265
222	0xbe8e8c57	-0.27841446
223	0x3e286444	0.16444498
224	0xbe9a44a5	-0.30130497
225	0xbe345bb0	-0.17613101
226	0xbe2d7e68	-0.16942751
227	0xb9970191	-0.0002880213
228	0xbd57c895	-0.052681524
229	0xbdd20602	-0.10255052
230	0x3cd71f7d	0.026260132
231	0x3bad05e6	0.005280244
232	0xbe0f5d77	-0.14000498
233	0x3c872148	0.016495362
234	0xbe039d67	-0.12853013
235	0xbc2e8899	-0.010652685
236	0xbd870bbf	-0.06594037
237	0xbe15f329	-0.1464354
238	0x3df5bc8c	0.11998853
239	0xbd8319af	-0.06401383
240	0xbdf09f4a	-0.11749132
241	0x3e14bd49	0.14525332
242	0x3dd5ad98	0.10433501
243	0xbcddf2c0	-0.027093291
244	0x3db5ffd0	0.08886683
245	0xbe2e91fd	-0.17047878
246	0xbe303a21	-0.17209674
247	0xbea7c6ab	-0.3276876
248	0x3dfd1659	0.12357778
249	0x3d54e43d	0.051975477
250	0x3c9cfefe	0.019164559
251	0xbe2d7fbb	-0.16943257
252	0x3dd0065b	0.10157462
253	0xbd93ec12	-0.07222761
254	0xbe3b4572	-0.1828821
255	0xbda84fd4	-0.08218351

bias_hh f4 [384]
0	0x3c8cc8db	0.01718562
1	0x3d8b93c0	0.068152905
2	0x3dc57849	0.09642083
3	0xbdb1e5c0	-0.086863995
4	0x3b9a4530	0.004707955
5	0xbbcb61ce	-0.0062067276
6	0x3dd66d5e	0.10470079
7	0xbce02be6	-0.027364682
8	0x3d9f2aff	0.07771873
9	0x3e0d4347	0.13795196
10	0x3e23cb9c	0.1599564
11	0x3df7cef5	0.12100021
12	0x3b9e04f4	0.004822368
13	0xbcb75fea	-0.022384603
14	0x3dfd374a	0.12364061
15	0x3e04dd3e	0.12975022
16	0x3e235cbe	0.15953347
17	0x3ca93e6d	0.02065965
18	0x3d82b0be	0.06381367
19	0x3db32de9	0.08748991
20	0x3e39f718	0.18160665
21	0xbd0095f3	-0.031393003
22	0xbd452ec3	-0.0481403
23	0x3e4463f7	0.19178759
24	0x3de36d01	0.11104775
25	0xbdad2be3	-0.08455636
26	0x3cebe523	0.028795784
27	0x3de3cb89	0.111228056
28	0xbd96dd4c	-0.07366428
29	0x3e268758	0.16262567
30	0x3d7c0e6b	0.061537188
31	0xbcf08640	-0.02936089
32	0xbd7f1f3c	-0.062285647
33	0xbd3bab52	-0.04581768
34	0xbdaa807a	-0.08325286
35	0xbd024504	-0.0318041
36	0x3e618f46	0.2202731
37	0x3e16bbae	0.14720032
38	0xbcc30c04	-0.02380944
39	0x3d3fe53f	0.046849485
40	0xbd70147e	-0.058613293
41	0x3d38f203	0.045152675
42	0x3d032c2a	0.03202454
43	0x3d91ff9c	0.07128832
44	0x3d9a8400	0.07544708
45	0x3de707ae	0.11280762
46	0xbe8b8fe3	-0.27258214
47	0x3dba0a6e	0.090840206
48	0x3c7a681f	0.0152836135
49	0x3d276ed2	0.04087717
50	0xbc910353	-0.01770178
51	0x3dc18f5c	0.09451172
52	0x3d666fc3	0.056258928
53	0xbbf39a75	-0.007434184
54	0x3d1027a5	0.035194058
55	0x3da71858	0.0815894
56	0xbaeea167	-0.0018206061
57	0x3e3a723b	0.18207638
58	0x3d8f2022	0.06988551
59	0x3e2b6ec4	0.16741472
60	0xbe829dfe	-0.25511163
61	0x3de2ed6e	0.11080442
62	0x3c929fe1	0.017898502
63	0xbcc40d41	-0.023932101
64	0xbdd76430	-0.10517156
65	0x3d04ea35	0.03244992
66	0xbd896b46	-0.06709914
67	0x3df7bd4a	0.12096651
68	0xbe035d75	-0.1282862
69	0xbccf0269	-0.025269704
70	0x3d9a8b43	0.07546093
71	0x3df3355f	0.11875414
72	0x3e0136f5	0.1261862
73	0x3c6f47ff	0.014604568
74	0xbc079634	-0.008275557
75	0x3d3db570	0.04631561
76	0x3dc9cf8f	0.09854042
77	0x3d32e5ea	0.043676294
78	0xbcd2728c	-0.025689386
79	0xbca0b1e2	-0.019616071
80	0x3d4107a4	0.047126427
81	0x3dd6fba3	0.10497215
82	0x3d9d035a	0.07666655
83	0xbe50d665	-0.20394285
84	0xbcb63b53	-0.022245085
85	0x3e684cfa	0.22685614
86	0xbe2b35ca	-0.16719738
87	0x3d9e7cdf	0.07738661
88	0xbd96d784	-0.07365325
89	0x3d2a171a	0.041525938
90	0x3d215abb	0.039393168
91	0x3cfcd49a	0.030863095
92	0x3d5edf83	0.054412376
93	0x3e21377c	0.15743822
94	0x3b9ca3b7	0.0047802585
95	0xbd5cbd13	-0.053891253
96	0x3e39cdc2	0.18144897
97	0x3e4662f6	0.19373688
98	0xbce35ab7	-0.027753217
99	0x3cac16b4	0.02100692
100	0x3d918f62	0.07107426
101	0x3dbf9259	0.093540855
102	0x3b8b40ec	0.0042496826
103	0x3d671f2c	0.056426212
104	0x3e4c89b3	0.19974403
105	0x3e6a435b	0.22877257
106	0x3d3961fb	0.045259457
107	0x3e549174	0.20758611
108	0x3e2e002a	0.1699225
109	0x3d7c267c	0.06156014
110	0xbd06b114	-0.03288372
111	0x3e7cf5c8	0.24703133
112	0xbd8679f8	-0.065662324
113	0x3e560b0a	0.20902649
114	0xbe196af5	-0.14982207
115	0x3ca8c8ae	0.020603504
116	0x3e2bf52c	0.16792744
117	0xbc875ede	-0.016524728
118	0x3d696f03	0.056990635
119	0xbdba2701	-0.09089471
120	0xbda3f017	-0.08004778
121	0x3d101cb3	0.03518362
122	0x3d094e81	0.033522133
123	0xbd47a8ce	-0.04874497
124	0xbdd8759d	-0.10569308
125	0x3d87fb21	0.06639696
126	0x3e231d2a	0.15929094
127	0xbe51aec0	-0.20476818
128	0x3de4f19c	0.11178896
129	0x3e0e1aa9	0.13877358
130	0xbd06dbf5	-0.03292461
131	0xbe33c807	-0.17556773
132	0xbdf80584	-0.12110427
133	0xbc397a46	-0.011320656
134	0xbe739668	-0.23787844
135	0x3e0caeea	0.137386
136	0xbce0b9c8	-0.027432337
137	0xbb414dfb	-0.0029495943
138	0xbe3da91d	-0.18521543
139	0xbd92a386	-0.07160096
140	0xbd35e5ae	-0.044408493
141	0x3d30eb68	0.04319325
142	0x3b63dcbc	0.003476902
143	0x387f6f00	6.0900114e-05
144	0xbe112610	-0.14174676
145	0x3c13269d	0.008981374
146	0xbe3b4056	-0.18286261
147	0xbe1f0ffe	-0.15533444
148	0xbd122e86	-0.0356889
149	0xbdbb9e3c	-0.0916104
150	0x3e1a6e6d	0.15081187
151	0xbe0bbec9	-0.13646998
152	0xbe768305	-0.24073417
153	0x3e2cb97b	0.1686763
154	0xbdea847d	-0.114510514
155	0x3d9ad977	0.075610094
156	0x3d375d27	0.04476657
157	0xbe16d7a6	-0.14730701
158	0x3d9a206c	0.07525715
159	0xbcf0fff7	-0.029418929
160	0x3e4dcca2	0.20097592
161	0xbc8183ae	-0.01580986
162	0xbd8f3073	-0.06991663
163	0xbd8a8472	-0.06763543
164	0xbe323fe9	-0.17407192
165	0x3d8aa42f	0.06769597
166	0xbe181aa0	-0.14853907
167	0xbca3714d	-0.019951487
168	0xbd9f968c	-0.077923864
169	0xbd7c6056	-0.06161531
170	0x3c599840	0.013280928
171	0xbe614f95	-0.22003014
172	0x3dc6cb1d	0.097067095
173	0x3d577ef0	0.05261129
174	0xbdc3312c	-0.09530863
175	0xbe198bf6	-0.14994797
176	0xbd9a8cfe	-0.075464234
177	0x3d8a4735	0.06751863
178	0xbe696845	-0.22793682
179	0xbc9b61fe	-0.018967625
180	0xbdf12193	-0.11773982
181	0xbe57fe4d	-0.21093102
182	0x3e1b0db8	0.15141952
183	0xbb14faf4	-0.0022732588
184	0xbd9d5a96	-0.076832935
185	0xbe3a0199	-0.18164672
186	0xbd91b99f	-0.071154825
187	0xbb20e90d	-0.0024552972
188	0x3d9921f1	0.07477177
189	0xbd8f77a7	-0.07005244
190	0xbbb4bbda	-0.0055155577
191	0xbe49ea25	-0.19718225
192	0x3e442365	0.19154127
193	0xbe0363b6	-0.12831005
194	0xbe814380	-0.2524681
195	0x3dcc4bbb	0.09975382
196	0xbd92959f	-0.07157444
197	0xbe362cad	-0.1779048
198	0xbdc03634	-0.093853384
199	0x3c47fdc5	0.012206499
200	0x3d5bc91a	0.053658582
201	0xbde28a48	-0.11061531
202	0xbd6d271c	-0.057898626
203	0xbdcd15c2	-0.100139156
204	0xbe7ad5de	-0.24495646
205	0x3e1d7eae	0.15380356
206	0x3c8179a3	0.015805071
207	0x3d3a17fb	0.045433026
208	0x3d41a27f	0.04727411
209	0xbc1afa38	-0.009459071
210	0xbe437bfb	-0.19090264
211	0xbe264bbd	-0.1623983
212	0xbe3af411	-0.18257166
213	0xbe05a243	-0.13050179
214	0xbd184419	-0.037174318
215	0xbe56054c	-0.20900458
216	0xbe71b464	-0.2360397
217	0xbe17b7bb	-0.14816181
218	0x3e2769f2	0.16349009
219	0x3db1ea73	0.08687296
220	0x3bcbd8b0	0.0062208995
221	0xbe17a79a	-0.14810029
222	0xbed31689	-0.4122813
223	0x3db40728	0.087904274
224	0xbe421b4d	-0.18955727
225	0xbe477c1d	-0.19480939
226	0xbe1c0a59	-0.15238322
227	0x3de208aa	0.11036809
228	0x3d7225d6	0.059118114
229	0xbd3bd71f	-0.045859452
230	0xbbfe6cf1	-0.0077644517
231	0x3bf31e61	0.007419393
232	0xbe4dfbe5	-0.20115621
233	0xbc209a93	-0.009802478
234	0xbc9db72d	-0.019252384
235	0xbde622c6	-0.11237101
236	0xbe487bd9	-0.19578494
237	0xbe21c358	-0.15797174
238	0x3e2b907e	0.16754338
239	0xbdf3bfde	-0.1190183
240	0xbd9161d2	-0.07098736
241	0x3e1a41d6	0.15064177
242	0x3db15400	0.086586
243	0xbdd4433d	-0.10364387
244	0x3d18a16f	0.03726333
245	0xbe36b145	-0.1784106
246	0xbd4d4e3d	-0.050123442
247	0xbe7c152c	-0.24617451
248	0x3e15ec8b	0.14641015
249	0x3e111fb0	0.14172244
250	0xbdc898ac	-0.09794745
251	0xbe261362	-0.16218331
252	0x3dcd422d	0.10022388
253	0xbe0ecbbf	-0.1394491
254	0xbe500fbf	-0.20318507
255	0xbcf8f556	-0.030390423

weight f4 [128, 128]
0	0x3db89d07	0.090143256
1	0xbda6e879	-0.081498094
2	0x3dab2dc3	0.08358338
3	0x3e9de3a1	0.3083773
4	0x3c473bf9	0.012160295
5	0x3c835010	0.016029388
6	0x3d8e0e73	0.0693635
7	0xbc207cdc	-0.009795394
8	0x3d81fd3e	0.0634713
9	0x3dadabc2	0.08480026
10	0xbcc5b63c	-0.024134748
11	0xbe0b4f9d	-0.13604589
12	0x3e1ca911	0.15298869
13	0xbe1b9e62	-0.15197137
14	0x3e3fc136	0.18726048
15	0xbd836465	-0.06415633
16	0xbdf72f59	-0.12069578
17	0xbd068bfb	-0.03284834
18	0x3d0094e7	0.031392004
19	0x3c36384c	0.011121821
20	0xbc2d0b06	-0.01056171
21	0xbdc9cd55	-0.09853617
22	0x3d8a88d6	0.06764381
23	0x3ce7f7fa	0.028316487
24	0xbe107cfb	-0.14110176
25	0x3d22181e	0.03957378
26	0x3e1837cd	0.14865036
27	0x3d4560d7	0.048188057
28	0xbd6f8e04	-0.058485046
29	0xbda80bf4	-0.08205405
30	0x3b71efcf	0.0036916619
31	0x3bf4385e	0.0074530086
32	0xbdb66f30	-0.08907926
33	0xbdf2e29f	-0.11859631
34	0xbdcd6d4e	-0.10030614
35	0xbbed7b15	-0.0072473385
36	0xbdb0ca1d	-0.086323
37	0x3df18bf8	0.11794275
38	0xbd7af90e	-0.061272673
39	0x3d5d3eed	0.05401509
40	0x3e09f95d	0.13474031
41	0x3dd8c1d4	0.10583845
42	0x3dbcb84d	0.0921484
43	0xbd976dd2	-0.073939934
44	0xbdde2a8e	-0.108479604
45	0xbe21bde5	-0.15795095
46	0xbe859b6c	-0.2609514
47	0xbe066e9e	-0.13128135
48	0x3e478350	0.19483685
49	0x3d04cd06	0.032422088
50	0xbca557d0	-0.020183474
51	0x3e2e0868	0.16995394
52	0xbdf8fc1e	-0.121574625
53	0x3b545334	0.0032398226
54	0x3c0976cc	0.00839014
55	0xbc9f51dc	-0.019448213
56	0xbd51d947	-0.051232602
57	0xbdfdbd07	-0.1238957
58	0xbdf40926	-0.119158074
59	0x3e030e57	0.12798439
60	0x3d428ea8	0.04749933
61	0xbd920c7b	-0.07131287
62	0xbd980a06	-0.07423787
63	0xbc5747a9	-0.013139644
64	0x3e1a8e80	0.15093422
65	0x3d56f122	0.052476056
66	0x3dfc6481	0.12323857
67	0x3cdca3ba	0.02693354
68	0x3d04cf54	0.032424286
69	0x3daa9122	0.08328463
70	0xbe0c6f34	-0.13714296
71	0xbced1897	-0.02894239
72	0x3d0af095	0.033920843
73	0xbd5b50d4	-0.05354388
74	0x3c6c9e7e	0.014442084
75	0xbd01fa6d	-0.031732965
76	0xb8dae02c	-0.00010436805
77	0x3c184547	0.009293861
78	0xbdff5260	-0.12466884
79	0x3dabfae3	0.08397462
80	0x3e33afe3	0.17547564
81	0xbc4bda70	-0.012442216
82	0xbae59462	-0.0017515535
83	0xbdf65818	-0.12028521
84	0xbd21c696	-0.039496027
85	0xbd7940b2	-0.060852714
86	0xbd8b067b	-0.067883454
87	0xbb84c2aa	-0.004051526
88	0x3dcea8ea	0.100908116
89	0xbde0cdae	-0.1097673
90	0x3e14a8ae	0.14517471
91	0xbd6844fc	-0.056706414
92	0x3d875e10	0.06609738
93	0xbdb26b9b	-0.0871193
94	0x3e45a85b	0.19302504
95	0xbe2c3f84	-0.16821104
96	0x3d97b880	0.074082375
97	0xbe2c3da6	-0.16820392
98	0x3d7f5167	0.06233349
99	0xbdc8da97	-0.09807318
100	0x3cce8062	0.025207702
101	0x3e44a0a5	0.19201906
102	0x3e4c2e46	0.19939527
103	0x3e05911b	0.13043635
104	0x3e39e6aa	0.18154398
105	0x3c771428	0.015080489
106	0x3cdc222b	0.026871761
107	0x3bb2c2d3	0.0054553538
108	0x3cf6460b	0.030062696
109	0xbcee8772	-0.02911732
110	0x3dc67483	0.096901916
111	0xbdce86e3	-0.10084321
112	0xbe1055ae	-0.14095184
113	0xbdf4af14	-0.11947456
114	0xbd3e8dcc	-0.046521947
115	0x3d41b23e	0.047289126
116	0x3dd8f327	0.10593253
117	0x3a88ead1	0.0010445957
118	0x3dfdc4b4	0.12391034
119	0x3cf6e21b	0.030137112
120	0xbd28fbbc	-0.041255698
121	0x3e2cd0a1	0.1687646
122	0xbe4226b3	-0.18960075
123	0xbc8b28d7	-0.016987247
124	0x3c41f628	0.011838473
125	0xbb95027f	-0.0045474167
126	0xbe275ea6	-0.163447
127	0x3e6d65bb	0.23183338
128	0x3d2ad99f	0.041711446
129	0x3db1e645	0.086864986
130	0xbd44c88d	-0.048042823
131	0x3c5c496f	0.013445242
132	0xbdfb2b2e	-0.12264095
133	0xbd87ae4e	-0.06625043
134	0xbc8a6c4e	-0.016897347
135	0xbb3fda6b	-0.0029274474
136	0x3e1718c0	0.14755535
137	0xbe39c7bb	-0.18142597
138	0x3e370cca	0.17875972
139	0x3dac154e	0.08402501
140	0xbdb392d4	-0.087682396
141	0xbd398b6c	-0.04529898
142	0x3e54ea75	0.20792563
143	0x3e692e60	0.22771597
144	0xbe0b32df	-0.13593625
145	0xbd168d6a	-0.036755957
146	0x3d161601	0.03664208
147	0xbbe9d927	-0.0071364823
148	0x3c69eab6	0.014277151
149	0x3d14fa7f	0.036371704
150	0x3d8b65a6	0.06806497
151	0xbe1275d1	-0.14302756
152	0x3c418cf1	0.011813388
153	0xbe44129d	-0.19147725
154	0xbbe8e0c1	-0.007106871
155	0xbd642102	-0.05569554
156	0xbe076094	-0.13220435
157	0x3da54875	0.08070461
158	0x3d003840	0.031303644
159	0xbe679028	-0.22613585
160	0xbd615e13	-0.055021357
161	0xbd29e965	-0.041482348
162	0xbe020c9a	-0.1270012
163	0xbd99096e	-0.07472502
164	0xbdda21e0	-0.106509924
165	0xbd885412	-0.0665666
166	0x3d740555	0.059575398
167	0x3ce05f45	0.027389178
168	0x3ebf96b5	0.37419668
169	0xbb5ace4d	-0.0033387125
170	0x3d116813	0.035499644
171	0x3d802217	0.06256502
172	0xbe3df13f	-0.1854906
173	0x3c7e21f5	0.015511026
174	0x3de698a5	0.112595834
175	0x3c84912b	0.016182503
176	0xbd7e3e38	-0.062071055
177	0xbd71ff71	-0.0590815
178	0xbe148981	-0.14505579
179	0x3e58c144	0.21167475
180	0x3dcae5f3	0.099071406
181	0xbe3fdaf0	-0.18735862
182	0xbeb08230	-0.34474325
183	0x3e202e88	0.1564275
184	0xbb7c2ff2	-0.0038480726
185	0xbd1159fa	-0.0354862
186	0xbdbac26d	-0.09119115
187	0x3e20fea1	0.15722133
188	0xbcb48f49	-0.02204098
189	0xbea10868	-0.31451726
190	0x3cff4547	0.031160964
191	0x3e4269f3	0.18985729
192	0xbcd4a934	-0.025959589
193	0x3ded88b0	0.11598337
194	0x3dd95204	0.10611346
195	0x3dec9a11	0.11552823
196	0x3df2f1db	0.118625365
197	0xbe6eba48	-0.23313248
198	0xbe3f566e	-0.18685314
199	0x3e916018	0.28393626
200	0xbd23383a	-0.039848544
201	0xbdae3b0d	-0.08507357
202	0xbe7023e1	-0.23451187
203	0x3d9b99a7	0.07597666
204	0x3e94e002	0.29077154
205	0x3dcc2955	0.09968821
206	0x3db59b5a	0.088675216
207	0x3df7ae54	0.12093797
208	0xbd263e4f	-0.040586766
209	0x3e559a03	0.20859532
210	0x3d4a2256	0.04934915
211	0xbd3bd669	-0.045858774
212	0x3d92ea49	0.071735926
213	0x3d638566	0.05554714
214	0xbe06842b	-0.13136356
215	0xbe19e07a	-0.15027037
216	0x3d73ff67	0.059569743
217	0xbc148732	-0.009065436
218	0xbd7d9dca	-0.061918058
219	0xbd1a29a7	-0.03763738
220	0xbccbcc2b	-0.024877628
221	0xbe2affc2	-0.16699126
222	0xbd3fb018	-0.046798795
223	0xbe1897d0	-0.14901662
224	0x3cbe4859	0.023227857
225	0xbd1e90fc	-0.038712487
226	0x3cf3f233	0.029778576
227	0xbdba3902	-0.090929046
228	0xbce882ee	-0.028382745
229	0x3d844f78	0.0646047
230	0x3cff198b	0.03114011
231	0xbdc9c9ca	-0.09852941
232	0xbcedc304	-0.029023655
233	0xbdcfe74e	-0.1015154
234	0x3d381d7b	0.04494999
235	0x3e5df8a9	0.21676888
236	0xbdc912cd	-0.09818039
237	0xbd76316a	-0.06010572
238	0x3dc8f5e4	0.09812525
239	0xbde89bbf	-0.11357831
240	0xbdd89d42	-0.105768695
241	0x3e605c60	0.21910238
242	0xbd9e7c6b	-0.077385746
243	0xbd8506b6	-0.06495421
244	0xbc049d7f	-0.008094191
245	0xbe19b157	-0.15009056
246	0x3e2bbbad	0.16770811
247	0xbd7cb145	-0.061692495
248	0xbdd7fa5c	-0.10545799
249	0x3ceb418c	0.028717779
250	0xbe0897f6	-0.13339218
251	0xbe377080	-0.17914009
252	0xbda036a0	-0.07822919
253	0x3d9dd8ab	0.07707342
254	0xbdffb020	-0.12484765
255	0x3d04aee4	0.03239335

bias f4 [128]
0	0xbdafacd1	-0.08577884
1	0xbdcfbc29	-0.101433106
2	0xbde7dee5	-0.11321811
3	0xbe5b9b13	-0.21445875
4	0xbe13001e	-0.14355513
5	0xbd686ddf	-0.056745406
6	0x3cbc90fb	0.02301835
7	0x3ddecf25	0.108793534
8	0x3b32f041	0.0027303847
9	0xbd702eed	-0.058638502
10	0x3d7b9154	0.061417893
11	0xbb8eca75	-0.004357631
12	0xbd72246e	-0.059116773
13	0xbe2ad822	-0.1668401
14	0xbde5dc1d	-0.11223624
15	0xbc6cf0b7	-0.014461688
16	0xbe2cdade	-0.16880366
17	0x3c0a7e2d	0.008452934
18	0x3cb8a300	0.022538662
19	0xbdd2b580	-0.10288525
20	0xbe0369d6	-0.12833342
21	0xbe09aebf	-0.13445567
22	0xbd8f99f2	-0.070117846
23	0xbd353bb7	-0.0442464
24	0xbe64c1c8	-0.22339547
25	0xbe0a8cbc	-0.13530248
26	0x3d27de1b	0.0409833
27	0xbd2660b8	-0.040619582
28	0xbdd6e4e8	-0.10492879
29	0xbd2477d1	-0.04015333
30	0xbe164150	-0.14673352
31	0xbd4c97bf	-0.049949404
32	0xbe21983e	-0.15780732
33	0xbd796d8d	-0.06089549
34	0xbcf9b1ed	-0.03048035
35	0xbce9a264	-0.028519817
36	0xbe0f33e3	-0.13984637
37	0x3d8ce5a6	0.068797395
38	0xbd37ea40	-0.044901133
39	0xbda9b301	-0.082860954
40	0x3cd13281	0.025536777
41	0xbdba07a9	-0.09083492
42	0xbe0a857d	-0.13527484
43	0x3cd204d9	0.025637077
44	0xbd5848ea	-0.05280391
45	0xbe3ad249	-0.1824428
46	0xbd60e022	-0.05490125
47	0xbdff4510	-0.124643445
48	0xbe2959a3	-0.165381
49	0xbd69433e	-0.056948893
50	0xbda9130f	-0.08255588
51	0xbdc2e9a3	-0.09517219
52	0xbd0698fb	-0.032860737
53	0xbd0a9b87	-0.03383973
54	0x3c5fe3bc	0.013665136
55	0xbd9d045c	-0.07666847
56	0xbd5c6253	-0.053804707
57	0x3dc84b45	0.097799815
58	0xbdbd774e	-0.09251271
59	0xbe34e29f	-0.17664574
60	0xbc1b324d	-0.009472442
61	0xbd7749cd	-0.060373116
62	0xbd2b5d70	-0.041837156
63	0x3cfec3bd	0.031099195
64	0xbdad76fd	-0.08469961
65	0x3c54a6d6	0.01297923
66	0xbdd65983	-0.10466292
67	0xbd4de267	-0.050264742
68	0xbd391a23	-0.04519094
69	0xbe0ea80c	-0.13931292
70	0xbb2478dc	-0.0025096452
71	0xbc686098	-0.014183186
72	0xbdc00cf4	-0.093774706
73	0x3d13cdcd	0.03608494
74	0xbde937b5	-0.113875784
75	0x3d4fa6e2	0.05069626
76	0xbe0fe0d7	-0.14050613
77	0xbdb48c70	-0.08815849
78	0xbe220147	-0.158208
79	0x3d2ea474	0.042637303
80	0xbdd8a547	-0.10578399
81	0xbdf875a4	-0.12131813
82	0xbdd889c4	-0.10573152
83	0xbdaa61e7	-0.08319455
84	0xbdc7e5be	-0.09760617
85	0xbdcec9fe	-0.10097121
86	0x3d9563ae	0.07294403
87	0x3d38d416	0.045124136
88	0xbc27ba1d	-0.010237244
89	0xbc06abee	-0.008219702
90	0x3d717ecd	0.058958817
91	0xbe00fb51	-0.1259587
92	0xbdeafa14	-0.1147348
93	0xbd5e1404	-0.054218307
94	0xbdae5ca6	-0.08513765
95	0x3d8870e6	0.06662159
96	0xbcbae0c8	-0.022812262
97	0xbe1b5f4a	-0.15173069
98	0xbce61a43	-0.028088694
99	0xbe02e159	-0.12781276
100	0x3e21a3aa	0.15785089
101	0x3d1b9882	0.03798724
102	0xbcfc6686	-0.030810606
103	0x3d3ea195	0.046540815
104	0xbd99a6a9	-0.07502491
105	0xbd82ef1f	-0.06393265
106	0xbd56189b	-0.05226956
107	0xbdf3b549	-0.11899812
108	0x3d934772	0.071913615
109	0x3ce933ec	0.028467141
110	0xbd4592dd	-0.048235763
111	0xbd04536c	-0.03230612
112	0xbd804cae	-0.062646255
113	0xbe0bcf23	-0.13653235
114	0xbe3d9a50	-0.18515897
115	0xbdbab671	-0.09116829
116	0x3d687c2a	0.056759037
117	0xbd73ae8a	-0.059492625
118	0xbda4fbae	-0.080558166
119	0xbd97893a	-0.07399221
120	0x3d942b86	0.07234864
121	0xbcb389c3	-0.021916276
122	0xbe11219a	-0.14172974
123	0xbe281464	-0.16414028
124	0xbd7636f8	-0.060111016
125	0xbd482180	-0.048860073
126	0xbb96d137	-0.004602577
127	0xbd9748b7	-0.07386916

weight f4 [128, 128]
0	0x3e74b672	0.23897722
1	0x3dcd5962	0.10026814
2	0xbb5b6105	-0.0033474576
3	0xbe648790	-0.22317338
4	0x3e81847e	0.25296396
5	0xbcba8e47	-0.022772921
6	0x3da0db82	0.07854368
7	0x3dd7902a	0.10525544
8	0xbddd5f63	-0.10809209
9	0xbd7a289b	-0.06107388
10	0x3e6cc09e	0.23120353
11	0xbc568c51	-0.0130949775
12	0x3cf2ca7a	0.029637564
13	0x3d3fadcc	0.046796605
14	0x3db5089b	0.08839532
15	0x3d1a4585	0.037663955
16	0xbe3b765f	-0.18306874
17	0x3d3b2623	0.045690667
18	0x3d2c14cf	0.042012032
19	0x3c98497e	0.018589731
20	0x3ce7dfea	0.028305013
21	0xbd11f3aa	-0.035632767
22	0xbe451e39	-0.1924981
23	0x3e09e970	0.13467956
24	0xbd8e0b6f	-0.069357745
25	0x3b17c817	0.0023160034
26	0x3c8b3c4b	0.016996523
27	0xbd935498	-0.07193869
28	0xbe065595	-0.13118584
29	0x3e037174	0.12836248
30	0xbd331c99	-0.043728445
31	0x3e336ad2	0.17521217
32	0xbd318915	-0.043343622
33	0x3ce7d717	0.028300805
34	0xbd343f47	-0.04400566
35	0xbd8960b9	-0.067079015
36	0x3e3cd7fc	0.18441767
37	0x3e67b928	0.22629225
38	0x3d18ad0f	0.037274417
39	0x3cbba337	0.022904975
40	0xbd97dfe0	-0.07415748
41	0x3dd54536	0.104135916
42	0x3dbf311a	0.09335537
43	0x3c2155be	0.009847103
44	0x3e1adc22	0.15123037
45	0x3b18ca89	0.002331408
46	0xbdd67421	-0.104713686
47	0x3e0afbe1	0.13572647
48	0x3e041c5a	0.1290144
49	0xbd937c62	-0.072014585
50	0xbe010e2c	-0.12603062
51	0x3c4cdfda	0.012504542
52	0x3cf43e13	0.029814756
53	0x3e0047a0	0.12527323
54	0x3d8fc489	0.07019908
55	0x3e2457f2	0.16049173
56	0x3dabe13d	0.0839257
57	0x3e79d27e	0.24396703
58	0xbd54fd08	-0.051999122
59	0xbe476d01	-0.19475175
60	0x3d5260a4	0.051361695
61	0xbcee9ef5	-0.029128531
62	0x39e777b8	0.0004414895
63	0x3e546890	0.20743012
64	0xbd177384	-0.0369754
65	0x3dc4faac	0.09618124
66	0x3e236068	0.15954745
67	0x3b95cd48	0.0045715906
68	0x3e35ade7	0.1774212
69	0x3d37f767	0.044913676
70	0x3e7f080c	0.24905413
71	0x3e766626	0.24062404
72	0x3c0c4062	0.008560272
73	0x3e2be7fd	0.16787715
74	0xbddc6c86	-0.10762887
75	0x3befafbb	0.00731465
76	0x3ca43256	0.020043533
77	0x3e200fa3	0.15630965
78	0xbe019ee8	-0.12658274
79	0x3e8f782c	0.2802137
80	0xbdc093be	-0.094031796
81	0xbe69118f	-0.22760604
82	0x3b0cf135	0.0021506075
83	0xbccba9df	-0.024861274
84	0xbdd8e94a	-0.10591371
85	0xbda4ee6b	-0.08053287
86	0xbdca9604	-0.098918945
87	0xbc850253	-0.01623646
88	0xbe3f0a6d	-0.18656321
89	0xbd031cff	-0.032010075
90	0x3e14f582	0.14546779
91	0xbdc3e043	-0.09564259
92	0x3e1be8d0	0.1522553
93	0xbca5e05d	-0.020248586
94	0xbd06de6b	-0.032926958
95	0x3d01f578	0.031728238
96	0x3dbd488b	0.09242352
97	0xbd90f944	-0.07078794
98	0x3d201d2b	0.039090317
99	0x3d7daa18	0.061929792
100	0xbdd6d224	-0.104893
101	0xbd2e9c13	-0.042629313
102	0x3e295feb	0.16540496
103	0x3dc0aa57	0.0940749
104	0x3ccee999	0.025257872
105	0x3de2877b	0.11060997
106	0x3e268002	0.16259769
107	0x3c99446a	0.01870938
108	0xbe4e3af0	-0.2013967
109	0x3e1fed35	0.15617831
110	0x3e0d38e3	0.13791232
111	0x3dd8be03	0.10583117
112	0x3e5f3e69	0.21801151
113	0xbd1766db	-0.036963325
114	0x3d8c4b22	0.06850268
115	0x3e1c238d	0.15247937
116	0x3e68d4c4	0.22737414
117	0xbc00c755	-0.007860024
118	0xbdae4a41	-0.085102566
119	0x3da88405	0.08228306
120	0x3e409e19	0.1881031
121	0x3d0d6f38	0.034529895
122	0x3e806793	0.2507902
123	0x3e4c9570	0.19978881
124	0xbc92b722	-0.01790959
125	0x3de8efd1	0.11373866
126	0x3d96b4cb	0.07358702
127	0x3e497bc8	0.19676125
128	0xbdb75a4f	-0.08952772
129	0x3d9de42f	0.07709538
130	0x3d56c389	0.05243257
131	0x3d4f673f	0.050635573
132	0x3d845e45	0.06463293
133	0xbd1a1e6d	-0.037626673
134	0xbcc20912	-0.023685966
135	0x3de09591	0.109660275
136	0xbd108807	-0.035285976
137	0x3dd5d9f8	0.10441965
138	0x3e22cf91	0.15899493
139	0xbe155b45	-0.14585598
140	0xbe3c1d87	-0.18370639
141	0xbda632f9	-0.08115191
142	0xbe43f38c	-0.19135875
143	0xbb2cd72d	-0.0026373372
144	0x3e3ca1c2	0.1842108
145	0xbca1b084	-0.01973749
146	0xbd45467f	-0.048162933
147	0x3a6eaece	0.00091050274
148	0xbdb02b3d	-0.08601997
149	0xbd4bc33c	-0.049746737
150	0xbe1df203	-0.15424351
151	0x3bd87c4f	0.0066066156
152	0xbddb6dc3	-0.10714295
153	0xbdd6e31e	-0.10492538
154	0xbe053d3e	-0.13011643
155	0xbdcb931d	-0.09940169
156	0x3ccfa2c5	0.02534617
157	0xbe273ae1	-0.16331054
158	0x3d4f929f	0.05067694
159	0x3cc7005e	0.024292167
160	0xbd8ddbb1	-0.069266684
161	0x3e0be5dc	0.13661903
162	0x3e2b442b	0.16725223
163	0xbd5df278	-0.054186314
164	0xbd5ff888	-0.054680377
165	0x3dd27a3b	0.1027722
166	0xbd494fd5	-0.0491484
167	0x3e1a64dc	0.15077537
168	0xbd88553b	-0.066568814
169	0x3d96bcfa	0.07360263
170	0xbd12350a	-0.035695113
171	0xbe3b19b0	-0.18271518
172	0xbe005605	-0.12532814
173	0xbdce9c1b	-0.100883685
174	0x3d8dfb7a	0.06932731
175	0xbdb32b7e	-0.0874853
176	0xbc4d0001	-0.012512208
177	0xbdf33d95	-0.1187698
178	0xbbff9802	-0.007800103
179	0xbd413c41	-0.047176603
180	0x3d440ceb	0.047863882
181	0x3d4657ea	0.048423685
182	0xbe728df5	-0.23686965
183	0xbc40c667	-0.011766053
184	0x3c106745	0.008813684
185	0xbd22e5ae	-0.03976982
186	0x3daf3ee3	0.085569166
187	0xbddc95d1	-0.10770763
188	0xbd8417c5	-0.06449846
189	0xbdb093c7	-0.08621936
190	0x3e335624	0.17513329
191	0xbe1fe952	-0.15616348
192	0xbde99aae	-0.11406456
193	0xbe0f92d2	-0.14020851
194	0x3d1f74a4	0.038929597
195	0xbe44503c	-0.19171232
196	0xbdcfdffe	-0.10150145
197	0x3d773cc5	0.06036069
198	0xbd4aa6b9	-0.049475405
199	0xbd79ace3	-0.060955893
200	0xbe2dfa84	-0.16990095
201	0x3c336eef	0.010951742
202	0xbe32601b	-0.17419474
203	0x3dc45c66	0.09587936
204	0xbd59eefd	-0.053206433
205	0x3ce25918	0.027630374
206	0xbdeade11	-0.11468137
207	0x3de5eb5b	0.11226531
208	0xbca95c06	-0.020673763
209	0xbd543338	-0.05180666
210	0xbce189f9	-0.02753161
211	0xbd27b514	-0.040944174
212	0xbd74b4d2	-0.059742756
213	0xbda164a7	-0.07880526
214	0x3db2565b	0.08707877
215	0x3e05cec3	0.13067155
216	0xbe129853	-0.1431592
217	0xbd30b8f8	-0.04314515
218	0xbd1ad58f	-0.03780132
219	0xbdbbdfda	-0.09173556
220	0x3d03dc44	0.032192484
221	0x3da4f3b0	0.08054292
222	0xbce26895	-0.02763776
223	0x3bea5ee6	0.007152426
224	0xbe231ae6	-0.1592823
225	0x3dc8df1f	0.09808182
226	0xbd06867d	-0.0328431
227	0xbdbaa01d	-0.091125704
228	0x3d6b35d1	0.05742437
229	0xbd596bb7	-0.05308124
230	0xbd45908f	-0.048233565
231	0xbe098c94	-0.13432533
232	0xbd56cecf	-0.05244332
233	0x3dc69da3	0.096980356
234	0x3abb1e31	0.0014275966
235	0xbcf99f0c	-0.030471347
236	0xbda02416	-0.07819383
237	0xbc547b84	-0.012968902
238	0xbe189ffc	-0.14904779
239	0xbdf2f55d	-0.118632056
240	0xbd44a958	-0.04801306
241	0xbc9d969a	-0.019236851
242	0xbe2489f2	-0.16068247
243	0x3cc7e21b	0.024399808
244	0x3e4a0ac1	0.19730665
245	0x3dfc923a	0.12332578
246	0x3dd71ee2	0.10503937
247	0x3bb240b0	0.0054398403
248	0xbd00f8c1	-0.03148723
249	0xbe522de6	-0.20525321
250	0x3e02adc1	0.12761594
251	0xbc5b050c	-0.0133679025
252	0x3da11ea5	0.07867173
253	0x3d9532c4	0.072850734
254	0x3d3c538a	0.045978107
255	0x3d8fa884	0.07014564

bias f4 [128]
0	0x3dc425ab	0.09577497
1	0xbe1fe374	-0.1561411
2	0xbba70a0b	-0.0050976328
3	0xbe155f1e	-0.14587066
4	0xbdda2059	-0.10650701
5	0xbcc38db5	-0.023871282
6	0x3d45bafc	0.048274025
7	0x3ad529da	0.0016263083
8	0x3dbf2d82	0.09334852
9	0x3d6fb5a9	0.058522854
10	0xbe1b1727	-0.1514555
11	0xbcf59ea8	-0.02998288
12	0x3da0f30f	0.0785886
13	0x3cc74aca	0.024327654
14	0x3cffcfd2	0.031227026
15	0x3d28632d	0.041110206
16	0xbca4cc52	-0.020116959
17	0xbdc06b48	-0.09395462
18	0xbe096999	-0.13419189
19	0xbe162675	-0.14663108
20	0xbe257c1a	-0.16160622
21	0xbb04906a	-0.002022768
22	0x3cf8a36c	0.030351363
23	0x3db77afd	0.08959005
24	0xbd1b3060	-0.03788793
25	0xbd9c055d	-0.076182105
26	0x3dcf25a8	0.10114604
27	0x3bce1fb8	0.0062904023
28	0xbe087432	-0.13325575
29	0x3c760ed1	0.015018181
30	0xbcfdb6be	-0.030970927
31	0xbddefac2	-0.10887672
32	0xbda8f5d4	-0.08250013
33	0x3d02e17a	0.031953312
34	0xbc60eaae	-0.013727827
35	0xbe071dce	-0.13194963
36	0xbd173d26	-0.03692355
37	0x3d661043	0.056167852
38	0x3e0585ea	0.13039365
39	0x3e0c492e	0.13699791
40	0x3d6237b6	0.05522891
41	0xbcaf0b78	-0.021367773
42	0xbe39bb9b	-0.18137972
43	0xbdaa97ec	-0.08329758
44	0xbd06d43e	-0.032917254
45	0x3dc1777a	0.094466165
46	0x3d8828ec	0.0664843
47	0xbd2a3127	-0.04155078
48	0xbba7fb16	-0.0051263673
49	0x3dd8aa48	0.105793536
50	0xbd260718	-0.04053411
51	0x3cc057c8	0.023479357
52	0xbd87711a	-0.06613369
53	0x3e0ed9c8	0.13950264
54	0xbd07154a	-0.032979287
55	0x3c93744d	0.017999792
56	0xbe32bcca	-0.1745483
57	0xbd2c3de4	-0.04205121
58	0x3dd525dd	0.104076125
59	0x3d36ff32	0.044676967
60	0x3ddddc42	0.108330265
61	0x3dc4b3d6	0.096046135
62	0x3d4fca6d	0.050730158
63	0xbe182918	-0.14859426
64	0x3e500d9c	0.20317692
65	0xbd63a1ad	-0.055574108
66	0xbda585e8	-0.08082181
67	0xbbb622d4	-0.005558351
68	0xbe574fa9	-0.21026482
69	0x3c4cc8b5	0.012499024
70	0xbe30dd06	-0.17271814
71	0x3d93733e	0.07199715
72	0xbd784740	-0.060614824
73	0xbd0e19d6	-0.034692608
74	0x3c3b70fd	0.011440513
75	0x3db4c09a	0.08825798
76	0xbd473be0	-0.048641086
77	0xbdf7ec06	-0.12105565
78	0x3dcd02e9	0.10010321
79	0xbde0c178	-0.10974401
80	0xbc13ac36	-0.009013226
81	0x3dadf78f	0.08494484
82	0x3d1a169a	0.03761921
83	0xbe00d786	-0.12582216
84	0xbd81529b	-0.06314584
85	0xbd661b58	-0.05617842
86	0x3d2d52da	0.04231534
87	0xbd802933	-0.06257858
88	0xbd3b1848	-0.045677453
89	0xbd877800	-0.06614685
90	0xbd2ba708	-0.04190734
91	0xbdbba29b	-0.09161874
92	0x3dfbf7cd	0.123031236
93	0x3c279f64	0.010230873
94	0x3c1a8247	0.009430475
95	0x3d05d176	0.03267046
96	0xbe086327	-0.13319074
97	0xbc511af9	-0.012762778
98	0x3dcf6334	0.10126343
99	0xbe381bee	-0.17979404
100	0x3cf0b529	0.029383259
101	0xbde85d3f	-0.1134591
102	0xba87fc92	-0.0010374954
103	0x3ce264f1	0.027636023
104	0xbcf6b3d6	-0.03011505
105	0x3e87b9fd	0.26509085
106	0xbda4fc96	-0.080559894
107	0x3d8ad347	0.06778579
108	0x3e399d09	0.1812631
109	0x3e0b4007	0.13598643
110	0x3df1f3de	0.11814092
111	0x3d3562eb	0.04428379
112	0x3c2cbeab	0.010543506
113	0xbe14d0cd	-0.14532776
114	0xbc5641da	-0.013077224
115	0xbde8c319	-0.11365337
116	0x3ca62295	0.020280162
117	0x3c88e08b	0.016708633
118	0x3df482fe	0.11939047
119	0x3d888f80	0.066679955
120	0x3d6e5a07	0.058191326
121	0x3e1f2097	0.15539776
122	0xbe057dce	-0.13036272
123	0x3ddc9193	0.107699536
124	0x3de06051	0.10955871
125	0xbdc4eb3a	-0.096151784
126	0x3d525f01	0.051360134
127	0x3dc8d725	0.098066606
