results/model/expert.model (torch, 686563 bytes, 21 tensors)

weight_ih f4 [384, 5]
0	0x3d4d2d1f	0.05009186
1	0xbe1e1bb0	-0.1544025
2	0xbd9140a6	-0.07092409
3	0xbdd43d65	-0.103632726
4	0xbe67a556	-0.22621664
5	0xbbbe13ee	-0.0058007156
6	0x3d6a31c2	0.05717636
7	0xbd3967c0	-0.04526496
8	0xbd7b7326	-0.06138911
9	0x3d59a131	0.05313224
10	0xbc20f942	-0.009825053
11	0x3ceea97b	0.029133549
12	0x3d27dfa3	0.04098476
13	0xbdd6adda	-0.10482378
14	0x3dba4c85	0.09096626
15	0x3cb447dc	0.022006921
16	0xbd93a09e	-0.0720837
17	0xbd614455	-0.054996807
18	0x3d9217df	0.07133459
19	0x3931c19b	0.00016952159
20	0x3de615ae	0.11234604
21	0xbdb07337	-0.086157255
22	0x3d21285a	0.039345123
23	0xbdc62278	-0.09674543
24	0x3d4bebb0	0.049785316
25	0x3cbc9ddc	0.023024492
26	0xbc5c8904	-0.013460401
27	0x3e322bd2	0.17399529
28	0x3e0daf37	0.1383637
29	0xbde8a701	-0.113599785
30	0x3d0f868b	0.03504042
31	0xbc2e397b	-0.010633822
32	0x3db0969c	0.086224765
33	0x3db3593c	0.087572545
34	0xbd7e92f3	-0.06215186
35	0x3e0d352f	0.13789819
36	0xbd3074e8	-0.04308024
37	0xbdb7ab54	-0.08968225
38	0x3cb48974	0.022038199
39	0x3dc920ef	0.09820735
40	0x3b41e7e1	0.0029587673
41	0xbc0812b1	-0.008305238
42	0x3e1156a9	0.14193214
43	0xbc78b8b0	-0.015180752
44	0x3d82589f	0.063645594
45	0x3ae76db3	0.0017656594
46	0x3d2b799c	0.041864023
47	0x3dc367e2	0.095412984
48	0x3d2e345a	0.042530395
49	0xbce80845	-0.028324256
50	0xbc02021f	-0.007935076
51	0x3d9f024e	0.077641115
52	0xbd3edb24	-0.046595708
53	0x3e054583	0.13014798
54	0xbc6042e1	-0.01368782
55	0x3d347ddd	0.044065345
56	0xbce3addf	-0.02779287
57	0xbe4cb46f	-0.19990705
58	0x3c7d2d15	0.015452643
59	0x3dfd8cd9	0.1238038
60	0x3e0d0fc0	0.1377554
61	0xbd946da8	-0.07247478
62	0xbc28f0be	-0.010311304
63	0x3c9c040e	0.019044902
64	0x3d9c73b3	0.076392554
65	0x3e0ef85e	0.13961932
66	0xbe120e80	-0.14263344
67	0xbdfb62a5	-0.12274674
68	0x3d3f716a	0.04673902
69	0xbdc4df56	-0.096129104
70	0xbcdd1d74	-0.026991583
71	0x3dcf42dc	0.10120174
72	0x3db3e44f	0.08783781
73	0x3dc22529	0.09479744
74	0xbe43797a	-0.19089308
75	0x3daee21d	0.085392214
76	0x3d6f319b	0.058396917
77	0xbdd30e74	-0.10305491
78	0x3d45e701	0.048316006
79	0x3d824ed1	0.06362689
80	0x3c9e7a03	0.01934529
81	0x3cfab29c	0.030602746
82	0x3c8312ab	0.016000113
83	0x3b925d24	0.0044666696
84	0x3c7f2e50	0.015575007
85	0xbbd6fa8f	-0.0065606306
86	0x3d689284	0.056780353
87	0x3da0f976	0.07860081
88	0xbc840650	-0.016116291
89	0x3df10a88	0.11769587
90	0x3c9f0a7b	0.019414177
91	0xbd68ca7a	-0.05683372
92	0x3d9a7b1a	0.07543011
93	0x3d29351d	0.04131042
94	0x3dc4c8b8	0.096085966
95	0x3cb87f5e	0.02252167
96	0xbd969a6b	-0.07353672
97	0x3da64929	0.08119423
98	0xbdc1565d	-0.094403006
99	0xbd0962d1	-0.033541504
100	0xbcb8f3e5	-0.022577235
101	0xbe03d566	-0.12874374
102	0xbcb8eae2	-0.022572938
103	0xbdf1a6c2	-0.11799385
104	0x3e5e3f0f	0.21703742
105	0x3d336f9a	0.043807603
106	0x3de58cdc	0.112085074
107	0x3c4d2afb	0.012522454
108	0x3e1faef6	0.15594086
109	0xbbe920f7	-0.0071145254
110	0x3d69394f	0.05693942
111	0x3cbda954	0.023152031
112	0x3d58ec0e	0.052959494
113	0xbcc416bb	-0.02393662
114	0xbdf557ec	-0.119796604
115	0xbbcfa6ae	-0.0063370084
116	0xbdb9273a	-0.09040685
117	0xbd97fd89	-0.07421405
118	0xbc01eb68	-0.00792966
119	0x3d8cd607	0.0687676
120	0xbcfca53d	-0.03084051
121	0xbd0f5f26	-0.03500285
122	0x3e102c13	0.14079313
123	0x3d5d92d6	0.05409511
124	0x3da866cc	0.08222732
125	0x3d71e885	0.05905964
126	0x3d79138f	0.06080967
127	0x3c0c6ddc	0.008571114
128	0x3d7b78b4	0.06139441
129	0xbcb0f4ed	-0.021601165
130	0x3cbbf9c2	0.022946242
131	0x3cc1eb44	0.023671754
132	0xbd998038	-0.07495159
133	0xbdfe36eb	-0.124128185
134	0x3e0277eb	0.12741058
135	0xbdc5f28b	-0.09665402
136	0xbdebc43b	-0.11512037
137	0x3d3937fc	0.045219406
138	0x3d5acdc1	0.05341888
139	0xbe081275	-0.13288291
140	0xbd99b4dd	-0.075052
141	0xbcf006e6	-0.029300164
142	0x3d9c6aa7	0.0763753
143	0xbc807a15	-0.015683213
144	0xbd0dac5b	-0.0345882
145	0x3da35c08	0.07976538
146	0xbd820afb	-0.063497506
147	0x3e03514b	0.1282398
148	0xbc9ee91e	-0.019398268
149	0x3e38da59	0.18052043
150	0xbcb38d63	-0.021918004
151	0xbc7e6fad	-0.015529555
152	0xbd8de2e7	-0.06928044
153	0x3c9b3d00	0.018949986
154	0xbb96d071	-0.004602485
155	0x3dae9ddd	0.08526204
156	0x3c8dea83	0.017323738
157	0xbdaf31a0	-0.08554387
158	0x3d3ed038	0.04658529
159	0x3c9d47f9	0.019199358
160	0x3da0ccbc	0.0785155
161	0xbdf24fe8	-0.11831647
162	0x3de02b64	0.10945776
163	0x3d86440e	0.06555949
164	0xbcd67265	-0.026177594
165	0x3c3df6d0	0.011594489
166	0x3c77c63c	0.015122946
167	0x3c508903	0.012727979
168	0xbd3bf513	-0.045888018
169	0xbb0ed451	-0.002179403
170	0x3d8d90e6	0.06912403
171	0x3d1fb108	0.03898719
172	0x3e4dc749	0.20095553
173	0x3d862282	0.065495506
174	0x3d901dde	0.07036947
175	0xbd8474df	-0.06467604
176	0xbdb89fd1	-0.090148576
177	0xbd82e8ce	-0.0639206
178	0xbdf19d34	-0.11797562
179	0x3c6ac661	0.014329524
180	0x3dad0f4d	0.08450184
181	0x3e19a2f6	0.15003571
182	0x3dc4ca1b	0.09608861
183	0x3a7c3fc6	0.000962254
184	0x3d13b276	0.036058865
185	0x3d9708bd	0.073747136
186	0x3d6891fd	0.05677985
187	0xbde2a3d7	-0.11066406
188	0x3d19905c	0.037491187
189	0xbbb345d3	-0.00547097
190	0x3dab4362	0.083624616
191	0x3d82dc90	0.06389725
192	0xbd04490f	-0.032296237
193	0x3cc3ea3a	0.023915399
194	0x3e30248f	0.17201446
195	0x3d84ff9e	0.064940676
196	0xbddd9e9f	-0.1082127
197	0xbda07fce	-0.07836877
198	0xbde62a08	-0.112384856
199	0xbd8a4ff7	-0.06753533
200	0x3d42d6bb	0.047568064
201	0x3ce9cb3c	0.028539293
202	0xbd91469b	-0.07093545
203	0x3b2f4275	0.0026742492
204	0x3cd0217b	0.02540659
205	0x3df77153	0.12082162
206	0xbd999eb5	-0.07500974
207	0xbe27e9dd	-0.16397806
208	0x3d715a96	0.05892428
209	0x3df6bfc2	0.12048294
210	0x3dc235af	0.094828956
211	0xbdbf9aa5	-0.09355668
212	0x3dedb032	0.11605872
213	0x3d8b24c3	0.06794121
214	0xbcb09bc4	-0.02155865
215	0x3b998ffd	0.004686354
216	0xbd39c958	-0.045358032
217	0x3cc4e1fa	0.024033535
218	0x3e07f71f	0.13277863
219	0xbe21ab21	-0.15787937
220	0x3d28ff44	0.041259065
221	0x3cba6820	0.022754729
222	0xbccb0278	-0.02478145
223	0x3d18c1cd	0.037294198
224	0xbd37c467	-0.04486504
225	0x3d870086	0.06591897
226	0x3c856205	0.01628209
227	0xbc6c2c0a	-0.014414797
228	0x3dc76144	0.09735349
229	0xbdad4f20	-0.084623575
230	0xbd98d876	-0.07463162
231	0x3c95a172	0.01826546
232	0x3b410f0c	0.0029458432
233	0x3b40d7ad	0.0029425428
234	0x3de85326	0.11343984
235	0x3c859f0a	0.016311187
236	0xbdf7fa19	-0.12108249
237	0x3d645aef	0.055750784
238	0xbd8de10c	-0.0692769
239	0xbcc5cec0	-0.024146438
240	0xbb4b418b	-0.0031014408
241	0x3d9ec669	0.077526875
242	0x3d79f718	0.061026663
243	0xbe0fbf35	-0.14037783
244	0x3b2bbb7e	0.0026204283
245	0xbe0e41f8	-0.13892353
246	0x3c46803e	0.012115536
247	0x3dae920a	0.085239485
248	0x3bd4ec03	0.0064978614
249	0xbe0b2aac	-0.13590497
250	0xbe828102	-0.2548905
251	0x3e075ec0	0.13219738
252	0x3c4128d2	0.0117895175
253	0x3c9ad21e	0.01889902
254	0xbe5c25b4	-0.21498758
255	0x3de153d4	0.11002317

weight_hh f4 [384, 128]
0	0x3c04a0b8	0.008094959
1	0x3da29e47	0.07940345
2	0xbcd7541e	-0.026285227
3	0xbcd611e0	-0.02613157
4	0xbd11f380	-0.03563261
5	0xbca527c5	-0.020160565
6	0x3dad2f13	0.08456244
7	0xbd298202	-0.04138375
8	0x3d6bac71	0.0575375
9	0xbd0b8b11	-0.03406817
10	0xbd9301e1	-0.07178093
11	0xbdaf43d0	-0.08557856
12	0xbe096d44	-0.13420588
13	0x3dbd5a1f	0.09245705
14	0x3dc5af43	0.09652569
15	0xbd209d5d	-0.039212573
16	0xbd3bf626	-0.045889042
17	0x3dc29331	0.09500731
18	0xbd83ca40	-0.064350605
19	0x3dc19293	0.09451785
20	0x3e30f0e2	0.1727939
21	0x3d9d5c59	0.076836295
22	0x3c496f2d	0.012294573
23	0xbdad8904	-0.08473399
24	0x3d9a9f55	0.075499214
25	0xbe070abd	-0.1318769
26	0x3dd7e174	0.10541049
27	0xbc99deba	-0.018782962
28	0xbc1d9456	-0.009617886
29	0x3d6d348f	0.057911452
30	0xbda4438b	-0.08020695
31	0x3d881253	0.0664412
32	0xbe5cc8d9	-0.21560992
33	0xbe0db068	-0.13836825
34	0xbda2767f	-0.079327576
35	0x3cccf782	0.025020365
36	0xbe22ce02	-0.15898898
37	0xbd921e01	-0.07134629
38	0x3c5f7357	0.013638339
39	0x3db6fee5	0.08935336
40	0x3d994ac1	0.07484961
41	0xbc48a641	-0.012246669
42	0xbcb43fa8	-0.02200301
43	0x3daeeb64	0.08540991
44	0xbc93bc01	-0.018033983
45	0xbdd13ef3	-0.10217085
46	0xbd8d1857	-0.06889408
47	0xba0e5f46	-0.0005431067
48	0x380ec786	3.404126e-05
49	0x3dbff72a	0.09373315
50	0x3db37877	0.08763211
51	0xbd5385fa	-0.051641442
52	0xbe123d88	-0.14281285
53	0x3c45fb77	0.01208388
54	0x3d157c2d	0.036495376
55	0xbcf7b24e	-0.03023639
56	0xbe1780bf	-0.14795206
57	0x3db50c7e	0.08840273
58	0x3bbdceb1	0.005792462
59	0xbda3ad62	-0.079920545
60	0xbd202abf	-0.039103266
61	0xbd1b2d9b	-0.03788529
62	0x3cedff15	0.029052297
63	0xbbe627fb	-0.007023809
64	0x3d67d98e	0.05660396
65	0xbdcc0636	-0.09962122
66	0xbe14c435	-0.14527972
67	0xbd203405	-0.03911211
68	0xbd099374	-0.033587888
69	0xbd382e25	-0.04496588
70	0x3d85dd3a	0.06536336
71	0x3d5f8e94	0.054579332
72	0xbc09dd45	-0.008414571
73	0x3dae69c0	0.08516264
74	0xbdad2e7e	-0.08456133
75	0x3dfa71f8	0.12228769
76	0x3cb3aded	0.02193352
77	0xbda98e05	-0.08279041
78	0x3ce832ec	0.028344594
79	0xbdc5f6e9	-0.09666235
80	0x3db77752	0.089583054
81	0xbd7cca25	-0.061716218
82	0xbde86420	-0.11347222
83	0x3d07cccf	0.033154305
84	0x3d444d34	0.04792519
85	0x3bfc7038	0.007703807
86	0xbe8a6090	-0.27026796
87	0xbdb912e1	-0.09036804
88	0x3dce206e	0.10064779
89	0x3caef26c	0.02135583
90	0x3dc00895	0.09376637
91	0xbbcbd7dc	-0.006220801
92	0xbda10653	-0.078625344
93	0x3ba14874	0.004921967
94	0x3e3c0951	0.18362929
95	0xbdcaf280	-0.099095345
96	0x3e494518	0.19655263
97	0xbde5a473	-0.11213007
98	0xbd26262f	-0.04056376
99	0xbb5cb71c	-0.0033678478
100	0xbe1d4b40	-0.15360737
101	0xbdde1249	-0.10843331
102	0x3c9967c7	0.018726243
103	0xbdc17d00	-0.0944767
104	0x3d28e576	0.041234456
105	0xbd8f2cc4	-0.0699096
106	0xbc07f835	-0.008298923
107	0x3bb19038	0.0054188035
108	0x3e6b0f79	0.22955121
109	0xbd443986	-0.04790642
110	0xbdaff0d1	-0.08590854
111	0xb982fcf2	-0.0002498399
112	0xbe01aa5c	-0.12662643
113	0x3e11d928	0.14242995
114	0x3c861e4a	0.016371865
115	0xbd9fb07b	-0.07797333
116	0xbd0f1d2b	-0.034939926
117	0xbd485d60	-0.048917174
118	0x3e3e2583	0.18568997
119	0xbdc12cb0	-0.094323516
120	0x3d7c0349	0.06152657
121	0xbdf74379	-0.12073416
122	0xbde7f94a	-0.11326845
123	0xbd96824a	-0.073490694
124	0xbe18cf39	-0.14922799
125	0x3d3fc3f1	0.046817724
126	0x3caea5e2	0.021319333
127	0x3e1bc33a	0.15211192
128	0x3d20ba82	0.039240368
129	0x3c9706b7	0.01843582
130	0xbc95a64d	-0.018267775
131	0xbdfe0947	-0.12404113
132	0x3c9c04a3	0.01904518
133	0x3dc0e948	0.09419495
134	0x3c33abe2	0.010966273
135	0xbd055f96	-0.03256186
136	0xbc52902c	-0.012851756
137	0x3e23ffa8	0.16015494
138	0x3d737fb7	0.05944797
139	0xbbee2205	-0.007267239
140	0xbcade6e4	-0.021228261
141	0x3cf23176	0.0295646
142	0xbe3b15e4	-0.1827007
143	0xbc96a9a3	-0.018391436
144	0x3dc94c83	0.098290466
145	0xbc2f5ef5	-0.010703792
146	0xbd84d0fb	-0.06485172
147	0xbd99119d	-0.074740626
148	0xbe092ab5	-0.13395198
149	0xb9d896e3	-0.0004131115
150	0xbd95128f	-0.072789304
151	0xbc26de8e	-0.010184897
152	0x3dd3cd70	0.103419185
153	0x3e2a9447	0.16658126
154	0x3cd72498	0.026262566
155	0x3c5567f0	0.013025269
156	0xbcf4ea66	-0.029896926
157	0xbd6f087c	-0.0583577
158	0x3d1fb5b6	0.038991652
159	0xbd00fbfe	-0.03149032
160	0x3e15df63	0.14635997
161	0x3dd80ae5	0.10548953
162	0xbd30d14d	-0.043168355
163	0xbd5d844e	-0.054081254
164	0x3de89729	0.113569565
165	0xbc4ef669	-0.012631991
166	0xbe01e8f1	-0.12686516
167	0xbd2d829c	-0.042360887
168	0x3da921ec	0.08258423
169	0x3d822eab	0.063565575
170	0x3c8e563b	0.017375102
171	0xbdcb2d8f	-0.09920799
172	0xbdee8d8a	-0.1164809
173	0x3e068d93	0.13139944
174	0xbc15955d	-0.009129849
175	0xbca549f0	-0.020176858
176	0xbd35d542	-0.04439283
177	0xbd07b8bf	-0.033135172
178	0x3caa1cf8	0.020765767
179	0xbd6bec24	-0.057598248
180	0x3d43dd91	0.047818724
181	0x3d9e33ca	0.07724722
182	0x3df4042f	0.119148605
183	0x3d242576	0.040074788
184	0x3e25f5f1	0.162071
185	0xbd4f9e1c	-0.050687894
186	0xbcf041fe	-0.029328343
187	0x3c7daa12	0.015482442
188	0xbd14077e	-0.036139958
189	0x3d698c78	0.057018727
190	0x3d57b99d	0.05266725
191	0xbd0b7c67	-0.034054186
192	0xbd2bde7a	-0.041960217
193	0xbcb7cbd2	-0.022436056
194	0x3d216b93	0.03940923
195	0x3ddc499c	0.107562274
196	0x3dff14b7	0.12455123
197	0x3d084953	0.033273052
198	0x3bb2645c	0.0054440927
199	0xbb2be782	-0.0026230519
200	0xbc8cc138	-0.017181978
201	0x3ba05b18	0.0048936717
202	0x3acef638	0.0015789932
203	0xbdbeba41	-0.09312869
204	0x3d8352d0	0.064122796
205	0xbcf43c9d	-0.029814059
206	0xbddb3c73	-0.10704889
207	0xbc16a88b	-0.009195457
208	0x3de38b28	0.11110526
209	0xbd5515b7	-0.052022662
210	0xbd681ff8	-0.056671113
211	0x3ce44e94	0.0278695
212	0xbc74a19d	-0.01493111
213	0xbd7c91f7	-0.06166264
214	0x3d8a82a6	0.067632005
215	0x3e29bd24	0.16576058
216	0x3c9e70a2	0.019340817
217	0xbc151765	-0.009099816
218	0x3d934bd0	0.071921945
219	0x3d60151a	0.054707624
220	0x3dc2ea94	0.095173985
221	0xbd58fc11	-0.052974764
222	0xbd0ad146	-0.033890985
223	0xbd97aff3	-0.074066065
224	0xbd034590	-0.03204876
225	0x3de8661d	0.113476016
226	0x3d7280a8	0.059204727
227	0xbd14dfc2	-0.036346205
228	0x3dcf1183	0.10110762
229	0x3d24a728	0.040198475
230	0xbd35259f	-0.04422533
231	0x3d0f7ace	0.035029225
232	0xbcbf2af2	-0.023335908
233	0x3dc19a7c	0.09453294
234	0xbd36aa02	-0.044595726
235	0x3a33deda	0.00068615156
236	0xbcd76e71	-0.02629778
237	0xbda0c30a	-0.07849701
238	0x3cab7c79	0.020933377
239	0xbda05468	-0.07828599
240	0x3cab2879	0.020893322
241	0xbc4b39dc	-0.0124039315
242	0xbb15ef26	-0.002287814
243	0xbe308643	-0.17238717
244	0x3d7bd35a	0.061480857
245	0x3d3815ac	0.044942543
246	0xbd746e7b	-0.059675675
247	0xbcaefffd	-0.0213623
248	0xbd80c106	-0.06286816
249	0x3dc021a9	0.0938142
250	0x3d838a65	0.06422881
251	0x3d8c7ab2	0.0685934
252	0x3ce385a0	0.027773678
253	0xbcaf0eaa	-0.021369297
254	0xbd486e14	-0.048933104
255	0xbb7bace3	-0.003840261

bias_ih f4 [384]
0	0xbd00dfac	-0.03146331
1	0xbd5df664	-0.054190055
2	0xbd66b2d3	-0.056322884
3	0xbcf2ed6b	-0.029654225
4	0xbdce60d8	-0.10077065
5	0x3cb1be2d	0.021697128
6	0x3dedae54	0.11605516
7	0x3d35ec4c	0.044414803
8	0xbda2a44e	-0.07941495
9	0x3d817b4d	0.06322346
10	0x3c4d2c86	0.012522822
11	0x3cc57662	0.0241043
12	0x3d88c29d	0.066777445
13	0x3da303d2	0.07959713
14	0xbd138612	-0.03601653
15	0xbce1f18f	-0.027581004
16	0x3cbeeb0a	0.023305435
17	0xbce22f5e	-0.027610477
18	0x3d9bafb0	0.07601869
19	0xbc4e0e53	-0.012576657
20	0xbbc30903	-0.005952002
21	0x3bb6ecb7	0.005582418
22	0x3d800d6d	0.06252561
23	0x3d9a74fc	0.07541844
24	0xbc5f6182	-0.0136340875
25	0x3d7bdf1d	0.061492074
26	0xbdd1558a	-0.102213934
27	0xbdb2741b	-0.087135516
28	0x3ccb7123	0.024834221
29	0x3d8ae8c7	0.0678268
30	0xbd071d65	-0.032987017
31	0xbda51a57	-0.080616646
32	0xb9fb69b1	-0.00047953197
33	0x3b77c0dc	0.0037804162
34	0x3dbe7995	0.09300534
35	0x3d3d3ba2	0.04619945
36	0xbd375878	-0.044762105
37	0x3c8106ca	0.015750308
38	0xbd6e9176	-0.05824419
39	0xbc7154ac	-0.01472966
40	0xbd04aec3	-0.03239323
41	0xbd505b4e	-0.050868325
42	0xbca9cf80	-0.020728827
43	0x3d75cbf5	0.06000896
44	0x3d278450	0.040897667
45	0x3db6e6cb	0.08930739
46	0xbda17caf	-0.0788511
47	0x3daeee7c	0.08541581
48	0xbb00c128	-0.001964638
49	0x3d890ce1	0.066919096
50	0x3dc332fe	0.0953121
51	0x3dd32888	0.10310465
52	0xbd4dc558	-0.05023703
53	0x3db5351a	0.08848019
54	0x3da417a8	0.080123246
55	0xbcae2008	-0.021255508
56	0xbc37b3b2	-0.011212276
57	0x3dbc2a20	0.09187722
58	0xbd5c3104	-0.053757682
59	0x3caa2366	0.020768832
60	0x3cba99ae	0.022778358
61	0x3c7b1fa2	0.015327366
62	0x3d3affc1	0.045654062
63	0x3db597fe	0.08866881
64	0x3c933877	0.01797126
65	0x3b44c2ea	0.0030023404
66	0xbda8f6a5	-0.08250169
67	0x3cecebe8	0.028921083
68	0x3ced48e4	0.028965421
69	0x3d26d73e	0.040732615
70	0x3ddd10b5	0.10794202
71	0x3d20d190	0.039262354
72	0x3db2ac81	0.08724309
73	0x3d261960	0.040551543
74	0xbd3b9741	-0.045798544
75	0x3d4d7012	0.050155707
76	0x3c2a0ed1	0.010379509
77	0x3cad3f4e	0.02114835
78	0x3d28fd9e	0.041257493
79	0x3d6580a7	0.056030896
80	0x3d814d86	0.063136145
81	0x3ca8676b	0.020557126
82	0x3d70f671	0.058828775
83	0x3d9aab23	0.07552173
84	0x3d8dd231	0.069248565
85	0x3d15bf3c	0.03655933
86	0xbcb8b56a	-0.022547442
87	0xbc0a346a	-0.008435348
88	0x3dfcb3f7	0.12339013
89	0xbdf5ac0f	-0.11995708
90	0xbd887e2b	-0.0666469
91	0xbb37ca70	-0.0028044246
92	0x3c7da207	0.015480525
93	0xbdb036c6	-0.08604197
94	0xbd229a44	-0.0396979
95	0x3c0de7b6	0.008661201
96	0x3cdb8482	0.026796583
97	0x3de0c77e	0.1097555
98	0x3c624404	0.0138101615
99	0x3cb33492	0.021875653
100	0x3e1cd550	0.15315747
101	0x3cdd15db	0.02698796
102	0x3d342b67	0.043986704
103	0xbd00b9f6	-0.031427346
104	0x3d339d70	0.043851316
105	0x3e0fb1c1	0.14032651
106	0x3d10f318	0.035388082
107	0x3db30986	0.08742051
108	0xbc9558cf	-0.018230824
109	0x3cfba27c	0.030717127
110	0xbca03ce1	-0.01956028
111	0x3d48f071	0.049057428
112	0xbd481eb4	-0.048857406
113	0xbd057d59	-0.032590244
114	0xbc0dc163	-0.008652064
115	0x3d6c056d	0.057622362
116	0xbdafd6a9	-0.08585865
117	0x3d86cd4d	0.06582127
118	0x3d7a4278	0.061098546
119	0x3d843519	0.0645544
120	0xbdb45a7d	-0.08806322
121	0x3dcdb0e8	0.10043508
122	0x3b96ecc6	0.0046058623
123	0x3dd12a44	0.1021314
124	0x3c8fcefd	0.017554754
125	0xbbf33857	-0.0074224877
126	0xbd8b67a2	-0.06806876
127	0xbce7862d	-0.028262222
128	0xbe031e3c	-0.12804502
129	0x3da227fe	0.07917784
130	0x3ccd942d	0.02509507
131	0x3c0c362f	0.00855784
132	0xbda66aa4	-0.08125809
133	0xbddfd757	-0.10929745
134	0x3a34b404	0.00068932795
135	0xbd9edc61	-0.07756878
136	0x3c77a205	0.015114312
137	0x3d885bac	0.0665811
138	0xbe9169f7	-0.28401157
139	0xbe15ae72	-0.14617327
140	0xbe20334a	-0.15644565
141	0xbd366e52	-0.044538803
142	0x3d85314d	0.06503544
143	0x3cb3e34e	0.021958973
144	0xbe20aaa1	-0.1569009
145	0x3dc20020	0.0947268
146	0x3c741bb5	0.014899184
147	0xbc3d3a0c	-0.011549484
148	0xbce680e2	-0.028137628
149	0xbd8258c9	-0.06364591
150	0xbcf53994	-0.029934682
151	0xbe043c1c	-0.12913555
152	0x3d5902de	0.05298125
153	0xbc72efbd	-0.014827666
154	0xbe1ba96b	-0.15201347
155	0x3c5d283e	0.013498364
156	0x3c0337c8	0.008008905
157	0xbdc19ef6	-0.094541475
158	0xbe4a7b77	-0.1977366
159	0xbd7b596c	-0.061364576
160	0xbd49e29f	-0.04928839
161	0x3d8763db	0.06610843
162	0xbdf11891	-0.11772264
163	0xbd6feccb	-0.058575433
164	0x3cc11e46	0.023574006
165	0xbe140730	-0.14455867
166	0xbdcbaf88	-0.09945589
167	0xbe7de990	-0.24796128
168	0xbe353590	-0.17696214
169	0xbe3aa7d4	-0.18228084
170	0x3bb9a4f6	0.005665417
171	0x3b0673b1	0.0020515735
172	0xbca46db0	-0.020071834
173	0xbd41c010	-0.047302306
174	0xbc0bda00	-0.008535862
175	0xbd513260	-0.051073432
176	0x3dc56ee2	0.0964029
177	0x3d445a05	0.04793741
178	0xbe48af04	-0.19598013
179	0xbc20bebe	-0.0098111015
180	0x3d15c8da	0.0365685
181	0x3d242350	0.04007274
182	0xbd8f0971	-0.06984223
183	0x3d2edad8	0.042689174
184	0xbc3d9da6	-0.011573231
185	0xbdfd836c	-0.12378582
186	0x3db37ed1	0.08764423
187	0xbded4cf4	-0.11586943
188	0x3d2ce5c9	0.042211328
189	0x3ccbaa45	0.024861464
190	0xbd248713	-0.04016788
191	0x3d95e705	0.07319454
192	0xbd1139f4	-0.03545566
193	0xbc8f908f	-0.017524986
194	0x3d7604c2	0.06006313
195	0xbd92372e	-0.07139431
196	0x3d87e21f	0.06634926
197	0xbd354214	-0.04425247
198	0x3d5fb02b	0.054611366
199	0xbdc7c738	-0.09754795
200	0xbe185447	-0.148759
201	0xbcb59024	-0.022163458
202	0xbe05ede5	-0.13079031
203	0x3c8466da	0.016162325
204	0x3e01b24c	0.12665671
205	0x3d8f317d	0.06991861
206	0x3daa0a7d	0.08302782
207	0x3c9af126	0.018913817
208	0xbccb67f0	-0.024829835
209	0xbcd5f8db	-0.02611964
210	0xbda6879e	-0.08131336
211	0xbdaa6848	-0.08320671
212	0xbd382a2c	-0.044962093
213	0x3d029119	0.031876657
214	0xbd800971	-0.06251801
215	0x3ca80034	0.02050791
216	0xbe710117	-0.23535572
217	0xbcce90bc	-0.0252155
218	0xbd9bf996	-0.07615964
219	0xbdcebbb4	-0.10094395
220	0x3bbe7de4	0.005813347
221	0xbd683fef	-0.056701597
222	0x3d167ac5	0.036738176
223	0x3d238ffe	0.039932244
224	0x3d7f63a1	0.062350873
225	0xbd9082c3	-0.07056191
226	0xbdd7763f	-0.105206005
227	0xbdb668e5	-0.08906726
228	0xbd46a4c7	-0.048496988
229	0x3e2db980	0.16965294
230	0xbdad2ce2	-0.08455826
231	0xbd584523	-0.05280031
232	0xbcffa6da	-0.03120749
233	0x3d21bacb	0.03948478
234	0x3d6413e8	0.055683047
235	0x3d634460	0.05548513
236	0x3da0cbbb	0.078513585
237	0xbd16b99d	-0.03679811
238	0xbe3c4cba	-0.18388644
239	0x3ade76ee	0.00169727
240	0xbe048738	-0.12942207
241	0xbe1ac3c0	-0.15113735
242	0x3da0327f	0.07822131
243	0xbb4d0905	-0.0031285894
244	0x3d0e5269	0.03474656
245	0xbdab7ef9	-0.083738275
246	0xbc48c667	-0.012254334
247	0xbc1e5a74	-0.00966512
248	0x3dd16332	0.10223998
249	0xbcc4a136	-0.024002653
250	0xbda0a6b8	-0.07844299
251	0x3dae895b	0.08522292
252	0xbdcf6383	-0.10126402
253	0xbd26fecc	-0.040770337
254	0xbcd6dc93	-0.026228225
255	0xbdacb6cc	-0.08433303

bias_hh f4 [384]
0	0x3a56d076	0.0008194515
1	0xbc61aafb	-0.013773675
2	0x3d65b36e	0.05607932
3	0xbd988edf	-0.074491255
4	0xbc582d0b	-0.013194333
5	0x3e06589e	0.13119742
6	0xbd37097d	-0.044686783
7	0x3d4a6880	0.049416065
8	0x3d0c1fae	0.0342099
9	0xb9f72bd0	-0.00047144154
10	0x3dfabc51	0.1224295
11	0x3cbdcfbc	0.023170345
12	0x3da55d4a	0.08074434
13	0x3db62113	0.08893027
14	0x3d11d559	0.035603855
15	0x3c856e89	0.016288059
16	0x3c337704	0.0109536685
17	0x3bc8e591	0.006130882
18	0x3d484314	0.048892096
19	0xbda5f16a	-0.08102687
20	0xbd665f3f	-0.056243178
21	0x3d9ebc5d	0.07750771
22	0x3a80687e	0.0009796766
23	0x3db64c72	0.089012995
24	0xbd9921cb	-0.074771486
25	0xbd94711c	-0.072481364
26	0xbdb6e51d	-0.08930419
27	0xbc5371b3	-0.012905526
28	0x3dbadebe	0.09124516
29	0x3d6cef9e	0.057845704
30	0x3c0ece87	0.008716232
31	0xbd88b474	-0.06675044
32	0x3db8a939	0.09016652
33	0x3d8cae2b	0.068691574
34	0x3b5cb198	0.003367519
35	0x3d06cfd2	0.032913037
36	0xbcb26290	-0.021775514
37	0x3d65f99a	0.05614624
38	0x3dc710aa	0.09719975
39	0x3d8de833	0.06929054
40	0x3dd5e6e5	0.1044443
41	0x3d156222	0.03647054
42	0x3d1d9084	0.0384679
43	0xbd5ebfcf	-0.05438214
44	0xbd95e58e	-0.07319175
45	0xbbc309a2	-0.005952076
46	0xbc81728b	-0.015801689
47	0x3d499d00	0.049221992
48	0xbd9c73e9	-0.076392956
49	0xbd525528	-0.051350743
50	0xbd384d2c	-0.04499547
51	0xbcfe8bf4	-0.031072594
52	0xbddb697e	-0.107134804
53	0x3dc1cd0f	0.0946294
54	0x3d97df39	0.07415623
55	0xbca147dc	-0.019687586
56	0x3da8d876	0.08244412
57	0x3b96e4ce	0.0046049124
58	0x3bcf00b0	0.0063172206
59	0xbd8dcf4c	-0.06924304
60	0xbc3e42f5	-0.0116126435
61	0xbc835c88	-0.016035333
62	0x3dca0ce4	0.0986574
63	0xbd1b8111	-0.037964884
64	0x3d0f13a3	0.034930836
65	0xbd9fb4c2	-0.07798149
66	0x3c9fa3eb	0.019487342
67	0xbd00624c	-0.031343743
68	0x3e183c47	0.14866744
69	0x3b3d2a01	0.0028864148
70	0x3bfb7cb3	0.0076747774
71	0x3ad243a2	0.0016041885
72	0x3df3aaea	0.11897834
73	0x3d0f04fa	0.034916855
74	0x3d3e267d	0.046423424
75	0xbd39972a	-0.045310177
76	0xbcc753af	-0.024331896
77	0xbc134365	-0.008988236
78	0xbd8219bb	-0.06352564
79	0x3d6b6b06	0.057475112
80	0x3d48ce44	0.049024835
81	0x3d41e85b	0.047340732
82	0x3df4e53f	0.11957788
83	0xbd8aaa92	-0.06770815
84	0x3da75a44	0.08171514
85	0x3bc228a3	0.0059252544
86	0x3dad267f	0.08454608
87	0x3d277c4e	0.04089003
88	0x3df8af3d	0.12142799
89	0xbdcd3916	-0.10020654
90	0xbd56c234	-0.0524313
91	0x3bd9ccce	0.006646729
92	0x3d730cc6	0.059338354
93	0x3ca1c533	0.019747352
94	0xbc59a6e6	-0.013284421
95	0x3d11f116	0.035630308
96	0x3d12028a	0.035646953
97	0xbb175d9e	-0.0023096572
98	0x3dd6d976	0.10490696
99	0x3de0f46c	0.1098412
100	0x3deea130	0.11651838
101	0x3dddf865	0.10838393
102	0x3d01f4e6	0.031727694
103	0x3d975cc8	0.073907435
104	0xbcabcf03	-0.020972734
105	0x3dbe4b75	0.09291736
106	0xbce9182c	-0.028453909
107	0x3d255f3f	0.040374037
108	0x3d73a34e	0.05948191
109	0xbc493c68	-0.012282468
110	0x3dedf1c7	0.11618381
111	0x3e04b550	0.1295979
112	0x3dac7dfa	0.084224656
113	0xbdb5c53f	-0.08875512
114	0x3c83ad5b	0.016073873
115	0xbcaeb8a4	-0.021328278
116	0xbd212334	-0.039340213
117	0xbd29ca8f	-0.04145294
118	0x3caf727a	0.021416891
119	0x3be5abfe	0.0070090285
120	0x3a72087d	0.0009232832
121	0xbbccc8e4	-0.006249534
122	0x3c815c8c	0.0157912
123	0x3b89ab81	0.004201353
124	0x3c4907de	0.012269942
125	0x3dc912a5	0.09818009
126	0xbd8e1dca	-0.069392756
127	0x3bab499b	0.0052272803
128	0x3d0880ec	0.033326074
129	0x3da1c44a	0.07898767
130	0x3d8c99e6	0.06865291
131	0x3d3e9b3f	0.046534773
132	0xbc6b4bd9	-0.014361345
133	0xbce53085	-0.027977237
134	0x3cc6be1f	0.024260579
135	0xbd9eddae	-0.07757126
136	0xbdd78c2c	-0.105247825
137	0x3d44617a	0.047944523
138	0xbe3ce52e	-0.184468
139	0xbcd3cf85	-0.025855789
140	0xbcc4df48	-0.02403225
141	0x3d92041c	0.0712969
142	0x3c38764d	0.011258674
143	0xbdb22386	-0.08698182
144	0xbd2c8dc7	-0.042127397
145	0x3da8367a	0.082135156
146	0xbbdee637	-0.006802346
147	0x3d5bd8fd	0.053673733
148	0xbd38f068	-0.045151144
149	0xbc96e2de	-0.018418726
150	0x3ca6387c	0.020290606
151	0xbc86f9a5	-0.016476462
152	0xba5329f4	-0.0008055263
153	0x39cf0eab	0.00039493045
154	0xbe5bfbd4	-0.21482784
155	0x3dd12430	0.1021198
156	0x3c4e057e	0.012574552
157	0xbca69e68	-0.020339206
158	0xbe370857	-0.17874275
159	0xbc89c3d0	-0.016817003
160	0xbd9c39ef	-0.076282375
161	0xbcb15665	-0.021647641
162	0xbdf71bd2	-0.12065853
163	0xbe172af7	-0.14762484
164	0xbc3d8852	-0.011568146
165	0xbe0a808e	-0.13525602
166	0x3bb1abfc	0.0054221135
167	0xbe866de2	-0.2625571
168	0xbe44421a	-0.1916584
169	0xbd8eeba6	-0.0697854
170	0xbbb47a29	-0.0055077267
171	0xbdbc5924	-0.0919669
172	0xbd72e096	-0.059296213
173	0x3cee89b4	0.029118396
174	0xbd6b5676	-0.057455502
175	0xbd42b437	-0.047535148
176	0x3c20eeee	0.00982259
177	0xbcdfe534	-0.027330972
178	0xbdbebb01	-0.09313012
179	0xbcf3059f	-0.029665766
180	0x3e112515	0.14174302
181	0x3c44f937	0.012022308
182	0xbd6122da	-0.054964878
183	0xbc85df64	-0.016341873
184	0xbd6e2b31	-0.05814666
185	0xbdeb4656	-0.11488025
186	0xbca8681d	-0.020557458
187	0x3d40fda8	0.047116905
188	0xbbabc779	-0.005242285
189	0xbb0ebd2f	-0.0021780243
190	0xbe08d2c7	-0.13361655
191	0x3ce0d820	0.027446806
192	0xbdb7b3fd	-0.08969877
193	0xbbb41697	-0.005495857
194	0xbb5bdbbc	-0.003354772
195	0xbcdc9b88	-0.026929632
196	0xbd7637f9	-0.060111973
197	0xbdb70801	-0.089370735
198	0xbcda6a45	-0.026662001
199	0x3d3b486c	0.045723364
200	0xbdd00128	-0.101564705
201	0x3d8642b8	0.06555694
202	0xbdffc86a	-0.12489398
203	0x3d6f210a	0.058381118
204	0x3d66e286	0.056368373
205	0xbd8bc132	-0.068239585
206	0x3c32c3f6	0.010910979
207	0x3bc23b0d	0.0059274496
208	0xbe2dbb27	-0.16965924
209	0xbbbf4eb1	-0.005838238
210	0x3d395207	0.045244243
211	0xbd365479	-0.044514153
212	0xbc2a6045	-0.010398929
213	0xbdb0c8f6	-0.0863208
214	0x3d6b203f	0.0574038
215	0xbda4d1bf	-0.080478184
216	0xbe6d1e79	-0.23156156
217	0xbc30bde3	-0.01078746
218	0x3c6c6506	0.014428383
219	0xbd9a31e0	-0.07529044
220	0xbc1d0731	-0.009584234
221	0xbdac07c1	-0.083999164
222	0xbdfe0a20	-0.12404275
223	0x3dda82b7	0.10669463
224	0xba4e4191	-0.00078680465
225	0xbc372e63	-0.011180493
226	0xbe652a64	-0.22379452
227	0x3d55ac7c	0.052166447
228	0x3b417bf9	0.0029523356
229	0x3d089ee1	0.033354644
230	0x3d897b9e	0.06713031
231	0xbd6e1b11	-0.05813128
232	0xbdb2faf1	-0.087392695
233	0xbd85720a	-0.06515892
234	0x3cbad2ed	0.022805655
235	0x3da22bcf	0.07918512
236	0x3cef321e	0.029198702
237	0x3cf1df2e	0.029525366
238	0xbdd6026d	-0.104496814
239	0xbd681008	-0.056655914
240	0xbe101852	-0.14071777
241	0xbdef7cfb	-0.1169376
242	0xbd330d15	-0.043713648
243	0xbd280274	-0.041017964
244	0x3d7bd928	0.061486393
245	0xba4142b7	-0.0007372307
246	0x3d038e01	0.032117847
247	0xbdea3350	-0.11435568
248	0x3dc57142	0.09640743
249	0xbcbb189f	-0.022838889
250	0x3c69622f	0.0142446
251	0x3dc8ce26	0.09804945
252	0x3b8a3ae8	0.004218448
253	0xbd1521ac	-0.036409065
254	0xbe1030c0	-0.14081097
255	0xbde08a6b	-0.10963901

weight f4 [128, 128]
0	0x3da4d3dd	0.08048222
1	0x3df7d7a7	0.12101679
2	0xbbf03174	-0.007330114
3	0x3da1b818	0.07896441
4	0x3d083e4d	0.03326254
5	0x3dc81391	0.09769357
6	0xbd058bc4	-0.032603994
7	0xbd1e08f6	-0.038582765
8	0xbd716d86	-0.05894234
9	0xbd9402e9	-0.072271176
10	0xbd8c7913	-0.068590306
11	0x3da1f26c	0.079075664
12	0xbdcb8e68	-0.09939271
13	0xbdb65783	-0.0890341
14	0xbc980e31	-0.018561454
15	0xbd0e9578	-0.034810513
16	0x3cb9a65a	0.02266233
17	0x3cc8a9f1	0.024495097
18	0x3e0675ee	0.13130924
19	0x3d511ad4	0.051050976
20	0x3dd3cf41	0.10342265
21	0xbaf9380d	-0.0019013897
22	0x3da33783	0.079695724
23	0x3e11e9c5	0.14249332
24	0xbd846455	-0.06464449
25	0x3d461e6e	0.048368864
26	0xbe17179c	-0.147551
27	0x3d13d56a	0.0360922
28	0x3dbf1ce3	0.093316816
29	0xbd77fbb3	-0.060542773
30	0x3dde903a	0.10867353
31	0xbda052f0	-0.07828319
32	0x3e16fa5e	0.14743945
33	0x3d6e3ceb	0.058163565
34	0xbdf50173	-0.11963167
35	0x3d82023c	0.063480824
36	0x3d81e577	0.06342595
37	0xbbe3267e	-0.006932079
38	0xbd9ac430	-0.07556951
39	0xbdcbd535	-0.099527754
40	0x3d72b5e1	0.059255484
41	0x3dd92a64	0.106037885
42	0x3d177bd6	0.036983334
43	0xbe217ef5	-0.15771087
44	0xbdb2cb19	-0.08730144
45	0x3df5d20d	0.12002955
46	0xbc4b7dee	-0.012420161
47	0x3c03093d	0.007997808
48	0xbc219c00	-0.009863853
49	0xbdc70fc2	-0.097198024
50	0x3e1b8276	0.15186486
51	0x3cd5bdb4	0.026091434
52	0xbd609bc9	-0.05483607
53	0xbd48db52	-0.049037285
54	0x3dd4f2c0	0.103978634
55	0xbbfe3be7	-0.0077586058
56	0x3df69a04	0.12041095
57	0xbc990581	-0.018679382
58	0xbb473983	-0.003039927
59	0xbe017623	-0.12642722
60	0x3c6180f9	0.01376366
61	0x3c43b53b	0.011945064
62	0xbdb2bfef	-0.08728015
63	0x3a6c07c5	0.00090038433
64	0x3c5067eb	0.0127200885
65	0x3dd4e794	0.103957325
66	0xbcf4ac3a	-0.02986728
67	0x3d55822a	0.052126087
68	0x3c9f7dd3	0.019469177
69	0xbe069cf0	-0.13145804
70	0x3df11ce1	0.11773086
71	0x3d840e29	0.06448013
72	0x3da5c16a	0.080935314
73	0x3b020394	0.0019838559
74	0x3e8a2b76	0.26986283
75	0xbdaa168b	-0.08305081
76	0xbd54f52c	-0.051991627
77	0x3d82d92c	0.063890785
78	0x3ddabfe7	0.10681134
79	0xbd674620	-0.05646336
80	0xbe3eb718	-0.18624532
81	0x3db7ff5f	0.08984255
82	0x39940250	0.00028230483
83	0x3c84beb8	0.016204223
84	0xbe0cbd21	-0.13744022
85	0x3cb3a522	0.021929327
86	0x3d38f93d	0.045159567
87	0x3cee9966	0.02912588
88	0x3dc8004c	0.097656816
89	0x3cab4c7b	0.020910492
90	0xbcdd53cd	-0.027017498
91	0x3c248a9a	0.010042811
92	0xbc5952bb	-0.013264353
93	0xbe289680	-0.16463661
94	0x3cf9af1d	0.030479008
95	0x3d5bd39c	0.053668603
96	0x3dbb3db2	0.09142627
97	0x3dc3912f	0.09549176
98	0x3dbcca17	0.09218233
99	0xbe6279e0	-0.22116804
100	0x3e1c183e	0.15243623
101	0xbd0fa0d4	-0.035065487
102	0x3d9301d5	0.07178084
103	0x3e2d1574	0.16902715
104	0xbd7bfeca	-0.061522283
105	0x3d428b4c	0.047496125
106	0xbe14414d	-0.14478035
107	0xbb8fa1a5	-0.004383283
108	0x3c2c0475	0.0104991095
109	0xbc8cd063	-0.01718921
110	0x3ded993f	0.11601495
111	0xbdf86041	-0.12127734
112	0x3e11b5b4	0.1422947
113	0x3bd15bf5	0.006389136
114	0x3c5f0138	0.01361113
115	0xbd802934	-0.06257859
116	0x3e105a04	0.14096838
117	0x3e04e595	0.12978204
118	0xbd125f7e	-0.0357356
119	0xbd801bdf	-0.06255316
120	0xbd772e9c	-0.060347185
121	0x3ced41a4	0.028961964
122	0xbd93f61e	-0.072246775
123	0xbd2a7847	-0.04161861
124	0xbcb3722b	-0.021905025
125	0x3d511159	0.051041935
126	0xbe1e724d	-0.1547329
127	0x3de6eb84	0.1127539
128	0xbd15daf0	-0.03658575
129	0x3d21d850	0.039512932
130	0xbd891453	-0.0669333
131	0x3d46beb7	0.048521724
132	0x3d1006f7	0.035162892
133	0x3d944890	0.07240403
134	0x3d7365d8	0.059423298
135	0x3d1a8145	0.037720937
136	0xbdf32c6f	-0.118737094
137	0xba0aa3db	-0.00052886986
138	0xbce226ff	-0.027606485
139	0xbce1efff	-0.02758026
140	0xbde21928	-0.110399544
141	0xbcd49c97	-0.025953574
142	0xbb890fbc	-0.004182784
143	0xbdae25fb	-0.08503338
144	0x3bceb1f8	0.0063078366
145	0xbe1bc8e7	-0.15213357
146	0xbd636f3c	-0.055526003
147	0xbd109bc0	-0.035304785
148	0xbc9494cd	-0.01813736
149	0x3c7458ea	0.014913777
150	0xbcef0050	-0.029174954
151	0x3db2fc51	0.08739532
152	0xbd85c770	-0.0653218
153	0x3d183cbe	0.037167303
154	0x3d0dd2ad	0.034624744
155	0x3daca66b	0.08430179
156	0x3af01ef4	0.0018319772
157	0x3dc7d87d	0.09758089
158	0x3dad9f41	0.08477641
159	0xbad23e7d	-0.0016040351
160	0xbe13c55b	-0.14430754
161	0x3dd3e2e7	0.103460126
162	0x3d03af87	0.032149818
163	0x3d6e7bb1	0.05822343
164	0x3d8fdddd	0.07024739
165	0xbceb689d	-0.028736407
166	0xbd2f9f8d	-0.04287677
167	0x3ddd80d1	0.108155854
168	0x3d9f7984	0.07786849
169	0x3d198a07	0.03748515
170	0x3e02e440	0.12782383
171	0xbd862424	-0.06549862
172	0x3e0fb719	0.1403469
173	0xbdc4b003	-0.09603884
174	0x3cbb832a	0.022889692
175	0x3d6e92ae	0.058245353
176	0xbc81ce71	-0.01584551
177	0xbd5766b5	-0.052588183
178	0x3d1b2465	0.037876505
179	0x3dcb85bd	0.09937618
180	0x3b308d1a	0.0026939572
181	0xbdc36657	-0.09541004
182	0x3db8a75d	0.09016297
183	0xbdb5cacb	-0.0887657
184	0x3e1a88cd	0.15091248
185	0x3d86ac1c	0.06575796
186	0x3d6e20a6	0.058136605
187	0x3e18276b	0.14858787
188	0x3da2a8b3	0.07942333
189	0xbcf4e83b	-0.029895892
190	0x3c2c8ae5	0.010531162
191	0xbda4f888	-0.08055216
192	0x3ce9535f	0.028482137
193	0xbad9a3b5	-0.0016604575
194	0x3ddb9c82	0.10723211
195	0x3e116ce1	0.1420169
196	0xbcc7edab	-0.024405321
197	0xbc0bb6d5	-0.008527477
198	0x3d334775	0.04376932
199	0x3e2c175e	0.16805789
200	0x3db637e9	0.08897383
201	0x3d571782	0.052512653
202	0x3d8d475b	0.068983756
203	0xbe444666	-0.1916748
204	0xbccf6583	-0.02531696
205	0x3d0a1573	0.03371186
206	0x3c86eb09	0.016469495
207	0x3db20f02	0.08694269
208	0xbd30cb43	-0.043162595
209	0xbc90701a	-0.01763158
210	0x3d77f75e	0.060538642
211	0x3d8db2d1	0.06918872
212	0x3d10411c	0.035218343
213	0x3c1de284	0.009636525
214	0x3dadec81	0.08492375
215	0xbb126eb2	-0.0022343812
216	0x3e0293cf	0.12751697
217	0xbd026d06	-0.031842254
218	0x3e1b562d	0.15169592
219	0xbb107241	-0.0022040757
220	0xbd490648	-0.049078256
221	0xbd27bafa	-0.0409498
222	0x3da518bc	0.08061358
223	0xbc6269a8	-0.013819136
224	0x3cdc4bf4	0.026891686
225	0x3cc04bb6	0.023473602
226	0xbc199abc	-0.00937527
227	0x3b065aad	0.0020500824
228	0x3dd32a78	0.10310835
229	0x3c9af438	0.01891528
230	0xbe02c046	-0.12768659
231	0x3d08b4a6	0.033375405
232	0xbe0dac59	-0.13835277
233	0xbd43fb3c	-0.047847018
234	0x3ceaa2e1	0.02864212
235	0xbd2a133e	-0.041522257
236	0x3d958f2d	0.07302699
237	0x3dc35685	0.09537987
238	0x3c117d03	0.008879903
239	0xbcb30fc7	-0.02185811
240	0x3df87a1a	0.12132664
241	0x3d06f98f	0.03295284
242	0xbdd59c00	-0.10430145
243	0x3aad5880	0.0013225228
244	0xbcd3f94e	-0.025875714
245	0xbd07cd57	-0.03315481
246	0xbd89b8a5	-0.06724671
247	0xbdc0321b	-0.09384557
248	0x3b56387b	0.0032687474
249	0x3da3459b	0.079722606
250	0xbd7b05fb	-0.061285
251	0xbd4dcfe6	-0.050247096
252	0x3da24b93	0.07924571
253	0xbd461c93	-0.048367094
254	0xbd9459ff	-0.07243728
255	0xbcb12839	-0.021625625

bias f4 [128]
0	0xbe475c1f	-0.19468735
1	0x3d16b2b6	0.036791526
2	0xbde207de	-0.11036657
3	0x3d557b71	0.052119676
4	0xbd68a5d1	-0.05679876
5	0x3d612cc5	0.054974336
6	0x3dafb904	0.08580211
7	0x3d6baad1	0.05753595
8	0x3cd4db34	0.02598343
9	0xbe2fe87d	-0.17178531
10	0x3d713843	0.058891546
11	0xbcfccc97	-0.030859275
12	0xbe145eb6	-0.14489254
13	0xb961d6de	-0.00021537716
14	0x3df6a340	0.12042856
15	0x3cca66f6	0.024707299
16	0xbd85c516	-0.06531732
17	0xbce606d7	-0.028079433
18	0xbca80041	-0.020507934
19	0xbb91e802	-0.0044527063
20	0x3d70227c	0.058626637
21	0xbce25f4d	-0.027633334
22	0x3dbd7ab7	0.092519216
23	0xbce36fa9	-0.027763205
24	0xbe149661	-0.1451049
25	0xbd49ab44	-0.049235597
26	0x3bb3e65c	0.0054901075
27	0xbc5d68cb	-0.013513754
28	0x3e108024	0.14111382
29	0xbd4955eb	-0.049154203
30	0x3db45a47	0.088062815
31	0xbe0076ce	-0.1254532
32	0xbe2d6ca2	-0.16935971
33	0x3d317e51	0.043333355
34	0xbdee6004	-0.11639407
35	0xbdce6d1f	-0.10079407
36	0x3d5a9c7e	0.0533719
37	0x3d541ddb	0.051786285
38	0xbd401f22	-0.04690469
39	0x3d2b7e96	0.04186877
40	0x3de24e4f	0.110500924
41	0xbe4be6e6	-0.199123
42	0xbe3b8639	-0.1831292
43	0x3d27b208	0.04094127
44	0xbd4c2530	-0.049840152
45	0xbe2f4616	-0.1711658
46	0xbc827330	-0.015924066
47	0xbe1b6474	-0.15175039
48	0xbd65fe6c	-0.05615084
49	0x3d97a1e6	0.074039266
50	0xbd0dc40b	-0.03461079
51	0x3de4c6ac	0.11170706
52	0xbd4abcab	-0.049496334
53	0x3c916d61	0.017752351
54	0x3d1e0450	0.03857833
55	0x3da6eb4f	0.0815035
56	0xbe157679	-0.14595975
57	0xbd653b7b	-0.055964928
58	0xbd753ef1	-0.05987448
59	0x3e0b3fe3	0.1359859
60	0xbd973820	-0.07383752
61	0xbccdfcfe	-0.02514505
62	0x3cc32f46	0.023826253
63	0x3daf630a	0.08563812
64	0xbe0a2bf9	-0.13493337
65	0xbd24eee3	-0.040266883
66	0xbceb2447	-0.028703822
67	0x3d482be5	0.048869986
68	0xbe4bdfb8	-0.1990956
69	0xbe3b2ddf	-0.18279217
70	0xbe2aa5fa	-0.16664878
71	0x3ceec720	0.029147685
72	0xbe2b5e82	-0.1673527
73	0x3d9d718d	0.07687674
74	0x3cc3d205	0.023903856
75	0x3cf72919	0.030170964
76	0x3d2bc68e	0.041937403
77	0x3d97c0a2	0.07409789
78	0xbcada08c	-0.021194719
79	0x3dc156cc	0.09440383
80	0xbc68348d	-0.014172685
81	0xbe543397	-0.20722805
82	0xbddae7ca	-0.106887415
83	0x3d2295d4	0.03969367
84	0x3c572b57	0.013132892
85	0x3bef02be	0.007294028
86	0x3d600a8a	0.05469755
87	0xbe39a44a	-0.18129078
88	0x3de2d70f	0.110761754
89	0xbdc25c09	-0.094902106
90	0xbde8a756	-0.11360042
91	0xbe3a1c50	-0.18174863
92	0x3ce59b5d	0.028028185
93	0x3d8df58d	0.06931601
94	0xbdb2b03c	-0.0872502
95	0x3dc5e07d	0.09661958
96	0x3de22080	0.11041355
97	0xbd9bf8d1	-0.07615817
98	0x3d072e05	0.033002872
99	0xbe1dd6ad	-0.15413924
100	0x3da219f2	0.07915105
101	0xbcbb193e	-0.022839185
102	0x3d71a942	0.058999307
103	0x3dbb1889	0.09135539
104	0x3af56c88	0.0018724361
105	0xbd290143	-0.04126097
106	0xbda8ead9	-0.08247919
107	0x3d888e01	0.0666771
108	0x3ddb1958	0.10698193
109	0x3debf72f	0.11521756
110	0xbcfc1341	-0.0307709
111	0xbc39f601	-0.011350156
112	0x3c98f19a	0.018669892
113	0xbd3b958f	-0.045796927
114	0xbd9a7fe1	-0.07543922
115	0x3d85fc35	0.06542245
116	0x3c9308a7	0.017948462
117	0xbd2b3949	-0.04180268
118	0x3d517fc3	0.051147234
119	0xbe4a603a	-0.1976327
120	0x3dd9e5f0	0.1063956
121	0xbe1aca61	-0.15116264
122	0xbe0cedb5	-0.13762553
123	0xbdeae74a	-0.11469896
124	0x3cf4c7f2	0.029880498
125	0xbd78d974	-0.060754254
126	0xbda2ddbb	-0.07952448
127	0x3e04f942	0.1298571

weight f4 [128, 128]
0	0x3db8c7ea	0.090225056
1	0xbd04ee8b	-0.032454055
2	0x3d3c2617	0.045934763
3	0xbc6d98b8	-0.014501743
4	0xbd70109b	-0.058609586
5	0x3c0e21bd	0.008675036
6	0x3c944cc3	0.01810301
7	0x3c108d46	0.008822745
8	0xbdbbbfb5	-0.091674246
9	0x3d042d0f	0.032269534
10	0x3dd06bbf	0.10176801
11	0x3e11d3e0	0.1424098
12	0xbca9bcb1	-0.020719858
13	0xbdedf4fa	-0.11618991
14	0xbdc52e75	-0.096280016
15	0xbd33529c	-0.043779954
16	0xbdd7703b	-0.10519453
17	0xbdadddf9	-0.084896035
18	0xbdcf459e	-0.101207
19	0x3d59be77	0.053160157
20	0xbd895fce	-0.067077264
21	0xbd079a42	-0.033106096
22	0xbd5727fc	-0.052528366
23	0x3db5e094	0.088807255
24	0xbd937389	-0.07199771
25	0x3cc1e374	0.023668028
26	0xbd1110b6	-0.035416327
27	0x3caa20dc	0.020767622
28	0xbd9a1df9	-0.07525248
29	0x3d482322	0.04886163
30	0x3e0257bd	0.12728782
31	0x3d229fed	0.0397033
32	0x3d466145	0.048432607
33	0x3babc962	0.0052425126
34	0x3d8c668d	0.068554975
35	0x3c62968c	0.0138298385
36	0xbd45f7b0	-0.048331916
37	0x3d8e30d4	0.06942907
38	0x3c4b21ad	0.012398166
39	0xbdaa2752	-0.08308281
40	0x3d91f5d5	0.07126967
41	0xbd656299	-0.056002233
42	0x3c728107	0.01480127
43	0x3d90ebc5	0.070762195
44	0xbdc4eebe	-0.09615849
45	0x3d8c839f	0.06861042
46	0x3d69354a	0.056935586
47	0x3cf36bcf	0.029714493
48	0x3da2d65b	0.07951041
49	0xbc8145c7	-0.015780343
50	0x3ded3fcc	0.11584434
51	0x3d1e3eaf	0.038634
52	0x3c680f93	0.014163869
53	0x3a37c2ba	0.00070099125
54	0x3c210099	0.009826803
55	0xbd05272c	-0.03250806
56	0x3d9bb17a	0.0760221
57	0x3d154db8	0.03645107
58	0x3dd8996d	0.10576139
59	0xbc3d753f	-0.011563598
60	0x3bc256be	0.0059307506
61	0x3d3ab17b	0.045579415
62	0xbe08ce62	-0.13359979
63	0x3bf29639	0.007403162
64	0x3da10688	0.07862574
65	0xbdeb875e	-0.115004286
66	0xbd05ad07	-0.032635715
67	0x3c9bff56	0.019042652
68	0x3d777a16	0.060419165
69	0x3b74da85	0.0037361693
70	0xbd7de3d4	-0.061984852
71	0xbdc0b13e	-0.09408806
72	0xbd92a3c0	-0.07160139
73	0x3d3ad4ad	0.04561298
74	0xbdacf500	-0.084451675
75	0xbd8f3109	-0.069917746
76	0x3d45cf0b	0.048293155
77	0x3d4b354e	0.049611382
78	0x3cf148b6	0.029453617
79	0x3dc74ff4	0.09732047
80	0xbd697de8	-0.05700484
81	0xbda5436a	-0.08069499
82	0x3ca0ef24	0.019645281
83	0xbd532f8d	-0.05155902
84	0xbd405318	-0.046954244
85	0xbbf8a468	-0.007587958
86	0xbd32054b	-0.04346208
87	0xbda7756c	-0.08176693
88	0x3cb0b9e5	0.021573016
89	0x3d192e2f	0.03739756
90	0xbcf85197	-0.030312343
91	0x3d2ae16f	0.041718896
92	0x3c2b6e16	0.010463258
93	0xbbc9d17c	-0.0061590057
94	0xbd7e78b5	-0.062126834
95	0xbd11e3c7	-0.035617616
96	0x3cbafed7	0.022826595
97	0xbd57b25c	-0.05266033
98	0xbd7388de	-0.0594567
99	0xbd3dd732	-0.046347804
100	0x3df1ec5e	0.118126616
101	0x3d1d7aaf	0.03844708
102	0x3b674fb0	0.00352953
103	0x3e0a19fd	0.13486476
104	0x3d103d5b	0.035214763
105	0xbc41915a	-0.01181444
106	0x3d1c05b2	0.03809137
107	0xbd042de6	-0.032270335
108	0x3db92500	0.0904026
109	0xbd9498c3	-0.072556995
110	0x3d7ec5bc	0.062200293
111	0xbcbc624a	-0.022996087
112	0xbd2b021d	-0.041750062
113	0x3da9be53	0.082882546
114	0x3bfd62dc	0.007732732
115	0xbdb9cf36	-0.090727255
116	0xbdb87db8	-0.09008354
117	0x3d2a4b84	0.041575924
118	0xbcec272d	-0.028827274
119	0x3d819f10	0.06329167
120	0xbda23798	-0.0792076
121	0x3c9282c5	0.017884621
122	0xbdaa571d	-0.08317397
123	0x3c2da065	0.010597323
124	0xbd48bea2	-0.049009927
125	0x3d4ba70b	0.04971985
126	0x3d572153	0.052522015
127	0xbc6829b9	-0.014170104
128	0x3e18bca5	0.14915712
129	0x3e333bff	0.17503355
130	0x3dc5d29e	0.09659313
131	0xbd4cb03d	-0.04997276
132	0x3e1e0c9f	0.15434502
133	0x3db2f256	0.08737628
134	0xbdff52ef	-0.1246699
135	0x3dc4aee4	0.0960367
136	0x3e1e537e	0.15461537
137	0x3e6edd9c	0.23326725
138	0x3e49d438	0.19709861
139	0x3e1a7844	0.1508494
140	0x3d8d0a30	0.06886709
141	0xbe21648f	-0.15761016
142	0x3e7414cc	0.23836058
143	0x3dd81869	0.10551531
144	0xbd9a4688	-0.07532984
145	0x3eb8071c	0.35942924
146	0xbd1190d7	-0.03553852
147	0xbd662be9	-0.05619422
148	0xbdf98efa	-0.12185474
149	0xbd361385	-0.04445221
150	0xbddc464e	-0.10755597
151	0x3e11d6dc	0.14242119
152	0x3e02626c	0.12732857
153	0xbd2b9c8e	-0.04189735
154	0xbe231f97	-0.1593002
155	0x3dabec00	0.08394623
156	0xbe20ce44	-0.15703684
157	0x3db0753f	0.08616113
158	0x3dc2ae76	0.09505932
159	0x3d9c2b18	0.07625407
160	0x3da7601d	0.08172629
161	0xbd768543	-0.060185682
162	0x3e3f0a31	0.18656231
163	0x3d86a957	0.06575268
164	0x3d62fb46	0.055415414
165	0xbd9f1a05	-0.07768635
166	0xbb2067f1	-0.0024476016
167	0x3d526c43	0.051372778
168	0xbe520784	-0.2051068
169	0x3e49bab4	0.19700128
170	0x3e1db67d	0.15401645
171	0x3debd456	0.11515109
172	0xbbb6ce7f	-0.0055788155
173	0x3da192e5	0.07889346
174	0x3e4f3fd1	0.20239188
175	0x3d7de24e	0.0619834
176	0x3d88859e	0.066661105
177	0x3d883f27	0.0665267
178	0x3db67d20	0.089105844
179	0x3d6ac632	0.05731792
180	0x3d9068f6	0.0705127
181	0x3cd34542	0.02578986
182	0x3cab45fb	0.020907393
183	0xbd97914b	-0.07400759
184	0x3ca2af37	0.01985894
185	0x3e1eb6d7	0.15499435
186	0x3e323f4e	0.17406961
187	0xbe0210da	-0.12701741
188	0x3c6e0c3b	0.014529283
189	0x3e4963e4	0.19667011
190	0x3d6dff13	0.058104586
191	0x3e004e22	0.12529805
192	0x3ddae9db	0.10689136
193	0xbdc0d367	-0.09415322
194	0x3e1ddc59	0.15416087
195	0x3dbd0b38	0.092306554
196	0x3e0730c2	0.13202193
197	0x3e434842	0.19070533
198	0x3d4767ba	0.048682906
199	0x3d5ab272	0.053392835
200	0x3d5a7e8b	0.053343337
201	0xbbc06551	-0.005871453
202	0x3da5b23c	0.08090636
203	0x3ddfd9f1	0.10930241
204	0x3c9cb5bb	0.019129625
205	0x3d2bafcc	0.0419157
206	0x3b20106b	0.0024423848
207	0xbd4b4852	-0.049629517
208	0xbccaf6c3	-0.024775868
209	0x3cf0342f	0.029321758
210	0x3e2e6b5e	0.17033145
211	0x3d044bb2	0.03229875
212	0xbd8e25d5	-0.0694081
213	0x3d06ae05	0.0328808
214	0x3c25e1d3	0.0101246415
215	0x3e65dcc1	0.22447492
216	0x3d5a97b3	0.053367328
217	0x3c0b17dd	0.008489576
218	0x3e53a19a	0.20667115
219	0x3d600d4a	0.054700173
220	0xbd33ae30	-0.04386729
221	0x3ce27f6f	0.027648656
222	0xbe0c53b9	-0.13703813
223	0xbdc82879	-0.097733445
224	0xbdbb9555	-0.09159342
225	0x3b6750e8	0.0035296027
226	0x3d48f843	0.049064886
227	0x3daa7c1b	0.083244525
228	0x3dde89a6	0.10866098
229	0x3c93b478	0.01803039
230	0x3df8fc9b	0.12157556
231	0xbd4cdae5	-0.05001344
232	0x3df8998c	0.12138662
233	0x3d035b51	0.032069508
234	0x3d98f410	0.07468426
235	0xbd27a046	-0.040924333
236	0xbd3884b9	-0.04504845
237	0xbdcad88e	-0.09904586
238	0x3e5dccbe	0.21660134
239	0xbc197bd2	-0.0093679
240	0x3c9c3032	0.01906595
241	0x3e233e94	0.1594184
242	0x3ccd247a	0.025041807
243	0x3bcc2f56	0.006231229
244	0x3d6cddbe	0.057828657
245	0x3dba4018	0.09094256
246	0x3e15dc98	0.14634931
247	0xbb5df4b3	-0.0033867776
248	0xbdab57b1	-0.08366335
249	0x3e71d569	0.23616566
250	0x3e936cf0	0.2879405
251	0x3e0d515d	0.13800569
252	0x3dc0d549	0.09415681
253	0x3ce68c15	0.028142968
254	0x3e2fb4f7	0.17158876
255	0xbdbdabfa	-0.092613176

bias f4 [128]
0	0xbda06633	-0.07831993
1	0xbe4b87b6	-0.19875988
2	0x3e020ce0	0.12700224
3	0xbd560d11	-0.052258555
4	0xbda78c1a	-0.08181019
5	0x3db248b6	0.08705275
6	0xbd12d378	-0.035846204
7	0xbc911a3d	-0.017712707
8	0x3dd795f5	0.10526649
9	0xbc84e014	-0.01622013
10	0xbd51310b	-0.05107216
11	0x3a97fa3e	0.0011594964
12	0xbd30a966	-0.0431303
13	0xbcf40efc	-0.029792301
14	0xbd845e14	-0.064632565
15	0xbdc79f08	-0.0974713
16	0x3de41c7a	0.11138244
17	0xbe09cd3f	-0.13457201
18	0x3d6280f2	0.055298753
19	0xbd1f4e0c	-0.03889279
20	0x3d99b4fa	0.07505222
21	0x3d3c95ec	0.046041414
22	0xbd7c2e42	-0.061567552
23	0xbe201d8b	-0.1563627
24	0x3dc744a3	0.09729888
25	0xbd4745a6	-0.048650406
26	0x3db3af5c	0.087736815
27	0x3e0564d1	0.1302674
28	0x3c73ac68	0.014872648
29	0xbd0ca6c8	-0.034338742
30	0xbc295c40	-0.0103369355
31	0xbcf638db	-0.030056408
32	0x3d9719ee	0.073779926
33	0x3d4801c4	0.04882981
34	0x3d68964d	0.056783963
35	0xbd421af6	-0.047388993
36	0xbc015901	-0.007894755
37	0x3dedfe4d	0.1162077
38	0xbcd52ace	-0.026021387
39	0x3dc68128	0.09692603
40	0x3cb87a16	0.022519153
41	0x3cc80547	0.024416579
42	0xbd8c0e33	-0.06838646
43	0x3c383476	0.011242976
44	0xbdae2efa	-0.08505054
45	0x3d430613	0.047613215
46	0x3dae26d6	0.08503501
47	0x3da3df30	0.08001554
48	0xbc5ac86b	-0.013353447
49	0x3dc92ced	0.09823022
50	0x3d95e7e9	0.07319624
51	0x3c8ac387	0.016938938
52	0xbc4f373d	-0.012647447
53	0xbdd22fb4	-0.10263005
54	0xbc910723	-0.017703598
55	0x3dc8dc73	0.09807672
56	0x3c19bf09	0.009383925
57	0xbdb71d71	-0.089411624
58	0xbe1f357c	-0.15547746
59	0x3be856d0	0.007090427
60	0xbd9266f8	-0.07148546
61	0xbc84d978	-0.016216978
62	0xbdb24c59	-0.087059684
63	0x3d67421d	0.056459535
64	0xbdc37470	-0.09543693
65	0xbbdd60b0	-0.006755911
66	0x3cc47257	0.023980303
67	0x3c8df22b	0.017327389
68	0xbd8613a5	-0.06546716
69	0xbdddee75	-0.10836498
70	0xbdc11de6	-0.09429531
71	0x3d4eaedf	0.05045974
72	0x3d801ecf	0.06255876
73	0xbd0e0657	-0.034674015
74	0x3de1a127	0.110170655
75	0xbc8a77e9	-0.01690288
76	0x3c33fbd8	0.010985337
77	0xbd665e0c	-0.056242034
78	0x3d900731	0.07032622
79	0xbd2fdc58	-0.042934746
80	0xbdec839c	-0.1154854
81	0xbdeca082	-0.11554052
82	0xbdab8b1d	-0.08376143
83	0x3cb75b61	0.02238244
84	0x3da97851	0.08274902
85	0xbd875214	-0.06607452
86	0x3db3eb53	0.08785119
87	0xbda5f6ba	-0.081037
88	0xbd5ba8b5	-0.05362769
89	0x3df7b951	0.12095893
90	0xbd75a37a	-0.059970357
91	0x3d6d59a5	0.05794682
92	0xbd40c4b3	-0.047062587
93	0xbdb1c8c6	-0.086808726
94	0xbd6e18d1	-0.058129136
95	0x3db190e2	0.08670212
96	0xbe2905e1	-0.16506149
97	0xbe10b113	-0.14130048
98	0x3c894004	0.016754158
99	0xbe1360a4	-0.14392334
100	0x3dabf408	0.08396155
101	0x3d3eb772	0.046561666
102	0xbd9fe662	-0.07807614
103	0xbc6305ac	-0.013856333
104	0x3db32b87	0.087485366
105	0xbc659704	-0.014013056
106	0x3c857895	0.01629285
107	0x3d881ba8	0.066459
108	0x3d473145	0.04863097
109	0x3da42cf3	0.08016386
110	0x3db0dd98	0.08636016
111	0x3dc82bb6	0.09773962
112	0xbd396664	-0.045263663
113	0xbd5d6a48	-0.054056436
114	0x3de1d913	0.11027732
115	0xbd72263c	-0.059118494
116	0xbdab5753	-0.08366265
117	0xbd277410	-0.04088217
118	0xbd0aaa41	-0.033853773
119	0xbd4e3c5a	-0.050350524
120	0xbd536ca3	-0.051617276
121	0xbced1641	-0.028941276
122	0xbd895613	-0.067058705
123	0xbd3f94b5	-0.046772677
124	0xbc583eb0	-0.01319854
125	0xbdc774d3	-0.09739079
126	0x3d5aa26f	0.053377565
127	0xbdf54366	-0.11975746
