results/model/neural_552.model (torch, 686563 bytes, 21 tensors)

weight_ih f4 [384, 5]
0	0x3d62b3f8	0.055347413
1	0xbd3dfcb9	-0.046383593
2	0xbcee4045	-0.02908338
3	0xbde22e67	-0.11044007
4	0x3d0d2a87	0.034464385
5	0xbe12effb	-0.14349358
6	0x3d7f1870	0.062279165
7	0x3cf79883	0.03022409
8	0xbda26374	-0.079291254
9	0x3d072612	0.03299529
10	0x3c40ed92	0.011775391
11	0x3dcc8993	0.09987178
12	0x3c29404c	0.010330271
13	0x3dbeabfd	0.09310148
14	0x3deb2f8c	0.11483678
15	0xbd623dd4	-0.055234745
16	0xbc54bb81	-0.012984158
17	0xbcd11d5a	-0.025526691
18	0x3ca4e9a1	0.020130934
19	0x3aa6a8e4	0.0012715128
20	0xbcbfaca8	-0.023397759
21	0xbd86c3a4	-0.06580284
22	0x3c3b3c8c	0.01142801
23	0x3dac9365	0.08426551
24	0x3e0c1c5f	0.13682698
25	0x3bccfdba	0.0062558325
26	0x3e02e4cb	0.1278259
27	0x3d5ff451	0.054676358
28	0xbd63f4bb	-0.055653315
29	0x3d7619fa	0.060083367
30	0xbe050670	-0.12990737
31	0x3d912dc6	0.07088809
32	0xbe03d977	-0.12875925
33	0xbd1d4339	-0.038394187
34	0xbc25098c	-0.010073077
35	0xbd9dd4e6	-0.07706623
36	0xbc234eb5	-0.009967496
37	0xbd982a37	-0.07429927
38	0xbc8378ff	-0.016048906
39	0x3e2ee82a	0.17080751
40	0xbd425c82	-0.047451504
41	0x3bd5d188	0.006525222
42	0xbd1b1ca5	-0.037869114
43	0x3d730067	0.059326556
44	0xbd9cd6a8	-0.0765813
45	0x3cccd14c	0.025002144
46	0x3cd902b6	0.02649055
47	0x3c98e944	0.018665917
48	0xbc39cd25	-0.011340414
49	0xbdace2f0	-0.084417224
50	0xbc9e53fc	-0.019327156
51	0xbdf546f3	-0.11976423
52	0xbca61be5	-0.020276973
53	0x3c0784bd	0.008271393
54	0x3d321caf	0.043484386
55	0xbd42ca30	-0.047556102
56	0x3e2c6206	0.16834268
57	0x3d49fe38	0.049314708
58	0xbdb309a8	-0.08742076
59	0x3c8b865f	0.017031847
60	0x3d1defce	0.038558774
61	0x3a8a385d	0.0010545362
62	0xbdb88a69	-0.09010775
63	0x3e0eee95	0.139582
64	0x3e6795d0	0.22615743
65	0xbe06838d	-0.1313612
66	0xbe096a62	-0.13419488
67	0x3c8d0c26	0.017217707
68	0xbd3eef45	-0.046614904
69	0x3d92b84d	0.07164059
70	0xbcfd085f	-0.03088778
71	0xbe00616a	-0.1253716
72	0x3dd4f0ab	0.10397466
73	0xbc213daf	-0.009841367
74	0x3daa5e8f	0.08318817
75	0xbda2024a	-0.07910593
76	0xbdebbfa3	-0.11511161
77	0x3dbad6c0	0.091229916
78	0x3d7aa66e	0.061193876
79	0xbe0e47f6	-0.13894638
80	0xbd8c6fe2	-0.068572775
81	0xbc061f13	-0.00818612
82	0x3ddf53f8	0.10904688
83	0x3c85509c	0.01627379
84	0x3e5e976c	0.2173745
85	0x3d025e20	0.031828046
86	0x3eaf630d	0.34255257
87	0x3a960ff8	0.0011448851
88	0x3d92e354	0.07172266
89	0x3ceb94bc	0.028757446
90	0x3cbcbae4	0.023038335
91	0x3dc2a804	0.09504703
92	0x3d8d4309	0.068975516
93	0xbc1011ba	-0.008793289
94	0xbdb14e60	-0.08657527
95	0x3c19aec3	0.009380045
96	0x3b01252f	0.0019706
97	0xbd087a96	-0.033320032
98	0x3d15c68e	0.03656631
99	0x3cf89cc9	0.030348198
100	0xbb7ae356	-0.0038282475
101	0x3c9c4913	0.019077813
102	0xbe036210	-0.12830377
103	0xbd98aebd	-0.07455204
104	0xbdbd4dc1	-0.09243346
105	0xbd918993	-0.07106318
106	0xbe082404	-0.13294989
107	0xbe18b72e	-0.14913628
108	0x3d2dad4a	0.04240159
109	0xbdf432f1	-0.11923779
110	0xbd7dce0e	-0.061964087
111	0x3e08a2b3	0.13343315
112	0xbd0c0a1d	-0.034189332
113	0x3d74a9a6	0.0597321
114	0xbe8a2a0d	-0.26985207
115	0x3dd5257e	0.10407542
116	0xbd1b722b	-0.037950676
117	0xbd1744d5	-0.036930878
118	0xbcb7badb	-0.022427967
119	0x3d380bc5	0.0449331
120	0x3d7b2488	0.061314136
121	0xbc842a15	-0.016133348
122	0xbdb5a71f	-0.088697664
123	0x3d8b17c9	0.06791646
124	0xbbca5fd4	-0.0061759744
125	0xbbc4799e	-0.005995943
126	0x3d9863b6	0.07440893
127	0xbd97aea3	-0.07406356
128	0x3df2eb6e	0.11861311
129	0xbde43bfc	-0.111442536
130	0xbd856b00	-0.06514549
131	0x3e27a440	0.1637125
132	0x3d5ec531	0.054387275
133	0x3ca59b65	0.0202157
134	0x3ccfac74	0.025350787
135	0xbe028f6d	-0.12750025
136	0x3e6d05ea	0.23146787
137	0x3b237988	0.0024944264
138	0xbc881c9e	-0.016615208
139	0xbecef889	-0.40423992
140	0x3d6fb576	0.058522664
141	0x3c165f88	0.00917805
142	0x3db50aad	0.08839927
143	0xbd3fc4f6	-0.046818696
144	0x3bfcb46b	0.007711937
145	0xbd979193	-0.07400813
146	0x3dc1d536	0.09464495
147	0xbd6f3493	-0.058399748
148	0x3d741a58	0.059595436
149	0xbe0ae78b	-0.13564889
150	0x3bde3fc7	0.006782505
151	0x3d9cecb7	0.07662337
152	0xbd9700d7	-0.07373207
153	0xbc9a5c93	-0.018842971
154	0xbdf5cf24	-0.120023996
155	0x3d631685	0.0554414
156	0x3e100e82	0.14068034
157	0x3d89c85b	0.06727668
158	0xbc52efbf	-0.012874543
159	0x3cf726d1	0.030169876
160	0x3ce6193f	0.02808821
161	0x3c51c9dc	0.012804475
162	0xbddda47d	-0.10822389
163	0x39eac37d	0.00044777608
164	0xbdc3fd35	-0.0956978
165	0xbdb45b27	-0.088064484
166	0xbc029aba	-0.00797146
167	0xbe0dc4a2	-0.1384454
168	0xbbd5d8fe	-0.0065261116
169	0xbcc5c479	-0.024141537
170	0x3cbad861	0.022808256
171	0xbd6b0b54	-0.05738385
172	0x3c073ed4	0.0082547255
173	0x3d55602c	0.05209367
174	0x3d74e065	0.05978431
175	0xbcf7c114	-0.030243434
176	0x3d911d1e	0.07085632
177	0x3e273574	0.16328984
178	0x3b9f69ee	0.0048649227
179	0x3db79170	0.08963287
180	0x3d2c2f77	0.042037454
181	0x3de521aa	0.111880615
182	0x3d918666	0.071057126
183	0x3be53e5b	0.0069959587
184	0x3dd9af10	0.10629094
185	0xbdb41b06	-0.08794217
186	0xbd1afc44	-0.037838235
187	0x3dc6904e	0.09695493
188	0xbcd7000c	-0.02624514
189	0xbd8952af	-0.06705224
190	0x3d076aee	0.03306096
191	0x3d885cc6	0.0665832
192	0x3d821ede	0.06353544
193	0x3bf99c41	0.007617504
194	0x3c73e2aa	0.014885584
195	0x3cc540bf	0.024078725
196	0xbdf75094	-0.12075916
197	0xbca9bd73	-0.02072022
198	0x3d7b2598	0.06131515
199	0x3db93df0	0.09045017
200	0x3d2ea1b2	0.042634673
201	0x3e221135	0.15826876
202	0xbd6846b2	-0.056708045
203	0x3d96a552	0.07355751
204	0xbcdf4bd4	-0.027257837
205	0x3dd8360b	0.10557183
206	0xbe3c93df	-0.18415783
207	0x3caa5ac3	0.020795232
208	0x3d621d64	0.05520381
209	0xbdd74fbc	-0.10513255
210	0x3df7ca82	0.12099172
211	0xbd840876	-0.06446926
212	0x3cb0696e	0.021534648
213	0x3d36ba41	0.04461122
214	0x3dc446ee	0.09583841
215	0x3db04197	0.0860626
216	0xbda1bd45	-0.078974284
217	0x3d1f27fd	0.038856495
218	0x3cb2f09b	0.021843245
219	0x3d3dab51	0.04630596
220	0x3d295642	0.041342027
221	0xbd5a83eb	-0.053348463
222	0x3d094a8e	0.033518367
223	0x3de0fb16	0.10985391
224	0x3d459cbe	0.048245184
225	0x3e35eb2f	0.17765497
226	0xbdbaaed6	-0.091153786
227	0xbcc6d71f	-0.0242725
228	0xba835c9e	-0.0010022109
229	0xbce7b71a	-0.028285552
230	0xbc2b9424	-0.010472331
231	0x3d2d5c73	0.042324495
232	0xbdf09f0b	-0.11749085
233	0xbd63774f	-0.055533703
234	0x3d310f3d	0.043227423
235	0xbca22a11	-0.01979545
236	0xbb151eeb	-0.0022754024
237	0xbdc9525b	-0.09830161
238	0xbd6acf16	-0.0573264
239	0xbd49aa9a	-0.049234964
240	0x3e3aec84	0.18254286
241	0xbe0b89fe	-0.13626859
242	0x3d96f4ad	0.07370887
243	0x3e0bfa5a	0.1366972
244	0x3c389973	0.011267054
245	0x3d5ba324	0.05362238
246	0x3e1f2e6a	0.1554505
247	0x3dbb95d3	0.09159436
248	0x3dbbce9c	0.09170267
249	0x3d190720	0.03736031
250	0x3c3db1a4	0.011577997
251	0xbe122c30	-0.14274669
252	0xbdcdf734	-0.10056916
253	0x3b528651	0.0032123516
254	0x3dac8f78	0.08425802
255	0xbceb9768	-0.02875872

weight_hh f4 [384, 128]
0	0x3d86a029	0.06573517
1	0xbc3130be	-0.010814844
2	0x3d92e5e9	0.07172758
3	0x3d329c12	0.04360587
4	0x3daa693d	0.08320854
5	0xbbfa2f42	-0.007635028
6	0xbd9c162f	-0.07621419
7	0xbdb320d7	-0.08746498
8	0x3dc853db	0.09781619
9	0x3cd1a878	0.025593027
10	0x3e024284	0.12720686
11	0x3da7db4f	0.08196127
12	0xbd9c0c03	-0.076194786
13	0x3d7027b0	0.0586316
14	0xbd78a78c	-0.06070666
15	0xbdf0adab	-0.117518745
16	0x3d84f5b0	0.06492174
17	0x3c678783	0.01413143
18	0xbaa1abba	-0.0012334504
19	0xbd1a65ca	-0.03769473
20	0xbd7882cd	-0.060671616
21	0xbcf212ce	-0.029549982
22	0xbd7c1618	-0.061544508
23	0xbbdd8ad5	-0.006760935
24	0xbdd5cafe	-0.10439108
25	0x3da9620d	0.08270655
26	0x3aa52e4f	0.0012602302
27	0x3db1e27a	0.08685775
28	0x3db254ca	0.087075785
29	0xbb76d68a	-0.0037664496
30	0x3ce684e7	0.028139545
31	0xbe1e516d	-0.15460749
32	0xbc9c9070	-0.019111842
33	0x3d8976a5	0.06712083
34	0xbd499599	-0.049214933
35	0x3daac6f5	0.08338729
36	0xbd58b498	-0.052906603
37	0xbe01d7ec	-0.12680024
38	0x3d0de47f	0.03464174
39	0xbb698e75	-0.003563789
40	0xbd5abcf6	-0.053402863
41	0xbe0cd3ae	-0.13752624
42	0x3c7a0523	0.015260014
43	0x3e01d9ac	0.12680691
44	0xbdac08fa	-0.0840015
45	0x3da8dc80	0.08245182
46	0x3deab23c	0.11459777
47	0x3d392e5b	0.045210224
48	0xbda7712a	-0.08175881
49	0xbdcefcd1	-0.10106815
50	0x3d7f08f2	0.06226439
51	0x3cbf61b7	0.023362024
52	0xbd0472be	-0.03233599
53	0x3d1b2380	0.037875652
54	0x3d82b2f6	0.0638179
55	0x3deb7e70	0.114987254
56	0xbcca90be	-0.024727222
57	0xba5d4618	-0.0008440926
58	0xbdf1c4bf	-0.118051045
59	0xbda064f9	-0.07831759
60	0x3c6a52ec	0.014301997
61	0xbb7c5719	-0.0038504063
62	0x3da769a1	0.08174444
63	0x3d1d128b	0.038347762
64	0xbd1e04f6	-0.03857895
65	0xbd27a1cc	-0.040925786
66	0x3cfe21db	0.031022003
67	0x3dece91b	0.11567899
68	0x3e22b64b	0.15889852
69	0x3c5ed68d	0.013600958
70	0x3d5346a5	0.051581044
71	0xbd5a4d12	-0.053296156
72	0xbdd392f5	-0.10330764
73	0x3d7f14c8	0.062275678
74	0xbd3495be	-0.044088118
75	0x3db710f5	0.08938781
76	0x3c53234b	0.0128868325
77	0x3d6c0d7e	0.057630055
78	0xbda198a0	-0.07890439
79	0x3df326dd	0.11872647
80	0x3deeecc1	0.11666251
81	0xbc9c305e	-0.019066032
82	0xbd5a4397	-0.053287115
83	0xbd9a5f1e	-0.075376734
84	0x3df4c9bc	0.1195254
85	0x3d5e579c	0.05428277
86	0x3df217cd	0.11820946
87	0xba47d821	-0.0007623453
88	0x3da44db6	0.08022635
89	0x3da0089a	0.078141406
90	0x3e00791d	0.12546201
91	0xbda99d0e	-0.08281909
92	0x3ab2c850	0.001364002
93	0xbd5875ba	-0.052846648
94	0x3cc6745b	0.024225404
95	0x3d9bcf68	0.07607919
96	0x3ce95f8c	0.028487943
97	0x3d2c8d32	0.04212684
98	0xbbcb4124	-0.0062028337
99	0xbdccd5be	-0.100017056
100	0xbd238487	-0.03992131
101	0x3d8a07cf	0.067397706
102	0xbc3678f5	-0.011137237
103	0x3c970a16	0.018437427
104	0x3da7ebee	0.08199297
105	0x3e272ed2	0.16326454
106	0xbd1baf02	-0.038008697
107	0xbca56743	-0.02019084
108	0x3d5831d8	0.05278191
109	0x3d603d34	0.054745868
110	0x3bb85fe1	0.005626664
111	0x3bd3a56e	0.0064589297
112	0xbc1c707b	-0.009548302
113	0xbd42af23	-0.047530305
114	0xbbbfbae9	-0.005851139
115	0x3cefa124	0.029251643
116	0xbdd4c8f8	-0.10389894
117	0x3d6979f8	0.057001084
118	0xbd11e393	-0.035617422
119	0xbcc5aaf7	-0.024129374
120	0x3d809efd	0.062803246
121	0x3d8663ae	0.06561981
122	0x3d6397c4	0.055564657
123	0xbc48b3df	-0.012249916
124	0xbd959caa	-0.07305272
125	0xbce50431	-0.0279561
126	0xbd5cc647	-0.05390003
127	0x3d68a73c	0.056800112
128	0xbdc42514	-0.095773846
129	0x3ce49f7e	0.027908083
130	0xbe617337	-0.22016607
131	0x3d16477e	0.036689274
132	0x3d95d036	0.07315104
133	0x3d005005	0.031326313
134	0xbb501ee3	-0.0031756691
135	0x3d8ee86a	0.06977923
136	0x3d639893	0.055565428
137	0x3cca3383	0.024682766
138	0xbe5d06f6	-0.21584687
139	0xbe0e7bcb	-0.13914411
140	0xbda87089	-0.082245894
141	0x3d927eeb	0.07153114
142	0x3d019aaf	0.03164166
143	0xbd18914e	-0.03724795
144	0x3d8ce19f	0.06878971
145	0x3e8be4ef	0.273231
146	0xbe0076c7	-0.1254531
147	0xbd543931	-0.051812354
148	0x3ad43bcc	0.0016192137
149	0xbe79a95d	-0.24381013
150	0x3d59efcf	0.053207215
151	0x3c7b88ee	0.015352471
152	0x3e1c28fc	0.1525001
153	0x3e0a9adc	0.13535637
154	0xbdb5318a	-0.088473395
155	0x3e0ba377	0.13636576
156	0x3ea4c923	0.32184705
157	0xbd283a8d	-0.041071463
158	0xbccf6dff	-0.025321005
159	0xbd7b3cb7	-0.0613372
160	0xbdf011db	-0.11722156
161	0x3da411b8	0.08011192
162	0x3d8c4197	0.06848448
163	0x3e9b07be	0.30279344
164	0xbe158a88	-0.14603627
165	0xbd903673	-0.07041635
166	0xbe08c3bb	-0.13355915
167	0xbcfb9c00	-0.030714035
168	0x3d4adf3a	0.04952929
169	0xbcf75705	-0.030192861
170	0xbce2017f	-0.027588604
171	0x3e4a609a	0.19763413
172	0x3c73ab49	0.0148723805
173	0x3de00638	0.10938686
174	0x3dab948d	0.08377943
175	0xbd82181b	-0.06352254
176	0xbcb87574	-0.022516944
177	0x3e200b51	0.15629317
178	0xbd215e9f	-0.03939688
179	0xbe0b378a	-0.13595405
180	0xbde3b3a6	-0.111182496
181	0x3e4cbfec	0.19995087
182	0x3d895b7e	0.06706904
183	0xbe48ce94	-0.19610053
184	0xbde1fd7a	-0.11034675
185	0x3d8e13a1	0.06937338
186	0xbc2f4ebf	-0.010699927
187	0x3bc61836	0.0060453666
188	0xbd7974d4	-0.06090243
189	0xbda63415	-0.081154026
190	0x3af05bac	0.0018337867
191	0x3e44d236	0.19220814
192	0xbc46bf6c	-0.0121305995
193	0xbe82694d	-0.25470963
194	0x3cbe5e9f	0.023238478
195	0x3d10b0ee	0.035324983
196	0x3d3dfc28	0.046383053
197	0x3cbf398a	0.023342866
198	0xbc97a2c3	-0.018510228
199	0xbe042f65	-0.12908705
200	0xbd4c99cf	-0.04995137
201	0xbdb99939	-0.09062428
202	0x3dd5347a	0.104104
203	0xbd21df7d	-0.039519776
204	0x3d7dffa4	0.062011376
205	0xbc6b7f3c	-0.014373597
206	0x3e5ce696	0.21572337
207	0xbdc58434	-0.09644356
208	0xbbaa60e0	-0.0051995367
209	0x3d8a4142	0.06750728
210	0xbdf7c6bc	-0.120984524
211	0xbd8e76f7	-0.069562845
212	0x3e1ee6f8	0.15517795
213	0x3d10bd85	0.03533699
214	0x3dc72db0	0.09725511
215	0xbe8d6e2a	-0.2762311
216	0x3d984a2b	0.074360214
217	0xbd109c55	-0.03530534
218	0xbd50abc7	-0.05094507
219	0xbda063bc	-0.07831523
220	0x3b5b23c7	0.0033438073
221	0xbd8685b4	-0.065684706
222	0xbcfaa20e	-0.030594852
223	0xbba1144d	-0.00491575
224	0x3dd8c749	0.105848856
225	0x3d82404b	0.06359919
226	0x3b654a8e	0.0034987065
227	0x3c7413ea	0.014897326
228	0xbdd65587	-0.10465532
229	0xbb1fc628	-0.0024379585
230	0x3d468bbb	0.0484731
231	0xbe233fdf	-0.15942334
232	0x3d4c60bd	0.049896944
233	0x3d806c3d	0.06270645
234	0x3d841472	0.06449212
235	0xbcf3f638	-0.029780492
236	0xbdd1616e	-0.10223661
237	0xbd438e0a	-0.04774288
238	0x3d3f3371	0.046679918
239	0x3d56c489	0.052433524
240	0x3d807257	0.062718086
241	0x3d6c072b	0.057624023
242	0xbdd1d0ee	-0.10244928
243	0xbd9ff78c	-0.07810888
244	0xbd1a7116	-0.037705503
245	0xbcb231ae	-0.021752205
246	0xbe02a2f7	-0.12757479
247	0xbe017eea	-0.1264607
248	0x3d63214b	0.055451673
249	0x3dee32f7	0.116308145
250	0x3e382515	0.17982896
251	0xbd17d131	-0.037064735
252	0x3b08865a	0.0020832033
253	0x3de0e85c	0.10981819
254	0xbd93dae3	-0.07219484
255	0x3cb678ee	0.02227446

bias_ih f4 [384]
0	0xbe083661	-0.13301994
1	0x3c4f5b81	0.012656094
2	0x3d0674a2	0.032826073
3	0x3d136331	0.03598327
4	0x3d95024e	0.0727583
5	0xbc785da8	-0.015159048
6	0xbd2f36f5	-0.04277702
7	0xbcbac4c8	-0.02279891
8	0xb9caea3b	-0.00038702958
9	0x3c98cd9a	0.018652726
10	0xbccfe3ca	-0.025377173
11	0xbd79b3ac	-0.060962364
12	0x3daf6549	0.085642405
13	0xbd30c24b	-0.043154042
14	0x3c922dbf	0.017844079
15	0x3d7d0530	0.061772525
16	0x3d715a07	0.058923747
17	0x3d43df36	0.047820292
18	0xbd72bcb1	-0.05926198
19	0xba6da1b7	-0.000906493
20	0xbe15a463	-0.1461349
21	0x3d85081d	0.06495688
22	0xbd4f98b4	-0.05068274
23	0x3ded24fe	0.11579321
24	0x3d53e6f4	0.051733926
25	0x3dc5bc8c	0.09655103
26	0xbb4e0c4c	-0.0031440435
27	0x3d6925f9	0.05692098
28	0x3c43d66c	0.011952978
29	0x3d24c02b	0.04022233
30	0xbcffde00	-0.031233788
31	0x3da59b7a	0.080862954
32	0xbcf6443c	-0.030061834
33	0xbcea8d04	-0.028631695
34	0x3dc9c144	0.098513156
35	0x3de0cce3	0.10976579
36	0xbd98002f	-0.0742191
37	0xbda9eac4	-0.08296731
38	0xbdcfc462	-0.10144879
39	0x3d4f71d2	0.050645657
40	0x3d94b5fe	0.07261275
41	0x3dd6d839	0.1049046
42	0x3de7a0fc	0.11310002
43	0x3dea8968	0.114519894
44	0x3d9cdd1a	0.07659359
45	0xbc710bb4	-0.014712263
46	0xbcc47bb5	-0.02398477
47	0xbd9bbbda	-0.07604189
48	0x3d2cc78d	0.042182494
49	0x3d03c5fc	0.032171234
50	0xbb8acd38	-0.0042358898
51	0x3d599494	0.05312021
52	0x3d8f9ed4	0.07012716
53	0xbd10220c	-0.03518872
54	0xbdd35aa2	-0.10320021
55	0x3db148a2	0.08656432
56	0xbcd475d7	-0.025935097
57	0xbcbe8757	-0.023257894
58	0x3bb3e95a	0.005490464
59	0x3e0fc710	0.1404078
60	0xbd90c076	-0.07067959
61	0x3c282be0	0.010264367
62	0xbd1f78f0	-0.038933694
63	0x3d26b5c9	0.040700708
64	0x3d62baa7	0.055353787
65	0x3e144f17	0.14483295
66	0x3d557351	0.052111927
67	0x3daf819b	0.08569642
68	0xbd066279	-0.032808755
69	0xbcea1607	-0.028574957
70	0xbce4660f	-0.027880697
71	0xbd0f0d6e	-0.034924917
72	0xbd23d6c9	-0.039999757
73	0x3c9c5861	0.019085111
74	0xbcfab306	-0.030602943
75	0x3d326d2b	0.043561142
76	0x3d72b076	0.059250318
77	0xbd2a8d2c	-0.04163854
78	0xbd140493	-0.036137175
79	0x3d131e59	0.035917614
80	0xbbce65fa	-0.0062987776
81	0x3cde7e0b	0.027159711
82	0x3d0aa3af	0.033847507
83	0xbc714117	-0.014724991
84	0xbc5b7765	-0.013395165
85	0xbc93e577	-0.018053753
86	0x3cc9525c	0.024575405
87	0xbbd55d10	-0.006511338
88	0x3d6255e2	0.055257685
89	0xbc876185	-0.016525993
90	0xbdef7c83	-0.116936706
91	0xbc74b34a	-0.014935324
92	0x3c18526f	0.009296997
93	0xbd2e7ede	-0.04260146
94	0x3d5d72a2	0.0540644
95	0x3de05a75	0.10954753
96	0xbdffda55	-0.124928154
97	0xbc796157	-0.0152209615
98	0xbe04a97f	-0.12955283
99	0xbdbe90ce	-0.09304963
100	0x3c896f88	0.016776815
101	0xbc876788	-0.01652886
102	0xbbec6838	-0.0072145723
103	0xbd094b77	-0.033519235
104	0xbca6b98a	-0.020352144
105	0xbda83159	-0.08212537
106	0xbd09925d	-0.03358685
107	0xbcd9383c	-0.026516072
108	0x3bd2af52	0.006429591
109	0xbcc637c2	-0.02419651
110	0xbbfce6dc	-0.0077179503
111	0x3da01232	0.078159705
112	0x3d96a7b6	0.07356207
113	0x3d35b252	0.044359513
114	0xbbfe5728	-0.0077618547
115	0xbc5b166a	-0.013372043
116	0xbae14366	-0.0017186224
117	0x3da8cf54	0.0824267
118	0xbd924b3d	-0.07143257
119	0xbba8c188	-0.005150024
120	0xbd2a97a4	-0.041648522
121	0xbccc0d5d	-0.024908716
122	0x3dbb0ce5	0.09133319
123	0x3cf325b6	0.029681068
124	0x3d2cd8f5	0.042199094
125	0xbc97c14a	-0.018524785
126	0xbcc3fbcc	-0.023923777
127	0x3bba4853	0.0056848912
128	0x3d9e1697	0.077191524
129	0xbe18b6e9	-0.14913525
130	0x3da23cb5	0.07921735
131	0xbe064747	-0.13113128
132	0xbb92f070	-0.004484229
133	0x3c9ed44a	0.019388337
134	0x3cfb3845	0.03066648
135	0x3da7967a	0.08182998
136	0x3cc84a5b	0.024449518
137	0x3d0eadda	0.034833767
138	0x3db2b016	0.08724992
139	0xbcf52930	-0.029926866
140	0xbd8900fb	-0.0668964
141	0x3d837c8c	0.0642024
142	0x3d5c1a72	0.053736158
143	0xbbbbce55	-0.005731384
144	0xbd4af5f0	-0.04955095
145	0xbd4771ba	-0.048692442
146	0xbdc2bbba	-0.09508462
147	0xbcebd480	-0.028787851
148	0x3c8508b7	0.016239507
149	0xbdf33168	-0.11874658
150	0xbda55d5b	-0.08074447
151	0x3d6a7b27	0.057246353
152	0xbd58985e	-0.052879684
153	0xbda0e509	-0.07856185
154	0xbe08e980	-0.13370323
155	0xbe058c9c	-0.1304192
156	0xbd2ff9e2	-0.042962916
157	0xbc951138	-0.018196687
158	0x3c4697fe	0.012121199
159	0xbcf8d446	-0.030374657
160	0xbd15879a	-0.036506273
161	0xbd108e34	-0.035291865
162	0xbda5c4d5	-0.08094183
163	0xbdb36997	-0.08760374
164	0xbdbd1963	-0.09233358
165	0xbdac7b38	-0.084219396
166	0x3da4aa5b	0.08040305
167	0xbd67c109	-0.056580577
168	0x3deb308c	0.11483869
169	0xbe5915d6	-0.21199736
170	0xbd03c5e1	-0.032171134
171	0xbd01a535	-0.031651694
172	0xbd0b7ce7	-0.034054663
173	0xbd680df9	-0.05665395
174	0xbdb2416d	-0.08703885
175	0x3dcb5242	0.09927799
176	0x3b51fd62	0.0032041897
177	0xbde838cf	-0.113389604
178	0xbdadae72	-0.084805384
179	0xbe3553eb	-0.17707793
180	0xbe071abc	-0.13193792
181	0xbe317f70	-0.1733377
182	0xbd84dbd8	-0.06487244
183	0xbe4184d7	-0.1889833
184	0xbdb61001	-0.08889771
185	0x3b0e5b2f	0.002172183
186	0xbdfb8b31	-0.12282408
187	0xbda3613f	-0.079775326
188	0xbc8a83cb	-0.016908547
189	0xbdc51ffd	-0.09625242
190	0xbdbf4d72	-0.093409434
191	0x3c849a80	0.016186953
192	0xbdb7a902	-0.089677826
193	0xbca13730	-0.019679636
194	0x3d811bcc	0.0630413
195	0xbe4917f2	-0.1963804
196	0xbda8a5b4	-0.0823473
197	0xbd9150b6	-0.070954725
198	0x3a87a8bf	0.0010349973
199	0x3e01f78f	0.12692092
200	0x3d0769c8	0.033059865
201	0xbe0b0905	-0.1357766
202	0xbc7f2b9a	-0.01557436
203	0x3ddfa7a2	0.10920645
204	0x3ca2265a	0.019793678
205	0x3d5f667d	0.0545411
206	0xbce33bba	-0.02773844
207	0xbd922b65	-0.07137183
208	0xbe8572b3	-0.2606407
209	0xbcd46433	-0.025926685
210	0xbdea865e	-0.1145141
211	0xbda55d0e	-0.080743894
212	0xbd6f702d	-0.05845659
213	0xbe0a9b88	-0.13535893
214	0xbd2a33ad	-0.041553188
215	0xbd9e7ca8	-0.0773862
216	0x3cbb157a	0.02283739
217	0xbe1db419	-0.15400733
218	0xbdb81392	-0.08988108
219	0xbdae4582	-0.08509351
220	0xbe232c4c	-0.15934867
221	0x3d896894	0.067094
222	0xbd274b33	-0.0408432
223	0x3c1fb3a1	0.009747417
224	0xbc9d44a0	-0.019197762
225	0x3dac178b	0.08402928
226	0x3dbf8cc8	0.09353024
227	0x3c990c13	0.018682515
228	0x3daf3faf	0.085570686
229	0x3d07c03a	0.033142306
230	0xbd4d668c	-0.050146624
231	0xbd56686e	-0.052345686
232	0xbd73c7dc	-0.059516773
233	0xbd464983	-0.04840995
234	0x3d431392	0.047626086
235	0xbd299f5b	-0.04141174
236	0xbdc5dd49	-0.096613474
237	0xbcd0b12c	-0.025475107
238	0xbc8951d1	-0.016762646
239	0x3c4a0872	0.012331115
240	0xbd545470	-0.05183834
241	0xbd706118	-0.058686346
242	0x3d228a27	0.039682534
243	0xbd50c0bd	-0.05096506
244	0x3d099047	0.03358486
245	0x3dc701de	0.09717153
246	0xbd9df48c	-0.07712659
247	0x3da2e1c1	0.079532154
248	0x3d392f58	0.045211166
249	0xbccca9a2	-0.024983231
250	0x3cc470f2	0.023979638
251	0xbba24344	-0.0049518663
252	0xbad530e7	-0.0016265184
253	0x3d15f93e	0.03661465
254	0x3c0fb652	0.008771496
255	0x3b92ca1b	0.0044796593

bias_hh f4 [384]
0	0x3bc11100	0.005891919
1	0xbdacc812	-0.08436598
2	0x3c225dcd	0.009910059
3	0x3da93128	0.08261329
4	0x3d66817f	0.05627584
5	0xbbf2a7b0	-0.007405244
6	0xbda6485f	-0.081192724
7	0xbdab10f2	-0.083528414
8	0x3d205d60	0.03915155
9	0xbd02cf06	-0.031935714
10	0xbcd0e944	-0.025501855
11	0xbdb62e1f	-0.08895516
12	0x3dce6a04	0.100788146
13	0x3d260717	0.040534105
14	0xbda552c6	-0.080724284
15	0x3cc554d0	0.024088293
16	0xbd139e59	-0.036039684
17	0x3d86ee6c	0.06588444
18	0x3d0e2454	0.034702614
19	0x3d22b7f5	0.039726216
20	0xbde2ca79	-0.11073775
21	0x3d3eec56	0.046612106
22	0xbd1cde92	-0.038298197
23	0x3d6dad87	0.058026817
24	0x3d0fd4a7	0.03511491
25	0xbd2b0e2f	-0.041761573
26	0x3c67dd94	0.014151949
27	0x3db364b3	0.08759441
28	0x3d4be85e	0.04978215
29	0xbb8a0ae3	-0.0042127236
30	0xbc6ca781	-0.014444233
31	0x3d9c3231	0.07626761
32	0xbdc3a6db	-0.095533095
33	0xbd52fee3	-0.05151261
34	0x3d130af5	0.03589912
35	0xbca985db	-0.02069371
36	0x3d54f31e	0.051989667
37	0xbccfb479	-0.02535461
38	0xbd658cfd	-0.05604266
39	0x3d87dff6	0.06634514
40	0xbd46fd86	-0.048581623
41	0x3d842a2d	0.06453357
42	0x3dea02a3	0.11426284
43	0x3e04d97b	0.12973587
44	0x3d2ece41	0.042677168
45	0x3d3d9e03	0.04629327
46	0xbcb85f25	-0.022506306
47	0xbd6efdde	-0.058347575
48	0x3dbc14e9	0.09183676
49	0x3e0092a9	0.12555946
50	0xbd2f425c	-0.042787895
51	0xbc421684	-0.011846188
52	0x3d61887b	0.0550618
53	0xbdb39613	-0.08768859
54	0xbbefe330	-0.007320784
55	0x3ce81350	0.028329521
56	0x3de4f8e4	0.111802846
57	0x3d8515d6	0.064983055
58	0x3ce2cbc6	0.027685057
59	0x3da3813f	0.07983636
60	0xbb35522d	-0.0027667389
61	0x3c03f41f	0.0080538085
62	0xbce6b576	-0.0281627
63	0xbd677feb	-0.056518476
64	0xbce6e184	-0.028183706
65	0x3e6f1e71	0.23351456
66	0x3c4d3190	0.012524024
67	0x3d71dbef	0.059047636
68	0xbd525b9a	-0.05135689
69	0x3d96ba8d	0.073598005
70	0x3d2eaa3c	0.042642817
71	0x3d4889c0	0.048959494
72	0xbdc9ef28	-0.098600686
73	0x3d25acaf	0.040447887
74	0x3e06378b	0.13107125
75	0xbd211ca5	-0.03933396
76	0x3c8e5d3a	0.017378438
77	0xbd1065f0	-0.035253465
78	0x3d65e9f9	0.056131337
79	0x3cde07d3	0.02710334
80	0xbbda98cb	-0.0066710464
81	0x3d8b6d62	0.068079725
82	0xbdce0d46	-0.100611255
83	0xbd3ddc4a	-0.046352662
84	0x3df60a05	0.1201363
85	0xbbf087b8	-0.0073403977
86	0xbd5458c8	-0.05184248
87	0xbdebc50f	-0.11512195
88	0xbce44ada	-0.027867723
89	0xbaa1eda0	-0.0012354143
90	0xbd3dd66b	-0.046347063
91	0xbabc7e44	-0.0014380892
92	0x3d316c3d	0.043316115
93	0xbcfb8a07	-0.030705465
94	0xbd3e0b97	-0.04639777
95	0x3d7616e6	0.06008043
96	0xbd5a8d84	-0.053357616
97	0xbd8a0498	-0.067391574
98	0xbc55fccc	-0.01306076
99	0xbbc7afe1	-0.0060939644
100	0x3d887776	0.0666341
101	0x3d991c86	0.074761435
102	0x3d0f669e	0.035009973
103	0x3ce1a48c	0.027544282
104	0x3d116b23	0.035502564
105	0x3bfd1554	0.00772349
106	0xbd863d13	-0.06554618
107	0x3cd8b7ed	0.02645489
108	0xbccbdb42	-0.024884824
109	0x3d275516	0.04085263
110	0x3ccc8a0a	0.024968166
111	0x3d69d122	0.05708421
112	0xbccad39e	-0.02475911
113	0x3ccb9a3a	0.024853814
114	0xbc6627ce	-0.014047576
115	0x3dc177fd	0.09446714
116	0x3d0b3d24	0.033993855
117	0x3d6fa7a7	0.058509495
118	0xbd8490de	-0.06472944
119	0x3cd11d44	0.02552665
120	0x3d76db20	0.060267568
121	0xbae7b872	-0.001767887
122	0x3e13dc97	0.14439617
123	0x3d882343	0.06647351
124	0xbd6988ba	-0.05701516
125	0x3bf69fad	0.007526359
126	0xbdc76bef	-0.097373836
127	0xbdbbc84b	-0.09169062
128	0xbd92a7c3	-0.07160904
129	0xbda04662	-0.078259245
130	0x3d4af1f5	0.049547154
131	0xbe2a186a	-0.16610876
132	0x3d2cdac7	0.04220083
133	0xbdb6b71d	-0.08921645
134	0xbd367b9c	-0.044551477
135	0x3d1d20bf	0.038361307
136	0xbd1e9602	-0.038717277
137	0x3ce006bc	0.027346961
138	0x3cadc0d8	0.02121012
139	0x3cc3d604	0.023905762
140	0xbdc656ea	-0.09684546
141	0xbd37e879	-0.044899438
142	0xbc177c68	-0.009245969
143	0xbc9101fc	-0.017701142
144	0x3b032e23	0.0020016513
145	0x3b31d894	0.0027137147
146	0xbc2d36a8	-0.010572113
147	0xbcc039c8	-0.023465052
148	0x3ddf8171	0.10913361
149	0xbd0a534b	-0.03377084
150	0x3d1d2b70	0.038371503
151	0x3d597d5a	0.05309806
152	0x3c2b347c	0.010449525
153	0xbd8796c3	-0.066205524
154	0xbd77918a	-0.06044153
155	0xbdf8b597	-0.121440105
156	0xbd51375f	-0.051078197
157	0xbe0276fc	-0.12740701
158	0x3d054abd	0.03254198
159	0x3d89a8eb	0.06721672
160	0x3d611c50	0.05495864
161	0xbe0850fc	-0.13312143
162	0x3c8c8477	0.017153008
163	0x3c27a54f	0.010232284
164	0xbc1f5614	-0.0097251125
165	0xbd8a0b74	-0.06740466
166	0xbd9abac6	-0.075551555
167	0x3d7d4026	0.061828755
168	0xbcb22eb3	-0.021750784
169	0xbe067791	-0.13131548
170	0xbbb19e19	-0.005420458
171	0xbd88cd9f	-0.06679844
172	0x3d64a140	0.055817842
173	0xbe43fe86	-0.19140062
174	0xbc94bbb6	-0.018155914
175	0x3d705f3c	0.058684573
176	0xbd90fab4	-0.07079068
177	0xbc82f37a	-0.01598524
178	0xbd4810d1	-0.048844162
179	0xbe3295f7	-0.1744002
180	0xbd8e5c0d	-0.06951151
181	0xbd84f20e	-0.06491481
182	0xbdaf86de	-0.08570646
183	0xbe26db5b	-0.16294615
184	0x3d681eb5	0.05666991
185	0x3de9923a	0.11404844
186	0xbe38bf93	-0.1804183
187	0xbda258fc	-0.07927129
188	0xbe2b6d21	-0.16740848
189	0x3d520e37	0.051283088
190	0xbd062057	-0.032745685
191	0xbd04278f	-0.03226429
192	0xbdc20914	-0.09474388
193	0x3d8b5ff9	0.06805415
194	0x3d853167	0.065035634
195	0xbe3814ef	-0.17976736
196	0xbd50f595	-0.051015455
197	0x3cfca6e5	0.0308413
198	0xbdb0c6b6	-0.08631651
199	0xbc2a9170	-0.010410652
200	0xbd46485c	-0.04840885
201	0xbc10da86	-0.008841163
202	0xbcb40f3a	-0.021979917
203	0xbbdd5223	-0.006754176
204	0xbb127621	-0.0022348242
205	0x3d4893ec	0.048969194
206	0x3d992888	0.07478434
207	0xbc1471a9	-0.009060302
208	0xbe3e1f96	-0.18566737
209	0xbdd7e05e	-0.105408415
210	0xbc6b4d37	-0.014361671
211	0xbe28ba6f	-0.16477369
212	0xbe2254f3	-0.15852718
213	0xbe1798de	-0.14804408
214	0x3dc9ed19	0.09859676
215	0xbc743243	-0.014904561
216	0xbb0ea88e	-0.0021767947
217	0xbe5a3287	-0.21308337
218	0xbb988d98	-0.004655551
219	0xbd81b644	-0.063335925
220	0xbd8a6877	-0.06758206
221	0x3c93105c	0.017952137
222	0x3d8dddca	0.069270685
223	0xb85fc9b0	-5.335518e-05
224	0xbc11b6d9	-0.008893692
225	0x3db5c44f	0.088753335
226	0x3b9d06f2	0.0047920877
227	0xbdd1c912	-0.10243429
228	0x3d476add	0.048685897
229	0xb77b067a	-1.4962274e-05
230	0xbd21bc1c	-0.039486036
231	0xbd07a24f	-0.033113774
232	0x3c1e0fef	0.009647354
233	0x3dcf157d	0.101115204
234	0x3e0e3735	0.13888247
235	0x3cde6cfa	0.027151573
236	0x3c91ba4d	0.01778903
237	0x3cc94fbd	0.024574155
238	0xbd8850bf	-0.06656026
239	0x3b811b36	0.0039400114
240	0x3be861d5	0.0070917406
241	0xbc8bf2b3	-0.017083501
242	0x3d063b4a	0.032771386
243	0xbd8ff3b3	-0.07028904
244	0x3d8e3bef	0.06945025
245	0x3d2d24ee	0.042271547
246	0xbe65a6ce	-0.22426912
247	0xbc871c44	-0.01649297
248	0x3d1b2fe4	0.03788747
249	0xb7e46a7c	-2.7229304e-05
250	0xbced8503	-0.028994089
251	0xbdb13834	-0.08653298
252	0xbe02de37	-0.1278008
253	0xbd5d1e97	-0.05398425
254	0x3d31a08e	0.043366008
255	0x3d67f17a	0.056626774

weight f4 [128, 128]
0	0xbd648156	-0.055787407
1	0xbc2b5b43	-0.01045877
2	0x3dceaaec	0.100911945
3	0x3cd28a9a	0.025700856
4	0xbd715355	-0.058917362
5	0xbd13480a	-0.035957374
6	0x3cd91944	0.026501305
7	0x3dfbe076	0.12298672
8	0xbd9e6dc2	-0.077357784
9	0x3da47a3a	0.08031125
10	0x3b006433	0.0019590973
11	0x3de426a0	0.1114018
12	0x3ce35531	0.027750583
13	0xbdc78d34	-0.09743729
14	0x3c50620d	0.01271869
15	0x3d1f134b	0.03883676
16	0x3e36d882	0.17856029
17	0xbd27cf2a	-0.04096905
18	0x3cf2e913	0.029652154
19	0x3d2f9630	0.04286784
20	0xbd8190f2	-0.06326474
21	0xbca4662d	-0.020068252
22	0x3c662eb4	0.014049221
23	0x3dc06472	0.093941584
24	0x3d9fef85	0.078093566
25	0x3d07307a	0.033005215
26	0xbd7f9577	-0.0623984
27	0xbdb01718	-0.08598155
28	0xbe071692	-0.13192204
29	0xbe014274	-0.12623006
30	0xbca7c271	-0.02047846
31	0xbd0716f2	-0.032980867
32	0xbc8a23ab	-0.016862711
33	0xbd372869	-0.044716273
34	0x3cd9f422	0.02660567
35	0xbde0657b	-0.10956856
36	0xbd06a2f3	-0.032870244
37	0xbd68fe1d	-0.056882966
38	0xbdb026fe	-0.08601187
39	0x3c07665c	0.0082641505
40	0xbd9cd3cb	-0.07657584
41	0x3d67f597	0.056630697
42	0x3dfa7522	0.122293726
43	0xbd8cbe36	-0.06872217
44	0x3d15e05a	0.03659091
45	0x3d07f4d9	0.03319249
46	0x3c22fdac	0.009948175
47	0xbda3cc42	-0.079979435
48	0x3da9bd09	0.08288009
49	0xbcec3086	-0.028831732
50	0xba17b373	-0.0005786933
51	0xbe07ae78	-0.13250148
52	0x3dc91902	0.09819223
53	0x3dd1bb78	0.10240835
54	0x3d93d307	0.07217985
55	0x3d389749	0.04506615
56	0x3d51a129	0.051179085
57	0x3d813f53	0.06310906
58	0x3db45651	0.08805526
59	0xbd56d522	-0.052449353
60	0x3d97f21c	0.074192256
61	0xbdcc381d	-0.0997164
62	0xbd497df4	-0.049192384
63	0x3dae195c	0.08500931
64	0x3db73cdb	0.08947154
65	0x3d9044a5	0.07044343
66	0x3d593f35	0.053038795
67	0x3cc59273	0.024117684
68	0xbdc4b8e1	-0.09605575
69	0x3cd33718	0.025783107
70	0xbcf6f12c	-0.030144297
71	0x3cbb197f	0.022839306
72	0xbd5a5527	-0.053303864
73	0xbe1f0371	-0.15528657
74	0x3ddecd5b	0.10879012
75	0x3dc2e104	0.095155746
76	0xbdd911db	-0.10599109
77	0x3d1f6361	0.038913134
78	0x3dfb229a	0.12262459
79	0x3c9ea23c	0.019364469
80	0xbd443ff3	-0.04791255
81	0x3c2531f9	0.010082715
82	0x3da0d532	0.07853164
83	0xbd719506	-0.05898001
84	0xbca87ce8	-0.020567372
85	0x3a69d117	0.00089194014
86	0xbd32e256	-0.043672882
87	0xbdd3ece5	-0.103479184
88	0xbaa08c52	-0.001224885
89	0xbda1bcc9	-0.07897336
90	0xbda64d99	-0.08120269
91	0x3d4a2102	0.049347885
92	0xbd966c9d	-0.07344935
93	0x3d8c2623	0.068432115
94	0x3ccaee8f	0.024771957
95	0x3d661361	0.056170825
96	0x3d92ea0f	0.071735494
97	0x3d7ebdd3	0.06219275
98	0xbd6f1f14	-0.058379248
99	0xbd60d5a1	-0.054891232
100	0x3dac45e5	0.08411769
101	0xbd1efc32	-0.03881473
102	0x3bd0c8ca	0.006371592
103	0xbcf025f4	-0.029314972
104	0x3cfd0720	0.030887187
105	0xbd63825c	-0.055544242
106	0xbcd2ffb9	-0.025756704
107	0xbd4f1f4a	-0.05056695
108	0x3caf780f	0.021419553
109	0x3e0bb406	0.13642892
110	0x3d3acc36	0.045604907
111	0x3c13b51f	0.009015351
112	0x3d351fac	0.044219658
113	0xbe55ece5	-0.2089115
114	0xbdad91c7	-0.084750704
115	0x3d98cca3	0.07460906
116	0xbd4c66e3	-0.049902808
117	0xbd29ead9	-0.041483734
118	0x3e4867e5	0.19570883
119	0xbd296895	-0.041359503
120	0xbce56d28	-0.028006151
121	0xbdceab4d	-0.10091267
122	0xbd65dce5	-0.056118865
123	0xbc0331c2	-0.008007469
124	0x3cb0bc2b	0.0215741
125	0xbd229f6a	-0.03970281
126	0x3d20844f	0.03918868
127	0xbe0f3130	-0.13983607
128	0x39d669b8	0.00040896027
129	0x3d7e9223	0.062151086
130	0x3d8a9707	0.067670874
131	0x3ca470d3	0.02007333
132	0x3d187fb8	0.037231177
133	0xbd874dcb	-0.06606635
134	0x3da4c8c1	0.08046103
135	0x3d7a0e09	0.06104854
136	0xbcda5b98	-0.026655003
137	0x3dad03de	0.08448003
138	0x3c0e596a	0.00868831
139	0x3d944aa7	0.07240801
140	0x3d3d0100	0.04614353
141	0xbd91e31f	-0.07123398
142	0x3deafaa5	0.11473588
143	0x3e02ae86	0.12761888
144	0x3db050da	0.08609171
145	0xbddd39ae	-0.10802017
146	0x3cdad56f	0.026713101
147	0x3d8c13ec	0.06839737
148	0xbd7199e8	-0.058984667
149	0xbde96f27	-0.11398154
150	0x3d25c365	0.040469546
151	0x3ddc33c2	0.107520595
152	0x3d319a03	0.043359768
153	0xbbfc9f3d	-0.0077094124
154	0xbda857b6	-0.082198545
155	0xbe4366fe	-0.19082257
156	0x3a2ddd3b	0.0006632392
157	0xbe629822	-0.22128347
158	0x3d41b9a2	0.047296174
159	0xbd0a7cc5	-0.033810396
160	0x3da800eb	0.082033
161	0x3d0cf44e	0.034412675
162	0xba2531b2	-0.00063016557
163	0xbd8d1bea	-0.0689009
164	0xbd184391	-0.03717381
165	0x3c52198e	0.0128234755
166	0xbd08fc13	-0.03344352
167	0xba9a4194	-0.0011768811
168	0xbd9821c4	-0.07428315
169	0xbdb68c70	-0.08913505
170	0x3da9c826	0.082901284
171	0xbd8e4ab4	-0.06947842
172	0x3d4e950f	0.050435122
173	0xbcba3d0a	-0.022734184
174	0xbcbbf03b	-0.0229417
175	0xbdce672b	-0.100782715
176	0x3d99046b	0.07471546
177	0x3d164796	0.036689363
178	0xbbaaa5d3	-0.005207756
179	0xbd790252	-0.06079323
180	0xbbaed835	-0.0053358325
181	0xbc1dd073	-0.009632218
182	0x3c753bba	0.014967853
183	0x3d90d381	0.07071591
184	0x3cc11684	0.023570307
185	0x3cd55226	0.026040148
186	0xbdab7dfa	-0.083736375
187	0xbdd1855d	-0.10230515
188	0x3d1530bc	0.03642343
189	0xbd6ea1f9	-0.058259938
190	0x3d87a1c7	0.066226535
191	0xbd03c0e4	-0.032166377
192	0xbccb596c	-0.024822913
193	0x3c275a6b	0.010214428
194	0x3d7f3a58	0.0623115
195	0xbcc462e9	-0.023972945
196	0x3beb7bad	0.007186374
197	0x3d114272	0.035463758
198	0xbd2e7277	-0.04258963
199	0xbd95ebdd	-0.07320378
200	0xbd98a477	-0.07453244
201	0xbcdaa75f	-0.026691137
202	0x3d256180	0.040376186
203	0x3b5209cf	0.0032049303
204	0xbdc76f16	-0.09737985
205	0xbbaecc35	-0.005334402
206	0x3c845b05	0.016156683
207	0xbd1d7be5	-0.038448233
208	0x3db10f5e	0.08645509
209	0xbc007bc4	-0.007842008
210	0x3da90e97	0.08254736
211	0xbc9170e1	-0.01775402
212	0xbdf54243	-0.11975529
213	0x3d871f2b	0.06597742
214	0xbd7b8b44	-0.06141211
215	0xbda314c8	-0.07962948
216	0x3d990a01	0.07472611
217	0xbbc77b07	-0.006087664
218	0xbd41c0e2	-0.047303088
219	0xbdb4e772	-0.08833207
220	0xbc8e9b8d	-0.017408157
221	0x3bfe2fc1	0.0077571576
222	0xbd259604	-0.04042627
223	0x3b3b5a8d	0.0028587908
224	0xbbe25b69	-0.0069078696
225	0xbcfcd307	-0.030862344
226	0xbe437e62	-0.1909118
227	0x3b77856c	0.0037768735
228	0x3dc9e6d2	0.098584786
229	0x3ccb8c6d	0.024847234
230	0xbd252c4d	-0.04032545
231	0xbdd994cc	-0.10624084
232	0xbce91363	-0.028451627
233	0xbd84bb66	-0.06481056
234	0xbcc070e2	-0.023491327
235	0x3d1705aa	0.036870636
236	0xbd6b9371	-0.057513658
237	0x3d1d5c6d	0.038418222
238	0x3ba396d0	0.0049923435
239	0x3dc35a9a	0.09538765
240	0x3d19e30b	0.03757004
241	0xbe16dea2	-0.14733365
242	0xbe017e7e	-0.12645909
243	0x3db27367	0.087134175
244	0x3cd377d1	0.025813969
245	0x3ddc130f	0.10745823
246	0x3e14e991	0.14542224
247	0xbc596a0f	-0.013269915
248	0xbd76845a	-0.060184814
249	0x3da0eb03	0.07857325
250	0x3da31177	0.079623155
251	0x3d8a8199	0.06763
252	0x3cadbbca	0.021207709
253	0xbd85c348	-0.065313876
254	0xbcf72dfb	-0.030173292
255	0xbe51dc20	-0.20494127

bias f4 [128]
0	0x3da12a6e	0.07869421
1	0x3cad02d7	0.021119518
2	0x3dc1eecd	0.09469376
3	0xbc40a8bd	-0.01175898
4	0x3d10d4d1	0.035359208
5	0x3d898073	0.06713953
6	0x3d755703	0.059897434
7	0x3d9ff425	0.07810239
8	0xbd590c79	-0.05299041
9	0xbc2892cc	-0.010288905
10	0xbd87ffef	-0.06640612
11	0x3d32bcea	0.043637194
12	0x3cc7b528	0.024378374
13	0x3c02c695	0.007981916
14	0x3bae11b9	0.0053121713
15	0xb9477727	-0.00019022507
16	0x3d0c919a	0.034318544
17	0xbd7f3f12	-0.062316008
18	0xbc9f77aa	-0.01946624
19	0x3cb5b2d7	0.022180004
20	0x3adca9df	0.0016835293
21	0xbd704cc5	-0.058666963
22	0x3cde76de	0.02715629
23	0xbd4675e6	-0.04845228
24	0xbdc8a020	-0.097961664
25	0xbe01423a	-0.1262292
26	0xbc086881	-0.008325697
27	0xba0551e1	-0.0005085748
28	0x3d062e8c	0.032759234
29	0x3d85498f	0.06508171
30	0x3b701a1c	0.0036636656
31	0xbdb4b36e	-0.08823286
32	0xbd3a8959	-0.04554114
33	0xbc887af8	-0.016660199
34	0x3d2e3df4	0.04253955
35	0xbdba147e	-0.0908594
36	0xbd45501a	-0.048172094
37	0x3d2af417	0.04173669
38	0x3d604165	0.054749865
39	0x3d1f39e0	0.038873553
40	0x3c16e02a	0.009208718
41	0xbd9edf17	-0.07757395
42	0x3cbc06db	0.022952488
43	0xbd879123	-0.066194795
44	0x3d545044	0.05183436
45	0x3c6f9cc5	0.014624779
46	0x3da65ee0	0.08123565
47	0x3c10ecef	0.008845552
48	0xbd35b2f1	-0.044360105
49	0x3dbb1176	0.0913419
50	0xbca70a8d	-0.020390773
51	0xbda3e51b	-0.08002683
52	0xbd0b8288	-0.03406003
53	0x3db0240e	0.08600627
54	0xbd22ce33	-0.03974743
55	0x3d4710a2	0.048599847
56	0x3d91995e	0.071093306
57	0x3cb61eb6	0.022231441
58	0xbcaafa6d	-0.020871365
59	0xbca76ff0	-0.020439118
60	0xbd0427f7	-0.032264676
61	0x3da13742	0.07871868
62	0xbdc468ac	-0.09590277
63	0x3d8c7792	0.06858744
64	0xbdaca2a8	-0.08429462
65	0xbdc77691	-0.097394116
66	0x3d9db35d	0.077002265
67	0xbdc76aac	-0.09737143
68	0x3cb7dd47	0.02244438
69	0x3d87f966	0.06639366
70	0xbc424a99	-0.011858606
71	0xbd16b2da	-0.03679166
72	0xbd67ff72	-0.056640096
73	0x3b822f16	0.0039728982
74	0xbbbf99f0	-0.005847208
75	0xbdb744d8	-0.08948678
76	0x3cb65e24	0.022261687
77	0x3d2c7d9a	0.04211197
78	0x3d4a61a7	0.049409535
79	0xbd871662	-0.06596066
80	0x3cd578cd	0.026058579
81	0xbb139860	-0.0022521242
82	0xbd0b39dd	-0.03399073
83	0xbda62f62	-0.08114506
84	0xbd0a5e47	-0.033781316
85	0x3cf39d8c	0.02973821
86	0xbdc29b94	-0.095023304
87	0xbd35b176	-0.044358693
88	0x3d5806af	0.05274075
89	0xbd19f251	-0.037584607
90	0x3d7fdee7	0.062468436
91	0xbda246d1	-0.079236634
92	0xbd8270e2	-0.06369187
93	0xbda47f6d	-0.08032117
94	0xbd001f73	-0.031279992
95	0x3c2cb2d7	0.010540686
96	0xbd3a6f7d	-0.04551648
97	0xbce7ad08	-0.02828075
98	0xbd0b9c75	-0.034084756
99	0x3d6db880	0.05803728
100	0x3c9c39a5	0.019070456
101	0x3c735764	0.0148523785
102	0x3d78018d	0.060548354
103	0xbc671c1f	-0.014105826
104	0x3d206736	0.03916093
105	0x3d3b542a	0.045734562
106	0xbda9d1c0	-0.0829196
107	0xbc0d7366	-0.00863347
108	0x3ce0b61c	0.027430587
109	0x3c902d85	0.01759983
110	0xbd59db54	-0.053187683
111	0xbd91256c	-0.07087216
112	0xbd864d4b	-0.06557711
113	0x3d7780a4	0.060425416
114	0x3d4fdf68	0.050750166
115	0xbbdf5382	-0.006815375
116	0x3a88ce27	0.0010437415
117	0x3d2d2acb	0.04227714
118	0xbd19afd5	-0.037521202
119	0x3d8391cc	0.06424293
120	0x3ccd2a6b	0.02504464
121	0xbdb41c71	-0.08794487
122	0x3d8a5f7c	0.067564934
123	0x3d1545c3	0.036443483
124	0xbc8ba481	-0.017046215
125	0xbdc03ff4	-0.09387198
126	0xbd03bef4	-0.03216453
127	0x3c03b7bd	0.008039412

weight f4 [128, 128]
0	0xbc810c47	-0.015752925
1	0xbce560a0	-0.028000176
2	0x3cc0232c	0.023454271
3	0xbdc51554	-0.09623209
4	0x3d2cc306	0.042178176
5	0xbd0380f4	-0.0321054
6	0xbdd73804	-0.10508731
7	0xbd5d26c2	-0.05399204
8	0x3bde649a	0.006786895
9	0xbca988ab	-0.020695051
10	0xbd172709	-0.03690246
11	0x3d6458d7	0.055748787
12	0x3dbb599a	0.091479495
13	0x3d688600	0.056768417
14	0xbcd23910	-0.025661975
15	0x3d86d12b	0.065828644
16	0x3c9c4e9c	0.019080453
17	0x3dafb1e4	0.08578852
18	0xbd5cc88f	-0.053902205
19	0xbd516ef5	-0.051131207
20	0x3d10ca5d	0.03534924
21	0x3d854967	0.06508141
22	0x3d019921	0.031640176
23	0x3da8925b	0.0823104
24	0xbdbbf949	-0.09178407
25	0xbd214f2b	-0.03938214
26	0x3d373da3	0.044736516
27	0x3d87db27	0.06633597
28	0xbc4c5a4e	-0.012472702
29	0x3acbad30	0.0015539285
30	0x3c9e296a	0.019306857
31	0xbd45a3ac	-0.048251793
32	0xbc8b2dae	-0.016989555
33	0x3d7e5a90	0.062098086
34	0xbd76ddbc	-0.060270056
35	0x3ca7093a	0.020390142
36	0x3cc14efe	0.023597237
37	0xbd1777ca	-0.036979474
38	0x3cc93bad	0.024564588
39	0xbca827a3	-0.020526713
40	0xbacea327	-0.0015765176
41	0xbd1e3b4a	-0.03863076
42	0x3d0af452	0.03392441
43	0xbd85cb5e	-0.0653293
44	0x3bf8319d	0.0075742737
45	0x3ba7f6d1	0.0051258584
46	0xbd7c7758	-0.061637253
47	0xbcc062b4	-0.023484565
48	0x3cbf9916	0.023388427
49	0xbd6acb95	-0.057323057
50	0x3d2e158b	0.042501014
51	0x3c2f64b2	0.01070516
52	0x3dc50d3c	0.09621665
53	0xbdb81c61	-0.08989788
54	0x3cc0d061	0.023536863
55	0xbc68db64	-0.014212463
56	0x3d7b0001	0.0612793
57	0xbd5c4698	-0.05377826
58	0xbd3534d7	-0.044239845
59	0x3ca1f29b	0.019769004
60	0x3dce048c	0.10059461
61	0xbcb87589	-0.022516983
62	0xbcc24fd9	-0.023719715
63	0x3da86c35	0.08223764
64	0x3db18ee3	0.086698316
65	0xbdadd268	-0.084873974
66	0xbb846964	-0.004040884
67	0xbcd1304b	-0.025535723
68	0x3d524a3d	0.05134033
69	0x3cdefbfa	0.027219761
70	0x3d0b63b1	0.03403062
71	0xbd609159	-0.054826114
72	0xbdcf57da	-0.10124178
73	0xbc687dbe	-0.0141901355
74	0x3d50882a	0.050911106
75	0xbd58fb55	-0.052974064
76	0xbd4405b3	-0.047856998
77	0xbd9778cc	-0.07396087
78	0x3cde90e8	0.027168706
79	0xbd45d756	-0.048301063
80	0xbb5bec34	-0.0033557536
81	0xbdeb6797	-0.114943676
82	0x3d3b80ed	0.04577725
83	0x3d09cdec	0.033643648
84	0xbd36307e	-0.04447984
85	0x3d045387	0.03230622
86	0x3d9f143a	0.0776753
87	0x3d1a5c4a	0.03768567
88	0xbd09ef11	-0.033675257
89	0xbdef0cb3	-0.11672344
90	0x3deafc56	0.114739105
91	0x3caae92f	0.020863144
92	0x3b46d4d3	0.0030339255
93	0xbcd4c4a6	-0.025972676
94	0x3dee00b9	0.116212316
95	0xbb969df2	-0.0045964653
96	0xbd2e5f6c	-0.04257147
97	0xbcc295cb	-0.023753067
98	0x3db98c00	0.09059906
99	0x3c6262f6	0.013817539
100	0xbda56e91	-0.080777295
101	0x3d55e977	0.052224603
102	0xbd4b95d1	-0.049703423
103	0x3d5a67bb	0.05332158
104	0xbd7de576	-0.06198641
105	0x3d24b201	0.04020882
106	0xbe0b6276	-0.13611779
107	0x3d4a0d9d	0.04932939
108	0x3da95c21	0.08269525
109	0xbd8a954b	-0.067667566
110	0x3d5775d0	0.05260259
111	0x3df86bcf	0.12129938
112	0xbe2489d7	-0.16068207
113	0xbd685deb	-0.056730192
114	0x3e0370fe	0.12836072
115	0x3d8798bb	0.06620928
116	0xbdce3ccc	-0.1007019
117	0xbdb48e63	-0.088162206
118	0xbdf8926f	-0.12137305
119	0x3dd914e2	0.10599686
120	0x3d4acb01	0.049510006
121	0xbdcec821	-0.10096765
122	0x3cdcd2c4	0.02695597
123	0xbca2c76e	-0.019870486
124	0xbc6fda7c	-0.014639493
125	0xbd49fcdc	-0.04931341
126	0xbbb71b0b	-0.0055879406
127	0xbe0c41e3	-0.13697009
128	0xbdb1d32b	-0.08682855
129	0xb9afce21	-0.0003353218
130	0x3c1d9ae9	0.009619453
131	0xbd2f89a5	-0.042855877
132	0x3cdb50c6	0.026771914
133	0xbdc511be	-0.09622525
134	0xbe2193dd	-0.15779062
135	0x3ada351a	0.0016647906
136	0x3cca6130	0.024704546
137	0x3d33832d	0.04382627
138	0x3d817348	0.06320816
139	0x3cf51022	0.02991492
140	0x3cbb2ef8	0.022849545
141	0x3d03b936	0.032159053
142	0x3d35473a	0.04425738
143	0x3d61316a	0.054978766
144	0x3d2d538f	0.042316016
145	0x3cc1b4c8	0.023645774
146	0x3c7f0014	0.0155639835
147	0x3d7bf1d6	0.06150993
148	0x3c5ea95c	0.013590183
149	0x3dcfdb3a	0.10149236
150	0x3d2b7bae	0.041865997
151	0x3d93be35	0.072140135
152	0x3c865cde	0.016401704
153	0x3c7a073a	0.015260512
154	0x3d5f8c9b	0.05457745
155	0x3d1042a8	0.03521982
156	0xbbff2e28	-0.0077874847
157	0xbd88a7e5	-0.06672648
158	0xbd2a586f	-0.041588243
159	0xbcd4fc53	-0.025999224
160	0xbdd65d8c	-0.104670614
161	0xbd21784b	-0.03942136
162	0xbcfb46cf	-0.030673413
163	0x3dae9b6c	0.08525738
164	0xbc77a6c5	-0.015115445
165	0x3d072f02	0.033003815
166	0xbc709fd4	-0.0146865435
167	0x3b19b3cb	0.0023453112
168	0x3d24df34	0.040251926
169	0x3d814db7	0.06313651
170	0x3d57dfac	0.052703544
171	0x3bdc7cf1	0.0067287614
172	0x3b603f02	0.0034217243
173	0xbb7d7638	-0.00386752
174	0x3d9b0743	0.075697444
175	0x3cd41934	0.025890924
176	0x3d8b5df8	0.068050325
177	0xbd1723d8	-0.036899418
178	0x3b43388e	0.0029788348
179	0x3da7dda5	0.08196572
180	0xbd76a055	-0.0602115
181	0xbd552a36	-0.05204221
182	0x3d889be2	0.06670357
183	0x3d84a0f7	0.06476014
184	0xbd866a43	-0.065632366
185	0xbd1933a7	-0.037402775
186	0xbd43e750	-0.04782802
187	0x3d9eafb8	0.077483594
188	0x3dea3eb7	0.11437743
189	0xbd9063d2	-0.07050289
190	0xbd01ba76	-0.031671964
191	0x3e3a2d4b	0.1818134
192	0x3da85e77	0.08221143
193	0xbc9f0abb	-0.019414296
194	0xbc984282	-0.0185864
195	0x3c405b8a	0.011740575
196	0xbc8ad696	-0.016948026
197	0x3d353bf3	0.044246625
198	0x3d28c911	0.041207377
199	0x3ce27311	0.027642759
200	0xbc44e164	-0.012016628
201	0x3d26918b	0.040666144
202	0x3c03d41a	0.008046174
203	0xbd7e6dcc	-0.06211643
204	0x3d68aefc	0.056807503
205	0x3d3dec45	0.046367902
206	0xbdb00238	-0.08594173
207	0x3dc36fdd	0.095428206
208	0x3c919345	0.017770419
209	0xbd5ff26b	-0.054674547
210	0x3d54ccd1	0.05195314
211	0x3dc5b2a1	0.096532114
212	0xbd749e0c	-0.059721038
213	0x3d10fa3b	0.03539489
214	0x3d84d16e	0.06485258
215	0xbd004aa5	-0.031321187
216	0x3d10a7b6	0.03531619
217	0xbd0fb3b9	-0.035083506
218	0xbca67777	-0.020320637
219	0x3c94b044	0.018150456
220	0xbbe4cd47	-0.006982479
221	0x3d188361	0.037234668
222	0xbd7c4462	-0.061588652
223	0x3dcc8b86	0.099875495
224	0x3dea42a0	0.11438489
225	0x3d506f25	0.050887246
226	0x3d92dc58	0.071709335
227	0x3d829461	0.06375957
228	0xbc7c6a2b	-0.015406172
229	0x3aa4d92c	0.0012576929
230	0xbc030a97	-0.00799813
231	0xbcb01938	-0.0214964
232	0xbc6827b3	-0.014169621
233	0x3de2243b	0.11042067
234	0xbd03e005	-0.032196064
235	0x3d369c6f	0.04458278
236	0xbd955c92	-0.07293047
237	0x3cd529e3	0.02602095
238	0xbd02b9cf	-0.031915482
239	0xbc0ee4e8	-0.008721568
240	0x3c8f651c	0.017504267
241	0xbd07df22	-0.03317178
242	0x3db26406	0.08710484
243	0x3da6cbaa	0.081443146
244	0xbcbe898b	-0.023258945
245	0xbd0e177d	-0.03469037
246	0xbba045a1	-0.004891113
247	0x3da78bfc	0.08180997
248	0x3d832fed	0.064056255
249	0x3d6a310e	0.05717569
250	0xbdd1bdff	-0.10241317
251	0xbb909df9	-0.004413363
252	0x3dab25bb	0.08356806
253	0x3d03d121	0.032181863
254	0xbd01dd0a	-0.03170494
255	0x3d15623b	0.036470633

bias f4 [128]
0	0xbdd0bb0b	-0.101919256
1	0xbd9940fe	-0.074830994
2	0xbb89c65e	-0.0042045554
3	0xbd8ea411	-0.06964887
4	0x3ca6d327	0.020364357
5	0x3d805a08	0.06267172
6	0xbde511e8	-0.11185056
7	0x3bb0099a	0.0053722383
8	0xbd98c239	-0.0745892
9	0x3b7c838a	0.0038530552
10	0xbdc0d37d	-0.09415338
11	0xbd899021	-0.067169435
12	0x3d9cde33	0.07659569
13	0xbc934cca	-0.017980952
14	0xbd09d369	-0.033648882
15	0xbbf84fa3	-0.007577853
16	0x3d2d587a	0.042320706
17	0x3d79c301	0.060976986
18	0xbdaf8c31	-0.08571661
19	0x3d35ed61	0.044415835
20	0x3ccc893f	0.024967788
21	0xbc0b438a	-0.008499989
22	0xbcd60d78	-0.02612947
23	0xbda5023b	-0.08057066
24	0xbd0152ea	-0.031573214
25	0x3d5e1ce4	0.05422677
26	0xbda0ebb5	-0.078574575
27	0xbd2d87c2	-0.042365797
28	0x3d8d5bb4	0.069022566
29	0xbae9389f	-0.0017793364
30	0xbd003e38	-0.031309336
31	0x3d9edabd	0.07756565
32	0x3cde2cd6	0.027120989
33	0xbc30ccc2	-0.010791006
34	0x3e053d91	0.13011767
35	0xbd63c087	-0.05560353
36	0xbdfb806b	-0.12280353
37	0xbc5897a8	-0.013219751
38	0xbdb8f060	-0.09030223
39	0x3cb0da3c	0.021588437
40	0x3e12900a	0.14312759
41	0x3dc3c0c9	0.09558255
42	0xbde19357	-0.11014431
43	0xbde5fb64	-0.112295896
44	0xbd45b7a2	-0.04827083
45	0x3d685e11	0.056730334
46	0xbdb50b5e	-0.08840059
47	0xbdfebd2c	-0.124384254
48	0xbb237b5c	-0.0024945354
49	0xbdcc33b4	-0.09970799
50	0xbd9d4e8d	-0.07680998
51	0xbd7903f3	-0.060794782
52	0xbdb1c8a0	-0.08680844
53	0xbd89fd91	-0.06737817
54	0xbdf0230c	-0.11725435
55	0x3cce7e62	0.025206748
56	0xbc06cff4	-0.008228291
57	0x3bd11cd6	0.0063816113
58	0x3d4f3ea0	0.050596833
59	0xbd511292	-0.0510431
60	0xbbfab08b	-0.00765044
61	0xbdb096b4	-0.08622494
62	0xbb01153f	-0.0019696502
63	0x3c6de020	0.014518768
64	0x3a459cdf	0.0007538329
65	0x3ca6ee78	0.020377383
66	0xbd143155	-0.03617986
67	0xbdb1157f	-0.08646678
68	0xbcd5851b	-0.026064446
69	0xbddaf83d	-0.10691879
70	0xbb64f17d	-0.0034933977
71	0x3ba4f3e0	0.005033955
72	0x3cee81df	0.029114662
73	0xbd1cbf51	-0.03826839
74	0xbdba989e	-0.09111141
75	0x3d06af9f	0.03288233
76	0xbd4cbaa6	-0.04998269
77	0x3d6a6370	0.057223737
78	0xbd24352a	-0.040089764
79	0xbbaae1cd	-0.005214906
80	0xbd3f2fa5	-0.046676297
81	0xbd471959	-0.048608158
82	0xbd94bba1	-0.0726235
83	0xbd9c785f	-0.076401465
84	0x3bc92db8	0.0061394833
85	0xbe05fc7e	-0.130846
86	0xbd8f0089	-0.06982524
87	0x3e004db7	0.12529646
88	0x3cb37ee0	0.021911085
89	0xbd2d082e	-0.04224413
90	0xbc755793	-0.014974493
91	0xbcc087e7	-0.023502303
92	0xbdc8508a	-0.097809866
93	0xbd986f82	-0.074431434
94	0xbc0483af	-0.008088036
95	0xbd975e22	-0.07391001
96	0xbda587a5	-0.08082513
97	0xbbd8c338	-0.0066150688
98	0xbd9dc09f	-0.07702755
99	0x3d8d54a0	0.069009066
100	0x3dcaccce	0.09902345
101	0xbd34871e	-0.04407417
102	0xbc86c2b4	-0.016450264
103	0x3d5b56bc	0.053549513
104	0xbde8cb15	-0.1136686
105	0xbc1d3a9a	-0.009596491
106	0xbd9d105d	-0.07669137
107	0xbcc5a396	-0.024125855
108	0x3d63bc3d	0.05559944
109	0x3d837e11	0.0642053
110	0xbda6ebe9	-0.08150465
111	0xbdeaf00f	-0.11471569
112	0xbd9da91a	-0.07698269
113	0xbd8b9f4c	-0.06817493
114	0x3d545fa7	0.051849034
115	0xbda30eef	-0.07961833
116	0x3bd360e6	0.00645076
117	0xbded4938	-0.11586231
118	0x3d99cbad	0.07509551
119	0xbdab0d84	-0.08352187
120	0x3dccf9b5	0.10008565
121	0xbdc0542b	-0.09391054
122	0x3d4ae0f6	0.049530946
123	0x3d32c3bc	0.043643698
124	0xbd81d6a7	-0.0633977
125	0xbdcec541	-0.10096217
126	0x3e3441c2	0.1760321
127	0x3b01a22f	0.0019780507
