results/model/neural_570.model (torch, 686563 bytes, 21 tensors)

weight_ih f4 [384, 5]
00000000: 205c dc3d 2314 7bbd 81de 8dbd 3ed8 683d
00000010: bc75 84bd b889 86bd 9358 793e beb8 04be
00000020: d19d 913e 1013 ef3d c026 ca3d cb13 1abe
00000030: 40ad a1bd 32c6 833d 3060 5fbe b65d 623d
00000040: bafd 3fbd 75ac 893d 4335 b3bb d9f4 aabc
00000050: a244 38bd d59e fa3d 2724 84bd 93b3 0f3e
00000060: 5e64 4c3d 71bf 493e 4456 c93d 071c 1e3d
00000070: dbc4 263e 13d4 efbd df9b 553d 34b3 2a3e
00000080: 2ca1 c3bd e24e 74bc e6fa fa3d 612e 8a3e
00000090: 9bc3 033e 701d dabc f0ad 0d3e b43b bfbd
000000a0: 51c9 77bd 6a25 613c f044 dd3d e686 dbbc
000000b0: b902 a13e a936 eabb 2497 62be 70c1 26be
000000c0: 2afc da3c b53e bc3d 8da2 cdbe 526a 3b3e
000000d0: ec6b 733d ba4a 51be 06ff 0ebf 1046 523d
000000e0: 70bf 013d 1133 003e beaa 613e d985 773d
000000f0: 4bab bc3d fbed 5abe a007 6a3d 38fc 1a3e
00000100: 24b2 433d 37c7 99bd 879f 113e bf2c e93c
00000110: a8ef 5a3d fe39 a9bd f9aa b03b a1e6 24be
00000120: f0f3 e6bd a016 08bd c815 223d 7666 5cbd
00000130: 127c 75be d243 17bd 69e5 14be 88ec 8cbd
00000140: 0210 51bd ab8e 1c3e 4f0c 7d3d d770 2cbd
00000150: 781d 0d3e 9def 363c 25ca 1b3c 4a45 193e
00000160: b754 d53c 319a 77bd 78ea ee3d 75a6 c7bd
00000170: cab9 93bd 5087 d83d 3945 853e 87c1 a43d
00000180: 60c5 6c3e 80d6 763d c219 e93d b02f 13bd
00000190: cae3 6bbd b10c 3f3c 1a43 c73c 8e64 b23c
000001a0: a24f 20bd f24b a8bd 1e5f 003c 0936 343e
000001b0: de90 bebd f276 6dbe 4b8c f73c b9c1 033c
000001c0: d9c1 67bc 6ba6 b437 c5ed 30be d11b 36bd
000001d0: 341b 9c3e bf90 0f3c 97bc 70be b4e9 2b3f
000001e0: cc54 10be 6d2d 6ebc 49ad 4abd d3ce 29bd
000001f0: 386f 4cbe 29e9 a83d 1623 4fbd 23ca 3dbe
00000200: 548c febd c1d3 c6bd 08d4 103d fe5b 12be
00000210: 5c12 11be 9e3e 903d b59a 3cbd 9ddf 4a3e
00000220: db8b 6e3e dccf 0dbe 28fd 453e 3974 dbbe
00000230: 4b39 e13c 2c4e 1d3e 03ff 8fbd 9c11 2e3a
00000240: cfd5 02bd 8536 12bd 7cb0 3fbd 630b 51bd
00000250: 14e2 ad3c 69e3 52bd e7eb 893d bebe 823d
00000260: a8c0 b03d 9e78 e3bc 2d05 23be f611 e93d
00000270: 62eb 2bbe 6af3 a9bd 32ca e73d 9533 d8be
00000280: ec72 5fbe 830b 06be 4cb0 083c 88e4 20be
00000290: 5647 d4bb b969 f73b 3f69 943d 4c12 073d
000002a0: 4ea6 763b fec5 943d 7225 78bd 58c4 213d
000002b0: 0736 ad3d a651 e0bd 0261 7bbb ac3b 213d
000002c0: 1d85 c4bc dbd9 93bd bba0 acbb f20f 8cbb
000002d0: d470 ca3b 5cd6 5ebc a325 843d d34c 003d
000002e0: 057a 5abc 4bca 7a3a af86 fbbd 3e3a 05be
000002f0: 3be2 fd3c e082 53bd 67c4 1c3e 4274 d33d
00000300: 9a60 eebd 0f77 91bc d479 e7be b502 383d
00000310: 422b 8abd 83a3 8ebd f014 31bc 8b31 a73e
00000320: 76c6 8f3d c9f6 82bd abe3 c7bd 7275 a6bb
00000330: fbdf f5bd 7681 0f3e dcd9 0ebe e00d c23d
00000340: 71ad a93d e968 1b3d 7bbc 9dbd 3854 82bd
00000350: 44af bbbc 1a11 703c 748c d8bc 5fd8 a9bc
00000360: 61c0 3bbe efb4 06be f95a a83c de48 1b3e
00000370: b71c 43bd c69a b3bd 0c38 d9bd 2348 1fbc
00000380: c161 2fbe a3b7 053c debb 0fbe 519c 03bc
00000390: 3e82 313e 7cb9 18be 70f9 893e 93f5 68bc
000003a0: e2da f2bd a2de 8e3e cd87 ca3e 379d 8b3d
000003b0: 0570 7fbe a7bb e13d 38b0 f13d 7be0 bdbd
000003c0: a34a 023e 0bbe 393c c74c 35bd 3f67 cc3d
000003d0: 1f7e 063b 1543 113e f499 dfbd 3fa1 83bc
000003e0: 87a1 933d 14e0 b53d 848a d6bd e223 0dbe
000003f0: c798 193e b143 0fbe 8485 3d3e 07b7 503d
0.10759759 -0.0612985 -0.06927205 0.05684685 -0.064677685 -0.065692365 0.24350195 -0.12961099
0.28440717 0.11673558 0.09870672 -0.15046613 -0.07894373 0.06434287 -0.21814036 0.05526515
-0.046872832 0.06722347 -0.005468996 -0.020868706 -0.04498733 0.12237326 -0.06452208 0.14033346
0.049900405 0.19701935 0.09830907 0.038600948 0.16286032 -0.11710372 0.052150603 0.16669923
-0.095522255 -0.014911385 0.12254886 0.2698851 0.12867586 -0.026625365 0.13835883 -0.09337559
-0.060494725 0.01374183 0.108041644 -0.026797723 0.3144739 -0.0071476293 -0.22127968 -0.16284728
0.02673157 0.09191648 -0.4016308 0.18302277 0.059429094 -0.20438662 -0.55857885 0.051336348
0.03167671 0.1251948 0.22037789 0.06043038 0.09212359 -0.21379845 0.057136178 0.15135276
0.04777731 -0.075087 0.14221011 0.02846372 0.05345121 -0.08263014 0.0053914753 -0.16103603
-0.11276996 -0.033224702 0.039571553 -0.053808652 -0.2397311 -0.036929913 -0.14540638 -0.06881052
-0.051040657 0.15288799 0.061779317 -0.0420998 0.13780773 0.011165527 0.009508644 0.14967838
0.026041372 -0.060449783 0.11665815 -0.09748546 -0.07213171 0.10572684 0.26029375 0.08044725
0.23122168 0.060263157 0.11381866 -0.03593415 -0.057590283 0.011660741 0.024323989 0.021776464
-0.039138444 -0.082176104 0.007835178 0.17598738 -0.09304975 -0.23189905 0.030218264 0.008041793
-0.014145338 2.1535167e-05 -0.17278202 -0.04446012 0.30489504 0.0087625375 -0.23509441 0.6715348
-0.14094847 -0.014537198 -0.049481664 -0.04145701 -0.19964302 0.08247597 -0.05057057 -0.1853414
-0.12429109 -0.097083576 0.03535846 -0.14292905 -0.1416716 0.07043193 -0.046045978 0.19811864
0.23295538 -0.13848823 0.19334853 -0.42862108 0.02749314 0.15361851 -0.070310615 0.0006640197
-0.031942185 -0.035696525 -0.046799168 -0.05103625 0.021225967 -0.051486406 0.06734448 0.063840374
0.08630496 -0.027767476 -0.15919943 0.11380379 -0.1678901 -0.08298381 0.113178626 -0.42226854
-0.21821183 -0.13090329 0.008342814 -0.15712178 -0.0064782305 0.007550445 0.072466366 0.032976434
0.0037635746 0.072643265 -0.060582586 0.03949389 0.084575705 -0.10953073 -0.0038357382 0.03936355
-0.023989255 -0.07219287 -0.005268184 -0.0042743618 0.006178001 -0.013600912 0.06452491 0.031323265
-0.013334756 0.0009566887 -0.12281548 -0.13010499 0.030991664 -0.051638484 0.15309297 0.10324909
-0.11639519 -0.017756967 -0.45210135 0.044924457 -0.06746532 -0.06964781 -0.010808215 0.32654986
0.07020275 -0.06394727 -0.09760221 -0.0050799185 -0.120056115 0.14014229 -0.13950294 0.09475303
0.082850344 0.037941847 -0.077019654 -0.0636372 -0.022910722 0.014652515 -0.02643416 -0.020733057
-0.18335105 -0.13154958 0.020551192 0.15164515 -0.047634806 -0.08769755 -0.10606393 -0.009721789
-0.17127134 0.008161458 -0.1403651 -0.008032874 0.1733484 -0.14914507 0.26948118 -0.014218706
-0.11858155 0.2790423 0.39556733 0.06817096 -0.24945076 0.1102212 0.11801189 -0.09271332
0.12723784 0.011336814 -0.044262674 0.0998063 0.0020521951 0.14185746 -0.10918036 -0.016068099
0.07208543 0.0888063 -0.104756385 -0.1378322 0.14999686 -0.13990666 0.18507963 0.0509558

weight_hh f4 [384, 128]
00000000: c95c 99bd c74a f7bd 5ad9 983d a7fc 153c
00000010: c21c 93bd 5580 16bd 068a e1bd e926 3c3d
00000020: 7d66 e4bc a701 15bc f013 763d 7a7b babc
00000030: 76c0 11be ff65 563c 3baa 883d cd7d 2ebe
00000040: dc8c d9bd 30b1 04bd 0de9 9f3d 21f9 15be
00000050: f17b d13c df54 9c3d 1e05 e5bd 1222 e63d
00000060: 4d8d 94bd b2e5 f03d 52b9 8c3c a38e 3d3e
00000070: 005d 2bbe 2e97 2ebc bf5a c03d a7d1 363e
00000080: a514 0bbe 8f2f 12bd 237a 133d e22e afbd
00000090: ff58 e4bc 2374 1b3e 2ca0 3d3c 76b9 c5bd
000000a0: 8b97 e73d fa8e f4bb 47ce 04be 20db a13c
000000b0: a0a6 1bbb 4aab 99be afc9 1c3e 5c3e 193e
000000c0: 1fd5 993d 0b14 173d 3aa8 533e 1459 2b3c
000000d0: 4e3f f7bd 14db 09bd 5300 b0bb f9b1 043e
000000e0: 897f 693e cfda 1ebe 0c0d 4bbd b103 403c
000000f0: be06 253e 759d c5bd 7dcb 133e d3c7 963d
00000100: 37a4 debc 3007 123e 2e48 953d ea4b 313d
00000110: a4eb ffbd c543 bcbc d3ae 6ebc dce5 b9bc
00000120: 5f15 da3d e9db 903d 9ea9 09bd cf55 493d
00000130: ef80 2bbe 294b f2bd 4acf e1bc fc05 273e
00000140: 4646 44be 7358 17bd 4d0f cf3d 1f0a afbc
00000150: 443c 243e fb7a d2bd 0181 183e 5cf7 6bbd
00000160: 3259 27bc 30ee 993d 5eb7 39be 4d6b 253d
00000170: 939b 67be d57c 3bbd a336 2d3e ec76 3e3b
00000180: b15c 813d 5664 81bd 8183 acbd b72c 453c
00000190: b44c 983e 46b3 143e 0f8c 84be 00ac 9dbc
000001a0: 7c3e 60be 2783 e6bd f173 be3b a245 84bd
000001b0: 3930 993d 97c8 fa3c 6383 a7bd b20e 86bd
000001c0: e1df 4d3e b3da 273e 9ada 1a3d cfac 0e3d
000001d0: 0342 95bc 72bb edbc 858c f8bd 3ec3 603c
000001e0: 7068 7dbc e20d f1bd b388 0f3c a7c5 25be
000001f0: 7aac bdbd 1e84 043e 366c bdbd 65c1 c13c
00000200: 74e7 813d 38bc bd3d 4d51 233e 2e56 d93d
00000210: 3871 9f3d 4179 e7bd abeb 33bd 5ccd c3bd
00000220: 04d9 c93d 0acf 4ebd 226c b93d 57bc 943d
00000230: 5b54 743e 1610 07be 120a 133d 73b9 cb3d
00000240: f398 223e 0a3a ad3d 0904 cebb 3ada f3bd
00000250: 123d adbd a7ef b93d c038 36bd c068 533d
00000260: ac95 e6bd 3dff 833c 3a8a 423d 7b25 a2be
00000270: 13cf 9b3c 34d8 31bd 1099 c13d cae1 c03d
00000280: 3198 cc3d 9741 11bd 3801 1a3d ffc8 1d3d
00000290: 592b 1b3e bec5 29be 63f6 e7bd 2fc9 babc
000002a0: ed61 db3d 0e97 a1bd f2a4 813e ef33 32be
000002b0: 6f17 f6bc b1b0 28be d1d3 e73d f7ce 03be
000002c0: e3af 73bd d69b 993e 5818 ecbd 8340 88be
000002d0: a942 06be d54d 1dbe 3352 ad3d b4be 8fbe
000002e0: 7985 823d 9dae 42be 4d8d b5bd dc13 d33c
000002f0: 7fca e33b 04fd 1bbd 09dd 463e 30af 163e
00000300: 62b1 be3c 2f48 5c3d 2481 a93e 9f18 41bd
00000310: 8c18 833d 2940 19bd f867 f33c cfc4 f13b
00000320: df0e fcbc 8213 9dbd df39 85bd 3b56 0cbe
00000330: 30f2 94ba 16be 98bd e9a9 253e 3887 72bd
00000340: 7a2c 023d 917e 85bc d322 243e c1f6 5a3d
00000350: 7579 a33d 026c 473c 6d14 1bbe 9e91 6f3d
00000360: 3ead 3fbe 9dbf e83c b330 55be 6642 473e
00000370: c2a8 81be 7ba2 b23d 3856 dd3e 5f6b 01be
00000380: 09d1 a13d f835 023e ffc8 433e b931 f03d
00000390: b5d7 80be abc1 403d 52f2 cf3d 2bb2 d93e
000003a0: fb12 a43c 5488 10be c309 09be 1d37 99be
000003b0: 7051 8e3e c016 ebbd 3665 13be 53db 8f3e
000003c0: bad9 2abe ad0d 933c 7395 8ebd 39f4 2fbe
000003d0: 7c79 423d 9fc2 343e 13e9 19bd 2d92 7b3d
000003e0: 107f c9bd ff15 d1bd 2dbb c6bd c099 4abd
000003f0: 6940 913d 4c38 d2bd 6aec 0ebe fdf4 b23d
-0.074884005 -0.120748095 0.074633315 0.009154475 -0.071832195 -0.03674348 -0.11012654 0.045935545
-0.027880901 -0.009094632 0.060077608 -0.022763956 -0.14233574 0.013085841 0.06673094 -0.17040177
-0.1062257 -0.03239554 0.07808123 -0.14645816 0.025571795 0.076333754 -0.11182617 0.11236967
-0.072535135 0.11762561 0.017178211 0.18511443 -0.16734695 -0.010656161 0.093923084 0.17853414
-0.13582094 -0.035689887 0.03600515 -0.08553864 -0.027874468 0.15181021 0.0115738325 -0.096545145
0.113082014 -0.007463333 -0.12969314 0.019757807 -0.002375044 -0.30013496 0.15311311 0.14965194
0.07511353 0.03688435 0.20669642 0.01045825 -0.12072621 -0.033656195 -0.0053711324 0.12958516
0.22802557 -0.15513156 -0.04957299 0.01171963 0.16115853 -0.09649173 0.14433093 0.07362332
-0.027177913 0.14260554 0.07289158 0.043285288 -0.12496117 -0.022981534 -0.0145680485 -0.022692613
0.106486075 0.070731945 -0.033609025 0.0491541 -0.16748403 -0.11830742 -0.027564663 0.16310877
-0.19167432 -0.036949586 0.1011034 -0.02136713 0.16038615 -0.10277363 0.14892961 -0.057608947
-0.010214137 0.07516134 -0.18136355 0.040385533 -0.2261794 -0.045773346 0.16915374 0.0029062582
0.063165076 -0.06317966 -0.0842352 0.012034587 0.2974602 0.14521512 -0.25888106 -0.019247055
-0.21898836 -0.11255484 0.005812161 -0.06458594 0.07479901 0.030613227 -0.08179357 -0.06545772
0.20104934 0.16392021 0.03780613 0.034832772 -0.018219953 -0.029020045 -0.12136177 0.013718424
-0.015466794 -0.11770226 0.008760619 -0.1618868 -0.09261413 0.12941024 -0.09249155 0.023651788
0.06342974 0.092644155 0.15948983 0.106121406 0.07785267 -0.11302424 -0.043925922 -0.095606536
0.098558456 -0.050490417 0.09053828 0.072624855 0.23860304 -0.1318973 0.035898276 0.09947481
0.15878658 0.08458336 -0.006287102 -0.11906858 -0.08458914 0.09078913 -0.044487715 0.05161357
-0.112590164 0.016112918 0.047495104 -0.3166922 0.01901964 -0.043419078 0.094530225 0.09418066
0.09989966 -0.035462942 0.03759882 0.038521763 0.15153255 -0.16579339 -0.113262914 -0.02280101
0.10712037 -0.078901395 0.25321156 -0.17402624 -0.03004047 -0.16473652 0.11319698 -0.1287192
-0.05949391 0.30001706 -0.11528081 -0.2661172 -0.13111366 -0.15361722 0.08462944 -0.28075182
0.06373114 -0.19011922 -0.088648416 0.025766306 0.0069516296 -0.03808309 0.19420256 0.14715266
0.023277942 0.053779777 0.3310634 -0.04714262 0.06401166 -0.037414704 0.029712662 0.0073781977
-0.03076881 -0.076697364 -0.06505179 -0.1370477 -0.0011363681 -0.07458131 0.16178097 -0.059210986
0.031780697 -0.016295703 0.1602891 0.05345798 0.079821505 0.012171747 -0.1514451 0.05848848
-0.1871843 0.02841168 -0.20819359 0.19458923 -0.25324064 0.08722397 0.43229842 -0.12638615
0.079011984 0.127159 0.19119643 0.11728234 -0.2516457 0.047059696 0.10153641 0.42518744
0.020028582 -0.14114505 -0.1338263 -0.2992486 0.27796507 -0.114789486 -0.14394078 0.2809702
-0.16684619 0.017950857 -0.06962099 -0.17183007 0.047479138 0.17652367 -0.037575793 0.0614187
-0.098386884 -0.102092735 -0.0970367 -0.049463034 0.070923634 -0.10264644 -0.13957372 0.08738134

bias_ih f4 [384]
00000000: bdeb 793d 379a 613e 5902 b33c 63b2 ffbc
00000010: b1fb 493e a301 d13d 4b9b 3d3d 246e 893d
00000020: bff4 4cbd 041f abbd 848b 43bd 4695 3a3e
00000030: a4ee d23d 7690 3a3d e8dc e7bd 5e01 4fbd
00000040: 2f7d 81bc 7df8 4dbd 4c7c 463e 2399 f63d
00000050: bb31 8c3c 2bd7 4cbe 69cd fabc 27ce e8bd
00000060: d8dd aabd 29c9 e4bc d409 063c 1f0d a23d
00000070: c219 e03d c87e 083d 7346 9bbd 4d74 b23d
00000080: 2e7d 35be 4f6c a73d 4db2 0fbd 05b0 70bd
00000090: 063c 9d3d 8479 893c b120 d23d 3000 043e
000000a0: 60cd 5ebd 8af7 4d3d e400 9a3d a542 83bd
000000b0: 0e6a 67bd 5826 b13d 6061 583e d761 d83d
000000c0: 68f5 ae3c b5dc a93c d5a7 b0bd 4a12 353e
000000d0: 6aab 5a3e 547d a13d c533 d5bc e2f0 b03d
000000e0: 7af7 9a3d b91a 783c ac36 c4bc d5b9 953c
000000f0: def2 b13d 1455 51bd 771a f63d 5d77 413e
00000100: efff 41bd 1d58 933c d9b6 6a3b da5e d13d
00000110: 1761 e73d 08bd 683d 406a c83d a0ec 713d
00000120: faa0 c3bb d21a 213e 7a36 e5bc 2211 0dbe
00000130: 3de9 a63d 613b cd3d b7ac 133e f757 5e3c
00000140: bafc b53a f9f6 983d 37fc 3a3d 9ac1 173e
00000150: 5b93 b83c 557a f6bc 5a0f ee3d 98ad 33bd
00000160: 53bf ef3b 6037 bbbd 5b98 1abe a00c 93bd
00000170: e4b5 033e 1a8b 91bc 8450 8bbd 94a0 c7bd
00000180: eded 1abe 297e 053e 0907 e3bc 6d15 3d3e
00000190: ef80 393c 369b 003e 8d76 63bc 60d9 ffbc
000001a0: 5c27 fa3d 8bec bcbc 4e21 42be 3899 e13d
000001b0: 4f10 f93c 4bc2 91bd 79a8 3f3d 2e7c 0c3e
000001c0: b1c4 033c b052 5abd 8b1e 2c3d c7a3 bdbc
000001d0: 242e c53d e67a 603d 383c 223e c262 19bd
000001e0: dc92 50bc 8828 033d dbfc c83d 4afd 60be
000001f0: 535b 173e 403c ad3e 1a40 b43d 05f2 15bc
00000200: 7e68 0d3d 369f 5dbd 6a5c 343c 3ed2 22be
00000210: 49f8 a53c a04e a0bd 9ddd 2cbd b7cd 443e
00000220: 6a0f e53d c65f b83d 61c9 943d 77d6 eebd
00000230: 43fa 003e 3cc7 75bd 0d5a d8bc fe8d 04be
00000240: 6b33 9a3e 23a9 dcbd c9e4 0f3c 7570 10bc
00000250: 62dc 84bc 8fa3 d13c 7c76 8fbd 08ba 22be
00000260: 3710 3cbd fefb bbbd 9cf6 37be 8995 e8bd
00000270: d23a 3f3c 7ae9 6fbe 909e f03d 97d8 4cbe
00000280: 90b3 5dbe 550b 53be 8e0b ae3d ecb3 eb3c
00000290: 5298 b63d ddcb 6fbe 3d43 54be 23c5 53be
000002a0: 7185 08be 425e 30be 1d9a eb3c 90bf 35bc
000002b0: 57b0 833d 85a0 6abe c85d 393c 5b0d 8cbe
000002c0: 0259 3c3d 5f1a 52be ae38 30be 43e3 903d
000002d0: c600 e5bd 89da c5bd 90cf 7bbd a993 05be
000002e0: 7953 db3d 2ffb 023e d0f0 b03d c985 39be
000002f0: 17eb 12be 629b 10be 91ad 9a3d e59f bebe
00000300: c41c b3bd fd2b aabe c4e7 81be ead3 723d
00000310: 15e2 f33b 4b3a fbbd 2b7b 45be 8828 093d
00000320: 1d81 8cbe e67e b13c 0d8e 103e 0ffb 073e
00000330: 1a6e ae3d 428f 9dbd 3d40 053c a161 2d3e
00000340: eda8 963d 5440 493b 5a0b 5cbd 1289 2a3e
00000350: 00f8 843d dbe3 363e a481 863e 7e9e a5be
00000360: f120 03be ceca 08bc 768f 6abd 9331 47bc
00000370: 2d7f 7bbe 42c6 67be 2cf6 5abe c5e8 2bbe
00000380: d218 02bd 1957 a1be 121b 25be 67c0 9cbe
00000390: 4a65 83be 0b27 98be 9cec 4cbe b477 2dbe
000003a0: 51d7 54be c2ea 72be 6f20 35be cfae 94be
000003b0: e5a5 e1be dc5a 233e 95a1 40be 50de 4a3d
000003c0: fcfc 6ebd a44a d9bb 0d95 94be 44ff 313d
000003d0: 5d94 843c 070d 433e e23c 083e a54a 71be
000003e0: cb7a bebc 8965 59bd 8cb1 90be 15e3 a33a
000003f0: 86d1 efbd b783 06be f41a 6fbe 5a1b 0c3e
0.061015833 0.22031485 0.021851705 -0.031212991 0.19724919 0.1020539 0.046290677 0.06710461
-0.050038096 -0.08355525 -0.047740474 0.18221006 0.10299423 0.045547925 -0.113214314 -0.050538413
-0.015806763 -0.050285805 0.19383353 0.12040927 0.017113557 -0.20003955 -0.030615525 -0.113674454
-0.083430946 -0.027927952 0.008181054 0.07912659 0.10942413 0.033324033 -0.075817965 0.08713589
-0.17723534 0.08174955 -0.03508215 -0.058761615 0.07677464 0.016781576 0.10260142 0.12890697
-0.05439508 0.0502849 0.07519701 -0.06409196 -0.056497626 0.086498916 0.21130896 0.105655365
0.021357253 0.020735124 -0.086257614 0.17682758 0.21354452 0.078852326 -0.026025662 0.08639695
0.07566734 0.01514309 -0.02395185 0.018277088 0.08688901 -0.051106527 0.120167665 0.1889319
-0.047363218 0.017986352 0.0035814552 0.102231696 0.11297815 0.0568209 0.097858906 0.059063554
-0.0059701176 0.15732887 -0.027980078 -0.13776067 0.081499554 0.10021091 0.14421354 0.013570777
0.0013884522 0.07468981 0.045650687 0.14819947 0.022531202 -0.03008763 0.11624022 -0.043866724
0.007316509 -0.09141421 -0.15097181 -0.071801424 0.12862355 -0.017766524 -0.068024665 -0.09747425
-0.15129824 0.13036408 -0.027713316 0.18465205 0.011322244 0.12559208 -0.013883245 -0.031231582
0.122145385 -0.023062011 -0.18958017 0.11015552 0.030403284 -0.071171366 0.046791527 0.13719246
0.0080425 -0.053301513 0.042021316 -0.023149384 0.09627941 0.054804705 0.15843284 -0.0374477
-0.0127303265 0.032021075 0.09813853 -0.21971622 0.14780931 0.3383503 0.08801289 -0.00915194
0.03452348 -0.054106914 0.011008361 -0.15900514 0.020259993 -0.078274965 -0.042203534 0.19219099
0.111845806 0.09002642 0.072649725 -0.11662 0.12595467 -0.060004458 -0.026410127 -0.1294479
0.30117354 -0.10774448 0.008782574 -0.008815874 -0.016218368 0.025590686 -0.07005021 -0.15891278
-0.0459139 -0.09178923 -0.17965168 -0.113566466 0.011671739 -0.23428908 0.117489934 -0.20004497
-0.21650529 -0.20609792 0.08498298 0.028772317 0.089157715 -0.23417611 -0.20728774 -0.2068067
-0.13332154 -0.17223457 0.02876001 -0.011093035 0.064301185 -0.22912796 0.011313863 -0.2735394
0.045983322 -0.20517872 -0.17209122 0.07074597 -0.11181788 -0.09660823 -0.061477244 -0.13044609
0.107092805 0.12791131 0.08639681 -0.18117441 -0.14347492 -0.14121774 0.075526364 -0.37231365
-0.08745721 -0.33236685 -0.25372136 0.05928413 0.0074427226 -0.12266978 -0.19285266 0.03348592
-0.27442256 0.021666955 0.14116688 0.13279365 0.08517094 -0.0769334 0.008132991 0.16931774
0.07356439 0.0030708509 -0.053721763 0.1665385 0.06492615 0.17860357 0.26270783 -0.32347482
-0.12805535 -0.008349134 -0.05726572 -0.0121578155 -0.24560232 -0.22634223 -0.2138297 -0.16788013
-0.03176195 -0.31511763 -0.16123608 -0.3061554 -0.25663215 -0.29717287 -0.20012134 -0.16940194
-0.20785262 -0.23722365 -0.17688154 -0.29039618 -0.4407188 0.15952629 -0.18811639 0.04952842
-0.058346733 -0.0066312123 -0.29019967 0.04345633 0.016184026 0.19047938 0.13304475 -0.23563631
-0.023251912 -0.053075347 -0.28260458 0.0012503589 -0.11709885 -0.13136183 -0.23350126 0.13682309

bias_hh f4 [384]
00000000: b40b e23c 3d83 153e cc8b 193e cba1 31bd
00000010: 1e2a 1c3e 4d46 143e 6a76 d93d 04f9 803d
00000020: c596 ba3d d887 823d 7944 ddbd a5b7 023e
00000030: ccc6 373e d6d9 d93d 216c 69bc 4810 91bd
00000040: 09a4 9fbc a493 fdbc c47e 313d 96a9 393c
00000050: 007e 753d 51a7 29be e3da 9b3d aec9 eebd
00000060: 0f1c 953b 7f82 76bd 33e8 453d 9961 253e
00000070: acd9 e53d df0f 24bd ccd0 a7bd 5589 233e
00000080: c91b c7bd 5de1 0f3d f2ad dabd 6dfe a3bd
00000090: 4111 e93d b6ac 293e 9f0e 6c3d 95d4 283e
000000a0: 0e4d b23d a5c8 b8bd 4a61 1dbd c5e5 a3bd
000000b0: 7eea d3bd b560 873d 215e 683e 2457 de3c
000000c0: ed1f 8a3d 07df 02bc dc1e c33c c10e 4b3e
000000d0: 9380 333e 985b 89bd ac36 e0ba 5f57 953d
000000e0: fa28 e53d 45a0 da3b 21bd 2d3d b762 dfbd
000000f0: 98ba d03d ce39 463d ab1b 5c3e fb4a 223e
00000100: f39a 5dbd fdec 933d 01f9 033d 8dca 7abd
00000110: 9e69 bbbc b8fd 9e3c f6b4 9f3d 3b2b 243e
00000120: 0d1c 353d c7cc 5d3e ed9f 893c ce1a 0cbe
00000130: a667 9e3b 2ee3 443e ea1c 273c 3898 c53d
00000140: c8e9 363d 1d10 133c 8c58 643d 8b6f f33d
00000150: 9f02 a93d 4b2e ea3c d529 093e 3cdd 833d
00000160: 8486 b1bd 0b5d 6ebd 4545 623c d838 b5bd
00000170: 0532 c13d fe5d 9dbb f7c8 7dba f09f 1bbe
00000180: c8d8 2ebd 54a8 ef3d 8b4e 043e bab6 0a3e
00000190: dfc3 ab3c 71ad 1b3e b7ab bc3d 207a 06be
000001a0: 56bc bd3d 2ee1 d43d 75a1 53be 8ff3 e03d
000001b0: 068e 24bd 15a7 62bc 294d a4bd 3caf 903d
000001c0: f45c 7ebc 8d92 60bd f4f6 8aba 7d4c bcbd
000001d0: 1efa f83c 7631 4ebc 939b 813d 1066 9abd
000001e0: 5960 91bd e402 92ba e8bd 09bc 6144 d0bd
000001f0: 175b 743e 4ae6 773e 7251 453c f650 483d
00000200: f778 cbbc a675 b03c 8980 173d 1a6c 29bd
00000210: 05da 09be fe71 82bd 86d1 5abd 4ea6 153e
00000220: 840d 163e 28bd ad3d 5c4c 02bb 599b 3ebb
00000230: 73e4 efbc c1eb 493b 8960 c43d aa60 aabd
00000240: 66ab 7b3e 4208 05be 828d 153d 023a 8a3d
00000250: 776c d1bc 4254 933c c39f 4dbc cc6d 43be
00000260: 9fc2 2bbd 7769 1c3d 79eb 9fbe 7eaa 46be
00000270: 6f32 2a3d 48dd aebe 9090 8e3e 518b e6bd
00000280: 1daa 0abe cf2c a4bd 4d71 eb3a 58fa 1fbc
00000290: 28ff 483e 5591 2abe e59d 81be 6889 e2bd
000002a0: f4b2 3dbe b4ae 16be 486a 4fbc bdca 663d
000002b0: 890f 733d 61be b0be df27 40bc fbe8 12be
000002c0: 4dbd c23d 8688 9bbe 307f dcbd 7434 b43d
000002d0: c8a7 36bd 2825 fabd dbaf 843c fd3a 73be
000002e0: 75b0 2f3d b6d2 293e 99d2 92bd c966 91be
000002f0: de35 0ebe 440e cfbd f231 d43d 2def 94be
00000300: 36c5 88bd 696e a0be 65e3 f8bd 3900 ee3d
00000310: 6678 af3d c210 7abc 7a8e 7dbe 0172 b2bd
00000320: 617e 57be 7c4b 4abd 9fbf 113e 969e cc3d
00000330: a9bb e33d de78 cebc b52f 2d3b aa98 3e3e
00000340: 4b04 ff3d 39cf 8c3c 3373 b9bd 5214 293e
00000350: 7e7b b83d c43c 833e 9518 9a3e e155 9fbe
00000360: a25e b2bd ed13 e03c 6fe2 a7bd 5c70 2dbe
00000370: b24a 82be 5d1e 20be b736 89be 21ed 19bd
00000380: ff75 73bd bc52 1bbe 2619 f3bd e3e9 83be
00000390: d939 18be 7e84 2dbe 9413 88be 2607 4bbe
000003a0: 68e7 35be 4f31 8bbe 806f 6dbe 636b 48be
000003b0: b980 c1be 52f5 153e 929f 57be 85f2 c13d
000003c0: b019 463d 58af f13b 9b63 2bbe 2cc3 f63d
000003d0: d4c1 afba be2b 4c3d f0fd 863d fab6 54be
000003e0: 7e4a f3bc 8885 f0bd 8430 afbe 7994 8cbd
000003f0: 0bcc 3dbe 12e4 81be 159d 0fbe c2ce 2e3e
0.027593471 0.14600845 0.14994735 -0.04336719 0.15250441 0.14479943 0.10618289 0.06297496
0.09110788 0.063735664 -0.10804076 0.12765367 0.17946929 0.10637252 -0.014246971 -0.070831835
-0.019487398 -0.03095419 0.043333784 0.011331936 0.059934616 -0.16567732 0.07610109 -0.11659561
0.004550464 -0.060183045 0.048317146 0.16150512 0.11223158 -0.0400542 -0.08194122 0.15970357
-0.097220965 0.035127033 -0.10677709 -0.08007512 0.11380244 0.1656979 0.05763113 0.16487344
0.08706103 -0.09022645 -0.03842286 -0.080028094 -0.1034746 0.06610242 0.22692157 0.027141161
0.067443706 -0.007987744 0.023818426 0.19829847 0.17529516 -0.06706923 -0.0017106137 0.07292055
0.11189456 0.0066719376 0.042416696 -0.109075 0.1019184 0.04839497 0.2149493 0.15848915
-0.05410285 0.07222936 0.03221989 -0.061228324 -0.02287751 0.019408092 0.077981874 0.16032116
0.044216204 0.21660148 0.016799891 -0.136821 0.004834133 0.19227287 0.010199765 0.09648174
0.044656545 0.00897601 0.055748507 0.118865095 0.08252453 0.028586527 0.13394864 0.064386815
-0.08668235 -0.0581942 0.01381046 -0.08848733 0.094333686 -0.0048024645 -0.000968113 -0.1519773
-0.042687207 0.11702028 0.12920587 0.13546267 0.020967422 0.15202881 0.092124395 -0.13132524
0.09264438 0.10394512 -0.2066706 0.10983955 -0.040174507 -0.013833781 -0.0802253 0.07064673
-0.015525091 -0.05482726 -0.0010602162 -0.091942765 0.030392703 -0.012585035 0.063285016 -0.07538998
-0.07098455 -0.0011139777 -0.008407094 -0.10169292 0.23862873 0.24208942 0.012043344 0.048905335
-0.024837954 0.021540474 0.036987815 -0.04136286 -0.13462074 -0.063693985 -0.053422473 0.14614221
0.14653593 0.08483344 -0.001988194 -0.0029084294 -0.029283738 0.0030810686 0.09588725 -0.083192185
0.24577102 -0.12991431 0.036511905 0.06749345 -0.025564415 0.017984513 -0.012550297 -0.19084853
-0.041933652 0.038186517 -0.3123434 -0.19400975 0.041552003 -0.341532 0.27844667 -0.11257041
-0.13541456 -0.08016359 0.0017962843 -0.009764276 0.19628584 -0.16657002 -0.25315776 -0.110613644
-0.18525296 -0.14715081 -0.012659617 0.05634569 0.059340987 -0.34520248 -0.011728256 -0.14346687
0.095087625 -0.30377597 -0.107664466 0.08799067 -0.044593602 -0.12214118 0.016197136 -0.23752971
0.042892892 0.16584286 -0.071690746 -0.2839873 -0.13887736 -0.10110143 0.10361089 -0.29088727
-0.0667824 -0.31334236 -0.12152747 0.11621136 0.08567886 -0.015262784 -0.24761382 -0.08713151
-0.21044303 -0.049388394 0.14233254 0.09991185 0.11119778 -0.025204118 0.002642614 0.18612924
0.12451991 0.017188655 -0.09055176 0.16511658 0.09007929 0.25632298 0.3009688 -0.31120208
-0.08709456 0.027353251 -0.08197486 -0.16937393 -0.25447613 -0.15636583 -0.26799557 -0.03757966
-0.0594387 -0.1516828 -0.11870031 -0.2576438 -0.14865817 -0.16945073 -0.26577437 -0.19826946
-0.17764056 -0.27186057 -0.23187065 -0.19572215 -0.3779352 0.14644364 -0.21056965 0.09470085
0.04836434 0.007375639 -0.16737215 0.12048945 -0.0013409206 0.049846403 0.065914035 -0.20772925
-0.029698607 -0.11744219 -0.34216702 -0.068642564 -0.18534867 -0.25369316 -0.14024766 0.1707106

weight f4 [128, 128]
00000000: 917d 65be ffff 39be dc5a 18be 7696 eabd
00000010: 0274 0bbe 90fa 273d f9c5 123d 5c0c 183e
00000020: b19b 0c3e c086 013d 1197 28be 359a e7bd
00000030: 9087 03be 6d97 583d 9013 78bd 5c9d 803c
00000040: a7ff 8cbd d40a 5fbd 3ac0 dc3d d053 a63d
00000050: 9c0a 433e 2002 25bc 9c61 d13d 222a 82bd
00000060: e73e 2c3c 17ac 2a3d 99bb 2abc 6d97 2d3d
00000070: b684 babc 9201 e3bd fc2c 403d 7e56 013e
00000080: bc8f d8bc 93e7 62bd 53f1 2ebd a332 46bd
00000090: 7685 a33d 7ada e13c 4ce7 033d c78c a33d
000000a0: 733b 173b e0bd bebb 9178 80bd aa5e b93c
000000b0: b6cb 0dbd 5180 b6bd 1262 a2bd 2290 c33d
000000c0: 8a3d 083e cb50 8ebc 8218 133e e431 15be
000000d0: 7087 99bd e18c da3d 5c33 18be 91f9 b53d
000000e0: e476 6a3d a6e7 0e3e 5e57 0e3e c2ee ab3c
000000f0: 1d99 9ebc 9d07 2fbd a833 c93c 520c 89bd
00000100: b0db bbbd fe4c 46be 0e52 a8bd f92a 66bd
00000110: e238 81bd 69aa 1b3c c46d eebd 41ac 11bd
00000120: e8dc 373d f0ec 25bc 98bd 0c3e 8130 2a3d
00000130: 5939 07bd 0a1b 07bd 606e 00be 5230 283e
00000140: 833e b8bd 5e35 83bc 10e1 cebd 78d9 c6bd
00000150: f88b bebd 399c 35bd 8e75 063d 6ae0 4ebe
00000160: 7101 163e a5a4 babd 43fa 2fbe 570b 11bc
00000170: f42f 10be 142b 86be 5d26 613e 21b0 103e
00000180: e141 b6bb 1e55 dfbe ad0c 0e3d 9bf9 babd
00000190: c0a7 d43c 248b 593d 8967 8d3c 0bd5 2cbb
000001a0: 89c9 a7bd 5f03 88bd 0e32 5b3d 9b84 a63c
000001b0: 4896 84bd 920c 863c efc6 bdbb 3535 923c
000001c0: 80a7 bcbb 98ff 453e e472 b33d c634 c23d
000001d0: faf7 c93d bbdb aabd b89e 973d ea72 6e3d
000001e0: 1997 a5bb 3e75 8b3d aefb ca3d 5153 5c3d
000001f0: 9b6e a03d d713 9b3d 714a 653d e9ad 7bbd
00000200: 68d5 043e f1d4 35bd 3466 3fbd 91c8 fd3d
00000210: 29be 313d d327 0a3d 9891 a63c f613 f9bd
00000220: 9450 02be 7758 083d 3f83 073e ff16 35bd
00000230: 1929 f23d e85f 003c 392d a3bc 2b4b f9bc
00000240: c0ba a4be 46b5 ea3d 60c2 813d 24de 70bd
00000250: b67d 80bb ed99 38be 90da b23c a116 0abf
00000260: 7b1e 5a3b f3d1 c93d 6402 b03d 7c97 12be
00000270: b2f6 3d3c 409b 2f3c 4ac9 f83c a427 f2bd
00000280: bcf9 86bc dbfd a03d ecc5 e73d 0d7b 19bc
00000290: f4f3 163e cb06 9e3d b60d 22bd 3afe 3fbc
000002a0: 9281 a53d 4fb4 f53d 69f2 46be 9e76 b3bd
000002b0: d2ef d6bd 3411 8a3d fcd0 253e f587 b3bd
000002c0: 39d8 093c 45ca 7c3d 2fb3 5dbd 0987 cb3c
000002d0: 949d 003e c798 573d 45d1 ee3d 6fc2 20be
000002e0: 8538 38be 4854 8abc 21af 8bbd 8373 0dbe
000002f0: 0816 e23d a2cb ecbd fab3 673e f0a7 863d
00000300: 7adb 813c 669c 0b3e e7a8 593d 6739 ce3d
00000310: 904e 6e3d e68e f83d 05fd c93d 6a39 8a3d
00000320: f8f0 1ebe 86be b2bd 5c82 f2bc da50 a63d
00000330: 2d07 123d 394e 903d d6df 0ebd 5379 983c
00000340: 2310 353e feb0 1ebe 8f9d 3d3d 7208 05be
00000350: d368 173e b5b0 a8bc 671f 443c 7737 383e
00000360: dd4e 07bd f665 8a3d cc68 0b3e f00c 133e
00000370: 6291 a13d b995 4b3e f654 d83d ab1d 97bd
00000380: ebe2 e83d 0b11 3ebe 7428 8f3d 9cba 333e
00000390: 551f 1cbe 3572 1cbe de5f 213e 873d fd3d
000003a0: 648f 3f3e 4159 333d 00a6 e4bd 924c 113e
000003b0: 4899 a33d 52fc a1bb 3629 0ebc 11a3 86bc
000003c0: adaf df3d 8cb6 c8bd 4cde 143d 1816 cb3b
000003d0: fd7e 233c 9373 cf3c 5cc6 c5bc d91e a23d
000003e0: 7250 acbd 61fb 51bd e6ad 20be 867f aabd
000003f0: f1fa 033d 991f c6bd 5e7a bbbd d8b6 dc3d
-0.22411181 -0.18164061 -0.1487841 -0.114544794 -0.13618472 0.04101044 0.035833333 0.14848465
0.13731267 0.03162265 -0.16463877 -0.113087095 -0.12844682 0.052878786 -0.06056553 0.015700035
-0.06884699 -0.054453686 0.10778852 0.08121455 0.19047016 -0.010071307 0.10223696 -0.063556924
0.010513044 0.041668024 -0.010420703 0.04238074 -0.02276836 -0.11084284 0.0469179 0.1263065
-0.026435725 -0.055396628 -0.042710613 -0.048388135 0.0798444 0.027569998 0.032203004 0.079858355
0.0023076206 -0.0058209747 -0.06272996 0.022628147 -0.034618102 -0.08911193 -0.07928862 0.095489755
0.13304725 -0.01737251 0.14364818 -0.14569813 -0.07496536 0.10671402 -0.14863342 0.08885492
0.05724229 0.13955554 0.13900515 0.020987872 -0.01936012 -0.04273187 0.024560764 -0.06691803
-0.091727614 -0.19365308 -0.08218776 -0.056193326 -0.06309678 0.009501078 -0.1164203 -0.035564665
0.044888407 -0.010127291 0.137442 0.041550163 -0.033013675 -0.03298477 -0.12542105 0.16424683
-0.08996298 -0.016016658 -0.10101521 -0.097094476 -0.09304041 -0.04433844 0.032826953 -0.20202795
0.14648987 -0.09113435 -0.17185311 -0.008852801 -0.14080793 -0.2620474 0.2198729 0.14129688
-0.0055620526 -0.43619627 0.034680057 -0.0912964 0.025958896 0.05311121 0.017261283 -0.00263721
-0.08192737 -0.06641268 0.053514533 0.020326903 -0.064739764 0.016363416 -0.005791537 0.017847637
-0.0057572722 0.19335783 0.08762148 0.09482722 0.09861751 -0.083426915 0.0740332 0.05821506
-0.0050534126 0.068094715 0.09911285 0.053790394 0.07833596 0.075721435 0.055979196 -0.06144515
0.12972033 -0.04439253 -0.046728328 0.12391771 0.04339424 0.033729386 0.020333096 -0.1216201
-0.1272605 0.03328749 0.1323366 -0.044211384 0.11824245 0.007835366 -0.019919025 -0.03043135
-0.3217373 0.114603564 0.06335902 -0.0588056 -0.003921236 -0.18027468 0.021832734 -0.5394078
0.0033282328 0.09854498 0.08594206 -0.14315599 0.011594461 0.010718167 0.03036942 -0.11823967
-0.016476505 0.07860919 0.113170475 -0.0093677165 0.14741498 0.077161394 -0.039563857 -0.011718327
0.08081354 0.11997282 -0.1942841 -0.08762859 -0.10494961 0.067415625 0.16193002 -0.08766166
0.008413368 0.061716337 -0.05412596 0.024844663 0.12560111 0.052635934 0.11661009 -0.1569917
-0.1799031 -0.016885892 -0.068205126 -0.13813595 0.110393584 -0.115622774 0.2262725 0.06575
0.015851725 0.1363388 0.053139593 0.100695424 0.05818039 0.12136631 0.09862713 0.06749232
-0.1552161 -0.08727746 -0.029603176 0.0812089 0.035651375 0.0704617 -0.034881435 0.01861254
0.17681937 -0.15497205 0.046292838 -0.12991503 0.14786081 -0.020592073 0.0119703775 0.17989908
-0.033034194 0.06757729 0.13614196 0.14360404 0.07889058 0.19881333 0.1056308 -0.073787056
0.11371406 -0.18561189 0.06990138 0.17551655 -0.15246327 -0.15277942 0.15759227 0.12365251
0.18707043 0.04378629 -0.111644745 0.14189366 0.079882205 -0.004943409 -0.008676818 -0.016435178
0.10922179 -0.09800443 0.03634481 0.006197702 0.009979007 0.025323665 -0.024142437 0.0791604
-0.08413781 -0.051265124 -0.15691337 -0.083251044 0.03222174 -0.096739955 -0.09154199 0.10777062

bias f4 [128]
00000000: 23ed a4bd c1fa 01bd 67d9 613d cbdb 29bd
00000010: f2e1 10be 63ef 6bbd 5735 f8ba b720 e1bd
00000020: 2f18 9fbc bbb9 ccbc fdc2 15bc 690d e0bb
00000030: 69c3 223d 55ba d6bd 92ed 88bc 2f38 28be
00000040: 5b1d 2abc bb0c 763d f2c5 60be 6612 d2bc
00000050: c0b0 40be 60b7 b0bd c9a2 023d f2a2 25be
00000060: 4b86 893c 8242 b7bb ffa4 e8bd f896 993c
00000070: 06d1 8ebd 69b6 39be bca8 b0bd 1d8f fbbd
00000080: 8d9f b4bb a472 9ebd 04ee 17be f66e 9fbd
00000090: 3fb0 82bd b4c2 4bbe d7b8 1f3d 63b5 35be
000000a0: 22e6 1ebd dcc1 78be 3e1a edbd 9921 8cbd
000000b0: 0f3d 18be d495 99bc 70eb f9bd 86a6 17be
000000c0: 1248 0dbc 1e68 593d d60f 58be ce80 c7bc
000000d0: 32d4 69be 3f36 77bd baf2 9bbd 1864 a7bd
000000e0: 7d94 a3bc 3378 343d 3621 f2bd fc03 68be
000000f0: fe50 91bd 0519 b9bd c0b1 fabd 82af 933d
00000100: 8ec8 92bd 2312 a9bd 5928 0fbe e4ec 2bbe
00000110: 71d0 39be 33af 40be ec46 c7bd 3274 8bbd
00000120: ec4e a5bd 4f1d 4cbd d010 28be f8e7 aebd
00000130: eef9 1abe 7e94 31be 6a07 54be faa2 25be
00000140: e19f 88bd c388 aabd 7f4c 4cbe 892d 013c
00000150: b7ee c4bd 3930 803d 34a7 56bd 85ab c7bd
00000160: d4d9 0ebd 49c6 d7bd 936b 313d 914a 713d
00000170: 5b47 b7bc 1d96 fcbd ab1b cabd 2ed2 7f3d
00000180: fba4 31bd 3b7e 90bd f518 eabd e7a6 56bc
00000190: 5ccf 363d 5507 d2bd f1fc 0fbe 16c5 9bbd
000001a0: b39c 32be 0e77 ecbd 2a76 97bc 6d83 e1bc
000001b0: 7f75 8abd 470c 1dbd cf3c 76bc 0137 71be
000001c0: 8917 97be 1dd5 6bbd 5457 2e3d f307 c63c
000001d0: 568f 27be 127d 76bd df4e e0ba 06a9 6bbe
000001e0: 40a7 4cbd fb75 90bd 5a03 acbd 6417 acbd
000001f0: 9a2d 24bd 5f52 ae3c 8691 2abd d7c5 9dbc
-0.08053043 -0.03173328 0.05513897 -0.041469377 -0.14148691 -0.057601344 -0.0018936795 -0.10992568
-0.019420711 -0.024990907 -0.009140727 -0.006837536 0.03973714 -0.10484759 -0.016714845 -0.16427682
-0.010382975 0.060070734 -0.2195051 -0.025643539 -0.18817425 -0.08628726 0.031893525 -0.1617544
0.016787669 -0.005592645 -0.113595955 0.018748745 -0.06973462 -0.1813599 -0.086259335 -0.12283156
-0.005512184 -0.0773671 -0.1483689 -0.07784836 -0.063812725 -0.19898492 0.038994636 -0.17744975
-0.03879369 -0.24292701 -0.11577271 -0.06842346 -0.14867042 -0.018748201 -0.12203109 -0.14809617
-0.00862314 0.05307781 -0.21099791 -0.024353411 -0.22834852 -0.060354467 -0.07614656 -0.08173388
-0.019968266 0.044059943 -0.11822741 -0.2265777 -0.07095526 -0.09037975 -0.12240934 0.0721121
-0.07167159 -0.082554124 -0.13980235 -0.16789585 -0.1814592 -0.18816833 -0.09730324 -0.06809272
-0.08071694 -0.04983264 -0.16412663 -0.08540338 -0.15134403 -0.17341802 -0.20705953 -0.16175452
-0.066711195 -0.083268665 -0.19951056 0.007884392 -0.09615844 0.06259198 -0.05240555 -0.09749512
-0.034875706 -0.10535867 0.04331548 0.058909003 -0.022372892 -0.12333319 -0.098685585 0.062456302
-0.04337023 -0.070553266 -0.114305414 -0.013101316 0.044631347 -0.10255305 -0.14061333 -0.076059505
-0.17442589 -0.115461454 -0.018488962 -0.027528489 -0.06760692 -0.038341787 -0.015029146 -0.23556139
-0.29510143 -0.057576288 0.04256375 0.024173712 -0.16363272 -0.06017787 -0.0017113349 -0.23013696
-0.04996419 -0.07053753 -0.08399077 -0.08402899 -0.04008255 0.021279512 -0.04164269 -0.019259376

weight f4 [128, 128]
00000000: 806c d5bc bf89 43bd c8b1 74be fbf4 4cbc
00000010: 2250 6cbd 1eff 873c 3cdd 9f3d e023 e23c
00000020: 35c4 4d3d 53b9 74be 888e 8cbd 3ca6 983d
00000030: d595 183d 334b cd3d b517 a0be 0d4d 613d
00000040: 575f 35be 2829 9cbe c566 5d3d bc6d 22be
00000050: 3172 8c3d 6ce2 65be bf58 cbbc 52a8 de3d
00000060: 4a4f 943c 1c62 8a3e 81c9 56bd 9cc1 293e
00000070: e22f 69be 14fb a33d 6979 5f3e e5d1 553c
00000080: cea5 83be 57dc 2dbe 4aa5 23be 3b25 733d
00000090: 9832 1c3d 0112 52bc dcd8 303e 70d7 9dbd
000000a0: 1767 003c 0152 3a3d a3eb a7bd e259 52be
000000b0: 958f 283e 480b 3fbe 2582 413e 1a7c 8fbd
000000c0: 9acc e6bd a37c 4fbe 58c2 893c 5123 513a
000000d0: a7d9 ce3d e34d 37be 22c2 5bbe 7657 75be
000000e0: bb2c 51be edcd 5ebe 9f9e 483d 64e9 0e3e
000000f0: 483c f3bd 5702 22be 4938 d93d acaa 1ebc
00000100: b851 37be 7084 2fbe ea1f aa3d 01f6 583d
00000110: e08c 003e cfd9 2bbc 332a f3bd f0a6 f2bd
00000120: d481 b6bd 5fb3 99be 20c2 793d 7bb0 fcbd
00000130: fd99 373e d7e6 e13d 4876 97ba 6512 6dbe
00000140: 9774 0b3e 0b7c 17be 76d1 013d ea4f 22bd
00000150: 3fcc 7bbe 2bbb a7bd d76a 76bd ea18 39be
00000160: 553b f3bc d1c0 973d 3f3a e73d 55ce ed3c
00000170: 25c9 d0bd 4922 d8bd 17bc 08be aaa2 bdbd
00000180: 4bd4 26bd 1c08 71bc f83a ea3d 53fe db3d
00000190: 2c86 a63c 3a97 373d 5a54 223c 449b b63c
000001a0: 7707 65be 8879 91bd 9569 c0be 2563 3cbd
000001b0: 7b7f 52bc 0b20 f7bd 6bcb a9bd b391 1d3e
000001c0: f198 113e 7276 4cbe 4c08 743d f1e4 b0bc
000001d0: a59c 833d 90b5 173d f703 43be 5358 053d
000001e0: 8ea2 433c b51d f2bd 3d34 8ebd da53 0dbe
000001f0: 5768 87be 94ca 033e fbd4 73be 740f 5cbd
00000200: 5d68 6b3d 9768 68bc db23 1bbe 3a58 033e
00000210: c4cb 1e3e 37e7 393e 111d 113e 6038 0a3e
00000220: 5af6 cb3c a6c9 b8bd bf31 79bd 0448 403d
00000230: 6e45 e13d 0be9 33be e849 c0bd 18ee 6a3e
00000240: e08b 893d 7d22 94bd 450d 493e 3258 72bc
00000250: 38b4 3b3e d020 6abb a9ef 5abc 0020 b5bc
00000260: bac7 e33c 4886 6a3e 9be0 623d 62c6 bbbd
00000270: 39b0 033e c258 e73d 807b a0bd f415 cd3d
00000280: 15a4 963d c8ff 98bd f4f2 7d3e a8a4 3f3e
00000290: 768a cf3c 7c88 b23d 7d01 8fbe d899 2a3e
000002a0: 5cea 163c a0f9 4d3e 6dbf bb3d dc86 b23d
000002b0: f969 0d3e 1636 9fbb 709c 2c3e bcdf d03d
000002c0: bd69 053e e0ca 163e 2d1c 153e 9d0e ee3d
000002d0: 22a5 b93d 047a b83d f217 513d f5de 713d
000002e0: a04d 97bc 6de3 0c3d 8add c93d d873 993d
000002f0: 841c 923d 99cc 0fbe 5f28 453e 7885 093e
00000300: a9ae 123d f8b5 f13d 4d83 833e 64f2 a53d
00000310: bf86 823e 2926 6d3e 11b9 7bbc a4c1 7b3d
00000320: 127c 323e ed86 0b3e 2fe8 4f3e 3018 6c3e
00000330: 3bdb 803c 03ae 0f3e 0712 1e3d 3738 a83d
00000340: 6a2a 0fbe d707 99bc 1420 803e 98c7 233e
00000350: 9cd6 623d 2e6f 823d 0c8e 0e3e 1d3b 2e3e
00000360: 6b3b cc3d 2758 943e 61ad b2bd e1f0 aa3c
00000370: c8ff 053e 0aef 213e 4265 de3d 31ec 3e3d
00000380: 6000 4bbd 2e53 953d 4080 253e 3e0c a5bd
00000390: 0b0a 65be 115e 753d bc3e 003e 799d 3f3d
000003a0: b219 0c3d 3bca f13c e042 16bd bf10 ba3d
000003b0: 4ec2 1f3e ce09 9a3d 637a c23c cf74 6a3e
000003c0: e370 d53d 5733 943d 32fc 6a3d 7c5c 113d
000003d0: cb02 133d cdc0 80bb ac71 043e d3f9 803d
000003e0: 8bc8 fc3d 702c e0bb 3d9c cebd 8c23 133d
000003f0: eecd c13d 7942 473c b0a6 1b3e d753 4e3d
-0.026052713 -0.047738787 -0.23895943 -0.01250958 -0.057693608 0.016601142 0.07805869 0.027604997
0.050235946 -0.2389882 -0.06863123 0.07453582 0.037252266 0.10024109 -0.31268087 0.055005122
-0.1771215 -0.3050015 0.054053087 -0.15862173 0.06857718 -0.22449654 -0.02482259 0.10871948
0.018104214 0.27027977 -0.052438263 0.16577762 -0.22772172 0.08006874 0.21823658 0.013050531
-0.25712436 -0.16978584 -0.15981022 0.059361678 0.038134187 -0.012821675 0.17270225 -0.07707107
0.0078370785 0.04548836 -0.08199241 -0.205421 0.16461022 -0.18656647 0.18897302 -0.07006092
-0.112694934 -0.20262389 0.016816303 0.000797798 0.10100108 -0.17900805 -0.21460775 -0.23959145
-0.2042722 -0.21758242 0.048979398 0.13956219 -0.11876732 -0.15821205 0.10606439 -0.009684246
-0.17902267 -0.17140365 0.083068684 0.052968983 0.1255374 -0.010488941 -0.11873283 -0.11848247
-0.089114815 -0.30019662 0.060976148 -0.123383485 0.17929836 0.11030357 -0.0011555636 -0.23151548
0.13618694 -0.14793412 0.0316939 -0.039626993 -0.24589632 -0.08189996 -0.060160484 -0.1807591
-0.029691378 0.07409824 0.112904064 0.02902905 -0.10194615 -0.105534144 -0.13353 -0.09259541
-0.040729802 -0.014711406 0.11437029 0.10741868 0.02032765 0.044821955 0.009907806 0.022290833
-0.22366129 -0.07103258 -0.37580553 -0.04599299 -0.0128477765 -0.120666586 -0.08290752 0.15387611
0.14218499 -0.19967058 0.059578225 -0.021593543 0.06426362 0.037038386 -0.19044481 0.032554936
0.0119406115 -0.118220724 -0.069435574 -0.13801518 -0.26446792 0.12870246 -0.23811714 -0.053725675
0.057472575 -0.014185092 -0.15150397 0.12826625 0.15507418 0.18154608 0.14171244 0.13498068
0.024897743 -0.090228364 -0.060838457 0.04694368 0.10999571 -0.17569368 -0.093890965 0.22942388
0.06716132 -0.072331406 0.19633968 -0.014791535 0.18330467 -0.0035725124 -0.0133628035 -0.022109985
0.027805198 0.22902787 0.05538998 -0.09168698 0.12860192 0.11296226 -0.07836056 0.10013953
0.07355515 -0.074706614 0.2479971 0.18715155 0.025334578 0.087174386 -0.27930823 0.16660249
0.009211149 0.20114756 0.09167371 0.08717129 0.13809957 -0.0048587425 0.16856551 0.10198924
0.13028617 0.14725828 0.1456153 0.11623881 0.090647 0.09007648 0.051048227 0.05905052
-0.018469632 0.034396578 0.09856708 0.074927986 0.07134345 -0.14042892 0.19253682 0.1342982
0.0358111 0.11802286 0.25686112 0.08102873 0.25493428 0.23159088 -0.0153639475 0.061463967
0.17430142 0.13625689 0.20303415 0.23056102 0.015729537 0.14031224 0.03859141 0.08213847
-0.13981023 -0.018680496 0.25024474 0.15994108 0.05538045 0.06368862 0.13921374 0.17014737
0.099722706 0.28973505 -0.08724476 0.020866813 0.13085854 0.15813842 0.10859157 0.04661197
-0.049560905 0.07291256 0.16162205 -0.08058976 -0.22367112 0.05990416 0.12523931 0.046781037
0.034204192 0.029515376 -0.03668487 0.09085225 0.15601465 0.07521401 0.02374 0.22896121
0.10421922 0.07236355 0.05736942 0.03548859 0.035891335 -0.0039292336 0.12933987 0.0629765
0.12342938 -0.006841235 -0.10088394 0.035922572 0.09463106 0.012161844 0.15200305 0.050372925

bias f4 [128]
00000000: 25ac 8abd fb23 06be efdc ce3c ed78 523d
00000010: ea30 043e 9f60 843d 7a8b bb3d 3881 233e
00000020: 0425 8dbe f0b9 183b 6a59 77bd 3c7d cfbc
00000030: ee15 663d 8f85 abbd 87e2 e33c bf22 dc3d
00000040: b936 25be f168 6fbe 032c 91be c904 74bd
00000050: 5929 b03c bf0f 433d 287f 853c bbe4 e33d
00000060: 2602 ab3c aaf4 4f3d 5f81 873c 6df3 1fbd
00000070: 22eb 6d3d 826f ef3d 066e 003d 5689 b5bd
00000080: 8c65 30bd 0986 d5bd daba 193e 7e21 fa3b
00000090: 72d2 aabd cbef 74be 6c7e febd ff68 123d
000000a0: 19ad c3bd 5d90 5fbd ebac 21be 028f 773d
000000b0: d1ee 5f3d 6f9a 46be db39 debd d185 9dbd
000000c0: d5d3 d93c b711 21bd b673 c7bc 8c3d 05be
000000d0: ae8c 62be f579 c0bc e56d d03c 4a67 d7bc
000000e0: f9ce 953d 6d20 c6bd c92d 16be 730d adbc
000000f0: 54ff 85bd e019 3b3e ae61 2f3e 318e 023e
00000100: da87 8bbe db91 15bc 264e 68bd e093 5cbe
00000110: 7c80 573c 6582 793d 2ef9 ffbd 2ff2 0ebe
00000120: 57bf abbd 15b8 0abe ea27 3c3d 5904 06be
00000130: 597d c8be 8aa4 fcbc 64ff 293e 27a4 cbbd
00000140: f4d2 b53c 1d59 303d 21c4 cd3b 9364 cf3d
00000150: 5c21 d03d 553b 87bd b0e2 5dbe dfd0 44be
00000160: bc3f 3cbd df66 713d 4fa2 9a3d 546b 2cbe
00000170: 33b5 763c d770 2fbe c1ad 2b3e b1cb a6bd
00000180: 1252 33be 2b64 cfbd 2319 f7bd 6642 1fbe
00000190: 1c80 003a 8c46 acba 50f0 253e 95c4 97bc
000001a0: 95a9 45bd d463 0ebe 1e13 803d cb5a e3bd
000001b0: a77b c2bd a124 dc3d c690 b53d fcee 813e
000001c0: 9007 bfbd 924d 493e ac77 313d 5eee 833c
000001d0: a6cd 66bd ee8f 62bd bd6d c33d 4f2a 30be
000001e0: 33c5 ec3c df28 e2bd 1744 0cbe 7c38 abbd
000001f0: 0e4b a7bd ca61 2d3e 555b 343d 6977 bfba
-0.06771115 -0.13099663 0.025251834 0.051384855 0.12909284 0.064637415 0.091574624 0.15967262
-0.27567303 0.0023304187 -0.060388006 -0.025328271 0.056173258 -0.08375084 0.027817978 0.10748815
-0.16134156 -0.23379876 -0.2835389 -0.059574876 0.021504091 0.04762244 0.016295984 0.11127611
0.020875048 0.05077044 0.016541181 -0.03905051 0.05808557 0.1169119 0.031354927 -0.088640854
-0.043065593 -0.10425956 0.15012684 0.007633387 -0.083409205 -0.23919599 -0.12426457 0.035744663
-0.095545 -0.054581035 -0.15788619 0.060439117 0.054671112 -0.19394849 -0.10850879 -0.07691539
0.026590267 -0.039323535 -0.024347167 -0.1301176 -0.22123978 -0.023495654 0.025443027 -0.02629437
0.073148675 -0.096741535 -0.14665903 -0.021124577 -0.065428406 0.1827159 0.17127106 0.12749554
-0.27252084 -0.009129013 -0.056715153 -0.21540785 0.013153192 0.06091537 -0.12498699 -0.13959573
-0.083861046 -0.13546784 0.045936503 -0.13087596 -0.39158133 -0.030840177 0.1660133 -0.09943419
0.022195317 0.043053735 0.006279484 0.10126605 0.10162613 -0.066031136 -0.21668506 -0.19220303
-0.04595922 0.058935996 0.07550489 -0.16837817 0.01505785 -0.17132889 0.167655 -0.0814432
-0.17511776 -0.101265274 -0.12065341 -0.15552673 0.0004901902 -0.0013143583 0.16204953 -0.018526355
-0.04825743 -0.13905269 0.06253646 -0.11101302 -0.09496241 0.10749174 0.08865504 0.25377643
-0.09327614 0.19658497 0.04332702 0.016104873 -0.056348465 -0.055313043 0.09542415 -0.1720364
0.028902626 -0.11042952 -0.13697849 -0.08360383 -0.081686124 0.16931835 0.044032414 -0.001460773

weight f4 [128, 128]
00000000: 988c 853c c407 23bd fb50 c5bc 852a ca3d
00000010: 4453 e7bd d721 a6be 3c57 50bd b47b 24be
00000020: 0c3c 0d3e f7a2 f9bd 240b 5e3c 9b9b 033e
00000030: 1a04 4e3c d2e7 5f3d 1e7d 493d 1105 19be
00000040: 7bc1 483d ec50 cb3d 4bb3 f73d 5bfa 353e
00000050: 3ab7 26bd 5e71 193e 4086 d4bd 7a04 bbbc
00000060: 8310 2f3d ba55 1a3b 915e c1bd bed8 9a3d
00000070: 1645 67be d8f8 02be 2065 69bd f908 c53d
00000080: 8ad8 603e e6ef 243d 5f1f a0be 02fe f5bd
00000090: 2768 b63e 53f1 663e 621f 0c3e 0fa4 0f3d
000000a0: e0b5 8b3e d763 603e 181d b83e dc72 ba3c
000000b0: 709a 0cbe 68c7 fe3c efbf 9fbd 8eaf 473e
000000c0: 5299 063e dd0f 11be bbb9 08bd ccee 883c
000000d0: fcfc dd3d 8525 ff3d 54b6 a83d e374 64bd
000000e0: 206d 20be 8ad9 7fbd 0841 463d f616 12be
000000f0: 5ea6 8ebd 079d 27be 218d 51be a81a 46be
00000100: f960 8d3e 2aaa 0cbe ec9f bb3d 60d4 953d
00000110: e0ab 023d 4ee3 b5bd b301 c63e 2757 14bd
00000120: 65ae f8bd d7c9 983e bcaf fdbd 72fa 8a3e
00000130: 408e 213e 6287 c5bd 01c7 34be 2a39 d13d
00000140: 15ff b83d 2e85 f5bd d11c 7ebd cfef 31bd
00000150: 5e65 f3bb 22ae a13e 3044 d1bc 127f 7b3e
00000160: 16f2 2cbd 58f0 c6bd fad5 bebd 0bda a13c
00000170: 23f3 30be 5f80 403e 23c6 eebd 2522 b8bd
00000180: 8e2b 193e 2705 843e 383d 3cbd 6de2 bcbc
00000190: 7f2f 103c 1c56 693d 9b90 07be f2e8 80bd
000001a0: 43f1 453c 35e3 adbc 263a 2bbb 914e 5cbd
000001b0: 21ae 1f3d 525a b63d f853 1dbe b62c 6bbe
000001c0: 8b44 7fbc a877 afbe a962 6abd 5646 04be
000001d0: d343 4abd 58b3 3f3e 831d 4ebe f786 203e
000001e0: e32c 633d 26e6 913e 2024 713d 0c44 673c
000001f0: 1764 583e 2077 2bbe bc56 a23d 26b4 4a3d
00000200: 2954 f2bd 1619 0abd 363c 07be 2006 7dbe
00000210: b495 cc3d 77e5 1cbe e5c0 2dbe 92e7 fdbd
00000220: 86c8 ad3d 9d72 173e ff80 143e a519 b83b
00000230: f83a c33c 1c90 703e b56b 1cbd 8bdd 5e3d
00000240: fc99 d73d dad7 273e 33e9 9b3e 269b adbd
00000250: c260 b23d 85b1 56be b1be 3bbe 59ac 65be
00000260: a675 3d3d 57da 19be a1f2 643e dfe4 8c3e
00000270: 8e4c 35be 7648 4ebc 259d dc3d 2477 b73d
00000280: ae0a c83d c212 9e3e 1445 c6bc 2133 64be
00000290: cd76 81bd 0dba 413e 1866 febd 3cba 913d
000002a0: 09eb 203e bb8d ca3c ec96 c13d 0187 293e
000002b0: 7a7e e7bd 7c82 f73d 3ac1 813e a72a eabc
000002c0: bdde 0f3e 51a5 6f3d d89b 863e bd52 743e
000002d0: bda2 023e 95ec 843e c988 a0bd e786 1f3e
000002e0: ed84 40be 5936 bc3e e3e1 65bc b4c2 223c
000002f0: 3035 c53d 700c 9dbe 7add 7dbe 54c3 70be
00000300: d4cd 943e f81b 1cbd 88ed b3bd 295e ff3d
00000310: 34f0 7c3e 344e 873e 0e69 cf3d 82cb 5b3e
00000320: e666 f93d b34c 713e 2e97 9cbd bd33 9e3e
00000330: a66b e93d ec0b 06be e2f9 dcbd 83c1 133e
00000340: 4866 0b3e 140b 23be 129e adbd 2e60 25bd
00000350: 79d7 babc 537c b63b 8ea7 ac3d 1264 533e
00000360: 46c0 123e 966b 15be 2db2 e53c 6867 ab3d
00000370: c218 2a3b 7a0d 983e 15d6 9cbe a93f 063e
00000380: 5a04 d4bc 2026 103e 15a6 5a3e 280a a53d
00000390: 7a70 6bbe 88dc f2bd 1b2a ae3d c9c3 d63a
000003a0: cf28 923d 105b 2e3e de4a 6abd bda1 4d3e
000003b0: 475c 513e 8a72 2bbe 88b5 363d abce 5fbe
000003c0: 30e2 ed3c 7a8c 24be 5461 443e 2238 f0bd
000003d0: c09e edbd dff5 343c 8efe c63d 2b8e 643c
000003e0: 6a38 193d c6e9 ec3d 7824 6c3e fdf7 333e
000003f0: 9d94 d5bd 369a d6bd aeee 88be f015 303e
0.016302392 -0.039802328 -0.024086466 0.09871391 -0.112951785 -0.32447693 -0.050864443 -0.16062814
0.13792437 -0.12189286 0.013552461 0.12852328 0.01257422 0.05466444 0.049191587 -0.14943339
0.049012642 0.09927544 0.12094744 0.17771284 -0.040702082 0.14984652 -0.10377169 -0.022829283
0.042740356 0.0023549632 -0.09441865 0.075608715 -0.22584948 -0.12790239 -0.056981206 0.09620852
0.21957603 0.040267847 -0.31273934 -0.12011339 0.35626337 0.22552995 0.13683847 0.035068568
0.27287197 0.21913086 0.35959697 0.022759847 -0.13730788 0.031100944 -0.0780028 0.19500563
0.13144425 -0.14166208 -0.03338025 0.01671543 0.108392686 0.12458328 0.08237901 -0.055775534
-0.15666628 -0.06246332 0.048401862 -0.14266571 -0.06965326 -0.16368495 -0.20463993 -0.19346106
0.27613047 -0.13736787 0.09161362 0.07315898 0.031902194 -0.088812456 0.3867317 -0.036215927
-0.12142638 0.29841492 -0.12387034 0.271442 0.1577692 -0.09644963 -0.17654039 0.10215981
0.09033028 -0.11988293 -0.0620392 -0.04344159 -0.0074278554 0.31578165 -0.02554521 0.24560192
-0.04222306 -0.09713811 -0.093181565 0.019757291 -0.1728025 0.1879897 -0.11658885 -0.089908876
0.14958021 0.2578518 -0.04595682 -0.023057187 0.008800386 0.056966886 -0.13238756 -0.06294431
0.012081447 -0.021226505 -0.0026127188 -0.053785864 0.03898442 0.08903946 -0.15364063 -0.22966275
-0.015580307 -0.34270978 -0.057222996 -0.12917456 -0.04938109 0.18720758 -0.20128445 0.15676485
0.05546273 0.28495902 0.058872342 0.014115345 0.21131931 -0.16744661 0.079266995 0.04948821
-0.118324585 -0.03371533 -0.13206562 -0.24709368 0.09989491 -0.15321909 -0.16968115 -0.12397684
0.084855124 0.14789815 0.14502333 0.0056182914 0.02383183 0.23492473 -0.038188655 0.0544105
0.10527417 0.16390935 0.30451354 -0.08476858 0.08709861 -0.20966156 -0.18334462 -0.22429027
0.046254776 -0.15024696 0.2235818 0.27518365 -0.17704985 -0.012590518 0.107721604 0.08958271
0.09767662 0.30873686 -0.02420286 -0.22285129 -0.063214876 0.18918629 -0.124218166 0.071155995
0.15714659 0.024725785 0.09452614 0.16555406 -0.1130342 0.12085435 0.25342733 -0.028584791
0.14049812 0.058507267 0.26290774 0.23859687 0.12757392 0.25961748 -0.0783859 0.15578805
-0.18800707 0.36760214 -0.014030906 0.009934116 0.09629285 -0.30673552 -0.24791518 -0.23512012
0.29063284 -0.03811261 -0.0878554 0.124691315 0.24701005 0.26426852 0.101274595 0.21464351
0.121778294 0.23564415 -0.07646023 0.30898848 0.113974854 -0.13090485 -0.10789849 0.14429288
0.13613236 -0.15922195 -0.08477415 -0.040374927 -0.022807823 0.00556902 0.08430396 0.20643643
0.14331159 -0.14591822 0.028039062 0.083693326 0.0025954698 0.29697782 -0.30632082 0.13110222
-0.025880981 0.14077044 0.21352418 0.08058578 -0.22992125 -0.11858469 0.08504125 0.0016385253
0.0713669 0.17026925 -0.057200305 0.2008123 0.20445357 -0.16742912 0.044606715 -0.21856181
0.029038519 -0.16069213 0.19177753 -0.117294565 -0.11602545 0.011044948 0.09716521 0.013949911
0.037407316 0.11568026 0.23060787 0.17575069 -0.10428736 -0.10478632 -0.26744598 0.17195868
