results/model/neural_567.model (torch, 686563 bytes, 21 tensors)

weight_ih f4 [384, 5]
0	0xbd2913d2	-0.041278668
1	0x3e2a0501	0.16603471
2	0xbceabfa5	-0.028655836
3	0xbc8e9d69	-0.017409043
4	0x3e41a431	0.1891029
5	0x3c812b92	0.015767846
6	0xbe272984	-0.1632443
7	0xbc97d7d1	-0.018535526
8	0x3ddedfdd	0.10882542
9	0xbe365d2b	-0.17808978
10	0x3d791594	0.060811594
11	0xbd530d66	-0.05152645
12	0xbd97fc79	-0.07421202
13	0xbd9d90e9	-0.07693655
14	0xbdd0a815	-0.10188309
15	0x3dc9457f	0.098277085
16	0x3cb63711	0.022243055
17	0x3db165b5	0.08661977
18	0x3c984f82	0.0185926
19	0xbca92b26	-0.020650458
20	0x3c1d18cc	0.009588432
21	0x3d8b19e4	0.067920476
22	0x3caf8711	0.02142671
23	0x3d0984f4	0.03357406
24	0xbd6c0d0a	-0.057629623
25	0xbd246c16	-0.04014214
26	0x3dc0f787	0.09422212
27	0xbd806912	-0.062700406
28	0xbcfda266	-0.030961227
29	0x3d27d3b0	0.040973365
30	0x3dd65da7	0.104670815
31	0x3e060678	0.13088405
32	0xbdabe791	-0.08393777
33	0xbc2eb53a	-0.010663325
34	0x3e2a4419	0.1662754
35	0x3cd282c9	0.025697129
36	0x3d79d01e	0.06098949
37	0xbdb89947	-0.0901361
38	0x3c994125	0.018707821
39	0x3da52a3f	0.080646984
40	0xbd8c1d42	-0.06841518
41	0xbd5a15ce	-0.05324345
42	0x3da01e16	0.078182384
43	0x3c177e0c	0.0092463605
44	0x3d8872fb	0.06662556
45	0xbd585e2f	-0.052824195
46	0x3d244656	0.04010614
47	0x3d9e209b	0.07721063
48	0x3dba0002	0.09082033
49	0x3cd85483	0.026407486
50	0x3d03b762	0.03215731
51	0x3db0e1f3	0.086368464
52	0xbdbe8586	-0.09302811
53	0x3d9efdfd	0.07763288
54	0x3d2a1ebd	0.04153322
55	0xbd52b2c2	-0.051440008
56	0x3d9a1100	0.07522774
57	0xbcfb819e	-0.030701455
58	0xbd36e726	-0.044654034
59	0xbd45b318	-0.0482665
60	0xbadf33a8	-0.0017028945
61	0xbabdca6c	-0.0014479882
62	0x3d94317c	0.07236001
63	0xbd463058	-0.048385948
64	0xbce3e19e	-0.027817544
65	0x3dd4a4c5	0.1038299
66	0x3c22b8b4	0.009931732
67	0xbbc769c6	-0.006085607
68	0x3d9b7a82	0.07591726
69	0x3ddb4b1a	0.10707684
70	0x3de91410	0.1138078
71	0xbd30c0ce	-0.043152623
72	0xbd699f2a	-0.057036556
73	0xbd820f2e	-0.063505515
74	0x3ca1659a	0.019701768
75	0x3cad86b1	0.02118239
76	0x3b052ed3	0.00203221
77	0x3daa5df9	0.08318705
78	0xbd03f833	-0.032219123
79	0x3d766ee8	0.060164362
80	0x3ce6a196	0.028153222
81	0xbaf7003c	-0.0018844674
82	0x3bb31c70	0.0054660365
83	0x3d71a0c9	0.058991227
84	0x3b2efab9	0.0026699735
85	0xbd09d6eb	-0.033652227
86	0x3c5043b2	0.012711452
87	0x3c3220bf	0.010872065
88	0x3da8385b	0.08213874
89	0x3e0db3b6	0.13838086
90	0x3d7e8e45	0.062147398
91	0x3c1517a7	0.009099877
92	0xbdb72d17	-0.08944147
93	0xbdf5d926	-0.120043084
94	0x3d4d3b7e	0.050105564
95	0x3d5fee11	0.054670397
96	0x3b72d288	0.0037051756
97	0xbdfd4909	-0.12367446
98	0x3cb15114	0.021645106
99	0x3cbb1f7e	0.022842165
100	0xbdd08f11	-0.10183538
101	0xbbd7ba5e	-0.006583496
102	0x3d9090a0	0.07058835
103	0x3db7dad2	0.089772835
104	0x3d5b6ac2	0.05356861
105	0x3d36cdaa	0.04462973
106	0x3c951004	0.018196113
107	0xbd2bf586	-0.041982196
108	0x3dbc5afc	0.091970414
109	0xbd8c47fb	-0.06849667
110	0x3da2a23c	0.079411
111	0xbda19db3	-0.07891407
112	0x3dbc4411	0.0919267
113	0x3ce848d1	0.028355034
114	0xbc673f2a	-0.014114181
115	0x3dc409fa	0.095722154
116	0xbd8d853c	-0.06910178
117	0xbdb65ff8	-0.08905023
118	0xbda5c876	-0.080948755
119	0x3daefd29	0.0854438
120	0xbcbc9473	-0.023020005
121	0xbd38df47	-0.04513481
122	0xbd30fa87	-0.04320767
123	0x3da7b0e3	0.08188035
124	0xbd3ee2c2	-0.04660297
125	0x3d989ea1	0.07452131
126	0x3c88cf56	0.016700428
127	0x3dde6559	0.10859174
128	0x3db2a556	0.087229416
129	0xbcd91e4e	-0.026503708
130	0xbd327593	-0.04356916
131	0xbda401bc	-0.08008143
132	0xbd213226	-0.039354466
133	0x3dd3397a	0.10313697
134	0x3dc89054	0.097931534
135	0x3d7669fd	0.060159672
136	0x3d9e7c2a	0.07738526
137	0x3dc00147	0.09375244
138	0x3d2ec203	0.042665493
139	0xbd3534ca	-0.044239797
140	0x3d38bced	0.04510205
141	0x3db752c0	0.0895133
142	0x3ca23464	0.019800372
143	0xbc5583c1	-0.013031901
144	0x3d03d797	0.032188024
145	0xbbdedbff	-0.006801128
146	0xbd7fff36	-0.062499247
147	0xbd068a75	-0.032846887
148	0x3df87211	0.121311314
149	0x3dc36809	0.095413275
150	0x3d12a9d0	0.035806477
151	0x3d36219e	0.044465654
152	0xbdb967fb	-0.09053036
153	0x3e16fa4c	0.14743918
154	0x3dfb7062	0.12277295
155	0x3d8cf32c	0.06882319
156	0x3cdb3ef2	0.026763413
157	0xbcbabcba	-0.02279507
158	0xbd0c1f41	-0.034209494
159	0x3da37b9f	0.07982563
160	0x3ddc22bb	0.10748812
161	0x3c840f13	0.01612047
162	0xbd7177a4	-0.05895199
163	0x3d7b33c9	0.061328683
164	0x3ceb44ba	0.028719295
165	0x3bc5b7c6	0.0060338704
166	0x3dbe2830	0.09285009
167	0x3dafb8a4	0.08580139
168	0x3e10c3c3	0.14137177
169	0x3d7673fb	0.0601692
170	0xba5bd87d	-0.0008386446
171	0x3cefb76c	0.029262267
172	0x3c2a9a5d	0.01041278
173	0x3dd81698	0.105511844
174	0x3d78e47a	0.060764767
175	0x3d8e1640	0.069378376
176	0xbd6a1f58	-0.057158798
177	0x3d9f203d	0.07769821
178	0x3d8bcb2d	0.06825862
179	0x3d453d21	0.048154
180	0x3dbe8fa8	0.09304744
181	0xbd9acbd0	-0.075584054
182	0xbcebc8af	-0.028782217
183	0x3d8c7363	0.06857946
184	0xbccec87a	-0.025242079
185	0x3d3ec3d5	0.04657348
186	0x3d6ff4d5	0.0585831
187	0x3d902104	0.07037547
188	0x3d85c8a7	0.06532412
189	0xbd1f1051	-0.03883392
190	0xbcba9267	-0.022774888
191	0xba2a32ae	-0.0006492537
192	0x3cb8cb0b	0.022557756
193	0x3ce510fb	0.027962198
194	0xbd7419a3	-0.05959476
195	0x3e106304	0.14100271
196	0xbcf1079c	-0.029422574
197	0x3cde88a9	0.027164774
198	0x3da59acb	0.08086165
199	0xbcd0d129	-0.02549036
200	0x3d0216a6	0.03175988
201	0x3b175dd9	0.002309671
202	0xbd9de96f	-0.077105395
203	0xbd3f19d7	-0.046655502
204	0x3d8d8739	0.06910557
205	0xbd56845c	-0.05237232
206	0x3db0301c	0.08602926
207	0x3de8a86b	0.11360248
208	0x3d493818	0.04912576
209	0xbc2af35b	-0.010433997
210	0x3dd64ab5	0.10463468
211	0xbc3d1346	-0.01154024
212	0xbd766533	-0.060155105
213	0x3c97d338	0.018533334
214	0x3de26311	0.11054052
215	0x3d58e21b	0.052950006
216	0xbd2979a1	-0.04137576
217	0x3da6700f	0.08126842
218	0x3c853f9b	0.016265681
219	0xbd276436	-0.040867053
220	0x3b937777	0.0045003253
221	0x3d901e63	0.07037046
222	0xbd61006f	-0.054932054
223	0xbd3d7624	-0.046255246
224	0xbd52aef6	-0.051436387
225	0xbd3ee758	-0.046607345
226	0xbbb5edc9	-0.005552028
227	0xbda27fa1	-0.079344995
228	0x3db3544b	0.08756312
229	0xbca05972	-0.0195739
230	0x3cd145e1	0.025546016
231	0x3cf87abf	0.030331967
232	0x3cdcc58f	0.026949672
233	0x3d0e60f6	0.034760438
234	0xbd601767	-0.05470982
235	0xbd1d1eac	-0.03835933
236	0xba12835c	-0.0005589032
237	0x3d7e70ea	0.062119402
238	0xbd68c61f	-0.056829568
239	0x3da9e0de	0.08294843
240	0x3d1189c4	0.035531774
241	0xbb140b5d	-0.002258978
242	0x3d18cc16	0.037304007
243	0x3d677d66	0.056516074
244	0xbbfec2a8	-0.0077746697
245	0x3d431dd7	0.04763588
246	0xbdb7399e	-0.089465365
247	0x3d6d1987	0.057885673
248	0x3d89c432	0.067268744
249	0xbe09ad35	-0.1344498
250	0x3dc276c7	0.09495311
251	0xbcc94a83	-0.024571663
252	0xbdc81afa	-0.0977077
253	0x3d212b3b	0.03934787
254	0x3d49fd3a	0.04931376
255	0xbc0db993	-0.008650201

weight_hh f4 [384, 128]
0	0xbdc692cb	-0.09695967
1	0x3b8e3b0d	0.0043405355
2	0xbcce30bf	-0.025169728
3	0xbced82cc	-0.028993033
4	0xbcc1f05b	-0.02367418
5	0x3da6728a	0.08127315
6	0xbd3668db	-0.04453359
7	0x3c704459	0.014664733
8	0x3cf7bd60	0.030241668
9	0x3d181f0a	0.037138976
10	0xbd4dc70f	-0.050238665
11	0xbd8d207c	-0.068909615
12	0xbd9830e3	-0.074311994
13	0xbd7d294e	-0.06180697
14	0x3da0a7ab	0.0784448
15	0xbd50985d	-0.050926555
16	0xbdb15e6a	-0.08660586
17	0xbdf3b217	-0.11899202
18	0x3e0fc5ab	0.14040248
19	0xbd842036	-0.06451456
20	0xbd92f9c1	-0.07176543
21	0xbe3fd25c	-0.1873259
22	0x3cae4d0d	0.021276975
23	0xbd462b6a	-0.048381247
24	0xbe042991	-0.12906481
25	0xbd3a1d9b	-0.04543839
26	0xbdd77c05	-0.10521702
27	0x3da8b05f	0.08236765
28	0x3ddf538b	0.109046064
29	0x3c0673ec	0.008206349
30	0x3d22abe6	0.039714716
31	0xbccd69d6	-0.02507488
32	0xbd8d8d56	-0.06911723
33	0x3c83bf1e	0.016082343
34	0xbc74d872	-0.014944183
35	0x3dc25b88	0.094901145
36	0xbad9e1ad	-0.0016623043
37	0x3d9df4c0	0.07712698
38	0x3d44f534	0.048085406
39	0xbdafb500	-0.08579445
40	0x3c193b6b	0.009352545
41	0xbdc29ccb	-0.09502562
42	0xbe87ad08	-0.264992
43	0x3d00e5e5	0.031469245
44	0xbc99f420	-0.018793166
45	0x3d5301e6	0.051515482
46	0xbda5a872	-0.08088769
47	0x3d0684a1	0.03284133
48	0xbda24d23	-0.07924869
49	0xbe542ae7	-0.20719491
50	0x3da11c4e	0.07866727
51	0x3d2bd30e	0.041949324
52	0xbd9865c2	-0.07441284
53	0xb8c9ae60	-9.616907e-05
54	0x3d83d05b	0.06436225
55	0x3ca6be82	0.020354513
56	0xbcf56964	-0.02995748
57	0x3c92b1e5	0.017907092
58	0x3c9931c2	0.018700484
59	0x3dbd9574	0.092570215
60	0xbda044f9	-0.078256555
61	0xbd957234	-0.07297173
62	0xbbf1f025	-0.007383364
63	0x3b38d9cd	0.0028205991
64	0x3d00ce76	0.031446896
65	0x3c5e70ca	0.013576696
66	0x3dc3b8ac	0.09556708
67	0xbe222561	-0.15834571
68	0xbd4b2164	-0.04959239
69	0x3c98c104	0.018646725
70	0xbc17f837	-0.009275488
71	0x3d13d4de	0.036091678
72	0xbd557b61	-0.052119616
73	0x3d474537	0.048649993
74	0x3defbf88	0.117064536
75	0xbcc9c12b	-0.024628242
76	0xbd959f8e	-0.07305823
77	0xbd9a6f45	-0.07540754
78	0x3bfc23f9	0.007694718
79	0xbd0e0500	-0.034672737
80	0xbcd5a2d6	-0.026078623
81	0x3dbae150	0.09125006
82	0xbc27c28e	-0.010239257
83	0xbc8d0017	-0.017211957
84	0xbd269e93	-0.040678572
85	0x3d619294	0.05507143
86	0x3bbe1132	0.0058003897
87	0x3d9a4fec	0.07534775
88	0x3e8177b3	0.25286636
89	0x3c45a926	0.012064254
90	0xbc659a41	-0.014013828
91	0xbdd2c081	-0.102906235
92	0xbda5e053	-0.08099427
93	0xbcfb5827	-0.030681683
94	0x3c5129c4	0.012766305
95	0xbdc5c1d8	-0.096561134
96	0xbd31a95d	-0.043374408
97	0xbd74c887	-0.05976155
98	0x3dce4816	0.10072343
99	0xbd224857	-0.03961977
100	0x3d486d36	0.048932277
101	0xbb4c4b52	-0.0031172824
102	0xbd850f6d	-0.06497083
103	0xbd51c7cb	-0.051215928
104	0x3caafc51	0.020872267
105	0x3bb126d6	0.005406241
106	0xbd968d4b	-0.07351168
107	0xbd8aa149	-0.06769044
108	0x3d3ee301	0.046603207
109	0x3d2fd129	0.04292408
110	0xbdb3a1a5	-0.087710656
111	0x3e3d523a	0.18488398
112	0xbcacae96	-0.021079343
113	0x3d586e54	0.052839592
114	0x3c4b2a6d	0.012400252
115	0x3d2aa13a	0.041657664
116	0xbcfc710f	-0.03081563
117	0xbc45c5a6	-0.012071049
118	0x3ae169a8	0.0017197626
119	0x3d4118c9	0.047142778
120	0x3c200474	0.009766687
121	0xbdb38b6c	-0.08766827
122	0x3cbd2dcd	0.023093129
123	0xbd28ca15	-0.041208345
124	0x3e058d40	0.13042164
125	0x3de21709	0.1103955
126	0x3ab3e1bd	0.0013723891
127	0xbd5066fd	-0.050879467
128	0x3d04a2c8	0.032381803
129	0x3caf9896	0.021435063
130	0xbdbf9975	-0.093554415
131	0xbd9451f1	-0.072421916
132	0x3c161420	0.009160072
133	0xbd71c673	-0.059027147
134	0x3cfcd176	0.030861598
135	0x3d8dedd3	0.06930127
136	0x3d109d4c	0.03530626
137	0xbd0246ad	-0.031805683
138	0xbcc15fb1	-0.0236052
139	0xbd750088	-0.05981496
140	0xbc92978c	-0.017894529
141	0xbe078757	-0.13235222
142	0x3d82218e	0.06354056
143	0xbcb1a5cd	-0.021685505
144	0x3cb1d6e8	0.02170892
145	0xbdf28635	-0.11842004
146	0x3c2066f6	0.009790173
147	0x3da7a17b	0.08185097
148	0xbd4d4b66	-0.050120734
149	0xbe0b675b	-0.13613646
150	0xbcb5ed3e	-0.022207852
151	0x3d81fdc1	0.06347228
152	0x3cd23e44	0.025664456
153	0x3c7a0eec	0.015262347
154	0x3cc56a2a	0.024098475
155	0x3c70e4a0	0.014702946
156	0xbd17d864	-0.0370716
157	0x3dd8ce26	0.10586195
158	0x3d6c85b3	0.057744693
159	0x3c4dc7e9	0.012559869
160	0x3dbf5044	0.09341481
161	0x3d964ca8	0.0733884
162	0xbd983454	-0.07431856
163	0xbd89e061	-0.0673225
164	0xbe4d3708	-0.20040524
165	0xbcede4f7	-0.029039843
166	0xbd7dc249	-0.061952863
167	0x3d4298b1	0.0475089
168	0xbd642608	-0.055700332
169	0x3ca64efd	0.020301336
170	0x3cf1bde8	0.0295095
171	0x3e172d1d	0.14763303
172	0x3c021cb4	0.007941414
173	0xbd39bf1b	-0.045348268
174	0x3c5a0e5c	0.013309088
175	0x3debfc90	0.11522782
176	0x3d9dcde4	0.07705286
177	0xbc91d7b1	-0.017803045
178	0x3e08f8fc	0.1337623
179	0x3d0aeb7b	0.033915978
180	0x3db8ffcf	0.090331666
181	0x3c33c41d	0.01097205
182	0xbd6c88b6	-0.057747565
183	0xbd5253d9	-0.051349495
184	0x3cd800ae	0.026367512
185	0xbc8ea237	-0.017411334
186	0xbd086f97	-0.033309545
187	0x3dff9c8b	0.1248103
188	0x3c002298	0.007820748
189	0x3c63aeb3	0.013896632
190	0xbddbbf8e	-0.107298955
191	0x3de76029	0.11297638
192	0x3a839a0d	0.0010040418
193	0x3d47d39c	0.04878579
194	0xbd774198	-0.06036529
195	0xbde94789	-0.113905974
196	0x3d4264a6	0.047459267
197	0xbdef3832	-0.1168064
198	0x3df44a25	0.119282044
199	0x3d522c9e	0.05131208
200	0x3c86a353	0.016435301
201	0x3d998c86	0.07497506
202	0x3dc18030	0.09448278
203	0x3d533ee9	0.051573668
204	0xbd24d63e	-0.04024338
205	0x3aa06eab	0.0012240013
206	0xbbc1b4bc	-0.005911438
207	0xbd578345	-0.052615423
208	0xbdafc4f2	-0.08582486
209	0xbd837ed9	-0.06420679
210	0xbda317b3	-0.07963505
211	0x3d1b36b9	0.037893984
212	0x3d224893	0.039619993
213	0xbbed15bd	-0.0072352574
214	0x3cfe579e	0.031047639
215	0x3da14802	0.078750625
216	0x3c8f2934	0.017475702
217	0xbd06a56a	-0.032872595
218	0x3da54cad	0.08071265
219	0xbd8a732f	-0.06760251
220	0x3ccbe0ec	0.024887525
221	0x3d58c965	0.05292644
222	0xbc9b2b52	-0.018941555
223	0xbc946608	-0.018115059
224	0xbbffdcb2	-0.0078082914
225	0x3d0ff48e	0.035145335
226	0xbd0331e1	-0.03202999
227	0x3d2d1a7e	0.042261593
228	0x3d01fc44	0.03173472
229	0x3d8701ab	0.06592115
230	0xbdcdfe43	-0.10058262
231	0xbc4fc76b	-0.012681822
232	0x3d8f3765	0.069929875
233	0x3e020f0c	0.12701052
234	0xbe0789bf	-0.1323614
235	0xbb2d0ef1	-0.002640661
236	0xbd1d8283	-0.038454544
237	0x3d97c3a3	0.074103616
238	0x3dde697b	0.108599626
239	0x3cf867c0	0.03032291
240	0xbcb6e189	-0.02232434
241	0x3c95a202	0.018265728
242	0x3da9e474	0.08295527
243	0x3d2f57cc	0.04280834
244	0xbd9e428c	-0.077275366
245	0x3cdb4a73	0.026768899
246	0x3bf5fd28	0.007506985
247	0x3e1423ef	0.14466833
248	0xbd982f01	-0.0743084
249	0x3d4c02a2	0.0498072
250	0xba021afb	-0.0004963127
251	0x3d52abb5	0.051433284
252	0x3df87512	0.121317044
253	0xbd418708	-0.047247916
254	0xbdb54850	-0.08851683
255	0x3d2639fa	0.040582635

bias_ih f4 [384]
0	0xbd9171cd	-0.07101784
1	0x3ccc5859	0.024944471
2	0x3d72ed67	0.059308436
3	0x3d0908de	0.033455722
4	0x3d879e7c	0.06622025
5	0xbd200851	-0.03907043
6	0x3c90e8d6	0.01768915
7	0x3d6dd901	0.05806828
8	0xbbe87c33	-0.007094884
9	0xbd377611	-0.04479033
10	0xbcd2f9a7	-0.02575381
11	0xbc7936a3	-0.01521078
12	0x3d694815	0.05695351
13	0x3d81f12c	0.06344828
14	0x3b06dbe5	0.0020577845
15	0xbd56d0a6	-0.052445076
16	0xbcae4201	-0.021271707
17	0x3e0339b5	0.12814982
18	0x3c893fcc	0.016754054
19	0xbd588596	-0.052861772
20	0x3d57db26	0.05269923
21	0x3dff12ea	0.124547794
22	0xbd1ea1b5	-0.038728435
23	0xbd5af5f2	-0.053457208
24	0x39cd5486	0.00039163622
25	0xbcbb4583	-0.022860294
26	0x3d769b81	0.060206894
27	0x3dcf36a9	0.101178475
28	0xbd2f281a	-0.042762853
29	0xbd074d46	-0.033032678
30	0x3d59555b	0.053059917
31	0x3d863f17	0.06555002
32	0x3df247d2	0.11830105
33	0xbc71a6e2	-0.014749261
34	0x3e094d28	0.13408339
35	0x3def8bbd	0.11696575
36	0x3da448f3	0.080217265
37	0x3e04a7fa	0.12954703
38	0xbda478b1	-0.080308326
39	0x3e3740e4	0.17895848
40	0xbd2cd20d	-0.042192508
41	0x3dd03653	0.101666115
42	0xbd6bc486	-0.057560466
43	0x3db4be9f	0.088254206
44	0xbdbf3d2f	-0.09337842
45	0x3e0c5524	0.13704354
46	0xbd2a0c8e	-0.04151588
47	0x3db1dc87	0.086846404
48	0x3d5dd2da	0.05415616
49	0x3d4567f2	0.048194833
50	0x3e18aaa9	0.14908852
51	0x3ded3fc4	0.11584428
52	0x3b5ca2dc	0.0033666408
53	0x3df724e5	0.12067584
54	0xbcde37e2	-0.027126256
55	0x3dbb44db	0.091439925
56	0x3c4eb4ff	0.012616395
57	0x3d8fd156	0.070223495
58	0xbcc8256d	-0.024431909
59	0xbd221d52	-0.039578743
60	0x3bc66cf8	0.0060554706
61	0x3dfbbf84	0.12292388
62	0x3ddbac40	0.107262135
63	0x3d0684f0	0.032841623
64	0x3d2db67e	0.042410366
65	0x3d901fcb	0.07037314
66	0xbccc2381	-0.024919273
67	0x3da0906d	0.07840047
68	0xbd5e9f5d	-0.0543512
69	0xbc5e0ef4	-0.01355337
70	0x3d8e97fc	0.069625825
71	0xbd5d96de	-0.054098956
72	0x3d9cece6	0.07662372
73	0x3cd6770e	0.026179817
74	0x3d7a4a57	0.061106052
75	0xbd4cc080	-0.04998827
76	0x3e084e05	0.13311012
77	0x3bc95bd7	0.0061449814
78	0x3dcd347c	0.10019776
79	0x3d89a437	0.067207746
80	0xbd280602	-0.041021354
81	0x3d053503	0.03252126
82	0xbd60b5c1	-0.054860834
83	0x3d2d9970	0.042382658
84	0x3dd0ce2f	0.101955764
85	0x3d08ce1d	0.03339969
86	0xbd392e4a	-0.04521016
87	0x3d955a67	0.072926335
88	0x3d07e3d1	0.033176247
89	0x3cd7041d	0.026247079
90	0x3dfefe5a	0.124508575
91	0xbd931a9b	-0.07182809
92	0x3d575be4	0.052577868
93	0xbd9ff736	-0.078108236
94	0x3caf55e5	0.021403262
95	0x3d453076	0.04814192
96	0xbc3460ef	-0.011009439
97	0xbd0295c9	-0.031881128
98	0x3acb17bf	0.0015494748
99	0xbc8301c7	-0.015992058
100	0x3caac24c	0.020844601
101	0x3cb842c0	0.022492766
102	0x3cac41a5	0.021027396
103	0xbc80acd6	-0.015707415
104	0x3d75a601	0.059972767
105	0x3d156e5e	0.036482207
106	0xbd8382da	-0.06421442
107	0x3d12a3d6	0.035800777
108	0x3c0bfb77	0.008543841
109	0x3e117162	0.14203408
110	0xbcb7257a	-0.022356737
111	0x3c467164	0.012111995
112	0x3ddd858c	0.10816488
113	0xbccfcea0	-0.025367081
114	0x3e401720	0.18758821
115	0xbcbbed44	-0.022940286
116	0xbcbae6de	-0.022815164
117	0xbd7def1b	-0.061995607
118	0x3c9e0796	0.019290727
119	0xbd9605b6	-0.07325308
120	0x3d290bb4	0.041270927
121	0xbc329c8d	-0.010901582
122	0x3d7ad153	0.061234783
123	0x3dee8c62	0.1164787
124	0x3c7223fa	0.014779085
125	0xbb1fa2d4	-0.0024358528
126	0xbd1dd22a	-0.038530506
127	0x3ddbbfa3	0.10729911
128	0xbd16a2ec	-0.03677647
129	0x3d6cdedc	0.057829723
130	0xbc2946f2	-0.010331856
131	0xbcd682a3	-0.02618534
132	0x3cb2c6a9	0.021823244
133	0xbcc5ebf1	-0.024160357
134	0xbd1497b2	-0.03627748
135	0x3d4b21ed	0.0495929
136	0xbdab2cc3	-0.08358147
137	0xbd93a5c6	-0.07209353
138	0xbe185631	-0.1487663
139	0xbd902cd9	-0.07039804
140	0xbdb2679f	-0.087111704
141	0xbc90fbd5	-0.017698208
142	0x3d3e18bb	0.046410304
143	0x3c70beee	0.014693959
144	0xbd640ba1	-0.055675153
145	0xbdec88d9	-0.11549539
146	0x3bda7bf2	0.0066676075
147	0xbd147cc6	-0.036251806
148	0x3d29a0e7	0.041413214
149	0x3d80f13d	0.062960126
150	0xbdc75ae2	-0.097341314
151	0xbd3c2e1d	-0.045942415
152	0xbd9a392b	-0.07530435
153	0xbd1b6a96	-0.037943445
154	0xbd9ff123	-0.07809665
155	0xbe019728	-0.12655318
156	0x3d8b619d	0.06805728
157	0x3dc621ca	0.096744135
158	0xbab60d99	-0.001388955
159	0xbdd719b6	-0.10502951
160	0xbd2111e9	-0.03932372
161	0x3b288d3e	0.0025718953
162	0xbde4bc1c	-0.111686915
163	0xbd80fbc6	-0.06298022
164	0xbd488d1d	-0.0489627
165	0xbc458664	-0.012055967
166	0xbca97ddc	-0.020689897
167	0x3b3a6029	0.0028438664
168	0xbd0d93cc	-0.03456478
169	0xbdf89c04	-0.121391326
170	0x3dcfed36	0.10152666
171	0xbd8192ff	-0.063268654
172	0xbdc35f09	-0.09539611
173	0xbdad82e1	-0.08472229
174	0x3e238658	0.15969217
175	0xbdbe1130	-0.09280622
176	0xbd3e69d2	-0.046487637
177	0xbd3f269f	-0.04666769
178	0xbccef8a6	-0.02526505
179	0x3cfade9d	0.030623728
180	0xbe1f4383	-0.15553097
181	0xbca3e460	-0.020006359
182	0xbd56cb70	-0.052440107
183	0xbb64f32b	-0.0034934978
184	0xbdb9db71	-0.09075058
185	0x3d335084	0.043777958
186	0xbd8c6ab5	-0.0685629
187	0xbdf58e08	-0.11989981
188	0x3ce1344b	0.027490756
189	0x3d4cb731	0.049979392
190	0xbd8ff913	-0.07029929
191	0xbbe808d5	-0.007081131
192	0x3d977de0	0.073970556
193	0xbd870521	-0.06592775
194	0x3d80e094	0.06292835
195	0x3c6cd961	0.014456124
196	0xbc81ccd9	-0.01584475
197	0x3d54935e	0.051898353
198	0x3d6292c8	0.055315763
199	0xbd9e4f31	-0.07729948
200	0xbdb44f5a	-0.088041976
201	0xbd756d3a	-0.05991862
202	0x3dcd74d0	0.10032046
203	0xbdc4a0db	-0.09600993
204	0xbd87b7c2	-0.06626846
205	0xbc3fe978	-0.011713378
206	0xbe04c121	-0.12964298
207	0xbe07e552	-0.13271073
208	0xbd2d75d9	-0.042348716
209	0x3b72a4d9	0.0037024526
210	0xbd4ba472	-0.049717374
211	0x3d8ac3f4	0.06775656
212	0xbd709633	-0.05873699
213	0xbd33fb6d	-0.04394095
214	0xbc441860	-0.011968702
215	0xbbe042d5	-0.0068439045
216	0xbc7858b2	-0.015157865
217	0xbd1870c4	-0.037216917
218	0x3ca74995	0.020420829
219	0x3ddd3bde	0.108024344
220	0xbde7b6c3	-0.11314156
221	0xbde2fb5b	-0.110830985
222	0xbb3d3d09	-0.002887549
223	0x3d6927f1	0.056922857
224	0xbdd4690e	-0.103716
225	0xbdabbc53	-0.08385529
226	0xbd60807b	-0.05481003
227	0xbbbbeb77	-0.0057348567
228	0xbd58c367	-0.052920725
229	0xbd4b590a	-0.04964546
230	0xbdc6bd20	-0.097040415
231	0xbc85848a	-0.016298551
232	0xbd2451e2	-0.040117152
233	0xbc489cda	-0.012244428
234	0xbda4c6f3	-0.08045759
235	0x3b2733bc	0.0025513014
236	0xbc402f9b	-0.0117301
237	0xbcf19ac4	-0.029492743
238	0xbd447ecb	-0.04797248
239	0x3c861d31	0.016371341
240	0xbbfe10e4	-0.0077534784
241	0xbb311b3d	-0.0027024292
242	0xbe0595d3	-0.13045435
243	0x3d28be28	0.041196972
244	0xbd9be2a1	-0.076115854
245	0xbcf92f48	-0.030418053
246	0xbe0bf3be	-0.13667199
247	0x3d4c9db9	0.049955104
248	0x3d163776	0.036673985
249	0xbc6b995b	-0.0143798245
250	0xbd7e8400	-0.062137604
251	0x3be6e00f	0.007045753
252	0xbca69b47	-0.020337714
253	0xbce8fedd	-0.02844184
254	0xbe01c13e	-0.12671372
255	0xbd558321	-0.052127007

bias_hh f4 [384]
0	0xbb495aa2	-0.0030724187
1	0xbd59bdc1	-0.05315948
2	0x3d58ed62	0.05296076
3	0xbd069a82	-0.032862194
4	0x3bcb3945	0.0062018954
5	0xbd0c905e	-0.034317367
6	0x3d0c2a41	0.034219984
7	0x3cd6427f	0.026154755
8	0xbcd857a2	-0.026408974
9	0x3d9de7b6	0.07710211
10	0x3df8b1e0	0.12143302
11	0x3dc12abb	0.09431978
12	0xbd994223	-0.07483318
13	0x39d753b4	0.0004107036
14	0x3c80fa40	0.015744328
15	0x3cde5c4a	0.027143616
16	0x3db09a44	0.08623174
17	0x3d19908f	0.037491377
18	0xbdbd7186	-0.092501685
19	0xbd08cc49	-0.033397947
20	0xbd686ab2	-0.056742378
21	0x3cf15903	0.02946139
22	0x3d5af5fc	0.053457245
23	0x3d8a7de1	0.06762291
24	0x3d60ee4f	0.05491477
25	0xbcd7dc0a	-0.02635004
26	0xbd7cceef	-0.061720785
27	0xbbc32b83	-0.0059561147
28	0xbbcf086e	-0.0063181436
29	0x3dc5f895	0.09666554
30	0x3c457167	0.012050963
31	0xbcde1d96	-0.027113717
32	0x3d41b11c	0.047288045
33	0x3e1bdbe3	0.15220599
34	0xbd0afddd	-0.03393351
35	0x3dd5dd78	0.104426324
36	0x3ccbf6d2	0.024897967
37	0x3c6ab973	0.014326441
38	0x3be73c2f	0.007056735
39	0x3e26539d	0.16242833
40	0x3d55da07	0.05220988
41	0xbd2a46cf	-0.041571435
42	0x38db50d6	0.000104577906
43	0x3cb535a3	0.022120303
44	0xbbf39a49	-0.0074341637
45	0xbcd27f8b	-0.025695583
46	0xbcb7a205	-0.022416124
47	0x3d362502	0.044468887
48	0xbd9020b3	-0.07037487
49	0x3d0b41da	0.033998348
50	0x3e1f5ed4	0.15563518
51	0xbc36d265	-0.01115856
52	0x3b375383	0.002797336
53	0x3e0e5652	0.13900116
54	0xbc826a10	-0.015919715
55	0x3de5fbe1	0.11229683
56	0x3d8f49df	0.06996512
57	0xbd185d48	-0.037198335
58	0xbc04286f	-0.008066281
59	0xbc7321e5	-0.014839624
60	0x3db3fbc5	0.087882556
61	0x3dbb04d3	0.091317795
62	0x3d9ca021	0.0764773
63	0x3cd73d25	0.026274273
64	0x3c98b0eb	0.018639049
65	0xbda39b88	-0.079886496
66	0x3de71037	0.112823896
67	0x3c483402	0.012219431
68	0x3c4fac1e	0.012675313
69	0x3d472dfd	0.048627842
70	0x3de4c0f5	0.11169616
71	0x3b11e2cb	0.0022260423
72	0x3de3da17	0.11125582
73	0x3b1d1263	0.0023967258
74	0xbdc47b10	-0.09593785
75	0x3de92cb4	0.113854796
76	0x3bbe892e	0.005814693
77	0xbd268df0	-0.040662706
78	0x3dd0da79	0.1019792
79	0xbc83b53f	-0.016077636
80	0x3c2488c5	0.010042374
81	0x3d02d5ad	0.03194206
82	0x3d268818	0.040657133
83	0xbc44be17	-0.012008212
84	0x3d3e2de2	0.046430476
85	0x3db3de67	0.08782654
86	0xbc96aa28	-0.018391684
87	0x3d6d6d6f	0.057965692
88	0x3d92f910	0.07176411
89	0x3dd5bb8d	0.10436163
90	0x3d107fd4	0.035278156
91	0x3d2f55bd	0.042806376
92	0x3d7962fe	0.060885422
93	0x3d1b5b65	0.037928957
94	0xbd49a217	-0.049226847
95	0x3cffa2e9	0.031205611
96	0x3bfe4104	0.0077592153
97	0x3c87b33a	0.016564954
98	0x3d22dba4	0.039760247
99	0xbdaa6323	-0.0831969
100	0xbcbad454	-0.022806324
101	0x3ddc2c79	0.1075067
102	0x3dcc7932	0.09984054
103	0xbd81ec52	-0.06343903
104	0x3d823935	0.063585676
105	0xbc1798a5	-0.009252702
106	0xbd7b84d1	-0.06140596
107	0x3d294eae	0.0413348
108	0xbde2baf9	-0.110708185
109	0x3de48da7	0.111598305
110	0xbcdee4c2	-0.02720869
111	0xbd9e5369	-0.07730753
112	0x3e1370c8	0.14398491
113	0x3d2c27eb	0.042030256
114	0x3e52081c	0.20510906
115	0x3d91a52e	0.07111584
116	0x3b41b918	0.0029559787
117	0xbcd8ae7c	-0.026450388
118	0x3d9c24cf	0.07624208
119	0x3d14e068	0.036346823
120	0x3d4d012f	0.050049957
121	0xbd1127af	-0.035438236
122	0x3d760944	0.06006743
123	0x3d82f6de	0.063947424
124	0xbd0c3cec	-0.034237787
125	0xbd3e8740	-0.046515703
126	0x3d95d3a9	0.073157616
127	0xbb7b8b7d	-0.0038382702
128	0xbd55be0e	-0.052183203
129	0x3d26e435	0.04074498
130	0xbdb3d6e6	-0.08781223
131	0x3d0f2f2f	0.034957107
132	0x3d422188	0.04739526
133	0xbd524d4b	-0.051343244
134	0xbdd4f863	-0.103989385
135	0xbd3ac77e	-0.045600407
136	0x3d27b85b	0.0409473
137	0xbdbc9413	-0.092079304
138	0xbc1ff0d1	-0.009762005
139	0xbdbb45ae	-0.0914415
140	0xbdfcf40c	-0.12351236
141	0xbdd08b4c	-0.10182819
142	0x3d5a8161	0.05334604
143	0x3d2a961f	0.041647073
144	0xbce625e4	-0.02809424
145	0x3d2d4446	0.04230144
146	0xbd3ce9a6	-0.046121262
147	0x3cb4e407	0.022081388
148	0xbd9815a8	-0.074260056
149	0x3da39123	0.07986667
150	0xbdd41703	-0.10355952
151	0xbbe96b28	-0.0071233697
152	0xbb8f06c4	-0.00436482
153	0xbde9043e	-0.11377762
154	0xbd62ff6e	-0.055419378
155	0xbdc33380	-0.09531307
156	0x3d4305ac	0.04761283
157	0x3a48bc8e	0.00076574914
158	0x3d292230	0.04129237
159	0xbdf39f89	-0.11895663
160	0xbd089a4a	-0.033350267
161	0xbe0584c4	-0.13038927
162	0xbdfca348	-0.12335831
163	0xbd945d3e	-0.07244347
164	0xbd90e9a4	-0.070758134
165	0x3c66198a	0.014044175
166	0xbd685001	-0.056716923
167	0x3dc543b3	0.09632053
168	0xbcc8e448	-0.024522915
169	0xbd938e34	-0.072048575
170	0xbd1e0515	-0.038579065
171	0x3d5334e8	0.051564127
172	0x3b8fa722	0.0043839375
173	0xbd1867a8	-0.03720823
174	0x3e16aca0	0.14714289
175	0x3b537ccb	0.0032270427
176	0x3cd3fecf	0.025878338
177	0xbdc845a8	-0.09778911
178	0x3af28f6d	0.0018505879
179	0xbd9c7763	-0.07639959
180	0xbe2f5e7b	-0.17125885
181	0x3cd32969	0.025776582
182	0x3bdf67ce	0.0068177944
183	0xbdc83fb8	-0.097777784
184	0xbdccafcd	-0.09994469
185	0xbc99a985	-0.018757591
186	0xbdaea208	-0.08526999
187	0xbe0f32dc	-0.13984245
188	0xbd897007	-0.06710821
189	0x3d9581b3	0.07300129
190	0xbc97f712	-0.01855043
191	0xbd94b6f6	-0.072614595
192	0xbd126fed	-0.035751272
193	0xbdf09dca	-0.11748846
194	0x3c6419b6	0.013922146
195	0x3d663ddd	0.05621134
196	0x3d3dd939	0.046349738
197	0xbdb9bd64	-0.090693265
198	0x3de36886	0.11103921
199	0xbc551e66	-0.013007736
200	0x3d28d1c1	0.041215662
201	0xbd4abd33	-0.04949684
202	0x3da3835c	0.07984039
203	0xbdf3bf8c	-0.11901769
204	0x3cc6f6e1	0.024287643
205	0xbe14158b	-0.14461343
206	0x3b919984	0.0044433493
207	0xbdfc2e26	-0.123134896
208	0xbd6f6a09	-0.058450732
209	0x3c9eb0c4	0.019371398
210	0xbd55f48a	-0.052235164
211	0xbc2b2c15	-0.010447522
212	0xbde1abf7	-0.11019128
213	0x3b022b38	0.0019862186
214	0xbd0a9a26	-0.033838414
215	0xbdc0598b	-0.09392079
216	0x3e0cef19	0.13763084
217	0xbc6116e1	-0.013738365
218	0xbdc2f7a4	-0.0951989
219	0xbd08bcac	-0.033383057
220	0xbe191f59	-0.14953364
221	0xbc1bbcb3	-0.009505439
222	0xbdc7e77b	-0.09760948
223	0xbd085b3c	-0.033290133
224	0x3c0c1641	0.008550228
225	0xbd63edeb	-0.055646818
226	0xbc73c743	-0.014879051
227	0xbd7a67c3	-0.06113411
228	0xbdadf413	-0.08493819
229	0xbd067e66	-0.032835387
230	0x3d3bf412	0.04588706
231	0xbc7f6045	-0.015586917
232	0xbcfffef7	-0.031249506
233	0xbe043ce8	-0.12913859
234	0xbdca571e	-0.098798975
235	0xbd698e01	-0.05702019
236	0x3c148968	0.009065963
237	0xbe042ce9	-0.12907757
238	0xbce1fa3f	-0.027585147
239	0x3dedafa1	0.11605764
240	0xbc98be99	-0.018645572
241	0xbcabfd14	-0.0209947
242	0x3b94b4ba	0.004538146
243	0xbc921477	-0.017832024
244	0x3cb5eee4	0.022208638
245	0x3d1fb2f0	0.038989007
246	0x3cf0bd7e	0.029387232
247	0xbd9cead4	-0.076619774
248	0x3c9f97fc	0.019481651
249	0xbd01ebfb	-0.03171919
250	0xbdf2b815	-0.11851517
251	0x3ce37901	0.02776766
252	0x3d11c99d	0.035592664
253	0xbd3999a0	-0.045312524
254	0xbda6c99b	-0.08143922
255	0xbdb22819	-0.08699054

weight f4 [128, 128]
0	0x3c8afa8d	0.016965175
1	0xbda771f6	-0.08176033
2	0xbcf6a50a	-0.030107994
3	0xbd3eab5b	-0.046550136
4	0x3d2ce0f2	0.042206712
5	0xbd6caca6	-0.057781838
6	0x3d2a1472	0.041523404
7	0xbd8d3710	-0.06895268
8	0xbdd20f23	-0.10256793
9	0xbdd61bf7	-0.104545526
10	0x3cb75c5b	0.022382906
11	0xbda07358	-0.078345
12	0xbc8389f5	-0.016056994
13	0xbe4b2999	-0.19840087
14	0x3de21d18	0.110407054
15	0xbcb3541c	-0.021890692
16	0xbdaf66d3	-0.08564534
17	0xbd9e3d4c	-0.07726535
18	0x3d3428c3	0.043984186
19	0xbcf7f280	-0.030267
20	0xbe2b839f	-0.16749428
21	0x3d18fb02	0.037348755
22	0xbdb4148b	-0.08792981
23	0xbdd54b10	-0.10414708
24	0xbdf38461	-0.11890484
25	0x3c42c11e	0.011886863
26	0x3d91d863	0.071213506
27	0xbc968470	-0.018373698
28	0x3d86e5ae	0.06586777
29	0x3d7ad863	0.06124152
30	0xbd8b7dba	-0.0681109
31	0x3cfeb151	0.03109041
32	0xbd99cd0d	-0.075098135
33	0xbd21a517	-0.039464083
34	0x3d37eb9e	0.044902436
35	0x3dce1ead	0.10064445
36	0xbc9a6fdb	-0.018852165
37	0x3d0c9660	0.034323096
38	0xbd3860e4	-0.045014277
39	0x3c9182b0	0.017762512
40	0x3b5da1da	0.0033818395
41	0xbb143235	-0.0022612934
42	0xbd257b64	-0.040400878
43	0x3dbfb973	0.093615435
44	0xbda7fa96	-0.08202092
45	0x3cd5f29f	0.026116667
46	0xbdc51a0d	-0.096241094
47	0x3d6ae103	0.057343494
48	0x3d4573d5	0.04820617
49	0x3e08f573	0.13374881
50	0x39fb0a84	0.00047882285
51	0xbd5ba4cb	-0.053623956
52	0xbd5542b5	-0.05206557
53	0x3bd14a75	0.00638705
54	0xbcb1eac0	-0.021718383
55	0xbc7a5734	-0.01527958
56	0x3c242d6a	0.010020593
57	0xbc2a6c9c	-0.010401871
58	0x3dc90e69	0.09817202
59	0x3e1ed0ed	0.15509386
60	0x3d8b953f	0.06815576
61	0x3da1fabe	0.079091534
62	0xbd0ea6f7	-0.0348272
63	0xbda7f6fc	-0.082014054
64	0xbc7eae95	-0.015544553
65	0x3d60e0e5	0.054901976
66	0xbd6772ed	-0.056506086
67	0xbdcd2dbd	-0.100184895
68	0xbd384d59	-0.04499564
69	0xbdf44782	-0.119277015
70	0xbdafcde5	-0.08584193
71	0x3d5dadc3	0.05412079
72	0x3c08cc61	0.008349509
73	0xbd25d883	-0.040489685
74	0x3dd235d2	0.10264172
75	0x3dd5f9f4	0.104480654
76	0xbcf8321e	-0.030297335
77	0xbd827753	-0.063704155
78	0x3d7d0388	0.061770946
79	0x3da76d87	0.081751876
80	0x3d19de24	0.037565365
81	0xbd1fc51c	-0.039006338
82	0x3cb71ae6	0.022351693
83	0xbc387ed6	-0.011260709
84	0x39cc97c8	0.00039022998
85	0x3de00973	0.10939302
86	0xbdbc0c82	-0.09182073
87	0x3d80cb9b	0.06288835
88	0x3dfc01fe	0.123050675
89	0xbcd2ae43	-0.02571786
90	0x3d551c25	0.052028794
91	0xbda8fe49	-0.08251626
92	0xbc947908	-0.018124118
93	0x3b9755d5	0.0046183863
94	0x3d108955	0.03528722
95	0xbca3542b	-0.019937595
96	0x3cd69f47	0.026198996
97	0xbd236f46	-0.03990104
98	0xbdf685a7	-0.12037211
99	0xbcfb340b	-0.030664464
100	0xbda0553f	-0.078287594
101	0x3db458fc	0.08806035
102	0xbdde3896	-0.10850637
103	0x3c9fc524	0.019503184
104	0xbd726b6a	-0.05918447
105	0x3d8ada3f	0.067799084
106	0xbe00764e	-0.1254513
107	0x3d2fa675	0.042883355
108	0xbe02946f	-0.12751935
109	0xbda0b3f7	-0.078468256
110	0xbda6a100	-0.08136177
111	0x3dd73040	0.1050725
112	0x3d885460	0.06656718
113	0xbd910ccc	-0.07082519
114	0x3d450af2	0.04810614
115	0xbc9d0f98	-0.019172475
116	0x3c8d046b	0.01721402
117	0x3d0211a1	0.031755093
118	0x3c936f8f	0.017997531
119	0x3db37076	0.087616846
120	0x3c1d7feb	0.009613018
121	0x3d3e10c2	0.0464027
122	0xbd737ad8	-0.059443325
123	0xbd644a45	-0.05573489
124	0x3d02ef6a	0.031966604
125	0xbcc84857	-0.024448557
126	0x3dbcaf17	0.09213083
127	0x3c37e5a9	0.011224189
128	0xbe3a4991	-0.18192126
129	0xbdd3b89a	-0.10337944
130	0x3d731a4a	0.059351243
131	0xbacd45ed	-0.0015661098
132	0x3c6a53c1	0.014302195
133	0xbdbf5ee8	-0.09344274
134	0xbd5471f0	-0.05186647
135	0xbca01f9c	-0.019546323
136	0xbd79c243	-0.060976278
137	0xbcc4a179	-0.024002777
138	0xbcbf8cff	-0.023382662
139	0x3c873ae3	0.016507572
140	0xbd4fe3d5	-0.050754387
141	0x3ddd2ef3	0.107999705
142	0xbd8ce300	-0.06879234
143	0x3d701a32	0.05861873
144	0xbcd91896	-0.026500981
145	0x3c8b2722	0.016986433
146	0x3cf104cc	0.029421233
147	0x3d9419a6	0.072314546
148	0x3de32d60	0.11092639
149	0x3e2c3293	0.16816168
150	0x3db0c688	0.08631617
151	0xbe711cb3	-0.23546104
152	0xbe58f767	-0.21188127
153	0xbd34ed2c	-0.044171497
154	0xbc47a114	-0.0121844
155	0xbd01fbd9	-0.03173432
156	0x3d569236	0.05238553
157	0xbd8e3145	-0.06942991
158	0xbb80eb91	-0.0039343317
159	0xbb5f9e61	-0.00341215
160	0xbcf5d64d	-0.030009413
161	0xbd815c83	-0.06316473
162	0xbd4c6987	-0.049905326
163	0xbd4bd0de	-0.04975974
164	0x3d23733c	0.039904818
165	0xbd78bd1f	-0.060727235
166	0xbc9b8c83	-0.0189879
167	0x3d1b6071	0.03793377
168	0x3d9e9ac2	0.077443615
169	0x3d7065f3	0.058690976
170	0x3df92612	0.121654645
171	0xbdafcd2f	-0.085840575
172	0x3dd8fc43	0.1059499
173	0x3e30d2ad	0.17267866
174	0xbd642539	-0.05569956
175	0xbcd96cc9	-0.02654113
176	0xbc637c5a	-0.013884628
177	0xbcbdd1f1	-0.023171397
178	0xbd34d7a7	-0.044150975
179	0x3db52af8	0.08846086
180	0xbd432ccb	-0.04765014
181	0xbd09af6d	-0.033614565
182	0xbcd14e95	-0.025550166
183	0xbc9c979b	-0.01911526
184	0xbce38438	-0.027773008
185	0xbc70a029	-0.014686623
186	0x3d8058a4	0.06266907
187	0x3caea22d	0.021317566
188	0x3d673a30	0.056451976
189	0x3ca4c8eb	0.020115336
190	0x3cdf5669	0.027262883
191	0xbde8125e	-0.11331628
192	0x3d8fccbb	0.07021471
193	0xbd81cc0b	-0.06337746
194	0xbdc4e7a0	-0.096144915
195	0x3c0a7b96	0.008452317
196	0x3d4865d2	0.04892523
197	0x3d701c40	0.05862069
198	0x3c1842c9	0.009293267
199	0xbd757064	-0.059921637
200	0xbd53c53d	-0.051701773
201	0x3d3dbddb	0.04632364
202	0x3d846c13	0.06465926
203	0x3bf5c083	0.007499756
204	0xbd1d0c2a	-0.03834168
205	0xbcbf4aff	-0.02335119
206	0x3c9ace54	0.018897213
207	0x3d2ffcb4	0.042965606
208	0x3e746927	0.23868237
209	0xbab619eb	-0.0013893222
210	0xbdafda61	-0.08586574
211	0xbcba72b4	-0.022759773
212	0x3d9d8be0	0.07692695
213	0xbdafeff0	-0.08590686
214	0xbea0684c	-0.31329572
215	0x3dd993ec	0.10623917
216	0xbdd9792a	-0.10618813
217	0xbcf4acea	-0.029867608
218	0xbd31dbd7	-0.043422546
219	0xbcae5d83	-0.021284824
220	0xbcee079a	-0.02905636
221	0xbdfffff8	-0.12499994
222	0xbd89553b	-0.067057095
223	0x3c558593	0.013032335
224	0x3cccc318	0.024995372
225	0xbd84ee30	-0.06490743
226	0x3d52c25a	0.05145488
227	0xbd73fe7f	-0.05956888
228	0x3d9a7db7	0.075435095
229	0x3cb466f1	0.022021743
230	0x3d9ae337	0.07562869
231	0x3da3382d	0.07969699
232	0x3d1fe771	0.03903908
233	0xbc0537e2	-0.008130999
234	0x3d2f5be6	0.04281225
235	0x3bf7e680	0.0075653195
236	0x3d833cd9	0.0640809
237	0xbd3da510	-0.046299994
238	0x3cc6ed09	0.024282949
239	0x3d69c988	0.05707696
240	0x3ddc5407	0.107582144
241	0x3c36fa94	0.011168141
242	0xbd42dabd	-0.047571886
243	0x3d227155	0.039658863
244	0xbda1efdb	-0.07907077
245	0xbd9a7daa	-0.075435
246	0xbd2e78aa	-0.042595543
247	0xbcd44df4	-0.025916077
248	0x3ce4f641	0.027949454
249	0x3c5d09be	0.013491092
250	0xbd2aad77	-0.041669335
251	0x3c984a20	0.018590033
252	0xbdcf83e8	-0.10132581
253	0x3dd83eda	0.10558863
254	0xbd9fc0b8	-0.0780043
255	0x3d3b07cd	0.045661736

bias f4 [128]
0	0xbda41f9a	-0.0801384
1	0x3d53f93c	0.05175136
2	0x3d4ee462	0.05051077
3	0xbd1bdaf6	-0.038050614
4	0xbc927e85	-0.017882595
5	0xbcedc09d	-0.02902251
6	0xbdbda088	-0.092591345
7	0xbc9b8d00	-0.018988132
8	0x3c6ddfe6	0.014518714
9	0x3d6a0090	0.057129443
10	0xbd5b5381	-0.053546432
11	0x3cb64a83	0.022252327
12	0xbc6e90f7	-0.0145609295
13	0x3cfd042c	0.030885778
14	0x3c17e662	0.009271236
15	0x3d84657b	0.06464668
16	0x3be0c401	0.006859303
17	0xbdc3cc0c	-0.09560403
18	0xbc9239fe	-0.017849918
19	0xbd77edb5	-0.06052943
20	0xbcd188d1	-0.025577934
21	0x3ccda0aa	0.025101025
22	0x3d99cc1e	0.075096354
23	0x3d64066b	0.055670183
24	0x3d88fcd0	0.06688845
25	0x3d78eaee	0.06077092
26	0x3c2c5bc7	0.010519928
27	0x3cb7decf	0.02244511
28	0x3d15d67d	0.036581505
29	0xbdb65b67	-0.08904152
30	0xbd3df4b5	-0.04637595
31	0xbd7cdd4a	-0.061734475
32	0xbbe1bc93	-0.006888935
33	0x3c6a6144	0.0143054165
34	0x3ca49f85	0.020095596
35	0xbcaaf186	-0.02086712
36	0xbd490ffb	-0.049087506
37	0xbd9e0873	-0.07716455
38	0xbd9bcaa2	-0.076070085
39	0x3c3496ee	0.011022313
40	0x3cfa6bb8	0.030568942
41	0x3d81bb4b	0.063345514
42	0xbd2c0435	-0.0419962
43	0x3db25b03	0.08708765
44	0xbdb864bf	-0.09003591
45	0xbd36d4f9	-0.0446367
46	0xbd79da9f	-0.06099951
47	0x3d975fc7	0.07391315
48	0xbd7fbce4	-0.062436
49	0xbd2ec54b	-0.042668622
50	0xbd92be4b	-0.07165202
51	0xbcff10d5	-0.031135956
52	0xbd09672f	-0.03354567
53	0xbdab3201	-0.08359147
54	0xbd8cdfec	-0.06878647
55	0x3d8b648e	0.06806289
56	0xbc216cbf	-0.009852587
57	0x3d6764a2	0.056492455
58	0xbcb64a00	-0.022252083
59	0xbc2e9d65	-0.010657643
60	0xbd512d8b	-0.051068824
61	0xbc8bb676	-0.017054778
62	0x3ccf8fa4	0.025337048
63	0x3ab1cfe6	0.0013565987
64	0xbdfc6edc	-0.12325832
65	0xbc4c4081	-0.012466551
66	0xbdac1261	-0.08401943
67	0xbcab2573	-0.02089188
68	0xbd8af991	-0.06785882
69	0xbc30fa14	-0.010801811
70	0xbcead409	-0.02866556
71	0xbd917cb0	-0.071038604
72	0x3d30b1b1	0.04313821
73	0xbdbc3b64	-0.09191015
74	0xbb6f9097	-0.0036554688
75	0xbc0838de	-0.008314339
76	0xbc64dcf6	-0.013968697
77	0x3d436e2a	0.047712483
78	0x3d3a5107	0.04548743
79	0xbd29312e	-0.041306667
80	0xbd3be2af	-0.04587048
81	0xbc9b0883	-0.018924957
82	0xbb963bfb	-0.004584787
83	0xbb935732	-0.0044964785
84	0xbd9a3166	-0.07528953
85	0xbda73cd8	-0.08165902
86	0xbdf3c1b6	-0.11902182
87	0xbdbbbb66	-0.09166603
88	0xbd7a1198	-0.061051935
89	0x3d9006b5	0.07032529
90	0x3d700d48	0.058606416
91	0xbdcd320f	-0.100193135
92	0xbd808550	-0.06275427
93	0xbd4afb1a	-0.049555875
94	0xbd3bd78b	-0.045859855
95	0x3d3dc10c	0.046326682
96	0x3cbb965b	0.022898844
97	0xbd86ec02	-0.06587984
98	0xbc28bb4c	-0.010298561
99	0xbdddf688	-0.10838038
100	0xbc8395f8	-0.016062722
101	0xbc5c51bd	-0.013447222
102	0xbd90b7ee	-0.07066332
103	0x3cac035b	0.020997694
104	0xbd807d6e	-0.06273924
105	0xbd848534	-0.06470719
106	0xbc426f3c	-0.011867341
107	0xbd0e5912	-0.034752913
108	0x3d37a72a	0.044837154
109	0x3cb53c7f	0.022123573
110	0x3d5c5490	0.053791583
111	0xbd9e8cf4	-0.077417284
112	0xbd1685ed	-0.036748815
113	0xbd364a68	-0.044504553
114	0xbc474fe6	-0.012165045
115	0x3daba1b1	0.083804496
116	0xbe060b3d	-0.13090225
117	0xbdf44824	-0.11927822
118	0xbc85db0a	-0.016339798
119	0x3b2d20b1	0.002641719
120	0xbd6c5f19	-0.05770788
121	0xbdfd7e96	-0.1237766
122	0x3d9863b0	0.07440889
123	0x3cb97e95	0.022643367
124	0x3d470c44	0.04859568
125	0xbd91f0c9	-0.07126004
126	0xbc89de6f	-0.016829697
127	0xbda9bef6	-0.08288376

weight f4 [128, 128]
0	0x3d9826c4	0.07429269
1	0xbba74586	-0.0051047234
2	0xbd53e4c0	-0.051731825
3	0xbda22c06	-0.07918553
4	0x3d70fbe5	0.058833975
5	0xbd7dd501	-0.061970714
6	0x3cf127d7	0.029437942
7	0xbd1da13a	-0.038483836
8	0xbcd5ed03	-0.026113993
9	0x3d7970f1	0.060898725
10	0xbc3f5606	-0.011678224
11	0xbc6138d4	-0.013746459
12	0xbd184077	-0.037170853
13	0x3d908d1e	0.07058166
14	0x3d442862	0.047890075
15	0xbd6544c9	-0.0559738
16	0x3db490c5	0.08816675
17	0xbcd5b1a1	-0.026085677
18	0xbd1b597a	-0.03792713
19	0x3cf92554	0.030413307
20	0xbd88f35b	-0.06687041
21	0xbd50e00f	-0.05099493
22	0xbd538858	-0.0516437
23	0x3d3fc35e	0.046817176
24	0x3d912b1d	0.07088301
25	0x3d850903	0.064958595
26	0xbd1aa1b5	-0.037751872
27	0xbd45defc	-0.048308358
28	0xbd482d37	-0.048871245
29	0x3d072caa	0.03300158
30	0x3c88dac6	0.016705882
31	0xbc1d8226	-0.009613549
32	0xbd00b949	-0.0314267
33	0x3d9beee0	0.07613921
34	0xbd139273	-0.036028337
35	0xbd6a97ff	-0.05727386
36	0x3da921ee	0.08258425
37	0x3cb1e6b2	0.02171645
38	0xbd390d04	-0.04517843
39	0x3d74f2c1	0.05980182
40	0x3d054beb	0.032543104
41	0x3d999799	0.07499618
42	0x3b43e3ce	0.002989042
43	0x3d882118	0.06646937
44	0x3da2a5dd	0.07941792
45	0xbd697856	-0.056999527
46	0x3c128ccc	0.008944701
47	0xbd09a7cb	-0.033607285
48	0xbcf4cee1	-0.029883804
49	0xbda59ee3	-0.08086946
50	0xbd96e829	-0.073685
51	0x3cbeb41d	0.023279244
52	0xbcb9d568	-0.022684768
53	0x3b8fb506	0.0043855933
54	0xbcc396bf	-0.023875592
55	0xbdaed39d	-0.08536456
56	0x3d523511	0.05132014
57	0xbd553117	-0.05204877
58	0x3d9aaac6	0.07552104
59	0x3d956dbe	0.07296322
60	0x3dc20865	0.094742574
61	0xbbf56a0e	-0.0074894493
62	0x3d67346b	0.056446474
63	0x3b8990c2	0.0041981647
64	0x3d238cd9	0.039929245
65	0x3be1fa47	0.0068962905
66	0x3cddc376	0.027070742
67	0xbda65735	-0.08122102
68	0x3d57215a	0.05252204
69	0x3bedae33	0.007253432
70	0xbd9c865e	-0.07642816
71	0xbd658aba	-0.056040503
72	0xbd91152f	-0.070841186
73	0xbd936568	-0.07197076
74	0xbcf1c593	-0.029513156
75	0xbd86f1a8	-0.06589061
76	0xbd57cf5c	-0.052687988
77	0xbdbf2e8f	-0.09335052
78	0x3dad1187	0.08450609
79	0x3da59a94	0.08086124
80	0xbd561cb8	-0.052273482
81	0xbd8f0173	-0.06982698
82	0xbd286b5a	-0.041118003
83	0xbd07b764	-0.03313388
84	0xbd38a27f	-0.045076843
85	0x3d4ae3c5	0.049533624
86	0x3c7483f9	0.014924043
87	0xbd3ddb57	-0.046351757
88	0x3d86bef6	0.06579392
89	0xbc236fb7	-0.009975365
90	0x3d21519c	0.03938447
91	0x3cf09b65	0.029370973
92	0xbd9f2308	-0.077703536
93	0x3d969c1a	0.07353993
94	0x3d10bfd1	0.03533918
95	0xbcebcff9	-0.028785693
96	0x3cc3590d	0.023846174
97	0x3d0f3433	0.03496189
98	0x3d599fb9	0.05313084
99	0xbc827342	-0.0159241
100	0x3cf9e1c3	0.03050316
101	0x3d4e27a2	0.050330766
102	0x3ae19efc	0.0017213519
103	0xbd7f3223	-0.062303673
104	0xbd5478f4	-0.051873162
105	0x3b2ff661	0.0026849734
106	0xbcd2578e	-0.025676515
107	0xbdcc828f	-0.099858396
108	0x3dbcbfb1	0.0921625
109	0xbdaab7e6	-0.08335857
110	0xbb88130b	-0.0041526607
111	0x3d6bda0a	0.057580985
112	0x3dbb2f5f	0.09139895
113	0x3cab8cdd	0.020941192
114	0x3d8b66f0	0.06806743
115	0x3d489b6e	0.048976354
116	0x3d350ae5	0.044199843
117	0x3d5a2e67	0.05326691
118	0x3ce9349f	0.028467475
119	0xbbe79ebd	-0.0070684836
120	0xbd76ca84	-0.060251728
121	0x35bad4ef	1.3920052e-06
122	0x3d696108	0.0569773
123	0xbd63475e	-0.055487983
124	0x3d829c06	0.06377415
125	0x3d73b051	0.05949432
126	0xbc597246	-0.013271874
127	0x3c858425	0.016298363
128	0xbce53d60	-0.027983367
129	0xbdcae55e	-0.099070296
130	0x3df815a3	0.12113502
131	0x3d9ef40c	0.07761392
132	0x3c3733e8	0.011181809
133	0x3d0e281e	0.034706227
134	0x3d88a54c	0.06672153
135	0xbc32b7d8	-0.01090809
136	0x3de1a501	0.110178
137	0x3d38b7c0	0.045097113
138	0xbd4d2a56	-0.050089203
139	0xbdb98c23	-0.09059932
140	0x3d2a567e	0.04158639
141	0xbd2e78fe	-0.042595856
142	0xbc0220e2	-0.00794241
143	0xbe012a61	-0.12613823
144	0xbc1a6465	-0.00942335
145	0xbbd403c4	-0.0064701755
146	0x3b404e7d	0.0029343658
147	0x3dd017ba	0.101607755
148	0x3dc6c305	0.09705166
149	0xbd19a828	-0.037513882
150	0x3dbc8a95	0.0920612
151	0xbcd01c28	-0.025404051
152	0xbdc84ff5	-0.097808756
153	0x3cf9f731	0.030513378
154	0xbd381791	-0.04494435
155	0x3d7d6d09	0.061871562
156	0xbce5f33d	-0.028070087
157	0xbde2df2a	-0.110777214
158	0xbd20c37a	-0.03924892
159	0xbd2eb983	-0.042657387
160	0xbd676a7c	-0.056498036
161	0xbdba2941	-0.090899
162	0x3a637a61	0.00086775987
163	0xbd2d27b2	-0.042274185
164	0xbd3294b8	-0.04359886
165	0xbdef4fb5	-0.11685125
166	0xbd21f833	-0.03954334
167	0xbdf61284	-0.1201525
168	0xbb841ef9	-0.0040320125
169	0x3dfa9b35	0.12236635
170	0xbe064644	-0.13112742
171	0xbdc0ebc4	-0.09419969
172	0xbde43a96	-0.11143987
173	0xbda7106b	-0.08157428
174	0xbd21af6b	-0.039473932
175	0x3bf3672b	0.00742807
176	0xbddaa734	-0.10676423
177	0x3d35dec5	0.044401903
178	0xbd9886c9	-0.07447583
179	0x3d89dfd8	0.06732148
180	0xbc5fd061	-0.013660521
181	0xbd8d276b	-0.06892284
182	0xbd776046	-0.060394548
183	0x3d245b53	0.040126156
184	0xbc40dd5a	-0.011771524
185	0xbd8f2c01	-0.06990815
186	0x3bf05786	0.0073346524
187	0x3a959492	0.0011412075
188	0xbd55fbd7	-0.052242126
189	0xbd5ad39f	-0.053424474
190	0xbd95f6fc	-0.07322499
191	0xbe00bc7b	-0.125719
192	0xbd631d94	-0.05544813
193	0x3de834fc	0.11338231
194	0xbe38fa63	-0.18064265
195	0x3ce61071	0.028084012
196	0xbc8dd52a	-0.017313559
197	0xbbb623ea	-0.0055584805
198	0xbc534ce9	-0.012896755
199	0xbd4ff49f	-0.0507704
200	0xbca10fc1	-0.019660832
201	0xbd985488	-0.07437998
202	0xbdfb37e5	-0.122665204
203	0xbdaa2c9d	-0.083092906
204	0xbd9504fc	-0.07276341
205	0x3d65e601	0.056127552
206	0xbde1f928	-0.11033851
207	0x3c828e9e	0.015937146
208	0xbd72c739	-0.059272025
209	0xbc0551a5	-0.008137141
210	0x3c92123a	0.017830957
211	0x3d53fb4c	0.051753327
212	0xbdc1934c	-0.09451923
213	0x3d21ed4c	0.039532945
214	0x3b4de824	0.0031418884
215	0xbd3bbb9b	-0.04583321
216	0xbd69d2e7	-0.057085898
217	0xbd25768f	-0.04039627
218	0xbdc2d50c	-0.09513292
219	0xbdaf463e	-0.085583195
220	0x3cdd5867	0.027019693
221	0xbc765114	-0.015033979
222	0xbc034bde	-0.008013694
223	0xbc4d929f	-0.012547164
224	0x3bb6e7f2	0.0055818493
225	0xbcb91727	-0.022594048
226	0xbda17b15	-0.07884804
227	0xbc9ef0f6	-0.019402009
228	0x3dc77bfc	0.09740445
229	0x3d975e3b	0.0739102
230	0x3c9a5a34	0.01884184
231	0xbc6243c8	-0.013810106
232	0xbd8baae5	-0.06819705
233	0xbda76306	-0.08173184
234	0x3d89a938	0.06721729
235	0x3d74d6b5	0.059775073
236	0xbd7292a5	-0.059221882
237	0xbd037718	-0.032096
238	0x3c1e0183	0.009643915
239	0x3d4a342c	0.04936616
240	0x3da9dd79	0.08294196
241	0x3c140bfc	0.00903606
242	0x3db173c3	0.08664658
243	0x3d3b2574	0.045690015
244	0xbd455748	-0.04817894
245	0x3db518d9	0.0884263
246	0xbc1b0be6	-0.009463286
247	0x3da76cd8	0.08175057
248	0x3dc09ca5	0.094048776
249	0x3cb7fa12	0.02245811
250	0x3d3e6035	0.04647847
251	0xbc9a0d2b	-0.018805107
252	0xbcfe7f5f	-0.031066595
253	0xbce7b05e	-0.02828234
254	0x3cf4264a	0.029803414
255	0xbd2f059c	-0.04272996

bias f4 [128]
0	0xbd9bdf49	-0.07610948
1	0x3beee724	0.0072907377
2	0x3d8b50b0	0.06802499
3	0x3d3587f9	0.044319127
4	0x3c89a67c	0.016803019
5	0xbd9df903	-0.07713511
6	0xbd9c2c2d	-0.07625613
7	0x3d49c871	0.04926342
8	0x3d2df70d	0.042471934
9	0xbce51966	-0.027966212
10	0xbdd6f27d	-0.1049547
11	0x3d6b7b8a	0.057490863
12	0x3ccce7bd	0.025012845
13	0xbdf01a4c	-0.11723766
14	0xbdaafe05	-0.08349232
15	0xbdbbc768	-0.09168893
16	0x3b6539bb	0.0034977037
17	0xbe07818c	-0.13233012
18	0x3d1f5e9c	0.038908586
19	0xbd8ad9c3	-0.06779816
20	0xbca22b38	-0.019795999
21	0xbdb9c64d	-0.09071026
22	0xbd088385	-0.03332855
23	0xbceabe7d	-0.028655285
24	0xbde0ac51	-0.10970367
25	0xbd517244	-0.051134363
26	0x3bd042f8	0.0063556395
27	0xbe1aee4f	-0.1512997
28	0x3d1ff4e6	0.039051913
29	0xbdc3387e	-0.095322594
30	0xbc9c7efb	-0.019103518
31	0x3ccb8ec3	0.024848348
32	0xbdea07dc	-0.1142728
33	0x3d048105	0.032349605
34	0x3dc4a721	0.0960219
35	0x3d5b61ab	0.05355994
36	0xbd9f5717	-0.07780283
37	0x3d974a40	0.07387209
38	0x3c023617	0.007947466
39	0xbd6ce448	-0.057834893
40	0x3b16312a	0.0022917488
41	0xbd7ed20d	-0.06221204
42	0xbbbf4719	-0.005837333
43	0xbc88ee24	-0.016715117
44	0xbde4a49f	-0.111642115
45	0xbca5c693	-0.02023629
46	0x3da08b01	0.07839013
47	0x3d2144ea	0.039372362
48	0x3dabc920	0.08387971
49	0xbd59cdfb	-0.053174954
50	0x3d399f2d	0.045317817
51	0xbd93ddce	-0.0722004
52	0x3d8d7a51	0.06908096
53	0xbdc31b9f	-0.09526753
54	0x3d6b9d09	0.057522807
55	0xbd1c5746	-0.038169168
56	0xbdc1ca60	-0.09462428
57	0x3d237746	0.03990867
58	0x3d86eb51	0.06587852
59	0xbda4441c	-0.08020803
60	0xbdd38973	-0.10328951
61	0x3c92f4ab	0.017938932
62	0x3c92063f	0.017825244
63	0xbe0f25f3	-0.1397932
64	0xbc28c813	-0.010301608
65	0x3d7dea31	0.06199092
66	0x39b172bc	0.00033845555
67	0x3d81ee3b	0.06344267
68	0xbda297b1	-0.07939089
69	0x3c1b880a	0.009492883
70	0x3ceba648	0.028765813
71	0xbda2f05f	-0.079560034
72	0x3b3c5904	0.002873958
73	0x3d3a55e0	0.045492053
74	0xbdd4e24a	-0.10394724
75	0xbcacd794	-0.02109889
76	0xbc8ac0ef	-0.016937701
77	0x3cf61806	0.030040752
78	0xbcc7c4a7	-0.024385763
79	0x3c7325aa	0.014840523
80	0x3c803673	0.015650963
81	0x3d84b933	0.064806364
82	0x3cf0e3a8	0.02940543
83	0x3db00f98	0.08596724
84	0xbdc081d5	-0.093997635
85	0x3db64291	0.08899415
86	0xbce2ad96	-0.027670663
87	0x3cacae1c	0.021079116
88	0x3caf4e79	0.021399723
89	0x3d530c1e	0.051525228
90	0xbd1063d7	-0.035251465
91	0x3cb0a5b2	0.021563385
92	0xbabfeca8	-0.0014642673
93	0xbd89d4a3	-0.0673001
94	0xbdbe3f31	-0.092893966
95	0xbc6d832f	-0.014496609
96	0xbe0c6b14	-0.13712722
97	0x3de361c2	0.1110263
98	0xbd8a771a	-0.06760998
99	0xbdb4a1e5	-0.088199414
100	0x3d1a6106	0.037690185
101	0xbe038d9d	-0.1284699
102	0xbbddd2bd	-0.0067695067
103	0x3c1e0069	0.0096436525
104	0xbd814e6e	-0.063137874
105	0xbc5aa816	-0.013345739
106	0x3d06f23f	0.032945868
107	0x3de30f24	0.11086872
108	0xbe3a849b	-0.18214647
109	0xbd17d1ab	-0.03706519
110	0x3c2ec75f	0.010667651
111	0x3dad4569	0.084605046
112	0x3d19da7f	0.03756189
113	0xbdb3b03e	-0.0877385
114	0x3d160629	0.03662697
115	0xbdaa14ae	-0.083047256
116	0xbd9311af	-0.07181107
117	0xbdb82443	-0.089912914
118	0xbde085a9	-0.10962994
119	0xbcbbca99	-0.022923755
120	0xbddfbcd4	-0.10924688
121	0x3d3ebcc5	0.046566743
122	0xbdb276e0	-0.0871408
123	0xbde8a10f	-0.113588445
124	0xbc50093b	-0.012697513
125	0x3d5b5c53	0.053554844
126	0xbd11aecf	-0.0355671
127	0xbd1237c4	-0.035697713
