results/model/neural_575.model (torch, 686563 bytes, 21 tensors)

weight_ih f4 [384, 5]
000000 d9 90 93 bd 46 24 38 3e af 35 b8 3d 3c 18 0a 3e
       -0.07205362 0.17982587 0.08994614 0.13485807
000010 4d 0e ad 3d ea 35 d5 bb 23 0d 9d bd 7a 1d e6 bc
       0.08449993 -0.006506671 -0.07668521 -0.028090227
000020 3f 4b c8 3c c8 c0 49 bc 09 cf 7b 3d ea 84 98 bd
       0.024449943 -0.012314029 0.06147674 -0.07447226
000030 57 33 6b bd 75 d9 d6 bb 05 de fe 3e 0e c7 1e be
       -0.05742201 -0.0065566846 0.49778762 -0.15505621
000040 73 18 67 3d 28 74 f3 3d f9 2c 7c 3b eb 74 29 be
       0.0564198 0.118873894 0.0038478954 -0.16548507
000050 26 7a 08 bc 95 e0 84 be 09 6e a5 bd f0 73 02 bd
       -0.008329904 -0.25952592 -0.08077628 -0.031848848
000060 09 65 2f 3e 27 85 af 3c 03 c0 dd 3d 52 a4 04 bd
       0.17128386 0.021425797 0.10827639 -0.03238327
000070 ec af 56 3d 15 d8 3b bd 24 f4 09 3e 81 7f cf 3d
       0.052413866 -0.04586037 0.13472039 0.10131741
000080 ff ca 9d bd 76 06 96 3c 15 9c 49 bd bf ee 1c 3c
       -0.07704734 0.018313628 -0.049221117 0.009578406
000090 49 b3 41 be c9 ee 5c 3d 55 04 38 3d c0 3c 90 3d
       -0.18916048 0.05393866 0.044926006 0.07042837
0000a0 8d b7 d7 3d b5 d8 6e 3e c4 6b 21 3e 70 ae 39 3d
       0.105330564 0.23324855 0.15763766 0.045332372
0000b0 38 14 82 be e0 03 8f 3d 2c 29 ff bd 58 98 18 3e
       -0.2540605 0.06983161 -0.12459025 0.14901865
0000c0 83 81 4c 3d ad f1 cc 3c 1a 0c e5 3d 76 80 b6 3c
       0.0499282 0.025017584 0.11183949 0.022278052
0000d0 c9 6b 0b be b2 45 ed 3d 25 20 34 3e 73 24 09 be
       -0.13615336 0.11585559 0.17590387 -0.1339281
0000e0 ec 6c fd 3d 9f 8a 29 3e 83 2e 83 3d ad 61 2d bd
       0.12374291 0.16556786 0.06405356 -0.04232948
0000f0 de 41 4f bd 38 e9 9b 3d 2e 12 61 3b 1b 48 17 3e
       -0.050599925 0.07612842 0.0034343111 0.147736
000100 b8 29 88 3d ed 69 30 bd 4f 85 37 bd 1b a9 16 3e
       0.06648582 -0.04306977 -0.044804867 0.14712946
000110 46 42 8b bd e0 14 d0 bc d3 b2 aa bd 73 4b 98 3d
       -0.0679975 -0.025400579 -0.08334889 0.07436266
000120 4e b4 9c 3d d0 0b 80 3d dd f9 4b 3e 20 c6 08 3e
       0.07651578 0.06252253 0.19919534 0.13356829
000130 8f 10 aa bd 83 31 38 bd 2b 5d d2 bd 0d 0c bb 3e
       -0.083039396 -0.044969093 -0.10271677 0.36532632
000140 24 82 91 be e7 2f 3f 3e 97 1c be bc 81 82 6b 3d
       -0.28419602 0.18670617 -0.023206992 0.057497505
000150 8f 67 32 be 92 02 95 bd 61 1e b8 3d 89 60 34 bd
       -0.17422317 -0.07275881 0.08990169 -0.044037376
000160 11 2b 19 3e ed fe 1c bf d9 3b 72 3e d8 a6 af be
       0.14957835 -0.61326486 0.23655643 -0.3430698
000170 e3 4c be 3d be e2 55 be 6d 95 3a 3f 20 17 5f 3e
       0.09292009 -0.20887277 0.72884256 0.21786165
000180 54 09 6d bd 23 35 14 bd 8e 13 02 3d 72 91 af bd
       -0.057870224 -0.036183488 0.03175693 -0.08572663
000190 bd 3c f4 bd 67 9f 3d 3d c3 af b2 bd 63 8f 4a bd
       -0.119256474 0.046294596 -0.0872493 -0.04945315
0001a0 30 96 d8 bc 30 6a e6 3b 93 bc 7a 3c d9 92 2c 3e
       -0.026438802 0.0070317015 0.015303749 0.16852893
0001b0 1c 45 d0 3d 15 5c 03 3b 39 ae 78 be 93 f7 57 be
       0.101694316 0.00200439 -0.2428521 -0.21090536
0001c0 3a 10 0b 3e f8 4f 8d bc 62 ce bc 3c 03 6d 2d 3d
       0.13580409 -0.017250046 0.02304763 0.04234029
0001d0 bf 31 94 bc e2 d0 f2 bd e8 29 fe ba 06 a1 69 bd
       -0.018090127 -0.118562475 -0.0019391151 -0.05703833
0001e0 a7 4f 25 3d 91 27 f2 3c ba 76 5c 3e cb f8 d0 bc
       0.040359166 0.029559882 0.21529666 -0.025509259
0001f0 17 f0 29 3e 20 30 6c 3e 61 aa fa bc e7 73 82 3d
       0.16595493 0.23065233 -0.030598821 0.06369763
000200 38 61 83 bd 63 02 21 3b fd 20 e0 3d 65 cc 80 be
       -0.064150274 0.0024568073 0.10943792 -0.2515594
000210 a6 d2 53 3e 06 0a 38 bc cb 88 82 3e 7c e2 81 bc
       0.20685825 -0.0112328585 0.2549499 -0.015855066
000220 81 e6 e6 bd 0f be aa bd 3c 1e 8a 3d 2b a4 7e 3e
       -0.11274434 -0.08337032 0.06744048 0.24867313
000230 b8 a2 28 3d ca 28 83 3c 2b f4 d4 3c 32 d0 45 3d
       0.041170806 0.01601066 0.025995335 0.048294254
000240 e9 29 a7 3d bd 1b 08 3e 35 7a 31 be 03 cc c7 bc
       0.081622906 0.13291831 -0.17331775 -0.024389273
000250 7b 14 82 3d 4b 01 e6 3d d7 ea 47 3b ed bc 07 bd
       0.063515626 0.11230715 0.0030504966 -0.033139158
000260 da 14 1c be a7 45 f4 3d 65 98 99 3e ea 35 0e be
       -0.15242329 0.11927348 0.2999908 -0.13887754
000270 be 36 0b bd c6 f6 c1 3d 9d d7 a8 bc 0d cb 38 be
       -0.033987753 0.094708964 -0.020610625 -0.18046208
000280 f2 1d b9 bc e8 35 b8 bd 2b ef 3d be 49 f3 40 3e
       -0.022597287 -0.08994657 -0.18548267 0.18842806
000290 cc 1e b2 3e 5a 95 f5 bd 75 af 19 bd f3 ac d3 3d
       0.3478912 -0.11991377 -0.037520844 0.10335722
0002a0 f4 7d 8b b9 60 cd 18 bd a0 26 fc 3a cf 73 65 bd
       -0.00026605988 -0.037305236 0.0019237585 -0.056018647
0002b0 f3 54 ea bd f0 ce fe 3c 28 8b aa 3c 7d 4b 87 bd
       -0.11441984 0.031104535 0.020818308 -0.06606195
0002c0 f9 db 33 bd b7 7c e1 3d 83 50 c9 bd 39 a7 b3 be
       -0.043910954 0.110101156 -0.098298095 -0.35088518
0002d0 62 dc 2c be cc db 2d bd 85 c8 be bd cf e6 14 be
       -0.16880944 -0.042445943 -0.0931559 -0.14541171
0002e0 b7 ca 1c 3e 16 b9 79 3d 3b e1 19 3e 6b b9 9a 3e
       0.15311705 0.060967527 0.15027325 0.30219588
0002f0 ef 0e fd bc e8 a9 86 be f1 2f 84 3d 09 cd d3 bb
       -0.03089091 -0.26301503 0.064544566 -0.006463651
000300 27 da ee 3d 4d 85 ae 3d c4 bc 9b be 97 f4 3b 3d
       0.11662703 0.08521519 -0.30417454 0.045887556
000310 43 d5 e0 3c 68 b6 72 3e ae 60 29 3e 79 d0 04 3e
       0.027445441 0.23702395 0.16540787 0.12970151
000320 8f be 89 bd e5 a3 b6 bd 78 4a 39 be 5f 46 92 bd
       -0.06725799 -0.08917979 -0.18094814 -0.071423285
000330 c2 d2 4b 3e 37 18 fc 3c a5 9c b2 bc 8c 04 12 3e
       0.19904616 0.030773265 -0.02180321 0.14259547
000340 10 95 2c 3e 22 e6 23 3d 64 02 d1 bd 72 07 1e be
       0.16853738 0.040014394 -0.10205534 -0.15432528
000350 95 2e 6b bd 95 64 d8 bd 3d 98 c3 3d 5f 1a e3 3c
       -0.05741747 -0.105660595 0.095505215 0.027722536
000360 3e 5d 03 3c e0 a6 31 be 92 4c 49 bd 2a 71 f9 3e
       0.008017836 -0.17348814 -0.04914529 0.4871915
000370 22 9c f4 3c 0d f7 5e 3d 9d bc 9d 3d 59 51 36 3e
       0.029859606 0.054434825 0.07701991 0.17804469
000380 f9 d2 b3 3d 39 5a d0 bd 44 ad cf bd 35 ae 84 bd
       0.08780474 -0.101734586 -0.1014047 -0.0647854
000390 f5 dd 3d 3c 27 c5 b6 bd de 4b 19 be 33 dc 95 b9
       0.011588563 -0.089243226 -0.14970347 -0.00028583556
0003a0 0c 23 18 3e db 6b 28 be 83 eb a7 be 7c 35 9d 3d
       0.1485712 -0.16447394 -0.3279687 0.07676217
0003b0 03 38 2c bd 66 e2 0e bd a6 e5 94 3d 9b 06 66 bd
       -0.042045604 -0.03488388 0.072703645 -0.056158643
0003c0 89 79 b7 3c cb 76 37 be 98 84 0d be 87 7c 2c bb
       0.02239682 -0.1791641 -0.13820112 -0.0026319341
0003d0 de 51 d3 3e 10 0f 77 3e e4 30 7e be 02 c0 3b 3d
       0.41273397 0.2412684 -0.24823338 0.04583741
0003e0 78 8d 19 3e b1 b3 75 3d 34 e3 c4 3d 21 3d 30 3e
       0.14995372 0.05998582 0.09613648 0.17210819
0003f0 e5 89 59 3e 1a 5f 99 bb 0c 57 9f 3e 09 3b 0f bd
       0.21244009 -0.0046805264 0.311211 -0.03496841

weight_hh f4 [384, 128]
000000 d7 d0 ea 3c e9 ef 80 bd f0 d0 9e 3e 03 2a ae bd
       0.028664036 -0.06295759 0.31018782 -0.08504107
000010 0e 7c c0 3d de d8 16 be 57 05 b4 bd 8a 1c 3c be
       0.093986616 -0.14731166 -0.08790081 -0.18370262
000020 27 ee b2 bc ce e2 08 be 47 a1 fb bd e9 2c 0e 3e
       -0.021842076 -0.13367769 -0.122866206 0.1388432
000030 08 e7 8d 3d 8d bd 87 bd 5b 3c 24 bd ba 5c 13 be
       0.06928831 -0.06627951 -0.040096622 -0.14390841
000040 d7 6c 69 3b dc 1b ad be c3 53 50 be ce 89 eb bc
       0.0035617852 -0.33810318 -0.20344453 -0.028752234
000050 44 32 70 bd 24 00 56 bd 87 30 6d bd 30 0e dc bd
       -0.058641687 -0.052246228 -0.057907607 -0.107448936
000060 ba c1 a8 bd 0a 91 bc 3d a8 d5 97 3e 2f fa 16 be
       -0.082400754 0.092073515 0.29655194 -0.14743875
000070 20 af 3d 3d 8e 2b 21 3d 8e fd c5 3c d6 5c a8 bd
       0.04630959 0.039348178 0.024168756 -0.08220832
000080 11 be 6d 3d 4a 2d 10 be 60 8c 9c bb c5 81 61 bd
       0.05804259 -0.14079776 -0.004777476 -0.0550554
000090 68 7a b0 bd 29 5e ea 3c 42 ef b7 3d 3f 71 df bd
       -0.08617097 0.028609352 0.08981182 -0.10910272
0000a0 b3 ed a8 3c 08 48 42 bd 01 15 b2 3c 86 c2 b1 bc
       0.020621156 -0.047431976 0.021738531 -0.021699201
0000b0 ce 37 58 3e c3 bc c2 3c da a0 00 3d ad 55 41 be
       0.21115038 0.02377165 0.0314034 -0.18880339
0000c0 4b 47 15 bd bd ff 5a be 23 ad 53 be a4 76 a0 be
       -0.036444943 -0.21386619 -0.20671515 -0.31340516
0000d0 b7 21 74 bd 2c 2c c2 3c 6c 82 c8 bd f0 e3 1c be
       -0.059602465 0.023702703 -0.09790501 -0.15321326
0000e0 0b 62 d3 3d 12 c5 4b bd 3f 24 18 be 63 33 1e bd
       0.103214346 -0.049748488 -0.14857577 -0.038623225
0000f0 06 5b 66 3d dd 41 03 3e d7 52 ff 3d c0 f5 3e be
       0.05623915 0.12818094 0.12466972 -0.18648434
000100 5e e6 9a be f1 18 ba bd 27 9b 80 be 49 8c 26 bd
       -0.3025388 -0.090867884 -0.25118372 -0.04066113
000110 1d 70 1f 3d dc 61 d4 3d 6a 8b 07 be ab 9b 2c 3e
       0.03892528 0.10370228 -0.13236776 0.16856258
000120 30 95 7e 3e 61 a2 33 be de 64 ff 3c 10 72 04 bf
       0.24861598 -0.17542411 0.031176027 -0.51736546
000130 07 ec 5f be 40 e1 b5 3d dd c4 80 be 03 9b 82 3e
       -0.21867381 0.08880854 -0.25150195 0.2550889
000140 23 bb 4b be 09 3b ee bc be 6c 83 3d 57 63 98 3d
       -0.19895606 -0.029080885 0.06417225 0.074408226
000150 91 d9 88 bd f1 b5 c4 bc d1 cd dc bd c9 48 63 be
       -0.066821225 -0.024012538 -0.10781444 -0.22195734
000160 99 23 21 3c ed 0f b7 be 87 7b 4a 3e ff 00 08 3c
       0.009835147 -0.35754338 0.19773684 0.008301019
000170 f3 5b 8b 3c f4 6b 90 be 7f e9 00 3e 4f 1b ad be
       0.017011618 -0.28207362 0.12589072 -0.33809897
000180 e5 dd a5 3d e5 19 fa 3d d2 7c 4d 3e c4 ae 9f 3a
       0.08098964 0.1221197 0.20067146 0.0012182822
000190 44 63 b0 be b5 83 eb bd 28 db 6f 3e 4b d4 24 be
       -0.34450734 -0.114997305 0.23423445 -0.16096608
0001a0 e8 96 05 be 1b 94 09 3e 98 d4 2a bd d8 9b 63 be
       -0.13045847 0.13435404 -0.04170665 -0.22227418
0001b0 e3 4c ae bd 94 f1 27 be dc d9 58 be c9 a6 b0 bd
       -0.08510759 -0.16400748 -0.21176857 -0.08625562
0001c0 47 3a 02 bd 93 a0 ab 3d 59 0e 2c bd fc 67 81 be
       -0.03179386 0.083802365 -0.04200587 -0.25274646
0001d0 ed eb 3d 3e 90 a3 21 be 0f 72 0c 3e 06 26 31 bd
       0.1854703 -0.1578505 0.13715385 -0.043249153
0001e0 61 f2 01 3e 70 dd bf 3d 24 83 f3 bd 0f 49 fe 3c
       0.12690116 0.09368408 -0.118902475 0.031040696
0001f0 76 26 99 3d a4 6c 83 bd 82 98 7a 3d 65 fb 65 3e
       0.07478039 -0.06417206 0.0611806 0.2245918
000200 b1 16 f1 3d 02 e3 db 3d 26 b4 17 3d 39 7a 97 3d
       0.11771906 0.10736658 0.037037037 0.07396359
000210 27 91 2c 3e db 53 82 be bf 79 68 3d 26 c8 50 be
       0.16852246 -0.25454602 0.05675673 -0.2038885
000220 36 fc 27 3e b6 0f bf 3d 9a 9a 9d bd 9e b2 8e 3e
       0.16404805 0.093291685 -0.076955035 0.2787065
000230 0e 46 12 be b0 3d a2 bd 95 5f 3e be 83 31 12 be
       -0.14284536 -0.07921922 -0.18591149 -0.142767
000240 16 6b 56 3d 7a a1 94 3e 90 5d 00 3c ac 63 c0 3c
       0.05234822 0.29029447 0.007834807 0.023485027
000250 3d af 3d 3e d8 7a 6e 3c 1d b8 e2 3d ed 79 8e 3d
       0.1852388 0.014555655 0.11070273 0.06956849
000260 80 ea 26 3c f7 39 22 3e 7c ac 3f 3e 50 de a5 3b
       0.010187745 0.15842424 0.18718141 0.005061902
000270 69 b6 ba bd 98 ac 8f 3c 2c 96 ea 3c c8 a7 6b be
       -0.09116823 0.017538354 0.02863606 -0.23013222
000280 87 b1 2a bd e4 01 3e 3e 32 d6 ce 3d 0f 17 c4 bd
       -0.04167321 0.18555409 0.10099448 -0.095747106
000290 ff f9 31 3e 34 bd 0b 3e bf 40 87 bd b3 6f 44 3d
       0.17380522 0.13646394 -0.06604146 0.047958087
0002a0 e3 57 87 3b 20 e1 a9 3e 6b b5 e2 bc 09 e3 f1 bd
       0.00413035 0.3317957 -0.027674397 -0.11810882
0002b0 1e 3b 32 3c c5 37 27 3e fb f6 3f bd 19 51 c5 3d
       0.010878352 0.16329868 -0.0468664 0.09634609
0002c0 14 2b 83 3d 91 25 70 3d 2f 36 66 3d e3 ea 48 be
       0.06404701 0.058629576 0.056204017 -0.19620852
0002d0 cf 43 0b be 55 f7 6f be 84 fd 92 3d da f7 0a bd
       -0.13600086 -0.23434193 0.071772605 -0.033927776
0002e0 43 70 7b 3e 3e 51 ba bc b6 fd b1 be f8 a2 cf bd
       0.24554543 -0.022743817 -0.3476388 -0.10138506
0002f0 e6 7b ac bc f6 ba ab 3d af 99 a3 3c 02 13 20 3e
       -0.021055173 0.08385269 0.019970743 0.15632251
000300 ea c2 22 3e fd 8f 70 bd 7e 38 a2 ba 9d cb 6c bc
       0.15894666 -0.058731068 -0.0012376455 -0.014452842
000310 42 50 9a 3d 2e c2 98 3e 4c d2 c0 3c 68 63 56 3c
       0.07534839 0.29835647 0.023537777 0.013085224
000320 b8 10 ce bd b1 3a 61 be 8a 42 11 bd 71 1e 57 be
       -0.100617826 -0.21995045 -0.035463847 -0.21007706
000330 94 60 33 be 50 f3 38 be ae 22 5f 3e 0f 4b 05 3e
       -0.1751731 -0.18061566 0.21790573 0.13016914
000340 42 5c 25 ba fa 24 8b 3d 89 ae 4c 3d e8 b4 96 3c
       -0.0006307998 0.06794162 0.049971137 0.01839681
000350 c8 b1 25 bd 92 16 45 3d d2 02 d5 bc f3 b1 8c bd
       -0.04045275 0.048117228 -0.026002321 -0.068698786
000360 32 9a f9 3c 93 c4 f4 bd 93 f7 ef 3d ea 30 e9 bd
       0.030469034 -0.11951556 0.11717143 -0.11386283
000370 44 5e 24 bd 90 b8 80 3d c3 c1 48 bd ed 7c 3d be
       -0.04012896 0.062852025 -0.04901291 -0.18504687
000380 c9 ef 33 3e de d7 61 bd 9f e0 2f be 66 ec 9c 3d
       0.1757194 -0.055137508 -0.1717553 0.07662277
000390 f1 a9 b9 bd 73 1e 77 bd a3 64 b4 3d a5 b7 8a be
       -0.09065617 -0.060331773 0.088082574 -0.27093235
0003a0 c1 00 95 bb 5d 8d 78 3d 86 d8 92 3d fc 21 83 be
       -0.004547209 0.06068169 0.07170205 -0.25611866
0003b0 16 89 37 be 99 45 09 be 54 9b 27 be c4 cb 3d bd
       -0.17923388 -0.13405456 -0.16367847 -0.046336904
0003c0 9f 45 04 3e 4e e2 1b be 68 6d e5 bd de c4 ab 3d
       0.12917183 -0.15223047 -0.11202508 0.08387159
0003d0 56 06 b5 3e 1f 67 20 bd 17 ca 59 bd 8c 0b 25 3e
       0.35356396 -0.039160844 -0.053171244 0.16117686
0003e0 8d f1 43 bd 1a 9d 01 be 9b 7a 6a 3d ad 93 c4 bd
       -0.047837783 -0.12657586 0.057245832 -0.095984794
0003f0 b5 03 27 3e 13 7d 33 be 78 cd 40 3d 75 55 5f 3d
       0.16310008 -0.17528181 0.04707095 0.054524858

bias_ih f4 [384]
000000 46 e0 03 be 22 37 e2 3d 1b 78 ea 3d 3c 8f 46 bc
       -0.12878522 0.11045672 0.114486896 -0.012119111
000010 64 f2 92 3d 00 ae b0 3d 41 81 5e 3d 25 ac 37 3d
       0.071751386 0.08626938 0.054322485 0.044841904
000020 ef 69 9b 3c a1 98 bf 3d fc 89 5d 3e 51 6e 5e 3d
       0.018971412 0.093552835 0.21634668 0.054304425
000030 8f b0 31 3e e6 21 c0 bd 87 ca 1c 3d 1f 0b 93 bd
       0.17352508 -0.093814656 0.038279083 -0.071798556
000040 59 f6 f8 3d 40 5b 45 3e c7 71 2d be 90 74 e9 3c
       0.12156362 0.1927309 -0.16937934 0.028497964
000050 08 46 04 3c 49 e3 b1 3a be 6d 9b bd 65 b3 ca 3a
       0.008073337 0.0013571765 -0.07589291 0.0015464841
000060 70 45 b2 3c 5c e9 d0 bd 96 f5 b5 bb 04 da 8e 3d
       0.021761626 -0.1020076 -0.0055529578 0.06975177
000070 b7 d5 ea 3d 29 a3 ce 3c 01 11 72 3d 98 ce 5a 3d
       0.11466544 0.025224285 0.059098247 0.05341968
000080 0f 40 05 3e 25 6c fe bc ba 3e fd bc d8 41 24 3d
       0.13012718 -0.031057427 -0.0309137 0.040101856
000090 35 fb e5 bd 02 4c 21 3e 7b dd 08 3e 69 80 2b 3e
       -0.112295546 0.15751651 0.13365738 0.16748203
0000a0 94 1b 1e be 3d f7 d3 3d 48 38 34 bd 43 f3 84 3d
       -0.15440208 0.10349891 -0.043998986 0.06491711
0000b0 71 cf 66 3e a9 8a b4 ba a1 a4 56 bd 2b a8 6a 3e
       0.2254007 -0.0013774234 -0.052403096 0.22915713
0000c0 8f a3 9c 3d 2f df a2 3e 65 36 9b 3d f5 6c a6 bd
       0.07648384 0.318109 0.07578734 -0.08126251
0000d0 d0 e3 7c 3d aa ae 07 3e 97 26 39 bd 8a 0a 87 3d
       0.061740696 0.13250223 -0.045202818 0.06593807
0000e0 89 4a df 3d 05 66 3c bd d4 16 25 b9 66 d0 08 3e
       0.10902888 -0.04599573 -0.0001574413 0.13360748
0000f0 2b 51 44 3e 65 a2 18 bd 59 69 1a 3d 68 19 9a bd
       0.19171588 -0.037264246 0.037698124 -0.07524377
000100 1d f6 57 bd 5d f6 38 3d 59 a9 86 3e 4e 74 1a 3e
       -0.052724946 0.045156825 0.26301077 0.15083429
000110 05 75 ef 3c 04 3c 20 3e d8 81 c8 bb bb 44 5d bb
       0.029230604 0.15647894 -0.006118994 -0.003376289
000120 1c d1 7f bd ee ae 42 3e 8a cb 83 3d 16 40 b5 bd
       -0.06245528 0.19012043 0.06435306 -0.08850114
000130 f1 d6 64 ba 64 6b ae bc 84 4d bd 3d 63 27 4b 3e
       -0.00087295385 -0.021291442 0.092433006 0.19839244
000140 7d 75 83 3d 15 35 b5 3d bd 1c b0 3a ac 17 d2 3d
       0.064188935 0.08848015 0.0013436299 0.10258421
000150 2f 57 f2 3d 2a d9 43 3e a4 b7 f4 3c ba d8 35 bd
       0.11833035 0.1912581 0.029872723 -0.04439614
000160 72 7b b7 bc d4 14 0b 3e 44 6e 0a bc 7f 7d b2 3d
       -0.02239773 0.13582164 -0.008449141 0.08715343
000170 c2 b8 55 bb 6f 12 98 bc 2b 80 60 bc 16 6e b5 3d
       -0.0032611345 -0.018563477 -0.013702433 0.08858888
000180 6e 5d 2c 3e 62 4e 21 3e b6 db 1a 3d 2f bf 53 3d
       0.16832516 0.15752557 0.03780719 0.051696
000190 49 ca 85 3c 08 a6 77 3d f3 8e c3 bd 31 54 46 be
       0.016331809 0.060461074 -0.0954875 -0.19368054
0001a0 7c 5f 55 3c e8 f1 c1 bc ea 06 9d 3d 97 ef aa 3d
       0.0130232535 -0.02367492 0.076673344 0.083464794
0001b0 df 0c 19 3e c0 e3 13 3e 8c 08 84 3e fa 83 c5 3d
       0.14946316 0.14442348 0.2578777 0.09644313
0001c0 93 7e 27 bd ef 8d 5e bb 48 bf 44 3e bc d0 14 bd
       -0.040892195 -0.003395911 0.19213593 -0.036331877
0001d0 36 19 de 3d 17 a1 18 bd 4c 0b 97 3d 8e 32 30 bd
       0.10844652 -0.037263002 0.073752016 -0.043016963
0001e0 9e 70 b9 3b e5 05 4f 3e 74 18 d8 3d 62 48 05 bd
       0.005659177 0.20217092 0.10551539 -0.032539733
0001f0 58 ea c6 3d 51 da 6f bc 28 c4 8a 3e 38 48 b3 bd
       0.09712666 -0.014639453 0.2710278 -0.08754009
000200 4e 1c 20 bd 21 92 84 3c 1e f8 a4 bd 5c 47 3c 3d
       -0.039089493 0.016182961 -0.08055137 0.04596649
000210 ff 76 2d be c2 6f 21 3e 2b 2c d7 bc 68 12 20 be
       -0.16939925 0.15765288 -0.026266178 -0.15632021
000220 3e 19 54 be 43 86 80 3d c6 15 79 3d 0a 8a e4 bd
       -0.20712754 0.062756084 0.06081178 -0.11159141
000230 c1 d4 44 be 9c 5c a3 bc 71 5e 3e 3d 74 a7 f7 3c
       -0.19221784 -0.01994162 0.046476785 0.030231215
000240 1c 57 17 be 82 82 5a be 7e cb b8 bd e2 3a 05 bd
       -0.14779323 -0.21338847 -0.09023188 -0.03252686
000250 16 d1 72 bd ed 53 d2 3d d9 3a 5e be 0b ee f2 3c
       -0.05928143 0.10269914 -0.21702136 0.029654523
000260 ed b9 85 bd dc 76 99 3d da 4a 3b be 0d 5f 52 be
       -0.06529603 0.07493374 -0.18290272 -0.20544071
000270 d2 61 94 be bc ce 0a bc e4 1f 31 3d cd a8 88 3d
       -0.2898088 -0.008472141 0.043243304 0.06672821
000280 b8 8e 85 3c 2e 1a b4 bd ff 44 67 be c7 07 54 3d
       0.016303405 -0.08794056 -0.22584914 0.05176523
000290 94 a7 d3 bc 2d e9 9c bd 84 54 81 3d 3b 04 7e be
       -0.025836743 -0.07661662 0.06314948 -0.24806301
0002a0 2d b0 88 bd 5c d3 8f be b0 2f fa 3b bc 1a 63 be
       -0.06674228 -0.28090942 0.0076350793 -0.22178167
0002b0 81 63 05 bc e3 d3 7b be 24 f8 dd 3d a6 cd 7f be
       -0.008141399 -0.24592547 0.10838345 -0.24980792
0002c0 f7 78 2f 3d ab 9e c7 bd 0f bf 57 3d bd 2f 95 3d
       0.04283997 -0.097470604 0.052672442 0.07284496
0002d0 e9 3e 62 3a 5f f8 16 be e2 cc 88 bd 4d 86 12 3d
       0.000863059 -0.14743184 -0.06679703 0.03577261
0002e0 c8 de 28 3e 53 e6 3e 3d aa 71 fb bd 9c 0a 65 be
       0.16491234 0.046606373 -0.12277539 -0.22367328
0002f0 33 12 77 be 63 5c 8b 3c 88 01 5e bd 5c be a3 bd
       -0.24128036 0.017011827 -0.05420068 -0.079952925
000300 54 3a 85 be 32 1a 66 bd 6d b7 aa be dc 21 21 bd
       -0.26021063 -0.056177326 -0.33343068 -0.03933893
000310 f4 52 9a bc ce 0c 82 bd 5a 52 9c bd bf 93 8d be
       -0.018838383 -0.063500986 -0.07632895 -0.27651784
000320 2f 4f cd bc 2b a4 f7 3c c5 a4 32 3d ab eb dc bd
       -0.025062172 0.030229649 0.043614168 -0.107871376
000330 f2 81 cb 3d fd 6b 4b be e2 2f 69 be 29 8c 51 be
       0.099368945 -0.19865413 -0.22772172 -0.20463623
000340 c8 2a 6c be c0 42 88 bd 5e 81 3b 3e 8a 53 9f 3c
       -0.23063195 -0.066533566 0.18311068 0.019449014
000350 14 84 b0 bc 7e 72 43 3c d9 da 0a be c6 a8 91 bd
       -0.021547355 0.0119291525 -0.13560046 -0.07112269
000360 97 34 49 bd 15 7a 5d bd fb a0 1b bd b4 13 01 be
       -0.04912242 -0.054071505 -0.03799532 -0.12605172
000370 46 7b e1 bd ce 95 91 bd ae 60 eb bd fe ae b0 3d
       -0.11009841 -0.07108651 -0.114930496 0.08627127
000380 1e 5c 7c be f8 38 73 bd 2a 1a 42 be 7c 39 06 bd
       -0.24644515 -0.0593805 -0.18955293 -0.032769665
000390 33 87 b7 bd e6 8b 45 bc 1d 10 68 be 01 3e 32 3c
       -0.08961334 -0.01205728 -0.22662397 0.010879041
0003a0 41 6f 04 3c c7 6a 6e 3e b6 f7 30 bc b4 c9 58 be
       0.008083166 0.2328292 -0.010801246 -0.21170694
0003b0 7c fb f9 3c bb 6e 0c 3e d6 5b 3f 3d 54 89 ae 3b
       0.030515425 0.13714115 0.04671844 0.0053264294
0003c0 b6 49 0b 3e 89 a8 ae 3d 15 01 30 3e 37 ca 19 bd
       0.13602337 0.08528239 0.17187913 -0.037546363
0003d0 67 c9 71 bd aa ff e2 bd f5 53 5e 3d 96 39 99 bd
       -0.059029963 -0.1108392 0.054279286 -0.07481687
0003e0 13 df 54 3d 97 6a b3 bd 3f 52 da bb 40 4e 21 3e
       0.051970553 -0.08760565 -0.0066626365 0.15752506
0003f0 8f 56 d0 3d fa de 3b bd c2 9e 52 be 6f c3 66 be
       0.1017276 -0.045866944 -0.20568374 -0.2253549

bias_hh f4 [384]
000000 bd 28 c7 bc 70 e5 2c 3d b8 53 a3 b9 61 10 5b 3b
       -0.024311418 0.042210996 -0.00031152158 0.003342651
000010 77 a4 8e bd 48 c9 14 3e 8d a8 90 3d 9e 42 af 3d
       -0.06964963 0.14529908 0.070633985 0.08557628
000020 b5 fc 0f 3d b3 f7 3d bd 83 2c 5a 3e e6 ab 05 bd
       0.03515311 -0.046378803 0.21306042 -0.03263464
000030 4b 55 32 3e 42 32 51 3d 19 f3 d2 3c eb 9f fa bd
       0.17415349 0.05107332 0.025750684 -0.12237533
000040 92 63 35 3b 93 7e ec 3d 44 16 43 bd 30 0f a4 bb
       0.0027677757 0.115475796 -0.047628656 -0.0050066933
000050 b3 f8 78 3b 29 b9 e1 bc b4 32 18 3d c0 50 fb 3d
       0.0037990033 -0.027554112 0.03715773 0.12271261
000060 33 68 c1 3d e5 3b be bc 7f 8c d8 3c db 83 9e 3c
       0.094437025 -0.02322192 0.026434181 0.019349983
000070 87 68 3d 3e 1f 3c bc 3d d2 1e 05 3e 81 de 18 bc
       0.18496905 0.09191155 0.13000038 -0.009330393
000080 98 35 31 3d 76 74 71 bc e6 9e c8 3c 4c b9 e3 3c
       0.043264 -0.014737239 0.024489831 0.027798317
000090 28 00 48 bb 5d 4d 23 ba fd 7f 2d 3d 22 4d 43 3e
       -0.0030517671 -0.00062294846 0.042358387 0.19072393
0000a0 a5 6d 13 be 0c 51 f7 3d d9 cc 3a 3b 22 e6 3e 3d
       -0.14397295 0.12076005 0.0028503446 0.04660619
0000b0 22 34 4d 3e 33 b2 09 3d 50 bd 55 be 8e 7d 99 3d
       0.20039418 0.03361721 -0.20872998 0.07494651
0000c0 95 20 b1 3c 13 30 9b 3e 76 f8 03 3e 67 c8 ea bd
       0.021621982 0.30310115 0.12887749 -0.11464005
0000d0 d4 54 74 3d 3a 2d 43 3e 10 1f 55 3c 1b 80 5d 3d
       0.05965121 0.19060221 0.013007894 0.05407725
0000e0 d1 1e 56 3d e6 51 81 bc f6 36 84 bd e9 f0 51 3d
       0.052275483 -0.015786123 -0.064557955 0.05125514
0000f0 bc 10 4a 3e 39 04 21 3b 5b 8f 0d 3c de bd 66 bd
       0.19732946 0.0024569167 0.008640136 -0.056333415
000100 74 64 f8 3b 10 88 fc bc e1 fc 08 3e 98 eb 2c 3e
       0.0075803343 -0.030826598 0.13377716 0.16886747
000110 53 4f fc 3d 3c 61 2b 3e d1 4e ad bb be 91 ba bd
       0.123198174 0.1673631 -0.0052889367 -0.09109829
000120 8c 35 53 bb a2 31 f8 3d 88 a3 03 bd 24 01 25 3d
       -0.0032227961 0.12118842 -0.032138377 0.04028429
000130 ac ff c0 3d 77 0d 92 3d 98 23 d6 3d 65 91 d7 3d
       0.094237655 0.071314745 0.10456008 0.10525779
000140 54 65 34 3d c6 59 23 3e dd 08 90 bd b0 e2 6d 3d
       0.044041947 0.15952215 -0.070329405 0.058077514
000150 b5 ed 96 3d 0d b0 75 3d 6e af 25 3e 91 a5 b6 3c
       0.07369558 0.05998235 0.16180202 0.022295745
000160 63 de 49 3d ae 3a bd 3d 01 45 cc 3d dc 0b 61 3d
       0.04928435 0.09239708 0.09974099 0.05494295
000170 93 ed 5e bd 68 77 80 3d 9d b8 c2 3c e6 58 22 3e
       -0.054425787 0.06272775 0.023769671 0.15854225
000180 e5 5c 2f 3d 8e 90 5a 3e df d6 64 3d b7 f5 d3 3b
       0.0428132 0.21344206 0.05586898 0.0064685005
000190 29 f2 1c bd d3 bc 5f 3e 20 8e 65 3c 96 d5 03 bd
       -0.03831688 0.21849374 0.014010936 -0.032186113
0001a0 11 13 8d bc a5 8a f2 bb df 16 6b bd 5f 67 26 bd
       -0.017221006 -0.0074017816 -0.05739486 -0.040625926
0001b0 eb a0 25 3e ad 59 76 3d 27 48 28 3e 86 8a 78 3e
       0.16174667 0.060144115 0.16433774 0.24271592
0001c0 56 b0 09 3d 6d 43 ae 3c 2a a6 23 3e fa e7 6c 3a
       0.033615433 0.021272385 0.15981355 0.0009037253
0001d0 9c 30 4d 3e d2 d8 80 3c ad 55 9b 3d 21 38 e8 bc
       0.20038074 0.015728388 0.07584701 -0.028347077
0001e0 db 7c cc bd 5d c2 1f 3e 5f e8 5d 3c 36 20 8a bc
       -0.09984752 0.15601487 0.013544171 -0.016861062
0001f0 47 0a 9e 3d 9f cf 67 bd 1d f3 65 3e ea a5 4f bd
       0.07716804 -0.056594487 0.22456022 -0.050695337
000200 c4 c7 f9 bd c7 54 5f 3d 63 e6 40 bd 1a 80 18 3e
       -0.121963054 0.05452421 -0.047094714 0.14892617
000210 10 69 54 bd 48 db f3 3d 33 02 dd bd e3 93 25 be
       -0.051858008 0.11907059 -0.10791435 -0.16169696
000220 be 4c 4b be 87 b0 8f bc ed 99 7d 3d 5a 3b ac bd
       -0.19853494 -0.01754023 0.061914373 -0.08409758
000230 a2 c7 3b be f3 e3 6e bd 40 77 0f 3e 82 b7 4b 3c
       -0.18337873 -0.058322858 0.14010334 0.012433888
000240 1b 5b 78 be 74 f5 bc be 40 a2 af bd 37 3c cf bd
       -0.24253504 -0.36906016 -0.085758686 -0.10118907
000250 f4 da 8e bc 47 43 17 3b 64 05 3f be aa 05 e2 3d
       -0.01743839 0.0023080872 -0.186544 0.110362366
000260 58 a4 93 bd 32 b9 42 3d 5d de 52 be 16 c7 75 bd
       -0.072090805 0.047539897 -0.20592637 -0.060004316
000270 b0 a6 ab be 6a 6f b7 bd 02 d7 a9 3d 7c 5b 02 bd
       -0.3352561 -0.089567974 0.082929626 -0.031825528
000280 ba e0 af 3d 14 71 10 be ff b6 fd bd 5d 0f 9e 3d
       0.08587785 -0.14105636 -0.12388419 0.07717774
000290 06 85 7e 3d 90 fe 24 bd bb 15 bf 3d 8d d4 5d be
       0.06213858 -0.040281832 0.09330317 -0.21663113
0002a0 6e d7 a3 bd ae 63 1b be 56 ba 41 bc ce 47 dd bd
       -0.08000074 -0.15174744 -0.011824211 -0.10804711
0002b0 4c e3 ed 3d 0a 0c 4e be 36 dd c1 3c 21 d5 7a be
       0.11615619 -0.2012178 0.023665052 -0.24495365
0002c0 84 cf 34 3e c5 08 1c be 02 35 03 3d ad e5 c5 3d
       0.17657286 -0.1523772 0.032032974 0.09662948
0002d0 26 ef 88 3c 42 67 cb bd ce f9 ca bc 79 5d 67 3b
       0.016715597 -0.09931804 -0.02477732 0.0035303517
0002e0 75 d9 61 3d d1 78 28 3d 0e ac 20 be a9 3e 03 be
       0.055139024 0.041130845 -0.15690634 -0.12816872
0002f0 04 68 23 be 6e 5b 8e bc 84 5f 8b 3d 7f 23 67 bd
       -0.15957648 -0.017377581 0.068053275 -0.056430336
000300 28 31 70 be f6 19 d6 bd ac 5f 82 be 59 d9 17 3d
       -0.23456252 -0.104541704 -0.25463617 0.037072513
000310 d9 70 00 bc 0a 50 ac bd eb 1f 44 be f0 b4 29 be
       -0.007839405 -0.08413704 -0.191528 -0.16572928
000320 6a 1d 07 bd e1 e1 33 3d b8 f5 67 3b 21 17 ac bd
       -0.032987036 0.043916587 0.0035394263 -0.08402849
000330 50 fb 18 3d 13 e7 4e be 59 7b 85 be 43 fa ba be
       0.037349045 -0.20205335 -0.2607067 -0.3651906
000340 61 ca 87 be 7c 69 b8 3b 0f 8d 8d 3d 42 4f 85 bd
       -0.2652159 0.005627809 0.069116704 -0.06509258
000350 4b 9f d7 bd 63 8b c8 3d d3 30 30 be 48 c7 82 bd
       -0.105284296 0.09792211 -0.17206125 -0.06385666
000360 6b 31 d8 3c 3c 20 75 bd 06 d8 24 bd 44 ea c2 bd
       0.026390752 -0.059845194 -0.04024508 -0.09517339
000370 4b b3 45 bd 83 eb 15 3d 23 87 53 be 92 0a 22 3e
       -0.04826669 0.036601555 -0.2065702 0.15824345
000380 2b 55 4f be 07 1f f9 3c 15 d9 3c be 1c d8 32 bd
       -0.20247333 0.030410303 -0.18442185 -0.04366313
000390 61 c9 1e bc 84 ae b8 3c fa 71 48 be cf a4 d5 bc
       -0.009691567 0.022544153 -0.19574729 -0.026079563
0003a0 7d 83 d0 bd bf b7 1b 3e d3 19 0c bd b1 da 87 be
       -0.101813294 0.15206812 -0.034204315 -0.26534036
0003b0 d0 c0 d6 3d 95 64 08 3e 98 0a a9 3d af 76 3d 3d
       0.10485995 0.13319619 0.08253974 0.046255764
0003c0 c8 98 09 3e af c6 6e bd 36 db 01 3e 99 63 26 be
       0.13437188 -0.05829495 0.12681279 -0.16248931
0003d0 64 3e 46 bc 77 d9 99 bd 2b 28 ab 3d a7 e6 f4 bc
       -0.012099836 -0.07512181 0.08357271 -0.02989514
0003e0 60 bc cb 3d 94 61 31 3b 33 70 fe 3c 77 d4 e5 3d
       0.09948039 0.0027066218 0.03105936 0.11222165
0003f0 1f 52 13 3d 5e 79 7b 3d a7 09 83 bd 5c 52 13 be
       0.03596699 0.06139504 -0.063983254 -0.14386886

weight f4 [128, 128]
000000 16 b1 db bd 69 aa 04 be 7c 46 14 3a 6f 26 c8 3d
       -0.10727136 -0.12955631 0.0005656255 0.097729556
000010 78 6b 85 bd dc 28 e2 bb fc 50 8f 3e 2a fa ee 3c
       -0.06514639 -0.0069018435 0.27991474 0.029172022
000020 1f 9d 54 be 42 92 e2 3d 42 f7 0d be a0 ad 9f 3d
       -0.20763062 0.11063053 -0.13863853 0.07796788
000030 77 2c 8c 3b 6e f2 39 bd f5 56 26 be 2f b1 c9 3b
       0.0042777616 -0.045397215 -0.16244109 0.006155155
000040 e9 6c 37 3e 01 37 2c be 48 69 a1 3d 95 fd ad bd
       0.1791264 -0.16817857 0.07881409 -0.084956326
000050 91 c9 b7 3d 0e 57 27 bc 10 ea 96 bc 2a 99 51 bc
       0.089739926 -0.010213627 -0.018422157 -0.012792865
000060 68 44 d8 bd 98 5d 9a 3d 27 fa b3 bd 39 93 b0 3c
       -0.105599225 0.07537383 -0.08787947 0.021554576
000070 d7 c7 c9 bc 0f 94 8f bd ac ad 88 3d dc 58 e6 bd
       -0.024631424 -0.07010662 0.0667375 -0.11247417
000080 6a bf e4 3c 42 dd 4e 3e c9 40 0d bc 1b 7c 5c bd
       0.027923305 0.2020159 -0.008621403 -0.053829294
000090 2c f2 d7 bd 83 9e 14 3e af f0 12 be 25 38 2c 3d
       -0.105442375 0.14513592 -0.14349626 0.04204573
0000a0 51 73 83 bd 46 55 a8 3d 56 48 2e bc 26 41 6b bc
       -0.06418479 0.082193896 -0.010637363 -0.014358794
0000b0 b7 11 62 3c ff 4b 48 3d 16 a3 89 3c b0 1c b5 bc
       0.013798169 0.0489006 0.016801398 -0.022108406
0000c0 e4 b1 6a bd a8 71 00 bc dc 05 e4 bd 70 49 d0 bd
       -0.057298556 -0.007839598 -0.1113393 -0.10170257
0000d0 b6 6e 35 3c 25 3a aa 3c 8e ec c3 bd 84 e2 f0 3d
       0.011073759 0.020779679 -0.095666036 0.117619544
0000e0 ec e2 0a 3e 01 a8 a0 bd f6 09 cc 3d 65 5f a3 bc
       0.13563126 -0.07844544 0.099628374 -0.019942949
0000f0 d4 6c 33 bd 8c 5f e8 bd aa 9d b1 3d ed 10 1e 3e
       -0.04380496 -0.11346349 0.0867265 0.15436144
000100 7c bc ac 3c 0d 02 dc 3c 93 d9 21 39 84 64 8b 3d
       0.02108597 0.026856447 0.00015435209 0.06806281
000110 ef 68 08 bd 68 cc bb bb aa 7b e4 bd ed b1 05 3e
       -0.033303197 -0.0057311542 -0.111563995 0.13056155
000120 60 37 2a be ca f7 dd bd d1 df 31 bd 12 c6 b0 3d
       -0.16622686 -0.10838278 -0.04342634 0.08631529
000130 81 8b b5 bd 52 e3 31 be 0e 23 ad bd f9 e6 4e bd
       -0.08864499 -0.17371872 -0.08453952 -0.05051324
000140 21 30 e9 bc 96 9e b2 bc 23 8b 92 3a d4 62 d7 bd
       -0.028465332 -0.021804135 0.0011180382 -0.10516897
000150 59 0d f1 bd c8 45 c8 bc 9f af ba bd 8e af f1 3c
       -0.11770124 -0.024447337 -0.09115528 0.029502656
000160 de 75 5d 3b 04 2a e5 bd ed e7 0b bc 81 ca 3e 3e
       0.0033792178 -0.111896545 -0.008539182 0.18631937
000170 53 b4 d3 3d 3e c1 28 bd d7 9a 64 bd e5 5d 82 bd
       0.103371285 -0.041199915 -0.05581173 -0.06365565
000180 c6 ce 62 3c d6 bb 94 bc 37 5d 35 bd b9 dc 53 3e
       0.013843244 -0.018155973 -0.04427835 0.20689668
000190 9d 39 b7 3c fa 6c c0 bd c6 62 c1 bd a2 eb 98 3d
       0.02236634 -0.09395786 -0.09442668 0.074668184
0001a0 43 40 01 3d 99 93 fe 3d 7f 5c 8c bc e7 63 fd 3d
       0.031555425 0.12430496 -0.01713395 0.123725705
0001b0 19 1f 07 3d 35 b5 05 bd 09 d1 09 3e 20 36 7d 3d
       0.03298864 -0.032643516 0.13458647 0.061819196
0001c0 e6 8b 45 ba 93 4f 42 bd 1e d3 77 bd ca 9d c6 bc
       -0.00075358 -0.04743917 -0.06050407 -0.024245162
0001d0 80 8b 82 3d e5 5e 76 3d af 8a c1 3a 2f 01 cc bd
       0.06374264 0.060149092 0.0014766062 -0.09961163
0001e0 e2 df 70 bd 3b 78 12 3a 7e f0 41 bd 70 6a 94 3c
       -0.05880726 0.0005587374 -0.04734849 0.01811716
0001f0 a6 f8 be 3b 97 51 a8 3d 0c 30 82 bc 5d 9b 64 bd
       0.005827981 0.08218687 -0.015892051 -0.05581223
000200 a3 28 40 bc 60 a0 b6 bd 97 1a 58 3d 2f 72 ca 3d
       -0.011728439 -0.08917308 0.052759733 0.0988506
000210 0f c7 0d be 5c ec 09 3d 8c b9 38 3e df d8 45 3c
       -0.13845466 0.033672675 0.1803953 0.012075632
000220 98 75 23 be 0d 44 d9 bc d5 96 aa bd 89 fe 90 3c
       -0.15962827 -0.026521707 -0.0832955 0.017699497
000230 e5 3b 73 bc 81 87 8c 3d 9c e7 39 bd fb 99 bb bc
       -0.014845823 0.06861783 -0.045386896 -0.022900572
000240 d0 eb be bc c4 aa 0f 3e c5 f2 25 3c 76 fa 56 bd
       -0.023305804 0.14029986 0.010128682 -0.052484952
000250 04 54 74 bc d3 15 f3 3b fd 7e 44 3c 03 fd 85 3d
       -0.014912609 0.007418373 0.011993167 0.06542399
000260 9b b6 ae bd 86 2a bd bb e9 1c 26 be 1e d5 c5 bd
       -0.08530923 -0.0057728915 -0.16221966 -0.096597895
000270 fc 67 30 bc 7a e8 42 be 90 fa 9b 3d 53 ee c3 3b
       -0.010766979 -0.19033995 0.076161504 0.005979338
000280 40 48 4a 3d fc 11 13 3e 23 64 f0 bd 88 b6 f5 bc
       0.04938531 0.14362329 -0.117378496 -0.029994264
000290 a1 4d b2 bd 30 57 c6 3d 7d b6 9f 3c 99 f1 9f 3d
       -0.08706213 0.096845984 0.019496197 0.07809753
0002a0 5e e7 d8 bd fe 33 34 3e 71 d3 39 3e e6 fe 5e 3d
       -0.10591005 0.17597958 0.18147065 0.05444231
0002b0 f2 4f 44 bd 54 9d 88 3d 80 cb d0 3d 00 e6 d3 3d
       -0.047927804 0.06670633 0.101950645 0.103466034
0002c0 21 88 08 be cc 5c 03 be 2d db ec 3d b8 d2 03 3e
       -0.13333179 -0.12828368 0.11565242 0.12873352
0002d0 c8 b9 35 3e 82 7d 33 3d 0b fd cd bd f0 2a 35 bc
       0.17746651 0.043820865 -0.1005803 -0.0110576
0002e0 34 c7 3d be 19 e9 ca bd 38 c0 1a 3d 8e 80 6b 3d
       -0.18533021 -0.09907741 0.03778097 0.057495646
0002f0 79 a1 9b 3c 93 ee ba 3c cf 60 43 3e 05 e2 b2 bc
       0.018997895 0.02281884 0.19079898 -0.02183629
000300 65 b9 42 bd f1 ee bb bb da 53 e6 3d f9 c5 f6 3d
       -0.047540087 -0.005735271 0.11246462 0.12049479
000310 f6 3f d5 3d 1b 84 41 bd 11 90 10 bd 41 09 31 3d
       0.1041259 -0.047245126 -0.035293642 0.043221716
000320 41 24 ae bd 8b 0d d7 bd ad 07 5e bd 7d 08 af 3d
       -0.08503009 -0.1050063 -0.05420654 0.08546541
000330 d8 a2 ea 3d 0f e4 9b 3d 14 ad 6e 3d 85 b2 62 3c
       0.11456841 0.07611858 0.05827053 0.013836508
000340 ee 09 96 3d 27 0d cc 3d c7 74 ab 3d 37 c1 53 3e
       0.07326113 0.09963446 0.08371883 0.20679174
000350 5f 29 0e be 0c e1 1d 3e d0 5f 7d bd 6f 6c 91 3b
       -0.1388297 0.1541788 -0.061858952 0.004437975
000360 ad 2c d5 3d 52 2b 35 bd e1 b1 9f 3c b1 40 1a bc
       0.10408912 -0.044230767 0.019493999 -0.009414838
000370 d8 4e ba 3d ee b0 37 3e 5e f4 f1 3d 12 91 78 bc
       0.090970695 0.17938587 0.118141875 -0.015171306
000380 be 24 b5 3c 40 f3 87 3d 5e 5c 39 bd 85 80 04 3e
       0.022112247 0.06638193 -0.045254104 0.12939651
000390 07 17 db bd f2 e2 e7 bd 86 64 29 be 6b d9 81 3d
       -0.106977515 -0.11322583 -0.16542253 0.06340297
0003a0 a6 2d b2 bd 32 3c 27 bc 34 ff 88 bd 63 48 04 3e
       -0.08700113 -0.010207223 -0.06689301 0.12918238
0003b0 b9 4c ff bd 7c c8 3c bd f4 17 5a bd 71 b6 fa 3c
       -0.124658056 -0.046089634 -0.0532455 0.030604573
0003c0 11 4b e4 bd 6a f3 95 bd 18 9c a3 bb 1b 8c 50 bd
       -0.1114713 -0.07321818 -0.004992973 -0.050914865
0003d0 ee 35 0a 3b 6f d6 30 bd 8e 19 ae 3c 08 70 21 bd
       0.0021089274 -0.04317325 0.02125242 -0.039413482
0003e0 3e 7b 4e bd 6c 21 72 3d d6 55 45 3e b5 d3 90 3b
       -0.0504105 0.059113905 0.19271025 0.0044197687
0003f0 0d 85 63 bd 30 23 c0 3d d1 89 09 3d f1 8a 90 3c
       -0.05554681 0.093817115 0.033578698 0.017644377

bias f4 [128]
000000 9a 75 82 bd 57 1a 17 be 23 c6 26 3b 0e 83 83 bc
       -0.06370087 -0.14756142 0.0025447689 -0.016053703
000010 3b 8f db bd 74 4f 38 bd c9 dc 22 be 29 b0 10 bd
       -0.107206784 -0.044997647 -0.15904535 -0.03532425
000020 cc 53 c3 bc 7d 3b 34 bc 4f 44 89 3c c5 81 24 be
       -0.023843668 -0.011000511 0.016756205 -0.16065128
000030 c7 b1 1a be 35 7a 1a bc a5 3f 0f be 7e 53 05 be
       -0.15106879 -0.0094285505 -0.13989122 -0.13020131
000040 9a 94 a4 bc 7c fa 2c be 0a e1 7b 3d e9 6d b9 bc
       -0.02009039 -0.16892427 0.06149391 -0.022635417
000050 02 df 9f bd 97 2d d1 bd 14 42 74 3c 29 8d c4 3c
       -0.07806207 -0.10213774 0.014908332 0.023993092
000060 14 79 99 bc 8e ab d9 bc ed 3d 15 bd 9d 21 23 bd
       -0.018734492 -0.026571061 -0.03643601 -0.039826978
000070 62 d2 88 bd 83 3b bc 3d 41 9b 82 bd 99 88 fd bd
       -0.06680752 0.091910385 -0.063772686 -0.123795696
000080 1a fe f5 bd 8e b3 13 be d9 e2 84 bd 9e 5d 6f bd
       -0.12011357 -0.14423963 -0.0648858 -0.05843889
000090 22 74 20 3c cf 2a ee bc 16 af 42 bb 0a 04 0b bd
       0.009793313 -0.029073147 -0.002970641 -0.0339394
0000a0 d4 ff ea 3c 2d ba 8a 3d c7 43 33 bd 90 4a bc bd
       0.028686441 0.067737915 -0.04376581 -0.09193909
0000b0 7f 7b 18 be 49 88 a6 bd 59 38 ab 3c cf d6 f7 bd
       -0.1489086 -0.08131463 0.020900892 -0.12101518
0000c0 f4 86 13 be 06 18 f2 bd 5d ab fb bc 73 d6 4b bd
       -0.1440695 -0.11820988 -0.03072136 -0.04976506
0000d0 44 e8 77 bd 12 85 ab bd 55 c5 52 bd ae 83 2b be
       -0.06052424 -0.083749905 -0.05145772 -0.1674945
0000e0 55 62 4b bc 78 48 ed 3b c2 28 88 bd 1a 7b 3d 3d
       -0.012413581 0.007241305 -0.06648399 0.046259977
0000f0 35 d8 22 be ce 40 eb bd 96 c2 c2 bd b3 14 f0 bd
       -0.15902789 -0.1148697 -0.095097706 -0.11722698
000100 0d 48 89 bd 41 1f 03 bd 70 a5 81 3d 1f 3c 8c bd
       -0.06703196 -0.032012228 0.06330383 -0.06847405
000110 8d 0f 9c bd ee 52 1e 3c 6b f8 26 bc 64 b6 8e bd
       -0.076201536 0.009663327 -0.010191063 -0.06968382
000120 02 e1 22 3c 57 e0 b1 bd 83 cf b9 3d 5d 88 6f bd
       0.009941341 -0.086853676 0.09072783 -0.058479656
000130 17 07 02 be ce 40 f7 3c 5f 41 ad bc f1 b1 01 bd
       -0.12698017 0.030182268 -0.021149335 -0.03166384
000140 f0 16 23 bc 3c 27 92 bd cc 7e 16 bd 8f ec 33 3b
       -0.009954199 -0.071363896 -0.036742017 0.0027454232
000150 da 29 83 bd cb bb 04 be 3e a2 b8 bd 55 81 2f 3c
       -0.06404467 -0.12962262 -0.0901532 0.0107119875
000160 80 0e 08 be 03 9d ec bc 5c 72 01 be 36 a3 48 bd
       -0.13286781 -0.028883463 -0.12641281 -0.048983775
000170 ef 48 ec bd d3 02 0f 3c 59 77 f5 3d 73 57 ec bd
       -0.115373485 0.008728701 0.119856544 -0.11540117
000180 e4 a5 98 3d 5a 49 be bd bb 29 05 be 74 34 80 3d
       0.07453516 -0.092913345 -0.130042 0.06260005
000190 10 cd d0 bd 29 d7 25 3d d8 8e 7b 3b d0 3d 00 3c
       -0.101953626 0.040488396 0.0038384702 0.007827237
0001a0 fe 52 4f be 7e 7d 11 bd 7d 4e 8f bd d5 3d c5 bd
       -0.20246503 -0.03552007 -0.06997392 -0.09630934
0001b0 f0 7a 92 bd 67 76 cf bc b1 3c ea bd 57 65 01 bd
       -0.07152355 -0.025325013 -0.11437357 -0.031590786
0001c0 d9 d0 c1 bd d7 e1 04 be 73 24 91 3d 79 46 24 be
       -0.09463663 -0.12976776 0.0708703 -0.16042508
0001d0 da dc fd 3b db 88 92 3d f9 fe 8e bd 61 fc 6c 3d
       0.007747275 0.07155009 -0.06982226 0.057857875
0001e0 a9 b5 02 be f4 4c af 3d 0c 17 c5 bd 18 2d 7c bd
       -0.1276461 0.085595995 -0.096235365 -0.061566442
0001f0 bc 13 21 bd 44 3a 24 be 54 3c 35 be 68 d4 13 be
       -0.03932546 -0.16037852 -0.17698795 -0.14436495

weight f4 [128, 128]
000000 80 9d de bc 52 7f 89 3d 2a a0 bd bd 42 ce 99 bd
       -0.027174711 0.067137375 -0.092590645 -0.07510044
000010 30 61 03 be 58 3f 83 bd ac 72 1f 3e 3c 94 bd bb
       -0.12830043 -0.06408566 0.15571088 -0.005785493
000020 5e 21 6d 3d 53 13 df 3d eb 93 08 3e 48 6b 05 3e
       0.05789315 0.10892358 0.13337676 0.13029206
000030 9f 1f e3 3d 14 b2 df bb d8 e5 ee bb 83 4f 0a be
       0.110900156 -0.0068266485 -0.007290583 -0.13506894
000040 6a 21 c2 3d 8c c4 7f 3e 08 db fe 3c 6f 58 0f 3d
       0.094790295 0.2497732 0.031110302 0.034996446
000050 53 c2 25 3a 46 7d e6 3d 2b f6 09 3e c3 67 b2 3d
       0.0006323207 0.11254363 0.13472812 0.08711197
000060 dc 4b 94 bc bb 8a 07 be 53 03 79 3d 5c 51 40 be
       -0.018102579 -0.13236515 0.060794186 -0.18781036
000070 71 33 3e 3d da 7d c9 bd 22 4b 44 bd de e3 17 3e
       0.046435777 -0.098384574 -0.047923215 0.14833018
000080 07 b1 4a bd aa 91 97 bb 59 4e 5c bc 3e f5 20 3d
       -0.049485233 -0.004625519 -0.013446414 0.03929638
000090 09 0e 95 bd 6d 55 af 3d 72 50 d5 bd 9b 5c b6 3d
       -0.072780676 0.085612155 -0.10415734 0.08904382
0000a0 dd e6 8a bc ec 9f ef 3d 59 59 2e bd f6 1e 0a 3e
       -0.016955787 0.117004246 -0.042565677 0.13488373
0000b0 ec f5 75 3d 81 bf ba bd cd 87 86 3c 07 43 9a 3d
       0.060048983 -0.09118558 0.016422177 0.07532316
0000c0 c8 e4 72 3d 83 93 66 3c 42 2f b4 bd d0 ee 26 be
       0.059300214 0.0140732555 -0.08798076 -0.16302037
0000d0 04 de 22 3d a4 31 7e bd 31 c2 ec 3c e9 e0 0d bd
       0.03976251 -0.06205906 0.028901191 -0.03463832
0000e0 9f 40 68 be b1 e8 f7 3d 33 e0 46 3d 3e 14 13 3d
       -0.22680901 0.12104929 0.048553657 0.035907976
0000f0 97 9a 53 bd d7 df e9 bc 51 61 18 3e f5 45 4b bc
       -0.0516611 -0.028549118 0.14880873 -0.012406816
000100 2c f0 e7 3d cc 5b 60 3d 56 ef 1f be 1d 09 60 bd
       0.11325106 0.054775044 -0.15618643 -0.05469619
000110 34 3e 21 3c 35 6d d4 bc 0b 12 82 bc 7f d1 b1 3c
       0.009841491 -0.02593098 -0.015877744 0.02170634
000120 d0 35 c4 3b c6 a9 9b 3d 60 d1 9b bd 85 95 62 3c
       0.0059878603 0.07600741 -0.076082945 0.013829594
000130 1c 58 41 3d a0 9e b6 bd 64 61 4d 3c 09 9f f8 bd
       0.04720317 -0.08916974 0.012535427 -0.121397085
000140 df 27 2e bc e8 8b b7 3d 6d 6e 0b 3e cf 9e 25 3e
       -0.010629623 0.08962232 0.13616343 0.16173862
000150 17 a1 bb 3d 2e dc 0e 3e 7d 3f d4 3b bd 3f ab bc
       0.09161585 0.1395118 0.006477295 -0.020904416
000160 d9 a5 29 3e 0d 92 21 be 99 34 c1 3c 65 87 52 bc
       0.16567172 -0.1577837 0.02358465 -0.012849663
000170 c5 ed bf 3c 5d 35 a5 3d e1 f9 97 bd 24 29 de bd
       0.023428807 0.08066819 -0.074207075 -0.10847691
000180 fe e2 05 bd 54 5b 10 3e dd 0c 95 bb a6 e8 16 bc
       -0.03268718 0.14097339 -0.0045486526 -0.009210741
000190 79 9b aa 3d a6 42 32 bd ac 6b 11 3c 9f 4c 13 3d
       0.08330435 -0.043520592 0.008875769 0.035961743
0001a0 f5 7c 86 3d 79 1b 83 bd ef 4e 1f 3e 32 1c b5 ba
       0.065668024 -0.06401724 0.15557455 -0.0013817607
0001b0 4a a7 ab 3d 58 16 6c 3d d8 3b 8e 3d 77 38 b8 bc
       0.08381517 0.057638496 0.06945008 -0.022487862
0001c0 8f 82 d2 3d d1 a0 f7 3d 3e 26 f8 bd f9 85 67 bd
       0.10278808 0.1209122 -0.12116669 -0.05652425
0001d0 28 51 b1 bd 80 a5 6c bd 1c 81 f9 3d e8 d4 6b bc
       -0.086580575 -0.05777502 0.12182829 -0.0143940225
0001e0 1e 61 4b bc 91 50 73 bd e9 be b6 3d 20 8c cd bd
       -0.012413291 -0.059403006 0.08923132 -0.10036492
0001f0 bc 81 7c 3e 8c 1c d4 3d d7 f6 91 bd 52 c8 ce bc
       0.24658865 0.103570074 -0.07127159 -0.025242005
000200 60 72 18 bc 1f d6 92 3b 25 b3 0c 3d ac fc ff bc
       -0.009304613 0.0044810916 0.034350533 -0.031248413
000210 bb c5 0f bd 39 5c 19 3e 39 78 53 3d 0f 5c ea bc
       -0.03510068 0.14976586 0.051628325 -0.02860835
000220 83 6f 9d bd f8 fb 21 bd 5a 29 62 bb 28 ec 35 3d
       -0.07687285 -0.039546937 -0.003450951 0.04441467
000230 1b 53 8d bd fc 72 a5 3d 97 14 38 bd b8 78 5a 3b
       -0.06900617 0.08078572 -0.04494151 0.0033336114
000240 b6 26 af bc 0b 50 ee bd 54 73 ca 3c 95 03 7e bd
       -0.021380764 -0.11636361 0.024713196 -0.062015135
000250 70 18 ee 3c d1 4c de 3d a2 48 8f bd da 00 f9 bc
       0.029064387 0.10854495 -0.069962755 -0.030395914
000260 bc bc 6e 3d 78 7f 47 bd d5 b2 55 bd 6b 79 5e bd
       0.05828546 -0.048705548 -0.0521725 -0.054315012
000270 36 dd 5d 3b 36 ea 46 bd 45 07 10 be 1d 2c 06 be
       0.0033853776 -0.048563205 -0.14065273 -0.13102765
000280 e8 a8 87 3c d0 93 e8 bd 4b 8c e9 bc 94 2a 18 be
       0.016560033 -0.11356318 -0.02850928 -0.14859992
000290 66 79 a3 3d 0d c3 e2 3c e0 45 cc 3c 88 1a 15 bd
       0.07982139 0.027680898 0.024935663 -0.036402255
0002a0 b2 7a 59 3c ac 05 5f 3d 38 3b b4 bd e5 73 e8 bd
       0.013273882 0.05444877 -0.088003576 -0.1135023
0002b0 5b 13 80 bb fb 38 04 3d 64 fa 15 3d 4b f7 c0 bd
       -0.0039085574 0.032280903 0.036615744 -0.094221674
0002c0 5f ed 08 be 76 f9 6d bd 76 8d 48 bd f8 9d 43 3d
       -0.133718 -0.058099233 -0.048963033 0.047758073
0002d0 2e 40 ca 3c 0a 87 9d bd 6c 8c 2e 39 55 54 56 3a
       0.024688806 -0.07691772 0.00016646244 0.00081760186
0002e0 40 cf b6 3d 19 1a da 3d e9 88 eb bd 36 c8 05 3d
       0.089262486 0.10649509 -0.11500723 0.03266164
0002f0 3f df 71 3d 8d 5c cc 3d 46 33 a6 bd 49 da 13 be
       0.059050795 0.0997859 -0.081152484 -0.14438738
000300 9f bf da bd 3f 60 df bc fa 8f bc 3c 1e e2 0a be
       -0.1068108 -0.027267573 0.023017872 -0.1356282
000310 65 18 3e 3d 9b f6 aa bd cb 6b a7 3c 73 b8 97 bd
       0.046409983 -0.083478175 0.020437142 -0.07408228
000320 89 4a 48 3c d9 12 03 be 7b f9 9d 3d ba 8e b6 bd
       0.012224802 -0.12800159 0.077136 -0.08913942
000330 d0 f6 96 bd 1c d0 15 3c 39 18 e8 3c 93 23 ab bd
       -0.073712945 0.009143855 0.028331863 -0.083563946
000340 28 a5 5c 3d 95 36 74 3d 1c a7 7b 3d 46 10 31 be
       0.053868443 0.059622366 0.061438665 -0.17291364
000350 16 8f 75 bd 55 eb 10 bd 6a 42 04 3d db c7 02 bd
       -0.05995091 -0.03538068 0.0322899 -0.03192888
000360 e3 7d 92 bd 00 4f d6 3c 59 b9 9f bc 2e da ca bc
       -0.07152917 0.026160717 -0.01949756 -0.02476224
000370 0a 06 e6 bd 9f 14 b2 bc 44 45 d4 bd 24 b7 d7 bc
       -0.112316206 -0.021738349 -0.10364774 -0.026332445
000380 40 c3 9e bc fc 2b 81 bc e1 31 88 bc 6b 76 e8 3d
       -0.019380212 -0.015768044 -0.016625347 0.113507114
000390 9d 57 d1 bd bd 18 01 bd 11 d9 4a bd f8 14 67 bd
       -0.10221789 -0.031517733 -0.049523417 -0.05641648
0003a0 33 d6 d3 3d b1 6f a9 ba 03 02 c0 3c 7e bc fa bb
       0.1034359 -0.0012926963 0.02343846 -0.0076518646
0003b0 7b ac 6c 3c 7d fa c1 bc 47 fa af bd cc 28 80 3d
       0.014445419 -0.023679012 -0.085926585 0.062577814
0003c0 dc 6b 43 3d c7 b0 e7 bc 32 db aa bd 8a 6b 83 bd
       0.047710285 -0.028282536 -0.083425894 -0.06416996
0003d0 cb 4f 2d bd a5 70 08 be a1 16 a4 bd 29 17 cf bb
       -0.042312425 -0.1332422 -0.080121286 -0.0063198996
0003e0 48 27 76 bc 13 c7 bf 3d 39 ef a3 3d cd 30 2f be
       -0.015024014 0.09364142 0.080046125 -0.1710846
0003f0 62 d8 cf bd 1d 66 d6 3b 1a eb 57 3d ed bc 4e bc
       -0.101486936 0.0065429346 0.052714445 -0.012618286

bias f4 [128]
000000 19 dd 83 bd 6b 6f 03 3e 3d fc 3e 3e 55 8e 23 be
       -0.064386554 0.12835471 0.18650909 -0.15972264
000010 9d ba c3 3d 72 78 86 3c bd 08 00 bd e3 cd 0b be
       0.09557078 0.016414855 -0.031258333 -0.13652758
000020 02 4e f0 bd b6 8e de 3b 97 51 32 bb 50 11 2d be
       -0.11733629 0.006791915 -0.0027209276 -0.16901135
000030 8b 1b 9f 3d 42 87 cb bc 46 d8 a7 bc 31 b9 d9 bc
       0.07768925 -0.02484477 -0.02048887 -0.026577564
000040 52 d1 01 bc 6a 01 1d 3c 37 92 9b 3d b4 3b 00 3d
       -0.007923441 0.009582857 0.07596248 0.031306937
000050 d9 f3 d6 bd 3b d1 cb 3d e1 2c 38 be 92 92 1e 3e
       -0.10495729 0.09952017 -0.1798587 0.154856
000060 eb 41 d1 bd e3 4b c8 bd bc 00 fa bd e1 84 db bd
       -0.10217651 -0.09780099 -0.12207171 -0.10718704
000070 bb d2 0c be 89 87 29 be ff a9 c8 3b 9b f8 d4 3d
       -0.13752262 -0.16555609 0.0061237807 0.1039898
000080 95 af 3b bc f2 cf ec bc 6b 25 a7 bc 2a 11 b0 bc
       -0.011455436 -0.02890775 -0.020403584 -0.02149256
000090 90 14 07 3e 33 6d 9d bd f1 62 02 3d 67 7c 94 bd
       0.13191438 -0.07686844 0.03183264 -0.0725029
0000a0 53 38 a0 3d a9 54 ca bd a7 c9 ba bd bc 23 87 bd
       0.07823243 -0.09879429 -0.091204934 -0.06598613
0000b0 b3 53 a0 3d 1a 9b 68 bd ed 26 a0 bc 2a a8 23 3d
       0.07828464 -0.05678854 -0.019549811 0.039955296
0000c0 a1 c3 a0 3d 1e 83 25 3c 39 47 24 bd 75 bc 81 bd
       0.07849813 0.010102062 -0.040106986 -0.063347735
0000d0 29 90 67 bd 58 db 84 bb 8e 92 25 bd 50 a9 80 bd
       -0.056533966 -0.004054468 -0.04042297 -0.06282294
0000e0 fd 03 b4 bc 22 17 ff bd e1 a9 43 be b5 68 53 3d
       -0.021974558 -0.12455584 -0.19107772 0.05161353
0000f0 3f d1 b1 bc 21 00 16 3e 59 3e c5 bd e0 28 2d bd
       -0.021706222 0.14648487 -0.096310325 -0.04227531
000100 1d 88 af 3a 01 75 bd 3d 21 49 b5 3d cb cd 6b 3c
       0.0013392005 0.09250832 0.08851839 0.014392327
000110 e1 af b6 bd 29 cd 5e 3e dd ae b7 bd 66 d1 90 bd
       -0.08920265 0.2175795 -0.089688994 -0.070711896
000120 21 4f af bd 18 ec a5 bd cf 9f 54 bc b2 57 32 3d
       -0.085600145 -0.08101672 -0.012977554 0.043540664
000130 d2 b8 93 3c 5a 3e 00 be 25 c5 af 3c 16 ec c9 bd
       0.018032465 -0.12523785 0.02145631 -0.09859483
000140 a5 3a 62 3d 95 24 16 be eb ab 33 3d 22 01 00 be
       0.05523171 -0.14662392 0.043865126 -0.12500432
000150 51 29 01 be c9 fc d5 3c 15 33 86 bc 1d 6c d4 bd
       -0.12613417 0.026121514 -0.01638178 -0.103721835
000160 12 37 4c 3d 49 20 4f 3d 93 ca 1b 3e 7d 5c ea bd
       0.049857207 0.0505679 0.15213995 -0.11443422
000170 3e f5 d2 3d 52 81 ef bd 77 38 6a bc 87 06 e2 bd
       0.103006825 -0.11694588 -0.014295689 -0.11036401
000180 a5 ff 1d be bd aa 20 be cc ad c8 bd a3 03 c7 3d
       -0.15429552 -0.15690131 -0.09798774 0.097174905
000190 dc fe bb 3d 92 f3 a2 bc 34 fd ea 3c 27 aa 53 be
       0.0917947 -0.019891534 0.02868519 -0.20670377
0001a0 30 28 05 3d f6 29 03 3e db e1 9a 3d ce ff 9d bc
       0.03250903 0.12808976 0.0756261 -0.019287016
0001b0 07 1b 91 bc e7 93 8e bd 04 0c 9d bd 1d 16 47 be
       -0.017713083 -0.06961804 -0.076683074 -0.1944203
0001c0 e9 3b dd bd e0 e1 b4 bd 97 04 66 3d 27 19 2e 3e
       -0.108024426 -0.08832145 0.05615672 0.17001782
0001d0 e3 f5 1d be 94 90 6f bd 9e 6e 35 3d 0b 44 85 bd
       -0.1542583 -0.05848749 0.044294946 -0.06507119
0001e0 f1 67 65 3d 19 97 14 be 86 da 37 bd 51 f0 24 3e
       0.05600733 -0.14510764 -0.044886135 0.16107298
0001f0 fb 06 cc bd e4 23 b1 3c 22 e0 bd 3d 80 29 2c 3e
       -0.09962269 0.02162356 0.092712656 0.16812706
