results/model/neural_559.model (torch, 686563 bytes, 21 tensors)

weight_ih f4 [384, 5]
-0.0059372634 0.03458533 -0.06736016 0.09930222 0.037107926 0.03677135 -0.04057816 0.061515655
-0.022398861 -0.10006289 0.008158206 0.02684682 0.04548374 0.09288647 0.041305054 -0.06913217
-0.046072207 -0.019309638 0.030252766 -0.043098062 0.037978463 0.0010870849 0.070021965 0.045137763
0.00083239825 0.03216017 0.09628232 0.00621053 0.032379646 -0.049792014 -0.062122043 -0.08489242
-0.090462394 -0.039952848 0.07763597 0.019347241 0.09066145 -0.024328953 0.029922532 0.002349108
0.026584154 -0.037841197 -0.051763333 -0.060940657 -0.04443858 -0.0424984 0.031485155 -0.06160941
0.060270816 0.03228065 0.11798102 0.07714302 0.013050254 0.053810786 0.029584235 -0.03152967
0.032535236 -0.07939487 0.050364163 0.08737917 0.11179079 -0.02607312 -0.0012235825 -0.0013356404
0.08063571 -0.0430658 -0.013945073 -0.016645566 -0.08676164 -0.06617839 -0.10300255 -0.04051908
-0.004221591 -0.023060171 0.012968964 -0.08804333 0.053491257 0.017090304 0.057101298 0.04742123
-0.027334487 -0.11527814 0.048455875 0.023129342 -0.060181838 0.07744754 -0.09745052 -0.05717911
-0.05613833 0.094924584 0.08688677 -0.03430365 -0.0036315105 -0.023729686 -0.07545456 -0.014608441
-0.005258069 0.07858765 0.007554618 0.024154836 0.05852245 -0.08504958 0.022353154 0.0520509
-0.015335692 -0.06258397 0.05232676 -0.010225369 -0.070592456 -0.09307465 0.100600146 -0.019084431
0.08005029 -0.008321314 -0.021766918 -0.06390682 0.0026990091 -0.0610836 -0.07767928 -0.023793278
0.07981752 -0.07403567 -0.07071029 -0.07117892 -0.07002283 0.014963121 -0.07744679 0.016434941
-0.020694913 -0.026665702 -0.09020691 0.018854227 -0.07487107 -0.13373975 -0.038924348 0.012173007
0.039699566 0.03873665 0.02634882 0.06337861 0.12755102 0.050124943 0.07949614 0.09391224
0.041053347 -0.040793933 -0.057170395 -0.056871578 -0.010938433 -0.04046987 0.034815345 -0.11616171
0.06020909 -0.020270213 -0.10452178 0.023750752 -0.07755135 -0.07051199 0.05665786 0.07675318
0.0356875 -0.015925352 -0.043455858 0.06311016 0.030288251 -0.009187075 -0.024596428 0.04848153
-0.000848967 0.0028305424 0.044466984 0.112226084 0.03666612 -0.047221273 -0.05021188 -0.08170332
0.11651316 -0.08482427 -0.11051773 -0.06503441 0.032976523 -0.11299427 -0.028745325 0.06752269
0.027566684 0.023632428 -0.06400518 0.013543289 0.038574208 -0.01732234 -0.03819968 0.07554876
0.0836973 0.086054906 0.03692077 0.067802384 0.042958323 -0.05901281 0.042272706 -0.049303327
-0.05661046 0.0022012906 -0.0053260224 0.06073826 0.049164973 0.049474806 0.045541413 -0.023829306
-0.08006873 0.03806343 -0.053636957 -0.03607323 0.07003414 -0.068454236 0.048093002 0.04044385
-0.14702632 -0.063440524 0.0117708435 -0.065129444 -0.043147385 -0.0658853 0.017783878 -0.11648372
-0.046927474 0.0894134 0.05658237 -0.053344455 0.11842555 0.05995547 0.0729391 -0.035741523
-0.022177504 -0.06925124 -0.03894603 0.097943015 0.052968603 -0.08908427 0.12060487 -0.012873559
0.041973513 -0.12821552 -0.056165013 0.0053675673 0.01948693 0.009603079 0.079958454 0.0776543
-0.014861119 0.06960721 -0.06094838 0.02472537 -0.06380506 0.031939164 -0.09420984 0.096660055
00000000: 608d c2bb 59a9 0d3d 20f4 89bd f65e cb3d
00000010: 7bfe 173d 8e9d 163d 4935 26bd d7f7 7b3d
00000020: d17d b7bc c6ed ccbd ffa9 053c dded db3c
00000030: 284d 3a3d 433b be3d 7d2f 293d 2b95 8dbd
00000040: 36b6 3cbd 3f2f 9ebc a6d4 f73c 9887 30bd
00000050: 4e8f 1b3d 847c 8e3a ad67 8f3d 60e2 383d
00000060: 4d35 5a3a 62ba 033d aa2f c53d b481 cb3b
00000070: 85a0 043d b6f2 4bbd af73 7ebd 14dc adbd
00000080: 5944 b9bd 99a5 23bd 9cff 9e3d 1b7e 9e3c
00000090: b6ac b93d 834d c7bc 1920 f53c 7ef3 193b
000000a0: 03c7 d93c 5fff 1abd ca05 54bd e99c 79bd
000000b0: 3a05 36bd cd12 2ebd 94f6 003d 265a 7cbd
000000c0: 88de 763d b738 043d 08a0 f13d 29fd 9d3d
000000d0: bcd0 553c b368 5c3d a35a f23c 4125 01bd
000000e0: ab43 053d c799 a2bd a74a 4e3d daf3 b23d
000000f0: 92f2 e43d 4c97 d5bc 9e60 a0ba a810 afba
00000100: 5624 a53d c465 30bd e079 64bc 485c 88bc
00000110: 16b0 b1bd 8988 87bd 00f3 d2bd 56f7 25bd
00000120: 4655 8abb afe8 bcbc c77b 543c 1050 b4bd
00000130: a619 5b3d f700 8c3c 0de3 693d c33c 423d
00000140: 93ec dfbc f216 ecbd ab79 463d bf79 bd3c
00000150: 3b81 76bd d19c 9e3d 2394 c7bd a434 6abd
00000160: 4ef1 65bd d267 c23d b1f1 b13d fc81 0cbd
00000170: a3fe 6dbb c264 c2bc ec87 9abd 3e58 6fbc
00000180: e14b acbb 90f2 a03d bb8c f73b 5de0 c53c
00000190: 3db5 6f3d 792e aebd f61d b73c 5333 553d
000001a0: 8e42 7bbc 062c 80bd 9654 563d 4e88 27bc
000001b0: c792 90bd ec9d bebd 7307 ce3d f456 9cbc
000001c0: 68f1 a33d 1f56 08bc 8950 b2bc 94e1 82bd
000001d0: dce1 303b cc32 7abd 5016 9fbd 1fea c2bc
000001e0: 5e77 a33d 03a0 97bd 8ed0 90bd 41c6 91bd
000001f0: 2168 8fbd e127 753c 6c9c 9ebd 92a2 863c
00000200: 6188 a9bc 0872 dabc 67be b8bd 2e74 9a3c
00000210: 0156 99bd 13f3 08be 236f 1fbd 4b71 473c
00000220: 039c 223d 52aa 1e3d 7bd9 d73c a5cc 813d
00000230: bc9c 023e d04f 4d3d dfce a23d 0f55 c03d
00000240: 8e27 283d 8a17 27bd 812b 6abd 2cf2 68bd
00000250: 1d37 33bc bcc3 25bd 899a 0e3d 31e6 edbd
00000260: cf9d 763d b80d a6bc 840f d6bd f090 c23c
00000270: 3ed3 9ebd 9768 90bd 1212 683d c530 9d3d
00000280: 0e2d 123d e275 82bc c5fe 31bd e63f 813d
00000290: 111f f83c 6385 16bc 737e c9bc 9294 463d
000002a0: 368d 5eba 9f80 393b 0323 363d cad6 e53d
000002b0: 372f 163d 186b 41bd f9aa 4dbd 1254 a7bd
000002c0: 749e ee3d 59b8 adbd 1f57 e2bd c330 85bd
000002d0: 6412 073d 8a69 e7bd 517b ebbc 5649 8a3d
000002e0: 87d3 e13c cb98 c13c 2615 83bd ace4 5d3c
000002f0: fdff 1d3d 94e7 8dbc 4577 1cbd 4fb9 9a3d
00000300: 7d69 ab3d 8e3d b03d 3c3a 173d fadb 8a3d
00000310: 11f5 2f3d 6bb7 71bd 2526 2d3d 49f2 49bd
00000320: 5fe0 67bd 8743 103b ea85 aebb afc8 783d
00000330: 3661 493d 18a6 4a3d a289 3a3d ad35 c3bc
00000340: 13fb a3bd 66e8 1b3d 6db2 5bbd 86c1 13bd
00000350: 0f6e 8f3d bc31 8cbd 2bfd 443d 73a8 253d
00000360: 118e 16be 1bed 81bd 7fda 403c 9662 85bd
00000370: 50bb 30bd dfee 86bd 7faf 913c 048f eebd
00000380: 0637 40bd 5f1e b73d eac2 673d b77f 5abd
00000390: 1889 f23d de93 753d 1861 953d b465 12bd
000003a0: 99ad b5bc 98d3 8dbd df85 1fbd 5996 c83d
000003b0: 9bf5 583d d071 b6bd b0ff f63d 9feb 52bc
000003c0: 6bec 2b3d ee4a 03be 490d 66bd 6be2 af3b
000003d0: 0ea3 9f3c 3c56 1d3c 42c1 a33d 3809 9f3d
000003e0: 0d7c 73bc 3a8e 8e3d 02a5 79bd dc8c ca3c
000003f0: 3aac 82bd a4d2 023d 17f1 c0bd b5f5 c53d

weight_hh f4 [384, 128]
-0.08309042 0.023036234 0.091198355 -0.100502044 0.08993381 0.06365838 0.08440146 0.11840781
-0.010700779 -0.031409543 0.11730787 -0.02829056 -0.047529496 -0.02092229 -0.09866989 0.109567896
0.06478572 0.10997153 0.0034108132 0.050189026 -0.01849247 0.008560077 0.10677981 -0.05196627
-0.0024739592 0.024249256 -0.090695806 0.018876849 -0.057452064 0.03601816 -0.08614254 0.045955617
-0.044979002 -0.095094204 -0.02559955 0.0761561 -0.040481824 0.013715647 0.115012646 0.030438486
-0.0821915 0.046954464 0.03966841 -0.056104384 -0.024398258 0.034966253 -0.02626978 -0.039100032
0.073199235 -0.021349102 -0.07139687 -0.014035912 0.054369565 0.039110668 0.04790341 -0.096899286
0.06482867 -0.084924 -0.0118083535 -0.12164798 -0.112690076 0.007193805 0.0031267884 -0.08607507
-0.0008262171 0.03258754 0.062281344 -0.09288561 0.048811708 -0.026628738 -0.056801144 0.02034935
0.025957858 0.024972947 0.07466858 -0.008385898 -0.062202964 0.080422245 -0.07148191 -0.044128124
-0.085626625 0.070062436 -0.012062731 -0.011938304 -0.06097947 0.011083055 -0.018429449 0.073465794
0.078583114 0.017266108 0.039111357 0.07873662 0.049247943 0.06534525 -0.016650561 -0.013715757
-0.054431893 0.006247489 -0.03036777 0.017708851 0.07900448 0.02270626 -0.015779285 -0.009438999
0.05021603 -0.026896099 -0.06983161 -0.07782669 0.026912179 0.042060122 0.07463141 -0.006149799
0.005541467 0.017216085 0.029326087 0.026307147 0.03225756 -0.009925067 0.004891845 0.022457868
-0.0009991615 -0.02335252 -0.057442736 -0.0064594736 0.04091046 0.014151755 -0.04971605 -0.036411133
-0.023787012 0.0022254314 -0.017431086 -0.04425839 -0.020638207 -0.054026317 0.028150259 0.05891766
-0.021162236 -0.047858387 0.008052932 0.067103 0.078571685 -0.053478133 0.07086576 -0.0030094436
0.028883765 0.048698384 -0.034606326 -0.093561895 -0.014208054 0.035766397 0.0047531067 0.0075833844
-0.0824065 -0.018299961 0.021531783 -0.077303745 0.00064644084 0.072450854 -0.023527084 0.08716308
-0.07176468 0.047909357 0.042498056 0.02699167 -0.034750775 -0.04721376 -0.03723531 0.009649808
0.003589565 0.019565316 -0.042873774 -0.07431681 0.07209816 0.08376014 -0.0013485535 -0.04400318
-0.057835758 0.08987719 -0.07996585 0.115435325 0.083558336 0.01664376 0.06610678 0.046559583
0.0076386635 0.040231824 -0.010685416 -0.01917354 -0.0074356804 0.06941247 -0.017637227 -0.049667638
0.08758534 0.056686137 -0.00024935303 -0.061748687 0.100289136 -0.023472225 -0.02344115 0.013082532
0.055512626 -0.06989822 0.051977802 0.04776413 0.06554202 -0.058379646 -0.05998973 0.09066207
-0.013224371 0.09851603 -0.006504183 0.07853272 0.05331267 0.04354174 -0.0013516676 -0.07006952
-0.042827044 0.00089255604 0.013963485 0.02246998 0.019110957 0.10069904 -0.07253709 0.018290633
-0.033064816 -0.026507048 -0.10057818 0.08938529 -0.014539103 -0.002783582 -0.023657613 -0.04124106
-0.007244466 -0.08143121 -0.06843166 -0.007513399 -0.09439128 -0.091158316 -0.09225947 -0.034948647
-0.030907676 0.08600691 0.060806673 -0.051130693 0.027025687 -0.056735903 -0.051739536 -0.008415698
0.056861848 0.0058976337 -0.013638636 -0.046479937 -0.029799042 0.03727565 0.074936 0.10787399
00000000: 4f2b aabd 7cb6 bc3c 34c6 ba3d 04d4 cdbd
00000010: 382f b83d 535f 823d acda ac3d cb7f f23d
00000020: 5252 2fbc 4ba7 00bd 1c3f f03d 9bc1 e7bc
00000030: 4aae 42bd 3965 abbc 7013 cabd 2265 e03d
00000040: 60ae 843d c138 e13d f387 5f3b 0293 4d3d
00000050: 857d 97bc 913f 0c3c 5faf da3d 95da 54bd
00000060: 2622 22bb 60a6 c63c b9be b9bd 9fa3 9a3c
00000070: db52 6bbd c787 133d 806b b0bd f53b 3c3d
00000080: e73b 38bd c0c0 c2bd 26b6 d1bc bbf7 9b3d
00000090: 45d0 25bd 98b7 603c c08b eb3d 225a f93c
000000a0: 0454 a8bd 5353 403d 587b 223d b6cd 65bd
000000b0: dbde c7bc c638 0f3d b933 d7bc 5b27 20bd
000000c0: 7be9 953d 50e4 aebc 8638 92bd e2f6 65bc
000000d0: 9fb2 5e3d 8232 203d 5e36 443d 2273 c6bd
000000e0: e5c4 843d a2ec adbd d377 41bc 9322 f9bd
000000f0: 0eca e6bd 03ba eb3b ceea 4c3b 2048 b0bd
00000100: 7e96 58ba 837a 053d b91a 7f3d d03a bebd
00000110: c9ee 473d 8324 dabc 51a8 68bd aeb3 a63c
00000120: 93a5 d43c 1194 cc3c d7eb 983d 0165 09bc
00000130: 89c8 7ebd 6bb4 a43d 1c65 92bd b1bf 34bd
00000140: 035d afbd e57c 8f3d c3a2 45bc e098 43bc
00000150: 9cc5 79bd b495 353c 5bf9 96bc 3c75 963d
00000160: 2ff0 a03d a771 8d3c 3b33 203d aa40 a13d
00000170: 36b8 493d bbd3 853d c266 88bc 0eb8 60bc
00000180: faf3 5ebd bcb7 cc3b d4c5 f8bc 2712 913c
00000190: 1acd a13d 7b02 ba3c 8f43 81bc 08a6 1abc
000001a0: 53af 4d3d 3555 dcbc e003 8fbd 9a63 9fbd
000001b0: ee76 dc3c 3c47 2c3d 5ad8 983d 4184 c9bb
000001c0: 3295 b53b bf08 8d3c 433d f03c 1682 d73c
000001d0: 8120 043d c09c 22bc c54b a03b 90f9 b73c
000001e0: 4cf6 82ba c94d bfbc 1349 6bbd fea9 d3bb
000001f0: ba91 273d c3dc 673c 0fa3 4bbd d723 15bd
00000200: fbdc c2bc 8bd8 113b a3cb 8ebc 4948 35bd
00000210: 7511 a9bc b34a 5dbd 5f9b e63c a553 713d
00000220: 6d5c adbc 2807 44bd 72f0 033c 4c6d 893d
00000230: 31ea a03d e30b 5bbd 1122 913d 163a 45bb
00000240: a59d ec3c f577 473d 5dbf 0dbd 619d bfbd
00000250: e6c8 68bc c97f 123d f3bf 9b3b 0a7e f83b
00000260: bdc4 a8bd cde9 95bc 6c63 b03c 6d51 9ebd
00000270: e975 293a 1d61 943d dfbb c0bc 8f82 b23d
00000280: 5cf9 92bd 9a3c 443d 7112 2e3d a21d dd3c
00000290: d456 0ebd 3763 41bd 0d84 18bd 3a1a 1e3c
000002a0: e83e 6b3b 7147 a03c 699c 2fbd 6933 98bd
000002b0: 33a8 933d 708a ab3d f2c1 b0ba ae3c 34bd
000002c0: 30e5 6cbd 8811 b83d 23c5 a3bd 5b69 ec3d
000002d0: a220 ab3d 7f58 883c fe62 873d 43b5 3e3d
000002e0: c14d fa3b 20ca 243d e211 2fbc d411 9dbc
000002f0: 02a7 f3bb 2028 8e3d f27b 90bc 4b70 4bbd
00000300: f15f b33d b92f 683d 99bb 82b9 31ec 7cbd
00000310: 6464 cd3d d348 c0bc a807 c0bc 1e58 563c
00000320: 3561 633d cc26 8fbd ade6 543d 52a4 433d
00000330: e53a 863d 7f1f 6fbd cbb7 75bd 09ad b93d
00000340: 08ab 58bc c6c2 c93d 0b21 d5bb c3d5 a03d
00000350: 635e 5a3d d358 323d 702a b1ba 9c80 8fbd
00000360: 696b 2fbd 6cfa 693a 1ac7 643c f712 b83c
00000370: 958e 9c3c 4c3b ce3d 538e 94bd 3dd6 953c
00000380: f96e 07bd 4f25 d9bc effb cdbd a30f b73d
00000390: 6b35 6ebc c26c 36bb 9ccd c1bc 63ec 28bd
000003a0: fc62 edbb 68c5 a6bd e625 8cbd f532 f6bb
000003b0: 3750 c1bd 36b1 babd 88f2 bcbd 5026 0fbd
000003c0: 1832 fdbc 6424 b03d 6b10 793d 6b6e 51bd
000003d0: f964 dd3c e863 68bd d6ec 53bd ffe1 09bc
000003e0: f8e7 683d f040 c13b 9674 5fbc bf61 3ebd
000003f0: 1f1d f4bc 5aae 183d 0c78 993d 0aed dc3d

bias_ih f4 [384]
0.017043365 -0.033502497 0.005307312 0.04067192 0.10035928 0.059418235 0.0056767133 0.089172535
0.08417028 -0.07465995 0.050896473 0.08096138 0.06514101 -0.025214907 -0.008269762 0.008793837
-0.008333285 -0.021596584 0.0756734 -0.039167624 0.10422733 0.031046819 0.11310738 0.016854083
-0.0541087 0.07929447 -0.12380948 0.12491122 0.034339648 0.040547546 0.00036733248 -0.013684242
-0.009114664 0.08034331 -0.022563512 0.009797844 0.008556004 -0.09534526 0.027136916 -0.08975603
-0.038842812 -0.0037935497 -0.020984769 0.061643492 -0.022007223 0.004184728 0.031974714 0.018248076
0.09759084 -0.010425774 -0.051830366 -0.0383076 -0.044160504 0.030376969 -0.031325098 -0.05615232
-0.010754721 -0.031242989 0.1200759 -0.013194664 0.067629844 0.003765757 -0.06992392 -0.021584107
0.000111764 0.030084569 -0.020307077 0.082344994 0.1032649 0.023048393 0.005449567 -0.02180736
0.10640843 0.057812553 -0.008022236 0.10284586 0.016263101 -0.032957047 0.056276318 -0.015689405
0.07786379 -0.07366317 -0.042944547 -0.038008157 0.08639897 0.017478697 -0.068995915 -0.047587655
-0.022657515 -0.07059392 0.10415818 0.09404973 0.03885115 0.029520392 0.053085994 -0.067694254
0.06272853 -0.026576616 -0.015032719 0.056996353 -0.06145997 0.04823345 -0.004338289 0.03897891
0.12927704 -0.020198394 0.06276035 0.024708545 -0.07918598 8.164546e-05 -0.049645916 -0.011918786
-0.00915329 -0.0014380605 0.067437075 0.06344539 0.034292504 0.06766127 -0.06594517 0.05743135
0.022464242 0.05099329 -0.1018134 0.09128539 0.03396554 0.057488367 -0.032172523 0.041214857
-0.06445417 0.0971936 -0.045964323 0.010464936 -0.08145638 0.02710403 0.06434067 -0.01846165
-0.07714422 -0.036852736 0.03413687 -0.045744084 0.010770784 -0.038634174 -0.09630395 0.094594404
-0.027390495 0.033831205 -0.0032974803 -0.04345878 -0.078462504 -0.04400337 0.031212822 0.07172976
-0.0064797886 -0.013903137 -0.017819785 0.040139165 -0.061281715 0.06258243 -0.009326465 0.040035117
-0.08225631 -0.09142534 -0.016685288 -0.057924543 -0.084208086 -0.020862876 -0.030800039 -0.021468488
-0.018083945 -0.033734683 0.10419516 0.011493332 -0.0024949787 0.027544452 0.016535273 -0.13181356
0.026645107 -0.089172795 -0.053131957 -0.057725046 -0.01678209 0.014411623 -0.07797395 0.045970704
-0.04935315 0.028876083 -0.01878695 -0.020011973 -0.07794072 0.042516835 -0.09471339 0.051719245
0.039912697 -0.0056950576 -0.041548137 0.028218497 -0.00823625 0.019891003 -0.016628971 -0.02002214
0.02194956 0.073649675 0.0562808 -0.04612999 0.039535083 0.09175133 -0.022375144 -0.103667215
0.009324615 -0.08310527 -0.021861557 0.10789135 -0.027222704 0.049404398 0.0050107585 0.07874379
-0.08788202 -0.08144412 -0.07513993 -0.09722572 -0.023729034 0.039376136 -0.0011291648 0.050289467
0.030799652 0.060892016 0.02961145 -0.105393805 0.087407656 0.09588473 -0.10247218 -0.014781134
-0.10829849 0.02291929 -0.057180904 -0.06203276 0.00509467 0.036014874 0.06899876 0.058352698
-0.049030215 -0.05941241 0.040206775 -0.025787061 0.021304993 0.031826433 0.006462911 0.07954088
-0.09012565 -0.030957017 0.007915597 -0.052153695 -0.051932402 -0.0811886 0.049672358 -0.08047557
00000000: 879e 8b3c ea39 09bd f6e8 ad3b 9997 263d
00000010: 2b89 cd3d 8960 733d b903 ba3b 17a0 b63d
00000020: 7861 ac3d 51e7 98bd d278 503d 14cf a53d
00000030: a668 853d 7e8f cebc e57d 07bc 0714 103c
00000040: 5588 08bc 52eb b0bc a8fa 9a3d 3b6e 20bd
00000050: 2375 d53d e655 fe3c d8a4 e73d 9311 8a3c
00000060: 16a1 5dbd 2465 a23d d38f fdbd 74d1 ff3d
00000070: bba7 0c3d 2f15 263d 8896 c039 df33 60bc
00000080: ac55 15bc 098b a43d 1dd7 b8bc 2387 203c
00000090: 7b2e 0c3c 6044 c3bd 3d4e de3c 02d2 b7bd
000000a0: a419 1fbd 349d 78bb 40e8 abbc e37d 7c3d
000000b0: 7e48 b4bc 0b20 893b ebf7 023d fd7c 953c
000000c0: b5dd c73d ded0 2abc 144c 54bd 6ee8 1cbd
000000d0: a5e1 34bd 1fd9 f83c bf4e 00bd faff 65bd
000000e0: 9234 30bc 4cf1 ffbc 5aea f53d 6f2e 58bc
000000f0: 8481 8a3d ebca 763b 4634 8fbd 27d1 b0bc
00000100: d762 ea38 ea73 f63c 075b a6bc 7ea4 a83d
00000110: 8c7c d33d fccf bc3c 4892 b23b 59a5 b2bc
00000120: aaec d93d dbcc 6c3d b26f 03bc daa0 d23d
00000130: 323a 853c f8fd 06bd ff81 663d 1187 80bc
00000140: 0d77 9f3d b7dc 96bd 9fe6 2fbd 71ae 1bbd
00000150: f1f1 b03d 7c2f 8f3c bb4d 8dbd 46eb 42bd
00000160: 419c b9bc 8c93 90bd e250 d53d 259d c03d
00000170: 6222 1f3d c0d4 f13c b370 593d 49a3 8abd
00000180: d177 803d 34b7 d9bc cb4b 76bc 0275 693d
00000190: 73bd 7bbd 7090 453d 3528 8ebb 59a8 1f3d
000001a0: 3361 043e 1a77 a5bc 8088 803d 9369 ca3c
000001b0: 422c a2bd 1339 ab38 8459 4bbd 0347 43bc
000001c0: aef7 15bc 4e7d bcba 731c 8a3d a8ef 813d
000001d0: 4c76 0c3d fe91 8a3d 430e 87bd 233d 6b3d
000001e0: ee06 b83c 57de 503d 8b83 d0bd d6f3 ba3d
000001f0: 731f 0b3d ec78 6b3d 56c7 03bd e9d0 283d
00000200: 8c00 84bd 700d c73d 1645 3cbd 1f75 2b3c
00000210: 9ad2 a6bd 4509 de3c 0bc5 833d e33c 97bc
00000220: cafd 9dbd e5f2 16bd 1ad3 0b3d 265e 3bbd
00000230: f177 303c de3e 1ebd 013b c5bd b6ba c13d
00000240: 0862 e0bc 9792 0a3d 8a1a 58bb d501 32bd
00000250: f3b0 a0bd e13c 34bd 08b2 ff3c 0de7 923d
00000260: 6854 d4bb fcc9 63bc ccfa 91bc f768 243d
00000270: 8902 7bbd 382b 803d 08ce 18bc ddfb 233d
00000280: ff75 a8bd 353d bbbd 96af 88bc 4942 6dbd
00000290: 4a75 acbd 9fe8 aabc 5d50 fcbc afde afbc
000002a0: c824 94bc 612d 0abd 4664 d53d 874e 3c3c
000002b0: cc82 23bb e7a4 e13c fb74 873c 22fa 06be
000002c0: d746 da3c 3aa0 b6bd e5a0 59bd 1971 6cbd
000002d0: 987a 89bc ba1e 6c3c ceb0 9fbd c74b 3c3d
000002e0: 8726 4abd 898d ec3c 17e7 99bc 26f0 a3bc
000002f0: 629f 9fbd 2226 2e3d 18f9 c1bd 8fd7 533d
00000300: 7f7b 233d 9b9d babb 612e 2abd 7a2a e73c
00000310: 56f1 06bc 75f2 a23c 7b39 88bc 7905 a4bc
00000320: 90cf b33c a4d5 963d b286 663d cdf2 3cbd
00000330: 8aef 213d 1fe8 bb3d 144c b7bc 7a4f d4bd
00000340: 45c6 183c 1933 aabd 0217 b3bc 24f6 dc3d
00000350: 2602 dfbc 445c 4a3d 4a31 a43b 6d44 a13d
00000360: 7dfb b3bd 2dcc a6bd f7e2 99bd 471e c7bd
00000370: 6463 c2bc df48 213d 7c00 94ba 54fc 4d3d
00000380: 8d4f fc3c e869 793d b693 f23c b5d8 d7bd
00000390: c902 b33d 375f c43d efdc d1bd 922c 72bc
000003a0: 99cb ddbd 3cc1 bb3c 8636 6abd 1016 7ebd
000003b0: 31f1 a63b 5584 133d 394f 8d3d 3d03 6f3d
000003c0: e8d3 48bd 6d5a 73bd dcaf 243d 633f d3bc
000003d0: cf87 ae3c 6f5c 023d d4c6 d33b 54e6 a23d
000003e0: cc93 b8bd 9299 fdbc 6cb0 013c 1d9f 55bd
000003f0: 12b7 54bd 3546 a6bd 3e75 4b3d 60d0 a4bd

bias_hh f4 [384]
0.12594478 -0.021039117 -0.031669732 -0.01787182 0.10731097 0.027736653 0.044366714 0.053321015
0.073807895 -0.04390902 0.121177495 0.04983477 0.1057556 -0.032286793 0.048486054 -0.0469565
0.019289235 0.032118082 -0.029871538 0.10064422 -0.05762357 -0.08225228 0.040422015 -0.041137863
-0.067869194 0.11304693 -0.13295646 0.06523194 -0.01939129 -0.03190717 0.052901983 0.01844169
0.0812061 0.11493928 -0.0074240505 -0.014227297 -0.017320542 -0.061932724 0.046297926 -0.020528698
-0.05443001 -0.094445676 -0.067805275 0.016668165 -0.08028944 0.13531832 0.06332578 -0.008191958
0.0013995463 -0.0469801 0.060520194 0.059839416 -0.02091701 0.006927967 0.07286769 0.011115447
0.00016599246 -0.06240989 0.09425883 -0.019480461 0.03235609 0.016613267 0.013239018 0.041423395
-0.02302335 0.048493285 0.03451219 0.06275552 0.055798583 -0.031565245 0.044947334 0.018832527
0.04335011 0.030364102 -0.07159622 -0.008268848 0.022811687 0.07545547 0.03213008 -0.028922217
0.06464573 0.01342544 -0.06556056 0.046384238 0.06295182 -0.03847313 0.004364916 0.04190772
-0.013032901 0.018074568 -0.020449711 0.08685944 0.06505083 0.042632055 0.06364451 -0.0317308
0.019397888 0.003185735 0.079343796 0.06664225 -0.083679445 -0.04583804 0.06563937 0.087664865
0.11373024 0.035209082 0.044140983 0.018325428 -0.12060511 -0.07787858 0.0042875074 -0.014285557
0.06348383 0.032730307 -0.049238697 -0.07017245 0.013724457 0.0018266031 -0.01583161 -0.07667579
0.07292399 0.071166374 0.061592113 0.0030177461 -0.012532195 0.012396693 -0.07490849 0.052142605
-0.08951541 -0.07331352 0.019229112 0.009072962 0.043843303 -0.030876951 -0.012455568 -0.062469423
-0.07136055 -0.11363584 -0.047170293 0.06280992 0.0018657034 -0.04895074 -0.06619233 0.063802294
-0.063556895 -0.016143605 -0.016204668 0.010349337 -0.0075729275 -0.068352476 0.0067769038 0.079259574
0.035217848 -0.041174073 -0.033022784 0.06070478 0.04751583 0.015544835 -0.07414166 0.031521168
-0.07350736 -0.04753569 -0.069393165 0.011427557 -0.045781795 -0.0398313 0.040549103 -0.08814411
-0.0857351 -0.038267434 -0.012775035 0.0361277 0.016199255 -0.10351612 0.04529467 -0.031689905
0.035383616 0.026755879 0.0014554712 -0.093497604 -0.08900677 -0.004370139 -0.107647024 -0.0063299797
-0.034096543 -0.043239154 -0.007440258 0.005842991 -0.07958798 0.020347543 -0.050408896 -0.1000386
0.053786878 -0.0632456 0.053531602 0.061337605 0.050930843 0.010659018 -0.03780408 0.03234602
-0.028424256 0.020276098 0.049468175 -0.047927257 -0.09311869 0.04733615 -0.05015308 0.012154164
-0.03820389 -0.030906685 0.004073163 0.080532655 -0.013473726 -0.074775346 0.06393298 0.043179173
-0.06928997 0.006006573 0.042676024 -0.06485315 0.06451564 -0.051381208 -0.009105052 -0.09232328
0.07724514 -0.06897156 0.043480396 -0.0011079013 -0.012222142 -0.016000241 -0.118318185 -0.0032116252
-0.09006973 -0.061444934 -0.048037916 -0.03330459 0.066844754 -0.039445225 -0.08543933 -0.013910667
0.007314379 0.058629215 0.104438394 -0.024901837 -0.061672784 0.06483374 0.057581052 0.030322496
-0.021509182 -0.03505851 -0.10120547 -0.025724253 -0.0043508084 -0.055227026 -0.019526932 -0.04475104
00000000: abf7 003e 3a5a acbc 1fb8 01bd ec67 92bc
00000010: dbc5 db3d fa37 e33c dfb9 353d 2367 5a3d
00000020: 9828 973d f2d9 33bd e82b f83d 8b1f 4c3d
00000030: 6496 d83d 283f 04bd 5099 463d 7555 40bd
00000040: 7504 9e3c 408e 033d 28b5 f4bc 8f1e ce3d
00000050: b106 6cbd e273 a8bd 8e91 253d 2d80 28bd
00000060: 01ff 8abd 2685 e73d bd25 08be 5398 853d
00000070: 7cda 9ebc 18b1 02bd c0af 583d 0713 973c
00000080: 624f a63d 4965 eb3d 7345 f3bb 9c19 69bc
00000090: cfe3 8dbc 2bad 7dbd e5a2 3d3d cd2b a8bc
000000a0: 01f2 5ebd bc6c c1bd 7edd 8abd ad8b 883c
000000b0: ca6e a4bd e390 0a3e f2b0 813d 9037 06bc
000000c0: fb70 b73a 356e 40bd 06e4 773d 2d1a 753d
000000d0: 265a abbc 0004 e33b a83b 953d 901d 363c
000000e0: 430e 2e39 83a1 7fbd c60a c13d 7d95 9fbc
000000f0: d287 043d 8c18 883c 77e8 583c 94ab 293d
00000100: 779b bcbc e5a0 463d a75c 0d3d f785 803d
00000110: 0e8d 643d 8f4a 01bd b21a 383d ac46 9a3c
00000120: e38f 313d 23be f83c 0aa1 92bd 107a 07bc
00000130: 93df ba3c 6688 9a3d d59a 033d 49ee ecbc
00000140: fb64 843d 60f6 5b3c 9d44 86bd 66fd 3d3d
00000150: e2ec 803d 0096 1dbd 9207 8f3b 6ea7 2b3d
00000160: f387 55bc 1e11 943c 2786 a7bc 5de3 b13d
00000170: 5f39 853d f39e 2e3d 0e58 823d 28f8 01bd
00000180: 52e8 9e3c c4c7 503b 007f a23d bb7b 883d
00000190: 2160 abbd abc0 3bbd ef6d 863d a389 b33d
000001a0: 66eb e83d 6637 103d 2dcd 343d 351f 963c
000001b0: d0ff f6bd ce7e 9fbd 387e 8c3b f80d 6abc
000001c0: cf03 823d 3710 063d 84ae 49bd 93b6 8fbd
000001d0: 8bdc 603c a16a ef3a 4bb1 81bc 3208 9dbd
000001e0: 2c59 953d adbf 913d 0348 7c3d 61c5 453b
000001f0: d653 4dbc 801b 4b3c 9f69 99bd 7c93 553d
00000200: db53 b7bd 6625 96bd 5f86 9d3c c3a6 143c
00000210: 0995 333d a9f1 fcbc 7012 4cbc f0df 7fbd
00000220: 7b25 92bd e8b9 e8bd a335 41bd 7da2 803d
00000230: 9e8a f43a 9280 48bd d88f 87bd c7aa 823d
00000240: 1e2a 82bd 983f 84bc a7bf 84bc 4490 293c
00000250: 5226 f8bb 62fc 8bbd ca10 de3b d852 a23d
00000260: 9740 103d 25a6 28bd e642 07bd 93a5 783d
00000270: f59f 423d c3af 7e3c 95d7 97bd 571c 013d
00000280: 078b 96bd c9b4 42bd 011e 8ebd a63a 3b3c
00000290: b185 3bbd 2526 23bd d116 263d e684 b4bd
000002a0: e295 afbd 50be 1cbd 614e 51bc a4fa 133d
000002b0: 4db4 843c 4200 d4bd e786 393d 46cd 01bd
000002c0: 69ee 103d 252f db3c 82c5 be3a ac7b bfbd
000002d0: 2e49 b6bd 6233 8fbb 0b76 dcbd b86b cfbb
000002e0: d1a8 0bbd 8a1b 31bd 68cd f3bb 9076 bf3b
000002f0: 06ff a2bd e4af a63c 8f79 4ebd 0ae1 ccbd
00000300: a14f 5c3d e986 81bd f443 5b3d 243d 7b3d
00000310: dc9c 503d 29a3 2e3c 73d8 1abd 437d 043d
00000320: fcd9 e8bc 0f1a a63c 249f 4a3d 5f4f 44bd
00000330: 03b5 bebd 8de3 413d 516d 4dbd 4222 473c
00000340: af7b 1cbd 0430 fdbc 2b78 853b 4eee a43d
00000350: e7c0 5cbc d123 99bd 4bef 823d a5dc 303d
00000360: e6e7 8dbd c9d2 c43b 0ecd 2e3d bad1 84bd
00000370: c720 843d 1a75 52bd 5b2d 15bc fd13 bdbd
00000380: b332 9e3d f640 8dbd 8018 323d 0037 91ba
00000390: 613f 48bc f012 83bc ce50 f2bd 217a 52bb
000003a0: 7b76 b8bd afad 7bbd 68c3 44bd 656a 08bd
000003b0: e7e5 883d 5191 21bd d1fa aebd 91e9 63bc
000003c0: 75ad ef3b 3025 703d cce3 d53d f0fe cbbc
000003d0: 9a9c 7cbd 8dc7 843d 1cda 6b3d e266 f83c
000003e0: 0634 b0bc 8399 0fbd d044 cfbd abbb d2bc
000003f0: 3a91 8ebb bc35 62bd f2f6 9fbc de4c 37bd

weight f4 [128, 128]
0.08121281 0.0303658 -0.026617182 0.04607489 0.021462101 0.0027898138 -0.03523964 -0.04000747
-0.008867281 0.007852246 -0.05521416 0.053463515 -0.034379873 -0.006109374 0.029288545 0.08903401
-0.05056201 -0.052249588 0.07270966 0.070699245 0.028530529 -0.025960347 0.05494256 -0.07258829
0.0561198 0.026713997 0.036848303 0.06229068 0.091025 -0.013117113 0.017303947 -0.024409203
0.055079754 0.042583287 0.093718566 0.09142949 -0.014769557 0.043739345 0.08314354 0.05396238
-0.06882483 0.026849512 -0.0071437294 -0.04614449 -0.023298342 -0.04001275 0.10541456 -0.0347495
0.07380287 -0.07379505 0.062278155 -0.01940744 -0.041790355 -0.023974665 -0.02482425 -0.029996492
0.09338731 0.05562752 -0.017028093 0.015151524 0.007692586 -0.034778792 -0.011365837 0.0014515846
0.07273826 -0.031871498 -0.094532385 -0.03868281 -0.0067388453 0.014757449 0.06467158 -0.0720434
0.038139015 0.009053071 -0.049008958 -0.04323492 -0.0067404862 -0.0317641 -0.043954473 -0.019069428
-0.07211582 -0.026216287 0.090177454 -0.0008873897 0.017015724 -0.06319882 0.01623836 0.041329034
-0.05375764 0.08951748 -0.008656916 -0.04394623 -0.061919015 0.09467905 -0.035320446 -0.0923772
-0.07444942 -0.033938915 -0.0026024098 0.084147625 0.08359181 -0.060419828 -0.04763144 0.072131336
-0.029821761 -0.0390103 -0.052141942 0.013430537 -0.045912415 0.08310675 0.06299713 -0.078237616
-0.056058403 0.07569848 -0.0114347525 0.020184515 0.021498727 0.048734657 0.01278815 -0.036790065
0.03597904 -0.058243185 -0.084075466 0.059633203 0.09148452 -0.10135917 0.05662717 -0.016698124
-0.064526916 -0.019571532 -0.06704349 0.021152457 -0.096304916 0.06224491 0.057777263 0.07165146
-0.04027734 -0.104693614 0.06671192 -0.07438889 0.037568998 -0.028344706 0.07773931 0.008814713
-0.03168935 -0.023784868 -0.038277373 0.14184754 -0.028751021 -0.100151725 0.008064117 0.05562641
0.059529576 -0.017248709 -0.039050695 -0.026642233 -0.09920347 0.07508819 0.030820964 -0.060917124
-0.09056555 -0.05650289 -0.026362749 -0.02244663 0.0023465992 0.08325717 0.07422372 -0.07842497
0.047383618 0.002139179 -0.005645476 -0.05393361 0.033637367 0.09505989 0.023526266 -0.07687409
0.07373061 0.10600885 0.07479119 0.049864605 -0.04809912 -0.071511656 -0.08625109 -0.008455019
0.021505449 -0.10569079 0.11492349 -0.08015944 -0.06631394 -0.027091661 0.059747912 -0.029851424
-0.13167135 0.07009216 -0.01904638 0.024951648 0.083720036 -0.058092903 0.05961763 -0.0582714
0.13646993 0.020195058 -0.0032119153 -0.016065774 0.05392789 -0.0399301 -0.029011264 -0.0011289286
-0.047483023 -0.014834191 -0.075836055 -0.061096657 -0.04024861 -0.066347435 0.039543994 -0.03335225
0.054663528 0.03964572 -0.05390303 -0.017855095 -0.03828112 -0.0100385295 0.004288293 -0.0046199914
-0.025751777 0.030152189 0.087496795 -0.06396736 -0.06691564 0.06257698 0.023848508 -0.09023294
0.016148517 0.09350658 0.014259545 -0.09189316 -0.022664063 0.04810889 -0.047680642 -0.03978413
0.08745114 0.08432919 -0.035610005 0.013693231 -0.023484899 -0.02660638 0.041269608 -0.005343657
0.08866246 -0.011194789 0.0046718013 -0.032878097 0.02595813 0.05937169 0.020780433 -0.05124021
00000000: e752 a63d b3c1 f83c 470c dabc 06b9 3c3d
00000010: 4ad1 af3c 4fd5 363b 7157 10bd dfde 23bd
00000020: 1248 11bc b5a6 003c 3e28 62bd 8ffc 5a3d
00000030: e9d1 0cbd 2531 c8bb 88ee ef3c 7757 b63d
00000040: 1c1a 4fbd aa03 56bd cde8 943d c4ca 903d
00000050: dbb8 e93c cbaa d4bc 730b 613d 2ba9 94bd
00000060: e0dd 653d 50d7 da3c 3fee 163d 8324 7f3d
00000070: 516b ba3d 29e9 56bc 02c1 8d3c cff5 c7bc
00000080: 4f9b 613d d06b 2e3d 85ef bf3d 623f bb3d
00000090: 03fc 71bc 0728 333d 2947 aa3d a807 5d3d
000000a0: 08f4 8cbd 82f3 db3c f215 eabb 0102 3dbd
000000b0: 2adc bebc 69e4 23bd 97e3 d73d 7e55 0ebd
000000c0: f625 973d dc21 97bd 6117 7f3d 5afc 9ebc
000000d0: 5d2c 2bbd 8466 c4bc 3a5c cbbc 34bb f5bc
000000e0: d941 bf3d afd9 633d 807e 8bbc 193e 783c
000000f0: 1712 fc3b 3574 0ebd c737 3abc 1943 be3a
00000100: ccf7 943d b08b 02bd 329a c1bd de71 1ebd
00000110: 88d1 dcbb 3ac9 713c 8972 843d 7d8b 93bd
00000120: a837 1c3d 5553 143c 9ebd 48bd 1917 31bd
00000130: 4cdf dcbb 131b 02bd 9b09 34bd 7d37 9cbc
00000140: 76b1 93bd 8ac3 d6bc f5ae b83d b79f 68ba
00000150: 8f64 8b3c 626e 81bd 4f06 853c a248 293d
00000160: f930 5cbd f154 b73d bdd5 0dbc f600 34bd
00000170: cb9e 7dbd 17e7 c13d 2cac 10bd 4230 bdbd
00000180: f078 98bd 8803 0bbd 318d 2abb 9755 ac3d
00000190: 2f32 ab3d c87a 77bd 2f19 43bd 98b9 933d
000001a0: c44c f4bc 44c9 1fbd ca92 55bd c10b 5c3c
000001b0: a80e 3cbd df33 aa3d a404 813d 0b3b a0bd
000001c0: 7f9d 65bd ce07 9b3d d458 3bbc ff59 a53c
000001d0: 191e b03c fe9d 473d 6485 513c 2eb1 16bd
000001e0: c25e 133d 6890 6ebd c22f acbd f241 743d
000001f0: 3c5c bb3d 6695 cfbd e4f1 673d 81ca 88bc
00000200: b026 84bd 7a54 a0bc 194e 89bd eb47 ad3c
00000210: 833b c5bd 85f4 7e3d daa7 6c3d 00be 923d
00000220: daf9 24bd 9b69 d6bd 42a0 883d 3459 98bd
00000230: f3e1 193d 2833 e8bc ca35 9f3d 966b 103c
00000240: b1cc 01bd 7cd8 c2bc bcc8 1cbd 7b40 113e
00000250: 4387 ebbc 591c cdbd 5c1f 043c 85d8 633d
00000260: 49d5 733d 2a4d 8dbc 9ff3 1fbd d040 dabc
00000270: 302b cbbd d6c7 993d 3f7c fc3c 3c84 79bd
00000280: 6e7a b9bd 936f 67bd b1f6 d7bc ffe1 b7bc
00000290: 67c9 193b bc82 aa3d 9b02 983d 459d a0bd
000002a0: 5315 423d 7831 0c3b affd b8bb 7de9 5cbd
000002b0: 56c7 093d c2ae c23d 28ba c03c 2a70 9dbd
000002c0: 1300 973d 2b1b d93d 202c 993d d43e 4c3d
000002d0: 9503 45bd b474 92bd 69a4 b0bd ec86 0abc
000002e0: 322c b03c 6a74 d8bd 025d eb3d a22a a4bd
000002f0: 9acf 87bd 55ef ddbc 3aba 743d f98a f4bc
00000300: dbd4 06be 7a8c 8f3d 2707 9cbc 6667 cc3c
00000310: 6975 ab3d d3f2 6dbd 9e31 743d fead 6ebd
00000320: c6be 0b3e 1b70 a53c ff7e 52bb 5f9c 83bc
00000330: 7ee3 5c3d bf8d 23bd 08a9 edbc 8ff8 93ba
00000340: 8f7d 42bd 1b0b 73bc ef4f 9bbd 7d40 7abd
00000350: badb 24bd 2ae1 87bd e2f8 213d 5e9c 08bd
00000360: dde6 5f3d 8d63 223d 6cc9 5cbd d944 92bc
00000370: aacc 1cbd a578 24bc cf84 8c3b 4c63 97bb
00000380: 64f5 d2bc b901 f73c 8531 b33d 5201 83bd
00000390: 110b 89bd 5c28 803d f25d c33c 0ccc b8bd
000003a0: e549 843c 6180 bf3d dea0 693c 7b32 bcbd
000003b0: fca9 b9bc d40d 453d c74c 43bd aff4 22bd
000003c0: 9519 b33d c8b4 ac3d ccdb 11bd 9359 603c
000003d0: 6763 c0bc 9ff5 d9bc 520a 293d d819 afbb
000003e0: aa94 b53d 596a 37bc e915 993b 2fab 06bd
000003f0: 25a6 d43c bb2f 733d ba3b aa3c 41e1 51bd

bias f4 [128]
-0.03554647 -0.042221945 0.086646415 0.0068895197 -0.045242596 0.05859659 0.010587619 0.04209912
0.027786305 -0.07164093 -0.04224386 -0.05266045 0.021120742 -0.033881266 0.05855801 0.0041363374
-0.010605909 0.06610972 -0.094501026 0.08806294 -0.086065814 -0.093814954 0.050984755 -0.009084601
0.057610225 0.04075509 0.04387089 0.012981115 0.070258826 -0.035104364 0.013703776 0.02576857
-0.038388412 0.045171082 -0.07883499 0.028191227 -0.0499604 -0.020476848 -0.053185817 0.018055003
-0.022632923 0.0781621 0.03450924 0.0700358 0.08925714 0.1157428 0.09609979 0.063526966
0.067083575 0.056467168 -0.06919791 0.042838216 -0.03618163 0.037968587 -0.09041576 0.02347541
0.005983868 -0.034762856 0.08416643 -0.021422347 -0.029049804 0.05776178 -0.062239278 -0.06910402
0.071697 -0.05521347 0.085527696 -0.016266292 0.09522047 -0.06752013 -0.020445427 -0.07169922
0.007386374 0.088078305 0.037874356 -0.0050250846 0.049952652 -0.036535062 -0.00875192 -0.027793523
0.068043925 0.064362556 0.046482854 0.031983826 -0.059684787 0.028802477 -0.024811253 -0.030395802
-0.056214534 0.011559684 0.099800155 -0.067689344 0.015986893 -0.008306757 -0.0407572 0.0041555036
0.09677137 -0.012289465 0.02900221 -0.08175604 -0.03429316 0.019426607 -0.10184893 0.0013114307
0.08966336 -0.0067868438 -0.07331121 0.052504223 0.062986456 -0.035222694 0.09808689 -0.025983924
0.017094472 0.054251306 -0.017173365 -0.04143908 -0.008427624 -0.07937427 0.0057271016 0.06613513
-0.05627067 -0.074901596 -0.036896095 -0.044254206 -0.07607468 -0.06495853 0.044833776 0.024393823
00000000: 2d99 11bd ebf0 2cbd ad73 b13d 7bc1 e13b
00000010: 4d50 39bd fa02 703d b177 2d3c 2070 2c3d
00000020: 1ba0 e33c 7bb8 92bd e607 2dbd 7cb2 57bd
00000030: 6805 ad3c 15c7 0abd 86da 6f3d 1d8a 873b
00000040: 68c4 2dbc 8864 873d c189 c1bd 585a b43d
00000050: 4643 b0bd 0e22 c0bd 64d5 503d 94d7 14bc
00000060: b3f8 6b3d cfee 263d f6b1 333d beae 543c
00000070: dce3 8f3d 98c9 0fbd cd85 603c 9c18 d33c
00000080: 2b3d 1dbd 5005 393d 3d74 a1bd 4af1 e63c
00000090: 47a3 4cbd 10bf a7bc 5fd9 59bd 16e8 933c
000000a0: ae68 b9bc 7313 a03d 9059 0d3d ee6e 8f3d
000000b0: 73cc b63d 900a ed3d f7cf c43d 6d1a 823d
000000c0: 1d63 893d 1e4a 673d a2b7 8dbd 2077 2f3d
000000d0: 3033 14bd f384 1b3d e62b b9bd 814f c03c
000000e0: 5314 c43b 7f63 0ebd 735f ac3d eb7d afbc
000000f0: dbf9 edbc 9e97 6c3d 9dee 7ebd 6986 8dbd
00000100: e0d5 923d 8527 62bd 2529 af3d e340 85bc
00000110: f302 c33d fe47 8abd 2b7d a7bc 0ad7 92bd
00000120: 6509 f23b 6662 b43d 2422 1b3d 77a9 a4bb
00000130: 279b 4c3d caa5 15bd 3764 0fbc 3eaf e3bc
00000140: 9d5a 8b3d 84d0 833d ce64 3e3d 7901 033d
00000150: 0978 74bd 2cf3 eb3c f840 cbbc 9e00 f9bc
00000160: 3641 66bd d464 3d3c 0664 cc3d b6a0 8abd
00000170: f2f6 823c 1019 08bc 06f1 26bd e42a 883b
00000180: 1130 c63d c159 49bc 0b96 ed3c b66f a7bd
00000190: fc76 0cbd 8c24 9f3c 2c96 d0bd 50e4 ab3a
000001a0: 6ca1 b73d 2c64 debb 3024 96bd ab0e 573d
000001b0: 0bff 803d ac45 10bd c8e1 c83d 3ddc d4bc
000001c0: b509 8c3c 9e36 5e3d 28af 8cbc 06bc 29bd
000001d0: 0414 0abc fa8e a2bd 69aa bb3b db71 873d
000001e0: 137c 66bd 0266 99bd 5c20 17bd e643 35bd
000001f0: 0bcd 9bbd fa08 85bd 9fa3 373d 8ed5 c73c

weight f4 [128, 128]
-0.08220462 -0.058750443 0.012012758 0.068226054 -0.079589784 -0.042802863 0.031881973 -0.034779564
-0.07301858 0.07119009 -0.04409872 0.021920389 0.044380043 -0.031018166 -0.038179427 0.07243531
0.0618295 -0.0179852 0.051443644 0.013117702 -0.022116715 0.09061273 0.04649879 0.04870978
0.07009921 -0.010694344 -0.12125669 0.056610346 -0.026765723 -0.025939057 0.07271653 0.045401815
-0.004708231 -0.09425842 0.07913931 0.06803489 0.010660373 0.034482483 0.057641827 0.038734812
0.017383922 -0.08864423 0.045993418 -0.022532724 -0.093536735 0.060995772 0.01934835 0.02658638
0.06316878 -0.0659323 -0.05479996 -0.06844406 0.013772344 -0.0033745219 0.012602987 -0.011926605
-0.08488461 0.010433991 0.021622075 0.010218373 -0.012373795 0.045422282 0.0073960694 0.08450627
0.0072769504 0.025576333 0.033327777 -0.012465533 -0.043544203 0.02797105 0.013220945 0.040165797
-0.037664168 0.025044007 -0.045038383 0.03191049 -0.07821256 0.002978852 -0.025281347 0.056049123
0.04120778 0.0046400283 0.027832998 0.059447926 -0.053747427 0.021512661 -0.031845406 -0.101746835
-0.10098092 0.014847498 -0.08433622 0.020768575 0.021585003 -0.05620826 0.0725828 0.020056788
0.015530712 -0.081614584 -0.03958665 -0.09505748 -0.020632265 0.044226874 -0.020232739 -0.00082928105
0.072848134 0.001560177 0.021855904 -0.0014993675 0.030591918 0.08226095 -0.013829062 0.052209917
0.015246886 0.021164237 -0.013389191 0.065410465 -0.074007526 0.07382544 0.061824907 -0.021932041
-0.06533816 0.06166607 -0.045635182 -0.011577499 -0.033345453 -0.01591848 0.032991555 0.08221595
0.0769396 0.051890906 -0.06095403 0.05112963 0.055436265 -0.008280178 -0.08537705 -0.098630436
-0.03494197 0.04021418 0.008817409 -0.083881915 0.037641943 0.032084614 0.020952078 -0.06572092
-0.056992143 0.040482327 -0.07086514 -0.079204716 0.013930336 0.008507867 0.08177776 0.023974484
-0.02953623 0.092679314 -0.11267136 -0.052423928 0.03363101 0.03021128 -0.03787465 -0.045630082
-0.022635309 -0.07554515 0.05354495 0.05768837 -0.01244933 -9.62629e-06 -0.019127611 -0.021264704
0.04126661 0.010568625 0.064692825 0.026516695 -0.029490408 -0.0052892086 0.04954797 0.05185302
0.002078909 -0.09552211 0.07272992 -0.032118972 -0.042464163 -0.10196528 0.056429815 -0.026960336
-0.0022394874 0.07367641 0.034523293 -0.09957018 -0.0035084886 0.016847316 0.007490607 0.08408702
0.02837565 0.019473018 0.0071805003 0.02181671 -0.0051985816 0.026970925 -0.012953713 0.09615827
-0.05376086 0.08164475 -0.05656903 0.0048333863 -0.0035831179 0.05001163 -0.09341319 0.052400798
0.0023166833 0.031581525 0.08423888 -0.007106916 -0.050160658 0.047498286 -0.044554707 0.040826112
0.0575427 -0.0010988691 -0.07666233 -0.10454348 -0.080463484 -0.05764898 -0.051221926 -0.00958779
-0.024216767 0.058474097 0.029509407 -0.061228327 -0.08224576 -0.026596738 0.034283463 -0.036083072
0.005859348 0.072581485 -0.048207246 -0.05849106 -0.011179697 -0.0033633634 -0.08008825 0.069715425
0.022080673 -0.008089063 -0.043409836 -0.037073147 -0.052390765 -0.07571399 0.08525235 0.01445665
0.02815503 0.079629555 0.045815483 -0.017718432 -0.06934269 -0.006098734 -0.032407977 0.038760968
00000000: e55a a8bd 4ea4 70bd 29d1 443c 1aba 8b3d
00000010: f8ff a2bd 0e52 2fbd ac96 023d 0475 0ebd
00000020: c48a 95bd 1ccc 913d dca0 34bd 6392 b33c
00000030: d9c7 353d cf19 febc 0862 1cbd f758 943d
00000040: ee40 7d3d b355 93bc 92b6 523d a1eb 563c
00000050: 1d2e b5bc 2b93 b93d 8475 3e3d e883 473d
00000060: 2d90 8f3d 5437 2fbc 6d55 f8bd 40e0 673d
00000070: ca43 dbbc 257e d4bc 67ec 943d 41f7 393d
00000080: 8147 9abb 8f0a c1bd ca13 a23d e055 8b3d
00000090: d8a8 2e3c 813d 0d3d d619 6c3d 65a8 1e3d
000000a0: ba68 8e3c 1b8b b5bd 9863 3c3d 8c96 b8bc
000000b0: 3090 bfbd b4d6 793d 6e80 9e3c aecb d93c
000000c0: a25e 813d 8407 87bd ec75 60bd 662c 8cbd
000000d0: 66a5 613c 1527 5dbb c27c 4e3c cf67 43bc
000000e0: fbd7 adbd 55f3 2a3c c720 b13c f66a 273c
000000f0: 75bb 4abc b70c 3a3d ba5a f23b a011 ad3d
00000100: 7c73 ee3b 7585 d13c b582 083d 3c3c 4cbc
00000110: 685b 32bd 8b23 e53c aa9c 583c e484 243d
00000120: be45 1abd 1729 cd3c 2b7a 38bd 93b4 023d
00000130: e82d a0bd d838 433b d41a cfbc c493 653d
00000140: 7dc9 283d 610b 983b 0702 e43c ab7f 733d
00000150: 4326 5cbd 523b b03c 5470 02bd a560 d0bd
00000160: 16cf cebd ec42 733c 78b8 acbd dc22 aa3c
00000170: 08d3 b03c a23a 66bd 4ba6 943d 224e a43c
00000180: 8774 7e3c 8c25 a7bd 9c25 22bd 7fad c2bd
00000190: ff04 a9bc 3d27 353d 21bf a5bc 1c64 59ba
000001a0: 6731 953d da7e cc3a 270b b33c 6d86 c4ba
000001b0: e79b fa3c 6e78 a83d 4a93 62bc 11da 553d
000001c0: 13ce 793c 9f60 ad3c 565e 5bbc ecf5 853d
000001d0: 4291 97bd cb31 973d 1d3c 7d3d d3aa b3bc
000001e0: 03d0 85bd 9095 7c3d f5eb 3abd 8daf 3dbc
000001f0: 3e95 08bd 7967 82bc 2722 073d d660 a83d
00000200: 8292 9d3d 8f8b 543d efaa 79bd 4e6d 513d
00000210: 2311 633d 95a9 07bc 2ada aebd c1fe c9bd
00000220: 501f 0fbd a0b7 243d e576 103c 48ca abbd
00000230: 702e 1a3d 286b 033d b1a3 ab3c b198 86bd
00000240: 9870 69bd ccd0 253d be21 91bd 1536 a2bd
00000250: 103c 643c 9564 0b3c 197b a73d 2366 c43c
00000260: f7f5 f1bc a7ce bd3d 3ec0 e6bd 79ba 56bd
00000270: acc0 093d a57d f73c 7322 1bbd 9ce6 3abd
00000280: af6d b9bc 6ab7 9abd f351 5b3d a44a 6c3d
00000290: 46f8 4bbc 9a80 21b7 82b1 9cbc 5133 aebc
000002a0: 2d07 293d 0728 2d3c ac7d 843d 8a39 d93c
000002b0: de95 f1bc 1951 adbb d0f2 4a3d d563 543d
000002c0: 4e3e 083b 19a1 c3bd 6df3 943d 2f8f 03bd
000002d0: e7ee 2dbd 2cd3 d0bd f322 673d ecdb dcbc
000002e0: 5dc4 12bb a8e3 963d 4c68 0d3d 73eb cbbd
000002f0: acee 65bb 6203 8a3c c473 f53b d135 ac3d
00000300: 0d74 e83c e185 9f3c 674a eb3b f5b8 b23c
00000310: dd58 aabb 21f2 dc3c cf3b 54bc a1ee c43d
00000320: 5934 5cbd 5d35 a73d edb4 67bd 6261 9e3b
00000330: bed2 6abb ffd8 4c3d 6a4f bfbd 38a2 563d
00000340: 7fd3 173b a15b 013d 6f85 ac3d 22e1 e8bb
00000350: 4375 4dbd 908d 423d ff7e 36bd 4839 273d
00000360: e5b1 6b3d ee07 90ba 2401 9dbd e41a d6bd
00000370: 0aca a4bd 5621 6cbd 15ce 51bd 1b16 1dbc
00000380: 3e62 c6bc 8982 6f3d b6bd f13c 8eca 7abd
00000390: 7770 a8bd 67e1 d9bc d16c 0c3d d8cb 13bd
000003a0: c6ff bf3b 9aa5 943d f674 45bd 5294 6fbd
000003b0: 0c2b 37bc e06b 5cbb 4f05 a4bd f6c6 8e3d
000003c0: 87e2 b43c fd87 04bc 83ce 31bd 03da 17bd
000003d0: b397 56bd f00f 9bbd c998 ae3d 96db 6c3c
000003e0: 61a5 e63c d214 a33d 04a9 3b3d 3f26 91bc
000003f0: 8a03 8ebd e4d7 c7bb 3abe 04bd d2c3 1e3d

bias f4 [128]
-0.08888566 0.032106478 0.007820514 -0.033679184 0.024996063 -0.036362503 -0.08214668 -0.034204006
-0.06990009 -0.09901363 -0.064956345 0.102395326 0.028888945 -0.016141325 -0.07041947 -0.04783617
0.073619366 -0.049134344 -0.00036685375 0.04511853 -0.0152577935 -0.06798577 0.03858907 0.07507928
0.05704393 0.025113422 -0.034204543 -0.06531775 -0.04318437 0.04217275 0.04036063 -0.01550286
0.057002027 0.06664241 0.0024440205 0.054274015 0.03349186 -0.02806562 0.09420535 -0.07784679
-0.01887673 -0.08489851 0.080593795 -0.0904148 -0.09724784 0.034576457 -0.088563174 -0.026728481
-0.069143035 0.06990837 0.06376143 0.015093425 0.014986112 0.033527255 -0.073245786 0.049173594
0.06294548 0.09142477 0.09346828 -0.02327674 0.013132895 0.016451485 -0.025806213 0.061012067
0.0036567852 0.03735546 0.06098628 -0.06980647 0.08803747 -0.017636554 0.07380909 0.015859911
0.07920776 -0.04919064 -0.02247995 0.021649668 -0.064926244 0.044444494 0.007770606 0.068129875
-0.07628163 -0.035827663 -0.07535216 0.08001365 0.023033528 0.0047858716 -0.07919123 -0.054075167
-0.04498704 0.054654997 -0.0027233728 -0.055680074 0.011192382 -0.014891385 0.012918591 -0.003702317
-0.027973047 0.018020617 0.07377805 -0.10368603 0.027215555 0.0015190882 -0.036244176 -0.045809444
0.08598028 0.041278444 0.07652728 0.037970047 0.045880824 -0.008738634 -0.0048554754 -0.024941534
-0.017137751 -0.09017983 -0.07514141 -0.08320582 -0.042536717 0.054840285 0.04560512 0.0025563217
0.021172946 -0.076794945 -0.053894583 0.026743775 -0.039779328 -0.022997791 -0.030009799 0.023572316
00000000: af09 b6bd 1582 033d 9d21 003c 2ff3 09bd
00000010: 8bc4 cc3c d9f0 14bd 853c a8bd 8019 0cbd
00000020: c727 8fbd a8c7 cabd d507 85bd a4b4 d13d
00000030: 82a8 ec3c d03a 84bc 1538 90bd dcef 43bd
00000040: c0c5 963d 1841 49bd 4756 c0b9 35ce 383d
00000050: d3fb 79bc 203c 8bbd 930f 1e3d 2ac3 993d
00000060: e5a6 693d aaba cd3c 101a 0cbd 50c5 85bd
00000070: 18e2 30bd 55bd 2c3d 3051 253d b5ff 7dbc
00000080: f57a 693d d17b 883d dc2b 203b 6e4e 5e3d
00000090: c32e 093d dfe9 e5bc bcee c03d 236e 9fbd
000000a0: 5fa3 9abc 45df adbd 5c0e a53d 652b b9bd
000000b0: e029 c7bd 0ba0 0d3d 9c60 b5bd b0f5 dabc
000000c0: dd9a 8dbd 1f2c 8f3d 5a95 823d 6a4a 773c
000000d0: 4f88 753c e053 093d e301 96bd 406a 493d
000000e0: 8fe9 803d e93c bb3d 4c6c bf3d ddae bebc
000000f0: 5b2b 573c 44c5 863c 8d67 d3bc cae7 793d
00000100: ada6 6f3b 0a02 193d c0cc 793d b2f6 8ebd
00000110: fd4c b43d 897a 90bc 3829 973d a5ec 813c
00000120: ae37 a23d 207c 49bd df27 b8bc a55a b13c
00000130: 0df8 84bd 6e0b 363d 91a0 fe3b ad87 8b3d
00000140: 8b39 9cbd 07c0 12bd 3c52 9abd 32de a33d
00000150: cfb0 bc3c cdd2 9c3b 032f a2bd ec7d 5dbd
00000160: 5544 38bd ebdd 5f3d 9d7a 32bb ca10 64bd
00000170: 4160 373c fffa 73bc 7fa8 533c 92a2 72bb
00000180: bb27 e5bc f99f 933c f218 973d 5759 d4bd
00000190: 28f3 de3c 241c c73a c674 14bd afa2 3bbd
000001a0: 6e16 b03d 9613 293d 56ba 9c3d 7b86 1b3d
000001b0: 88ed 3b3d 7d2c 0fbc ae1a 9fbb 3052 ccbc
000001c0: 7864 8cbc 34b0 b8bd bde3 99bd d067 aabd
000001d0: fb3a 2ebd 35a0 603d 6fcc 3a3d f687 273b
000001e0: e372 ad3c ab46 9dbd 91c0 5cbd c315 db3c
000001f0: a6ef 22bd dd65 bcbc 1cd7 f5bc bb1a c13c
