results/model/neural_540.model (torch, 686563 bytes, 21 tensors)

weight_ih f4 [384, 5]
0.11642032 -0.038712602 0.07364895 -0.02706817 0.009439973 -0.1963454 -0.04627101 -0.005345749
-0.009120088 -0.25954238 -0.30090475 -0.039520446 0.007576182 0.09761753 -0.24810475 -0.057923824
0.044197638 -0.07795603 0.08695594 -0.12080347 0.02802453 0.09542067 0.017890584 -0.017315773
-0.008197974 -0.18236488 -0.015176552 0.06127661 0.09038808 -0.11454193 -0.0787391 -0.0838215
-0.0020253405 0.022610174 0.035000708 0.0432952 -0.076642625 -0.10642752 0.005014335 0.026359968
-0.048105616 0.019866573 -0.1126682 -0.09850678 -0.04739577 0.06466429 -0.0030834016 0.08127125
0.06039 0.012992643 -0.026487548 0.051721822 0.01720337 0.07718771 -0.083021894 -0.038087662
0.014893412 0.034294996 -0.0354775 -0.06826005 -0.057299513 0.0375953 -0.00730022 0.028643949
-0.10781737 0.15482864 0.06450074 -0.076719694 -0.029617365 -0.11102994 0.10611721 -0.012620978
0.07901945 0.05186708 -0.005129636 -0.16664016 0.030083492 -0.06587872 -0.030225432 -0.009065905
0.038803235 0.08957164 0.100459605 0.16807406 0.11691436 -0.0664964 -0.06324904 0.03882534
-0.04983574 0.025251964 0.02369072 0.009957157 -0.15705879 0.15207985 0.04783858 0.048964053
0.06568245 -0.15544982 -0.004302271 0.022519244 0.13056827 0.0051565003 0.06417448 0.07017689
0.14406528 0.11266956 0.028498685 0.070413545 0.070195325 0.018599644 0.077940166 -0.011319541
0.070775256 0.17316796 0.10511837 -0.039768036 0.051974546 -0.012548007 -0.05155625 -0.09268616
-0.0005509786 0.0978555 -0.09781307 0.15400459 0.027351348 0.09149668 0.047190454 -0.008945299
0.08911339 0.06432377 0.05589182 -0.012547015 -0.071939655 0.08015712 -0.031634647 0.06939474
0.030964205 -0.023257924 -0.033502646 0.05100681 -0.06719807 0.10993024 0.02768871 0.031552233
-0.12574755 0.075078025 -0.10731621 -0.06150036 -0.11119536 0.14640395 0.092883654 -0.01377306
0.06408397 0.022426443 -0.10638687 0.10101951 -0.057035327 -0.07763979 0.107579984 -0.015498954
-0.14914872 -0.011950734 -0.032724205 -0.023468167 -0.02110895 -0.061781988 -0.106440835 -0.024748424
-0.05113079 -0.048194855 0.06896099 0.046963025 0.11219831 0.017372375 -0.16579635 -0.04734747
-0.008936827 -0.07859035 -0.0011914494 -0.037854195 0.13994579 0.038549073 -0.06499272 0.14622365
-0.0002408037 0.03735287 0.04944903 0.03622946 0.15753011 -0.11750081 0.088666804 -0.0013009986
0.092625774 0.0121831745 0.0706965 0.0054697655 -0.095301755 -0.05289238 0.09080905 -0.021472605
0.047156587 0.11693547 -0.09808846 -0.07319089 -0.07953395 -0.013891245 0.07540188 -0.10203487
-0.057510197 -0.11576279 -0.32491925 -0.056448344 0.050947744 0.07928353 -0.14713342 0.10236482
-0.026824154 -0.09262734 -0.092319645 -0.08829216 0.04765227 -0.008049407 0.124250084 0.007851862
-0.05508186 0.049871717 0.020346751 -0.021601532 0.08004241 -0.17686772 0.10899097 0.0075408923
-0.07763 -0.013434627 0.09795908 -0.11393168 -0.09552772 -0.07785752 -0.09629646 0.012656086
0.049227245 0.14985538 0.1603924 0.14830877 -0.15264851 0.009469556 0.026052436 0.037883077
0.055512153 -0.04922244 0.0640591 0.070899054 0.041215077 0.019864652 -0.1893215 -0.10346811
00000000: c76d ee3d 1b91 1ebd 43d5 963d 11be ddbc
00000010: 1eaa 1a3c c50e 49be ac86 3dbd 652b afbb
00000020: 6c6c 15bc bde2 84be 3010 9abe 31e0 21bd
00000030: 9f41 f83b b3eb c73d 2c0f 7ebe 8841 6dbd
00000040: 9508 353d 69a7 9fbd f515 b23d cf67 f7bd
00000050: b393 e53c ea6b c33d 468f 923c cfd9 8dbc
00000060: cc50 06bc dcbd 3abe 13a7 78bc 2ffd 7a3d
00000070: 631d b93d f694 eabd f741 a1bd 9baa abbd
00000080: 93bb 04bb f938 b93c e75c 0f3d 4f56 313d
00000090: cff6 9cbd acf6 d9bd 4a4f a43b dcf0 d73c
000000a0: 650a 45bd 39bf a23c 96be e6bd ecbd c9bd
000000b0: 1122 42bd b66e 843d e512 4abb 8b71 a63d
000000c0: 815b 773d 18df 543c 6afc d8bc 43da 533d
000000d0: 15ee 8c3c 9714 9e3d 6207 aabd cf01 1cbd
000000e0: 7f03 743c e978 0c3d db50 11bd edcb 8bbd
000000f0: e5b2 6abd 87fd 193d af36 efbb b7a6 ea3c
00000100: 5acf dcbd 668b 1e3e f718 843d 371f 9dbd
00000110: 1ea0 f2bc aa63 e3bd fb53 d93d 38c8 4ebc
00000120: f3d4 a13d 9372 543d 8116 a8bb b8a3 2abe
00000130: a871 f63c 6ceb 86bd 539b f7bc 2989 14bc
00000140: 24f0 1e3d 5671 b73d c4bd cd3d 9b1b 2c3e
00000150: cc70 ef3d 442f 88bd b688 81bd 5207 1f3d
00000160: 9020 4cbd 35dd ce3c 0a13 c23c 5823 233c
00000170: 05d4 20be d2ba 1b3e 63f2 433d 888e 483d
00000180: 8584 863d 3d2e 1fbe 11fa 8cbb 477a b83c
00000190: b0b3 053e dcf7 a83b e96d 833d e7b8 8f3d
000001a0: d985 133e 4cbf e63d 1376 e93c fa34 903d
000001b0: 91c2 8f3d 485e 983c 189f 9f3d 9975 39bc
000001c0: 9ef2 903d f152 313e 4d48 d73d cfe3 22bd
000001d0: 43e3 543d 2896 4dbc a52c 53bd 3ed2 bdbd
000001e0: 8c6f 10ba 7768 c83d 3852 c8bd 61b3 1d3e
000001f0: ef0f e03c 9d62 bb3d c74a 413d 4e8f 12bc
00000200: 1581 b63d 2ebc 833d d2ee 643d ff91 4dbc
00000210: 1955 93bd 6b29 a43d 5593 01bd d41e 8e3d
00000220: a5a8 fd3c 6787 bebc 123a 09bd 84ec 503d
00000230: 249f 89bd 1b23 e13d 6fd3 e23c ea3c 013d
00000240: f7c3 00be 82c2 993d 9ac8 dbbd cde7 7bbd
00000250: 65ba e3bd ebea 153e c939 be3d 67a8 61bc
00000260: 753e 833d a9b7 b73c 5ce1 d9bd 51e3 ce3d
00000270: e09d 69bd 9c01 9fbd e552 dc3d 53ef 7dbc
00000280: 71ba 18be 03cd 43bc d109 06bd 5040 c0bc
00000290: adec acbc 1c0f 7dbd a7fd d9bd 35bd cabc
000002a0: 856e 51bd f867 45bd 6b3b 8d3d 4d5c 403d
000002b0: 3ac8 e53d 8350 8e3c 85c6 29be 6cef 41bd
000002c0: c56b 12bc faf3 a0bd 682a 9cba 000d 1bbd
000002d0: f34d 0f3e a2e5 1d3d e71a 85bd a7bb 153e
000002e0: 4080 7cb9 53ff 183d 118b 4a3d 5865 143d
000002f0: 934f 213e 44a4 f0bd f196 b53d 4586 aaba
00000300: 95b2 bd3d f09b 473c 54c9 903d b83b b33b
00000310: 912d c3bd aea5 58bd 18fa b93d 51e7 afbc
00000320: 4427 413d dd7b ef3d 9ae2 c8bd 1be5 95bd
00000330: b2e2 a2bd 1b98 63bc 4d6c 9a3d a8f7 d0bd
00000340: d08f 6bbd 0b15 edbd d15b a6be 6136 67bd
00000350: 95ae 503d 675f a23d 25aa 16be a6a4 d13d
00000360: 54be dbbc 67b3 bdbd 1512 bdbd 85d2 b4bd
00000370: 072f 433d a9e1 03bc d476 fe3d 19a5 003c
00000380: 849d 61bd 4946 4c3d 3bae a63c b2f5 b0bc
00000390: 46ed a33d d01c 35be a836 df3d 9719 f73b
000003a0: 7afc 9ebd e91c 5cbc c59e c83d 0355 e9bd
000003b0: 0aa4 c3bd c373 9fbd 1437 c5bd 795b 4f3c
000003c0: 82a2 493d b073 193e e83d 243e 41de 173e
000003d0: e44f 1cbe 3226 1b3c eb6b d53c 492b 1b3d
000003e0: b660 633d 789d 49bd 6b31 833d 8633 913d
000003f0: 24d1 283d 32bb a23c 7fdd 41be 17e7 d3bd

weight_hh f4 [384, 128]
0.003986365 -0.010389035 0.07039847 0.04988148 0.012495734 0.008724082 -0.0400114 0.049520057
0.04335527 -0.011949247 -0.038225472 0.010668333 -0.035316747 0.019805333 -0.09640139 0.091526546
-0.0007282927 -0.0152985435 0.07042216 -0.0036743062 0.07684346 -0.0037278396 0.056215893 -0.066524535
0.08301837 -0.00718472 -0.035105158 0.03230281 -0.028021757 7.5642114e-05 0.01217936 -0.040131904
-0.05518918 0.03083573 0.02108403 0.0870704 0.054607622 -0.003151393 -0.012056725 -0.06314329
-0.01616047 0.037603203 -0.027433073 0.010447986 0.05492101 0.07123719 -0.041712984 -0.09181247
-0.102945924 0.053679768 0.03760156 -0.056224596 0.03426495 0.029849786 0.0026719507 -0.07682648
-0.099724576 -0.049798235 0.11100683 0.04933697 -0.01610737 -0.11178517 0.03960504 0.013259495
-0.053375248 0.029824447 -0.05869837 -0.017679796 -0.08121651 0.03736291 0.04619813 -0.05876236
0.09537234 0.007573781 -0.031986292 -0.022279551 -0.12256737 0.051075596 0.05801407 -0.121885106
-0.06601262 -0.07217104 -0.045182478 0.10689411 0.0015437505 0.09971668 0.023641672 0.096203305
0.04629595 0.08454719 -0.0040481407 0.09932426 -0.009867599 0.08614716 -0.019272845 0.023813127
-0.11471102 0.034367118 -0.046105433 -0.075043544 0.077406265 0.10113169 -0.08674003 -0.030409815
0.060196653 -0.00013051048 -0.0061666183 -0.036222875 0.03202024 -0.026893873 -0.05489538 0.05091842
-0.10304823 -0.013234721 0.094925284 -0.02009996 -0.048748568 -0.090446495 -0.040770736 -0.051319797
0.020253897 -0.026043525 -0.06026667 -0.0067942427 0.01552758 0.012202747 0.08231078 0.07459663
-0.008422884 -0.043631066 0.0758998 -0.038522735 -0.046315104 0.019095954 0.0075554 -0.06810047
-0.0135127595 -0.047264703 -0.07572599 0.06605156 -0.021564735 -0.019968243 -0.09218321 -0.058283202
0.11549101 -0.028351946 -0.056588754 0.062341545 -0.12615427 -0.08075443 0.1000216 0.053868987
0.051619485 0.12768795 -0.023631841 0.032880876 0.070974074 0.14512655 0.040324405 -0.04895478
-0.02308746 0.048488494 0.042416565 -0.03464908 -0.10208873 0.041573334 0.06397975 -0.074494444
0.043005466 0.03448771 0.097629175 0.10416053 0.0017405914 -0.019783849 -0.00752956 -0.057028454
0.056287736 -0.09743436 -0.08592204 -0.043956682 -0.11004995 0.04219268 -0.07565316 -0.030371655
-0.0028099166 -0.064474314 0.084844805 -0.038573623 -0.03329677 -0.002378821 -0.09301894 -0.0046886937
-0.13520168 -0.04349447 0.15097603 0.058918167 0.09791403 0.015796605 0.06266581 -0.026156014
-0.09384998 0.07055047 -0.06286475 0.04472335 0.012001261 -0.03639779 -0.05194764 0.025883319
0.052290913 -0.000103051185 0.06608866 -0.091275804 0.0022308456 -0.06394985 0.11233287 -0.10643423
0.059661444 0.04212802 -0.059687857 -0.13231245 -0.016797941 -0.13437784 -0.12650144 -0.07064699
0.007440977 -0.06938618 0.00084300304 -0.066262394 0.028501693 -0.040792342 -0.08160245 -0.05034823
0.07235041 0.03156106 0.018601649 -0.0127527835 0.004150874 0.09693961 0.014031558 -0.065072365
0.120492205 0.04539536 0.031663243 -0.04524439 -0.039827622 0.01949703 0.027144954 -0.04092604
0.031122966 -0.108396314 -0.069749214 0.113283046 -0.06304706 -0.11594336 -0.100613825 0.07225432
00000000: 0ea0 823b c536 2abc 132d 903d 8650 4c3d
00000010: e8ba 4c3c 74ef 0e3c fee2 23bd 8bd5 4a3d
00000020: 4c95 313d c6c6 43bc 5092 1cbd 3bca 2e3c
00000030: 4ba8 10bd cb3e a23c 186e c5bd 4572 bb3d
00000040: e5ea 3eba bea6 7abc 7e39 903d a1cc 70bb
00000050: 1b60 9d3d c54e 74bb a342 663d 043e 88bd
00000060: 8905 aa3d cd6d ebbb 6dca 0fbd f44f 043d
00000070: e28d e5bc 0da2 9e38 f08b 473c 5a61 24bd
00000080: 0d0e 62bd 369b fc3c 6ab8 ac3c f751 b23d
00000090: 3eac 5f3d 9a87 4ebb 9289 45bc 4551 81bd
000000a0: f662 84bc d105 1a3d 53bb e0bc 082e 2b3c
000000b0: daf4 603d cee4 913d 3cdb 2abd 2d08 bcbd
000000c0: 50d5 d2bd 51df 5b3d 1804 1a3d c34b 66bd
000000d0: 6759 0c3d 8a87 f43c e51b 2f3b 3457 9dbd
000000e0: 663c ccbd 3cf9 4bbd 8d57 e33d 9015 4a3d
000000f0: 9af3 83bc a0ef e4bd e538 223d 5a3e 593c
00000100: 01a0 5abd 6652 f43c b46d 70bd 38d5 90bc
00000110: d754 a6bd da09 193d 403a 3d3d cdb0 70bd
00000120: 9352 c33d 7b2d f83b 0f04 03bd 9b83 b6bc
00000130: 9a04 fbbd a534 513d 29a0 6d3d e69e f9bd
00000140: a031 87bd 69ce 93bd 4311 39bd 4deb da3d
00000150: ac57 ca3a 4238 cc3d 2eac c13c 3d06 c53d
00000160: d2a0 3d3d 1427 ad3d 44a6 84bb 856a cb3d
00000170: b6ab 21bc ec6d b03d 16e2 9dbc bf13 c33c
00000180: 9ced eabd 89c4 0c3d 0dd9 3cbd 6eb0 99bd
00000190: 2d87 9e3d 221e cf3d c2a4 b1bd 011e f9bc
000001a0: c490 763d a4d9 08b9 5811 cabb 705e 14bd
000001b0: a827 033d 8a50 dcbc fad9 60bd d58f 503d
000001c0: f30a d3bd 71d6 58bc 3068 c23d aca8 a4bc
000001d0: 94ac 47bd 033c b9bd 37ff 26bd b534 52bd
000001e0: 80eb a53c 3b59 d5bc 2fda 76bd 3da2 debb
000001f0: 6467 7e3c 08ee 473c 8e92 a83d 1ec6 983d
00000200: 2300 0abc 7db6 32bd 5b71 9b3d 04ca 1dbd
00000210: e8b4 3dbd 1e6f 9c3c 4a93 f73b 4278 8bbd
00000220: 9f64 5dbc a298 41bd 3a16 9bbd 0a46 873d
00000230: 87a8 b0bc 7194 a3bc 8dca bcbd 5eba 6ebd
00000240: 8d86 ec3d 5742 e8bc 9cc9 67bd d959 7f3d
00000250: 962e 01be 9462 a5bd 20d8 cc3d baa5 5c3d
00000260: f46e 533d a1c0 023e 9097 c1bc 19ae 063d
00000270: db5a 913d 0e9c 143e 342b 253d cf84 48bd
00000280: ea21 bdbc df9b 463d febc 2d3d 32ec 0dbd
00000290: e513 d1bd cd48 2a3d d107 833d 8b90 98bd
000002a0: 8026 303d fc42 0d3d cef1 c73d 1e52 d53d
000002b0: 8e24 e43a bd11 a2bc 87ba f6bb ab96 69bd
000002c0: f88d 663d aa8b c7bd e5f7 afbd ec0b 34bd
000002d0: de61 e1bd 3bd2 2c3d 0bf0 9abd facd f8bc
000002e0: 9426 38bb 1c0b 84bd 1dc3 ad3d 60ff 1dbd
000002f0: 3262 08bd fee5 1bbb b780 bebd 9da3 99bb
00000300: 4f72 0abe 4227 32bd 7699 1a3e 2d54 713d
00000310: 2787 c83d e267 813c ef56 803d 2345 d6bc
00000320: 6b34 c0bd c47c 903d 3cbf 80bd d52f 373d
00000330: f0a0 443c d915 15bd 0cc7 54bd 4109 d43c
00000340: ff2e 563d 2f1d d8b8 7e59 873d cfee babd
00000350: 6133 123b 24f8 82bd c70e e63d 31fa d9bd
00000360: 8f5f 743d 6e8e 2c3d 417b 74bd ea7c 07be
00000370: d69b 89bc 589a 09be 9889 01be 5eaf 90bd
00000380: 70d3 f33b 571a 8ebd fafc 5c3a 94b4 87bd
00000390: 627c e93c df15 27bd 2f1f a7bd f239 4ebd
000003a0: 742c 943d 2c46 013d 7c62 983c 0df1 50bc
000003b0: 0e04 883b 4688 c63d 9fe4 653c a944 85bd
000003c0: 9ec4 f63d 7cf0 393d 51b1 013d 2e52 39bd
000003d0: 4a22 23bd 3cb8 9f3c 185f de3c 10a2 27bd
000003e0: 97f5 fe3c e3fe ddbd add8 8ebd f100 e83d
000003f0: d11e 81bd b673 edbd 9f0e cebd 13fa 933d

bias_ih f4 [384]
-0.020299632 0.011928377 -0.02517211 -0.056450237 0.034671437 -0.06280086 0.060100053 -0.004977473
-0.052511595 -0.028441878 -0.04243391 -0.11288928 0.011982736 -0.068395235 0.0356899 0.011496461
0.16244759 -0.10003023 0.058728337 0.02194452 0.13855907 -0.0042242813 0.036029663 0.081742436
0.09926104 0.027600713 0.006533033 0.07153576 0.027888319 -0.06710958 -0.05845722 0.061693143
-0.08456146 -0.08176705 -0.056753643 -0.117761604 0.072073594 -0.04299395 0.09024541 0.09347826
-0.029400937 0.01176445 -0.020614313 -0.060557883 0.10683517 -0.055957753 0.07407276 0.06523962
0.1019785 0.056586705 0.073253155 -0.08872834 0.0057702516 0.05662281 0.0013348095 -0.00832679
0.012285733 -0.050129633 0.08696388 0.0120243095 0.07621946 -0.05736409 -0.06987033 0.06751609
0.056488644 -0.019339811 0.013346248 0.11885617 0.03319974 0.019699832 0.087770574 -0.067602895
0.069828175 -0.09189901 -0.008367781 0.031157786 -0.016202345 -0.029459354 -0.03737939 0.069987886
0.09655248 -0.028213196 0.00480765 -0.054407936 0.02330395 0.025835829 0.04201865 0.026235307
0.004180033 -0.047898505 -0.0643415 0.020681389 -0.09709861 0.057532158 -0.047066547 0.033741973
0.05487422 -0.025977537 -0.029593443 -0.009784913 0.050126944 -0.05504218 -0.05696908 0.12594485
-0.088205315 0.017467333 -0.004665612 -0.039688867 -0.093846045 -0.039703295 -0.055507336 0.043942627
0.026414266 -0.097260006 0.064650044 0.06447748 -0.044894073 0.06712553 0.11236643 0.037786312
0.050878022 0.081826665 -0.06193472 -0.10511144 -0.046233695 -0.0506019 0.013959389 -0.012077137
0.01808105 -0.059166454 -0.042024933 0.049167704 -0.11192777 -0.026365714 0.072752364 -0.054288603
-0.036864072 -0.13180342 -0.074548915 -0.082177736 -0.08755153 -0.06371334 -0.016893411 -0.1492636
0.021661745 -0.017537901 -0.039865956 -0.11472909 -0.094158664 -0.044011783 -0.10082331 -0.0018083834
-0.08283871 -0.044828393 -0.036400087 -0.09923597 -0.16447452 -0.13544565 -0.044039913 -0.06325892
0.023007981 0.065218635 -0.12877141 -0.009279273 0.08453597 -0.097002566 0.032019656 0.037736166
-0.21441081 -0.021879425 -0.17146935 -0.026699135 -0.031568956 -0.08526288 0.04124043 -0.07695008
0.029037349 -0.05845509 -0.19815286 -0.09343813 0.06450164 -0.0856308 -0.09885235 0.051578302
-0.034196552 -0.043279912 -0.050373737 0.06756658 0.081600025 0.045126975 -0.0036080484 -0.070668936
-0.08482769 0.036901366 -0.019307893 -0.010077502 0.10784058 -0.05876394 -0.15364003 -0.105922066
-0.048387446 0.064145595 -0.036848057 -0.1412407 -0.095680304 -0.0618652 -0.082726926 0.10425336
-0.14842615 -0.06339141 0.06545087 -0.0010426451 0.050784994 -0.08276521 0.014094538 -0.034511946
-0.10965748 0.025586803 0.018801399 0.030573716 -0.0007681757 -0.006020733 0.040522307 -0.061644826
-0.0991763 -0.03546302 -0.04811084 -0.06661159 0.006613522 0.111519374 -0.06969059 0.017319744
-0.088142015 -0.023747185 -0.0538795 -0.22465704 -0.10106228 0.055863205 -0.00093874667 -0.022167224
0.022616144 -0.0054991986 -0.0064216373 -0.07166679 -0.19919989 -0.06647112 -0.033861455 -0.108879104
-0.041927904 0.0068605677 -0.018011667 -0.086802185 -0.07134145 -0.01590065 -0.07133024 -0.00702151
00000000: 6a4b a6bc 3d6f 433c be35 cebc 5d38 67bd
00000010: a303 0e3d bd9d 80bd 792b 763d 121a a3bb
00000020: 6616 57bd f1fe e8bc 2ecf 2dbd 7f32 e7bd
00000030: 3d53 443c cd12 8cbd 932f 123d a75b 3c3c
00000040: a958 263e a6dc ccbd 208d 703d fec4 b33c
00000050: 6ee2 0d3e d76b 8abb d793 133d 9468 a73d
00000060: 5f49 cb3d e41a e23c 0e13 d63b 5781 923d
00000070: 0b76 e43c bf70 89bd d770 6fbd f3b1 7c3d
00000080: 8f2e adbd 7c75 a7bd 8276 68bd ff2c f1bd
00000090: 529b 933d 6d1a 30bd 96d2 b83d 8871 bf3d
000000a0: 3cda f0bc aebf 403c 59df a8bc 8b0b 78bd
000000b0: 66cc da3d f533 65bd 76b3 973d 5a9c 853d
000000c0: 1bda d03d 76c7 673d c005 963d 34b7 b5bd
000000d0: 6114 bd3b 52ed 673d c6f4 ae3a 176d 08bc
000000e0: 194a 493c bb54 4dbd 1e1a b23d 9c01 453c
000000f0: f318 9c3d 9cf6 6abd 2d18 8fbd e045 8a3d
00000100: a360 673d 866e 9ebc 39aa 5a3c dd6a f33d
00000110: 73fc 073d 8b61 a13c 0fc1 b33d 6373 8abd
00000120: 1302 8f3d 8c35 bcbd 0419 09bc 9d3e ff3c
00000130: c8ba 84bc be54 f1bc 221b 19bd cf55 8f3d
00000140: 4ebd c53d 5c1f e7bc 7e89 9d3b dbda 5ebd
00000150: ede7 be3c a9a5 d33c bf1b 2c3d 6deb d63c
00000160: a9f8 883b 3931 44bd 7ac5 83bd 046c a93c
00000170: a3db c6bd d7a6 6b3d dac8 40bd 0635 0a3d
00000180: cac3 603d d8ce d4bc f36d f2bc e650 20bc
00000190: e951 4d3d e973 61bd 6958 69bd b0f7 003e
000001a0: fda4 b4bd a717 8f3c fde1 98bb cb90 22bd
000001b0: 5b32 c0bd ec9f 22bd a95b 63bd 2ffd 333d
000001c0: bb62 d83c 4130 c7bd 3e67 843d c50c 843d
000001d0: d9e2 37bd 1c79 893d 5f20 e63d d2c5 1a3d
000001e0: 7965 503d bd94 a73d 43af 7dbd ab44 d7bd
000001f0: 8b5f 3dbd f043 4fbd ecb5 643c 2fdf 45bc
00000200: b61e 943c 8658 72bd 5622 2cbd 1364 493d
00000210: 633a e5bd e9fc d7bc 31ff 943d ba5d 5ebd
00000220: c8fe 16bd 7af7 06be 1aad 98bd cd4c a8bd
00000230: 374e b3bd 247c 82bd 0d64 8abc 8fd8 18be
00000240: f973 b13c a5ab 8fbc 7c4a 23bd 16f7 eabd
00000250: 42d6 c0bd b345 34bd 747c cebd 4707 edba
00000260: 57a7 a9bd fa9d 37bd 4218 15bd 3a3c cbbd
00000270: 026c 28be 44b2 0abe 3263 34bd e58d 81bd
00000280: 3c7b bc3c 5991 853d a7dc 03be 1808 18bc
00000290: 3221 ad3d 48a9 c6bd 0b27 033d 3d91 1a3d
000002a0: 828e 5bbe 7b3c b3bc a995 2fbe 25b8 dabc
000002b0: 734e 01bd 4e9e aebd baeb 283d 0198 9dbd
000002c0: bcdf ed3c 9b6e 6fbd 95e8 4abe 7e5c bfbd
000002d0: 7019 843d 335f afbd 1a73 cabd c543 533d
000002e0: af11 0cbd 4746 31bd b154 4ebd 5960 8a3d
000002f0: ea1d a73d 10d7 383d 0275 6cbb e0ba 90bd
00000300: 24ba adbd e325 173d 962b 9ebc 1b1c 25bc
00000310: 86db dc3d 75b2 70bd d053 1dbe abed d8bd
00000320: ea31 46bd c45e 833d fded 16bd 67a1 10be
00000330: 09f4 c3bd 5d66 7dbd bc6c a9bd c982 d53d
00000340: 06fd 17be 5bd3 81bd 1b0b 863d 5da9 88ba
00000350: ed03 503d ce80 a9bd c7ec 663c 665c 0dbd
00000360: 1a94 e0bd 6a9b d13c 6405 9a3c bb75 fa3c
00000370: 665f 49ba 9249 c5bb b8fa 253d 497f 7cbd
00000380: f21c cbbd ac41 11bd df0f 45bd a86b 88bd
00000390: 3eb6 d83b 4564 e43d f1b9 8ebd 23e2 8d3c
000003a0: cd83 b4bd 7589 c2bc c0b0 5cbd 7f0c 66be
000003b0: bef9 cebd d1d0 643d 3916 76ba 0a98 b5bc
000003c0: 7e45 b93c 9f32 b4bb 996c d2bb 0ac6 92bd
000003d0: 0efb 4bbe 0322 88bd 4fb2 0abd 02fc debd
000003e0: 98bc 2bbd 9dce e03b 348d 93bc 58c5 b1bd
000003f0: 771b 92bd 1442 82bc 9715 92bd b214 e6bb

bias_hh f4 [384]
-0.010221476 -0.055691577 0.050374918 0.033509552 0.01281705 -0.06273961 0.05044036 0.121153876
-0.019462455 0.08100442 0.030117588 0.019443927 -0.1170233 -0.04281826 -0.018107349 0.06714464
0.060222495 0.054809604 0.0027403568 0.01129663 -0.021627355 0.022997508 0.12707403 -0.04549009
0.11155193 -0.07416256 0.0067095137 0.06171483 -0.0625668 0.025650287 -0.034386024 0.04850814
-0.06984947 0.018521996 0.0013298824 -0.03937337 0.10918414 0.0091858655 0.010941819 0.0955173
0.057103306 0.09168978 0.038223892 -0.0836202 0.060126264 0.004435683 0.12100264 -0.08373707
0.06200076 0.063198134 -0.012197961 0.0046760784 -0.031269647 0.10937608 0.043359656 -0.031355437
0.12539765 0.07566968 0.16314727 -0.009429586 -0.008266294 -0.027466245 0.05338776 0.09110559
0.055626784 0.06376574 -0.06831332 0.03429044 0.011824603 -0.042839166 0.007345406 -0.07003961
0.026755983 -0.018553594 -0.047905907 0.019357247 0.023319999 -0.03148797 -0.075114116 -0.07038327
0.050327215 -0.022570606 -0.00040159607 0.042973507 -0.051411822 -0.07831012 -0.0064106667 0.019493228
0.087018155 -0.10611037 0.00648614 0.0119058555 -0.0017140744 -0.034136675 0.010849318 0.01813946
0.06069679 0.07993725 0.04433124 -0.0036455528 0.045719035 -0.038753722 -0.033855382 0.13856389
-0.08369892 0.07892708 0.06272715 0.03845704 -0.042315844 0.028397588 -0.045831114 0.06965624
0.073803 -0.08101753 0.103479385 -0.0012599287 0.099477515 0.078521445 0.13930416 -0.06897238
0.036737554 -0.0701202 -0.07256326 -0.03551724 -0.104718804 -0.033371888 0.05876491 -0.043089427
0.04315385 -0.048650812 -0.038028274 0.041435797 -0.0033089917 -0.08065435 -0.06717316 -0.09216406
-0.032292623 -0.115545884 -0.063730486 0.06345831 -0.02817837 -0.060862217 0.10769161 -0.08751294
-0.08315359 0.035216272 -0.07446223 -0.06858577 0.06421027 0.03550391 0.011275594 0.040928703
-0.1062767 0.04822435 0.008079788 -0.05560132 -0.12793347 -1.6209942e-05 0.008531841 -0.06573251
-0.08232275 0.074456446 -0.18760712 0.10641776 0.08860202 -0.12876336 -0.11929285 -0.010301367
-0.19089395 -0.034041036 -0.15601279 0.014498352 0.016691249 -0.02881467 -0.011927584 0.019185761
-0.047674738 -0.046967372 -0.053007085 -0.10448111 0.024884293 -0.038359825 -0.08550739 0.08320645
-0.07715745 -0.081088185 -0.006816791 -0.03197746 0.017031586 0.06509751 -0.021871245 -0.20994376
-0.03301966 -0.06420189 -0.040965907 -0.05706204 0.0909033 0.033642877 -0.038029842 -0.18766434
-0.12847042 -0.0176399 -0.13723195 -0.037954677 0.0051511726 -0.12877026 -0.06373702 0.07582198
-0.105549335 -0.06803696 -0.0150330905 0.016898094 -0.05854285 0.036880028 -0.061668348 -0.06927206
-0.101053596 -0.0116595 0.025847444 -0.0053960118 0.04119517 -0.1321306 -0.057320952 0.004346306
-0.10836274 -0.015853994 -0.115868054 -0.118857674 0.04010474 -0.04800423 -0.00010816697 -0.08109636
-0.06987953 -0.044395003 -0.11342326 -0.06718338 -0.038150907 -0.07508305 -0.013441752 0.02875187
-0.036148563 -0.091084644 -0.015432172 -0.030271187 -0.20246172 -0.018714797 0.07277406 0.0045344853
-0.022108363 -0.023963016 -0.078008674 0.013273787 0.0047505707 -0.07907054 0.07363135 0.03831385
00000000: fa77 27bc da1c 64bd ee55 4e3d 5041 093d
00000010: 9bfe 513c a07d 80bd 8d9a 4e3d 861f f83d
00000020: ba6f 9fbc a5e5 a53d 29b9 f63c df48 9f3c
00000030: e9a9 efbd 3362 2fbd dd55 94bc 2183 893d
00000040: ddab 763d 0980 603d 8f97 333b 8015 393c
00000050: da2b b1bc 4565 bc3c b21f 023e d153 3abd
00000060: 5775 e43d 8ae2 97bd 7bdb db3b b1c8 7c3d
00000070: 0623 80bd 8d20 d23c 5cd8 0cbd 79b0 463d
00000080: 3d0d 8fbd 71bb 973c 734f ae3a f945 21bd
00000090: ef9b df3d 5080 163c 5145 333c 939e c33d
000000a0: 28e5 693d dac7 bb3d a890 1c3d 1141 abbd
000000b0: f546 763d 3559 913b 3bd0 f73d 577e abbd
000000c0: 82f4 7d3d 066e 813d f5d9 47bc ca39 993b
000000d0: 9a14 00bd 9100 e03d e599 313d 8f6e 00bd
000000e0: 3e68 003e b5f8 9a3d 1410 273e 8d7e 1abc
000000f0: 5a6f 07bc e400 e1bc 20ad 5a3d 9195 ba3d
00000100: e9d8 633d 9d97 823d dbe7 8bbd 2274 0c3d
00000110: fbbb 413c 1f78 2fbd bbb1 f03b ed70 8fbd
00000120: 5d2f db3c b5fd 97bc fc38 44bd 1793 9e3c
00000130: 9509 bf3c 88f9 00bd 6ed5 99bd 1b25 90bd
00000140: e923 4e3d fee5 b8bc 508d d2b9 fd04 303d
00000150: 3495 52bd 0e61 a0bd 9210 d2bb 43b0 9f3c
00000160: 9336 b23d 6550 d9bd b089 d43b c710 433c
00000170: cbaa e0ba e6d2 0bbd 56c1 313c 3499 943c
00000180: 339d 783d 24b6 a33d ad94 353d 3aea 6ebb
00000190: e243 3b3d 39bc 1ebd f1ab 0abd b1e3 0d3e
000001a0: 576a abbd 85a4 a13d 1877 803d 2185 1d3d
000001b0: 6153 2dbd 0fa2 e83c 68b9 3bbd eea7 8e3d
000001c0: 0726 973d 85ec a5bd 00ed d33d 3124 a5ba
000001d0: deba cb3d dacf a03d c0a5 0e3e 6441 8dbd
000001e0: 1e7a 163d 2e9b 8fbd 0c9c 94bd 877a 11bd
000001f0: d076 d6bd f6b0 08bd 79b3 703d 8a7e 30bd
00000200: 17c2 303d 1346 47bd 89c3 1bbd 95b8 293d
00000210: abdb 58bb 1c2e a5bd 1592 89bd 83c0 bcbd
00000220: 4545 04bd 52a3 ecbd 2185 82bd 6ef6 813d
00000230: 53d6 e6bc a94a 79bd 6b8d dc3d fc39 b3bd
00000240: 6e4c aabd f03e 103d a77f 98bd b276 8cbd
00000250: ad80 833d 8c6c 113d 45bd 383c dba4 273d
00000260: 99a7 d9bd e586 453d 1661 043c 36be 63bd
00000270: fe00 03be 96fa 87b7 23c9 0b3c c49e 86bd
00000280: d498 a8bd 9f7c 983d 151c 40be 8ef1 d93d
00000290: fa74 b53d 8bda 03be cf4f f4bd 11c7 28bc
000002a0: b479 43be 9d6e 0bbd d1c1 1fbe 7f8a 6d3c
000002b0: 16bc 883c be0c ecbc ea6b 43bc 752b 9d3c
000002c0: 9646 43bd dc60 40bd f51d 59bd 31fa d5bd
000002d0: 25da cb3c 311f 1dbd 801e afbd 2568 aa3d
000002e0: ba04 9ebd 9011 a6bd 635f dfbb ccfa 02bd
000002f0: d385 8b3c d851 853d 532b b3bc 7ffb 56be
00000300: 9f3f 07bd 487c 83bd decb 27bd e3b9 69bd
00000310: 822b ba3d 1dcd 093d 2ec5 1bbd 152b 40be
00000320: c08d 03be 8d81 90bc 8886 0cbe 5d76 1bbd
00000330: 2bcb a83b 5adc 03be 8e88 82bd 8e48 9b3d
00000340: 402a d8bd f656 8bbd 5a4d 76bc df6d 8a3c
00000350: a1ca 6fbd 830f 173d f397 7cbd 83de 8dbd
00000360: 30f5 cebd 7d07 3fbc 05be d33c 07d1 b0bb
00000370: 44bc 283d 3e4d 07be 60c9 6abd 756b 8e3b
00000380: 49ed ddbd 3ce0 81bc 3b4c edbd a76b f3bd
00000390: de44 243d 15a0 44bd b3d7 e2b8 d915 a6bd
000003a0: 001d 8fbd 89d7 35bd 744a e8bd 7197 89bd
000003b0: 2044 1cbd 24c5 99bd cb3a 5cbc 0b89 eb3c
000003c0: 8410 14bd 968a babd 39d7 7cbc 48fb f7bc
000003d0: 2052 4fbe c64f 99bc 910a 953d 0596 943b
000003e0: 991c b5bc 164e c4bc 03c3 9fbd 4c7a 593c
000003f0: adaa 9b3b bcef a1bd 09cc 963d fcee 1c3d

weight f4 [128, 128]
0.029236434 0.16024014 -0.005291287 0.0086331135 0.037992947 0.01132989 -0.046385728 -0.050289113
-0.107706785 -0.014476741 -0.0086467145 -0.014454154 -0.026328389 -0.02134713 0.058940917 -0.016655901
0.084192514 -0.1263698 -0.04174019 0.13615678 0.008597605 0.091457486 -0.0071975393 -0.055275932
-0.043783836 0.105941966 -0.0016669447 0.00997601 0.0033322154 -0.03003889 -0.17497967 -0.006571034
-0.11919538 0.036318183 0.073170014 -0.098114565 -0.0992249 0.1069986 -0.031546958 -0.022286694
0.09801656 -0.054535277 0.123858996 -0.009621852 -0.11021631 0.041236363 0.09778064 -0.025643101
-0.031706974 0.024581784 0.032243133 -0.14651388 0.041229237 -0.10629894 -0.067817785 0.08464482
-0.07737 0.014142303 -0.13396284 0.029573012 -0.060419306 0.045607038 -0.06166065 0.062074658
0.00079059333 0.009559308 0.020421091 0.0023324403 0.0015948341 0.08295767 0.032093145 0.048872452
0.025804475 -0.04732174 -0.0134893665 -0.009115406 0.0077447845 -0.016326733 -0.04947694 0.10097959
0.050759483 -0.10635118 -0.061759636 0.11572304 -0.017865635 0.18169178 0.07143751 0.005892379
0.105807215 -0.05237472 0.120998956 0.05423017 0.15337706 0.012234916 0.0010871753 -0.093682654
-0.06281697 0.049003717 -0.06709105 0.05304315 -0.045081906 0.07779248 -0.0022279802 -0.091106355
0.05409984 -0.016773798 0.09164243 0.041708443 0.026985237 0.052460507 -0.016445179 0.022248454
0.047615297 -0.009311361 -0.07701989 0.016510345 0.025840623 -0.0075109466 0.01647889 -0.030259619
0.17561385 -0.02581666 -0.04515562 0.052642994 0.004749453 0.017382648 -0.07979603 0.08324386
-0.043141667 0.27032277 0.0022679672 -0.027428685 0.04331719 0.0842491 -0.066265576 -0.15939571
-0.043628305 0.040803526 -0.15181482 0.024777433 0.03408145 -0.017627759 -0.012797811 -0.22788073
0.038246512 0.029265068 -0.0864401 0.17736624 -0.043482814 -0.17575298 0.08762107 -0.05127793
0.15192191 0.14146513 0.06732714 0.0656983 0.14020659 0.12731116 -0.07763628 -0.108304344
-0.12322829 0.083362244 -0.020897701 -0.029424565 -0.062432818 -0.049872417 -0.11635585 -0.08087825
0.012481988 -0.029522453 0.065597646 -0.038036738 -0.085912555 -0.05587293 -0.016547797 0.16572972
-0.12305431 -0.01804712 -0.12322062 -0.033130415 -0.022465426 -0.06435339 0.02647285 0.05255478
-0.06137355 0.16204515 0.15608387 -0.010580084 -0.05112175 0.026753169 -0.12083226 0.14222407
0.04236056 0.041777123 0.08948466 0.121104784 0.0032805656 0.10685783 -0.17441054 0.003427711
-0.20927559 -0.009003737 -0.04729215 0.016927958 -0.0741535 0.13622122 0.118962795 0.0154058
-0.010041743 -0.05047103 -0.06100364 -0.025763312 -0.0656389 -0.026538374 0.06639796 0.1317797
0.03731411 -0.019139256 0.043381535 -0.026942931 -0.05770939 0.029295083 -0.089789115 -0.0076573407
0.064257994 0.017238656 0.1370971 -0.036705993 -0.00817861 -0.024279563 -0.004072254 -0.049326904
0.046366252 -0.10561263 -0.0033438348 0.10999403 0.0926841 0.10623329 -0.10233294 -0.06649626
0.12651755 -0.012292919 -0.099267714 -0.02604813 -0.12880257 -0.030641178 0.059536897 0.001180748
0.1216866 0.03909186 -0.021188555 0.10597418 0.0031851383 -0.13756472 -0.080486156 0.082061574
00000000: 3f81 ef3c fe15 243e 8862 adbb e771 0d3c
00000010: 7e9e 1b3d 01a1 393c f6fe 3dbd f5fb 4dbd
00000020: 6095 dcbd da2f 6dbc f3aa 0dbc 1ed1 6cbc
00000030: a2ae d7bc 2de0 aebc 086c 713d f571 88bc
00000040: 206d ac3d 1667 01be c3f7 2abd af6c 0b3e
00000050: f8dc 0c3c 104e bb3d 56d9 ebbb 0469 62bd
00000060: ae56 33bd 1af8 d83d 627d daba 6b72 233c
00000070: 4c61 5a3b 1e14 f6bc df2d 33be d451 d7bb
00000080: b51c f4bd 60c2 143d 29da 953d 4af0 c8bd
00000090: 6d36 cbbd 1522 db3d 6237 01bd 9692 b6bc
000000a0: e8bc c83d 6260 5fbd c9a9 fd3d f9a4 1dbc
000000b0: 17b9 e1bd 76e7 283d 3741 c83d 7b11 d2bc
000000c0: 2cdf 01bd bd5f c93c 6011 043d bc07 16be
000000d0: fddf 283d 42b3 d9bd 0de4 8abd 435a ad3d
000000e0: 2a74 9ebd 1eb5 673c 8e2d 09be 1a43 f23c
000000f0: 3c7a 77bd 72ce 3a3d e18f 7cbd ff41 7e3d
00000100: d23f 4f3a a59e 1c3c 224a a73c dbdb 183b
00000110: c109 d13a b6e5 a93d 1a74 033d 7b2e 483d
00000120: e863 d33c 71d4 41bd 8102 5dbc c958 15bc
00000130: f6c7 fd3b a4bf 85bc 55a8 4abd 63ce ce3d
00000140: 2de9 4f3d a6ce d9bd acf7 7cbd 3400 ed3d
00000150: f45a 92bc 690d 3a3e d44d 923d dc14 c13b
00000160: 74b1 d83d e086 56bd 4dce f73d 7420 5e3d
00000170: e00e 1d3e f574 483c 8d7f 8e3a b1dc bfbd
00000180: 2fa6 80bd 1fb8 483d 0867 89bd c643 593d
00000190: cea7 38bd aa51 9f3d 4e03 12bb f895 babd
000001a0: cb97 5d3d 3469 89bc 07af bb3d 79d6 2a3d
000001b0: 2510 dd3c d4e0 563d 0ab8 86bc 6442 b63c
000001c0: 4208 433d ae8e 18bc 9bbc 9dbd b440 873c
000001d0: b7af d33c 631e f6bb bdfe 863c 05e3 f7bc
000001e0: 1ed4 333e 767d d3bc 19f5 38bd 2ea0 573d
000001f0: 4da1 9b3b 0e66 8e3c 1a6c a3bd c27b aa3d
00000200: 51b5 30bd bf67 8a3e 2da2 143b 1fb2 e0bc
00000210: 5e6d 313d cb8a ac3d 3fb6 87bd a138 23be
00000220: 98b3 32bd 9921 273d 5875 1bbe 0bfa ca3c
00000230: fe98 0b3d 1768 90bc e9ad 51bc 9159 69be
00000240: 60a8 1c3d 4cbd ef3c 8207 b1bd 7f9f 353e
00000250: 091b 32bd 97f8 33be ad72 b33d cf08 52bd
00000260: 6b91 1b3e 3cdc 103e d0e2 893d d58c 863d
00000270: 5192 0f3e db5d 023e c5ff 9ebd abce ddbd
00000280: 1d5f fcbd d3b9 aa3d a831 abbc c90b f1bc
00000290: 8eb9 7fbd 0547 4cbd fa4b eebd 7fa3 a5bd
000002a0: 4181 4c3c 12d9 f1bc 0f58 863d 69cc 1bbd
000002b0: ecf2 afbd 03db 64bd 3f8f 87bc 0db5 293e
000002c0: e603 fcbd 8ed7 93bc 185b fcbd c2b3 07bd
000002d0: 6a09 b8bc b6cb 83bd 97dd d83c ae43 573d
000002e0: d562 7bbd 2aef 253e 73d4 1f3e 1758 2dbc
000002f0: 0a65 51bd 7629 db3c e776 f7bd 30a3 113e
00000300: 4482 2d3d 7d1e 2b3d bc43 b73d c905 f83d
00000310: c2fe 563b 47d8 da3d ad98 32be 73a3 603b
00000320: 574c 56be 6984 13bc 6ab5 41bd 80ac 8a3c
00000330: cadd 97bd 937d 0b3e c4a2 f33d 9c68 7c3c
00000340: 1f86 24bc b6ba 4ebd f4de 79bd 950d d3bc
00000350: b06d 86bd 0167 d9bc a7fb 873d 42f1 063e
00000360: aed6 183d eec9 9cbc d6b0 313d 6cb7 dcbc
00000370: ae60 6cbd 3efc ef3c 5be3 b7bd 6eea fabb
00000380: b299 833d 1538 8d3c 2f63 0c3e 0659 16bd
00000390: 94ff 05bc efe5 c6bc 8b70 85bb 020b 4abd
000003a0: 8aea 3d3d 6f4b d8bd 3d24 5bbb 8d44 e13d
000003b0: 29d1 bd3d d790 d93d ef93 d1bd 312f 88bd
000003c0: d18d 013e 3d68 49bc df4c cbbd e362 d5bc
000003d0: d2e4 03be 3503 fbbc f6dc 733d 54c3 9a3a
000003e0: d336 f93d c91e 203d 9f93 adbc fe08 d93d
000003f0: c1bd 503b c4dd 0cbe edd5 a4bd e60f a83d

bias f4 [128]
-0.04293534 -0.11533079 0.08245882 -0.023841474 -0.041180387 -0.12314049 -0.053314295 -0.094294615
-0.16082042 0.03342738 0.0149375 0.056266014 0.0160843 -0.08655626 -0.0744526 -0.004576513
-0.17818582 -0.0054601673 -0.025060825 0.013099748 -0.011831277 -0.007658634 0.103992626 -0.022004524
0.1429516 0.050123904 0.08637869 -0.15721624 0.025818354 0.042954516 0.017054304 0.05558771
-0.06473602 -0.10292041 -0.17122713 -0.096136354 0.13302334 -0.12679334 -0.03741582 -0.17718697
0.011124527 -0.08248404 -0.07254917 -0.18515655 -0.00089409074 0.027992763 -0.10831154 0.087122664
0.07501569 -0.10334298 0.06248569 0.011848786 -0.105427794 0.069761075 0.06834638 -0.12541662
-0.01019533 -0.14513703 -0.04687568 -0.03538723 0.024128389 0.013349689 -0.017416138 0.08807711
0.14207098 -0.07122322 0.13093962 -0.12945922 -0.004307816 0.03291848 0.01695436 0.022125006
0.031225476 0.10935354 -0.0847165 0.032258175 -0.11912696 0.0004437311 0.06665951 0.041526046
-0.12437816 0.126891 0.064535074 -0.0028317047 -0.18159673 -0.03815021 -0.06456468 0.0600659
0.12704845 0.031662304 0.002998563 0.018269379 0.07903543 0.11179861 -0.09120793 -0.013342152
0.041054558 -0.106266685 0.040243383 0.049070198 0.018242246 0.047814954 -0.1371492 0.060176305
-0.116454765 -0.10623874 -0.12860346 0.085622266 0.012511573 0.020787243 0.12000258 -0.01869787
0.08792865 0.07697002 -0.073117614 -0.11829008 0.046767402 -0.03258366 0.029018836 0.058000963
-0.08826109 -0.010338728 -0.1196862 -0.023908107 0.10012961 -0.0935163 -0.04465149 -0.061800625
00000000: f8dc 2fbd 8d32 ecbd 2be0 a83d 324f c3bc
00000010: c4ac 28bd 1531 fcbd 1760 5abd 891d c1bd
00000020: 1cae 24be 26eb 083d 6abc 743c 3177 663d
00000030: 39c3 833c 6944 b1bd 9b7a 98bd 93f6 95bb
00000040: 5876 36be 34eb b2bb 5c4c cdbc 53a0 563c
00000050: f9d7 41bc 47f5 fabb 16fa d43d d542 b4bc
00000060: e761 123e b94e 4d3d 50e7 b03d 4bfd 20be
00000070: 0381 d33c 13f1 2f3d 78b5 8b3c f0af 633d
00000080: 5294 84bd f0c7 d2bd 2a56 2fbe 23e3 c4bd
00000090: 4537 083e 1dd6 01be 5541 19bd 8070 35be
000000a0: a643 363c 64ed a8bd a994 94bd ae99 3dbe
000000b0: 6a61 6aba 1451 e53c 71d2 ddbd 5e6d b23d
000000c0: d3a1 993d 7ca5 d3bd fff0 7f3d 6921 423c
000000d0: 87ea d7bd e5de 8e3d 30f9 8b3d 376d 00be
000000e0: 500a 27bc cd9e 14be b700 40bd 33f2 10bd
000000f0: e6a8 c53c a7b8 5a3c 4aac 8ebc c661 b43d
00000100: 0e7b 113e 7bdd 91bd 0915 063e f590 04be
00000110: 9428 8dbb 87d5 063d dfe3 8a3c 803f b53c
00000120: 92cc ff3c c0f4 df3d d87f adbd 2621 043d
00000130: d6f8 f3bd 95a4 e839 c884 883d 3717 2a3d
00000140: fab9 febd b7ef 013e f72a 843d 1f94 39bb
00000150: 7ef4 39be 6543 1cbd 7d3a 84bd a907 763d
00000160: fd18 023e 55b0 013d 8a83 443b aaa9 953c
00000170: 54dd a13d abf6 e43d 39cb babd 0b99 5abc
00000180: d328 283d 59a2 d9bd 3fd6 243d d5fd 483d
00000190: c370 953c 9dd9 433d d770 0cbe 6e7b 763d
000001a0: d67f eebd b293 d9bd a0b0 03be ba5a af3d
000001b0: 57fd 4c3c 024a aa3c eac3 f53d 472c 99bc
000001c0: f013 b43d 75a2 9d3d b0be 95bd 1242 f2bd
000001d0: 2d8f 3f3d 7276 05bd e9b8 ed3c 6b92 6d3d
000001e0: 3bc2 b4bd c563 29bc 0a1e f5bd efda c3bc
000001f0: c110 cd3d 7985 bfbd 7be4 36bd a722 7dbd

weight f4 [128, 128]
-0.0060496866 -0.03654695 -0.095553786 0.07977668 0.03365438 -0.040647406 0.012530988 -0.0004466597
-0.06699938 -0.003432527 -0.033338536 0.04349214 -0.028085113 0.04767187 -0.008190529 0.020315276
0.029502584 -0.08865955 0.004541282 0.0641049 0.068858884 -0.09513438 -0.07765976 -0.07767664
-0.0028679846 -0.09254645 -0.081849635 0.006819584 0.049550503 -0.08140477 -0.066991165 -0.049472116
-0.0020801607 -0.07475838 0.045043763 -0.025674894 -0.018945679 0.0045193247 -0.036895793 0.0038384849
0.033177394 0.011948376 0.01895498 -0.008919802 -0.08010723 -0.025520114 -0.014920585 -0.06504116
0.024515029 0.077719815 0.012118198 -0.011550905 -0.09537091 0.04666383 0.06729415 0.06579068
0.0027973964 0.040096488 0.012118735 -0.019907426 0.02671152 -0.002888352 0.057973906 0.04780758
0.027648926 -0.07008745 -0.0070099854 0.10218969 0.038318787 0.0039213714 -0.04088446 -0.11874868
-0.01891568 0.01328574 0.026596073 -0.085112296 0.005325068 0.00096283114 -0.05198788 -0.118750736
0.10952895 -0.051862057 -0.07253194 0.070390634 0.051931176 -0.033217844 0.035398252 0.0049788076
0.0012693054 -0.0038896848 -0.053051528 -0.058967594 -0.07167966 -0.11523789 -0.030967958 -0.011169586
0.023159172 -0.020734966 -0.0260572 -0.045393366 -0.0066776923 -0.028686626 0.064276 -0.04149778
-0.008429833 -0.038522627 0.088538654 -0.023956181 -0.011330744 -0.106388435 -0.045464266 -0.058785193
-0.089142576 -0.09684345 0.0036000803 -0.06828024 -0.09035305 -0.036347788 -0.052691147 0.03740541
0.055958267 0.043060843 0.016384495 -0.008559027 0.029806575 -0.049104113 0.03778623 -0.09095038
0.0031017778 -0.030839756 0.038921382 -0.002955496 0.06702639 -0.088195145 -0.007244645 -0.09335943
0.022651903 -0.058820892 0.03747474 -0.006196768 0.18974037 -0.038063247 0.11210868 0.042474285
0.052730523 -0.056822132 -0.06332414 0.06736043 -0.005378453 0.0019831087 0.0877643 -0.12984091
0.08775662 0.09639162 -0.0011153993 0.010242837 0.07743371 -0.038562525 -0.08624883 -0.069693685
-0.030337293 -0.03216581 0.06856534 0.0049022 0.11706071 0.05460774 -0.040491503 -0.008548649
0.05133321 -0.12893954 -0.058130965 0.011818948 0.06547597 -0.011787791 0.094120555 0.08234908
-0.025393862 -0.11669162 0.029929746 0.078872636 -0.030901685 -0.03637511 -0.055831388 0.073253445
0.074401125 0.0070096725 -0.06650458 0.16357563 -0.07470842 0.007939377 -0.083968095 0.115111925
0.08826079 -0.007894409 0.0670762 -0.047330342 -0.006548707 -0.0070290123 0.123314895 -0.014183309
0.051114414 -0.07293261 0.0520386 -0.11366871 -0.09652289 0.11812531 0.038548324 -0.008809886
-0.031871486 0.119908534 0.022838488 0.009441877 0.01758437 0.039427735 -0.09786706 0.02762706
0.106026106 -0.011077987 0.005184658 0.035904735 0.029006043 0.11569707 -0.11915124 0.19658284
-0.05199401 -0.018456342 0.045109447 -0.06927598 0.09643513 -0.06898523 -0.031187747 0.05419546
-0.047259342 -0.04781486 -0.046158444 0.0054451767 0.064638585 0.087630615 0.06421201 0.06187429
0.09024595 0.1326702 -0.04813961 -0.008378786 -0.008121127 -0.027093088 -0.003908657 0.061473176
-0.048768204 0.08512887 0.040814523 0.008205496 0.11664648 -0.030309405 -0.006087594 -0.073930055
00000000: 733c c6bb 41b2 15bd b4b1 c3bd f561 a33d
00000010: 2dd9 093d e57d 26bd c64e 4d3c a62d eab9
00000020: f936 89bd 3ff4 60bb fd8d 08bd d024 323d
00000030: c012 e6bc 9443 433d 9231 06bc 396c a63c
00000040: 67af f13c 2393 b5bd 09cf 943b 6e49 833d
00000050: e305 8d3d d0d5 c2bd 150c 9fbd ee14 9fbd
00000060: ccf4 3bbb fe88 bdbd c8a0 a7bd d176 df3b
00000070: 78f5 4a3d 8bb7 a6bd aa32 89bd 46a3 4abd
00000080: 4e53 08bb ec1a 99bd cf7f 383d 2854 d2bc
00000090: f833 9bbc d816 943b 0b20 17bd 178f 7b3b
000000a0: 05e5 073d 1fc3 433c 7947 9b3c 5c24 12bc
000000b0: 420f a4bd 8f0f d1bc 7875 74bc 4d34 85bd
000000c0: bed3 c83c 912b 9f3d 688b 463c 0240 3dbc
000000d0: d351 c3bd 9222 3f3d 84d1 893d 44bd 863d
000000e0: 8654 373b 373c 243d a98d 463c e614 a3bc
000000f0: 1ed2 da3c 814a 3dbb 0c76 6d3d e2d1 433d
00000100: 0080 e23c 028a 8fbd 05b4 e5bb d448 d13d
00000110: 29f4 1c3d d97e 803b 7776 27bd 8232 f3bd
00000120: 0ef5 9abc 6fac 593c 02e0 d93c 5b4f aebd
00000130: e87d ae3b 8166 7c3a 3ef1 54bd 9633 f3bd
00000140: b750 e03d 4f6d 54bd a08b 94bd f728 903d
00000150: c9b5 543d 6f0f 08bd c2fd 103d 4425 a33b
00000160: d25e a63a 15ea 7ebb 8f4c 59bd 0188 71bd
00000170: c9cc 92bd d801 ecbd 84b0 fdbc a400 37bc
00000180: 4eb8 bd3c 60dc a9bc e975 d5bc 65ee 39bd
00000190: 8bd0 dabb 3700 ebbc 23a3 833d 93f9 29bd
000001a0: 481d 0abc e7c9 1dbd c153 b53d c13f c4bc
000001b0: 96a4 39bc 2ee2 d9bd bd38 3abd bec8 70bd
000001c0: 6290 b6bd dc55 c6bd 53ef 6b3b 83d6 8bbd
000001d0: 050b b9bd 6be1 14bd acd2 57bd 6a36 193d
000001e0: 7f34 653d 9160 303d c738 863c 293b 0cbc
000001f0: eb2c f43c 6521 49bd bcc5 1a3d 3144 babd
00000200: 3247 4b3b a8a3 fcbc 076c 1f3d ffb0 41bb
00000210: 2245 893d a89f b4bd 7d64 edbb 3b33 bfbd
00000220: 7c90 b93c 2dee 70bd 1d7f 193d 420e cbbb
00000230: 4d4b 423e 35e8 1bbd 3c99 e53d 84f9 2d3d
00000240: f6fb 573d 53be 68bd 16b0 81bd 44f4 893d
00000250: bc3d b0bb 0bf7 013b c5bd b33d 04f5 04be
00000260: beb9 b33d f868 c53d 9732 92ba 92d1 273c
00000270: 9195 9e3d bdf3 1dbd 3aa3 b0bd 90bb 8ebd
00000280: ea85 f8bc 4cc0 03bd fc6b 8c3d a2a2 a03b
00000290: 87bd ef3d 5eac 5f3d 6bda 25bd a20f 0cbc
000002a0: c642 523d ba08 04be bc1a 6ebd 43a4 413c
000002b0: 4418 863d 9421 41bc 47c2 c03d a2a6 a83d
000002c0: ca06 d0bc 04fc eebd 3a2f f53c fa87 a13d
000002d0: 8825 fdbc 11fe 14bd 74af 64bd e705 963d
000002e0: 9e5f 983d 65b1 e53b 8e33 88bd 5f80 273e
000002f0: ba00 99bd 2914 023c 77f7 abbd cdbf eb3d
00000300: 13c2 b43d 8d57 01bc 3f5f 893d 76dd 41bd
00000310: 8996 d6bb a153 e6bb 858c fc3d 1c61 68bc
00000320: 595d 513d b15d 95bd 6d26 553d 24cb e8bd
00000330: cbad c5bd afeb f13d d9e4 1d3d 5757 10bc
00000340: ad8b 02bd 9b92 f53d c817 bb3c 1ab2 1a3c
00000350: 190d 903c fa7e 213d 866e c8bd 2552 e23c
00000360: 3724 d93d 7280 35bc 10e4 a93b d810 133d
00000370: 159e ed3c 96f2 ec3d 9105 f4bd 034d 493e
00000380: acf7 54bd c131 97bc afc4 383d 91e0 8dbd
00000390: c87f c53d 2148 8dbd 727d ffbc 0ffc 5d3d
000003a0: 0393 41bd 84d9 43bd a310 3dbd 746d b23b
000003b0: 3c61 843d ae77 b33d 9681 833d e56f 7d3d
000003c0: ded2 b83d b2da 073e 0a2e 45bd 2d47 09bc
000003d0: 7a0e 05bc 53f2 ddbc 3114 80bb 4ccb 7b3d
000003e0: 2bc1 47bd 0c58 ae3d 212d 273d 5870 063c
000003f0: 5ae4 ee3d 6e4b f8bc 717a c7bb a468 97bd

bias f4 [128]
-0.05282084 -0.0244098 -0.0507171 -0.026389824 -0.01495217 0.043298405 -0.04127555 0.042490233
-0.07356341 -0.019774139 0.06103231 -0.004749608 -0.09273275 -0.05150463 0.011961881 0.06851587
-0.039581638 -0.080744065 -0.09679652 -0.082209505 -0.08093435 0.017192274 -0.05018494 0.022791319
0.015625624 0.013339038 0.09680031 -0.008938359 -0.06057317 0.09125784 0.076233834 -0.026290666
-0.015032899 0.03988459 0.011386323 -0.053829063 0.090968035 0.10011145 0.0104347365 -0.10093191
0.02908135 -0.11671105 -0.11572 -0.043663528 -0.029285336 0.060949378 0.019198978 -0.07622729
-0.022643968 0.014023954 -0.079066694 -0.13314582 -0.09248993 0.081288934 -0.0704389 -0.06850851
0.09857864 0.05030456 0.071913175 0.09116699 -0.09253813 -0.056587856 0.070695415 0.05818065
-0.026398767 -0.027111141 0.048872344 0.07184802 0.0012048375 0.033492886 -0.06916999 -0.054004204
-0.0745041 -0.041600443 -0.039862953 -0.004685368 -0.008419527 0.037648473 -0.02933503 0.017198095
0.02681272 -0.06633466 -0.011187568 -0.04227916 0.051132914 0.1179259 0.01591559 -0.08754551
-0.087121315 5.93248e-05 0.031265546 -0.034276217 -0.026327325 -0.05090619 0.041208986 0.11427878
-0.07482218 -0.037664533 -0.049474485 0.08903586 0.01834823 -0.03847552 0.09039167 0.009938062
-0.07618694 -0.010741478 -0.03183021 0.020281034 -0.04031592 0.051000673 -0.05124136 0.0043652947
-0.03467274 0.047145654 0.026763955 0.042816702 0.057979543 -0.07056828 0.0062990575 0.04858511
-0.050318677 -0.027799465 0.11068373 0.060594052 -0.040271807 0.048060283 0.0018985175 0.025928436
00000000: aa5a 58bd 10f7 c7bc bcbc 4fbd 792f d8bc
00000010: f2f9 74bc ab59 313d 8d10 29bd 3d0a 2e3d
00000020: 6aa8 96bd 60fd a1bc 04fd 793d 9aa2 9bbb
00000030: abea bdbd 85f6 52bd c4fb 433c 0c52 8c3d
00000040: 5b20 22bd 255d a5bd 413d c6bd 755d a8bd
00000050: e9c0 a5bd d0d6 8c3c b98e 4dbd dcb4 ba3c
00000060: 4f01 803c fb8b 5a3c 3e3f c63d 3272 12bc
00000070: 931b 78bd 64e5 ba3d 7c20 9c3d 865f d7bc
00000080: 8c4c 76bc 065e 233d b38d 3a3c dd7b 5cbd
00000090: 734d ba3d 3b07 cd3d 75f6 2a3c 64b5 cebd
000000a0: 033c ee3c 3406 efbd 9bfe ecbd 87d8 32bd
000000b0: cde7 efbc 0ea6 793d 2d47 9d3c 0e1d 9cbd
000000c0: d87f b9bc bac4 653c b8ed a1bd 6157 08be
000000d0: 5c6b bdbd d07a a63d 4542 90bd 314e 8cbd
000000e0: 99e3 c93d 280c 4e3d 3747 933d c2b5 ba3d
000000f0: a284 bdbd abc8 67bd c2c8 903d d54e 6e3d
00000100: 3a42 d8bc 2f18 debc 5e2e 483d 0e25 933d
00000110: a3eb 9d3a d62f 093d ffa8 8dbd 8333 5dbd
00000120: 9b95 98bd 3a65 2abd 5647 23bd b787 99bb
00000130: 0ef2 09bc 4935 1a3d 0450 f0bc 05e3 8c3c
00000140: 59a6 db3c 77da 87bd 104c 37bc ea2c 2dbd
00000150: bf70 513d 2283 f13d 6961 823c 0f4b b3bd
00000160: a96c b2bd 85d3 7838 4d10 003d 3865 0cbd
00000170: 67ac d7bc 0283 50bd c1ca 283d fe0a ea3d
00000180: 5f3c 99bd 2046 1abd c2a5 4abd 6f58 b63d
00000190: 074f 963c 8298 1dbd 451f b93d 41d3 223c
000001a0: e607 9cbd 06fd 2fbc 6560 02bd 6924 a63c
000001b0: 4e22 25bd 15e6 503d 76e2 51bd bf0a 8f3b
000001c0: 0105 0ebd cd1b 413d 1540 db3c 9160 2f3d
000001d0: f57b 6d3d 1a86 90bd 5368 ce3b 2e01 473d
000001e0: f51a 4ebd b4bb e3bc 27ae e23d 7831 783d
000001f0: 0df4 24bd dcda 443d add7 f83a df67 d43c
