results/model/neural_596.model (torch, 686563 bytes, 21 tensors)

weight_ih f4 [384, 5]
0.041965708 -0.043326166 -0.083792605 -0.105110735 -0.032598827 0.021933919 0.033985313 -0.08190498
-0.002489178 -0.04390411 0.08791025 0.013087075 -0.046437267 0.09330009 0.014929821 0.07030196
-0.07428504 -0.035753362 -0.079797566 -0.049690623 -0.10510936 -0.0136072235 -0.036797002 -0.039603624
0.024104705 0.0062447344 0.015842702 0.05007307 0.033680703 -0.053390227 0.020969285 -0.063398875
-0.004823711 0.05155819 0.00429713 -0.07549444 -0.046646465 0.050880574 -0.10158261 -0.06727388
-0.005850277 -0.062423468 -0.02673761 -0.06091082 -0.10315784 -0.035011675 0.012076736 0.008368253
-0.12561679 -0.15533108 0.059304807 -0.06638765 0.037744105 0.033572774 -0.040605742 -0.0012036344
0.024341192 0.05221127 -0.040841438 0.0036656607 0.07179776 -0.038688645 -0.08878119 0.025801985
0.09141427 -0.00083414564 -0.02579001 -0.0332964 0.070408426 0.0470047 -0.0043071806 0.028085822
0.029877586 -0.08359557 0.010398684 -0.10693188 0.046116263 -0.034271568 0.035832215 0.04945194
-0.0926978 -0.06612844 0.02913831 -0.019102303 -0.113418974 0.09351626 0.053481314 -0.06773721
-0.070204 0.073783584 -0.058193024 -0.061095465 0.075641885 -0.022154054 -0.062306136 0.022133783
-0.039228026 0.030525444 0.039425205 -0.022062194 -0.046138275 -0.008926662 0.012060913 0.018857716
0.047462706 0.09068075 0.046926506 -0.044848133 -0.04996838 0.07032383 -0.05942841 0.03041075
-0.0022921627 -0.090713665 -0.009801336 0.11909363 -0.04175198 0.086779214 0.075298235 0.10773067
0.06732926 0.046930466 0.020998705 -0.097626805 -0.04122171 -0.11072498 -0.13130629 0.025750738
-0.11286802 -0.05054216 -0.026093155 -0.0046286476 0.0072892224 -0.009941952 0.023345517 0.038456555
-0.028221406 -0.048841365 -0.06679923 0.049829293 -0.01641012 -0.0038284839 -0.0033384995 -0.046203297
-0.092449024 -0.053512342 0.027655829 0.030045308 0.11372257 0.100979656 -0.049644876 0.032623626
-0.011419177 0.045234863 -0.01774103 0.075738735 -0.031459402 0.0912958 0.030071594 0.0953964
0.099456705 -0.040482648 -0.032557394 0.013353369 -0.0336479 0.044637572 -0.076032974 -0.026260532
-0.11825675 -0.02785263 0.052094184 -0.017752994 0.06528272 0.015923044 0.052483078 0.12640902
0.101240076 0.09731667 0.01567819 0.12979881 0.03272665 -0.054165322 -0.05610615 0.08295684
0.023961807 0.07380092 -0.021834118 -0.015410352 -0.046747237 0.014912186 -0.018601606 -0.090364486
0.059304584 -0.04043342 -0.028887147 0.014340922 0.0019940499 0.058843564 0.02782636 0.036948387
-0.020324355 0.021614544 0.04982292 -0.03138715 0.08361481 0.04015788 0.06239228 -0.0116123045
-0.08311016 0.084443286 0.042273447 0.13167375 0.028204316 0.053201303 -0.081170425 -0.08230278
0.0020257407 -0.0143041825 0.01936144 -0.02662731 0.063643605 0.06630589 -0.028738912 -0.061219905
-0.050593432 -0.030107751 -0.051195517 -0.016578292 -0.07445257 0.015568689 0.032782003 -0.039511576
-0.1027431 -0.0144138625 -0.058702502 -0.09898012 0.047988422 0.069125764 0.06259083 -0.075874306
-0.10065683 0.07655575 0.01535905 -0.040960513 0.060912665 -0.066983014 0.016418684 0.023511078
0.081325 0.011979559 -0.071183555 -0.057598785 -0.089374855 0.013590614 -0.035745375 0.01867904
00000000: 3ce4 2b3d c776 31bd 759b abbd 4c44 d7bd
00000010: 5986 05bd c3ae b33c 2f34 0b3d ccbd a7bd
00000020: 7a21 23bb ccd4 33bd 4a0a b43d 2c6b 563c
00000030: 0135 3ebd 1e14 bf3d 359c 743c 79fa 8f3d
00000040: c122 98bd 1e72 12bd e86c a3bd 6588 4bbd
00000050: 9343 d7bd d5f0 5ebc 74b8 16bd 6937 22bd
00000060: 3b77 c53c a1a0 cc3b 8ec8 813c 6b19 4d3d
00000070: c7f4 093d b6af 5abd c7c7 ab3c 45d7 81bd
00000080: 3810 9ebb ae2e 533d f0ce 8c3b d49c 9abd
00000090: 5d10 3fbd 2668 503d 8b0a d0bd e3c6 89bd
000000a0: aeb3 bfbb c0af 7fbd d508 dbbc a07d 79bd
000000b0: 6b44 d3bd 6768 0fbd 81dd 453c ff1a 093c
000000c0: b0a1 00be 1c0f 1fbe 99e9 723d 40f6 87bd
000000d0: 9099 1a3d 9b83 093d 3552 26bd 45c3 9dba
000000e0: 2e67 c73c 7cdb 553d 5a49 27bd 953b 703b
000000f0: b40a 933d fc77 1ebd ead2 b5bd af5e d33c
00000100: 6837 bb3d 91aa 5aba 9245 d3bc ce61 08bd
00000110: 4b32 903d 0088 403d 4023 8dbb 3d14 e63c
00000120: d7c1 f43c 2734 abbd 3e5f 2a3c 1aff dabd
00000130: 68e4 3c3d 5860 0cbd cdc4 123d 1e8e 4a3d
00000140: 58d8 bdbd 596e 87bd 77b3 ee3c 6f7c 9cbc
00000150: 3548 e8bd 7485 bf3d 390f 5b3d ceb9 8abd
00000160: 1dc7 8fbd d91b 973d cf5b 6ebd 3d3f 7abd
00000170: 22ea 9a3d 6b7c b5bc b834 7fbd e851 b53c
00000180: 91ad 20bd 7f10 fa3c 537c 213d c6bb b4bc
00000190: 7dfb 3cbd 2241 12bc 239b 453c 7f7b 9a3c
000001a0: 4168 423d d4b6 b93d 0236 403d adb2 37bd
000001b0: a5ab 4cbd f105 903d 346b 73bd f71f f93c
000001c0: 1c38 16bb 16c8 b9bd c895 20bc 5ce7 f33d
000001d0: 2004 2bbd 4db9 b13d f635 9a3d e6a1 dc3d
000001e0: ece3 893d 293a 403d 7a05 ac3c 90f0 c7bd
000001f0: 19d8 28bd c7c3 e2bd 2875 06be 36f3 d23c
00000200: 5927 e7bd 4c05 4fbd 50c1 d5bc e9ab 97bb
00000210: 6eda ee3b 92e3 22bc 193f bf3c 9f84 1d3d
00000220: 9430 e7bc e20d 48bd 09ce 88bd cd19 4c3d
00000230: 846e 86bc 4de7 7abb baca 5abb ab3f 3dbd
00000240: ea55 bdbd c22f 5bbd 7a8e e23c 9421 f63c
00000250: 61e7 e83d 6cce ce3d 6d58 4bbd 5aa0 053d
00000260: 8017 3bbc 3148 393d a355 91bc e91c 9b3d
00000270: 93db 00bd 4bf9 ba3d b458 f63c 305f c33d
00000280: f5af cb3d 22d1 25bd e75a 05bd 17c8 5a3c
00000290: 61d2 09bd e3d5 363d 2db7 9bbd 5420 d7bc
000002a0: 9830 f2bd 332b e4bc b660 553d ba6e 91bc
000002b0: f2b2 853d 0b71 823c 7ff8 563d 5e71 013e
000002c0: f556 cf3d f64d c73d 8c6f 803c fbe9 043e
000002d0: 610c 063d 75dc 5dbd 90cf 65bd 47e5 a93d
000002e0: 8d4b c43c f024 973d 77dd b2bc b37b 7cbc
000002f0: 087a 3fbd 3e52 743c 6562 98bc 0411 b9bd
00000300: 5de9 723d 849d 25bd bda4 ecbc 30f6 6a3c
00000310: 9bae 023b f305 713d 1bf4 e33c 3157 173d
00000320: 437f a6bc fc10 b13c 1e13 4c3d d08f 00bd
00000330: 3e3e ab3d 977c 243d 0c8f 7f3d 8941 3ebc
00000340: a935 aabd 9af0 ac3d ec26 2d3d 7cd5 063e
00000350: bd0c e73c 9ce9 593d ae3c a6bd 5c8e a8bd
00000360: 4ac2 043b 175c 6abc e29b 9e3c 8421 dabc
00000370: 9457 823d 62cb 873d de6d ebbc b9c1 7abd
00000380: 0f3b 4fbd 88a4 f6bc 64b2 51bd 33cf 87bc
00000390: 977a 98bd d113 7f3c 6c46 063d e4d6 21bd
000003a0: f96a d2bd 1f28 6cbc 0972 70bd 17b6 cabd
000003b0: 828f 443d cf91 8d3d 9f2f 803d fd63 9bbd
000003c0: 2b25 cebd 43c9 9c3d 86a4 7b3c 36c6 27bd
000003d0: 8f7f 793d 642e 89bd 7a80 863c 4e9a c03c
000003e0: b98d a63d ea45 443c afc8 91bd b4ec 6bbd
000003f0: 2a0a b7bd 2bab 5e3c be69 12bd c904 993c

weight_hh f4 [384, 128]
0.070204526 0.07065291 0.10795678 -0.00090711535 0.07885991 -0.029623924 -0.006777132 0.058725365
-0.030212525 -0.07150301 -0.04369646 -0.05639035 0.04739972 -0.081139244 0.113344155 -0.07995539
0.022221217 0.01841309 -0.029046005 0.015782962 -0.0110364705 0.028040702 -0.019248772 -0.009599455
0.050234973 0.025116961 -0.018324468 -0.034182265 -0.112425014 -0.09193233 0.08812996 -0.00420366
0.049091 0.010749433 0.07816221 -0.0692696 0.07185323 0.12534387 -0.10144769 0.07835663
-0.05022945 -0.077249676 0.054754622 -0.11218197 0.07289601 -0.03430018 0.0270925 0.10419583
0.0319122 -0.072788805 -0.012420097 -0.04619388 -0.123575 0.030178286 0.002905722 0.0017207558
-0.0065162918 -0.045685843 0.018004782 0.0041550007 -0.083281055 0.073425494 -0.04147229 0.034131464
-0.021789083 -0.05288481 -0.053818867 0.09193447 0.015115175 -0.05914491 -0.033202298 -0.04299489
0.027335633 0.053005654 -0.031007148 0.02679783 -0.10250843 -0.024973487 -0.03819022 -0.03802166
-0.0068849428 -0.044732623 0.10683267 -0.049250267 -0.038320635 0.064553306 0.04127167 0.05398727
0.02982541 0.0006083194 0.010750395 0.08879294 0.06410149 0.06568472 0.022416726 -0.004630175
-0.004042361 -0.04440766 0.06687946 -0.05065899 -0.07377761 -0.09753017 -0.08909774 -0.025652155
0.1045924 -0.064223036 -0.02677128 0.026320308 0.08400771 0.0069923108 -0.031771574 0.049506664
-0.01102831 -0.048036028 0.11224415 -0.10063525 -0.031169962 0.105038725 -0.099961504 0.10908878
-0.032574262 0.03945427 0.0144733805 -0.047410127 0.017262943 0.0031511346 -0.026799193 0.032248367
-0.027931737 0.079683825 0.09671197 -0.030511681 0.020745514 -0.0381256 0.10260335 0.04881521
0.09634965 -0.010832944 -0.08745 -0.08503165 -0.040472016 -0.018025182 0.0680332 -0.01941426
-0.07261303 -0.030608147 -0.09839841 -0.007458483 0.036320876 -0.09698013 0.042466242 -0.07198597
0.010380462 0.025185652 -0.03552935 0.045814358 -0.075750805 -0.019209342 -0.009133622 0.10099663
0.043242138 -0.050857037 0.101737276 -0.018699374 0.053297155 0.00013021423 -0.012089925 -0.03613974
0.003352693 -0.0050017596 0.078915186 -0.03589927 0.010632825 -0.0691432 -0.069895424 0.06483071
-0.059510775 -7.878673e-06 0.09821444 0.018691005 -0.03527878 0.016507413 -0.1118117 0.09994872
0.05997017 -0.06156552 -0.05211025 -0.03879005 -0.002925536 -0.03821319 -0.10667823 0.116322435
0.011036996 -0.07953973 0.042204835 0.00472446 -0.008676326 -0.007315921 0.00042548505 -0.0733573
-0.029193407 -0.04474184 0.021900516 -0.056962766 -0.10485761 -0.022703301 0.10516133 -0.017697783
-0.08818522 0.055357028 0.046625096 -0.06328455 0.013700506 0.10703328 0.070438564 0.052419685
-0.06755457 0.051191106 0.10969069 0.0058887154 0.025612164 -0.0058456874 -0.0028909135 0.028872987
0.0020067336 0.011274362 0.11040864 0.061411567 -0.041825473 -0.054102927 -0.11570146 -0.0033052224
0.05489685 0.022432562 0.06505618 -0.08719247 0.0025019166 0.03769647 0.115332946 -0.07646621
-0.11159785 0.05522067 -0.020874396 -0.12525061 0.06657578 0.029855944 -0.015632343 0.049484875
0.09536579 0.08277758 0.022943048 0.013053857 0.0038542722 -0.06747564 -0.08255254 0.09621165
00000000: 64c7 8f3d 79b2 903d 7218 dd3d 7bcb 6dba
00000010: 4e81 a13d dfad f2bc b412 debb 028a 703d
00000020: 4280 f7bc 2c70 92bd 0ffb 32bd 91f9 66bd
00000030: 3526 423d 552c a6bd fb20 e83d a7bf a3bd
00000040: 4509 b63c 0cd7 963c e3f1 edbc 454b 813c
00000050: 50d2 34bc 9db5 e53c 9aaf 9dbc 0847 1dbc
00000060: 30c3 4d3d 16c2 cd3c 321d 96bc b402 0cbd
00000070: 163f e6bd 0447 bcbd 7b7d b43d dbbe 89bb
00000080: a513 493d 641e 303c 8213 a03d 38dd 8dbd
00000090: c927 933d 255a 003e cec3 cfbd 7179 a03d
000000a0: 65bd 4dbd 1435 9ebd 6246 603d a9bf e5bd
000000b0: 814a 953d 587e 0cbd 17f1 dd3c a064 d53d
000000c0: 5eb6 023d 4c12 95bd aa7d 4bbc cb35 3dbd
000000d0: e414 fdbd 7438 f73c ed6d 3e3b fc8a e13a
000000e0: 9e86 d5bb 1421 3bbd c47e 933c ac26 883b
000000f0: 428f aabd 1b60 963d d9de 29bd 6fcd 0b3d
00000100: 057f b2bc be9d 58bd 2c71 5cbd 2448 bc3d
00000110: a4a5 773c ef41 72bd 22ff 07bd 691b 30bd
00000120: faee df3c 751c 593d b402 febc 1f87 db3c
00000130: f1ef d1bd 3395 ccbc 596d 1cbd 9abc 1bbd
00000140: 169b e1bb 8e39 37bd 16cb da3d a6ba 49bd
00000150: 19f6 1cbd 8634 843d 7c0c 293d c121 5d3d
00000160: 6b54 f43c a077 1f3a 6d22 303c 13d9 b53d
00000170: a447 833d b685 863d 48a3 b73c b9b8 97bb
00000180: c875 84bb cee4 35bd 19f8 883d cd7f 4fbd
00000190: b718 97bd e6bd c7bd e078 b6bd 7824 d2bc
000001a0: 8a34 d63d 5e87 83bd 724f dbbc b09d d73c
000001b0: 3c0c ac3d c11f e53b e922 02bd 80c7 4a3d
000001c0: 16b0 34bc 6dc1 44bd 43e0 e53d db19 cebd
000001d0: 2658 ffbc 8b1e d73d 9eb8 ccbd f069 df3d
000001e0: 976c 05bd cd9a 213d c221 6d3c 1f31 42bd
000001f0: 046b 8d3c 4483 4e3b fb89 dbbc dd16 043d
00000200: 19d1 e4bc 4631 a33d ed10 c63d a2f3 f9bc
00000210: 7ff2 a93c 9729 1cbd b521 d23d 75f2 473d
00000220: f752 c53d a97c 31bc fc18 b3bd 1325 aebd
00000230: fcc5 25bd 8ca9 93bc fe54 8b3d a70a 9fbc
00000240: 24b6 94bd f0bd fabc 1b85 c9bd 4a66 f4bb
00000250: 33c5 143d 859d c6bd 15f1 2d3d 616d 93bd
00000260: d012 2a3c 2452 ce3c 3987 11bd d6a7 3b3d
00000270: 3d23 9bbd e95c 9dbc 30a5 15bc 52d7 ce3d
00000280: ab1e 313d 784f 50bd a25b d03d 6e2f 99bc
00000290: 1e4e 5a3d 1e8a 0839 d214 46bc 4407 14bd
000002a0: dbb8 5b3b cde5 a3bb 499e a13d 1d0b 13bd
000002b0: 4d35 2e3c f39a 8dbd 5525 8fbd f7c5 843d
000002c0: 92c1 73bd a52e 04b7 a724 c93d e11d 993c
000002d0: 7b80 10bd 8e3a 873c 88fd e4bd eab1 cc3d
000002e0: 48a3 753d 202c 7cbd 8f71 55bd 51e2 1ebd
000002f0: 59ba 3fbb 6f85 1cbd 1e7a dabd 753a ee3d
00000300: 84d4 343c bae5 a2bd fade 2c3d a5cf 9a3b
00000310: 2627 0ebc 65ba efbb a313 df39 5a3c 96bd
00000320: 0327 efbc 3843 37bd b668 b33c ca51 69bd
00000330: 96bf d6bd 46fc b9bc d35e d73d f1fa 90bc
00000340: 749a b4bd 0dbe 623d f5f9 3e3d 559b 81bd
00000350: 1678 603c 4434 db3d 1842 903d 06b6 563d
00000360: 0d5a 8abd c4ad 513d 83a5 e03d 20f6 c03b
00000370: 9ad0 d13c 2e8d bfbb 7b75 3dbb 0b87 ec3c
00000380: 6783 033b 1ab8 383c ed1d e23d b28a 7b3d
00000390: 3051 2bbd 089b 5dbd e3f4 ecbd 6e9c 58bb
000003a0: 85db 603d 7ec4 b73c 2d3c 853d f791 b2bd
000003b0: 32f7 233b 9d67 1a3d ae33 ec3d 519a 9cbd
000003c0: 6a8d e4bd 122f 623d c800 abbc b241 00be
000003d0: e258 883d 7494 f43c 660f 80bc a7b0 4a3d
000003e0: 244f c33d 4b87 a93d 0ff3 bb3c d8df 553c
000003f0: f597 7c3b ab30 8abd 4e11 a9bd 9d0a c53d

bias_ih f4 [384]
-0.08624433 -0.075946115 0.05352817 0.052493308 -0.0135870455 0.042971786 -0.061136637 0.0014249467
-0.080384634 -0.045604825 -0.020946424 -0.056444004 -0.0833898 0.06981569 -0.022594567 -0.039948232
-0.11669524 -0.01728385 -0.05851227 -0.005836799 -0.039755195 -0.050089035 -0.07547229 0.1117654
-0.023800218 -0.01070417 -0.09662037 -0.049486596 0.009444426 0.046934787 0.04945903 0.003839283
0.10117154 0.01915448 -0.038774833 0.0029139833 0.052464034 0.014825842 0.06829173 0.064127445
0.066356756 0.025922028 -0.09506628 -0.09004115 0.07139276 -0.048441764 0.021742571 0.07708473
-0.058471695 -0.04638796 0.044431303 0.009245149 -0.021300696 -0.043061715 0.048784994 0.07488555
-0.005549543 0.026434973 0.019564308 0.024294693 -0.08746583 -0.0032412496 0.05579094 0.059201624
0.073464595 -0.08036165 -0.005795475 0.028651053 0.020805303 0.067575455 -0.013785989 0.101713814
-0.021642528 0.023977743 -0.029773993 -0.058505464 0.04037354 -0.07407231 -0.06053573 0.05262727
0.016644493 -0.10162733 0.062477317 0.11044857 0.07320394 -0.0577673 -0.011967315 -0.08139136
0.04166333 0.0031105839 -0.07905818 0.028198363 -0.033798583 0.043885004 0.03118975 0.0027878967
-0.018350359 0.08976039 0.020129764 -0.051035553 -0.013407983 -0.02415541 0.0780205 -0.007106142
-0.04587135 -0.038907748 -0.07678582 -0.016335648 -0.042944662 -0.08836503 0.080815814 -0.049912486
-0.087078795 0.07552496 -0.051833536 -0.07771885 0.011267178 0.072125286 0.07084139 0.01967907
0.047087166 -0.09933346 -0.05043813 0.015946206 0.09703933 -0.012188666 0.059356853 0.06392365
-0.07017956 -0.019153528 -0.032853812 -0.018762039 0.04626666 -0.09398677 0.062049 -0.06006523
-0.075300686 0.015961057 0.061961688 -0.07375021 -0.030236032 -0.042823147 -0.06364207 -0.10218709
0.027105674 -0.030353047 -0.10067168 0.044703428 -0.09102614 0.008773493 -0.06534792 -0.008191569
-0.021206178 -0.039993647 0.03683326 0.08773169 -0.016635943 0.0057034865 0.045702677 -0.09155623
0.08410019 -0.11255849 0.05807761 0.016427383 -0.09163413 0.075252 -0.0560352 0.020257443
-0.052435283 0.01989474 -0.12363221 -0.074706994 0.012015354 -0.07019374 -0.08455161 -0.05816338
-0.048339564 0.08327222 -0.024504568 -0.016044058 -0.009633015 0.054000635 -0.020440673 0.0046954122
-0.0126957195 0.038982827 -0.004691655 -0.00096855196 -0.05220411 0.03162256 -0.006506842 0.02200223
0.034848712 -0.035532013 -0.033639457 0.030779406 0.046069972 -0.038384035 0.042460803 0.0015684516
0.054403335 -0.10929376 0.021174494 -0.04892743 -0.11884909 0.06535798 0.0935517 0.017953647
-0.054007992 -0.013777865 0.042214975 0.031426057 -0.05438248 0.025433931 0.011617037 -0.0045780013
-0.09650712 -0.001964946 0.10742936 -0.054887094 -0.016489038 -0.02921232 -0.08099502 -0.004008003
-0.05685108 0.073039524 -0.038626753 -0.0942639 0.0882046 0.023926286 -0.013457663 -0.06754049
0.037533857 0.098211475 -0.018315423 0.07155008 -0.08137924 -0.08043505 0.04789059 -0.05831977
-0.06453293 0.0046985676 0.053327505 0.016234875 0.0668128 0.06038708 -0.011300338 0.010763346
0.028209392 -0.044712264 -0.020417908 0.05458704 -0.061762083 -0.097556844 -0.024812235 -0.08256743
00000000: dea0 b0bd a389 9bbd 5b40 5b3d 3903 573d
00000010: 339c 5ebc 2f03 303d 696a 7abd 47c5 ba3a
00000020: b3a0 a4bd 20cc 3abd d697 abbc d431 67bd
00000030: 45c8 aabd 87fb 8e3d 3e18 b9bc c2a0 23bd
00000040: eafd eebd dc96 8dbc 90aa 6fbd 9e42 bfbb
00000050: 58d6 22bd 292a 4dbd 3791 9abd 42e5 e43d
00000060: adf8 c2bc 8b60 2fbc e7e0 c5bd 75b2 4abd
00000070: cbbc 1a3c b13e 403d 8d95 4a3d 7b9c 7b3b
00000080: 0633 cf3d dbe9 9c3c 5cd2 1ebd 87f8 3e3b
00000090: 87e4 563d 17e8 723c 89dc 8b3d 4055 833d
000000a0: 0de6 873d 6f5a d43c 1cb2 c2bd 7f67 b8bd
000000b0: 5e36 923d df6a 46bd 7a1d b23c 99de 9d3d
000000c0: 0480 6fbd 4d01 3ebd 99fd 353d f778 173c
000000d0: cc7e aebc 7b61 30bd c6d2 473d 985d 993d
000000e0: f1d8 b5bb 288e d83c 5445 a03c aa05 c73c
000000f0: 4921 b3bd 256b 54bb 0a85 643d 677d 723d
00000100: 9b74 963d a694 a4bd f8e7 bdbb 9db5 ea3c
00000110: e26f aa3c 0065 8a3d a1de 61bc 554f d03d
00000120: ac4b b1bc f96c c43c 97e8 f3bc 6da3 6fbd
00000130: ba5e 253d 39b3 97bd 50f4 77bd b18f 573d
00000140: 085a 883c fd21 d0bd 37e8 7f3d dc32 e23d
00000150: f3eb 953d 689d 6cbd 8f12 44bc 83b0 a6bd
00000160: 2ba7 2a3d f0da 4b3b 41e9 a1bd 4100 e73c
00000170: 6270 0abd c3c0 333d a681 ff3c 25b5 363b
00000180: 7e53 96bc 4cd4 b73d 2de7 a43c a80a 51bd
00000190: 28ad 5bbc 91e1 c5bc 36c9 9f3d a4da e8bb
000001a0: 99e3 3bbd bb5d 1fbd e241 9dbd 56d2 85bc
000001b0: bee6 2fbd baf8 b4bd c382 a53d 0971 4cbd
000001c0: 5e56 b2bd d5ac 9a3d 674f 54bd 0f2b 9fbd
000001d0: f899 383c 6cb6 933d 4a15 913d 0036 a13c
000001e0: 79de 403d 576f cbbd 3698 4ebd 9ea1 823c
000001f0: 8ebc c63d f8b2 47bc 2c20 733d 67ea 823d
00000200: 4dba 8fbd dce7 9cbc b891 06bd d9b2 99bc
00000210: 1c82 3d3d 237c c0bd 1827 7e3d f506 76bd
00000220: 3f37 9abd c3c0 823c 8acb 7d3d 5a0a 97bd
00000230: 8eb1 f7bc 5367 2fbd c656 82bd 7747 d1bd
00000240: b80c de3c f4a6 f8bc f42c cebd f11a 373d
00000250: ea6b babd b2be 0f3c 21d5 85bd ee35 06bc
00000260: 94b8 adbc 61d0 23bd 79de 163d acac b33d
00000270: 1a48 88bc 50e4 ba3b bb32 3b3d d581 bbbd
00000280: b83c ac3d 1185 e6bd cae2 6d3d b892 863c
00000290: adaa bbbd b81d 9a3d 2a85 65bd f0f2 a53c
000002a0: 61c6 56bd 4bfa a23c e232 fdbd fbff 98bd
000002b0: 0cdc 443c bcc1 8fbd 6529 adbd b93c 6ebd
000002c0: b5ff 45bd a08a aa3d cebd c8bc d46e 83bc
000002d0: cbd3 1dbc c52f 5d3d 3373 a7bc f9db 993b
000002e0: b501 50bc 75ac 1f3d 74bc 99bb 6ce6 7dba
000002f0: fad3 55bd a886 013d 5937 d5bb 053e b43c
00000300: 86bd 0e3d 048a 11bd 87c9 09bd 1825 fc3c
00000310: deb3 3c3d 9438 1dbd 61eb 2d3d 8194 cd3a
00000320: 08d6 5e3d 68d5 dfbd 2276 ad3c 2168 48bd
00000330: 2767 f3bd 68da 853d 0998 bf3d 8713 933c
00000340: 7c37 5dbd 8ebc 61bc 9ce9 2c3d 9cb8 003d
00000350: 2ac0 5ebd d25a d03c 6255 3e3c 0f03 96bb
00000360: 86a5 c5bd 53c6 00bb ed03 dc3d 4ad1 60bd
00000370: 0514 87bc ad4e efbc b8e0 a5bd 9155 83bb
00000380: aedc 68bd bf95 953d 1637 1ebd 6e0d c1bd
00000390: 9da4 b43d 0f01 c43c 887d 5cbc ab52 8abd
000003a0: 1abd 193d 1923 c93d 3a0a 96bc d988 923d
000003b0: 29aa a6bd 22bb a4bd ec28 443d b6e0 6ebd
000003c0: d729 84bd 71f6 993b f16d 5a3d 00ff 843c
000003d0: 26d5 883d 7158 773d 0e25 39bc bf58 303c
000003e0: 6217 e73c 3524 37bd 7543 a7bc a996 5f3d
000003f0: 3dfa 7cbd e2cb c7bd 0743 cbbc 1d19 a9bd

bias_hh f4 [384]
0.0067587215 -0.09597633 0.02678432 -0.049340155 0.0494127 0.02796595 -0.04733504 -0.10578191
0.0029796166 -0.026325006 -0.03060524 -0.117032364 0.021512456 0.018171117 -0.07308748 -0.009701398
-0.10084785 -0.014107069 -0.08192051 0.04385429 -0.085418284 -0.012122798 0.018231016 0.06649854
-0.051873982 0.0037946552 0.033380557 -0.05427483 -0.0028642828 0.09113532 -0.06587201 0.027023401
0.05256493 0.011304204 0.055521615 -0.016661623 0.0021968985 -0.04892594 0.05169027 0.054462567
-0.07233774 0.032356124 -0.041660618 -0.016637422 -0.048071068 -0.026001355 -0.10162036 -0.08448773
-0.052568108 0.019540384 -0.011409097 0.070319876 -0.01568058 0.0012210151 -0.072802186 -0.03500921
0.047370903 0.059583254 -0.050481845 -0.06456085 -0.053018603 -0.099328555 0.0980721 -0.04637981
0.001953796 0.021571834 -0.08165341 -0.08328774 -0.02686188 0.060055345 0.03626303 0.0061807986
-0.03992702 0.0881849 0.028517982 0.003833931 0.09523794 -0.015058742 -0.07982092 -0.029594459
-0.021583667 -0.09375186 -0.011761512 -0.021360015 -0.065071225 0.11299315 0.052353807 0.058250178
-0.08695865 0.08385429 0.027861312 -0.08584905 -0.05442121 -0.058524206 -0.011053073 0.07162877
-0.031884924 -0.06550575 -0.027892362 0.08007651 -0.04910091 -0.022432521 -0.08500489 0.057805322
0.082881235 0.046593342 -0.02091412 0.0061537344 0.015421813 -0.067572474 -0.07533489 0.035061043
-0.048019215 0.09486446 0.06901871 -0.08837669 -0.0042446265 0.021903781 0.07779253 -0.030499138
-0.044632982 -0.069867425 -0.014526763 -0.09576604 -0.007975303 -0.065983124 0.020868737 -0.07730919
0.042202927 -0.0758698 0.058973648 -0.017864447 -0.08893981 -0.026224656 -0.0713784 0.087884046
-0.0565032 0.0022591988 0.07000754 -0.042877533 0.015646396 0.057037298 -0.009001809 -0.031933993
-0.0648953 -0.08470099 -0.077411585 -0.065212995 -0.01853924 -0.046776295 0.003958442 0.0377394
0.09742637 0.07200512 0.025136435 -0.05308072 0.037646145 -0.05367566 0.06547205 0.05964894
-0.07482047 -0.041873515 -0.064320214 0.083359905 -0.037157748 0.026226718 0.07551697 -0.0877451
-0.025793843 -0.080341436 -0.05396793 0.064166464 0.0027430558 0.011575783 -0.061423924 -0.009310778
-0.020017944 -0.041318014 0.077786356 0.023829125 0.045457844 0.044921014 0.046688408 0.073611826
-0.045212843 -0.043832567 -0.052976303 -0.10493393 0.054715782 -0.048894174 0.007939611 0.06478527
-0.036887374 0.046240803 -0.0719453 -0.07263394 0.032607507 0.01703568 -0.063701294 0.06043749
-0.055967808 -0.005744702 0.058246296 -0.06623596 -0.012888371 -0.03270011 0.11084643 -0.04156078
0.025471857 0.026845181 0.053289495 -0.07191349 -0.11202407 0.00057764916 -0.040160157 0.06269062
-0.067571856 -0.08542398 0.07326458 0.037790906 0.062341094 0.036931485 -0.05897363 -0.025179084
-0.030118344 -0.06601557 0.038770486 -0.030252807 -0.0036804574 0.042499308 0.065277465 -0.02250082
0.070880644 0.01193467 0.025935015 0.06911189 0.025694387 -0.0078008636 0.037493065 0.056015775
0.028013365 0.031109596 -0.06958487 0.00063709304 -0.04644991 -0.009448522 -0.07709486 0.016705139
-0.09907027 -0.034578256 -0.08349886 -0.0041803825 -0.08004566 -0.06385257 0.052047577 0.071591616
00000000: 4478 dd3b 3d8f c4bd ca6a db3c e718 4abd
00000010: f964 4a3d d918 e53c 63e2 41bd 30a4 d8bd
00000020: ac45 433b 8aa7 d7bc d7b7 fabc aaae efbd
00000030: e43a b03c 98db 943c e4ae 95bd 9df2 1ebc
00000040: 5189 cebd 5621 67bc f1c5 a7bd 8ea0 333d
00000050: c8ef aebd b39e 46bc 3659 953c 6330 883d
00000060: d079 54bd c0af 783b 0dba 083d 494f 5ebd
00000070: b1b6 3bbb 28a5 ba3d e8e7 86bd 2e60 dd3c
00000080: 534e 573d 4535 393c a26a 633d f57d 88bc
00000090: d7f9 0f3b 9166 48bd 2db9 533d 2414 5f3d
000000a0: cf25 94bd db87 043d 53a4 2abd 344b 88bc
000000b0: 2be6 44bd cb00 d5bc 561e d0bd e707 adbd
000000c0: a851 57bd 2813 a03c 39ed 3abc de03 903d
000000d0: 8f74 80bc 780a a03a 5019 95bd d165 0fbd
000000e0: fe07 423d 920d 743d 0dc6 4ebd 7b38 84bd
000000f0: 092a 59bd c56c cbbd 06da c83d c1f8 3dbd
00000100: 420b 003b 6ab7 b03c e739 a7bd c392 aabd
00000110: 720d dcbc 98fc 753d 8b88 143d 4c88 ca3b
00000120: 848a 23bd 499a b43d 8b9e e93c b042 7b3b
00000130: 1c0c c33d f1b8 76bc 2779 a3bd 1470 f2bc
00000140: 3bd0 b0bc fa00 c0bd 5bb3 40bc 33fb aebc
00000150: 1044 85bd f468 e73d f270 563d bd97 6e3d
00000160: 6017 b2bd ccbb ab3d 683d e43c a0d1 afbd
00000170: c6e8 5ebd 14b7 6fbd f317 35bc 1bb2 923d
00000180: c499 02bd e127 86bd 867e e4bc 27ff a33d
00000190: 091e 49bd 68c4 b7bc 0b17 aebd 46c5 6c3d
000001a0: a3bd a93d a9d8 3e3d 1754 abbc 44a5 c93b
000001b0: c6ab 7c3c 7063 8abd 2e49 9abd 2b9c 0f3d
000001c0: ccaf 44bd 4c48 c23d ae59 8d3d d7fe b4bd
000001d0: 8216 8bbb 8f6f b33c b151 9f3d 54d9 f9bc
000001e0: 13d1 36bd a716 8fbd a901 6ebc fc20 c4bd
000001f0: d8aa 02bc 2922 87bd eaf4 aa3c 4854 9ebd
00000200: fadc 2c3d a061 9bbd 5a8e 713d 7658 92bc
00000210: 1326 b6bd 17d5 d6bc d72e 92bd 8dfc b33d
00000220: e66f 67bd 110f 143b 1d60 8f3d 5aa0 2fbd
00000230: df2c 803c f19f 693d 537c 13bc 38cd 02bd
00000240: d4e7 84bd b677 adbd f789 9ebd 648e 85bd
00000250: 9bdf 97bc 8098 3fbd d1b5 813b a194 1a3d
00000260: 7a87 c73d 6c77 933d edea cd3c 2b6b 59bd
00000270: d832 1a3d 02db 5bbd 3616 863d 7252 743d
00000280: 793b 99bd 9083 2bbd 51ba 83bd 99b8 aa3d
00000290: b932 18bd 6ad9 d63c a4a8 9a3d b4b3 b3bd
000002a0: 9c4d d3bc 0d8a a4bd 7a0d 5dbd b569 833d
000002b0: d7c4 333b 5aa8 3d3c a797 7bbd 3c8c 18bc
000002c0: acfc a3bc 143d 29bd 744e 9f3d 4c35 c33c
000002d0: 0132 3a3d 19ff 373d 583c 3f3d ccc1 963d
000002e0: 1a31 39bd c789 33bd aefd 58bd 9ae7 d6bd
000002f0: a81d 603d 4245 48bd 2415 023c 24ae 843d
00000300: 3717 17bd ff66 3d3d 0f58 93bd 1ac1 94bd
00000310: 738f 053d 698e 8b3c d375 82bd 4d8d 773d
00000320: 803e 65bd 0e3e bcbb ab93 6e3d b8a6 87bd
00000330: bf29 53bc 8df0 05bd 7403 e33d a33b 2abd
00000340: 5baa d03c 6dea db3c 1646 5a3d 6147 93bd
00000350: e06c e5bd 616d 173a fa7e 24bd f163 803d
00000360: 1d63 8abd c5f2 aebd bd0b 963d a3ca 1a3d
00000370: 6059 7f3d 7845 173d 558e 71bd 5e44 cebc
00000380: bfba f6bc 2c33 87bd cdcd 1e3d bcd4 f7bc
00000390: d433 71bb c113 2e3d 31b0 853d a453 b8bc
000003a0: df29 913d a289 433c ab75 d43c 898a 8d3d
000003b0: 097d d23c 639e ffbb 5492 193d cc70 653d
000003c0: 497c e53c 8dd9 fe3c 8382 8ebd 9702 273a
000003d0: 4342 3ebd f9cd 1abc e9e3 9dbd 37d9 883c
000003e0: 5be5 cabd eea1 0dbd 7301 abbd 97fb 88bb
000003f0: fbee a3bd 23c5 82bd d72f 553d a09e 923d

weight f4 [128, 128]
0.0462063 -0.025072647 0.007376372 0.056980982 0.047548357 -0.0992894 0.089270175 -0.06941152
-0.031907838 -0.06193084 -0.020685539 0.035230454 0.07129906 0.041969243 -0.021517463 0.052336182
-0.017792094 0.09961547 0.031706084 0.09842535 0.008695023 0.06548314 -0.061558846 -0.08412217
-0.0021216117 0.06478455 -0.006476163 0.049159903 0.03676147 0.0125229955 -0.0064880457 0.05075586
-0.027045166 0.049520075 -0.005621208 0.007479623 -0.015119557 0.05856956 0.050012883 0.05858355
-0.06634659 -0.022756644 0.09035644 0.0022593946 0.09511044 0.00038521062 -0.01128593 -0.07182361
-0.005448211 -0.09765875 -0.07921063 0.01323751 -0.08226325 0.089177884 -0.043808475 -0.010951607
0.005474661 0.053883646 0.09272207 0.06952267 0.05201743 0.04803789 0.0347764 0.022949535
0.06673746 0.024455514 0.055041358 -0.0209254 0.006318206 -0.030563554 0.06637579 0.023420125
-0.029658914 0.06749638 -0.060940262 -0.09871471 -0.06857024 0.07948643 -0.024440013 -0.049187925
0.046675205 0.017152892 0.06975883 0.0040960046 -0.015539837 0.029743107 0.03038471 0.037291426
0.05344064 0.046303328 -0.036771685 -0.029151838 0.09118999 0.053272773 0.017366637 0.07483569
-0.03243073 0.075083636 0.0069807665 0.055401295 -0.025371598 0.010542333 -0.060521193 0.050277017
0.052408595 0.0482987 0.007571694 0.058385704 -0.02836328 0.044839706 0.06105811 0.02617425
-0.04441922 0.01823828 0.03630713 -0.034703 0.070721604 -0.04948706 0.05047873 0.0131300185
0.017931413 -0.05370143 0.05345428 -0.047331452 0.05377742 -0.07031873 -0.013137322 0.015727682
-0.08788455 -0.04139583 0.012178976 0.040365957 -0.013674987 -0.057807434 0.038816735 -0.018091679
-0.05413851 0.06503005 0.07559167 0.08909222 -0.044440135 -0.06654012 0.0068486426 0.047326803
0.07469333 -0.021590488 -0.024724036 0.008803818 -0.014994455 0.10427627 -0.08814758 0.002585577
0.068699926 0.016795937 0.009975496 0.09206877 -0.02133086 0.033485737 0.086924426 0.02099043
0.005428966 0.056218427 0.024189392 -0.038406078 -0.046453394 -0.006635916 0.07274642 -0.06275727
0.06848921 0.03518072 -0.06090105 0.04094777 0.009256838 0.00091188966 0.04728982 -0.042698212
0.050330367 -0.045149714 -0.038653374 -0.049100395 -0.061432928 -0.038900524 0.054817673 -0.032935854
-0.09385502 -0.04392235 -0.004912836 0.06605246 0.0032017191 0.025091313 -0.049574137 0.06258402
-0.0071549476 0.06718705 -0.063111246 0.022949534 -0.0592204 0.08668456 -0.0711735 -0.05898318
-0.027433127 -0.05548169 0.028020263 0.04457989 -0.063960224 0.0043732654 -0.07784931 -0.048887756
0.076674886 -0.031922314 0.024634134 -0.021292726 -0.033104174 0.109571636 -0.020003617 0.01694874
0.05666409 -0.081426054 -0.07478228 -0.072691426 0.05077129 -0.070612386 -0.021140084 0.025990097
0.0049995384 0.011430345 -0.032186445 -0.039734874 0.03697501 0.009926657 0.05111558 0.0144470595
0.0922358 -0.02531002 -0.03529309 0.030411564 0.06760731 -0.0423097 0.0217641 -0.021611243
0.03430513 -0.07762618 0.0015014573 -0.055975147 -0.008720881 -0.052941218 -0.079457596 0.03734321
-0.023434639 0.0688946 0.050578382 0.049531847 0.02280928 -0.018356357 -0.052866228 -0.08458074
00000000: d142 3d3d 2765 cdbc 7eb5 f13b e464 693d
00000010: 11c2 423d 3e58 cbbd 48d3 b63d a127 8ebd
00000020: cbb1 02bd 31ab 7dbd b874 a9bc cf4d 103d
00000030: 3e05 923d f1e7 2b3d 6445 b0bc 775e 563d
00000040: bac0 91bc 3203 cc3d 3dde 013d 3b93 c93d
00000050: 9275 0e3c 061c 863d 2125 7cbd 3f48 acbd
00000060: bd0a 0bbb c3ad 843d fe35 d4bb e55b 493d
00000070: 3293 163d 402d 4d3c ac99 d4bb 60e5 4f3d
00000080: d38d ddbc 90d5 4a3d 1c32 b8bb a017 f53b
00000090: 05b8 77bc a3e6 6f3d 4fda 4c3d 4ef5 6f3d
000000a0: b9e0 87bd 246c babc cc0c b93d 5a12 143b
000000b0: 43c9 c23d 18f6 c939 9fe8 38bc 4218 93bd
000000c0: e886 b2bb 5001 c8bd 2f39 a2bd 24e2 583c
000000d0: a379 a8bd e5a2 b63d 8470 33bd 5e6e 33bc
000000e0: c964 b33b 19b5 5c3d 12e5 bd3d e761 8e3d
000000f0: 3b10 553d 61c3 443d b371 0e3d aa00 bc3c
00000100: a6ad 883d ee56 c83c 0c73 613d bf6b abbc
00000110: f408 cf3b 6b60 fabc 08f0 873d 90db bf3c
00000120: 40f7 f2bc 8b3b 8a3d 7f9c 79bd f02a cabd
00000130: 8e6e 8cbd c8c9 a23d 6c36 c8bc 4779 49bd
00000140: 802e 3f3d 3984 8c3c b8dd 8e3d c737 863b
00000150: cd9a 7ebc d1a7 f33c 5be9 f83c e5be 183d
00000160: 93e4 5a3d 8fa8 3d3d e89d 16bd d6cf eebc
00000170: d1c1 ba3d 8d34 5a3d 7a44 8e3c 7443 993d
00000180: 16d6 04bd 73c5 993d eabe e43b 78ec 623d
00000190: 19d8 cfbc c0b9 2c3c 12e5 77bd 46ef 4d3d
000001a0: 65aa 563d dcd4 453d f91b f83b d925 6f3d
000001b0: 1c5a e8bc d7a9 373d 1218 7a3d 616b d63c
000001c0: eef0 35bd 7268 953c c9b6 143d bc24 0ebd
000001d0: 7dd6 903d f2b2 4abd c9c2 4e3d 4a1f 573c
000001e0: e6e4 923c 08f6 5bbd e0f2 5a3d a0de 41bd
000001f0: b645 5c3d 4403 90bd ec3d 57bc 57d7 803c
00000200: d1fc b3bd ad8e 29bd 548a 473c c656 253d
00000210: 0d0d 60bc 7dc7 6cbd 4cfe 1e3d 0035 94bc
00000220: 58c0 5dbd 7a2e 853d cecf 9a3d fb75 b63d
00000230: dc06 36bd 3046 88bd 946a e03b c0d9 413d
00000240: d1f8 983d 89de b0bc 108a cabc e43d 103c
00000250: 4dab 75bc cc8e d53d b886 b4bd c972 293b
00000260: 8cb2 8c3d a297 893c 4370 233c 8d8e bc3d
00000270: 0ebe aebc 5728 093d 6f05 b23d 1ff4 ab3c
00000280: 78e5 b13b 4b45 663d d528 c63c b14f 1dbd
00000290: ea45 3ebd 1972 d9bb 13fc 943d e286 80bd
000002a0: 1244 8c3d a919 103d 6173 79bd d9b8 273d
000002b0: fea9 173c e10b 6f3a f8b2 413d 52e4 2ebd
000002c0: 3727 4e3d e8ee 38bd 0053 1ebd 7f1d 49bd
000002d0: 18a1 7bbd 2856 1fbd 7f88 603d bfe7 06bd
000002e0: 1037 c0bd ece7 33bd dbfb a0bb 8346 873d
000002f0: efd3 513b 4c8c cd3c 400e 4bbd 0d2c 803d
00000300: 0d74 eabb 5d99 893d 7840 81bd a900 bc3c
00000310: 1791 72bd ad87 b13d 69c3 91bd 5998 71bd
00000320: 70bb e0bc c540 63bd c08a e53c 6799 363d
00000330: 94fd 82bd 9c4d 8f3b 766f 9fbd 873e 48bd
00000340: b907 9d3d f9c0 02bd 86cd c93c 156e aebc
00000350: 3e98 07bd 1867 e03d a0de a3bc 16d8 8a3c
00000360: 9b18 683d b4c2 a6bd 7427 99bd 3edf 94bd
00000370: 8ef5 4f3d 3a9d 90bd f82d adbc 2fe9 d43c
00000380: 2bd3 a33b 5746 3b3c efd5 03bd 09c1 22bd
00000390: 1c73 173d 6ba3 223c 925e 513d 5cb3 6c3c
000003a0: 20e6 bc3d f656 cfbc 7d8f 10bd ac21 f93c
000003b0: b475 8a3d f04c 2dbd a04a b23c 100a b1bc
000003c0: 8983 0c3d 7afa 9ebd 8ccc c43a 3246 65bd
000003d0: 07e2 0ebc e4d8 58bd aaba a2bd 32f5 183d
000003e0: 00fa bfbc 9d18 8d3d 472b 4f3d e8e1 4a3d
000003f0: 87da ba3c 1260 96bc 428a 58bd ab38 adbd

bias f4 [128]
0.0022209578 -0.07845251 0.06968244 -0.012903681 0.078463346 -0.014026527 -0.023210023 0.03929481
0.043333407 -0.07686782 -0.026183452 -0.07852974 -0.09323634 -0.035946842 -0.04299071 0.008877472
0.047379352 0.014403314 -0.035791054 -0.01679287 -0.09137238 -0.07970645 0.05664118 0.009328394
-0.0066374214 -0.023764413 0.016159508 -0.005637648 0.0813463 -0.024035241 -0.09730043 -0.08962009
0.0030744153 -0.07246165 -0.00012789047 -0.014450595 0.05535883 0.07313988 -0.02664076 0.0012467159
0.059878588 -0.09098176 -0.042634364 -0.069741555 0.009659689 0.06261608 -0.018123131 0.017200455
-0.10736662 -0.04268673 -0.05425945 0.014679396 0.005172244 -0.04162415 0.041526362 0.05926764
-0.01801528 -0.018837197 0.018857067 -0.053087495 -0.047923476 -0.07442357 -0.0021006188 0.04211542
0.072064616 -0.018370043 0.058800034 -0.022726342 0.0665285 -0.10325435 -0.058452755 -0.038892165
0.039315175 0.077691354 0.074230485 0.03702072 -0.013143795 0.002405942 -0.09704085 0.057776455
-0.04534674 0.026885299 0.06821251 -0.006205101 0.06446601 -0.007103677 0.0099267205 0.032250486
0.032177456 -0.022884054 0.049095917 -0.022198334 0.011239118 -0.108921625 -0.044956256 0.08116235
0.058821827 -0.088421345 -0.04661161 -0.08665542 0.05153303 -0.047114566 -0.036777243 -0.06446063
0.015223365 -0.06435083 -0.076431595 0.00014769984 -0.05028731 0.031974584 -0.016111903 -0.048187792
0.075805955 -0.031898055 0.0039655208 -0.04770379 0.027501352 0.0020429823 -0.040995978 -0.013445578
0.025201015 0.030833546 -0.044294253 -0.045543782 0.00861033 0.035102785 -0.06945856 -0.019811928
00000000: 7d8d 113b b6ab a0bd abb5 8e3d f669 53bc
00000010: 64b1 a03d 85cf 65bc f222 bebc 98f3 203d
00000020: 5f7e 313d e06c 9dbd ae7e d6bc 33d4 a0bd
00000030: b2f2 bebd ff3c 13bd 0717 30bd d172 113c
00000040: da10 423d e1fb 6b3c a499 12bd 3391 89bc
00000050: 7121 bbbd 233d a3bd 9500 683d 1fd6 183c
00000060: ba7e d9bb 96ad c2bc f260 843c 05bc b8bb
00000070: e498 a63d 8ee5 c4bc 7345 c7bd bd8a b7bd
00000080: 217c 493b c666 94bd 561a 06b9 30c2 6cbc
00000090: f1bf 623d 5dca 953d b93d dabc d868 a33a
000000a0: 4043 753d a554 babd 5fa1 2ebd a9d4 8ebd
000000b0: ac43 1e3c dc3c 803d f676 94bc f8e7 8c3c
000000c0: 08e3 dbbd 48d8 2ebd 283f 5ebd d981 703c
000000d0: ed7b a93b 167e 2abd 8c17 2a3d a0c2 723d
000000e0: c894 93bc 7750 9abc 237a 9a3c 4672 59bd
000000f0: 684b 44bd 626b 98bd 89aa 09bb 3881 2c3d
00000100: 9d96 933d c67c 96bc 4ed8 703d 982c babc
00000110: 1840 883d 0477 d3bd 286c 6fbd 644d 1fbd
00000120: f308 213d a51c 9f3d 2706 983d 0aa3 173d
00000130: 1259 57bc 02ad 1d3b 5abd c6bd 01a7 6c3d
00000140: 81bd 39bd 8f3e dc3c 00b3 8b3d 2954 cbbb
00000150: c106 843d f6c5 e8bb afa3 223c 1619 043d
00000160: 82cc 033d 5777 bbbc cd18 493d 48d9 b5bc
00000170: 4724 383c 4d12 dfbd 0d24 38bd 7238 a63d
00000180: 28ef 703d 4016 b5bd d1eb 3ebd 6678 b1bd
00000190: 4c14 533d 34fb 40bd bca3 16bd ef03 84bd
000001a0: 6c6b 793c 5eca 83bd 2b88 9cbd e0df 1a39
000001b0: 11fa 4dbd c8f7 023d 1cfd 83bc 9060 45bd
000001c0: 2740 9b3d 89a7 02bd 33f1 813b 0d65 43bd
000001d0: 844a e13c 8ee3 053b 66eb 27bd d74a 5cbc
000001e0: 5c72 ce3c a296 fc3c e46d 35bd 1e8c 3abd
000001f0: 5712 0d3c f0c7 0f3d 4a40 8ebd a04c a2bc

weight f4 [128, 128]
0.048658922 -0.010424009 -0.020188916 -0.05147556 -0.038693022 -0.061736815 0.044027712 0.080460794
0.00934059 -0.068968415 -0.04565737 -0.026105419 -0.02514665 -0.014679254 -0.00057571416 -0.016324762
-0.08351043 0.033717647 -0.034351896 0.05365421 0.05377437 -0.09999793 -0.020813145 -0.07782174
0.10025276 -0.101384334 -0.026431924 -0.015860075 -0.10932311 -0.006009554 -0.08761666 -0.015538526
-0.02858867 -0.03786569 0.0626185 -0.07521718 0.04022023 0.05928745 -0.047462817 0.038330738
0.007173052 0.049663547 -0.045591764 -0.053775966 0.010761022 -0.08504596 -0.038345423 0.028901996
-0.007925986 0.026683211 -0.069679305 -0.023139024 0.06887339 0.049740996 -0.0828165 0.020124756
0.008081526 0.07364616 -0.07440791 0.06417936 -0.09210747 0.0045084483 -0.063654706 0.031622276
-0.057275813 0.013287361 0.08546345 -0.048169743 0.015501982 -0.0036532148 0.008677911 0.058616996
0.047101576 0.03421123 0.04162016 -0.039784785 0.009767496 -0.10578931 -0.0041400096 -0.03483663
-0.1082913 0.02253665 -0.09309168 0.032579325 -0.10745915 -0.013798339 -0.05750207 0.05405612
0.028488394 -0.03621649 0.0064702756 -0.02737566 0.07925826 0.07034323 -0.07184943 0.081701726
0.016634742 -0.015828544 -0.0022902808 -0.010741621 -0.043959863 0.02140856 -2.3586776e-05 0.042069424
0.03947727 -0.057932366 0.0031370905 -0.012260627 0.012837916 0.053036973 0.0055105723 0.04182835
-0.11229734 0.07668103 0.08224426 -0.092193335 -0.015577135 0.08487754 -0.09475231 -0.007347589
0.052532077 -0.04287891 0.09051349 0.06919589 0.015792962 -0.035653528 -0.12098591 0.007779714
0.08013388 -0.10530125 0.06986097 0.00182412 7.30714e-05 -0.09515629 0.0054728235 -0.009589975
0.018594237 -0.02040914 -0.05295891 -0.035362586 0.06423236 0.13061455 0.024866385 0.02356589
0.09552982 -0.11817722 -0.029161466 0.09451958 -0.042291068 -0.12860239 -0.13754517 -0.113775924
0.0060368152 0.025858691 0.06596035 -0.04574402 -0.01471695 -0.0123836985 0.02211809 0.018598914
0.11998739 0.06354935 -0.013668855 0.10605329 0.025821 0.025877487 -0.037638515 -0.0804399
-0.045257863 0.0671395 -0.000984692 -0.021334909 -0.03454998 0.0350819 0.0358485 -0.048095085
-0.029399034 0.026156234 -0.011296138 0.07453974 -0.089043915 0.05655827 -0.023741215 -0.011424309
0.031133331 -0.10314305 -0.07673776 0.08196794 -0.09358958 0.14040136 -0.019700928 -0.028437924
0.018931586 0.053525355 -0.0020278797 -0.024347076 -0.080407955 0.098400354 0.044016585 -0.034468364
-0.037860263 -0.013200126 0.029429728 -0.056918606 0.07553348 -0.11661523 -0.0026516053 -0.07046107
-0.026956787 0.004646301 -0.09816707 0.075422175 -0.015707444 -0.081920244 -0.028604157 -0.056385666
-0.07539128 -0.0018308613 0.01951989 0.03724754 0.043938942 0.08496751 -0.02178981 0.06677382
0.06521132 0.1248806 0.13253611 -0.059673667 -0.023239342 0.032288108 0.11425876 -0.083646886
0.02243468 -0.011470937 -0.034212794 -0.08741888 0.03627576 -0.004634467 0.041974895 -0.018437514
-0.10661921 0.044494405 0.03937849 -0.088041775 -0.003923983 0.032619063 -0.09238958 -0.04471162
0.0018757101 -0.029241372 0.022614706 0.046278715 -0.061262142 -0.110589564 -0.10413264 0.117502
00000000: 944e 473d 76c9 2abc 3a63 a5bc 09d8 52bd
00000010: 937c 1ebd bedf 7cbd 6756 343d a1c8 a43d
00000020: 4609 193c 503f 8dbd 3903 3bbd 08db d5bc
00000030: 5900 cebc 4181 70bc 86eb 16ba 82bb 85bc
00000040: 8407 abbd 841b 0a3d 93b4 0cbd 84c4 5b3d
00000050: 8442 5c3d b7cb ccbd 5480 aabc 0161 9fbd
00000060: 5251 cd3d 97a2 cfbd c387 d8bc fdec 81bc
00000070: cbe4 dfbd cbeb c4bb 5d70 b3bd 4d95 7ebc
00000080: c932 eabc 0e19 1bbd 213e 803d 770b 9abd
00000090: f8bd 243d 66d7 723d 5f68 42bd b100 1d3d
000000a0: ec0b eb3b 016c 4b3d 6ebe 3abd 3044 5cbd
000000b0: ff4e 303c 942c aebd 1710 1dbd e1c3 ec3c
000000c0: ffdb 01bc c096 da3c 06b4 8ebd 0d8e bdbc
000000d0: 7e0d 8d3d 37bd 4b3d b29b a9bd acdc a43c
000000e0: 6068 043c ccd3 963d 2d63 98bd 7870 833d
000000f0: d7a2 bcbd 9bbb 933b 665d 82bd 5c86 013d
00000100: 0b9a 6abd 3bb3 593c 7607 af3d a34d 45bd
00000110: 06fc 7d3c c66a 6fbb cc2d 0e3c 6018 703d
00000120: 95ed 403d 1321 0c3d e779 2a3d 5ff5 22bd
00000130: d907 203c 11a8 d8bd eba8 87bb dbb0 0ebd
00000140: d4c7 ddbd c89e b83c daa6 bebd e671 053d
00000150: 8b13 dcbd 6e12 62bc 4a87 6bbd f369 5d3d
00000160: 7e60 e93c be57 14bd 9b04 d43b ec42 e0bc
00000170: 2852 a23d 1d10 903d cb25 93bd 3c53 a73d
00000180: 9545 883c ddaa 81bc 8918 16bb a0fd 2fbc
00000190: 420f 34bd 0161 af3c 37dc c5b7 fd50 2c3d
000001a0: ebb2 213d 7d4a 6dbd a597 4d3b cce0 48bc
000001b0: 1f56 523c 4c3d 593d 0892 b43b 3454 2b3d
000001c0: 26fc e5bd f20a 9d3d ae6f a83d dccf bcbd
000001d0: 3d37 7fbc 47d4 ad3d 800d c2bd 0bc4 f0bb
000001e0: e02b 573d cca1 2fbd 235f b93d 93b6 8d3d
000001f0: 3e60 813c 6f09 12bd 76c7 f7bd f9ec fe3b
00000200: 3b1d a43d 2fa8 d7bd 4513 8f3d 4f17 ef3a
00000210: e93d 9938 4de1 c2bd 5f55 b33b 451f 1dbc
00000220: f152 983c 1231 a7bc 71eb 58bd 5cd8 10bd
00000230: 418c 833d d2bf 053e 97b4 cb3c 410d c13c
00000240: 23a5 c33d e606 f2bd 07e4 eebc 7b93 c13d
00000250: 6639 2dbd 58b0 03be a4d8 0cbe 5a03 e9bd
00000260: 7ad0 c53b 9bd5 d33c 3816 873d 155e 3bbd
00000270: 5d1f 71bc ffe4 4abc ff30 b53c c05c 983c
00000280: f3bb f53d 2926 823d 55f3 5fbc 7832 d93d
00000290: 9086 d33c 06fd d33c d82a 1abd adbd a4bd
000002a0: 4f60 39bd 6f80 893d c810 81ba 8cc6 aebc
000002b0: 4884 0dbd 0ab2 0f3d e0d5 123d 5aff 44bd
000002c0: 3ed6 f0bc 9945 d63c 7013 39bc 4ba8 983d
000002d0: a85c b6bd a5a9 673d f07c c2bc 062d 3bbc
000002e0: 540b ff3c aa3c d3bd b028 9dbd cfde a73d
000002f0: e5ab bfbd 60c5 0f3e d763 a1bc a6f6 e8bc
00000300: 6a16 9b3c 673d 5b3d 2de6 04bb 8573 c7bc
00000310: edac a4bd 2086 c93d bc4a 343d b32e 0dbd
00000320: 5d13 1bbd 5745 58bc 9d16 f13c 7c23 69bd
00000330: 4cb1 9a3d f7d3 eebd 8ec6 2dbb e54d 90bd
00000340: 7bd4 dcbc ff3f 983b d10b c9bd f176 9a3d
00000350: e6ac 80bc cdc5 a7bd 4453 eabc a8f4 66bd
00000360: be66 9abd 83f9 efba 2de8 9f3c e090 183d
00000370: 52f9 333d 7203 ae3d 8b80 b2bc b6c0 883d
00000380: 838d 853d 66c1 ff3d 8cb7 073e 606c 74bd
00000390: 6f60 bebc 8940 043d 7f00 ea3d 0f4f abbd
000003a0: efc8 b73c 99f0 3bbc b722 0cbd ab08 b3bd
000003b0: e495 143d badc 97bb deed 2b3d 450a 97bc
000003c0: 2c5b dabd c43f 363d 574b 213d 3f4f b4bd
000003d0: c194 80bb 919b 053d c036 bdbd 8823 37bd
000003e0: 63da f53a 9a8b efbc 7a42 b93c c08e 3d3d
000003f0: 03ee 7abd c87c e2bd 7e43 d5bd e3a4 f03d

bias f4 [128]
0.072224244 -0.0147508625 0.022179266 -0.01662611 -0.079233915 0.06569934 0.060828276 0.06409617
-0.043554816 -0.052947458 -0.07364321 0.040490665 -0.10057993 0.07443068 -0.07781612 -0.09219252
-0.028863791 -0.0011993166 -0.07780766 -0.088970535 -0.08261586 0.018960634 0.021491203 -0.0724416
0.039274566 0.041519582 0.011792243 -0.017889906 -0.03737278 0.044524528 -0.039431684 0.03174731
-0.10006381 0.02305444 -0.027362457 0.007811985 -0.10439923 -0.10580174 -0.03993671 -0.09826779
-0.0024765055 0.034167163 -0.09057592 0.0101756165 0.08520067 -0.06094457 -0.05641852 -0.054682646
-0.06384714 -0.07211078 0.0008121065 -0.068271406 0.03489769 0.012133897 -0.036910884 0.025620129
-0.012208953 -0.007547107 0.013201607 -0.03636758 -0.025678677 0.052843273 0.059574977 -0.07676432
0.062023327 0.074045844 0.082071684 0.03730131 0.055939138 -0.07436029 -0.03855822 0.05751609
0.01846217 0.071708724 0.035745565 0.07711745 0.08146657 0.07006881 0.07432295 0.041213922
-0.02498586 -0.042926617 -0.093367256 -0.04248888 -0.04755388 0.0029732557 0.037039522 -0.103528924
0.01999962 0.039605882 0.07145448 0.06422967 -0.022017159 -0.040941175 -0.026791034 -0.07061028
-0.048872523 -0.08255202 -0.018182816 -0.05066858 -0.000101069425 -0.027131815 0.053328935 -0.044733662
0.080084205 0.06551985 0.03944687 -0.034752246 -0.058942325 0.052122332 -0.046894968 0.049434207
-0.021936277 -0.08367894 0.040555555 0.047611065 0.023392241 0.018112652 -0.020422839 0.078508146
-0.08842497 -0.00020226986 0.009516816 0.018091043 -0.019231332 0.05480935 -0.015236605 0.003260562
00000000: 4eea 933d 9aad 71bc 4bb1 b53c 7b33 88bc
00000010: 6445 a2bd 608d 863d 1227 793d da44 833d
00000020: 8966 32bd 6fdf 58bd 40d2 96bd 8ad9 253d
00000030: dafc cdbd 1d6f 983d 0f5e 9fbd 6fcf bcbd
00000040: c273 ecbc 6332 9dba 9f59 9fbd 2f36 b6bd
00000050: 8132 a9bd 5553 9b3c 520e b03c 435c 94bd
00000060: 5ede 203d 7010 2a3d 4134 413c da8d 92bc
00000070: 3314 19bd 5a5f 363d 1e83 21bd 7809 023d
00000080: 41ee ccbd aadc bc3c 3b27 e0bc aefb ff3b
00000090: 43cf d5bd 95ae d8bd ad94 23bd a040 c9bd
000000a0: de4c 22bb def2 0b3d de7f b9bd a1b7 263c
000000b0: b07d ae3d 03a1 79bd 1b17 67bd e9fa 5fbd
000000c0: 4ac2 82bd d1ae 93bd 8be3 543a e1d1 8bbd
000000d0: e1f0 0e3d 41cd 463c de2f 17bd 4ee1 d13c
000000e0: 0f08 48bc b94d f7bb 8e4b 583c 2cf6 14bd
000000f0: 175c d2bc 3072 583d e404 743d 9d36 9dbd
00000100: 2c0c 7e3d 59a5 973d 3315 a83d 42c9 183d
00000110: 7020 653d 354a 98bd 39ef 1dbd fe95 6b3d
00000120: fa3d 973c 06dc 923d f169 123d c1ef 9d3d
00000130: f2d7 a63d 3c80 8f3d a136 983d eecf 283d
00000140: 25af ccbc d2d3 2fbd 5537 bfbd d208 2ebd
00000150: dbc7 42bd f4da 423b c1b6 173d f906 d4bd
00000160: 3ed6 a33c c739 223d ba56 923d d88a 833d
00000170: 545d b4bc efb1 27bd df78 dbbc 1f9c 90bd
00000180: 8e2e 48bd 0911 a9bd 21f4 94bc db89 4fbd
00000190: 3cf5 d3b8 8a43 debc 716f 5a3d a53a 37bd
000001a0: 3003 a43d 452f 863d 0b93 213d 5f58 0ebd
000001b0: 826d 71bd 3a7e 553d f014 40bd 867b 4a3d
000001c0: b5b3 b3bc dd5f abbd 951d 263d d203 433d
000001d0: 16a1 bf3c fc60 943c cc4d a7bc e1c8 a03d
000001e0: 2718 b5bd 6718 54b9 6bec 1b3c ab33 943c
000001f0: 078b 9dbc c57f 603d f4a2 79bc 27af 553b
