results/model/neural_591.model (torch, 686563 bytes, 21 tensors)

weight_ih f4 [384, 5]
000000 c9 cc bb be cb de 18 3e 37 8e 0f bd 84 8e 80 bc
       -0.36679676 0.14928739 -0.035047736 -0.015692957
000010 fb 4d 58 bd 82 13 27 bd b3 60 8d bd 05 6e 7b bc
       -0.052808743 -0.04079009 -0.069032095 -0.015346055
000020 52 f4 11 be 64 05 76 3d 77 29 5d 3d 54 11 22 3d
       -0.14253357 0.060063735 0.053994622 0.039567307
000030 aa d9 85 3d 7b c0 71 3d c3 44 08 bd bf 08 12 3b
       0.06535657 0.059021454 -0.0332687 0.0022283045
000040 5a 3f 27 3b 2d bc 32 3d 3f d2 0d bd 9e 6a ed 3d
       0.0025519938 0.04363649 -0.034624334 0.11592601
000050 04 65 f2 bd 45 82 80 bd 99 06 c8 bd 72 38 3d 3d
       -0.118356735 -0.06274847 -0.097668834 0.04619641
000060 c5 4e 3c bd 14 31 47 bc 09 3b 25 be dc 33 96 3d
       -0.045973558 -0.012157697 -0.16135801 0.0733411
000070 d8 49 5a 3d 67 15 c6 bd 3d 42 99 3d f3 32 fd 3c
       0.05329308 -0.09672051 0.07483337 0.030908084
000080 77 1a 89 3d f7 8c 11 3e d0 24 77 3d e3 ef d3 bc
       0.06694501 0.1421393 0.06033784 -0.025871223
000090 06 eb 8e bd 6d 4f 5e 3d ed 2b 0c bd 67 00 98 bd
       -0.06978421 0.054274965 -0.03422158 -0.07421952
0000a0 d1 c5 c2 3d b5 10 bc 3c 16 de f3 bc 48 8a 1c 3d
       0.09510387 0.022957185 -0.029768985 0.038217813
0000b0 65 30 ea bd 93 58 30 be 55 84 da bc b9 4d 16 3d
       -0.11435012 -0.17221288 -0.026674429 0.036695216
0000c0 8d 96 75 bd d2 71 7a 3c ea c3 1e 3d 34 3f 41 3e
       -0.05995803 0.015285926 0.038761057 0.18871766
0000d0 c1 8e f3 bc 53 53 92 bc 8c 00 68 3d 86 8d 5a 3d
       -0.029731156 -0.017861998 0.056641147 0.053357624
0000e0 28 54 85 3d 62 1d 94 3d 5b f9 9f 3d 70 25 81 3d
       0.06510192 0.07232167 0.07811233 0.06305969
0000f0 f1 62 76 3d 02 65 b1 3c ea 6c 94 bd 25 bd 08 bd
       0.06015295 0.02165461 -0.07247336 -0.033383507
000100 69 9e 2a bc 11 4f 5a 3d 37 47 fb bd 53 3a 1a 3d
       -0.0104137445 0.05329806 -0.122694425 0.03765328
000110 33 08 99 3d c1 1f f8 3d 2d bb 8b be a0 ba 0b be
       0.07472267 0.121154316 -0.2729124 -0.1364541
000120 6c 38 8b bd 7f 65 45 3d 78 74 b0 bd 96 db ec bd
       -0.06797871 0.048192497 -0.08615965 -0.1156532
000130 3d ec 44 bd a0 23 20 bc 28 11 23 3d 1e c9 8e 3b
       -0.048076857 -0.009774119 0.039811283 0.004357471
000140 9c 05 22 be f2 47 eb bd 21 2e 45 3d e9 7d 8b bd
       -0.15822452 -0.11488332 0.048139695 -0.06811125
000150 6c 78 24 be c1 f0 66 bd 1d b6 dd bd b3 0b b4 3d
       -0.16061562 -0.056381945 -0.10825751 0.08791294
000160 2c 51 65 3d 33 ef cb 3d 1c 69 b4 3d 85 b8 dc bd
       0.055985615 0.09957733 0.088091105 -0.10777382
000170 ac 5d aa bd e8 26 09 bc 89 ff 01 3d a8 fb 4d 3d
       -0.08318648 -0.008371092 0.031737838 0.050288826
000180 5c 5d 46 3c de e5 d6 bd 30 06 5b bd 21 f9 fb 3d
       0.01210722 -0.104930624 -0.053472698 0.12303377
000190 df 60 97 bd d2 9c 81 bd d0 60 b3 bd 6d d0 b5 3d
       -0.073915236 -0.06328739 -0.087587 0.08877645
0001a0 65 5e b5 3d 3a c8 8a 3d 89 f7 4e bc 7f 61 ad bd
       0.08855895 0.067764714 -0.012632259 -0.084658615
0001b0 9b 41 99 bc fa 12 a6 bc 57 f8 de 3d 2c 4c 5d bc
       -0.018708041 -0.02027272 0.10887211 -0.01350693
0001c0 80 1e 0c 3e ff 9c c1 3d 83 f0 12 3d ba c4 eb bd
       0.1368351 0.09453773 0.0358739 -0.11512132
0001d0 f4 a8 16 3d 21 d1 71 3a 15 4c e2 bc 31 2b 42 3d
       0.03678222 0.0009224583 -0.02762417 0.04740447
0001e0 01 69 e7 3d da 3a f7 3c ae 13 11 bd 63 41 e1 bc
       0.11299325 0.03017943 -0.03541916 -0.027497
0001f0 4b 8b 6a bd 7e 3a 41 bd b8 0f 5d bd fc 92 0c 3c
       -0.057261746 -0.047174923 -0.05397007 0.008579966
000200 d5 96 cd bd 5d c4 03 3e ed d7 6f be ad 69 ca bd
       -0.100385346 0.12867875 -0.23422213 -0.09883437
000210 a4 79 8e 3c a5 e1 13 bd df 14 14 be 43 4b b2 bd
       0.017391987 -0.036103863 -0.14461087 -0.08705761
000220 ba 7d 20 3e ae c8 e8 3b 42 7f d4 3d 6b e8 93 bd
       0.15672961 0.007104001 0.10375835 -0.072220646
000230 af 7e a3 3d bd c8 33 3d fa d8 8b 3d 1e 5e 11 bd
       0.07983147 0.04389261 0.06828494 -0.035490148
000240 63 25 ca 3d e5 77 ee bc 7e a9 93 bd 6c 9c d7 bd
       0.09870412 -0.029109905 -0.072100624 -0.10527882
000250 a3 63 31 3d 56 4f f3 bd f2 99 e9 3d ba c9 8d 3c
       0.04330791 -0.118803665 0.11406316 0.017308105
000260 27 31 ac bd c9 aa 30 3d cc d4 35 bd 69 bc 8b 3d
       -0.084078126 0.043131623 -0.044392392 0.06823046
000270 8b 19 e6 bd fe 18 73 bc db d5 88 3d 38 79 30 be
       -0.11235341 -0.014837502 0.06681415 -0.17233741
000280 26 c7 fe bb b4 a7 a0 bd 28 bb 63 bc 34 40 b2 3d
       -0.007775205 -0.07844487 -0.013899602 0.08703652
000290 e3 8c 1f be 12 dd 5f bc aa 18 ac 3d 58 30 bf 3c
       -0.15581088 -0.013663547 0.08403142 0.023338482
0002a0 4b e9 a3 3d c3 a2 9e bc 4b 00 f0 3d f5 72 d1 3d
       0.080034815 -0.01936472 0.11718806 0.102270044
0002b0 48 a4 44 bd d6 4e a1 3d 7e 18 00 3d f6 1f 12 bd
       -0.048008233 0.07876365 0.031273358 -0.03567501
0002c0 2c 9a 89 3d bf ae ad 3c 90 48 ab bd 9e 6b ae bd
       0.06718859 0.02120149 -0.083634496 -0.0851662
0002d0 e9 93 88 be 80 a2 c2 bd 17 2e f4 3c 23 31 9a bd
       -0.26675346 -0.09503651 0.029807134 -0.07528903
0002e0 e3 e4 44 bc 7e e1 3c 3c 4e cd e2 ba 2b c8 15 bd
       -0.0120174615 0.011528371 -0.0017303617 -0.03656785
0002f0 43 ed 42 3d 24 c5 c7 bb d2 4d 80 3d fb 85 dd 3d
       0.04758955 -0.006096499 0.06264843 0.1081657
000300 70 cb 8e 3c fc 7b 83 bd 0e f1 a4 3d 8a 57 98 bd
       0.017430991 -0.064201325 0.0805379 -0.07438572
000310 f8 4f ad bd 08 27 19 bd 9c 17 c1 bc 16 e7 34 be
       -0.084625185 -0.03739074 -0.023570828 -0.17666277
000320 0e 2e c9 bb 90 5b 59 be 05 17 1a 3d bb 96 83 3b
       -0.0061395233 -0.21226335 0.03761961 0.004015771
000330 8a 90 d9 3c 3d a5 c8 3d 4b a6 5b bc 6f 8d c7 3d
       0.02655818 0.09797142 -0.013406347 0.09743773
000340 cd 45 b2 3d 7c 9e 2a 3d bc 31 ec 3d 70 c0 09 3d
       0.0870472 0.04165505 0.115329236 0.03363079
000350 b8 34 46 3d 3a a2 99 ba c6 d2 dc bd d9 15 6c bb
       0.04839012 -0.0011721321 -0.10782389 -0.0036023764
000360 63 31 aa 3d 55 0b 99 bd 04 80 b4 3d 8c 8a 0e 3d
       0.08310201 -0.074728645 0.088134795 0.034800097
000370 82 aa 0e 3d af e8 8b bd 2c a3 c1 bd 71 60 18 bd
       0.034830578 -0.0683149 -0.09454951 -0.03720135
000380 b4 aa 4f be f2 4d dc bd c7 e2 2d be fa 41 a1 3d
       -0.20279962 -0.107570544 -0.1698104 0.07873912
000390 df 2f 74 3d 0c 23 fb bd e3 10 2a 3d 0f 88 c7 bd
       0.059615966 -0.12262544 0.04152001 -0.09742748
0003a0 cb dd ba bc 14 91 53 3d a1 81 ac 3d ae b0 b5 3d
       -0.022810837 0.05165203 0.08423162 0.088715896
0003b0 c9 e2 a2 bd 1d 46 22 bc 28 37 bc bb 14 59 00 be
       -0.07953412 -0.009904412 -0.00574388 -0.1253398
0003c0 f8 9e 1d 3c a3 49 0e 3d 7a 7c fd bd 29 a9 a0 3d
       0.009620421 0.034738194 -0.12377258 0.07844765
0003d0 e5 4f 04 3e 68 32 7a 3d a7 b1 f2 bd 8c 2b df bc
       0.12921102 0.061083227 -0.11850291 -0.027242444
0003e0 35 da 85 3d 3b 73 9e 3d 97 9c ab 3c 4e e3 5d 3c
       0.0653576 0.07736822 0.020948691 0.013542963
0003f0 e7 72 d2 3d ca c8 80 3c 68 5a 95 3d 4f ee bf bd
       0.10275822 0.015720744 0.07292634 -0.09371626

weight_hh f4 [384, 128]
000000 c1 33 1d be c3 29 93 3c 4a 8f 88 bc 26 b6 1e 3c
       -0.15351774 0.01796425 -0.016669888 0.009686982
000010 1e d5 13 3b 85 7d e5 bc a6 08 b2 3c 37 eb ff 3b
       0.0022557448 -0.028013954 0.02173264 0.007810022
000020 69 87 09 3d ce 47 d5 3d 49 08 24 3d 82 c1 33 3d
       0.033576403 0.10414086 0.040046964 0.043885715
000030 8f 16 a9 3d 18 64 b1 3c f7 c5 a2 3e b7 c5 50 3d
       0.08256256 0.021654174 0.3179166 0.050969806
000040 07 69 b2 3b 8d 4a e8 bc 9b f5 e7 3c c1 ee 90 3d
       0.005444649 -0.028355861 0.028315356 0.07076789
000050 f7 57 22 3d 2f 63 20 bd 25 c8 97 bc 8f f2 a6 3c
       0.03963467 -0.03915709 -0.018528054 0.020379333
000060 e6 2a 43 3b b8 f3 2b bd ee 7e 88 3d 1d d1 42 3e
       0.0029780208 -0.041980475 0.06664835 0.19025083
000070 fc 21 66 bc 9b 4a 57 3c d0 e7 57 bd 2c 41 aa bd
       -0.014046188 0.013140346 -0.052711308 -0.08313212
000080 52 25 0c 3e d3 08 a0 3d ff f7 1f 3c 42 5a b0 bc
       0.13686112 0.07814183 0.009763717 -0.021527413
000090 79 59 f2 3d ae 4e 43 bd b6 39 48 3d 22 bd 65 bd
       0.11833472 -0.047682457 0.048883162 -0.056088574
0000a0 a9 95 a2 bc 7a 29 74 3c 54 4b 06 3c 7c e6 86 3d
       -0.019846754 0.014902467 0.008196671 0.0658693
0000b0 c7 21 f5 3d 2f 9e 27 3d dd 05 89 3c df 7b 10 3e
       0.11969333 0.04092234 0.016726429 0.14109753
0000c0 25 6c 12 3b 2d 8c 82 3d 7e 57 26 3d c2 07 8d bd
       0.0022342291 0.06374393 0.040610783 -0.06886245
0000d0 15 c5 47 3d 66 e8 9c 3d fe ff 50 bd 3b 55 97 bd
       0.048771936 0.07661514 -0.051025383 -0.07389303
0000e0 5d 5f ad bd 1f b1 65 3d 0b 8f 56 3e 97 b6 58 bd
       -0.08465455 0.05607712 0.20953004 -0.052908506
0000f0 87 9d 9c bc c7 6f b7 3d 1d 13 13 3d 80 67 97 3c
       -0.019118084 0.08956867 0.0359069 0.01848197
000100 46 1c de bc 70 80 94 3d 7a 12 35 3e 61 73 89 3b
       -0.027113091 0.0725106 0.1768283 0.0041946624
000110 f3 4e 8e 3d c2 4f d2 3d a3 af be 3d 6b fd 91 3c
       0.06948652 0.10269119 0.09310844 0.017821034
000120 fe f0 88 3b e8 2b ae 3d 8a d1 76 bd 97 31 bf be
       0.004179119 0.08504468 -0.060258426 -0.37342522
000130 0c 08 e6 bc 6d 65 a8 3d f8 8e bf 3c e8 54 c7 3d
       -0.028080009 0.082224704 0.023383602 0.097329915
000140 a3 ca 7a bd 17 c5 e5 3c d0 da d9 bd 24 8f e6 3d
       -0.061228406 0.028048081 -0.10637438 0.11257771
000150 4d 5c df 3c 6e 37 8d bc d8 04 5f bd 23 3f 81 3d
       0.027265692 -0.017238345 -0.05444798 0.063108705
000160 22 ca e2 3c c3 08 9d 3d c5 6f f9 3b 7c 97 99 bd
       0.027684275 0.07667687 0.007612201 -0.074995965
000170 16 ec ad 3d ca 17 7a 3d ae 14 4e 3d 53 5e af bd
       0.084922954 0.061057843 0.05031269 -0.08562913
000180 b4 03 c1 bd b3 3e 9f 3d 11 fb 96 3a a3 0b ca bc
       -0.094245344 0.07775631 0.0011518915 -0.024663752
000190 59 9f 06 bd e6 2b 93 bd 9d 63 bd 3c 49 42 d5 3c
       -0.03286681 -0.07186107 0.023118788 0.026032584
0001a0 50 31 9a 3d a2 49 94 3d db 68 3f bd 05 63 bf 3d
       0.07528937 0.07240607 -0.046730857 0.09345058
0001b0 1f 9d 3a 3c f5 2c a8 3d 4e 4d ef bd 5c 32 e0 bc
       0.01139 0.082117 -0.116846666 -0.027367763
0001c0 bb 1d 50 bd f2 78 75 3c a4 26 72 bd 14 3b 55 bd
       -0.050809603 0.014982449 -0.05911888 -0.052058294
0001d0 73 55 19 bc 05 0c b7 3d 17 e8 a1 bd 80 2f 94 3d
       -0.009358752 0.089378394 -0.07905596 0.072356224
0001e0 37 39 34 bc 12 8d 81 3e ae 0a bd bb ee a2 0e 3d
       -0.010999969 0.2530294 -0.0057690954 0.03482335
0001f0 95 40 af bd 50 06 3d 3e 16 d7 f5 3c 62 16 85 bc
       -0.0855724 0.1845944 0.030009788 -0.016246025
000200 74 57 49 bd 34 90 82 bd ba 59 c6 3d 27 6c b1 3c
       -0.049155667 -0.06375161 0.09685083 0.021658016
000210 8b 56 12 3d 4f 8d 54 3d 0e 8c d5 3c 67 44 a9 3d
       0.035727065 0.051892575 0.02606776 0.08265
000220 27 4e fe bb d1 b6 2c 3d d3 b0 a3 bd e1 cb 40 3d
       -0.0077607813 0.042166535 -0.07992711 0.047069434
000230 da ee 77 bd 3b 34 ae 3c 3f 2c 7a 3d bd 5d e9 bd
       -0.06053052 0.02126514 0.061077353 -0.11394832
000240 2f f7 d3 bd f3 c0 df 3c 8b 85 60 bb ad 2c 0f bd
       -0.10349881 0.027313685 -0.0034259285 -0.034954716
000250 31 59 19 3d 44 27 dd 3d 6b 9b 38 bc 1d 46 a5 bb
       0.037438575 0.10798505 -0.011267523 -0.0050437585
000260 c5 4e db 3d 79 05 bd bd 7b 08 96 3d 97 1f c2 bd
       0.107083835 -0.092295595 0.07325836 -0.094786815
000270 c9 3c 53 bd fc 2a dc bd c6 93 3e 3d 09 c7 b4 bd
       -0.05157164 -0.10750386 0.046527646 -0.088270254
000280 ca 5a 26 3d 91 72 05 3e ee 51 14 be 32 61 e4 3c
       0.040613927 0.13031985 -0.14484379 0.027878378
000290 00 1c 1d 3e 93 e7 79 bd a3 bb 07 3d 0f f4 8d bd
       0.15342712 -0.061011862 0.03313793 -0.06931316
0002a0 3c cb 25 bb 61 e3 02 bb 14 ef d8 bd 8b 41 16 3d
       -0.002529814 -0.0019971954 -0.105924755 0.0366836
0002b0 34 16 1f 3d 62 e5 ae 3d a5 1e 49 3d d4 22 0a be
       0.038839534 0.08539845 0.04910149 -0.13489848
0002c0 24 fc c8 3d ca 99 d7 bd 05 77 0a bc e4 82 ec ba
       0.09813717 -0.1052738 -0.008451228 -0.001804438
0002d0 d4 23 f0 bd 9f 6b e6 bd 72 33 7a 3b 7d 46 8e bd
       -0.11725584 -0.11250996 0.0038177636 -0.06947038
0002e0 50 c5 2a bc 00 d7 8e 3d d6 a2 4d bd f9 c5 fe 3c
       -0.0104230195 0.06974602 -0.05020412 0.03110026
0002f0 5d 41 de 3d 6d ee 49 3c 92 57 a7 3d 2d 0c 98 3d
       0.10852311 0.012324912 0.081709996 0.07424197
000300 80 79 a3 bd 00 38 c0 bb 0f d4 d3 bd ea 98 21 3d
       -0.07982159 -0.0058660507 -0.10343181 0.03945247
000310 0d d7 c3 3d 1c 8d 7d bc 16 54 72 bd dd f0 a6 3d
       0.09562502 -0.015475538 -0.05916222 0.0815141
000320 9f f9 be 3d e9 cf 17 be f3 a6 20 bd 2b 1b 12 3d
       0.09324955 -0.14825405 -0.039221715 0.03567044
000330 57 b4 54 3d bc c1 2d bd 95 43 83 bd a9 77 ad bd
       0.051929798 -0.042421088 -0.064093746 -0.08470089
000340 10 8b c2 bd 5f a9 19 39 50 94 d3 bd b0 c6 d4 3d
       -0.0949918 0.00014654313 -0.10331023 0.10389459
000350 01 35 9a bd 3e 17 d5 3d da 0e af bc 47 6d 08 3b
       -0.07529641 0.10404824 -0.021369386 0.0020817087
000360 f8 aa 0e 3e 80 9d 3b bd 51 b5 77 3d 4a 2e f4 bd
       0.13932407 -0.0458045 0.06047565 -0.119228914
000370 36 49 94 bd 43 69 b0 bd 00 8c 04 bd ef 7e ce bd
       -0.072405264 -0.08613827 -0.032360077 -0.100828044
000380 5f 7b a1 bd 5b 57 da 3b 64 a0 ec bc 83 c9 c7 3d
       -0.07884859 0.0066632456 -0.028885074 0.09755232
000390 43 4d 05 3e 0f be 07 3d 86 3b dc 3b be 97 a9 bd
       0.13017754 0.03314024 0.006720963 -0.08280896
0003a0 a1 a1 17 bb bb ae 57 bc 1b 63 a2 3d 6d 2b 10 be
       -0.002313711 -0.013164218 0.07929059 -0.14079066
0003b0 a1 52 11 3d e6 e5 d6 bd 20 d1 93 3d 18 66 01 be
       0.03547919 -0.104930684 0.07217622 -0.12636602
0003c0 cb dd 56 ba c3 51 31 3c f1 c9 2f bd c4 69 e9 3a
       -0.0008196502 0.010822716 -0.042917196 0.001780801
0003d0 a2 1b b7 bc 76 2b 94 bd 32 15 da 3d 87 8f 1f bd
       -0.022352044 -0.07234852 0.10648574 -0.038955238
0003e0 f5 7f b1 bc f0 5e df 3d d9 89 8b 3d 5c c8 cb 3b
       -0.02166746 0.1090678 0.06813402 0.006218953
0003f0 fb a2 70 bc 18 19 ad bc 2e 1b 28 3d 1f 12 ca 3c
       -0.014687295 -0.02113013 0.041041546 0.024666844

bias_ih f4 [384]
000000 01 42 8c 3c 7d bf b2 bd 70 89 34 3d f0 7c cf 3b
       0.017121317 -0.0872793 0.044076383 0.0063320324
000010 2f 45 e8 3d 5b 5c 11 3d 57 39 1e 3c ed b9 9d 3d
       0.11341321 0.035488468 0.009657226 0.07701478
000020 fe a2 fc 3c 63 72 7d bd 29 45 b1 3d 1a 8c 7d bc
       0.03083944 -0.061876666 0.086557694 -0.015475297
000030 d0 00 65 bd 53 69 88 3c 55 87 52 bc 5c 71 4f 3d
       -0.055908978 0.016651785 -0.0128496485 0.050645217
000040 5b e4 ff bc f0 f3 3e bd 04 e8 a7 bc d0 77 f1 3c
       -0.031236818 -0.046619356 -0.020496376 0.029476076
000050 28 6f 8b bd ae 26 c6 bd 40 99 55 3d 48 30 b4 bd
       -0.06808311 -0.09675346 0.052148104 -0.087982714
000060 b3 1c 9b ba 77 b9 18 3c e9 1b 9c bc 05 4c f3 3d
       -0.0011834115 0.009321562 -0.019056277 0.11879734
000070 c3 51 89 bd de 58 84 bc 83 ea e4 3c 37 40 85 3c
       -0.06705048 -0.016155656 0.027943855 0.016265972
000080 4a 08 bd bc 2d c2 1c 3d 96 fe b6 3b 02 0f 8c 3b
       -0.023075242 0.038271118 0.005584548 0.00427425
000090 2e 93 0b bd 61 fe 66 3d 0b 4b ff 3b ec f4 46 3d
       -0.03407591 0.05639494 0.0077909282 0.04857342
0000a0 08 d7 7c 3d 51 06 01 3a 66 dc 0f bc 90 98 0e 3d
       0.061728507 0.00049219007 -0.008780574 0.034813464
0000b0 d0 98 54 3d 53 fe 03 3d 9a 86 ce bb a0 7d b2 3c
       0.051903546 0.032224964 -0.006302667 0.021788418
0000c0 ec 54 06 bc f5 58 91 bd e9 42 17 3d 5d 3f 79 3d
       -0.008198958 -0.07097045 0.036929045 0.060851444
0000d0 70 68 31 3d e9 4a a7 3d 7f fd 02 3d 25 e5 ac 3c
       0.04331249 0.08168585 0.031980034 0.021105358
0000e0 38 e6 1b 3d 02 90 26 bd b4 20 ea bb a5 c0 44 3c
       0.03806135 -0.04066468 -0.007145012 0.012008821
0000f0 fc ea 8e 3d 2b bf 93 bc 09 c0 92 bd 7c 1e 14 bd
       0.069784135 -0.018035492 -0.07165534 -0.036161885
000100 3f 4c 0f bd f5 17 91 3d 13 8d df bd e3 90 6f bd
       -0.034984823 0.070846476 -0.1091558 -0.058487784
000110 23 ec 76 bd 85 2f 6b 3c c2 c3 94 bd f0 a9 a7 bd
       -0.06028379 0.014354591 -0.072639 -0.0818671
000120 81 fa 28 3d ad 3c 5f bd c3 ce d9 3c 49 c9 52 bd
       0.041254524 -0.054501224 0.02658785 -0.05146149
000130 8b ff 68 3d 73 45 34 3d b8 12 ce 3c 64 ae a9 bd
       0.05688433 0.044011544 0.02515541 -0.082852155
000140 61 ed b6 bd b3 8f cf 3d 32 f8 b2 3d 8a 45 1f 3b
       -0.08931995 0.1013483 0.08738746 0.0024302923
000150 e6 36 77 ba 20 86 b2 bc f5 e8 05 3e 30 cf a0 bc
       -0.0009430483 -0.021792471 0.13077147 -0.019630045
000160 04 15 59 3d 05 98 c0 bc cd 1a 54 3d 30 b3 cb 3a
       0.052998558 -0.023509989 0.05178337 0.0015541073
000170 56 8a 20 3d 00 d5 21 3d e7 a5 8d 3d f5 7f 82 3c
       0.039194427 0.039509773 0.06916409 0.015930155
000180 04 e5 c1 3c 1b c7 09 bd d6 85 c5 bc bd c9 d0 3c
       0.023668773 -0.033637147 -0.02411167 0.025486821
000190 d9 34 a8 bc 25 63 0b bd a3 ce a3 3d f2 c5 61 3a
       -0.020533012 -0.0340301 0.07998397 0.0008612565
0001a0 d3 61 06 bd fe 3f 19 bd cc eb 9c 3c fb 15 61 3d
       -0.032808136 -0.037414543 0.019155405 0.054952603
0001b0 9f ca 91 3c 0a 93 bd bd 1a b9 5e 3c 58 02 3f bd
       0.017796813 -0.09256561 0.013593936 -0.046633095
0001c0 0f ee 34 bc d9 f0 ea 3d bd 54 f7 3d 34 6f 82 3d
       -0.011043086 0.11471719 0.120767094 0.063688666
0001d0 f5 78 dd bd d1 3c 01 3c 7b 9f 06 bc 93 c9 b7 bc
       -0.10814086 0.007888035 -0.008216734 -0.022434985
0001e0 75 50 3a 3c b3 a8 f7 3b 67 14 aa bd 6c b5 19 3b
       0.0113717215 0.0075579523 -0.08304673 0.0023454083
0001f0 bd b4 c6 bd a0 59 ea bd b6 b5 97 bd 42 7c 78 bd
       -0.09702442 -0.11442876 -0.074077055 -0.060665376
000200 a0 4a 79 bd b6 d4 a8 3d 2c 3c 62 bd 48 95 c9 bd
       -0.060862184 0.082436964 -0.055233166 -0.09842926
000210 70 c8 96 bc 38 15 01 3c 54 64 48 bd af 89 16 3d
       -0.018406123 0.007878594 -0.048923805 0.0367524
000220 73 44 09 39 a4 da b8 ba 3b 4b b6 bc 00 47 2c bc
       0.00013090837 -0.0014103246 -0.02225267 -0.010514975
000230 10 21 b8 bc 6c df 67 bc 92 b9 83 bd 87 10 d7 bb
       -0.022476703 -0.014152389 -0.06431879 -0.0065632495
000240 14 9c 22 bd 39 f1 17 3e 0d a9 e8 3c ba 5b 4b bd
       -0.03969963 0.14838113 0.028400922 -0.049648024
000250 c5 38 f7 bc 90 ae b3 bd dc b8 c4 bc e1 17 5a 3c
       -0.030178437 -0.087735295 -0.02401393 0.013311357
000260 7a ce a1 bd 62 b3 45 3d e1 4f 99 3d e3 7f f1 3c
       -0.079007104 0.048266776 0.07485939 0.029479926
000270 4f 95 e1 bb 62 73 8f 3d 9b 3b fa 3c a3 ea 63 3c
       -0.006884254 0.070044294 0.030546 0.013910922
000280 3d 86 5f bc 5a cc 89 bd a2 82 8b bd 39 43 cb 3c
       -0.013642845 -0.0672843 -0.068120256 0.024812328
000290 19 02 ce bd 19 90 bd bd 1e ec 0e 3e 15 e4 9d 3c
       -0.10058994 -0.09256 0.13957259 0.019273797
0002a0 d8 9c 95 bd 92 05 a2 bc e3 91 61 3d a0 1d d3 bc
       -0.07305306 -0.019778047 0.05507077 -0.025770962
0002b0 86 9c 53 bb 11 25 15 be c1 e9 8d bd b3 5c cf bc
       -0.003228934 -0.14564921 -0.06929351 -0.025312757
0002c0 e9 61 f2 bd 49 2d e9 bd b1 5b 37 3c 3d b0 4f 3d
       -0.11835081 -0.113855906 0.0111912945 0.050705183
0002d0 6c 2b a6 38 90 7e 78 bd 89 1d 09 3d b4 e5 d0 bc
       7.923585e-05 -0.060667574 0.033475433 -0.025500156
0002e0 43 12 4e 3d 44 a7 95 3d 2c 34 55 3d 1f d1 82 bd
       0.050310384 0.07307294 0.052051708 -0.06387543
0002f0 ce da 14 bc e8 f4 95 bd 6c 12 8b bd 55 d8 e0 3b
       -0.00908537 -0.07322103 -0.06790623 0.0068617263
000300 cb cb 43 bd ed af 48 bc 41 af b8 3d e8 be 47 bd
       -0.047801774 -0.012248975 0.09017802 -0.048766047
000310 95 6c eb 3b 95 65 a8 bd 51 56 ff bc 94 06 5a 3d
       0.007184575 -0.082225 -0.031169089 0.05322893
000320 41 d3 5f bd da 0f a3 bd 97 d0 f8 3d 5b 03 19 bd
       -0.054644827 -0.07962008 0.1214916 -0.037356716
000330 9a 9a e6 3b a3 ca 99 3d 90 3a 0c 3d 35 30 dc 3c
       0.007037473 0.07509353 0.034235537 0.026878456
000340 25 82 78 3d 94 6e 99 3c a4 f4 ce 3d d0 f6 63 3d
       0.06067099 0.018729486 0.10105255 0.0556553
000350 a5 37 ce bd e9 bd b5 bd a4 3b 42 3d 57 40 16 bd
       -0.10069207 -0.08874113 0.04742016 -0.036682453
000360 2f 9e d7 3a 45 8f e3 bc cc 7e 0a 3d dd 69 ac 3c
       0.0016450341 -0.027778277 0.03381233 0.021046573
000370 09 f2 a6 3d 74 78 a4 bd 28 04 e6 bc c3 ab 9e bc
       0.08151633 -0.08030787 -0.028078154 -0.019369012
000380 ad 27 66 3c df 7a c5 bd 3c 13 2e bd 30 bf 38 3b
       0.014047545 -0.096425764 -0.042498812 0.0028190129
000390 d3 f4 9f 3c f0 0c da bb 52 07 54 bd 1c c8 69 3d
       0.019525921 -0.0066543743 -0.051764794 0.057075605
0003a0 3b ca 88 3d db fa 0d be d1 d3 30 be 4a 09 0d bc
       0.066791974 -0.13865225 -0.17268302 -0.008608172
0003b0 17 1c 49 bd 16 11 b2 3d ed 42 8d 3d f0 f5 04 be
       -0.049099054 0.08694665 0.06897531 -0.12984443
0003c0 7b d7 88 bc 05 c0 b0 3c bb 13 c2 bd 4e 25 da bd
       -0.016704312 0.021575937 -0.094764195 -0.106516466
0003d0 7a 83 db 3d 9c 12 d6 3c 7c 2f 8b 3d 75 e6 36 bd
       0.107184365 0.02613192 0.06796166 -0.044653375
0003e0 97 e2 41 bc 0c 94 b4 3d 80 8b 6f 3a 2a e4 5c b8
       -0.011833808 0.088173 0.00091379136 -5.266458e-05
0003f0 6f cf 57 3d cc 84 9d 3d c0 31 7b bd 37 82 3a bd
       0.05268806 0.076913446 -0.061326742 -0.04553434

bias_hh f4 [384]
000000 0d 57 98 3c 57 36 07 bd 4b 1b 56 3d a5 6b 3b 3d
       0.018596197 -0.033010807 0.052272122 0.045756955
000010 c3 97 2d 3d 76 65 22 3d f5 1d 6d bc f3 ba 4c 3d
       0.04238106 0.039647542 -0.014472474 0.049982976
000020 37 bd 7d 3d 5d 46 5a bd 39 db 57 bb 13 86 d6 bb
       0.061948027 -0.05328976 -0.0032937063 -0.0065467446
000030 90 b8 9e bd 92 09 ce 3d 30 44 13 3d 7a 6a 0e 3c
       -0.07750046 0.10060419 0.0359537 0.008692378
000040 1c a8 3c 3d dd 6c 74 3b a8 df b4 3d f6 f8 f6 3c
       0.04605876 0.0037296333 0.088317215 0.03014801
000050 08 49 87 3d 8f 52 a7 bd ea f9 f4 3c 17 c6 ea bd
       0.066057265 -0.08170044 0.029904325 -0.11463564
000060 f4 7d 2f bd ee ba 51 3c 66 ae c7 bd 28 57 4d bb
       -0.042844728 0.012800915 -0.09750061 -0.0031332467
000070 2d cc cb 3d c2 ed 19 bd 7f f5 16 3d a8 d9 c2 3c
       0.09951053 -0.03758026 0.036855217 0.023785427
000080 c7 38 e8 3d 57 ef 00 bd 61 75 86 3d 56 d7 fd bd
       0.113389544 -0.031478252 0.06565357 -0.12394588
000090 79 b1 17 bd e3 47 04 3c 43 ad 7b 3d 1e 54 3b bc
       -0.037034485 0.00807378 0.061444532 -0.011433629
0000a0 bd 12 8b 3c 4f 0e ee bc 7a c7 86 bd ec e4 23 bc
       0.016976709 -0.029059557 -0.06581016 -0.01000331
0000b0 e3 4b 0f ba ce 0e 3b 3d 31 37 25 3d 8f 9a 42 3d
       -0.0005466325 0.045668416 0.040335838 0.04751068
0000c0 98 b7 c5 3b 09 6d 74 3c 62 97 6b 3c f7 b2 8d bd
       0.006033849 0.014918574 0.014379354 -0.069189005
0000d0 4f 6f 04 bc 88 4f 8f bd a0 e4 5b 3d 71 d9 cc 3b
       -0.008083179 -0.06997591 0.05368483 0.006251507
0000e0 51 7b 29 3d 87 cd da bc 3b 1d cd 3d 76 62 dd 3c
       0.04137737 -0.026709331 0.10015341 0.027024489
0000f0 78 99 20 3c f7 06 33 3d 98 10 ed 3c 30 65 60 bd
       0.009802215 0.043707814 0.028938577 -0.054784
000100 c3 9b cc bd 03 82 ba bc 23 f9 04 be 3a 08 bb bb
       -0.09990647 -0.022767073 -0.12985663 -0.005707768
000110 90 5a a1 3d d4 cb 83 3d 38 c6 55 bd 65 6c e9 bc
       0.078786016 0.064353615 -0.05219099 -0.02849407
000120 47 85 b3 3b fb f7 9c 3c e1 f4 f1 bd 98 e6 4c bd
       0.0054785344 0.019161215 -0.11814285 -0.0500246
000130 6d 8d 3e 3d 2e c4 63 bd 0f 79 7c 3c b2 8d 89 bc
       0.046521593 -0.055607013 0.015409722 -0.016791198
000140 14 67 b5 bc ed d6 96 3d dd f9 af 3d 32 b2 6c 3d
       -0.022143878 0.073652126 0.085925795 0.057787128
000150 dc 07 bc 3c d5 68 2a bd 46 b1 57 3c 1e a2 0e 3c
       0.022952966 -0.041603882 0.013164824 0.008705644
000160 54 de 31 3d f5 b1 1f bd 5c 1d 12 bd fc 80 01 bd
       0.04342492 -0.038988072 -0.03567253 -0.03161715
000170 77 70 1b 3e 2b d1 a2 3d d9 27 5a 3d 3d be 49 3c
       0.1517962 0.07950052 0.053260658 0.012313423
000180 c5 45 40 bd f9 53 a3 3c 30 de 52 3d 70 f1 2f b9
       -0.046941537 0.019937502 0.051481426 -0.00016779243
000190 14 b1 88 3d 90 cc a8 3c ef 26 5e 3d 01 f3 c3 bd
       0.066744 0.020605356 0.05423635 -0.09567834
0001a0 65 aa 51 3d 30 3e 55 bd f2 f0 67 3c 9c 00 36 bd
       0.05118789 -0.05206126 0.014156567 -0.044434175
0001b0 7a 8a f2 bd f1 b7 5c 3d f0 cd 26 bd 06 a0 2f 3d
       -0.118428186 0.053886358 -0.04072374 0.04287722
0001c0 4f 32 55 bd 80 75 f4 ba ad f9 8b 3c dd 53 92 3d
       -0.05204993 -0.001865074 0.017086828 0.07144902
0001d0 c0 d3 a8 3c 62 0f fb 3c 66 76 51 3d eb 2a 00 3e
       0.020608783 0.030646984 0.051138304 0.12516372
0001e0 e1 b3 b8 bc bd f2 10 be 7c cc 9e bd 40 a2 ba 3b
       -0.02254671 -0.14155097 -0.07753846 0.0056956112
0001f0 bd 75 b2 bd c5 2d 44 3d 48 fa 97 3b 4b a3 18 3a
       -0.08713863 0.04789521 0.00463799 0.00058226724
000200 f4 ce d6 bd 89 17 45 3d c3 74 cb 3d 70 cd 61 bd
       -0.10488692 0.048118148 0.0993438 -0.05512756
000210 b6 63 05 be 5a 73 88 bd 7a bf 14 be 2d e3 85 bc
       -0.13026318 -0.066626266 -0.14526168 -0.016343677
000220 60 03 b7 bc fc 8a 77 3b 9a c2 0c 3d 06 24 4e 3d
       -0.022340477 0.003777205 0.034365274 0.050327323
000230 1c 41 d6 3d 26 5d 08 3d 86 6b 40 bd 9d 03 41 3d
       0.104616374 0.03329196 -0.046977542 0.047122587
000240 30 4f dd 3c 13 84 fc 3d 1b c6 04 3d 15 41 12 3c
       0.027015299 0.12329879 0.03241549 0.00892665
000250 0b d2 a8 3b b3 dc 36 bd e5 13 ac bc 0b d3 1f bd
       0.005151992 -0.04464407 -0.02100558 -0.039019626
000260 c2 b3 e1 3c 23 c6 98 3d 55 f4 06 bd 7b c5 a2 3d
       0.027551536 0.074596666 -0.032947857 0.07947823
000270 91 1c f0 3d 9c 73 71 3d 7e 8c c7 bc 3c 14 d9 bc
       0.117241986 0.058948144 -0.024358984 -0.026498906
000280 34 e6 13 bd 88 1d 1d be fa 23 e5 3c 1b bc 8e 3d
       -0.03610821 -0.15343297 0.027971257 0.06969472
000290 e9 38 15 bd 2d 41 06 be f4 f6 43 3d ac 7f ac 3d
       -0.036431227 -0.131108 0.047842935 0.08422789
0002a0 a0 79 ea 3b 99 3d e0 bd 98 ce 41 bd fe 08 a2 bd
       0.007155612 -0.10949249 -0.047316164 -0.079118714
0002b0 4e d6 11 3e 9c 47 65 3a bb e2 b5 3c b9 33 22 bd
       0.14241907 0.00087463274 0.02220284 -0.039600108
0002c0 f1 1f 12 be f0 30 2c bd 12 e0 3c bc 18 74 ae 3d
       -0.14269997 -0.042038858 -0.011528032 0.08518237
0002d0 73 80 26 bc 45 53 1c bd 5f 44 f1 3d 9c 3d 0f bd
       -0.010162461 -0.03816535 0.11780619 -0.034970865
0002e0 9a e7 25 bc 56 5c 1d 3d 5c 56 d6 bc a9 81 2b be
       -0.010126019 0.038418137 -0.026164226 -0.1674868
0002f0 14 f4 a2 bd 07 27 01 be 71 44 57 bd b2 da 89 3d
       -0.079567105 -0.12612544 -0.052555505 0.06731166
000300 75 7c 9e 3d 84 7c b3 bd 18 e1 fa bc d7 d2 46 3c
       0.07738582 -0.08763984 -0.030624911 0.012135229
000310 29 1e 65 3d 10 36 47 bd 40 d3 53 3d b8 73 ec bb
       0.055936966 -0.048635542 0.051715136 -0.007215943
000320 c7 75 c3 bc 30 89 e4 bd 06 63 c0 3d 73 38 ef 3d
       -0.023859872 -0.11158979 0.09393887 0.11680689
000330 2e f8 00 3e fa d3 47 bd 90 f3 75 bd f7 48 4c 3d
       0.12594673 -0.04878614 -0.060046732 0.049874272
000340 57 44 30 3c b3 8c 71 3d 26 a5 b6 3d 2f f3 c9 bc
       0.010758481 0.05897207 0.08918218 -0.024652092
000350 20 8c 0a 3d df 6c b1 bc 25 59 8e bc 43 65 99 bb
       0.03382504 -0.02165836 -0.017376492 -0.004681261
000360 c6 6e 02 be 85 12 a6 bc 3f 50 bb 3d dd 46 8c bd
       -0.12737569 -0.020272503 0.09146165 -0.068494536
000370 24 67 44 bd bb 2c 42 bb 75 1c 6b 3d 6b a5 a7 bd
       -0.047949925 -0.0029628712 0.057400186 -0.08185848
000380 07 d7 a6 bd 61 b8 bf bd cf a8 e6 3c 3e c3 96 bd
       -0.08146482 -0.09361339 0.028156666 -0.07361458
000390 41 e5 19 3d 47 01 ce bd e0 8a ad bd 9f 81 9d 3d
       0.03757215 -0.100588374 -0.08473754 0.07690739
0003a0 60 5a ac bd 09 44 04 be 45 25 12 be ba cf 4a 3c
       -0.08415675 -0.12916578 -0.1427203 0.012378627
0003b0 04 a3 d3 bd f9 12 07 3d 3d c1 6e bd 14 60 5c bd
       -0.10333827 0.032977078 -0.058289755 -0.053802565
0003c0 a3 ea 03 be 46 46 d3 bd 02 fc e8 bc d1 61 3a 3d
       -0.12882476 -0.10316138 -0.02844048 0.04550344
0003d0 6a ee dd 3d e9 82 47 3c 96 f0 a8 bc 2e fd 8e bd
       0.108364895 0.0121772075 -0.020622533 -0.06981884
0003e0 0b dd 8d bd 1e 6e 57 bd c3 59 03 bc e2 73 93 bd
       -0.06926926 -0.05259525 -0.008017006 -0.07199837
0003f0 6a 44 25 3d 69 1b 3b bd cc 55 1b 3d eb d0 55 bd
       0.040348448 -0.045680437 0.03792362 -0.052201193

weight f4 [128, 128]
000000 63 4a 36 bd 28 3d 1b bd 1a ea dc 3d 88 48 58 bd
       -0.044504534 -0.03790012 0.10786839 -0.052803546
000010 30 9a 2f be 42 09 01 3c 5e 6c d6 3d 62 ae 9a 3d
       -0.17148662 0.007875742 0.10469888 0.07552792
000020 44 0e 16 3d b1 64 bd bd 9f ec ae 3d c2 70 02 be
       0.0366347 -0.09247721 0.08541226 -0.12738326
000030 46 6d 36 ba 8b 45 f6 3d 3d be ed 3d bd c1 8f bd
       -0.0006959032 0.12024983 0.11608551 -0.070193745
000040 1c 74 e1 3c 15 33 33 bc aa cd 9e 3c 3b 2b a0 bd
       0.027521186 -0.010937472 0.019385178 -0.078207456
000050 17 26 45 bd fc f6 8a 3d 21 08 5c 3d 5a 68 69 bc
       -0.04813203 0.0678539 0.05371869 -0.014246071
000060 88 27 e4 3c 60 57 df 3c 37 98 0e 3d b9 d5 f6 bc
       0.027850881 0.027263343 0.034813132 -0.030131208
000070 de 23 8e bd 7f d1 c3 bd bf cf b0 3d 2f 73 09 3d
       -0.06940435 -0.095614426 0.086333744 0.033557113
000080 2a 54 f6 bc cb ed 6f bd 98 b2 7f 3d 75 d5 e1 3c
       -0.03006943 -0.058576386 0.06242618 0.027567605
000090 e1 b6 7b bd 8e 71 35 3d 19 5a ed bb 5b dc 13 be
       -0.061453704 0.044297747 -0.0072434065 -0.14439528
0000a0 bd c5 e9 bd 71 68 dc 3d ee fb 16 be 71 72 84 bc
       -0.11414669 0.10762108 -0.14744541 -0.016167851
0000b0 bb cb c6 3d a6 10 8e 3d cf 42 bd b9 49 73 0e 3d
       0.09706827 0.06936769 -0.00036098665 0.034777913
0000c0 e4 05 bb 3a a4 14 81 bd 07 24 fa bc 40 33 8e bd
       0.0014268723 -0.06302765 -0.030534757 -0.06943369
0000d0 6f d5 a2 36 90 ca 12 bd 3a ec c9 bd 5f 2c 7b 3d
       4.852823e-06 -0.03583771 -0.0985951 0.061321612
0000e0 36 39 d8 bd 5a 8c 39 3e 3d c5 18 bd 34 c2 2f 3d
       -0.10557787 0.18119946 -0.037297476 0.042909816
0000f0 02 d8 32 3d 0b 24 35 be ae 73 84 3d 42 7f 9c 3d
       0.043663032 -0.1768953 0.06467377 0.0764146
000100 74 c7 a7 bd f4 ab 1c bc 5c b0 f9 bc 11 7b 87 3d
       -0.081923395 -0.009562481 -0.030479603 0.0661527
000110 c3 47 8f 3d b0 aa 48 3c 56 9b ec 3b c0 7e 55 3c
       0.06996109 0.012247726 0.007220666 0.013030708
000120 ff 63 a9 3d 6f fc d4 3c 56 a0 4b bd 1e 9c 89 bd
       0.08271026 0.025999276 -0.049713455 -0.0671923
000130 e4 f7 63 3d 8c 48 0b 3e 0d dc 65 bc 70 7d b7 bb
       0.05565633 0.13601893 -0.014029515 -0.00559967
000140 8d 18 45 bc e6 e1 c1 3c c0 d9 b0 3d f3 e6 54 3d
       -0.012029779 0.023667287 0.086352825 0.051978063
000150 ca 28 e7 bd 14 5a a9 3c b6 00 e4 bd 4b 29 1d 3d
       -0.11287077 0.020672835 -0.11132948 0.03836946
000160 16 83 5b bd 6b 00 c4 bb 85 d4 ba 3c 85 1c 04 be
       -0.05359181 -0.005981495 0.022806415 -0.12901504
000170 e5 9c b3 3d fb c5 31 be 9c 0c 6e be 82 e0 80 bd
       0.0877016 -0.1736068 -0.23246998 -0.062928215
000180 5f 2c 1e be a8 d8 b5 bc 52 9d b9 3c 9f ff 35 3c
       -0.15446614 -0.022198036 0.022658024 0.011108308
000190 b3 a1 18 3e e6 ef 21 3d 9b e7 ad 3d b9 43 d9 3c
       0.14905433 0.039535426 0.08491441 0.02652155
0001a0 e1 78 08 be 88 10 c3 bd 76 b3 71 bc 0a c0 2e bd
       -0.13327362 -0.095246375 -0.0147522595 -0.04266361
0001b0 5e 73 2a 3c 76 1a 3d be db 01 81 bd 0c c6 13 3d
       0.010403482 -0.18467125 -0.06299182 0.036077544
0001c0 ee 48 91 3c 32 21 5b bd ee 34 28 bc 73 57 70 bd
       0.01773497 -0.053498454 -0.010266526 -0.058677148
0001d0 16 f2 4f 3e a1 e2 0c bd 94 cc 92 3d a1 57 a0 bd
       0.20307192 -0.034395818 0.071679264 -0.07829214
0001e0 50 3c 17 be 4c e2 d7 3b 2a 9e e1 3d ff 6b 87 3d
       -0.14769101 0.006588256 0.110164955 0.066123955
0001f0 3f 86 01 be f3 ae 23 3d ef c4 74 3d ac 98 94 bd
       -0.12648867 0.039961766 0.059758123 -0.07255682
000200 84 a4 99 bd f9 df 7d bc 47 54 b3 ba 78 ce 9b bc
       -0.07502082 -0.015495294 -0.0013681733 -0.01901935
000210 18 0a 48 bc 2f 32 a6 3d 10 40 e1 bc d1 3c fc 3a
       -0.012209438 0.081150405 -0.027496368 0.0019244199
000220 79 cd 83 bd 81 01 cd 3d 49 69 37 bd 03 65 05 3d
       -0.06435675 0.100100525 -0.044778142 0.032567035
000230 ea 77 00 bd 6e 2f df 3d 9d b8 95 bd e6 0d ab 3c
       -0.03136436 0.10897718 -0.07310603 0.02088065
000240 24 58 0d 3d 11 d6 9b bd 97 dd 69 3d 6e 93 a8 bc
       0.034507886 -0.07609189 0.05709609 -0.020578112
000250 88 51 85 3d c6 8f 9b 3d 69 43 4c bc 34 2d f6 bc
       0.065096915 0.07595782 -0.012467244 -0.030050851
000260 bb e4 4c bc 47 cf ef bc 7f 62 b6 3c 8f f8 90 bd
       -0.0125057055 -0.029273642 0.022263763 -0.07078659
000270 a2 bc ec 3d 22 da 58 3d 95 67 ac bd 0c 44 78 bd
       0.11559416 0.052942403 -0.08418194 -0.06061177
000280 85 1f c5 3a 2c 84 25 3d d8 5c a0 3d 5c d5 cd bc
       0.0015039301 0.040409252 0.078302085 -0.025126152
000290 39 f1 0b bc 98 89 07 3d 76 5f c8 3d 75 0c 17 3d
       -0.008541399 0.033090204 0.09783833 0.036877114
0002a0 f1 fc 47 3d 21 8f 85 3d 6f d6 ce 3d 14 9a a5 bc
       0.048825208 0.0652144 0.10099494 -0.020215072
0002b0 2a f1 01 be af 78 a2 3d b0 70 4d 3a 9c f2 04 3b
       -0.12689653 0.07933175 0.0007836921 0.0020286208
0002c0 c2 80 01 3d 0d 8c 3c 3d be e1 0e bd 6a 6e 04 3c
       0.031616934 0.046032 -0.034883253 0.008082965
0002d0 32 6a 02 3d fc d8 6d bd e9 aa a8 3c 0f 16 9e bd
       0.031839557 -0.05806826 0.020589309 -0.07719051
0002e0 0c c5 7e bb bd 20 19 3c 30 44 28 bd cb 4b 00 bd
       -0.0038874773 0.009346184 -0.041080654 -0.03132228
0002f0 c7 7f 64 bd d4 f0 f6 bd 9b 14 2a bc 53 d2 a5 3d
       -0.05578592 -0.12057653 -0.010380889 0.08096757
000300 a2 72 7a bd b4 de 7a 3d 72 f3 b9 3d 08 c0 c8 3c
       -0.06114448 0.061247543 0.09079637 0.02450563
000310 3e f0 0d bd 7e a5 30 bc c5 9e 3d bd ed 81 9e bd
       -0.03465294 -0.010781644 -0.046293993 -0.07739625
000320 71 ba d0 bb fb 51 b8 bd 9d f5 80 bc 87 4d 74 3c
       -0.006369882 -0.090000115 -0.015742118 0.014911062
000330 94 c7 87 3d d2 47 63 3d ac 7b 56 bc 29 dd 80 3d
       0.066298634 0.055488415 -0.013091009 0.06292183
000340 e4 2b b5 bb 0a b8 01 3a dc 72 39 3d 0e 67 bc bd
       -0.005528914 0.00049483834 0.045275554 -0.091993436
000350 ed 72 0e 3c 7a 3c b8 3d b5 40 5f 3d 86 88 8d 3d
       0.008694393 0.0899591 0.05450507 0.069108054
000360 26 67 3a bd 8b 7c b2 3d 42 9d 48 bc 22 99 d3 bd
       -0.045508526 0.08715161 -0.012244524 -0.10331942
000370 c6 d3 65 3b d1 7b 85 bc 75 b0 b9 bc ef d5 79 bd
       0.0035068854 -0.016294392 -0.02266715 -0.06099504
000380 e3 8b 4c 3d 7a cd c1 3c ae 74 83 bd 33 b2 6f bb
       0.049938094 0.02365755 -0.06418739 -0.003657472
000390 b4 07 34 bd 59 a9 2c 3b d0 97 9d bd b2 cd a2 ba
       -0.04395266 0.0026346056 -0.076949716 -0.0012420921
0003a0 f1 45 5e 3d 2e a0 2c bd cf 2c 67 bd 1d 26 4f 3d
       0.05426592 -0.042144947 -0.056439217 0.050573457
0003b0 31 cf 94 bd f0 2e a1 3d bb ea 8d bd 0c f3 9a 3d
       -0.07266081 0.07870281 -0.06929537 0.07565889
0003c0 36 e6 02 3e c9 1f 97 bd 37 3b 88 bd df a6 93 3d
       0.12783131 -0.073791094 -0.06651919 0.072095625
0003d0 08 99 d5 3b 14 80 30 3d ce eb b2 3d 33 b3 41 3d
       0.006518487 0.043090895 0.087363824 0.04729004
0003e0 a6 89 05 3d a8 5a d2 3c 50 dd 47 3c 7e 74 12 bd
       0.032601975 0.025677994 0.012198761 -0.035755627
0003f0 8d 0b 31 bd a9 bb 1f bd ac be 15 bd 8d 41 91 bb
       -0.043223906 -0.038997326 -0.036558792 -0.004432863

bias f4 [128]
000000 17 4c c2 bd b5 38 8d 3c 3f dc 26 bd 70 11 9a bd
       -0.09487169 0.017238954 -0.040737387 -0.07522857
000010 4a fe eb bb 04 7b e9 bb 0d f2 be bd 49 68 62 3d
       -0.0072019445 -0.0071252603 -0.09323511 0.055275235
000020 c1 4c 3a bd 20 2a ac bd 7d 00 85 bb 43 3e 08 be
       -0.045483354 -0.08406472 -0.004058896 -0.13305001
000030 ae ea cc bd 8c a9 02 3d bf b2 6d 3c d7 88 e3 ba
       -0.10005699 0.031899974 0.014507948 -0.0017359507
000040 c2 87 0a 3d 74 b0 6e bd 0e a8 84 bc 26 cf 0a 3c
       0.033820875 -0.058273748 -0.016193416 0.00847224
000050 44 f0 82 bd c5 bb 13 3d 8a e4 e6 bc 2c 42 4f 3c
       -0.06393483 0.036067743 -0.028185148 0.012650054
000060 8d b6 88 3c 7a d7 9e bd ab 78 d8 bd 93 90 79 3d
       0.01668861 -0.07755943 -0.105698906 0.060928892
000070 b0 19 13 3d 85 e1 8b 3d 2c b8 61 3d 77 a2 90 bc
       0.03591317 0.06830124 0.05510728 -0.017655594
000080 c9 c7 cc 3c 95 67 b1 3c a1 8b 0a 3d f7 c4 15 bd
       0.024997609 0.021655837 0.033824567 -0.036564793
000090 1c 30 13 bc 34 41 32 be 7a 2a e4 bd 57 b9 f1 3c
       -0.008983638 -0.17407686 -0.11140914 0.029507322
0000a0 0c fb 12 bd 02 45 cb bd 14 c1 3d bd 59 3c 38 bd
       -0.03588395 -0.099252716 -0.04632671 -0.044979427
0000b0 02 d2 b9 3c 53 d0 98 bb 57 78 06 bd e1 d8 f9 bd
       0.022683147 -0.004663506 -0.03282961 -0.121995695
0000c0 af 6c 14 bd c1 cd f8 bc 65 78 31 bd 72 9e 19 bd
       -0.03623646 -0.030371549 -0.043327708 -0.03750462
0000d0 51 34 5a 3c 62 96 00 bd 7e ab 1b bd b0 48 60 3d
       0.013318137 -0.031393416 -0.038005345 0.05475682
0000e0 55 73 d4 bd 88 3f 78 39 60 e1 34 bc bb ec 42 bd
       -0.1037356 0.0002367479 -0.011040062 -0.047589045
0000f0 98 6b 8d bd 4d 56 e9 bd f8 a5 66 bd e8 e9 84 bd
       -0.069052875 -0.11393414 -0.056310624 -0.064899266
000100 97 63 4b 3d c2 3d f0 bc ae 4b 81 3c 7a 35 04 be
       0.049655523 -0.029326323 0.015783157 -0.12911025
000110 07 2e 89 bd 4e b3 13 bc fa db a0 bd 57 1d 81 bd
       -0.06698232 -0.009014918 -0.07854457 -0.06304424
000120 61 03 22 bd 4c 85 06 be 8d 46 1b bd 17 44 8f 3c
       -0.039554004 -0.13136786 -0.03790908 0.017488522
000130 f0 2c 56 3d d3 dc a8 bc 05 7c 09 be 5a c9 bf 3c
       0.05228895 -0.02061311 -0.13426216 0.023411442
000140 04 bd a3 bd 11 b8 09 3d 4d 50 3c bd db 2d 17 be
       -0.07995036 0.033622805 -0.04597502 -0.14763586
000150 f9 2a b4 bd f4 e7 05 3b d0 1b 04 3d b1 28 7e bd
       -0.08797259 0.0020432444 0.032253087 -0.062050525
000160 7e 73 14 3d 32 c6 a8 3d c5 40 9f bd 3a 6a 1c 3d
       0.036242954 0.08240928 -0.07776026 0.038187243
000170 b0 e2 3f bd 7e ec 64 3b 16 9c 9b bd 2c df 00 3d
       -0.046847045 0.0034931 -0.075981304 0.031462833
000180 62 df c6 bc 7b 54 ee bd 63 7d 54 3d 99 d8 97 bc
       -0.02427644 -0.11637207 0.05187739 -0.018535899
000190 f1 fc b5 bd 45 91 40 bb f2 ad 2c bd 26 a0 08 3b
       -0.08886135 -0.0029383462 -0.042158075 0.002084741
0001a0 da 76 04 bc 4a ee d2 3c ce 17 89 bd 31 9a 0a be
       -0.008084977 0.02574839 -0.066939935 -0.13535382
0001b0 18 b4 88 3c 88 0f 9b bd 3c 50 4a bd 28 ee ab 3c
       0.016687438 -0.07571322 -0.049392924 0.020987585
0001c0 88 63 a1 bd a5 84 ea 3c b3 3f cb 3c ac 5a 4c bd
       -0.07880312 0.028627703 0.024810648 -0.04989116
0001d0 c3 d1 bd bd ee e7 9e bd ce 77 c2 3c c0 cf e7 bd
       -0.092685245 -0.07759081 0.023738768 -0.11318922
0001e0 d4 1d 26 bd 1d 2b 9d bd 77 1f 8b 3d 1f b2 57 bd
       -0.04055579 -0.07674239 0.06793111 -0.052660104
0001f0 aa 14 92 3b 26 0a 62 3d 45 ef d7 bc cd a2 7c bd
       0.0044580298 0.05518546 -0.02635921 -0.061678696

weight f4 [128, 128]
000000 96 81 c7 bb 85 2e f8 3b fa 46 35 bb 34 74 a6 3d
       -0.006088446 0.007573905 -0.0027660714 0.08127633
000010 14 5e d6 bc 69 8e 4c 3d 96 11 9d 3d 97 79 24 3d
       -0.026167907 0.0499405 0.0766937 0.04015502
000020 0c 3b ac 3c 31 65 9d 3d 54 fe b4 3b f3 85 f2 bb
       0.02102425 0.07685316 0.0055234823 -0.007401222
000030 f8 f0 8a 3c e9 bf c8 bd 4f ca aa bc b4 a1 ce bd
       0.016960606 -0.09802229 -0.020848421 -0.10089436
000040 50 53 19 3c 82 3e 7d bd 05 27 02 bd ad e6 82 bc
       0.009358242 -0.06182719 -0.031775493 -0.015979135
000050 ec 80 9a 3d b1 59 67 bd a7 a6 1a 3d f6 8c 8d bc
       0.07544121 -0.05648202 0.03775659 -0.01727913
000060 3e ce ed bd 29 dd 61 3d ef 4d 5b bc da 8a 52 bb
       -0.11611603 0.055142555 -0.01338528 -0.003212622
000070 b1 27 2f 3b 1b 92 81 3d 50 c1 27 bd e1 ea 37 3d
       0.0026726539 0.063266955 -0.04095584 0.044901732
000080 42 b4 1b bd 93 76 2f bb 1a d1 29 3d 01 24 16 3d
       -0.038013704 -0.0026773557 0.04145918 0.03665543
000090 62 30 e0 bd 57 6e 2c bd 32 40 86 bd b4 ad 99 3d
       -0.10946728 -0.042097416 -0.06555213 0.07503834
0000a0 2a 06 fb bd b0 4b c8 3d 3f 0c 02 be 50 93 af bd
       -0.12257035 0.09780061 -0.12699984 -0.085730195
0000b0 04 35 39 3d 18 fc 78 3d d6 5e 2a bd 95 65 13 bd
       0.045216575 0.06078729 -0.04159435 -0.035985548
0000c0 74 52 11 bd 2d 68 8d bc f1 3f 9b bd 0d fc 18 3d
       -0.035479024 -0.017261589 -0.07580555 0.03734975
0000d0 86 78 a1 3d ff d9 33 3d 88 ec 50 bd 96 7a 26 bd
       0.07884316 0.04390907 -0.051006824 -0.04064425
0000e0 b5 8a ae 3d af d0 ea 3c d4 c7 0d bd 1c a1 1a 3d
       0.0852255 0.028663961 -0.0346144 0.037751302
0000f0 20 91 80 b9 8a 2f 4b bd e9 19 bf bc 88 ef c8 bd
       -0.0002452219 -0.049605884 -0.023327785 -0.09811312
000100 59 48 a7 bd 7c ef c0 bb 71 5e 9d 3d d0 f9 9e bc
       -0.08168096 -0.0058879238 0.07684029 -0.01940623
000110 b8 b3 aa bc 65 94 a4 bc 32 4b 74 bd 24 26 7e bd
       -0.02083765 -0.020090291 -0.059642024 -0.062048092
000120 cd bd 5a bd 81 8b 7b 3c d3 57 2b bb ce 93 ac bd
       -0.053403664 0.015353085 -0.0026144877 -0.08426629
000130 d5 9c 29 bd 92 8a 74 bd 9c 34 9e 3d 66 8f 06 bd
       -0.041409332 -0.059702463 0.07724878 -0.0328516
000140 22 8f e9 bc de 1e 64 bd 3f 15 26 bb 2a 98 ef 3c
       -0.028510634 -0.0556935 -0.0025342254 0.029247362
000150 17 b2 ba ba 4b 20 92 3d 3a 6f ec 3a ca db 5c bb
       -0.0014243749 0.07135066 0.0018038519 -0.003370034
000160 cc 73 e5 bd a5 44 95 bc b5 d2 98 bd c9 94 87 bc
       -0.11203727 -0.018221209 -0.07462064 -0.016550438
000170 a1 73 da 3d 6f b3 1a bc 19 1b 85 3d 1a 58 13 3d
       0.10666586 -0.009442194 0.06499309 0.035972692
000180 b3 e1 28 bd 18 e3 fd 3c a0 8b 31 bd f8 06 d3 bd
       -0.04123087 0.030992076 -0.043346047 -0.103040636
000190 4a 07 af 3a 6a 80 13 3d be c8 de 3c 7e e3 38 bc
       0.0013353613 0.036011137 0.02719533 -0.011284707
0001a0 d4 a3 8b 3b b6 d7 9e 3d 87 c1 4b bc b5 c1 42 3d
       0.004261473 0.07755987 -0.012436277 0.047548015
0001b0 ea d6 30 bd 85 1d 43 3d 64 af 0a be 2b 20 16 be
       -0.043173708 0.047635574 -0.13543469 -0.14660709
0001c0 55 3e 51 3d 5c e5 32 3d a3 e9 b9 3d 17 e8 4c 3c
       0.051084835 0.043675765 0.09077766 0.012506506
0001d0 4a cd 74 bc 98 72 0a 3d ee af 81 bd 59 67 4c bd
       -0.014941523 0.03380069 -0.06332384 -0.049903248
0001e0 fc 20 b4 3d 3c ea 5b bd d8 0b b7 bd bb 73 42 bd
       0.08795354 -0.05369018 -0.08937806 -0.04747365
0001f0 12 79 d1 3d 4e 54 9c bd a4 ac 73 3d 35 b8 94 3d
       0.102281705 -0.07633267 0.059490815 0.07261697
000200 c0 ea 72 3c 14 35 04 3d f5 b9 91 bd 66 31 7e 3d
       0.014826477 0.03227718 -0.071155466 0.06205883
000210 5e b4 8c 3d d8 06 b4 bd a6 5a bd bb ea f1 c3 3c
       0.0687034 -0.08790368 -0.0057786284 0.023919065
000220 bf 9e 88 3c 8f 51 b2 bd 2c b0 30 bd 50 4b 81 bc
       0.016677259 -0.08706962 -0.04313676 -0.015782982
000230 18 a8 3f bc d0 be ea bb 9c dd 57 3d f6 69 2e bd
       -0.0116977915 -0.00716386 0.052701578 -0.04258152
000240 f6 ce 0b 3d 1e 49 a3 3c 22 92 08 3b ee 5a 47 bd
       0.03413292 0.019932326 0.0020839055 -0.0486707
000250 29 27 fc 3c a5 9b 38 bd 94 46 9e 3d b8 47 7e bd
       0.030780392 -0.04507031 0.077283055 -0.062080115
000260 49 fd 7b 3d bb 2f 42 bb 73 55 ce 3d f0 e6 81 3d
       0.06152085 -0.00296305 0.10074892 0.06342876
000270 69 bd cd bc 02 c4 3c ba 2c 19 ca 3c 02 c4 b6 bc
       -0.025114732 -0.00072008383 0.024670206 -0.02231026
000280 e2 e0 8b bd 37 31 04 3e 55 d4 ff bc 56 9a df bd
       -0.06830002 0.12909399 -0.031229177 -0.10918109
000290 9f 59 94 3d 18 66 88 bd 4f ce b4 bd c4 25 83 3c
       0.07243656 -0.06660098 -0.08828413 0.016009219
0002a0 7a 56 cd 3d 91 e1 1f 39 21 6f d7 3c 76 0e a6 3b
       0.1002626 0.00015247452 0.026298108 0.005067642
0002b0 5b bf 1f bc cb 5c 73 3c 1d 4b e3 3b 4a b3 0d 3d
       -0.009750213 0.014853667 0.0069364444 0.03459481
0002c0 8c cc 4a bc d5 06 84 3d 97 00 38 bd a6 21 d3 bd
       -0.012377869 0.064466156 -0.044922438 -0.10309152
0002d0 6d 1c 33 be e4 d6 df bd 84 9d 5b 3c 4c cd 75 3d
       -0.17491312 -0.10929659 0.013404254 0.06001024
0002e0 21 35 35 3d b2 95 94 3c bf ea 25 bb 70 31 25 3d
       0.04424012 0.018137787 -0.0025316922 0.04033035
0002f0 5b f6 df bb c4 59 2c bc 96 2b b7 bc 52 70 8e 3d
       -0.006834788 -0.010519449 -0.02235965 0.06955017
000300 61 8e 3c 3d 49 19 9e bd 07 15 f9 3d 5e 00 87 3c
       0.04603422 -0.077196665 0.12162214 0.016479667
000310 74 77 b6 3d c9 c1 92 bc 9d 53 d4 3c b3 76 c2 3c
       0.089095026 -0.01791467 0.025918776 0.02373824
000320 a8 2e ce bc 8e 4b bb 3d c6 bc 10 3c fa 96 5e 3d
       -0.025168732 0.0914527 0.00883407 0.0543432
000330 ad 4b b8 bd ba e0 ea 3c 5b 3a fa 3d 30 5b 68 bd
       -0.08998809 0.028671611 0.12218162 -0.05672759
000340 85 91 09 bd 53 f4 b0 3b 8c aa 2b bd b3 51 05 bd
       -0.033586044 0.0054002195 -0.041910693 -0.032548618
000350 70 20 de bc b8 eb 53 bd 4f a8 ed 3d 12 7d ff 3d
       -0.027115077 -0.05173847 0.11604368 0.12475027
000360 fe df 46 bc e8 de af 3c 9e 62 42 3d 45 92 8b bd
       -0.012138365 0.021468595 0.04745733 -0.06815008
000370 60 1c 7a bd af de a4 bd 1f 6c 79 bd 2d 20 1a 3c
       -0.061062217 -0.08050286 -0.060894128 0.009407085
000380 32 77 8f bd 38 5f ea bc 77 08 7f bd 6b b9 41 bc
       -0.070051566 -0.028609857 -0.062263932 -0.011823992
000390 6c ff 16 3c 68 da 47 bd 9e e9 06 3d b0 bb b2 3c
       0.009216171 -0.048792273 0.03293764 0.021818012
0003a0 cf d5 1b bd 5e 6e de 3d 9e 4d 42 bc d8 69 27 3d
       -0.0380457 0.108608946 -0.011859326 0.040872425
0003b0 d5 08 f7 3b 98 8e 18 bd 2d 2b 6d 3c 6a cb f8 3b
       0.0075388947 -0.037245363 0.014475626 0.007592608
0003c0 50 16 65 3d 4e e6 ce bc 05 3b 85 3c 6e 6c 87 3c
       0.055929482 -0.025256302 0.016263494 0.016531195
0003d0 57 f2 9c bc be be 5e 3d cb 7e 57 3d 57 fe d4 3d
       -0.019158525 0.054381125 0.052611154 0.10400074
0003e0 03 9e 58 3d 77 93 86 bd 63 d0 64 bd 88 54 5a bd
       0.052885067 -0.065710954 -0.055862796 -0.05330327
0003f0 96 92 50 3b 61 19 bd bd ea a3 c9 bb 35 e5 b2 3d
       0.0031825653 -0.09233356 -0.0061535733 0.08735124

bias f4 [128]
000000 f5 aa 8a 3d c1 86 24 3d 64 38 a8 3d a4 20 a1 bb
       0.06770889 0.040167574 0.08213881 -0.004917221
000010 70 f4 80 bd 68 6d 69 3d 82 e3 31 3b b6 c7 de bd
       -0.06296623 0.056989104 0.0027143662 -0.108779356
000020 38 7c 66 bd 0e a3 36 be e5 50 cd bd 90 05 88 bd
       -0.056270808 -0.17835638 -0.10025195 -0.06641686
000030 f5 05 ef bc 43 19 a6 3b bd 2d 71 3d 92 dd 68 bd
       -0.029177645 0.0050689294 0.05888151 -0.05685193
000040 bc 78 2d 3d 2a a7 1e bd b2 86 02 bd 54 14 63 bc
       0.04235147 -0.03873364 -0.031866737 -0.013859827
000050 8b 18 97 3c 94 ac 95 bd 7b e6 0f 3d 89 32 bd 3c
       0.01844432 -0.07308307 0.035131913 0.023095386
000060 6a 5a c7 bd 1b dc e0 3c ec 88 13 be 92 80 8a bb
       -0.09734042 0.027448704 -0.144077 -0.0042267526
000070 0a f8 d2 bc 40 a8 7c bd d5 8f 36 3b 43 30 0a 3d
       -0.02575304 -0.061683893 0.0027856727 0.033737432
000080 44 f5 43 bd 84 f2 b9 bd 0c a3 b7 bc 92 da 90 bd
       -0.047841325 -0.09079459 -0.022416614 -0.07072939
000090 09 d4 5d bd 07 70 ec 3c 07 0d d4 3b 1f 95 7d 3c
       -0.05415729 0.028862013 0.0064712795 0.015477448
0000a0 05 13 6f 3d 32 ac 8a 3b fa 66 7f 3d a6 47 51 bc
       0.058367748 0.004231953 0.062354065 -0.01277343
0000b0 84 95 f9 3d 41 19 08 be 28 87 54 3d fb 75 4c bd
       0.12186721 -0.13290884 0.051886708 -0.049917202
0000c0 3f 2d 99 3d 63 c1 1a 3c ae 02 9d bd 37 4d 15 bb
       0.07479333 0.009445521 -0.07666527 -0.002278162
0000d0 e2 85 7e bc dd 0b e4 bd b9 3e 25 bd 88 4e 8f bd
       -0.01553485 -0.11135075 -0.04034302 -0.069974005
0000e0 cd eb 3d bc 16 3f 09 be ec 73 61 bc c2 58 9f bd
       -0.011591864 -0.13402972 -0.013760548 -0.07780601
0000f0 4e c9 aa 3c 12 2a 95 ba fb ed 7e 3d 11 8e 8c bd
       0.020847943 -0.0011380336 0.062238675 -0.068630345
000100 c5 1b 6a 3c e7 ec 60 3c 85 21 2e bd 6d df 99 bc
       0.014288847 0.013728357 -0.042512435 -0.018783296
000110 84 c5 15 bd e6 07 b4 bb a1 e2 9e 3d b1 9f d8 bd
       -0.03656532 -0.0054941056 0.0775807 -0.10577334
000120 7d 7a c0 bd cd 9c ce bb c7 7d 5c bc 3e d9 80 bc
       -0.09398363 -0.006305313 -0.013457722 -0.01572859
000130 b5 7d bb bd f9 e6 f1 3c 65 fe 44 bc a3 61 9a bc
       -0.09154836 0.029529082 -0.012023543 -0.018845385
000140 f3 6f 38 bd 48 85 a3 bd e9 e1 2b bd cb b8 53 3d
       -0.045028638 -0.07984406 -0.04196349 0.051689904
000150 d5 bf cc 3b b3 57 05 bb 4f ae db bd da 23 a9 bd
       0.006248454 -0.0020346462 -0.10726606 -0.08258791
000160 62 6a 98 bd fc a7 ee bd e5 db 8f bd 7b 9a 2f bc
       -0.07442166 -0.11653134 -0.070243634 -0.010717983
000170 8d da 98 bd 7c ed cc bd 68 c9 d8 3d 27 58 a3 3c
       -0.0746356 -0.10006234 0.1058529 0.019939495
000180 09 e1 a4 3d d3 0b 1d 3d 08 f2 89 bc b6 03 17 3d
       0.080507345 0.038341355 -0.016839042 0.036868773
000190 64 0a 92 3d e3 75 43 3c 3d bb bf bc f9 c3 f4 bc
       0.07130888 0.011929962 -0.023404712 -0.029878603
0001a0 91 d3 01 3d 88 88 12 3d 3b 91 a6 bd 19 9f 6d 3b
       0.031695906 0.035774738 -0.08133169 0.003625816
0001b0 32 73 a8 bc a4 6d 69 bd 9e 28 25 bc 23 f2 5b 3d
       -0.020562742 -0.056989327 -0.010080485 0.053697716
0001c0 80 1c 9a bd 8d b9 56 bd 50 94 52 bd 64 5c f5 3c
       -0.07524967 -0.05242305 -0.051410973 0.029951282
0001d0 11 86 8e bb d2 09 73 bd 95 98 1b be ab f1 5d bd
       -0.004349478 -0.059335537 -0.15194924 -0.05418555
0001e0 30 6d e8 bc 79 a6 8c bd 0a 02 79 3d 69 00 77 bd
       -0.028372377 -0.0686769 0.06079296 -0.060303126
0001f0 50 32 af 3c 04 8d b1 bd f9 10 75 3c f1 99 88 bd
       0.021386296 -0.08669475 0.01495766 -0.06669987
