results/model/neural_584.model (torch, 686563 bytes, 21 tensors)

weight_ih f4 [384, 5]
0.05642304 0.0028789937 -0.0048114085 -0.0037841443 0.0016949213 0.097349025 -0.049419038 -0.047699977
0.108569786 -0.018599126 -0.018970191 0.07440505 -0.06341928 -0.08284387 0.17875476 -0.042679373
0.03132913 -0.02891122 0.03546952 -0.06617292 -0.007325285 -0.035432696 -0.024299806 -0.022070734
0.043112915 0.04627985 -0.24655372 0.07558942 0.12352564 -0.03463946 0.06383231 -0.032634046
-0.031544667 0.03946078 0.075255916 0.12286916 -0.001288754 -0.054934137 0.03439535 -0.00249358
0.13507175 -0.08831857 0.07053071 0.13571027 0.03730331 -0.08384331 -0.11808946 -0.12429803
0.054458324 -0.10205045 0.022965731 0.05054516 -0.0027997156 -0.023653653 0.02095924 0.07415034
-0.007174542 -0.067124285 -0.022028213 -0.011330201 0.098960824 -0.013212868 0.0023513108 0.04257072
0.11276262 0.055291817 0.076674305 -0.033397842 -0.07170487 0.04982708 0.06490697 -0.054858305
-0.06079633 0.060390823 0.06560212 0.11534141 -0.096561745 0.0017501548 0.17729025 -0.0151539855
0.042239383 0.008721114 0.10951909 0.010738201 -0.060281705 0.031547364 -0.06933116 0.01956242
0.03992185 0.047578588 0.038158767 0.007502581 0.1095703 -0.028209694 0.01146189 0.006671224
-0.08821867 -0.031152362 0.07823396 -0.0024033652 0.06908412 0.0033463605 0.10085537 0.08004136
0.01487484 0.006279423 -0.11628031 -0.05564865 0.074233636 0.25502798 0.0844559 -0.05209008
0.011691651 -0.053628463 -0.0754368 -0.029470677 -0.04053613 -0.058326248 -0.0011213277 -0.06489992
0.013604979 -0.093187645 -0.10165013 0.09389682 -0.12872243 0.08575511 -0.06348111 -0.03663832
0.1031466 0.07856622 -0.044792447 0.07749964 0.08097142 -0.015656773 -0.07443811 -0.15520467
-0.03259237 -0.017136812 -0.053784836 -0.068812296 -0.028873952 0.022441808 -0.036573417 -0.06531857
-0.027721524 -0.055740517 -0.117050774 -0.16844241 -0.0020367417 -0.014167608 -0.047070432 -0.072982214
-0.04399844 0.10956634 0.053441256 -0.06610103 0.102106035 -0.03856963 0.028717237 -0.0935198
0.14463423 -0.14329891 0.0035873097 0.07896561 0.119986705 -0.0004296242 -0.08045966 -7.03525e-05
0.0447772 -0.08438826 0.03394161 0.030737462 0.16932788 -0.0036193104 -0.011978385 -0.115962856
-0.11630609 0.00081987446 -0.0028896297 0.0302289 0.11611166 0.08172358 -0.03769966 0.06425134
-0.084830545 0.007587874 0.022710219 -0.11287756 0.009097276 -0.00674695 0.091197655 -0.057318576
0.04804453 0.00982589 0.034143575 -0.04540132 -0.035961334 -0.010400362 0.114548296 0.0630243
0.0801205 -0.15651418 -0.04014881 0.06366014 0.046509184 0.030775005 -0.12308602 -0.004725676
0.075084396 0.026964597 0.12773348 -0.05578361 0.009052106 -0.019737767 -0.015371543 0.05608146
-0.095592834 -0.14151643 0.027543744 0.021231843 -0.03273475 0.09543811 0.062535 0.058589388
0.09848685 0.008023962 0.051235683 -0.11645784 0.017382797 0.027651528 -0.011751534 0.0384792
-0.009162267 0.1287173 0.15525106 -0.0353373 0.07580359 0.07656017 0.06726611 0.03818308
0.07832529 0.1721186 -0.05159645 -0.07143697 0.02076845 0.053993266 0.020230865 -0.043127067
-0.036924988 -0.07313713 0.07065788 0.008238368 0.07055459 0.08070023 -0.025550624 -0.06037662
00000000: d81b 673d 80ad 3c3b 05a9 9dbb 68ff 77bb
00000010: 1f28 de3a ed5e c73d 9e6b 4abd 0d61 43bd
00000020: d659 de3d 325d 98bc 6067 9bbc ad61 983d
00000030: f8e1 81bd 0caa a9bd 7d0b 373e 91d0 2ebd
00000040: f952 003d 39d7 ecbc 7d48 113d ab85 87bd
00000050: f208 f0bb e021 11bd 6310 c7bc afcd b4bc
00000060: 2b97 303d f18f 3d3d 9478 7cbe a0ce 9a3d
00000070: 03fb fc3d 1be2 0dbd 84ba 823d 47ab 05bd
00000080: fb34 01bd a0a1 213d c61f 9a3d d3a2 fb3d
00000090: 69eb a8ba 9e02 61bd 23e2 0c3d 556b 23bb
000000a0: 4050 0a3e 5ee0 b4bd 6872 903d a2f7 0a3e
000000b0: 5bcb 183d 0bb6 abbd e3d8 f1bd f78f febd
000000c0: b10f 5f3d d4ff d0bd a122 bc3c 7108 4f3d
000000d0: 6f7b 37bb 4ec5 c1bc b6b2 ab3c 22dc 973d
000000e0: 6c18 ebbb 7578 89bd 8374 b4bc 4fa2 39bc
000000f0: f9ab ca3d c97a 58bc 7318 1a3b a35e 2e3d
00000100: 17f0 e63d ac79 623d 6b07 9d3d 2dcc 08bd
00000110: 01da 92bd 7b17 4c3d f2ed 843d 1ab3 60bd
00000120: 9305 79bd 5e5c 773d 675a 863d 1e38 ec3d
00000130: 2ac2 c5bd 7365 e53a 938b 353e 6c48 78bc
00000140: 3403 2d3d 01e3 0e3c 8b4b e03d 48ef 2f3c
00000150: f3e9 76bd cf37 013d 7ffd 8dbd 5e41 a03c
00000160: 1885 233d c4e1 423d 5e4c 1c3d 36d8 f53b
00000170: 6566 e03d 0418 e7bc a7ca 3b3c 489a da3b
00000180: fdab b4bd 3d33 ffbc 2039 a03d c781 1dbb
00000190: fa7b 8d3d 9d4e 5b3b 438d ce3d b9ec a33d
000001a0: 9ab5 733c 9ec3 cd3b 5f24 eebd d7ef 63bd
000001b0: ce07 983d 0793 823e 37f7 ac3d 685c 55bd
000001c0: 578e 3f3c 85a9 5bbd 9c7e 9abd 7d6c f1bc
000001d0: 3709 26bd 81e7 6ebd 84f9 92ba 40ea 84bd
000001e0: 6be7 5e3c 2ad9 bebd f12d d0bd fa4c c03d
000001f0: d0cf 03be 60a0 af3d 6202 82bd 1012 16bd
00000200: 863e d33d 54e7 a03d 4978 37bd 22b8 9e3d
00000210: 58d4 a53d a242 80bc 0273 98bd f9ed 1ebe
00000220: 947f 05bd 8062 8cbc 7d4d 5cbd 76ed 8cbd
00000230: 1189 ecbc e2d7 b73c 02ce 15bd bec5 85bd
00000240: 4018 e3bc 2b50 64bd 51b8 efbd 2b7c 2cbe
00000250: db7a 05bb 411f 68bc edcc 40bd b377 95bd
00000260: b537 34bd 5164 e03d 38e5 5a3d fa5f 87bd
00000270: f81c d13d 30fb 1dbd 6940 eb3c 4f87 bfbd
00000280: ff1a 143e f3bc 12be 1219 6b3b b9b8 a13d
00000290: 97bb f53d 2f3f e1b9 09c8 a4bd 368a 93b8
000002a0: 4c68 373d c1d3 acbd 5c06 0b3d 21cd fb3c
000002b0: 4a64 2d3e f431 6dbb fd40 44bc ef7d edbd
000002c0: e331 eebd d8ec 563a f15f 3dbb 99a2 f73c
000002d0: f3cb ed3d b15e a73d f56a 1abd 3596 833d
000002e0: a3bb adbd b3a3 f83b c80a ba3c 5a2c e7bd
000002f0: be0c 153c 8515 ddbb d6c5 ba3d e2c6 6abd
00000300: 57ca 443d c5fc 203c 22da 0b3d bcf6 39bd
00000310: 314c 13bd 4866 2abc 4c98 ea3d e212 813d
00000320: 3716 a43d 4145 20be 1473 24bd 3f60 823d
00000330: 6a80 3e3d dd1b fc3c 8614 fcbd d8d9 9abb
00000340: d9c5 993d dce4 dc3c 91cc 023e 5b7d 64bd
00000350: 494f 143c 19b1 a1bc edd8 7bbc acb5 653d
00000360: 2dc6 c3bd afe9 10be 6ba3 e13c 67ee ad3c
00000370: e014 06bd 0e75 c33d 5a12 803d 6dfb 6f3d
00000380: 79b3 c93d f076 033c 82dc 513d 7381 eebd
00000390: 5e66 8e3c 7585 e23c 8289 40bc 5e9c 1d3d
000003a0: 551d 16bc 78ce 033e 22fa 1e3e d8bd 10bd
000003b0: ea3e 9b3d 94cb 9c3d d0c2 893d dc65 1c3d
000003c0: 0269 a03d dc3f 303e cd56 53bd 8c4d 92bd
000003d0: 9922 aa3c 0b28 5d3d 33bb a53c 02a6 30bd
000003e0: a83e 17bd ebc8 95bd 14b5 903d 38fa 063c
000003f0: ed7e 903d 2a46 a53d 8b4f d1bc 7a4d 77bd

weight_hh f4 [384, 128]
0.03351213 -0.07070908 -0.061356466 0.025385281 0.011428394 -0.10423258 -0.06802689 0.031020742
-0.10506688 -0.042602457 0.037385445 -0.048275374 0.1030991 -0.06382341 0.05958801 -0.04179986
0.07539183 0.07213543 -0.07175906 0.024419364 0.054136667 -0.00504811 0.041359898 -0.013029863
0.042393867 -0.040405482 0.038040716 0.08529608 -0.13548175 -0.0051893145 -0.045344636 -0.0678838
-0.08255783 0.038216684 -0.04774738 0.092528306 0.008716178 -0.060810313 -0.04569304 -0.073011585
0.034949437 0.006432968 0.06782294 -0.00048040843 0.033362802 0.012705105 0.016043594 0.06632117
0.07833989 0.055334873 -0.088928424 0.043915488 -0.0017921765 -0.08893205 -0.069392785 -0.07390371
0.04983461 0.058493465 -0.053935893 0.018468061 0.06064226 -0.0010786364 -0.055868953 -0.046380866
-0.06633171 0.09034729 -0.032913897 0.075418174 -0.073076725 0.02163419 0.002913249 0.06258318
0.010946922 -0.004885463 -0.034639712 -0.0114727905 0.057195574 -0.031220375 0.04141526 -0.066394545
-0.033409934 -0.039172094 -0.04001331 0.040904187 -0.055596802 -0.027168049 -0.07874703 0.009859688
-0.048108675 0.046344187 -0.06627291 0.030551478 -0.0036264388 0.085229665 0.09358349 -0.04792762
-0.035936523 -0.0064366483 -0.050330978 -0.0844259 -0.05524179 -0.04057282 0.024777431 0.0005532223
-0.036991317 0.023239696 0.055347778 0.047750432 0.036177233 -0.030532721 -0.06556942 0.036943685
0.013671716 0.07149182 -0.07625228 0.03954184 -0.046265237 0.06056736 0.015873373 0.007295684
-0.04766583 -0.064081416 -0.037002113 0.0034189478 0.10646137 -0.03500819 -0.056273866 -0.08267847
0.2065703 0.12291459 0.034619637 0.116355404 0.09065764 -0.033111613 -0.24744552 -0.021829186
0.12800409 0.07580186 -0.12830114 -0.041044623 -0.17327248 -0.031454936 0.073935024 -0.006662543
-0.061054684 0.070084855 0.116611585 -0.0016049052 0.073369294 -0.020531699 -0.09154669 0.050833058
-0.1027206 -0.06829754 0.09472462 -0.035951044 0.0331555 0.02095277 0.068965755 -0.098357454
0.07851336 -0.04685604 -0.11744039 0.04526173 0.008275375 -0.03462963 0.063145526 0.02334831
0.09090527 0.019398198 -0.07617916 0.1388397 0.015982429 0.08234294 0.12032506 -0.0708764
0.07384749 -0.056634527 -0.051807947 0.07694298 0.13787027 0.019271756 -0.06201498 0.13641672
0.005005401 0.09340151 0.019090014 -0.042059932 -0.095936894 0.046292596 -0.11473989 -0.1558132
0.08415213 -0.16052943 -0.15093608 -0.013818361 0.004157507 -0.036811773 -0.021646325 -0.026656806
-0.023551853 -0.0078463955 0.011402516 -0.11367792 -0.036583927 -0.16528392 0.071203694 -0.06495702
-0.012655241 0.12005283 0.14108303 -0.09178589 -0.02706385 -0.028931981 -0.0048194407 0.15686485
-0.15779912 -0.12985691 0.0717497 -0.01708221 0.076397 0.008585907 -0.065355964 -0.12652183
-0.07633345 0.018060291 0.0901795 0.054343477 -0.0874575 -0.018871298 -0.11755928 0.077603385
-0.0413328 0.045186363 0.12850934 0.0221224 0.037545033 0.037997272 -0.114134826 -0.06411232
0.10074043 -0.049007595 -0.1046202 -0.00912231 0.011250498 0.008212448 0.0654667 0.12605561
0.13967103 -0.10432341 0.06602479 0.008041997 0.08159214 -0.062756285 -0.040925656 0.04543784
00000000: 0444 093d eccf 90bd eb50 7bbd cbf4 cf3c
00000010: 293e 3b3c e477 d5bd af51 8bbd 361f fe3c
00000020: 4e2d d7bd ea7f 2ebd 7b21 193d 66bc 45bd
00000030: 9f25 d33d d9b5 82bd 8f12 743d 5436 2bbd
00000040: 0867 9a3d bebb 933d 6af6 92bd 1e0b c83c
00000050: 69be 5d3d 9e6a a5bb ff68 293d 357b 55bc
00000060: 31a5 2d3d 3880 25bd 95d0 1b3d b6af ae3d
00000070: babb 0abe 200b aabb 4cbb 39bd a906 8bbd
00000080: 1414 a9bd 1989 1c3d c292 43bd 7b7f bd3d
00000090: 4dce 0e3c 3c14 79bd a028 3bbd 1987 95bd
000000a0: 2427 0f3d a6cb d23b c1e6 8a3d 54df fbb9
000000b0: 6fa7 083d 1329 503c db6d 833c 65d3 873d
000000c0: aa70 a03d d2a6 623d 1b20 b6bd bae0 333d
000000d0: 77e7 eaba 0222 b6bd ce1d 8ebd d45a 97bd
000000e0: 601f 4c3d d896 6f3d e2eb 5cbd 554a 973c
000000f0: 0564 783d 0861 8dba d8d6 64bd ddf9 3dbd
00000100: ebd8 87bd 0008 b93d b9d0 06bd d874 9a3d
00000110: 40a9 95bd 2f3a b13c 35ec 3e3b 9c2b 803d
00000120: b85a 333c 3c16 a0bb 5fe2 0dbd 5ff8 3bbc
00000130: e845 6a3d dfc1 ffbc 0ca3 293d ddf9 87bd
00000140: dbd8 08bd eb72 20bd ffe4 23bd 268b 273d
00000150: 79b9 63bd 878f debc 1f46 a1bd 878a 213c
00000160: 9a0d 45bd 67d3 3d3d 17ba 87bd 1847 fa3c
00000170: 8ca9 6dbb e48c ae3d b3a8 bf3d c14f 44bd
00000180: 2d32 13bd 85ea d2bb db27 4ebd 7ce7 acbd
00000190: 3745 62bd af2f 26bd 0afa ca3c 1f06 113a
000001a0: 3584 17bd 2d61 be3c 5ab4 623d f595 433d
000001b0: 942e 143d c21f fabc 4349 86bd 4352 173d
000001c0: 55ff 5f3c 4e6a 923d 282a 9cbd a0f6 213d
000001d0: 9e80 3dbd 7b15 783d e008 823c a210 ef3b
000001e0: 3f3d 43bd 1e3d 83bd 878f 17bd 6d10 603b
000001f0: 6b08 da3d bf64 0fbd 6d7f 66bd 5453 a9bd
00000200: 2a87 533e a5ba fb3d 52cd 0d3d be4b ee3d
00000210: b6aa b93d 0ba0 07bd 5c62 7dbe 1fd3 b2bc
00000220: 8113 033e 013e 9b3d 6061 03be 681e 28bd
00000230: 576e 31be e4d6 00bd 3f6b 973d 7651 dabb
00000240: 7a14 7abd a688 8f3d 0ed2 ee3d af5b d2ba
00000250: a442 963d 1832 a8bc d57c bbbd 5336 503d
00000260: 2e5f d2bd 95df 8bbd fbfe c13d 6741 13bd
00000270: 10ce 073d 25a5 ab3c eb3d 8d3d a26f c9bd
00000280: 9dcb a03d 1eec 3fbd 9684 f0bd 5d64 393d
00000290: 7095 073c cdd7 0dbd 7152 813d f444 bf3c
000002a0: 8b2c ba3d f8e8 9e3c d203 9cbd ff2b 0e3e
000002b0: 95ed 823c 6aa3 a83d fc6c f63d a527 91bd
000002c0: 5a3d 973d 9bf9 67bd 9234 54bd 4894 9d3d
000002d0: dd2d 0d3e cddf 9d3c 6b03 7ebd d3b0 0b3e
000002e0: 5904 a43b 4a49 bf3d a962 9c3c 0947 2cbd
000002f0: 907a c4bd 4e9d 3d3d bffc eabd 7f8d 1fbe
00000300: f457 ac3d d461 24be fd8e 1abe 6866 62bc
00000310: b23b 883b f1c7 16bd a253 b1bc 605f dabc
00000320: d1ef c0bc 2b8e 00bc 9ed1 3a3c f8cf e8bd
00000330: 07d9 15bd 3040 29be 3ed3 913d 3008 85bd
00000340: ee57 4fbc 42de f53d 1278 103e 3efa bbbd
00000350: 02b5 ddbc c302 edbc 66ec 9dbb 2ea1 203e
00000360: 1896 21be 36f9 04be 82f1 923d feef 8bbc
00000370: 0876 9c3d e7ab 0c3c 59d9 85bd f08e 01be
00000380: b654 9cbd 2df3 933c 08b0 b83d 4497 5e3d
00000390: eb1c b3bd fb97 9abc ebc2 f0bd 86ee 9e3d
000003a0: 954c 29bd 5615 393d f497 033e 093a b53c
000003b0: d2c8 193d 07a3 1b3d 85bf e9bd 524d 83bd
000003c0: 0051 ce3d 30bc 48bd 1e43 d6bd be75 15bc
000003d0: 0254 383c 818d 063c 6813 863d b914 013e
000003e0: ec05 0f3e 83a7 d5bd 0138 873d 95c2 033c
000003f0: c819 a73d 5e86 80bd a9a1 27bd 071d 3a3d

bias_ih f4 [384]
-0.002534547 0.04849998 0.036965422 0.06927129 0.03523585 0.051670965 -0.026720684 0.1017516
0.04599918 0.009060298 -0.0525956 0.12708662 0.13208194 -0.0198374 0.052001204 0.18432716
0.12197041 0.14220768 0.032749992 0.023007616 0.079699576 -0.01422675 -0.001081945 0.12420968
0.09579957 0.11852323 -0.010495382 -0.09800778 0.103385754 0.0980143 0.024489745 -0.07418667
0.053765554 0.15158902 0.040100846 0.12418533 0.017301634 0.0067079063 -0.03121153 -0.0017275077
-0.035107102 -0.0002015924 -0.03630914 0.10104588 0.06407659 0.07792815 -0.015662521 0.001604011
0.04456436 0.102490716 -0.016434006 -0.06326484 -0.0070418087 0.055654876 0.07493078 -0.02568038
-0.07848392 -0.032345656 -0.028449597 0.12495633 0.02977631 -0.009429036 0.047658194 0.05792763
0.009040241 0.046457075 0.08881106 -0.013772716 0.103090845 -0.020990629 0.09976893 0.027735872
0.041147675 -0.05498885 0.10728937 0.1390338 -0.08042459 -0.038827352 -0.046903253 -0.029567901
0.0872413 0.074700154 0.018685086 -0.011096736 0.092411086 -0.10363346 -0.009857387 0.032047313
0.1302447 0.06893477 0.03798952 0.10019755 0.06832709 0.0005535426 0.19906789 0.043138716
-0.019068707 0.0017692862 0.014151844 0.060128763 -0.021192877 -0.03262291 0.08885864 0.06178785
-0.007485345 0.069980256 0.14382012 -0.04356226 0.07351181 0.027543923 0.0972309 -0.055197127
-0.008911871 0.120666414 -0.003763903 0.12772085 -0.053194407 0.05082036 0.09148587 0.1245106
0.15180439 0.037643295 -0.020066855 0.03189788 -0.04992301 -0.051856525 0.015089626 0.018035783
-0.022257993 -0.045025002 0.09245405 0.030025713 -0.008295472 -0.016018191 -0.017874826 -0.026967548
-0.07277606 -0.060190614 0.07474064 -0.06760747 -0.14633909 0.025964681 -0.047694813 -0.0484952
-0.094883375 -0.074807495 -0.02910284 -0.059190348 -0.032405153 0.10042139 -0.040140145 -0.025202546
0.03942197 -0.08382359 -0.058283627 -0.1438933 -0.106551245 0.076697394 -0.015048978 0.055602185
-0.17937112 -0.043864623 0.006284155 -0.07302293 0.042492077 -0.13788866 -0.0067553106 -0.035696637
-0.0041257283 0.026670095 0.048602205 0.049978714 -0.03166811 -0.028255945 0.025857957 0.022499382
-0.02336584 -0.12441302 0.033397485 -0.015555354 -0.11078186 -0.09181109 -0.05541499 -0.081851594
-0.054220755 0.07977417 0.025979334 0.03941486 -0.13696426 -0.11943073 -0.054378208 -0.030520968
-0.08437543 -0.1352671 -0.027838606 -0.022232471 -0.029504336 0.11164887 -0.07047333 0.079773694
0.05102645 -0.043582786 0.06456304 -0.08985909 0.07111875 -0.078259766 0.0068725776 -0.03295606
0.14080733 0.0012178164 -0.054730467 0.08691028 -0.12540643 -0.05046004 0.026822992 0.030725785
0.085356794 -0.049699426 -0.059817024 -0.025334403 0.050449923 -0.09828964 -0.062013213 0.034530222
-0.041856565 -0.038954508 -0.05213806 -0.021122048 0.0790352 0.027090818 -0.01751814 0.02993304
-0.017945116 0.053664923 0.12222723 0.018813897 -0.082782224 -0.058125436 -0.082105555 0.038401656
0.013365924 0.042627342 -0.09707422 -0.16778682 -0.032088853 -0.0093261385 -0.056051392 -0.045546055
0.0036667334 -0.077288315 -0.009057021 0.014656368 0.061480116 0.04583491 -0.075673446 -0.103179656
00000000: a41a 26bb eaa7 463d 0e69 173d 1bde 8d3d
00000010: 7753 103d efa4 533d 56e5 dabc 2563 d03d
00000020: a369 3c3d a571 143c 7c6e 57bd ff22 023e
00000030: 7d40 073e 0b82 a2bc 37ff 543d 42c0 3c3e
00000040: 9fcb f93d e49e 113e db24 063d 787a bc3c
00000050: 8839 a33d 5017 69bc 0dd0 8dba a561 fe3d
00000060: 9132 c43d 4fbc f23d d3f4 2bbc 4eb8 c8bd
00000070: e9bb d33d b9bb c83d b89e c83c 2eef 97bd
00000080: 4539 5c3d 273a 1b3e c940 243d e154 fe3d
00000090: 28bc 8d3c ffcd db3b 53af ffbc 8a6d e2ba
000000a0: 77cc 0fbd 8c62 53b9 e5b8 14bd 24f1 ce3d
000000b0: 963a 833d cb98 9f3d b04e 80bc ae3d d23a
000000c0: 1e89 363d a7e6 d13d 9ca0 86bc ff90 81bd
000000d0: f9be e6bb 5ef6 633d 4f75 993d a95f d2bc
000000e0: 2dbc a0bd e17c 04bd 210f e9bc 1be9 ff3d
000000f0: 73ed f33c 3e7c 1abc 3d35 433d 8645 6d3d
00000100: 851d 143c c649 3e3d 93e2 b53d f5a6 61bc
00000110: 4b21 d33d 8af4 abbc a753 cc3d 5736 e33c
00000120: 778a 283d fd3b 61bd 87ba db3d e05e 0e3e
00000130: a6b5 a4bd 6e09 1fbd a01d 40bd 6238 f2bc
00000140: 91ab b23d 65fc 983d 7711 993c 16cf 35bc
00000150: 0642 bd3d c83d d4bd e180 21bc 0b44 033d
00000160: de5e 053e ac2d 8d3d e69a 1b3d 6034 cd3d
00000170: 13ef 8b3d 9d1b 113a 74d8 4b3e 39b2 303d
00000180: fa35 9cbc 65e7 e73a 23dd 673c 9449 763d
00000190: af9c adbc 9a9f 05bd 85fb b53d 4215 7d3d
000001a0: a047 f5bb cf51 8f3d 9545 133e 576e 32bd
000001b0: 5c8d 963d cba3 e13c fe20 c73d 6216 62bd
000001c0: 1903 12bc f41f f73d d0ab 76bb 41c9 023e
000001d0: 61e2 59bd 0329 503d f25c bb3d 6aff fe3d
000001e0: 9c72 1b3e db2f 1a3d 3f63 a4bc 5aa7 023d
000001f0: 127c 4cbd 8267 54bd 7b3a 773c c7bf 933c
00000200: 6556 b6bc 236c 38bd 8d58 bd3d 7cf8 f53c
00000210: bbe9 07bc 9538 83bc 3a6e 92bc 0ceb dcbc
00000220: 9d0b 95bd 6f8a 76bd 9f11 993d c975 8abd
00000230: ead9 15be e2b3 d43c a35b 43bd e7a2 46bd
00000240: 3752 c2bd ac34 99bd 1469 eebc 9471 72bd
00000250: 44bb 04bd bba9 cd3d fe69 24bd 9275 cebc
00000260: ee78 213d b4ab abbd d0ba 6ebd c458 13be
00000270: 8a37 dabd 8613 9d3d fd8f 76bc 1ebf 633d
00000280: 10ad 37be 64ab 33bd 50eb cd3b 0c8d 95bd
00000290: 2c0c 2e3d af32 0dbe a75b ddbb a336 12bd
000002a0: 1e31 87bb 3e7b da3c 1b13 473d 7bb6 4c3d
000002b0: 6cb6 01bd 0379 e7bc 11d4 d33c a050 b83c
000002c0: b869 bfbc 41cc febd cdcb 083d e2db 7ebc
000002d0: 9ae1 e2bd 7407 bcbd d4fa 62bd cfa1 a7bd
000002e0: 9516 5ebd a460 a33d 9dd2 d43c 7a71 213d
000002f0: 5c40 0cbe 1998 f4bd afbb 5ebd 1c07 fabc
00000300: 07cd acbd 7583 0abe ca0d e4bc df20 b6bc
00000310: 14b3 f1bc 2aa8 e43d 5254 90bd 6460 a33d
00000320: 1c01 513d dd83 32bd a139 843d 0b08 b8bd
00000330: b5a6 913d a846 a0bd 5c33 e13b effc 06bd
00000340: cc2f 103e 239f 9f3a 0e2d 60bd 04fe b13d
00000350: 8b6a 00be 30af 4ebd e4bb db3c a4b4 fb3c
00000360: 8bcf ae3d a091 4bbd b202 75bd 188a cfbc
00000370: 94a4 4e3d 144c c9bd 9101 7ebd 906f 0d3d
00000380: ca71 2bbd c38e 1fbd b88e 55bd 2508 adbc
00000390: 35dd a13d 90ed dd3c 3482 8fbc 2236 f53c
000003a0: a301 93bc c0cf 5b3d 4552 fa3d 9a1f 9a3c
000003b0: ba89 a9bd f014 6ebd f526 a8bd 0e4b 1d3d
000003c0: c0fc 5a3c 029a 2e3d d9ce c6bd 4fd0 2bbe
000003d0: 9a6f 03bd a9cc 18bc 2596 65bd 808e 3abd
000003e0: 944d 703b 5649 9ebd e663 14bc 4321 703c
000003f0: 93d2 7b3d 63bd 3b3d aefa 9abd db4f d3bd

bias_hh f4 [384]
0.01440829 0.116026185 -0.028693683 0.08446053 -0.04425429 0.1125218 0.026937203 -0.025167216
0.056793325 -0.020075127 0.07226411 0.013530649 0.17219372 0.040062297 -0.048331097 0.046032365
0.015841043 0.050306134 0.013853651 0.16127577 0.08106344 -0.036730733 0.004723633 -0.002397587
0.030993879 0.010829131 0.010282469 -0.05197932 -0.055198383 0.044875428 -0.01266134 -0.020845193
0.13374239 0.14206342 0.14173637 0.07572764 0.078316845 0.0036348598 0.101122774 0.043583553
0.039510578 0.015856426 0.10886497 0.013631473 0.067943715 0.09843833 0.03879807 -0.038932946
-0.07328149 -0.055789754 0.0524925 0.057892676 0.14196877 0.15288894 0.11884616 0.005830881
-0.04839807 0.051190183 0.08193214 0.16012537 -0.027211593 0.07304246 -0.025242424 0.07409819
0.123109505 0.015556324 0.09402056 -0.021834908 -0.037633672 -0.07505214 0.017513521 0.017046388
0.017806884 -0.037178934 0.11714507 0.08629611 -0.08167462 -0.037930056 0.093864955 -0.07992339
0.0134004 0.08569624 -0.0043716785 0.052122395 0.07809071 -0.010485563 0.13685405 0.10671311
0.10790039 0.14266942 0.1076159 -0.06994603 0.1439406 0.06006648 0.14555919 -0.0062968936
-0.036947306 0.051778898 -0.07945901 0.15371521 0.055513144 -0.037587363 0.088897996 -0.029112076
0.08114295 -0.034193575 0.15004188 0.07671831 0.18606359 -0.04173869 0.0951729 0.049536884
-0.02384478 0.056409977 0.03777277 0.09949203 0.045068596 0.1331901 0.14925908 0.04312831
0.124948554 0.07225675 0.1269536 0.09339578 0.05955552 -0.015651131 0.071211785 0.03407124
0.0023012545 -0.028919594 0.012885979 -0.004152735 0.061068106 -0.101590045 0.040027704 0.07096328
-0.06865303 -0.14447999 0.049485233 0.045905706 -0.1987739 0.0429621 0.062267613 -0.041719154
-0.032982204 -0.065574646 -0.03827993 -0.08774614 -0.06799078 0.0011663502 -0.014246415 0.031871445
0.0017158021 -0.108935766 -0.015127972 -0.0575195 -0.07577935 0.07835146 0.07250205 -0.1044718
-0.07048381 -0.11524717 -0.057973403 -0.09749844 0.027850982 -0.120870195 0.10023789 -0.0016007009
0.037770614 0.004662213 -0.08436308 -0.015268982 -0.03506241 -0.038337722 -0.06830536 -0.063927166
-0.02493815 -0.11154838 -0.05296777 0.09749813 -0.11370986 -0.058411673 0.0025216143 0.06397138
0.07470571 0.068007566 0.083523884 -0.028546728 -0.078134105 0.040424153 0.026460797 0.014205581
-0.04658827 -0.10669262 -0.03153946 0.006568799 0.02287962 0.011028348 0.067785546 0.034201544
-0.039333068 0.031962167 0.003003943 -0.10626536 -0.060697287 -0.0062693823 0.0039260276 0.0020205684
0.09234907 -0.044840496 0.026255028 0.0065696165 0.009030868 0.0064898245 0.039303165 -0.08656487
-0.07993571 0.04732527 -0.061700292 0.06662648 -0.040766906 -0.019605376 0.027959943 0.006839598
0.048297703 0.025580443 -0.06767762 -0.004011978 0.027864464 0.055629004 0.054457426 -0.008736605
-0.04923832 0.037167523 0.028027395 -0.075193174 -0.083942935 0.05750067 0.019247899 0.008027523
-0.047991544 -0.031215128 -0.079903975 -0.17827547 0.011296392 -0.030543365 -0.0599263 -0.022986244
-0.09968379 -0.0056647165 -0.059604734 0.06224329 -0.01543942 -0.01375009 -0.03478467 -0.10850199
00000000: c010 6c3c 239f ed3d 040f ebbc a4f9 ac3d
00000010: fd43 35bd d471 e63d 69ab dc3c 7a2b cebc
00000020: 1ea0 683d 9874 a4bc 35ff 933d a8af 5d3c
00000030: 8d53 303e 5d18 243d d4f6 45bd 6f8c 3c3d
00000040: 13c5 813c ce0d 4e3d 6cfa 623c 7a25 253e
00000050: 9704 a63d f772 16bd b5c8 9a3b d620 1dbb
00000060: e0e6 fd3c ab6c 313c cd77 283c 44e8 54bd
00000070: b317 62bd 4ccf 373d 8271 4fbc 8ac3 aabc
00000080: c4f3 083e 1379 113e 5723 113e 1817 9b3d
00000090: 9564 a03d d436 6e3b 7519 cf3d ab84 323d
000000a0: d8d5 213d 56e5 813c 99f4 de3d 8b56 5f3c
000000b0: 1326 8b3d 099a c93d baea 1e3d 2778 1fbd
000000c0: 9b14 96bd cc83 64bd 6002 573d df20 6d3d
000000d0: 4360 113e eb8e 1c3e 9e65 f33d fa10 bf3b
000000e0: 0e3d 46bd ccac 513d 0acc a73d e8f7 233e
000000f0: d9ea debc 4997 953d 33c9 cebc cbc0 973d
00000100: d620 fc3d f4df 7e3c da8d c03d 1fdf b2bc
00000110: c425 1abd f0b4 99bd 8478 8f3c dea4 8b3c
00000120: bedf 913c f048 18bd c1e9 ef3d 04bc b03d
00000130: 0645 a7bd 8c5c 1bbd 453c c03d e0ae a3bd
00000140: 5a8d 5b3c 8381 af3d 4c40 8fbb 4b7e 553d
00000150: 06ee 9f3d a4cb 2bbc 7823 0c3e 678c da3d
00000160: e1fa dc3d ef17 123e ba65 dc3d dd3f 8fbd
00000170: 2a65 133e 4508 763d 780d 153e 2c56 cebb
00000180: 0f56 17bd 1c16 543d 68bb a2bd 8567 1d3e
00000190: c061 633d 35f5 19bd 2710 b63d 737c eebc
000001a0: 462e a63d 900e 0cbd 94a4 193e 7d1e 9d3d
000001b0: 7487 3e3e 30f6 2abd 02ea c23d 30e7 4a3d
000001c0: 2156 c3bc 260e 673d 9fb7 1a3d 7ac2 cb3d
000001d0: d999 383d fc62 083e 5fd7 183e 50a7 303d
000001e0: 07e5 ff3d 59fb 933d 2000 023e 4946 bf3d
000001f0: 7df0 733d cd36 80bc 7cd7 913d 498e 0b3d
00000200: a5d0 163b c9e8 ecbc b71f 533c ab13 88bb
00000210: 8d22 7a3d 710e d0bd 17f4 233d 3255 913d
00000220: f699 8cbd 90f2 13be 07b1 4a3d 9f07 3c3d
00000230: 638b 4bbe 07f9 2f3d 530c 7f3d b4e1 2abd
00000240: 5918 07bd 004c 86bd 6acb 1cbd 40b4 b3bd
00000250: c03e 8bbd 38e0 983a cc69 69bc a28b 023d
00000260: c4e4 e03a b719 dfbd 50db 77bc 9199 6bbd
00000270: 3432 9bbd bb76 a03d f47b 943d 50f5 d5bd
00000280: d159 90bd b506 ecbd 8575 6dbd 43ad c7bd
00000290: be27 e43c cb8a f7bd 8649 cd3d 9cce d1ba
000002a0: 5cb5 1a3d 7ac5 983b 8dc6 acbd c12a 7abc
000002b0: 9a9d 0fbd 0408 1dbd aee3 8bbd 3fec 82bd
000002c0: 174b ccbc 7a73 e4bd bbf4 58bd 19ad c73d
000002d0: b7e0 e8bd 1441 6fbd ab41 253b 6d03 833d
000002e0: 4fff 983d 8d47 8b3d 920e ab3d d4da e9bc
000002f0: c604 a0bd cc93 253d 50c4 d83c 86be 683c
00000300: 58d3 3ebd a981 dabd 852f 01bd 143f d73b
00000310: 0a6e bb3c 3eb0 343c 26d3 8a3d eb16 0c3d
00000320: b61b 21bd c3ea 023d cddd 443b a7a1 d9bd
00000330: b89d 78bd 646f cdbb e8a5 803b 836b 043b
00000340: 8221 bd3d abaa 37bd c914 d73c f045 d73b
00000350: 35f6 133c 98a8 d43b 5bfc 203d ec48 b1bd
00000360: 55b5 a3bd 24d8 413d 72b9 7cbd 7773 883d
00000370: 33fb 26bd 749b a0bc 400c e53c b51e e03b
00000380: d0d3 453d 148e d13c 909a 8abd e976 83bb
00000390: 0444 e43c 3ddb 633d c00e 5f3d fa23 0fbc
000003a0: 1fae 49bd f93c 183d b599 e53c e1fe 99bd
000003b0: 46ea abbd d385 6b3d c5ad 9d3c df85 033c
000003c0: c892 44bd deb6 ffbc b2a4 a3bd d88d 36be
000003d0: 8114 393c 1436 fabc 4875 75bd a64d bcbc
000003e0: 0427 ccbd 169f b9bb 1824 74bd d2f2 7e3d
000003f0: 9ff5 7cbc 0f48 61bc 5f7a 0ebd 4b36 debd

weight f4 [128, 128]
0.0016608514 0.0664002 0.09447182 0.0384163 -0.022624854 0.116053514 -0.02369331 0.037325755
0.14593047 0.06642995 0.055208378 0.14172503 -0.1376366 0.029235521 -0.057283126 -0.14333975
-0.10069686 0.018048218 0.021420773 0.081792586 -0.093454696 -0.13880824 0.15100501 0.045546435
-0.020704588 0.05536446 -0.07745135 0.03921633 -0.045955308 -0.07391159 -0.08584682 -0.047719155
0.0146152945 -0.009479088 -0.039448507 0.020018267 -1.8355494e-06 -0.057404313 -0.1944186 0.03079427
0.045393065 -0.12641206 0.035689585 -0.025525449 -0.002998507 0.010621491 0.011852681 -0.016354352
0.063916475 0.011770139 0.05816531 -0.08137977 -0.009777292 0.013697379 0.048373997 -0.038887464
-0.09269499 0.058976647 0.042865828 0.03249831 0.002542246 0.07195667 0.075093575 -0.062639974
-0.10412151 0.041699275 0.04648577 -0.027319435 -0.08283708 -0.057779312 0.031208644 -0.048603438
0.02136303 0.067367 -0.050800495 -8.568855e-06 0.010389833 0.018429227 0.0035596704 0.11848377
0.066951446 0.088180825 -0.035521284 -0.04767518 0.024918005 0.10190813 0.047532912 -0.07165248
0.044537906 0.032183733 0.03303894 0.088186145 0.08013855 -0.094458684 -0.07650706 -0.07383167
0.0800534 -0.022747658 0.019716678 -0.005119776 0.014687107 0.019688692 0.039340887 -7.892893e-05
0.036078557 0.0876198 0.07327856 -0.009286645 0.084317215 -0.062669486 -0.026637373 0.011145514
-0.03557127 0.06543633 0.0592376 -0.056505393 0.02160503 0.06818248 -0.1569675 -0.02336208
-0.078602046 -0.019526666 -0.09447539 0.008926922 0.060483437 -0.0042080963 -0.0913847 -0.07197335
0.12795262 -0.028536255 0.004624914 -0.029520918 -0.04673265 0.07578236 -0.05874024 -0.046046037
0.12154304 -0.071076006 0.062771305 0.020156156 -0.12180706 0.00090934755 0.01258535 -0.1642682
0.00092949846 -0.04105307 -0.13102092 0.066757515 -0.037842494 0.0019849818 -0.021256102 0.047253266
0.006997093 -0.10284265 -0.09393247 -0.039023183 0.10008362 0.052600402 -0.06625344 0.10277018
0.15705061 0.03199411 0.08825393 -0.035825398 -0.09559182 0.009483563 0.007418712 -0.0016269278
0.036707558 -0.05228355 -0.048349887 0.07178707 -0.0347534 -0.07053965 0.07040223 -0.09785401
-0.07085459 -0.011338576 -0.032000102 -0.08648369 -0.031326197 -0.04909273 -0.025327584 0.02701502
0.05012758 0.07892245 0.055830378 -0.075247705 0.030677712 -0.0466983 -0.08207233 0.02984682
-0.04710255 -0.039215613 -0.055455893 0.09805426 0.059029717 -0.10313555 0.022242762 -0.032951586
0.027152438 -0.04988382 -0.023425128 0.04689932 -0.066815 -0.03331879 0.060056914 -0.003857269
0.07629528 0.060684368 0.034844562 0.08432372 -0.003426737 -0.07713723 0.027091403 0.09177383
-0.08790444 -0.026845941 0.07629398 -0.020404002 -0.01673027 -0.117233105 -0.027096828 0.07884222
0.0800028 0.112445846 0.06497788 -0.00783085 -0.07217343 -0.058894895 0.030378766 -0.049817927
0.14332594 -0.029263267 0.067744486 -0.014735213 0.1955259 0.10216844 -0.07777392 -0.03623753
0.058120806 0.10140826 0.02196363 -0.09692385 -0.014672102 0.08721619 -0.06985639 0.010269751
-0.049820084 0.08293254 -0.08726614 -0.014445307 -0.13248822 -0.056871247 0.0021275217 0.015380921
00000000: edb0 d93a d4fc 873d 717a c13d 695a 1d3d
00000010: c257 b9bc 77ad ed3d 7918 c2bc e4e2 183d
00000020: cc6e 153e 6d0c 883d 2e22 623d 5e20 113e
00000030: 9cf0 0cbe 557f ef3c b6a1 6abd a8c7 12be
00000040: 283a cebd dbd9 933c 9e7a af3c df82 a73d
00000050: 2d65 bfbd bf23 0ebe 0fa1 1a3e e68e 3a3d
00000060: ab9c a9bc d8c5 623d d09e 9ebd 4da1 203d
00000070: a23b 3cbd f65e 97bd 75d0 afbd 2975 43bd
00000080: fd74 6f3c 2d4e 1bbc c294 21bd 59fd a33c
00000090: ff5c f6b5 c920 6bbd ab15 47be 4444 fc3c
000000a0: 14ee 393d 2a72 01be 3e2f 123d bf1a d1bc
000000b0: 9a82 44bb c305 2e3c bf31 423c 90f9 85bc
000000c0: a4e6 823d 8bd7 403c c03e 6e3d 70aa a6bd
000000d0: ef30 20bc f96a 603c d023 463d 7648 1fbd
000000e0: dfd6 bdbd 7f91 713d 1494 2f3d f31c 053d
000000f0: cf9b 263b 055e 933d a9ca 993d 6349 80bd
00000100: a93d d5bd dccc 2a3d dd67 3e3d 02cd dfbc
00000110: 7da6 a9bd 00aa 6cbd 45a9 ff3c 6614 47bd
00000120: 8501 af3c b6f7 893d 2e14 50bd f4c2 0fb7
00000130: 1e3a 2a3c e4f8 963c 5c49 693b 9ea7 f23d
00000140: d71d 893d 2698 b43d c47e 11bd 0d47 43bd
00000150: d820 cc3c 36b5 d03d dfb1 423d 89be 92bd
00000160: 616d 363d 17d3 033d d753 073d f09a b43d
00000170: ae1f a43d 8e73 c1bd bcaf 9cbd 0f35 97bd
00000180: 09f3 a33d 4c59 babc df84 a13c cbc3 a7bb
00000190: 31a2 703c 2e4a a13c e923 213d a686 a5b8
000001a0: 1cc7 133d 0272 b33d 1213 963d 0327 18bc
000001b0: 81ae ac3d dc58 80bd 9f36 dabc ad9b 363c
000001c0: 2eb3 11bd 7c03 863d 20a3 723d 3372 67bd
000001d0: 08fd b03c 42a3 8b3d 17bc 20be d561 bfbc
000001e0: 1cfa a0bd 63f6 9fbc 507c c1bd 3a42 123c
000001f0: 7bbd 773d 12e4 89bb e727 bbbd c466 93bd
00000200: 0306 033e ddc4 e9bc 978c 973b dad5 f1bc
00000210: bc6a 3fbd c833 9b3d 9b99 70bd c59a 3cbd
00000220: 8feb f83d 4c90 91bd 3e8e 803d 861e a53c
00000230: fb75 f9bd 4861 6e3a c932 4e3c ec35 28be
00000240: 96a9 733a 4427 28bd 592a 06be 2ab8 883d
00000250: bb00 1bbd 7816 023b 4721 aebc a48c 413d
00000260: df47 e53b 2b9f d2bd ab5f c0bd c6d6 1fbd
00000270: a4f8 cc3d 8573 573d e2af 87bd 2c79 d23d
00000280: e0d1 203e 420c 033d 7abe b43d a7bd 12bd
00000290: a5c5 c3bd f260 1b3c ab18 f33b a33e d5ba
000002a0: aa5a 163d 4727 56bd 880a 46bd 1905 933d
000002b0: 9559 0ebd 1877 90bd 0b2f 903d af67 c8bd
000002c0: 361c 91bd 6fc5 39bc 8a12 03bd 5c1e b1bd
000002d0: e64f 00bd 7515 49bd cb7b cfbc 9a4e dd3c
000002e0: 9452 4d3d 18a2 a13d 65ae 643d 781b 9abd
000002f0: d34f fb3c b746 3fbd 8a15 a8bd 5181 f43c
00000300: 9aee 40bd 8da0 20bd b825 63bd acd0 c83d
00000310: 25c9 713d bb38 d3bd 7436 b63c 3ef8 06bd
00000320: ca6e de3c fa52 4cbd 0ee6 bfbc 8019 403d
00000330: 4dd6 88bd 4979 08bd 3dfe 753d 3cca 7cbb
00000340: b340 9c3d 2c90 783d 2cb9 0e3d eab1 ac3d
00000350: 1b93 60bb 20fa 9dbd caee dd3c ebf3 bb3d
00000360: 3e07 b4bd 05ec dbbc 0540 9c3d 4b26 a7bc
00000370: eb0d 89bc e917 f0bd 2bfa ddbc 0878 a13d
00000380: 82d8 a33d 024a e63d 1f13 853d f74c 00bc
00000390: aacf 93bd c63b 71bd e4dc f83c e20d 4cbd
000003a0: 09c4 123e 85b9 efbc 9fbd 8a3d f66b 71bc
000003b0: f137 483e b03d d13d ef47 9fbd ce6d 14bd
000003c0: 1510 6e3d 22af cf3d 12ed b33c 0380 c6bd
000003d0: 4263 70bc 679e b23d de10 8fbd 7542 283c
000003e0: 2510 4cbd 89d8 a93d 97b8 b2bd 02ac 6cbc
000003f0: feaa 07be d3f1 68bd e46d 0b3b 4200 7c3c

bias f4 [128]
-0.04964807 -0.017730046 0.07793302 -0.030480385 0.012143719 0.03926034 -0.06490438 0.06557438
-0.09369491 -0.07322423 -0.03616246 -0.12824446 0.02094919 -0.13780281 0.050544925 -0.02763027
-0.041863594 -0.01572128 -0.0042464603 0.016090797 -0.04317809 -0.03544264 0.06143095 -0.03635919
-0.033841804 -0.12823972 -0.04650511 0.052186757 0.030834893 0.061381817 0.010925932 0.013066595
0.049646724 0.091255665 -0.1135984 0.01573136 -0.05038132 0.0009864161 0.017544754 0.027422594
-0.07642571 -0.019612938 -0.026427932 -0.004011868 -0.012485407 0.046715323 -0.07463173 0.022506846
-0.06269503 -0.06941473 -0.12700245 0.07821721 -0.09535183 -0.07048085 0.062594995 0.0064216196
0.036740083 -0.15006238 -0.13793232 -0.080220334 -0.08150197 0.070546344 0.05424173 0.014528447
-0.09045635 -0.121889144 0.082413845 -0.1076969 0.092559375 -0.025175719 -0.0073850243 0.051160317
0.020855427 0.15242837 0.044716164 0.026506683 0.033555415 -0.079708375 0.005375281 -0.02061832
0.07149817 0.051586617 -0.01762363 0.09365571 -0.08727919 0.0085899355 0.07264304 -0.11573061
-0.06518239 0.06908054 0.021646958 0.008788647 0.028605498 -0.017843023 -0.014454046 0.0034858107
0.012987783 -0.07616446 0.0140368035 -0.035324976 -0.099895455 -0.0061979266 -0.055721927 0.030368421
-0.06311232 -0.072896145 -0.10063722 -0.0003201355 0.010366903 -0.039624784 0.09128328 -0.06394929
0.023317695 -0.0787261 -0.031554863 -0.13318954 -0.10935538 0.0544652 -0.060459208 -0.052622557
-0.04469327 -0.08101361 -0.011660059 -0.017243749 -0.10932194 -0.03768784 0.016599776 -0.037813216
00000000: c65b 4bbd 9a3e 91bc 599b 9f3d 00b2 f9bc
00000010: 73f6 463c 73cf 203d 96ec 84bd dc4b 863d
00000020: 1ee3 bfbd 96f6 95bd 161f 14bd 8452 03be
00000030: a39d ab3c 2e1c 0dbe 3208 4f3d e058 e2bc
00000040: 2979 2bbd eac9 80bc e425 8bbb d9d0 833c
00000050: 82db 30bd 4d2c 11bd 059f 7b3d 60ed 14bd
00000060: b49d 0abd 4651 03be 247c 3ebd c8c1 553d
00000070: 7599 fc3c 806b 7b3d ae02 333c 4615 563c
00000080: 5d5a 4b3d 40e4 ba3d 47a6 e8bd 0edf 803c
00000090: a55c 4ebd a24a 813a 04ba 8f3c 59a5 e03c
000000a0: 1585 9cbd 50ab a0bc 647f d8bc fd75 83bb
000000b0: 988f 4cbc 9158 3f3d 85d8 98bd 4760 b83c
000000c0: 4066 80bd 4f29 8ebd ee0c 02be 5830 a03d
000000d0: d247 c3bd 4458 90bd ce31 803d 736c d23b
000000e0: c57c 163d f4a9 19be 213e 0dbe 8f4a a4bd
000000f0: 81ea a6bd 9a7a 903d 942c 5e3d b908 6e3c
00000100: 2e41 b9bd 04a1 f9bd 97c8 a83d 3190 dcbd
00000110: c58f bd3d 4f3d cebc 13fe f1bb 7b8d 513d
00000120: 00d9 aa3c 2f16 1c3e 4c28 373d 8b24 d93c
00000130: 6771 093d 253e a3bd 2023 b03b c0e7 a8bc
00000140: a26d 923d 7d4c 533d 6e5f 90bc 91ce bf3d
00000150: 6fbf b2bd cdbc 0c3c e0c5 943d 2c04 edbd
00000160: 587e 85bd 197a 8d3d f654 b13c 42fe 0f3c
00000170: 1456 ea3c 882b 92bc aad0 6cbc 3372 643b
00000180: b6ca 543c 1dfc 9bbd 9ffa 653c ecb0 10bd
00000190: fd95 ccbd fa17 cbbb ad3c 64bd 32c7 f83c
000001a0: 0841 81bd 934a 95bd e31a cebd dcd7 a7b9
000001b0: f1d9 293c 994d 22bd baf2 ba3d d8f7 82bd
000001c0: c004 bf3c 263b a1bd ac3f 01bd d762 08be
000001d0: b7f5 dfbd e716 5f3d 13a4 77bd c08a 57bd
000001e0: 4a10 37bd 77ea a5bd d509 3fbc c342 8dbc
000001f0: 2ee4 dfbd 915e 1abd 41fc 873c 08e2 1abd

weight f4 [128, 128]
-0.012975115 0.04834521 0.075940706 -0.050841637 -0.06073092 -0.06734159 -0.12587388 -0.082074545
-0.1613447 -0.022399561 -0.026050659 -0.17788266 -0.037808612 -0.14409433 -0.01627426 -0.040157508
-0.11589605 -0.099439494 -0.08479826 -0.114564635 -0.06438846 -0.13841426 0.00250181 0.11371122
-0.16310215 -0.022128813 -0.09917474 -0.0048254994 -0.070258446 -0.15954837 -0.042263344 -0.0042064735
0.077413306 -0.038285535 -0.032660957 -0.11722457 -0.13347179 -0.14894567 0.010858321 0.021996364
-0.097460255 -0.12703587 0.05958036 -0.18959293 0.17574151 -0.06704508 -0.06564891 0.03906694
-0.04142414 0.010204393 -0.14142345 0.1379478 -0.12255621 -0.06469125 0.104737416 0.06382425
-0.16540594 -0.14346036 -0.15514024 -0.06550019 -0.12705895 -0.03318494 -0.08246006 0.12395599
0.04994009 -0.010547098 0.036726426 -0.043223742 0.14252302 -0.06396815 -0.028550338 0.062346738
0.11838681 0.12782344 -0.07478798 0.13107866 0.064391136 -0.045552645 -0.14316416 -0.10344666
0.08474834 0.011975753 -0.057991054 -0.025918275 -0.17701617 0.081678934 0.08491267 0.027424943
-0.057242297 0.10757564 -0.057805117 -0.031164115 -0.048546325 0.02748894 -8.658278e-05 -0.06748364
0.16544235 0.062080365 0.052508105 -0.057391968 -0.11522524 -0.13703568 -0.1825106 0.0074129407
-0.14904886 -0.04382604 -0.015314776 -0.0705566 -0.058268875 0.029046588 -0.05774179 0.09690337
0.059432127 0.12219313 0.10492704 -0.10505915 -0.076144055 0.012542857 -0.0465164 0.01209679
0.038051292 0.008866975 0.09435713 -0.123623125 -0.15703984 0.1144627 -0.0043323166 -0.13981701
-0.080257945 -0.0711115 -0.10302927 -0.051285304 -0.007044266 0.028904345 0.06813655 0.031328455
0.08490663 0.06366898 0.019161884 -0.0055027744 -0.014761134 0.04242921 -0.039428603 0.05021331
0.09335736 0.06425562 0.038971476 -0.01947733 -0.036529776 0.009378287 0.041481245 -0.02243107
0.014480927 0.05564874 0.0025400836 -0.0062376396 -0.047431108 0.053761065 0.096807085 0.019592708
-0.091623895 -0.06469614 0.028817916 0.060429513 0.04601486 -0.019157318 0.047670968 -0.04575077
0.0010620955 0.022954073 -0.026392814 -0.031405326 -0.08029157 0.022338808 -0.029776836 0.016850846
0.025936961 0.033566777 -0.05519896 -0.019682998 0.06179404 -0.0038177394 -0.072909966 0.057720363
-0.008776356 0.083356045 0.05354585 -0.012892104 -0.029735142 0.0034477378 0.033305492 0.06725865
0.008375505 0.099667884 0.03962538 -0.026709639 -0.05171501 0.032143094 -0.012095757 0.056198005
-0.05884312 -0.0016124109 -0.033764582 0.0056732832 -0.09106552 0.08026924 -0.00990863 0.043471787
-0.07788903 0.029578196 0.0030480684 0.032412615 0.052751254 0.009706238 -0.012409731 0.06734073
0.106477715 -0.016679317 0.06955323 0.060703833 -0.0067033325 0.022851555 -0.027319232 0.036160197
-0.09471241 -0.030908484 0.0068030306 -0.03240909 0.07739741 0.060821973 0.06446352 -0.07932721
0.057047818 0.06718486 -0.035820633 0.08368942 -0.006366724 -0.07706638 -0.057178635 0.006061916
-0.02989836 0.0271944 -0.061830766 0.08114569 -0.028079124 -0.015909823 0.08747153 0.06158797
0.047624584 0.054893788 -0.011148209 -0.013166154 -0.0024115248 0.0008850826 -0.045950636 -0.012847948
00000000: 9495 54bc a005 463d cd86 9b3d 523f 50bd
00000010: fcc0 78bd 63ea 89bd 15e5 00be b316 a8bd
00000020: 8c37 25be 497f b7bc 3168 d5bc df26 36be
00000030: 34dd 1abd 778d 13be 9951 85bc 337c 24bd
00000040: e95a edbd efa6 cbbd b6aa adbd dda0 eabd
00000050: 19de 83bd 78bc 0dbe 68f5 233b 6ee1 e83d
00000060: 4004 27be 7c47 b5bc 201c cbbd 391f 9ebb
00000070: a9e3 8fbd a660 23be 541c 2dbd 75d6 89bb
00000080: de8a 9e3d 4bd1 1cbd 7fc7 05bd 6f13 f0bd
00000090: d4ac 08be 3785 18be 19e7 313c b831 b43c
000000a0: 3e99 c7bd b115 02be 890a 743d a624 42be
000000b0: 95f5 333e ee4e 89bd f072 86bd a804 203d
000000c0: 5cac 29bd 5430 273c 4fd1 10be 3042 0d3e
000000d0: c0fe fabd d97c 84bd 9280 d63d 4ab6 823d
000000e0: 2d60 29be 46e7 12be 15dd 1ebe f724 86bd
000000f0: be1b 02be efec 07bd d2e0 a8bd a3dc fd3d
00000100: fb8d 4c3d bccd 2cbc 736e 163d 610b 31bd
00000110: 8ef1 113e bc01 83bd 66e2 e9bc 4b5f 7f3d
00000120: c974 f23d 26e4 023e 712a 99bd 7c39 063e
00000130: 80df 833d 6995 3abd a099 12be d8db d3bd
00000140: 8a90 ad3d f335 443c 0788 6dbd 9052 d4bc
00000150: ba43 35be 4947 a73d b2e6 ad3d 46aa e03c
00000160: e676 6abd 9e50 dc3d 0fc5 6cbd e34b ffbc
00000170: 83d8 46bd 7c30 e13c c793 b5b8 dd34 8abd
00000180: b869 293e fb47 7e3d bd12 573d d713 6bbd
00000190: 36fb ebbd 1553 0cbe 0fe4 3abe 41e8 f23b
000001a0: 44a0 18be ef82 33bd d4ea 7abc fb7f 90bd
000001b0: 58ab 6ebd 1cf3 ed3c a882 6cbd 4675 c63d
000001c0: 1a6f 733d 6440 fa3d fde3 d63d 4029 d7bd
000001d0: 6af1 9bbd 8e80 4d3c fb87 3ebd 9d31 463c
000001e0: acdb 1b3d ca46 113c 503e c13d 1f2e fdbd
000001f0: 0dcf 20be 6c6b ea3d 1bf6 8dbb 312c 0fbe
00000200: 475e a4bd e8a2 91bd 0301 d3bd 8a10 52bd
00000210: 96d3 e6bb cec8 ec3c 2d8b 8b3d 4452 003d
00000220: 87e3 ad3d e264 823d 62f9 9c3c 9e50 b4bb
00000230: afd8 71bc 40ca 2d3d e37f 21bd 79ac 4d3d
00000240: 2532 bf3d 7398 833d 8ea0 1f3d ec8e 9fbc
00000250: 3fa0 15bd 63a7 193c 3de8 293d 5dc1 b7bc
00000260: 6941 6d3c efef 633d 8877 263b 1d65 ccbb
00000270: 1f47 42bd 9034 5c3d cb42 c63d e380 a03c
00000280: 4fa5 bbbd 697f 84bd 8d13 ec3c f084 773d
00000290: 147a 3c3d cfef 9cbc a242 433d 2965 3bbd
000002a0: 0336 8b3a 2e0a bc3c be35 d8bc dfa2 00bd
000002b0: e86f a4bd e0ff b63c 8dee f3bc c90a 8a3c
000002c0: c079 d43c 517d 093d 4e18 62bd 3d3e a1bc
000002d0: bf1b 7d3d 0a33 7abb d251 95bd 306c 6c3d
000002e0: b4ca 0fbc 93b6 aa3d e552 5b3d 6739 53bc
000002f0: 1d97 f3bc 71f3 613b 576b 083d e7be 893d
00000300: 6a39 093c ad1e cc3d 394e 223d 2cce dabc
00000310: 1ed3 53bd 7aa8 033d 482d 46bc e12f 663d
00000320: 7c05 71bd 8857 d3ba bb4c 0abd f3e6 b93b
00000330: 8f80 babd 3364 a43d ce57 22bc 790f 323d
00000340: 4984 9fbd f94d f23c 1ac2 473b 17c3 043d
00000350: b311 583d ea06 1f3c 2f52 4bbc f0e9 893d
00000360: fd10 da3d 10a3 88bc ed71 8e3d 95a4 783d
00000370: a1a7 dbbb 2f33 bb3c 95cc dfbc b71c 143d
00000380: 94f8 c1bd ca33 fdbc f5eb de3b 65bf 04bd
00000390: 8982 9e3d 7620 793d 7305 843d 4e76 a2bd
000003a0: f9aa 693d 3798 893d a8b8 12bd 5c65 ab3d
000003b0: f49f d0bb fad4 9dbd 2534 6abd 09a3 c63b
000003c0: 68ed f4bc cac6 de3c 4242 7dbd b62f a63d
000003d0: 3106 e6bc 5155 82bc 4624 b33d ab43 7c3d
000003e0: ff11 433d 4fd8 603d faa6 36bc dab6 57bc
000003f0: ac0a 1ebb e304 683a bc36 3cbd 3380 52bc

bias f4 [128]
0.09056401 -0.0076911836 -0.018447425 0.051102843 -0.057292733 -0.02479177 -0.08057966 0.05561938
0.08034482 -0.082147256 0.05777129 0.026505202 0.012771298 0.07320225 -0.10805195 0.09389698
0.031218942 -0.071540415 0.10102787 0.007124991 -0.0043532234 0.062897675 -0.00030866388 0.089580126
-0.0689836 0.039908003 0.046612278 -0.08097438 0.05348983 0.02104146 0.05759591 -0.016865741
-0.03869698 -0.04315661 -0.056054693 -0.108380765 0.052948084 -0.06494968 0.061518345 -0.008819976
-0.039430022 0.031012272 0.009016253 0.09031855 0.058423065 -0.076092094 -0.08180935 0.10041739
0.011941145 0.10486272 -0.04392363 -0.07920882 0.09147141 -0.04269811 -0.024833843 -0.07910762
0.076726414 -0.01669465 -0.04530738 -0.09321647 0.03287513 0.095539525 0.08427748 -0.045062933
-0.025021208 0.035733104 0.014479503 -0.0372024 -0.07218944 -0.00835797 0.09647597 -0.0008754251
-0.021025179 0.011750165 -0.059082266 0.079395235 0.041084845 0.05463194 -0.033878107 0.09696432
-0.13045928 0.09066559 0.007766673 0.002394991 -0.034624636 -0.018821828 0.0044107395 0.0046605035
0.003270565 0.06643682 -0.03075059 0.068972655 0.12379725 -0.0077046016 0.06881589 -0.07773448
0.029785225 -0.062881134 -0.07480366 -0.097332634 -0.05374043 -0.06296228 0.1130246 0.034875553
0.016168483 0.016317088 0.039203037 0.010331432 -0.00063508295 0.014418569 -0.034949683 0.090629965
-0.0073979096 0.10481585 -0.06509433 -0.10781084 -0.11436035 -0.08354713 -0.02624462 -0.03087314
0.072970696 -0.024502316 0.1104937 -0.1272725 0.061942384 0.01784891 0.091915414 0.09295082
00000000: a079 b93d 5306 fcbb 0e1f 97bc 3751 513d
00000010: c9ab 6abd 1c18 cbbc f306 a5bd 26d1 633d
00000020: d38b a43d d23c a8bd 97a1 6c3d 7021 d93c
00000030: b53e 513c 10eb 953d 574a ddbd 0f4d c03d
00000040: debe ff3c c883 92bd b3e7 ce3d c278 e93b
00000050: 7ca5 8ebb 7fd0 803d 2ad4 a1b9 c975 b73d
00000060: 4647 8dbd 9376 233d 84ec 3e3d e5d5 a5bd
00000070: 2718 5b3d 245f ac3c b0e9 6b3d 062a 8abc
00000080: b980 1ebd fcc4 30bd 9b99 65bd bcf6 ddbd
00000090: 17e0 583d 5604 85bd a9fa 7b3d a981 10bc
000000a0: 6081 21bd 730d fe3c e8b8 133c eff8 b83d
000000b0: 064d 6f3d 2cd6 9bbd a98b a7bd a2a7 cd3d
000000c0: cba4 433c 44c2 d63d 44e9 33bd 3c38 a2bd
000000d0: 5d55 bb3d 37e4 2ebd 5870 cbbc 2d03 a2bd
000000e0: bd22 9d3d 38c3 88bc 3b94 39bd 47e8 bebd
000000f0: 13a8 063d 3aaa c33d ac99 ac3d e993 38bd
00000100: 47f9 ccbc e05c 123d 703b 6d3c 8b61 18bd
00000110: 0fd8 93bd deef 08bc 3195 c53d c97c 65ba
00000120: ff3c acbc c483 403c 3f00 72bd f899 a23d
00000130: 9548 283d bec5 5f3d c5c3 0abd 3b95 c63d
00000140: 1e97 05be e1ae b93d 937f fe3b 48f5 1c3b
00000150: 90d2 0dbd 3c30 9abc f787 903b 23b7 983b
00000160: fa56 563b 0710 883d a9e8 fbbc 8941 8d3d
00000170: 6a89 fd3d e276 fcbb 58ef 8c3d 4133 9fbd
00000180: 2500 f43c d3c7 80bd a932 99bd 5556 c7bd
00000190: ed1e 5cbd 5ef2 80bd 7179 e73d abd9 0e3d
000001a0: c473 843c 6aab 853c 5d93 203d 2b45 293c
000001b0: b27b 26ba dd3b 6c3c 6627 0fbd 349c b93d
000001c0: 2a6a f2bb b1a9 d63d 2d50 85bd eecb dcbd
000001d0: c235 eabd c21a abbd f5fe d6bc abe9 fcbc
000001e0: a971 953d 15b9 c8bc 854a e23d b953 02be
000001f0: 4cb7 7d3d e137 923c 263e bc3d 005d be3d
