results/model/neural_544.model (torch, 686563 bytes, 21 tensors)

weight_ih f4 [384, 5]
00000000: 93a2 56bd 737d 59bc 3c48 e03c 0988 9f3c
00000010: 1d14 b0bd 9023 0a3d 775d d03c ed5c 2b3d
00000020: 77fc e83d 8429 bc3d 77cc 6f3d a9e2 e13c
00000030: f3ff 61bd d0b1 9abb 7494 bebc 3bbe 2f3d
00000040: c2f1 383d dd0a 4ebd 1fdb 2f3d 9c47 28bd
00000050: 71ac 44bb fc6e 543d ed7f 86bd 8e1b ea3c
00000060: 1520 813d 19f5 65bd 7aab 5abd acdc 39bd
00000070: c313 1dbd 8310 67bd a0cc a6bd 0d80 b5bc
00000080: a7c4 83bd bf5c 04bd 929c 3d3d 45f8 673d
00000090: e35d bebc 6668 63b9 7e53 29bd 9d54 5a3b
000000a0: d29e e0bc 2c99 0d3e b158 0ebd 1ddf d43d
000000b0: 541d 713b 8f91 a0bd ef66 a3bd d3a5 adbd
000000c0: 1ad8 18bd e6da d6bc 9925 36bc 5093 c53d
000000d0: 51d7 de3c 86d8 35bd f0dd a2bd 4b72 c3bc
000000e0: 9f5d 453d 98c2 78bd aa85 203d 4e71 7b3d
000000f0: 38a0 563d 7afa f73c 4723 f03c 2f19 93bc
00000100: 9330 17bc 655b 2cbd 9798 c33b 3653 943d
00000110: cb89 4abd 244f 893c f382 9cbc 5d1f b4bd
00000120: 9f38 033b b6b7 e03c c747 67bd 569c 56bc
00000130: fbad 32bd 3506 4dbd 9ce1 493d 6bb0 543d
00000140: 1c9d 7c3d 4ac2 a33c 413d da3d ec6d 913d
00000150: b7c7 61bd a17b c93c 689b 053d c8c4 cfbd
00000160: abaf 493c 0bfe 813d 1d95 0e3c 08cd 993d
00000170: 3599 ae3d 7db4 813d 129b 9b3d 3e35 96bd
00000180: 5fc3 63bd 2f86 4439 a051 77bc bc3f 94bd
00000190: 06a4 8c3d 1666 83bd 97bb b8bd c65f 4ebd
000001a0: b079 49bd d966 413d af9b bd3d 6601 243d
000001b0: 378d 94bc 477b 9cba bd3d 7c38 0dcc 6bbd
000001c0: 7f97 d4bd 938a 74bd b7ca 093d 601d 31bc
000001d0: 8669 aebd b59e cbbd efff 053d e6ab 7a3c
000001e0: 160b 16bd 92a0 8e3c 6440 38bd ad2e 663d
000001f0: e46d bcbd 5dc0 b3bd b550 2c3d 2db4 753d
00000200: d415 b1bc bcf7 c03d 1ed5 e5bc b508 52bd
00000210: 4962 8e3d 0344 703d 66e6 a8bc 605c b4bd
00000220: d393 cb3c 1f64 acbd 4790 0cbd 71a2 0b3d
00000230: 8bc0 be3d d8c7 75bd 36ed ae3d abdc 1cbd
00000240: 171b 023d 772b 12bd 7ffd 69bb 7ed4 103c
00000250: 231d cf3d 67c3 50bc 6e96 643d 3fb6 dabd
00000260: de3a 9abd d8d7 a6bd e079 0b3d 76e4 58bc
00000270: 7284 88bd 6692 9a3c 3333 f4bc 42af 813d
00000280: 6a15 833d 2972 a4bd 3bc0 afbc 8765 5a3d
00000290: 7cd1 693d cdfe 15bd c558 1b3d 0751 323d
000002a0: 92a3 5d3d 386e c0bd c420 7dbc e4df 9a3d
000002b0: 892c 703d 40e0 4f3d b1d2 173c 9e74 b4bc
000002c0: 0795 e13c fbe7 443d df5d 4cbc 5092 ff3c
000002d0: 3773 72bd e6b5 a8bb 81f2 b23c 27bf e43c
000002e0: 2003 67bd 010f 53bc f516 d53c 15c8 01bd
000002f0: 2276 2d3d 6cc5 ccbd 3811 c23d 3db2 29bd
00000300: 6501 5f3d 0acd 583d 9487 803d 566f 253d
00000310: 3813 25bd 50a8 4d3d 486d acbc e7ff babc
00000320: 4223 a2bd f55b 03bd 1618 ddbc 5595 9f38
00000330: 7bde 283d 6cd8 49bd f4a2 ae3c 4d10 98bd
00000340: 181e 9f3d 5080 97bd 907e c73a 31ac 823d
00000350: f7d9 9fbd b0e0 88bd 4a0e 8bbd c2da 64bd
00000360: 4055 8ebd 105f 1f3d 837a a73d 4653 e4bc
00000370: 1603 32bd 7acf 7cbc 57be 0abc f959 743d
00000380: ad40 933d 215d ae3b 9bf8 523d a918 dc3d
00000390: 3a9f 2f39 2318 953c ea2d 3c3d 7ce8 50bd
000003a0: 41ae 74bd 1c12 b939 fbbe 3bbd ee3b a13c
000003b0: bf66 183d 3146 a8bd 2050 7b3c b3e8 5b3d
000003c0: f74c 77bd d6f7 7d3d cb6c d8bc 79dc 3f3c
000003d0: 2c77 1fbd 9fc3 2c3d f4de 5b3d 7558 90bd
000003e0: b6dd c33d febe b43c 8d38 a73c d41e 403d
000003f0: 190a a73d 10c5 55bd 1456 653d a517 7fbc
-0.052401137 -0.013274538 0.027378194 0.019474046 -0.08597586 0.03372532 0.025435193 0.041836668
0.11376279 0.09187606 0.058544602 0.0275739 -0.055175733 -0.004720904 -0.023264147 0.042906027
0.045152433 -0.05030333 0.04293358 -0.041083917 -0.003001001 0.051863655 -0.06567369 0.028577592
0.06304947 -0.056141946 -0.05338619 -0.045376465 -0.038348924 -0.05641223 -0.08144498 -0.022155786
-0.06433993 -0.032315012 0.046291895 0.056633253 -0.023238128 -0.00021687298 -0.04133939 0.0033314594
-0.027419481 0.13827962 -0.03475255 0.10394118 0.0036791163 -0.07840263 -0.079786174 -0.08478894
-0.037315466 -0.026227426 -0.011117362 0.09647238 0.02720228 -0.044395946 -0.079524875 -0.02385821
0.048184987 -0.060732454 0.039189972 0.061387353 0.05239889 0.030270804 0.029313697 -0.017956344
-0.00922789 -0.042079348 0.005969118 0.07242434 -0.049447816 0.01676137 -0.01910541 -0.087950446
0.0020022762 0.02743135 -0.056464937 -0.013098797 -0.043622952 -0.050054748 0.049287423 0.051926058
0.06167327 0.019990105 0.106562145 0.07101044 -0.055122104 0.024595084 0.03261891 -0.10144955
0.012309949 0.06347283 0.008702544 0.0750981 0.08525316 0.063332535 0.07597937 -0.07334374
-0.055606242 0.00018742004 -0.0150951445 -0.07238719 0.068672225 -0.06415956 -0.09020155 -0.050384305
-0.049188316 0.047217224 0.0925821 0.040040396 -0.018133743 -0.0011938595 6.013898e-05 -0.057567645
-0.10380458 -0.059702467 0.03364059 -0.010810226 -0.08516221 -0.0994238 0.03271478 0.015299773
-0.036631666 0.01741055 -0.044983283 0.056196857 -0.092006475 -0.08776925 0.042069156 0.059986282
-0.021616854 0.094222516 -0.028055724 -0.051277835 0.0695234 0.05865861 -0.020617675 -0.08806682
0.024850762 -0.08417534 -0.03431728 0.034090463 0.093140684 -0.06000504 0.08541338 -0.038296383
0.031764116 -0.035685983 -0.0035704074 0.008839725 0.10112979 -0.0127419 0.055807523 -0.10679292
-0.07530759 -0.08146638 0.034051776 -0.013238063 -0.06665887 0.018868636 -0.02980957 0.06332256
0.06400569 -0.08029587 -0.021453967 0.05331948 0.057084545 -0.03661995 0.037926454 0.043534305
0.05411107 -0.093960226 -0.015449706 0.07562235 0.058636222 0.05075097 0.009266541 -0.022028264
0.027536882 0.048072796 -0.0124735525 0.031197697 -0.05919191 -0.005148637 0.02184415 0.02792318
-0.056399465 -0.012881995 0.026011923 -0.031684954 0.04234899 -0.09998593 0.094759405 -0.041429747
0.05444469 0.052929915 0.062758595 0.04038938 -0.04030153 0.050209343 -0.021048203 -0.022827102
-0.07916881 -0.03207012 -0.026989024 7.609526e-05 0.0412278 -0.04927866 0.021317936 -0.07424984
0.07769412 -0.073975205 0.0015220214 0.06380499 -0.07805245 -0.06683481 -0.06789835 -0.055872686
-0.06949854 0.038909018 0.08177664 -0.02787174 -0.043459974 -0.015430326 -0.008468232 0.059656117
0.0719007 0.0053211604 0.05150662 0.10746891 0.00016748617 0.018199986 0.045942225 -0.051002964
-0.059736494 0.00035299442 -0.04583643 0.019681897 0.03720736 -0.08216513 0.0153389275 0.053688716
-0.060376134 0.062003933 -0.026419064 0.01171028 -0.03893201 0.042178746 0.05367942 -0.07048122
0.095637724 0.022063728 0.020412708 0.0469044 0.08156223 -0.052189887 0.055990294 -0.015569602

weight_hh f4 [384, 128]
00000000: 1edb d03c 746d d73c 2ed2 f53c f679 3d3b
00000010: 0cd3 7b3d 7362 1d3d ab85 ab3c 21b3 643c
00000020: 0bfd bc3d c482 9d3d 0ff0 d7bc bc53 abbc
00000030: c498 913d 4e63 ec3b c4a5 2abd 004b cebc
00000040: 1ff0 f03d 68a7 04bd 6d64 19bd 3046 823d
00000050: d22d d5bc 23f3 a8bd 89bf b0bd bc91 81bd
00000060: eec5 8a3c 5c60 48bd 24e3 38bd 5944 41bd
00000070: a853 a2bd 259b a43d 1c25 093d a5f8 2cbd
00000080: 324c 343d 8ca5 98bd 0256 573b b2b3 b4bc
00000090: 2cb0 bf3c 89f0 acbd f0f5 11bd a527 023b
000000a0: a708 24bd ee68 08bd 0013 a03d a3e2 a6bd
000000b0: 90f3 9ebd 550c bbbd a9c0 a33d f97e e3bc
000000c0: 18e3 5a3d be06 a53d bce1 9fbd 5595 18bd
000000d0: 760b c63d d278 403c fc9c 723c 9a4e 313c
000000e0: f350 6d3c 38d4 a63c 11b4 963c c673 74bd
000000f0: 08e2 32bc e97d 9c3d 1a1f 10be b85f 7f3d
00000100: 5d93 afbd 082d 47bd 0d39 ffbb 216c 003d
00000110: 83f7 1d3c a71b cebb 05b3 823c 5b9c 40bd
00000120: a7f7 e03c 0650 b93c 82f4 59bc 104a e2bb
00000130: c549 bbbd eae4 093d 6d8d 87bd 8b17 9d3c
00000140: 4431 7fbd dbc3 f13d 4194 973b 9466 cebc
00000150: 8670 7b3d 8049 243c 612a 99bd 5a27 0ebd
00000160: 8060 41bd 253c 973d 0406 d33c 5d5c ac3d
00000170: 447b 6c3d 4cb1 27bc dbd3 2c3b 0029 e9bd
00000180: 69ab ca3c 58a3 a03d fd19 0c3d c75c 85bd
00000190: 9257 fa3b 2b49 5b3d 079e 793c 0ab3 a7bd
000001a0: 473c ae3b 59c3 603d cce0 933d 479c c4bd
000001b0: 1177 cebc 2a79 31bd e070 e7bc 4618 003d
000001c0: 42f8 8d3d ac32 1b3d bf16 053d 3318 263e
000001d0: c929 11bd 78c7 d03c 5e35 82bd 90b9 a73d
000001e0: 2b4e efbc 3a39 a0ba a47a 6ebd 5baa 3e3d
000001f0: c9de e43c 9096 97bd 0801 8a3d 2460 163d
00000200: 8d62 58bc 146d 50bd d0d5 cc3c bf26 133d
00000210: 6eec 643c 36ea a2bb 7884 453d 1962 a73b
00000220: e391 91bd 5c0d c7bd a962 a43b a281 5d3d
00000230: ba45 913d aa02 a5bc 53c6 85bd cb83 f9bc
00000240: dad9 02bd b13d f4bc 7c6a 88bd 6c3d 05bd
00000250: 3f89 163d 3f79 d03d 9ded 2b3d 7867 b0bc
00000260: b114 bb3b 0f44 6dbd f3dc 85bd 42a5 4fbc
00000270: b456 bc3d 846c 40bd 6feb 1f3d 0aba 363d
00000280: 34f4 9abd 44f0 6ebd a17e 7cbd 4916 81bd
00000290: 4c0a c23c 44de 123b 3a59 c6bc 481a a33d
000002a0: cda6 633d 4275 77bd 2ccd 9e3d a5ec f1bc
000002b0: 4351 7f3b e8c9 da3d f0ea d1bd aa88 4fbd
000002c0: fdbb dcbd 0a3a c03c 1514 23ba 91ac a93d
000002d0: d35f 38bc 3e40 cfbd b685 853d d02a 0d3d
000002e0: c46f a7bd 5c2d f2bc 8f4a 853c f66a 893c
000002f0: 9d68 8dbb 5090 9f3b b754 f8bb cedf 88bd
00000300: 2f33 6d3c 8601 d7bd 4e7e cabd a104 8a3d
00000310: 7e03 873b c6f7 a93d 77ce 053d d2cb e1bb
00000320: a082 c13d 3bfb 35bd 27b8 1abd 5839 b5bd
00000330: a02a ab3d a39e 363d 86d5 763d c995 bd3a
00000340: c870 5f3c a6e0 a1bd 2497 ee3c a7d1 243d
00000350: 5d32 6f3d 5cc2 623d 5969 aebd 4465 66bd
00000360: 5dd3 fdbd df63 c93d fb67 85bd 1fc2 783d
00000370: bf44 22bb 3ec1 febd 105d 453c afe6 43bd
00000380: d952 833d e66e 893d 8f23 febc d96f ef3b
00000390: 05bb fdbb 8d3e 2dbd caf0 81bd 772f 38bd
000003a0: a9ce 3c3c f1fd 4abc d135 8d3d 124f 383d
000003b0: a0da 41ba f1d1 7f39 414e 73bc 3bb2 84bd
000003c0: 8d55 bf3d dab4 7dbd fb21 9d3b bd2e 533d
000003d0: 6e83 2fbd fdeb bfbd bb5c 2fbd aac3 b7bd
000003e0: 0415 c03c b009 0e3d a112 ea3b 89fb d2bd
000003f0: d91b 0cbd 5b76 d53d 3644 f5bb 4345 f9bd
0.025495108 0.026297309 0.030007448 0.0028911806 0.061480567 0.038423967 0.020937761 0.013958723
0.092279516 0.07690957 -0.026359586 -0.020913951 0.07109216 0.0072139865 -0.041661993 -0.025182247
0.117645495 -0.032386214 -0.03744929 0.063610435 -0.026022825 -0.082495 -0.086302824 -0.06326625
0.016940083 -0.04892002 -0.045138493 -0.047184322 -0.079261124 0.08037404 0.033482656 -0.042229313
0.044017978 -0.074534506 0.003285766 -0.022058342 0.023399435 -0.08444316 -0.035634935 0.0019860056
-0.040047314 -0.033303194 0.07816124 -0.08148696 -0.077612996 -0.091332115 0.079957314 -0.027770506
0.05343923 0.080579266 -0.07806727 -0.03725179 0.09670155 0.011747556 0.014807936 0.010821963
0.014484632 0.020364866 0.01839641 -0.059680723 -0.010918148 0.07641203 -0.14074364 0.062347144
-0.08573029 -0.04862693 -0.0077887834 0.03135312 0.009641531 -0.0062899175 0.015954504 -0.047024112
0.02746184 0.022621166 -0.013302924 -0.0069058016 -0.0914493 0.033665575 -0.06618772 0.019176265
-0.062302843 0.118049346 0.0046258275 -0.025195397 0.061386608 0.010027289 -0.07478786 -0.034705497
-0.04721117 0.073845185 0.025759704 0.084160544 0.057734743 -0.010235142 0.0026371393 -0.11384773
0.024739938 0.07843655 0.03420447 -0.065118365 0.0076398337 0.053536575 0.015235431 -0.08188446
0.005317244 0.054873798 0.07220611 -0.0960012 -0.02520326 -0.04332844 -0.028252065 0.03127315
0.06932117 0.03789012 0.032492395 0.16220169 -0.03544024 0.02548574 -0.06357835 0.0818969
-0.029212078 -0.0012224086 -0.058222428 0.046549182 0.027938263 -0.074017644 0.06738478 0.03671278
-0.01320709 -0.050885275 0.025004297 0.035925623 0.013972385 -0.004971768 0.048222035 0.0051081297
-0.07107904 -0.09719345 0.005016644 0.054078706 0.070933774 -0.020142872 -0.06531968 -0.030458352
-0.03194604 -0.029814573 -0.06660935 -0.03252928 0.03675198 0.10179376 0.041974653 -0.021533713
0.0057092537 -0.057926234 -0.06536283 -0.012673678 0.09196225 -0.04697849 0.039042886 0.044611014
-0.07566109 -0.058334604 -0.0616442 -0.06303079 0.02368655 0.0022410313 -0.024212468 0.07963997
0.055578995 -0.06041456 0.07753977 -0.029531786 0.0038958348 0.10683042 -0.10249889 -0.050667442
-0.107780434 0.023465175 -0.0006220949 0.082848676 -0.011253315 -0.10119675 0.06519644 0.034464657
-0.081756145 -0.029562645 0.016270904 0.016774636 -0.0043154494 0.0048694983 -0.007578458 -0.06683312
0.014477535 -0.104983374 -0.09887372 0.06739164 0.0041202893 0.08299212 0.032667603 -0.0068907524
0.09448743 -0.044429045 -0.037773278 -0.08848828 0.083577394 0.04458488 0.060262226 0.0014464195
0.013637729 -0.079041764 0.029124804 0.040239003 0.05839764 0.055361137 -0.08516187 -0.05624892
-0.1239383 0.09833502 -0.06513973 0.060732003 -0.0024760214 -0.12439202 0.012046114 -0.04782742
0.06412286 0.06710605 -0.031022815 0.0073070345 -0.0077432417 -0.04229598 -0.06344755 -0.04496714
0.011523881 -0.012389646 0.0689503 0.044997282 -0.00073949434 0.00024396904 -0.0148502 -0.06479307
0.093424894 -0.06194005 0.0047953106 0.051558245 -0.04284995 -0.09371183 -0.042813044 -0.08972867
0.023447521 0.034677207 0.007143334 -0.10301883 -0.034206245 0.10422965 -0.007484938 -0.12171414

bias_ih f4 [384]
00000000: 4d67 25bd 6a39 033e d075 dcbc 97d0 9f3c
00000010: 90ac 8bbd 8a49 0d3d 35ea 3e3d e821 69bd
00000020: de14 67bd 0909 293c 0c56 a73d be05 813b
00000030: 6772 443c b5cc 10bd 8b5c 0abd 3ad7 243c
00000040: c723 cbbc b00f 433d ed82 61bd 5820 13bd
00000050: bbb3 973d d842 e5ba 1f0c 44bd fc14 b0bd
00000060: 6115 8a3d f1b1 00bd 7628 9ebd a1af babd
00000070: 9ff7 0f3d 9239 773d d8b3 3cbd a55f 39bd
00000080: 974d 9fbc a793 323d d1ee 8bb9 8738 a13b
00000090: a7dc 23bd 94ac c5ba 03a1 4f3d 2954 b23d
000000a0: 3aae a2bd 84c5 903c b81c ef3b 545a a53d
000000b0: 6559 173d 5582 c83d 4bd3 d9bc b0dc 923d
000000c0: 8aea d9bc 22f6 313b de27 3abd 4879 b2bb
000000d0: 58c1 a73c 581b 473b a69f 973d 0294 c6bd
000000e0: d003 dbba 1b41 9d3c d8fc 493d 8942 36bd
000000f0: 3de2 d63c 1783 45bd 1dfe 7d3d 7c20 97bc
00000100: 4442 8d3d 9d53 3b3c 5069 dfbc 6761 67bc
00000110: aa3f 69bc cfed 9ebd ea16 da3c 8fba 95bd
00000120: b7b1 b33d 0589 5f3d 7ba2 92bd c7e6 bbbd
00000130: 4f73 b5bc 9942 cfbc 4b18 5ebd 081f c73b
00000140: 8352 2c3d a47a 8cbd a64e 84bb 173e ca3c
00000150: 0483 81bd 44b8 5f3c caa1 b63d 9b37 d4bc
00000160: 841b 5d3d 4c8c 9abd 5cad 81bc 62f3 153d
00000170: 6fae 6d3d 8729 8f3c 7f0d 053d ef39 0d3d
00000180: 325e bf3d cc03 253d c707 0f3d 93e4 c83d
00000190: 3527 dfbd 8d1e a7bc 8f58 0e3d 3765 92bd
000001a0: 10a3 aabc dfa7 843d b3c9 6ebc a405 cebc
000001b0: 8c7b 24bd 5f6b 743d 4722 8bbd ace0 473d
000001c0: 7ce0 16bd 3703 58bd 4962 813d 35e7 ffbc
000001d0: 730b cabc cfca 17bb da20 003d 1d5c 303d
000001e0: 0dbe 24bd 02e8 0fbb a992 59bd 1a58 7c3d
000001f0: 5f6e 8d3d 4812 1abd 211b 313d bae9 93bd
00000200: f9e6 babd 916b debc 7455 69bd df98 2b3d
00000210: d58c 30bd d5d6 80bd 385b 84bd e074 ce3c
00000220: 104d 0dbd 2f5a c4bc b37d 6dbc 47f9 793c
00000230: a6e0 bc3b 9628 14bd 54cd 5f3d a4ac 883d
00000240: 7260 8c3d c452 b4bc b16c fe3a f593 59bc
00000250: a887 bcbd b5fc bfbd bda9 07bd 9e60 09bc
00000260: b030 a43d 3a1b 8e3c a29b 20bd 814d 293d
00000270: 6d26 a0bc 787c a03b bcd6 fd3b 0620 86bd
00000280: 75a3 39bc 7b95 7abd 5451 2abd 21ab e8bd
00000290: d33c 47bd 5e04 ddbd 447d e5bd 57a2 1d3d
000002a0: 73b8 443d e190 b1bd ba47 b8bc 8aed e83c
000002b0: 0f15 c2bc 6833 93bd 58c1 17bd 167b c6bd
000002c0: 22bf 073d 9086 32bd fdac babd d1c3 853d
000002d0: 713a e5bc c68c a73d b8d5 a2bc dea2 c03c
000002e0: 683c d23b 2fc8 43bd 7dfe debc f5c3 5d3d
000002f0: 80c9 233d 2082 2ebd b575 583d ec1d 2c3d
00000300: 1df6 f93c 1ccd 113d 3b84 0bbb 0429 3ebc
00000310: 6296 bf3c 18c7 40bd 9e9e a4bd 9c9d a23c
00000320: 3cd1 b93d 9d71 923d 6cec 133d 0204 a6bd
00000330: 2647 37bd ce8f 473c 2f41 b53c bd14 073d
00000340: d077 55bd 3398 2bbd 6bb3 823d b710 c6bc
00000350: 152d 1bbd 1783 bfbc f26b d53c d82a 543d
00000360: cc0d d23c df65 47bc 9f91 96bd 7329 6f3d
00000370: 6695 93bd fc03 883d a669 85bd c835 403d
00000380: 9d55 abbd 8092 aabd f767 1a3c 76b0 82bb
00000390: 3727 ec3b 63bb 713d a75c 4abd e439 d6bc
000003a0: 1225 84bd 85e6 2c3c bbe9 b53a d511 313d
000003b0: 955d a6bd 099a 6f3d 86cb bcbd 08ad b8bd
000003c0: 894a a33b e43a a0bd fd56 71bd 3d70 653b
000003d0: 4ad3 58ba 38b9 a0bd 3abd b93a 84bc 8ebd
000003e0: e895 ad3d b3c5 713c 0600 95bd cdb0 f6bc
000003f0: 635b 11bd 7fcb 10b9 df21 b9bd 30e7 573d
-0.04038172 0.1281487 -0.026911646 0.019508643 -0.06820023 0.03449396 0.046610076 -0.0569171
-0.056416385 0.010317096 0.08170709 0.003937452 0.011990166 -0.035351474 -0.033779662 0.01006108
-0.024797333 0.047622383 -0.0550565 -0.035919517 0.07407328 -0.0017491234 -0.047863122 -0.085977525
0.06742359 -0.0314197 -0.07722561 -0.0911553 0.03514826 0.060357638 -0.04606995 -0.04525723
-0.019446177 0.043597843 -0.00026690078 0.0049200687 -0.040005352 -0.001508134 0.050690662 0.087074585
-0.07943387 0.017672308 0.0072971247 0.08073869 0.036950488 0.09790484 -0.02659001 0.07170999
-0.026601095 0.0027154763 -0.045448177 -0.0054465868 0.020477936 0.0030381288 0.074034974 -0.09696199
-0.001670951 0.019196084 0.049313396 -0.044497047 0.026230926 -0.04822072 0.06200992 -0.018448107
0.06897405 0.011433509 -0.027271897 -0.014122344 -0.01423637 -0.07760202 0.026622254 -0.07310974
0.08774131 0.05457403 -0.07159897 -0.09174877 -0.02214971 -0.02530031 -0.054222386 0.0060766973
0.042070877 -0.06859329 -0.004037696 0.02468781 -0.06323817 0.013654772 0.089175776 -0.025905421
0.05398132 -0.07546291 -0.015829735 0.03660906 0.05802768 0.017475856 0.032483574 0.034479078
0.09344138 0.040286824 0.034919526 0.09809222 -0.1089615 -0.02040031 0.034752425 -0.071482114
-0.020829707 0.06477331 -0.014574456 -0.025149174 -0.040156886 0.05967271 -0.06793647 0.04879825
-0.03683518 -0.05273744 0.063175745 -0.031238178 -0.024663663 -0.0023161655 0.03128133 0.043056596
-0.04022031 -0.0021958356 -0.05311838 0.061607458 0.06905817 -0.03761509 0.043238763 -0.07222314
-0.09126086 -0.027150901 -0.05696626 0.041893836 -0.043103058 -0.06290976 -0.06462711 0.025202215
-0.03449732 -0.023968784 -0.014495301 0.015257186 0.005764085 -0.03617152 0.054639176 0.066735536
0.06854333 -0.022012122 0.0019411055 -0.013279905 -0.09205562 -0.09374372 -0.03312086 -0.008384852
0.08017099 0.017346967 -0.039210923 0.04133368 -0.019549573 0.0048976503 0.0077465456 -0.06549077
-0.011330475 -0.061177712 -0.041581467 -0.11360765 -0.04864199 -0.107918486 -0.11205533 0.038484897
0.048027467 -0.086702116 -0.02249514 0.02843358 -0.023691682 -0.07187539 -0.03704962 -0.096914455
0.033141263 -0.04358536 -0.09115026 0.0653149 -0.027981969 0.08181147 -0.0198773 0.023515161
0.0064158924 -0.04779833 -0.027220959 0.054141957 0.039987087 -0.042604566 0.05284663 0.042020723
0.030512864 0.035596 -0.0021288532 -0.011606459 0.023387138 -0.04706487 -0.08038066 0.019850545
0.090731114 0.07150576 0.03611414 -0.08106233 -0.044745587 0.012180282 0.022125809 0.032978762
-0.052116215 -0.041893195 0.063818775 -0.024177892 -0.03788479 -0.023377938 0.026052449 0.05179867
0.025641344 -0.012170284 -0.07351994 0.05838914 -0.0720623 0.06641385 -0.065142915 0.04692629
-0.08365939 -0.08328724 0.009424201 -0.003988321 0.007206823 0.059016597 -0.049404766 -0.026150651
-0.06452383 0.010553007 0.0013878861 0.043229897 -0.08123318 0.05849651 -0.092185065 -0.09017378
0.0049832505 -0.078237325 -0.05892085 0.0035009526 -0.00082712306 -0.07847828 0.0014170774 -0.0696955
0.08475858 0.014756608 -0.07275395 -0.030113602 -0.035487544 -0.00013808718 -0.090396635 0.052710712

bias_hh f4 [384]
00000000: 73d4 0abd d1ca d4bb a6ba cf3d 63a3 60bc
00000010: eb7c 2d3d cebd f03d 54da 7dbd b7df 8fb9
00000020: 2d22 28bc 16f9 133d 93c7 b63b 4d71 413d
00000030: 16a3 77bd 73ef 7abd 5713 653c f5c0 13bd
00000040: 423a 8d3c bba1 0cbb 0d22 d53c a04a 973c
00000050: c509 653d 05f3 0ebd 4261 96bd 5b01 a4bd
00000060: 29b6 703d 4347 81bc d0bb b4bd 6670 5dbd
00000070: dc7f 223d 0d13 b7bc a887 543d 1091 b33d
00000080: ff3f 45bd 72ca 59bd c84c 823c d630 d73d
00000090: af7a 03bd 8648 833d d967 fc3c dbd1 773d
000000a0: 9e55 8dbd 0aae 043b befa e3bc 6687 9f3b
000000b0: 2015 5b3d e028 ffbc e3b6 023d 1cfe 05bd
000000c0: 8b27 4cbd 51dd 8f3b 0486 8dbd 93e2 76bd
000000d0: e256 b3bd 55fe 4cbd 1954 b03d 8895 82bd
000000e0: 42c6 c7bc 483b 263b 7a62 8b3c 1efc 83bd
000000f0: c21d f43c 81d6 473d 572a 1abd 2ec6 323d
00000100: 654e 6a3d 43b9 e53c 95ea 80bd 2af7 29bd
00000110: b2a1 b9bd f61f 03bc d874 533d 965b c33b
00000120: 06af ae3d 1467 043d e453 96bd 7cb7 07bc
00000130: e780 fbbc 972b 45bc f2c5 803d 58e2 673d
00000140: ce05 d83d 01ba 10bd aa64 b43d 6ac0 763d
00000150: 84e6 16bd 0229 883d 52ee 413b 94ad 2abb
00000160: a05f 6abd 5aab f1bc 7e21 c33d b13d 44bd
00000170: 5c17 18bd 2b40 24bb a586 cb3d 77fe ee3b
00000180: 6d2e 3c3d 550a 9cbd 1763 b53d 8ea5 f93c
00000190: e065 683d f6f2 6abd 10c6 d7bb bb3f 26bc
000001a0: 650b f03b 2a60 983c c153 643d b630 2d3d
000001b0: d229 74bc d064 c9bd ee89 b43d 04ec 503b
000001c0: 5e95 153c 1342 203d 9e80 c93d 327a b03c
000001d0: 48e5 a1bb 9dd5 05bd 4c01 cd3d 2c68 27bd
000001e0: d101 bebc 2c31 d03d 7716 93bd 89b4 d33d
000001f0: d2a2 153d 566c 7f3d 3beb 203d 6ddf b4bd
00000200: af84 973d a3cb acbd f1c0 b93c 4b73 79bd
00000210: 5749 a73c cd1f cbbc f5a5 923c 4229 ae3c
00000220: 13cf d13c fc0c 21bb e0e5 9fbd 47a3 1abc
00000230: 1a0c d23c 1b91 573d 8837 4abc 4f5d ad3d
00000240: 642d 56bb de4e 6fbb 14ce 21bd 6d2e 12bc
00000250: 97d9 56bd 6f7c 82bd a138 8bbd f175 583d
00000260: 6881 4938 1335 35bd 8b11 3abd 6350 73bc
00000270: c454 6abd 1dd3 e13c 9b47 4f3d 9da2 95bd
00000280: b448 febc b19a 7c3c df1a 84bb 3a58 12be
00000290: f13e c73c 24ac 4abb 97c1 8fbc b7a9 b63d
000002a0: 6c72 40bd 93d3 783d 42f9 87bd 9527 063b
000002b0: e053 ecb8 c7b0 3fbc cd08 763d a6cb 90bd
000002c0: 09e2 f6bd cb44 c1bd c4e0 37bd b194 ab3d
000002d0: a7b7 f4bc 9e5e bfbd 395b 9fbc 12a4 cfbc
000002e0: 673f ccbd 990d 953d d7b6 b93c 30b8 113b
000002f0: 74d9 dabc 93d2 18bc d4fe 8bbd fcec 02bd
00000300: 4485 55bc 4644 e23c 66c6 2f3d 7d91 723d
00000310: da1d 703d 9c11 02bd 288b c13d 3640 893d
00000320: f694 48bc 1580 c6bd e4a7 d23b 59d1 8b3c
00000330: d24c bcbd 8e93 e4bd b3d8 7b3c cb3d 2dbd
00000340: 5aec 00bd bc4c 3abd 3948 323d ec80 83bd
00000350: b990 9bbd ede5 c9bc 597e f23c d695 9d3b
00000360: 1dc9 893c 2de2 87bc d4a4 813d 4157 193d
00000370: 6373 273d a43f c1bc 6e8b 9bbd 218d dc39
00000380: c2dd afbc f055 08bd 7a5c 923c 906c aebd
00000390: 4604 d2bb 984f 95bd ec02 a43d 4951 673b
000003a0: 23f1 9abc 9620 a1bb db6b 0cbd b9db 11bb
000003b0: 0d22 053d 4874 d13c 4122 b13c 55e7 d03c
000003c0: 353f 21bd dd0a c1bd 3cd3 e43c ee5f ebbc
000003d0: 5ca5 d53c 0b64 1c3d c66d a1bc f04d 1e3d
000003e0: 4d4e ac3d d796 1f3d 58b1 a0bd 1eec 0a3d
000003f0: b453 7a3d 0488 67bd a331 ce3c 83a3 76bd
-0.033894014 -0.006493904 0.10143022 -0.013710829 0.04235546 0.11754952 -0.061975792 -0.00027441766
-0.010262054 0.03612622 0.0055779903 0.047227193 -0.060458265 -0.061263513 0.013981662 -0.03607269
0.017239694 -0.0021458704 0.026017213 0.018468201 0.05591752 -0.03489973 -0.07342769 -0.08008071
0.05876747 -0.01578105 -0.08824885 -0.05406227 0.039672717 -0.022347951 0.051887184 0.08767903
-0.048156735 -0.053171583 0.015905753 0.105073616 -0.032099422 0.06410317 0.030811237 0.06050287
-0.06901096 0.0020245337 -0.027829524 0.0048684357 0.053486943 -0.03114742 0.031912696 -0.03271304
-0.0498424 0.0043903966 -0.06910327 -0.06027467 -0.08756806 -0.050047237 0.0860979 -0.06376177
-0.024386529 0.0025364924 0.01701473 -0.06444572 0.029799346 0.04878855 -0.037638035 0.04364603
0.05720367 0.028042441 -0.06294743 -0.04149548 -0.09064044 -0.008003226 0.051625103 0.0059618456
0.08529477 0.032324865 -0.073402196 -0.008283492 -0.030701114 -0.012034318 0.06287755 0.056612343
0.10547982 -0.035333637 0.08808263 0.060242094 -0.03684093 0.066484466 0.0029591513 -0.0026043402
-0.0572201 -0.029500652 0.095278725 -0.047910396 -0.037131652 -0.002506266 0.09937791 0.007293518
0.045942713 -0.07619158 0.088567905 0.03047445 0.05673778 -0.05736061 -0.00658489 -0.01014703
0.007325577 0.018600542 0.055743936 0.042282782 -0.014902549 -0.098336816 0.088153705 0.0031878958
0.00912985 0.039125513 0.09838985 0.021542642 -0.0049406625 -0.03267442 0.10010013 -0.04087083
-0.023194226 0.10165629 -0.07182019 0.10337169 0.03653223 0.062359177 0.039286833 -0.088316776
0.07398354 -0.08437278 0.02267501 -0.060900968 0.020420713 -0.024795437 0.0179014 0.021259908
0.025611436 -0.002457439 -0.07807517 -0.009438342 0.025640536 0.052628618 -0.012342341 0.08465063
-0.0032680864 -0.0036515514 -0.039503172 -0.008922202 -0.052453604 -0.0637139 -0.067979105 0.052846853
4.8042653e-05 -0.04424007 -0.045426887 -0.014850709 -0.057209745 0.027566487 0.050605398 -0.07306407
-0.031040527 0.015417741 -0.0040315236 -0.14291468 0.024322005 -0.0030925358 -0.017548366 0.08919089
-0.04698412 0.060748648 -0.06639339 0.002047037 -0.0001126898 -0.011699862 0.060066987 -0.07070093
-0.120548315 -0.09436949 -0.044892088 0.0837797 -0.029872729 -0.09344219 -0.019452678 -0.02534679
-0.099730305 0.07277984 0.022670193 0.0022235028 -0.026715018 -0.009327549 -0.06835714 -0.031964287
-0.013032261 0.027620446 0.042913817 0.05922078 0.05862222 -0.031755075 0.0945037 0.067017004
-0.012242546 -0.096923985 0.0064287055 0.017067598 -0.0919434 -0.11160956 0.015371489 -0.04229526
-0.031475402 -0.045483336 0.04352591 -0.06421074 -0.07595963 -0.02464577 0.029601263 0.0048091216
0.016819531 -0.016587341 0.063302666 0.037436727 0.040881526 -0.023589917 -0.075949535 0.0004206682
-0.021468047 -0.03328508 0.017866362 -0.085168004 -0.006409201 -0.07290572 0.0800837 0.0035296252
-0.018913811 -0.0049172146 -0.034282546 -0.002225621 0.032503176 0.025568143 0.021622779 0.025500933
-0.03936692 -0.094259 0.027932756 -0.028732266 0.026079826 0.038181346 -0.019705664 0.038648546
0.08413372 0.03896221 -0.07846326 0.033916585 0.06111498 -0.0565262 0.025170153 -0.06021453

weight f4 [128, 128]
00000000: de48 643c ea8a 843d 46c3 b73c 0c20 adbd
00000010: 2b20 b2bc 46e6 323c 54f3 99bd b082 7abd
00000020: 0638 a83b e8a5 a7bd 6762 26bd 2cd6 6dbd
00000030: 9816 93bd 07e7 50bc 6ce0 a73c 14ee acbc
00000040: 4fd2 00bd 2597 963d 4cff 823d 38f5 86bb
00000050: 3309 9e3c 58a5 503d f58e b43d eb04 04bd
00000060: e954 e73c cd0a c6bc 39e5 40bd 7225 9e3d
00000070: 68fd a4bc 9554 7bbc eb6b 103d 5ea4 96bd
00000080: 6864 83bb a20c ae3c c26d a33d be2e a03d
00000090: bee4 423c 70e7 81bc 821b 5a3d 2bd2 56bd
000000a0: d87e 2cbd aad6 f7bc 450b 91bd 3e89 873b
000000b0: 67e4 8b3c 35ed c8bc 2dac 683d 63b9 56bd
000000c0: 5943 93bc c66b ac3d 43f1 ce3c 05c9 9a3d
000000d0: 0821 813d 1fdd 6d3c 70d4 a63d c1be af3b
000000e0: 44c4 293d a423 9ebd a178 bbbc 4051 613d
000000f0: bbea 923d 1995 8b3b 8c09 4f3d 2ed0 9bbc
00000100: 5371 393d dc05 883d 9b8a e63c 0681 ab3d
00000110: 62af 08bd 652c 35bd d89e b2bd 3557 f5bc
00000120: 4bdc 8abd fa4c 633b 711e 8f3c 0cfd 16bd
00000130: 3678 9ebc eaf5 49bd fc68 513d 69ad 5d3c
00000140: 3c9e 0cba 1317 91bd 979b afbd 22cb a6bd
00000150: 55e8 23bd 34a8 ac3d c604 b03d 5013 40bd
00000160: c987 1fbb 3ba2 863d 3496 afbd 020e adbd
00000170: e7e2 17bd 79bf 20bd 72aa 1e3d 644f 8cbd
00000180: 0b8b 8cbd 70fc 983d 6c89 42bd a81d 723d
00000190: 1979 4b3d 9b51 fdbb b9f9 c4bc 6c7f 9dbd
000001a0: bfe2 80bc 66f5 a83d fb96 03bd 4dbd afbc
000001b0: e4e9 103c c0d1 c9bc 144e 9dbd 80b4 233c
000001c0: 79f4 a73d 3f59 473c 7cdc d63b bac0 66bd
000001d0: b73a 963d 697b e5bb 4f49 953d 6c89 953d
000001e0: 70af d33b f720 5dbd 0ed6 efbc 2b64 99bd
000001f0: 34da 403d c803 a9bd dc9c 0c3c 63c6 8ebd
00000200: 4fb8 883d 3354 863b d684 863d 2a24 13bc
00000210: 650c 86bb cb56 dd3b 1a8d 853d 9f24 60bd
00000220: c6ed aabd 2b39 57bc d4c8 89bc 75fa bdbd
00000230: b89a a83d 2a59 b7bd 06fb 973d 9408 96bd
00000240: 67d2 99bd 42c2 0cbc 1467 c0bc 9dbc a63d
00000250: 2487 2fbc 9365 43bd 8473 2ebd c506 853d
00000260: 5e28 4cba d734 a0bd 0ee6 843d 339a 323d
00000270: 6cdc f63c b8e2 41bd b1fe 9ebd 29a7 dabb
00000280: 2fdc f0bc cb68 a53d 642e a8bc 2d9c 953c
00000290: 66e8 d6bd 247f 8c3d 5596 6f3b a472 b93c
000002a0: eee1 8b3b f1d8 893d 84c8 0a3c 1ee7 3a3d
000002b0: 43ba 19bd 965c 9ebc 883d a5bd 201d 83bd
000002c0: 99b9 be3d 6c9f 23bc c747 e63b db06 503d
000002d0: 536e bcbd d94e 4a3d 4464 b03c 3b7e 523c
000002e0: e29f 59bc be12 60bd dd45 3ebd afc3 9e3c
000002f0: 6120 cf3c 2f11 a83d 04ee f0bc f428 c13c
00000300: 1af6 53bd 0961 a0bd c223 bb3a c9a4 7dbd
00000310: b507 75bc d4b1 a5bb 6cba c43c 8d6a 193d
00000320: 643c abbb fda1 403d 7710 163d e046 a2bd
00000330: 8a11 9cbd 74ed 28bb 10af 79bc f17f f2bc
00000340: ca90 6abd be49 893a 1fa4 08bd d8ee 0d3d
00000350: de5c 6cbd 1148 bd3c 1306 4b3d 0f10 163d
00000360: 9b5f b4bd 7161 a33d 1b85 8ebd 930d 243d
00000370: 1c0a cc3c f975 a53d 71cf d43d 133c 833c
00000380: c7d2 93bc 9a47 75bd 890a 25bc 162d 24bd
00000390: af76 76bd e7a6 9a3c afba 9a3d 08a1 5bbd
000003a0: e63b 2ebd fcef 973d 1c09 87bd 7585 253c
000003b0: 6ab5 1cbd 6684 1db8 26cf d3b9 6358 de3d
000003c0: 7592 a13d 5e61 323d 749d 69bd b43e 8fbd
000003d0: 8f92 6c3c 8e59 70bd 3845 ed3d 3cdd ab3d
000003e0: d240 d0bb d4eb a6bd e1c5 d3bc d3ba 4f3d
000003f0: d679 8fbd a293 803c 3dfb 59bc 2780 89bd
0.0139333885 0.06471808 0.02243198 -0.08453378 -0.021743855 0.010919159 -0.07517114 -0.06115979
0.0051336316 -0.08185941 -0.040621188 -0.05806558 -0.07182044 -0.012750394 0.020492755 -0.021109618
-0.031450566 0.07353047 0.0639635 -0.004118588 0.019291496 0.050938934 0.088163294 -0.032231253
0.02823873 -0.024175072 -0.047093604 0.07721986 -0.020140365 -0.01533999 0.03525917 -0.07355569
-0.004009772 0.021246258 0.07979919 0.07821415 0.011895357 -0.015857428 0.05324889 -0.052446526
-0.042113155 -0.030253727 -0.070822276 0.0041362336 0.017076684 -0.024527172 0.056804825 -0.052422892
-0.01797645 0.08418994 0.025261527 0.07557873 0.06305128 0.014518051 0.08145988 0.005363316
0.04144694 -0.07721642 -0.022884669 0.055009127 0.071736775 0.004259717 0.050546214 -0.019020166
0.04527409 0.066417426 0.028142264 0.08374219 -0.033370383 -0.04423179 -0.08721703 -0.02994881
-0.06780299 0.0034683333 0.01747057 -0.036862418 -0.01934443 -0.049306788 0.05112551 0.013530114
-0.0005364155 -0.07084479 -0.08574598 -0.08144213 -0.04001649 0.0843052 0.085946605 -0.046893418
-0.002434241 0.06573912 -0.08573571 -0.084499374 -0.037081625 -0.039245103 0.038736768 -0.0685108
-0.06862458 0.07470024 -0.047494337 0.059110314 0.049676035 -0.0077306754 -0.024044858 -0.076903194
-0.015733121 0.08249931 -0.032126408 -0.02145257 0.008844826 -0.02463615 -0.07680908 0.009991765
0.08200926 0.012167274 0.0065570455 -0.056336142 0.07335418 -0.007003237 0.07289373 0.07301602
0.0064601228 -0.053986516 -0.029276874 -0.07489809 0.047083095 -0.08252674 0.00858232 -0.06971433
0.06675779 0.004099393 0.06568305 -0.00898079 -0.004090833 0.0067547313 0.065210536 -0.054722425
-0.08346133 -0.0131361885 -0.016819395 -0.092762865 0.08232635 -0.089525536 0.07420926 -0.07325855
-0.07510834 -0.008591237 -0.023486651 0.08141444 -0.010713372 -0.04770429 -0.042590633 0.06495432
-0.00077879976 -0.078225784 0.06489192 0.043604087 0.030134402 -0.047335356 -0.07763422 -0.006672759
-0.029401867 0.08076628 -0.020529933 0.018262947 -0.10493545 0.06860188 0.003655811 0.022637673
0.0042688763 0.067308314 0.008470658 0.045630567 -0.03753115 -0.019331258 -0.08068377 -0.064020395
0.09312744 -0.00998674 0.0070275995 0.050787788 -0.0920073 0.0493916 0.021532185 0.0128474785
-0.013282748 -0.054705374 -0.046453346 0.019380419 0.025283994 0.082064025 -0.02941037 0.023579098
-0.051748373 -0.07831008 0.0014277624 -0.06192473 -0.014955451 -0.005056599 0.024014674 0.03745513
-0.005225705 0.047029484 0.036636796 -0.079236746 -0.07620533 -0.0025776299 -0.015239492 -0.029602023
-0.057266988 0.0010474247 -0.033359643 0.034651607 -0.057705753 0.023105653 0.04956634 0.03663641
-0.08807298 0.0797757 -0.069589816 0.040052008 0.024907164 0.08079142 0.10391129 0.016019857
-0.018044842 -0.059882738 -0.010073313 -0.04008206 -0.06017178 0.018878413 0.07555138 -0.05362037
-0.042537592 0.0741882 -0.06593534 0.010102619 -0.038258947 -3.7555023e-05 -0.00040399394 0.10856702
0.078892626 0.043549888 -0.057034925 -0.069943815 0.014439239 -0.058679156 0.11585468 0.083918065
-0.0063553834 -0.081504494 -0.025851192 0.05071528 -0.0700566 0.015695397 -0.013304529 -0.06713896

bias f4 [128]
00000000: fcf2 60bd 5115 a5bd 63ff 4abd 513d 4c3d
00000010: ebef c4bb 81c8 a1bd b1cc c63d 7a4c 793c
00000020: 35e0 f2bb bc61 54bc 0e06 883c b3c5 be3c
00000030: 9279 ab3c 379e f0bc d380 9e3a a896 5abd
00000040: ca58 113d bf2c 063b c108 233d 8db3 c4bc
00000050: d41d ab3d e524 263c eb87 803d b614 a7bc
00000060: 96c4 4f3d 6cf8 663d de67 dfbc e680 8ebd
00000070: 0e32 d2bc 7f7f b3bc 2371 3b3d 9fc6 cd3c
00000080: 95d3 363d cb76 84bd b35c 133d 1dab 9dbd
00000090: 9af7 8bbd f6df 26bd b359 60bb 105d 3bbd
000000a0: 692b 9dbd c11c aa3d 3751 95bc ca84 9d3d
000000b0: 46c6 f8bc d9b4 153b 85e9 8fbd 9374 55bc
000000c0: 18fd 9a3d 3e29 233d 1e84 6a3d 5e5e 8bbd
000000d0: b46d 9a3d 2483 9cbd 4e61 62bd 5b53 9d3d
000000e0: c424 88bd d1b2 8f3d 0949 773d 662b 51bd
000000f0: 31b6 97bd edc6 a73d 0ad8 4ebd 06a4 eebb
00000100: d3c8 953d 1a67 733d fa74 89bd 9c02 843d
00000110: 7399 133d 733a a23d 4333 a53c 2148 3abd
00000120: c3f7 173d 716d f83c 1487 b13d 6d05 6b3d
00000130: 025d acbb f975 24bd efdb 90bd 7c7d a2bd
00000140: f940 28bd 0013 a2bc 7b40 8b3d 0ae1 3dbd
00000150: b2d5 f53c 394e 833d 02ad b83d 7c82 803d
00000160: c880 983d d467 493d 483c a0bd 4a65 cebd
00000170: 05d1 cbbd f641 efbc 9cef b13d bc0e 37bc
00000180: 87c3 43bb 876e 50bd 936a 333c e8cd 60bd
00000190: eb3f 04bd bd79 38bb ef0e c23c 3fde 3ebd
000001a0: b7e1 d33c 821b 07bd 1af6 8f3d 5633 60bd
000001b0: e2ad b2bc e488 36bd 99ed 9d3c 0f3c eb3b
000001c0: 31b0 a0bd 9c79 823b 427e 943d d653 24bc
000001d0: bfe1 01bc 782f 7fbd 0434 d73c 3c7f fb3a
000001e0: bf00 97bd 004b 023d 6179 cbbd 1a51 333d
000001f0: 7740 73bd 6062 87bd 598f a43c 47dc ddbc
-0.054919228 -0.080607064 -0.049559962 0.049863163 -0.0060100458 -0.07899571 0.097070105 0.015215987
-0.0074119815 -0.012962755 0.01660445 0.02328763 0.020931993 -0.029372318 0.0012092836 -0.053366333
0.035485066 0.0020473448 0.03980327 -0.024011398 0.08355299 0.010140632 0.06275924 -0.020395618
0.05072459 0.056389257 -0.027271207 -0.06958179 -0.025658634 -0.02191138 0.045762192 0.025119124
0.044635374 -0.064679705 0.035977077 -0.07698653 -0.068343356 -0.04074093 -0.0034233152 -0.04574305
-0.076742955 0.083062656 -0.018227203 0.07691343 -0.030367982 0.002284339 -0.07026962 -0.013028282
0.07567805 0.039834253 0.057254903 -0.068051085 0.075404555 -0.076422006 -0.05526858 0.076819144
-0.066476375 0.070165284 0.060372386 -0.05106678 -0.07407797 0.08192239 -0.050499 -0.0072827367
0.07313695 0.059424497 -0.06711765 0.0644581 0.036035012 0.079213046 0.020166045 -0.045478944
0.03710152 0.030325623 0.08668342 0.05737822 -0.005260111 -0.04015157 -0.07073199 -0.079340905
-0.041077588 -0.01978445 0.06799408 -0.046357192 0.030009124 0.06411404 0.090173736 0.06274888
0.07446438 0.049171284 -0.07823998 -0.10077913 -0.09951977 -0.029206257 0.0868828 -0.011172947
-0.0029871182 -0.050886657 0.010950702 -0.054883868 -0.03228752 -0.0028148734 0.023688762 -0.04659867
0.025864465 -0.032985218 0.07029362 -0.054736458 -0.02181143 -0.044564143 0.019278334 0.0071787904
-0.07846106 0.003981782 0.07250644 -0.010029754 -0.007927357 -0.06230113 0.02626992 0.0019187699
-0.07373189 0.031809807 -0.099352606 0.043778516 -0.05938765 -0.066105604 0.020087885 -0.027082575

weight f4 [128, 128]
00000000: 0a79 5d3d 6e86 97bd 424a 733d 784a a4bd
00000010: 2706 11bd 2757 bfbd 629d 3f3c 1af5 2bbd
00000020: 8eb6 82bc 02fd a5bd 3fc9 61bd 08c0 073d
00000030: db6f 15bd ae03 2ebd 1b8e 98bc d19e c93d
00000040: b9c9 cabb 4d49 8a3c 1046 66bc 1119 06bd
00000050: 1b91 92bd 9a8c 5b3d 9ab0 d6bd ad42 b43c
00000060: 8c13 863d 50d0 98b9 f8c8 673d 597f e13c
00000070: 8302 82bd 2daf 7f3d 80fd ad3d 484f aabd
00000080: 1d3a 513d 293c 7bbd 2ad1 233d 5b6e 343d
00000090: e0f4 72bd 7021 583d 1e19 aabd 6e15 97bc
000000a0: b479 2dbd 40cc 893d 905e a93c 0058 88bd
000000b0: a0ad 8d3c e100 40bc 1425 e43c 6311 cebd
000000c0: 5f75 2e3c f31e 08bd ed75 483d 9322 cabc
000000d0: 9bbb e3bc 8db3 06b9 8690 473d 6255 df3b
000000e0: 56e9 de3b a9b5 4ebc cfd2 b63b e93e 583b
000000f0: 5073 363d cc61 9c3d c4cb 743b daa8 933d
00000100: 0443 1d3d 9a7e 5f3c 03c6 ed3c 41fd 853d
00000110: bb91 dbbc 0efa afbd 2db2 c8bd bb7f dabb
00000120: 0324 153b 1978 8ebd e41e 5fbd 3135 833d
00000130: b99b 613d cbdc 1abb 05ca 03bd 58d0 d53d
00000140: 96cb 453d c9a8 843c 2fd2 f1b6 eff3 76bd
00000150: bce0 4d3c 3981 b4bc 8bf7 3e3d 6145 a13d
00000160: 050c 10bd 1408 693d 5ee3 a43d 8318 393d
00000170: 16a9 0cbd 4f2f 853d 4037 4fbd 7c08 303d
00000180: d4ff babd ceb1 0f39 af77 723c b6e4 a73c
00000190: 8c0d 78bd d4ef efbc 3114 aa3d b1ee db3c
000001a0: 0ffd 893d 4dff a53c 1e29 f43b 71fc 41bd
000001b0: 7fd3 3dbd a9c1 8ebd 9aa3 a3bd 68c2 3abc
000001c0: 8a68 883d 3d89 c2bc 6d78 5f3c 927c 3bbd
000001d0: ed66 233d 598b 9fbc 3ae2 d8bc d593 643d
000001e0: c687 37bc 5a2e a93d 1b40 433d 00dc d1bc
000001f0: 5a3c 50bd e459 9b3d c408 6f3b 88b3 aebd
00000200: a13d 6c3d de2e 91bd 9fde 503d 618d 88bc
00000210: adca adbc 7462 323a 2735 12bc 3ff7 98bd
00000220: a42c 7f3d 3eaf ef3d 3d2e aebd 8040 113d
00000230: 064f 58bd 3b07 a93c 528e 88bb 952c 483d
00000240: 7c82 8c3d f71e b5bd b935 2f3c 0afe acbd
00000250: 6fbe 45bd 7991 e9bc fa68 353d 9e7f 243d
00000260: e41c b53d 40f0 5d3d b5c2 94bd 453e 833d
00000270: 6414 08bd b568 193d d22d 1ebd 19d5 963d
00000280: 93c2 6b3c b5d7 6a3b 2756 3b3d 35df a9bd
00000290: b6d8 6d3d 9722 3abd ab3f 6b3d 720a fc3c
000002a0: 3350 7c3c 0bea abbc de8a 673d 97b4 913d
000002b0: d459 aebd 6c54 49bd 462f be3d 8e91 a1bc
000002c0: f918 21bd 8876 7ebb 5cad 9dbd 6529 3cbc
000002d0: ab48 273d 9e37 11bd 20ea c3bc e279 d1bc
000002e0: eadc 283d a4f0 203d ce66 193d fb09 92bd
000002f0: e108 d0bd fdb5 e7bc 3d5a 42bd 47de ae3c
00000300: 07bd de3d d086 353d 5857 2e3d 68e2 b6bd
00000310: 0757 0c3e a0a3 993d 3e33 0d3d 5021 2ebd
00000320: 4882 32bb 3386 99bd a198 243d b50c ce3d
00000330: 22a2 593d 3747 6b3a f64c b3bd ed5c cebc
00000340: 8c2b aa3c 870b e5bb 2096 1438 9366 20bd
00000350: f59e 043d 2339 bd3c 2cf3 793d e592 e8bb
00000360: 7368 063d 5d0d c3bb 64a2 68ba cb3b 82bd
00000370: 02a5 eebc a576 873b b405 233d aaf2 9dbb
00000380: c6a8 34bd 0e6e 7a3d bbbb 2d3b b9c8 15bd
00000390: 9a2b 913d 3e3a ec3c 3556 6e3d 2067 d3bc
000003a0: 83a5 02bd fb22 50bc f596 b03c d89c b43c
000003b0: 3c35 d9bc 362a 92bc 325e 33bd d9af d3bd
000003c0: acd6 f13d a487 18bd 12b5 dfbb be4a 20bd
000003d0: 6827 d7bd b317 24bd 49f6 48bd 8e9e 863c
000003e0: 6fef 87bd fd9c b5bb 8f8d 96bd dd69 33bd
000003f0: b703 1dbd 935e 55bd 5e7c 4a3c d723 b7bb
0.05407051 -0.07398687 0.05939699 -0.08022016 -0.035406258 -0.09342795 0.011695238 -0.041981794
-0.01595619 -0.08104898 -0.055123564 0.03314212 -0.036483627 -0.042483978 -0.018622449 0.09844745
-0.006188598 0.016880656 -0.01405479 -0.03273875 -0.07156583 0.053600885 -0.10482903 0.02200445
0.06546697 -0.00029146904 0.056588143 0.027526544 -0.06348135 0.06242292 0.08495617 -0.08315903
0.05108081 -0.06133667 0.039994396 0.044050556 -0.059315562 0.052766263 -0.08305572 -0.018442836
-0.042352393 0.06728411 0.020674974 -0.0665741 0.017294705 -0.01171896 0.027849711 -0.1006191
0.010648101 -0.03323264 0.048940588 -0.02467469 -0.027799418 -0.00012846124 0.048721813 0.0068155983
0.006802718 -0.012616553 0.0055793296 0.0032996482 0.044543564 0.07635841 0.00373529 0.0720994
0.03839399 0.013641024 0.029025083 0.06542445 -0.026802888 -0.08592616 -0.09799609 -0.0066680587
0.002275706 -0.069565006 -0.05447282 0.0640663 0.05508015 -0.0023630138 -0.032175083 0.10440129
0.048289858 0.016193764 -7.2068283e-06 -0.060291227 0.012565788 -0.022034274 0.046622794 0.07874561
-0.035167713 0.05689247 0.08051179 0.04518939 -0.03434094 0.06503164 -0.0505898 0.04297684
-0.091308266 0.0001370378 0.014799043 0.0204948 -0.060559794 -0.029289164 0.083046325 0.026847215
0.0673772 0.020263338 0.0074511906 -0.047359888 -0.046344277 -0.069705315 -0.07990189 -0.011398889
0.06660564 -0.023747081 0.013639552 -0.045773096 0.03989308 -0.019475626 -0.02647506 0.055805046
-0.0112018045 0.08260794 0.047668558 -0.0256176 -0.050838806 0.07585505 0.003647373 -0.085303366
0.05767596 -0.07089017 0.050993558 -0.016668977 -0.021214807 0.0006804832 -0.008923805 -0.074690334
0.062298432 0.11703347 -0.08504913 0.035461903 -0.052809738 0.02063333 -0.0041673565 0.04887064
0.068608254 -0.08843797 0.010693961 -0.084468916 -0.048277315 -0.02851175 0.044289567 0.040160768
0.08843401 0.0541842 -0.072637 0.06408361 -0.03322257 0.037453372 -0.038617916 0.07364864
0.014389652 0.0035834138 0.04573646 -0.082945265 0.058068 -0.045443144 0.057433765 0.0307667
0.01539998 -0.020985624 0.05652892 0.07114523 -0.08513227 -0.049152777 0.092863604 -0.019722726
-0.039330456 -0.0038827974 -0.07699081 -0.011484479 0.040840786 -0.03545343 -0.02391535 -0.025570814
0.041226305 0.039291993 0.037451558 -0.0713081 -0.101579435 -0.028285021 -0.04744934 0.021346224
0.10875898 0.04431802 0.042563766 -0.08929902 0.13705073 0.07501912 0.034472696 -0.042512238
-0.0027238298 -0.074962996 0.04018462 0.100610174 0.053133138 0.00089751504 -0.087549135 -0.025190795
0.020772718 -0.0069898996 3.5425765e-05 -0.039160322 0.032378156 0.023098534 0.061022922 -0.0070975893
0.032814454 -0.0059525208 -0.0008874296 -0.06359061 -0.029131416 0.0041340166 0.03980036 -0.0048201876
-0.044106267 0.061140113 0.00265096 -0.036568377 0.070883945 0.028836366 0.058187682 -0.02580601
-0.031896126 -0.0127036525 0.021556357 0.022047445 -0.026514642 -0.017842393 -0.043791004 -0.10336275
0.118085235 -0.037238732 -0.006827005 -0.03913378 -0.10505563 -0.040061664 -0.049063 0.016433027
-0.06637465 -0.005542396 -0.07351219 -0.04380213 -0.03833362 -0.052092146 0.012358753 -0.0055889892

bias f4 [128]
00000000: b106 debd 8869 1f3c 9376 a53d d65a acbd
00000010: 267c 12bc 7899 8ebd 8d0c 823d ea8e 9a3d
00000020: d04f 0fbd acac 9d3d 3789 453b 1c18 37bd
00000030: abb3 06bd 28df 35bd 9540 7ebc 79a7 a33d
00000040: 9fec 063c 42f5 043d 89f1 b1bd ac3f 733d
00000050: 7b1f 58bb 4b91 7abd c231 45bd b242 a93d
00000060: 624f 90bd bc70 b0bd aa49 40bd 4016 b33d
00000070: 18c7 b7bc e0e0 68bd 161c cfbc 3989 58bc
00000080: 4b0b 2abc 40a4 65bd a0b1 80bc da25 97bd
00000090: 7f16 91bd 7380 273c 7ecf 9e3a 8e97 c63c
000000a0: 72ca 14bd 617d 34bd 95c8 7d3d 1ef1 9b3d
000000b0: 4b6f 843d 627f b63c 633e c7bb db61 01bd
000000c0: 99ca f33c 54fc da39 3037 86bd d43b e53c
000000d0: bd42 493d b884 edbc f4f5 8b3d 8ced 2bbc
000000e0: 9d8b f73b b29b 953d 4e76 893c 13cd 9e3d
000000f0: f8e9 c7bc 03e0 b0bc 6030 9b3d e549 49bd
00000100: 8b49 9bbd 4ea6 53bd 4a4f 68bd d239 60bb
00000110: 1e83 a53d 00ff 83bb 79b9 31bd 38ef 823d
00000120: a19d 2b3d 792a a3bd 735b 6d3c 1d8f 80bd
00000130: 0272 fa3c 3fec a4bd 67e8 463d 6d83 dc3c
00000140: 1e37 a4bb c0e7 90bd be97 d9bb 0814 11bd
00000150: 99f8 9f3d 3bad 65bd e40a 09bd 4183 e0bc
00000160: 25cd 483c 11f0 1ebd 3bb3 a4bd dfad 08bd
00000170: f9a9 9cbd 61a6 22bd 84f5 b2bd 23e8 09bd
00000180: b147 ac3c 2f13 813d 1ec3 9fbd 95e1 8d3c
00000190: 3528 51bc 4d02 2e3d 6920 9bbd e7e4 aabd
000001a0: 8585 c2bc f695 d5bc da4d 87bb cb7e 8bbd
000001b0: 0e25 a33d b701 ccbc fc77 67bd 0123 cdbc
000001c0: 5f4d 85bd 7936 02bd 71fc a3bd a8a7 91bc
000001d0: ec8a 2ebc 3e04 24bd fab8 8ebd e396 9fbc
000001e0: 4717 c5bb f074 c1bd a4af a53d a5cb 1fbd
000001f0: d88d 1e3d 7f9b b3bd e155 0abd 2724 a2bd
-0.1084112 0.00972975 0.08079257 -0.08415763 -0.008940732 -0.069628656 0.0635005 0.0754679
-0.034988225 0.0769895 0.00301416 -0.044700727 -0.03288619 -0.04440227 -0.015518327 0.07990927
0.008235126 0.03246046 -0.08688647 0.059386894 -0.0032977748 -0.06117372 -0.048143156 0.08264674
-0.07046391 -0.086152524 -0.04694525 0.08744478 -0.022433802 -0.056855083 -0.025281947 -0.01321631
-0.010378669 -0.056064844 -0.015709698 -0.073802665 -0.07084369 0.010223496 0.0012116281 0.024242189
-0.03632588 -0.044064883 0.061958868 0.07614349 0.0646654 0.022277538 -0.006080435 -0.031587463
0.029759692 0.000417682 -0.06553495 0.02798263 0.049135912 -0.02899395 0.06834021 -0.010493647
0.007554485 0.07305087 0.016780045 0.077539586 -0.024403557 -0.021591192 0.07577586 -0.049142737
-0.075823866 -0.051672272 -0.05671624 -0.003421415 0.08081649 -0.004028201 -0.04338977 0.063932836
0.041898374 -0.079670854 0.014487135 -0.06277297 0.030571941 -0.08052873 0.04856148 0.026918137
-0.0050114533 -0.07075453 -0.0066404035 -0.035419494 0.07811088 -0.05607341 -0.03345765 -0.027406337
0.0122559415 -0.038803164 -0.08041998 -0.03336894 -0.07649607 -0.039709453 -0.08738235 -0.03366865
0.021030279 0.06302487 -0.078008875 0.01731948 -0.012765934 0.042482663 -0.07574541 -0.08344441
-0.023745308 -0.026072484 -0.0041291537 -0.06811293 0.07966052 -0.024903161 -0.05651091 -0.025041105
-0.06508898 -0.03179023 -0.08007134 -0.01778014 -0.010653239 -0.04004311 -0.06968875 -0.019481128
-0.0060147378 -0.09446132 0.080901414 -0.03901257 0.03870949 -0.08769893 -0.033773307 -0.07917052
