results/model/neural_588.model (torch, 686563 bytes, 21 tensors)

weight_ih f4 [384, 5]
000000 84 76 8e be b3 b3 13 3e 75 be 95 ba c6 4c 1a 3d
       -0.27824795 0.14424019 -0.0011424558 0.037670873
000010 06 99 95 be 0c 90 86 bd 64 2b a9 3d b0 41 4e 3e
       -0.2921831 -0.065704435 0.08260229 0.20142245
000020 43 cc 30 3e 6a c5 30 be 57 50 12 bf 3f a2 34 be
       0.1726542 -0.17262807 -0.5715384 -0.17640017
000030 d7 f4 3e 3c f5 08 6e bd 62 3c 80 3e af 1d 5e 3d
       0.011655054 -0.05811401 0.25046068 0.054227527
000040 b3 34 d0 3d 51 a6 bc bc da 0a 2e bd 7e e7 2e 3e
       0.101663016 -0.023028525 -0.042490818 0.17080495
000050 e8 83 ca bc 6d 62 91 be 85 ce 08 3b b8 b8 cb bd
       -0.0247211 -0.28395405 0.0020875048 -0.09947342
000060 70 33 8a 3e bb 9e 48 3e b5 15 cd 3d 4a d0 3b 3c
       0.2699237 0.19591801 0.10013906 0.011463234
000070 3c bb e5 3d 4e 81 04 bd 29 42 e9 3d 26 51 fe 3d
       0.11217353 -0.032349877 0.11389572 0.124178216
000080 c7 fd c1 3d ab eb 0f 3e fd 34 04 3e 46 d1 1d bd
       0.09472232 0.14054744 0.12910838 -0.038529657
000090 41 8a 7c bb 86 3d d5 bd 66 14 4b 3e 22 d8 a0 3e
       -0.0038534554 -0.10412125 0.19832 0.31414896
0000a0 d4 c0 42 3d 95 7d 0e bd 9a ec b0 3d ea c8 f2 bd
       0.047547176 -0.034787733 0.08638878 -0.118547276
0000b0 9c 09 f0 3e 1f b8 97 be 0c ca 46 be 06 5d 57 bd
       0.4688233 -0.2963266 -0.19413012 -0.05257895
0000c0 fd 3f 8a 3b 2e a0 ed 3e 88 7a 15 be c2 42 b3 bc
       0.004219054 0.4641127 -0.14597523 -0.021882419
0000d0 36 63 e5 3d e7 78 e0 3c 6b 0c e5 bd ea ed f0 bd
       0.112005636 0.0274014 -0.11184009 -0.117641285
0000e0 cf 2c f4 3d dd 38 c6 3d 86 6c cf bb 7c a5 40 3e
       0.11922609 0.096788146 -0.0063300757 0.18813127
0000f0 a6 30 82 be 9c f6 96 3e ab ad f1 bd d7 a5 09 bd
       -0.2542774 0.29485023 -0.11800703 -0.033605423
000100 f1 80 8b 3c dc 97 de 3b 8e 69 bd 3e 7d 5e 04 be
       0.017029257 0.0067930054 0.36994594 -0.1292667
000110 e7 5e 8d bc eb cb 31 bd 82 69 9b bd fb f2 bc 3d
       -0.017257167 -0.043407362 -0.075884834 0.09226032
000120 59 54 10 3e 77 54 a8 3c 67 c6 c0 3a cd 8b ea bd
       0.14094676 0.020548088 0.0014707566 -0.11452446
000130 46 bf 82 be 64 6a aa 3d 0e b5 88 bd b8 b0 81 be
       -0.25536555 0.08321074 -0.066751584 -0.25330138
000140 a2 7b 8c be a8 8d 5e 3d 9f eb d0 3d ef 80 15 be
       -0.27438074 0.054334313 0.10201191 -0.14599966
000150 18 dd 2b be 30 17 72 bd 73 78 47 bd 74 8a e9 bd
       -0.1678356 -0.059104145 -0.048698854 -0.11403361
000160 6c 47 d3 3d f4 e6 49 3e 7d 1f 86 3d 06 2a e8 bd
       0.10316357 0.19717008 0.06548975 -0.1133614
000170 91 a6 01 3d a1 33 97 bd 1e 39 72 3e fa 54 a4 bd
       0.03165299 -0.07382894 0.23654601 -0.080240205
000180 38 00 07 bd 80 57 92 3d 8a 9d 2a 3d 1a 1b 1b be
       -0.032959193 0.071455956 0.041654147 -0.15147057
000190 bc f9 f4 bd ea fe aa 3d a6 aa d8 bd 0a db 97 3d
       -0.119616956 0.08349402 -0.105794236 0.07414825
0001a0 57 46 43 3d 42 3a 10 3e ef 52 41 be 66 4a 80 bd
       0.047674503 0.14084724 -0.18879293 -0.062641904
0001b0 a8 3f f2 3c 95 59 93 be ec cd f4 3d 92 a0 45 be
       0.02957137 -0.28779283 0.11953339 -0.19299534
0001c0 c0 3b 9d bd 1d fe 71 3d e3 e8 65 be b3 2f fc 3c
       -0.07677412 0.059080232 -0.2245212 0.030784464
0001d0 f6 7c 21 be a9 8b ee bc 51 dd 04 3d c6 0b 09 be
       -0.15770325 -0.02911933 0.032437626 -0.13383397
0001e0 50 64 02 3d ef 0a 1e be 14 25 b7 bb e7 90 e3 3d
       0.031833947 -0.15433858 -0.005589137 0.11111622
0001f0 82 15 9d bd 6f 5d 63 3e 7d c0 ad b6 c0 2b a0 3d
       -0.07670118 0.22203611 -5.1782104e-06 0.07820845
000200 e9 72 96 3e ab dc 2d bc 1a 17 38 be 11 80 a2 3c
       0.29384544 -0.010611693 -0.17977563 0.019836457
000210 f1 54 9f 3d d9 1b ca 3d 6b d3 c6 be b2 6d a1 3d
       0.07779873 0.09868593 -0.38833174 0.07882251
000220 34 5f f3 3d 41 e8 d1 bd a6 47 d8 3d 92 b3 97 bd
       0.11883393 -0.10249377 0.10560541 -0.07407297
000230 a6 ca 76 bd 86 3e 8d bd c9 01 1b be 98 d8 ea bd
       -0.060251854 -0.06896691 -0.151374 -0.11467093
000240 99 c5 1a be c9 c7 a8 3d 94 0f 99 3e f5 62 ea 3d
       -0.1511444 0.08241231 0.29894698 0.11444656
000250 87 b7 8a 3c 6f d9 63 3e 52 bf f0 3c 2c 10 31 bd
       0.016933216 0.22250913 0.029388104 -0.043228313
000260 29 39 9e bd d6 d7 8f bd d4 1a 1d be 34 38 5c 3e
       -0.07725746 -0.07023589 -0.15342265 0.21505815
000270 38 b8 be 3d 4a 35 f7 3d dc 91 12 3e 2e ae 24 3e
       0.09312481 0.12070711 0.14313453 0.1608207
000280 d0 90 3d 3e 76 4c 86 3e d3 02 59 3e ee 5c 0a 3e
       0.18512273 0.2623021 0.21192484 0.13512012
000290 ea ef 64 3d 04 a2 08 bd 40 44 42 bb ce 42 4e bd
       0.055892862 -0.033357635 -0.002964273 -0.05035668
0002a0 99 6e a7 3d 2b ce 82 bd 99 01 c8 3d 41 05 66 be
       0.08175392 -0.0638698 0.0976593 -0.22462942
0002b0 ef 4e 83 3d 7a 9f 03 3d 83 79 57 3a 5a 22 a0 3d
       0.0641154 0.03213451 0.0008219706 0.07819052
0002c0 3b 6d 17 3e 47 76 7b bb a8 e2 af 3d 14 d1 28 3e
       0.14787762 -0.003837006 0.08588153 0.16486007
0002d0 59 b6 1f 3e 11 7d cd 3c d9 8f 3d be 2f e5 3c 3d
       0.15596904 0.02508405 -0.18511905 0.046117004
0002e0 d0 b7 3a be a8 ea e9 3d 86 b3 0c be a3 23 3d be
       -0.18234181 0.1142171 -0.13740358 -0.18470626
0002f0 a3 d9 1c bb af 86 cc bd 7f d7 6d 3d 08 87 9f 3d
       -0.0023933433 -0.09986626 0.05806684 0.07789427
000300 ee f5 bc b9 87 a1 64 3e 02 a4 98 3d 78 ab e6 be
       -0.00036041386 0.22327243 0.07453157 -0.45052695
000310 a4 3d ee bb d8 dd 48 3d 5f c5 0a be 34 61 36 be
       -0.0072705317 0.04903969 -0.13551854 -0.17810518
000320 b1 80 37 be 74 2f 3a bc 98 fd da 3d b4 c8 75 bd
       -0.17920186 -0.011363853 0.106929004 -0.06000586
000330 71 da 9e be 76 ea 88 bd 66 a8 ac be d0 7b fc 3c
       -0.31026033 -0.06685345 -0.33722228 0.030820757
000340 04 a4 c8 bd 47 ea b6 3d e3 9d 88 3d 63 ef 7a 3e
       -0.097969085 0.089314036 0.066707395 0.24505381
000350 9e 9a 2e 3e 83 f9 04 3e 0a 66 e0 bc a2 c2 6a 3b
       0.1705117 0.12985806 -0.027392406 0.0035821577
000360 d1 35 5e 3a 26 04 ed 3d 5b 4f 92 bc e0 9c bc 3c
       0.0008476647 0.11573057 -0.017860105 0.023024023
000370 63 29 fd 3d 89 f4 61 bd e3 84 3e 3e 8b df 5b 3d
       0.123614095 -0.055164848 0.1860538 0.053679984
000380 05 8c d5 3d 80 ef 14 3e 6f 4d f5 bd 52 64 d2 bd
       0.10427097 0.14544487 -0.1197766 -0.10273041
000390 09 8b 0d 3e e1 f8 8c be 49 d0 80 3d 0b c6 b6 3d
       0.13822569 -0.2753363 0.06289727 0.089244924
0003a0 e6 98 25 3e 94 30 85 3d 61 96 2c 3d a1 4d e5 3d
       0.16171607 0.06503406 0.0421356 0.11196447
0003b0 16 6c 29 3e a5 74 d0 3d b6 2f cf 3d 21 8f 9e 3c
       0.16545138 0.10178498 0.10116522 0.019355359
0003c0 69 58 29 3d 8c 6c a0 3d b8 9c 08 3e ff e7 a9 3d
       0.04134408 0.07833204 0.13341033 0.08296203
0003d0 11 af e0 3d 5b 03 bc 3c 51 17 88 be 0a 1f 01 3e
       0.10970891 0.022950819 -0.2658029 0.12609497
0003e0 38 79 74 3d 57 45 b1 3d 77 67 8f 3d 25 1f 9c be
       0.059685916 0.08655804 0.07002156 -0.3049251
0003f0 55 81 05 3e 3f 47 43 3d f9 2a 90 3e c1 c7 2c be
       0.13037618 0.047675367 0.28157786 -0.16873075

weight_hh f4 [384, 128]
000000 5a 77 ed bc 75 c3 19 3d 42 21 68 3c 3a f8 a9 3c
       -0.028987575 0.037539918 0.0141680855 0.020748246
000010 34 f4 e9 3a c9 10 ab bc cd 20 87 be 5d 74 8f bd
       0.0017849267 -0.020882027 -0.26392213 -0.070046164
000020 d6 74 87 bd 9a a2 96 bd 86 f8 10 3e e7 0e 7d 3d
       -0.066140816 -0.073552325 0.14157304 0.06178179
000030 b6 37 d9 3b 3a 54 a7 bd 4a 6f 3d 3e a8 bf a6 be
       0.0066289557 -0.08170362 0.18499485 -0.32568097
000040 68 34 15 be 12 57 9b 3e 12 43 92 3c 7d ba 15 be
       -0.14570773 0.30339867 0.017854247 -0.14621921
000050 a8 eb 93 3e e7 d3 9d b9 dd f6 8f bd 74 84 be 3a
       0.2889073 -0.00030103253 -0.07029507 0.0014535324
000060 65 51 59 be ad d5 ab 3e d5 f1 bd bd f2 8c 07 bd
       -0.21222456 0.3356146 -0.092746414 -0.0330934
000070 d0 fb 5f 3e d6 8d 14 be 52 a9 65 3d 78 68 14 be
       0.21873403 -0.14507231 0.05606968 -0.14492977
000080 53 52 c2 3d f1 65 c9 3d ac c5 5d 3e 03 22 d8 bd
       0.09488358 0.09833897 0.21657437 -0.10553362
000090 e1 ad 9a 3d 69 f6 bd 3d 22 32 89 bd c4 0c fd bd
       0.07552696 0.09275515 -0.06699015 -0.123559505
0000a0 9f a3 af bd a1 8d 85 be 81 ac 94 3e 99 cf f3 3d
       -0.0857613 -0.26084617 0.2903786 0.119048305
0000b0 94 40 17 3e cc 46 28 3c 2b 65 c6 3d 37 7e 8e 3d
       0.14770728 0.010270786 0.09687265 0.06957667
0000c0 b4 48 eb bd b8 74 99 3c d2 26 68 3e 6e bf b8 bd
       -0.114884764 0.018732414 0.22671059 -0.09020887
0000d0 67 7a 59 3e 4a 7c 25 be f6 f7 a1 3c 30 bf 15 be
       0.21238099 -0.16160694 0.019771557 -0.14623713
0000e0 d4 7c 62 bd 4b 3e d4 3d 8a 96 af 3d 16 b2 6e bd
       -0.055294827 0.10363444 0.08573635 -0.058275305
0000f0 d7 2b 57 3e b9 d0 01 3d 84 d8 08 3d ba 73 dd bc
       0.21012817 0.031693194 0.03340961 -0.027032722
000100 52 db 81 be e2 cd 9c 3d b6 e5 83 3d fa d9 96 bd
       -0.2536264 0.076564565 0.06440298 -0.073657945
000110 ae ea d4 3d c6 3f 30 bc 68 59 2d 3e d1 78 15 3e
       0.10396324 -0.010757392 0.16928637 0.14596869
000120 08 73 8c 3d 81 b3 11 3e 58 cc 50 bc d5 53 a7 3c
       0.06857878 0.14228632 -0.012744032 0.020425716
000130 3d 34 44 be 1b 22 11 3e 21 58 b0 bb 49 58 2e 3e
       -0.19160552 0.14173166 -0.0053815995 0.17025866
000140 3d f2 98 3d 9f 6a d7 bd c3 95 f5 3d 32 aa bc bc
       0.07468078 -0.10518383 0.119914554 -0.023030374
000150 b4 6e b4 be 9a 41 d5 3d ca 36 57 be da cf d0 bd
       -0.3524071 0.10412903 -0.21016994 -0.101958945
000160 f9 d5 a7 3d 7d de 31 be 1c be 1d 3d 4b ba c7 bd
       0.08195109 -0.17370029 0.03851138 -0.097523294
000170 c8 b3 82 bd ef a0 18 3d 58 4c 69 3d af e1 85 bd
       -0.06381947 0.037262853 0.056957573 -0.06537186
000180 68 94 ca be 7f 14 99 3e e4 4c 38 3e 6c 6e fa 3d
       -0.3956635 0.2989845 0.17998081 0.122280926
000190 34 18 dd 3d 3f d5 19 3e 8a da e3 bd d8 ad 8e 3d
       0.10795632 0.15022753 -0.111256674 0.06966752
0001a0 6f ca 44 bd 51 fc 45 3e a8 3f 24 be 8d 41 eb bd
       -0.04804462 0.19334532 -0.16039908 -0.11487112
0001b0 43 b9 06 bd a7 78 d2 3d af 53 50 bb c9 15 b2 bd
       -0.032891523 0.10276919 -0.003178816 -0.086955614
0001c0 27 cb c3 bd d9 4d 27 3e d1 9b f3 bd a2 c3 12 3d
       -0.095602326 0.1633829 -0.11894954 0.0358311
0001d0 86 bd 98 be e8 73 e5 3d 3b 03 b8 bd 8d 62 26 3d
       -0.29832095 0.11203748 -0.08984991 0.04062133
0001e0 38 2d 62 be 6e ce fe ba 31 13 39 3e af 22 12 bb
       -0.22087562 -0.0019440183 0.18073727 -0.0022298505
0001f0 da 3a 40 be 15 fc 0a be ac 44 55 3d 45 10 13 3d
       -0.1877245 -0.13572724 0.052067444 0.035904188
000200 65 63 b6 bc 92 0f 37 3e 65 fd cc 3e b5 b4 03 be
       -0.022264192 0.17877033 0.40037075 -0.12861903
000210 4a 9a 9d 3e b6 d4 9b 3d 66 7f 16 3e 2c 85 7b 3d
       0.30781776 0.07608931 0.14697036 0.0614063
000220 64 eb 18 3e 7d df ea 3c 99 08 2c 3e 0d fd 8f 3d
       0.14933544 0.02867102 0.16800155 0.070306875
000230 c2 df 4f be b0 dd 5b 3e ba 89 57 3e 78 6a f7 bd
       -0.203002 0.21471286 0.21048632 -0.12080854
000240 64 4e 46 be f0 d5 df 3c f1 a5 4b be 72 0c 1d 3e
       -0.19365841 0.027323693 -0.1988752 0.15336779
000250 e6 ae 1e 3e fd 7d ff 3d 16 70 d8 bd 63 c1 48 be
       0.15496406 0.12475202 -0.10568254 -0.19605021
000260 a5 dc 1d bd 45 71 8e 3e d4 82 a6 3d 54 9e 1d 3d
       -0.0385405 0.27820793 0.08130422 0.03848107
000270 26 54 4c bb a7 7d 95 3d a8 9c 97 bd 82 90 dc 3c
       -0.0031178086 0.07299357 -0.07402927 0.026924375
000280 93 bb a7 bc 02 96 93 bd a5 63 b0 3c 8e 15 9a 3d
       -0.020475185 -0.07206346 0.02153189 0.075236425
000290 79 b1 85 bd a4 26 d0 bc 7f 3c 98 3c c4 53 bf be
       -0.06527991 -0.02540905 0.018583534 -0.37368596
0002a0 dd 83 86 bd d0 31 3a bd 14 90 5e 3d b8 9e bb bd
       -0.0656812 -0.04545766 0.054336622 -0.091611326
0002b0 ac 7c 4f 3d b8 98 00 3d da ac ef 3c 88 01 d9 bc
       0.050656006 0.031395644 0.029257227 -0.026489988
0002c0 f7 67 b2 bd 6f de e6 3d ee 1c 25 be 9d e5 8c bd
       -0.08711236 0.112728946 -0.16124317 -0.06879733
0002d0 34 c5 71 3d c6 c9 2b 3d 7e 78 53 3d 9d 78 c4 3c
       0.05902596 0.041940473 0.051628582 0.023983294
0002e0 be 92 7a bd 38 79 c0 3d 69 66 b4 3d f8 fd bc 3d
       -0.0611751 0.09398121 0.08808596 0.09228128
0002f0 1a db c8 3d 52 58 5e 3d 7f 25 94 bd 90 d1 43 bd
       0.09807415 0.054283448 -0.07233714 -0.047807276
000300 d1 77 0e bd 89 6e 27 3d 55 c7 9f bd e2 e9 43 3e
       -0.034782235 0.0408769 -0.078016914 0.19132188
000310 3f d5 5e bd 19 f1 4f be 99 73 d1 3d 95 3c 85 bd
       -0.054402586 -0.20306815 0.10227127 -0.06505696
000320 66 71 5c 3d cd 9c f4 bd 53 1a 03 be 9a ce 1e be
       0.053819083 -0.1194397 -0.1280301 -0.155085
000330 5c e2 b1 3c ba 53 da 3d ed 03 20 be 8f 6a 85 3d
       0.021714382 0.10660501 -0.15626498 0.06514465
000340 3f 50 d4 3d b5 db fa bd c0 ea 41 3c 99 b4 75 3e
       0.10366868 -0.12248937 0.011835754 0.23994674
000350 a3 73 32 3e 85 1d 31 be ef db 39 be cb a2 c8 bd
       0.17426924 -0.17296417 -0.18150304 -0.09796675
000360 8d 45 4d be 56 25 66 be f2 2d 98 3e 4b d6 1d be
       -0.20046063 -0.2247518 0.29722553 -0.15413778
000370 e7 aa 41 bd 2e c0 3f be 0c 1a 8c bd ee 1e a8 3d
       -0.047282126 -0.18725654 -0.068409055 0.08209024
000380 de c1 e3 3d eb 04 e9 bd f2 ba 8d bc ff e9 79 be
       0.111209616 -0.11377891 -0.017301057 -0.24405669
000390 57 25 f9 3d 62 ed 38 3d cf 49 0a 3c 18 f7 0c 3d
       0.12165325 0.04514826 0.008440449 0.034415334
0003a0 bb 20 31 3d 0a 44 82 bc a9 46 24 3c 5b c7 22 3e
       0.043244105 -0.015901584 0.010026612 0.1589636
0003b0 ac 75 26 3e 62 d5 2e 3e d6 ca 81 bd bb 1b 48 3e
       0.16255826 0.17073587 -0.06337516 0.19541828
0003c0 2b 5c 18 be d7 ee 5a 3e 59 62 b8 be 89 10 87 bd
       -0.1487891 0.21380173 -0.36012533 -0.06594951
0003d0 6b 8d d0 3d 32 4a 9f be cb 0f 30 3e 06 25 ee bd
       0.10183223 -0.31111294 0.17193525 -0.116281554
0003e0 7f e9 28 3e 06 a4 c3 3a cd fc f9 3d 76 2f cf 3c
       0.16495322 0.0014926202 0.12206421 0.025291186
0003f0 11 c4 26 bd e6 57 b6 bd b4 6d fa 3c 4f 46 e1 bc
       -0.040714327 -0.08903484 0.030569889 -0.027499346

bias_ih f4 [384]
000000 61 1b 27 bd e7 4f 5f 3e fa d8 75 3d 5a b5 06 3d
       -0.040797595 0.21807824 0.060021378 0.032887794
000010 75 da e8 bd fb e3 95 3b 37 e8 d5 3c 9b e0 34 3e
       -0.11369792 0.0045742965 0.026111705 0.17663805
000020 3a 1c 9e bd 7c 14 a2 bc a5 ce 79 3d d8 8c 46 bd
       -0.077202275 -0.019785158 0.060988087 -0.048474163
000030 a6 2b 3e 3d 77 d8 89 bd 4e 48 06 3e a6 b2 fb bd
       0.046428345 -0.067307405 0.1311352 -0.12289934
000040 4e 2a 1a be 1c 9c 29 3d 4c 4d 18 bd 65 88 02 3e
       -0.150552 0.041408643 -0.03718309 0.12747343
000050 4d 52 1a 3e 1d c9 83 3d 80 eb a8 3d 08 90 ed bc
       0.15070458 0.06434844 0.08248043 -0.028999344
000060 af fb de 3d 86 e1 18 3e 59 15 9f 3d 7e 6d 70 3d
       0.108878486 0.1492978 0.077677436 0.05869817
000070 d5 d7 1c be f2 9b 07 be 0e f3 9e 3c 2e 64 12 3e
       -0.15316708 -0.13243082 0.019403007 0.14296028
000080 a7 55 10 3d e2 3e 03 3b d2 de d7 3d fc a5 cc bc
       0.035237934 0.0020026495 0.105405465 -0.024981491
000090 79 74 d4 bc 1c 96 ef 3b 34 19 2f 3e f8 ac db bd
       -0.025934445 0.0073115956 0.17099458 -0.107263505
0000a0 44 01 76 bd 79 ec cd bd 71 fb d4 3d fb f0 72 3c
       -0.0600598 -0.10054869 0.10399521 0.014827962
0000b0 db 12 0f 3d 86 3d 00 3e 3b 4c ae 3d b8 98 92 bc
       0.03493009 0.1252347 0.085106336 -0.017895088
0000c0 a6 c5 9d bc 7e 21 dd 3c 15 f4 1b 3e 86 c2 0e 3c
       -0.019259285 0.02699351 0.15229829 0.00871337
0000d0 cc 3a 42 3e ab e1 37 3d de 25 99 bc e5 cd 24 3e
       0.18967742 0.044892948 -0.018694814 0.16094168
0000e0 5e 54 9a 3d 4e 71 07 3e 5c cf 89 bc 43 2f 05 3d
       0.07535623 0.13226816 -0.01682251 0.032515775
0000f0 1f dc df bb 03 de 10 3d 46 55 11 3e 7d f7 85 3d
       -0.0068316604 0.035367977 0.14192685 0.06541345
000100 60 9e 94 bd 21 e1 92 3d 31 10 1e be e3 3b 22 3e
       -0.0725677 0.07171846 -0.15435864 0.15843157
000110 7b 4c 2c 3e d5 38 9b 3d 85 a5 1a 3e c5 ba 95 bb
       0.1682605 0.07579199 0.15102203 -0.004569384
000120 6c cc 3b 3e 01 ba 9e bb e2 74 2e 3d 66 ff ec bc
       0.183397 -0.0048439507 0.042591937 -0.028930377
000130 ad 1a 5f bc 67 99 1f 3e 7b bb da 3c 8b 64 65 3e
       -0.0136172 0.15585862 0.026700726 0.22401635
000140 01 f3 37 3e f7 2b 86 bc 1e 44 c9 3d 48 1d bb 3e
       0.17963792 -0.016378386 0.098274454 0.36545777
000150 2c 17 73 3d df f8 da bc 68 07 83 bc fc af fc bd
       0.05934827 -0.02673 -0.015994743 -0.12338254
000160 0c e8 d4 3d 55 39 de 3c eb 47 41 3d cc 4e 15 be
       0.10395822 0.027126947 0.047187727 -0.1458084
000170 32 3d 37 bc f9 dd f9 3d 09 e2 6e 3d c0 1f 24 3e
       -0.011184024 0.12200541 0.058321033 0.16027737
000180 aa 60 ee bb 9e de 82 3d 22 1c 61 bb ef 86 1c bc
       -0.007274707 0.06390117 -0.0034349044 -0.009553655
000190 8c 05 91 3d 43 02 ea bc 8e ae 33 be 55 b9 86 bb
       0.07081136 -0.028565532 -0.17547056 -0.004111449
0001a0 bf 97 c0 bd 13 e3 e6 3d 85 af e7 3c f2 41 49 3d
       -0.09403943 0.1127378 0.028281936 0.049135156
0001b0 11 a5 96 bd 17 54 17 3e 9c ce 0c 3b ca 19 85 3c
       -0.07355703 0.14778171 0.0021485453 0.016247649
0001c0 ff d3 da bd 9b ce 8b 3e 7a 24 ed 3d c7 ec 94 bd
       -0.10684966 0.27306065 0.11579223 -0.07271724
0001d0 b6 2a e9 3d 4c 6f b9 3d 6c 1b 1b 3e 3d c5 0e bc
       0.113850996 0.09054431 0.1514718 -0.008714017
0001e0 a1 d0 95 3d d1 c2 a9 3d 24 5f cf 3d 47 de 38 3e
       0.073151834 0.082891114 0.101255685 0.18053542
0001f0 d4 7b c4 3d cd db 9b 3d 4a 7c 72 3e 25 c2 79 3d
       0.09593931 0.07610283 0.23680225 0.060976166
000200 f3 b0 1d 3e 89 ee 3f bd dd 13 02 3d c5 d4 48 bd
       0.15399532 -0.046858344 0.031757224 -0.049031038
000210 e7 d4 e4 3d 95 d9 31 3c 85 e4 f9 3c 10 a2 01 be
       0.111734204 0.010855098 0.030504474 -0.12659478
000220 f4 f4 1c bd d7 45 7c 3d e8 0a 16 be 30 bf ea bc
       -0.038319543 0.061590042 -0.14652598 -0.028655618
000230 77 42 c3 3b 70 47 d8 3d 14 c5 b7 bc c5 4d 49 3d
       0.005958851 0.105605006 -0.022432841 0.049146432
000240 97 0e 08 3d 03 57 a8 bd 4a ad a4 3d b7 98 ab 3c
       0.03321704 -0.08219721 0.08040865 0.020946844
000250 5b a3 49 bd 1d b7 90 bd 0f bf 16 bc 25 77 1a be
       -0.049228054 -0.07066176 -0.009200825 -0.15084513
000260 1e 7b 1a 3c 48 25 09 be 5f 8a 38 3e 35 82 aa 3d
       0.0094287675 -0.13393128 0.18021534 0.08325616
000270 4b 25 d4 3d 6e dd 93 b9 c4 fd 7d bd 8f 64 33 be
       0.103586756 -0.00028203003 -0.062009588 -0.17518829
000280 b7 12 36 be 41 72 a0 3d bc 7e ea bd d9 fc 84 be
       -0.17780577 0.07834292 -0.11449954 -0.25974157
000290 6c 4c bf 3d 0a c3 0e bd d7 0b 35 be 4c 32 ae bc
       0.09340748 -0.034853972 -0.17680298 -0.021264218
0002a0 a9 7e 67 bd ae 41 31 3c 87 21 85 bd 7e d6 1e be
       -0.056517277 0.010818882 -0.065005355 -0.1551151
0002b0 da 28 09 3e b3 37 13 bc 35 6c 02 3c 5c 1a 2e be
       0.1339449 -0.008985448 0.007960369 -0.17002243
0002c0 d3 4d 0d be 7c a9 0e be 10 d6 83 bd 0a ca 13 bd
       -0.13799219 -0.1393184 -0.064373136 -0.03608135
0002d0 87 76 28 bd b8 8c b1 bd 74 26 bc bd 8c b6 db bc
       -0.04112866 -0.08669418 -0.09187022 -0.026820444
0002e0 7e a8 0c bd 56 0e 9d 3d 3f 74 ad 3e a6 b1 e3 bc
       -0.034340374 0.0766875 0.3387775 -0.02779467
0002f0 e7 86 47 bc cb 96 94 bd 88 49 4a be c1 c0 3d be
       -0.012178159 -0.07255324 -0.19754612 -0.18530561
000300 c1 6a 9f 3d 32 4e 1e be 2b b7 0d bd c4 a9 d1 bc
       0.077840336 -0.15459517 -0.03459851 -0.025593646
000310 e0 37 f8 3c 4c e3 14 be 6d 1d 32 be d9 e4 95 3d
       0.03030008 -0.14539832 -0.17394038 0.0731904
000320 80 90 1b 3c 83 f3 25 3d 4f 74 0e bd 09 66 a8 bb
       0.009494901 0.040515434 -0.03477889 -0.0051391167
000330 31 3a e7 3d 39 18 31 be 23 fd 37 be e1 ce 95 3b
       0.11290396 -0.17294396 -0.17967658 0.004571781
000340 36 b3 a6 3d 9b f4 1e bd 42 d4 b0 bd ab 19 17 bc
       0.081396505 -0.038807493 -0.08634235 -0.009222428
000350 d2 95 c4 3c f2 34 9a 3d 23 55 64 bd 4c b4 fc bd
       0.023997221 0.0752963 -0.055745255 -0.123390764
000360 b0 7b fc 3d ec 84 8f bd b3 1a b9 bd 3a 48 34 3d
       0.12328279 -0.07007775 -0.090382956 0.044014193
000370 bd 41 9c 3d 29 77 85 bd 25 9d 59 bd 05 13 6f bd
       0.07629726 -0.065168686 -0.05312838 -0.058367748
000380 7b 2e b3 bd a2 30 af 3d 57 43 6d bd b7 1a 94 bb
       -0.087491 0.08554198 -0.05792555 -0.004519786
000390 67 30 31 3e c6 d3 55 bd a2 1f 1c 3e b4 06 04 3e
       0.1730362 -0.052203916 0.15246442 0.12893182
0003a0 8d b5 99 3d c7 8d 22 3d 32 83 67 be 2c 37 56 bd
       0.07505331 0.03968599 -0.22608641 -0.05229871
0003b0 19 55 8b 3d 8d a3 86 bd 05 58 f4 bc 9a 1b 66 be
       0.068033405 -0.065741636 -0.029827127 -0.22471467
0003c0 35 38 64 bd c0 e3 4a 3d 90 db 5f 3d ed 71 aa 3c
       -0.055717666 0.049533606 0.05465275 0.020806277
0003d0 cb 25 30 3d 02 a5 4a be bb 25 6d bd 77 99 8b 3c
       0.043004792 -0.19789508 -0.05789731 0.017040951
0003e0 e8 3f fe 3c 90 53 07 bd 51 0b b0 bd fd 2f 34 bd
       0.031036332 -0.033038676 -0.085959084 -0.043991078
0003f0 c5 32 07 be 11 b6 fb bd f2 34 08 be ae 2a 77 bd
       -0.13202961 -0.12290586 -0.13301447 -0.060343437

bias_hh f4 [384]
000000 bf ab 76 3d 73 51 46 3e 07 9e cc bd 58 6e a1 bd
       0.060222384 0.19367008 -0.09991079 -0.078823745
000010 55 7d 04 be 62 b8 35 3d 74 06 a3 3c 35 d3 4b 3e
       -0.12938435 0.044365294 0.019900538 0.19904788
000020 8f 74 cf ba 88 31 b3 3d 73 27 11 3d e2 fd 52 3d
       -0.0015827584 0.08749682 0.035438012 0.051511653
000030 95 53 7c 3d b6 a9 8b 3c c8 12 38 3e 2a 36 08 bd
       0.061603148 0.017048698 0.17975914 -0.03325478
000040 4f fe c3 bd 62 8f 1e bd b5 42 50 bd 52 f8 dc 3c
       -0.0956999 -0.03871096 -0.050844867 0.026973877
000050 22 53 09 3e 71 f4 45 bd 9d f2 3f bd 7c ed f9 bc
       0.13410619 -0.04832882 -0.046862233 -0.03050875
000060 a9 e1 b2 3d 66 84 83 3e 71 66 f8 3d 81 d4 1d 3e
       0.087344475 0.2568695 0.12128914 0.15413095
000070 0e e5 02 bd c9 0a 39 be 36 a4 8a bc 49 96 77 3e
       -0.031956725 -0.1807052 -0.016924005 0.24178423
000080 ed 34 57 3d ce 4e 7d 3d 03 24 0e 3e c5 0c 33 3d
       0.05254071 0.061842732 0.13880925 0.04371335
000090 0e 82 aa bc b4 5e da 3d 09 76 b5 3d f3 47 28 bd
       -0.020813968 0.106625944 0.08860404 -0.04108424
0000a0 4e 82 a6 3c 1c fe f0 bb 92 77 ca 3d 9e bd d2 bc
       0.020325806 -0.007354511 0.098860875 -0.025725182
0000b0 ff ec e5 3d 15 53 8e 3d 3f d4 0f 3e a2 f3 c1 3d
       0.11226844 0.069494404 0.14045809 0.094702974
0000c0 53 a9 d3 bb e9 83 ea 3d e5 2a 2d 3e fa ed ca 3b
       -0.006459394 0.11450941 0.16910894 0.00619292
0000d0 0e 1e 32 3e 44 4d 3e 3d 2a 50 09 3d 66 a1 2e 3e
       0.17394277 0.046460405 0.033523716 0.17053756
0000e0 5e bf f4 3c 95 5d 02 3d 8a c4 64 bc 94 a9 72 bd
       0.029876407 0.031827528 -0.013962874 -0.059243754
0000f0 ee 48 ec bd f5 15 00 3c 65 f4 83 3e 53 92 6e 3e
       -0.11537348 0.007817735 0.25772396 0.23298006
000100 ac f0 9e bc 86 f7 3d 3d 83 9d 83 bd bb 52 c1 3d
       -0.01940187 0.046378635 -0.06426527 0.09439608
000110 ef 69 ef 3d 43 5a a7 3d 51 5d 63 bb bd 8c 64 3c
       0.11690127 0.08171513 -0.0034693072 0.01394957
000120 62 71 02 3e cd 7c cc 3c cd 32 22 3d 4c 5d 37 bd
       0.12738565 0.024961853 0.03959923 -0.04476671
000130 97 c3 a2 bc ae 7a 47 3d b4 b5 aa bd 49 fb 89 3e
       -0.019868655 0.04870098 -0.08335438 0.26949528
000140 e5 79 41 3e a9 9f 73 bd be 56 a2 3c 48 30 7c 3e
       0.18894155 -0.059478436 0.019816753 0.24627793
000150 a4 6a 55 bd 7e b7 80 bd 50 ae e3 3d 2a d0 86 bd
       -0.052103654 -0.06284998 0.11117232 -0.06582673
000160 f9 9e 87 3c b4 cf f6 bd 71 20 c0 3d dc ff c5 bd
       0.016555296 -0.12051335 0.09381188 -0.09667942
000170 26 a3 90 3d a8 4f cc 3d 6a e9 0e 3d 97 77 d0 3d
       0.07062368 0.09976131 0.03489057 0.1017906
000180 a5 da a4 3c 96 73 64 bc fa ed 4c bd 38 7a 9e bd
       0.02012379 -0.013943573 -0.05003164 -0.07738155
000190 92 b6 8c 3b 07 9b 8c bc 73 a3 48 be 54 ca c6 3c
       0.004294225 -0.017163767 -0.19593601 0.0242664
0001a0 40 dc cd bd af 4e 40 3e 1a d4 a0 bb 2c e7 5a 3b
       -0.10051775 0.18780015 -0.004908097 0.003340195
0001b0 ee 1e e9 bc 95 b5 96 3e 50 62 42 3d 79 39 be 3d
       -0.028457131 0.2943541 0.04745704 0.09288306
0001c0 eb 64 86 bd 6a 33 21 3e 2f fb ac 3d 02 60 1f 3d
       -0.06562217 0.15742269 0.08446347 0.03890992
0001d0 31 09 37 3d 0c d4 11 3e 42 32 3b 3e 4a fc bb bd
       0.0446865 0.14241046 0.1828089 -0.0917898
0001e0 31 23 c2 3d f1 a9 60 bc 17 70 be 3d a7 e1 38 3e
       0.094793685 -0.013712392 0.09298723 0.1805483
0001f0 27 58 3b 3e 24 ac 77 3c 79 d5 85 3e 2b 1a 0b 3e
       0.18295346 0.015116725 0.2613943 0.13584201
000200 17 81 47 3e 9d 4a 9b 3d f5 9c ab 3d f9 51 7c 3d
       0.19482838 0.07582591 0.083795466 0.061601613
000210 a0 77 0d 3d 30 76 85 bd 66 b6 b1 bc 66 18 e2 bd
       0.03453791 -0.06516683 -0.02169342 -0.1103981
000220 45 48 1c 3d f1 86 26 3e b1 67 17 be 46 ae ba 3d
       0.03815486 0.16262414 -0.14785649 0.09115271
000230 3d 96 1d 3d 10 e1 3d bd 2d 0f 07 3d c9 ab aa bc
       0.038473357 -0.046357214 0.032973457 -0.020833867
000240 5b 78 58 3d 36 55 92 bd da 1f b6 3d 7c 7a 8c bc
       0.052849155 -0.07145159 0.08892794 -0.017148249
000250 0b db db bd d7 42 96 bd 3c 13 12 bb 9a 5b 9e bd
       -0.107351385 -0.073369674 -0.0022289297 -0.07732315
000260 c5 5b b1 bc c1 4e d5 3b 31 e7 ca 3d d6 90 3d 3d
       -0.021650204 0.0065096323 0.099073775 0.046280704
000270 1c ae 33 3e 22 a2 48 bc cb 3d 63 be 52 c4 17 be
       0.17546886 -0.012245687 -0.22191541 -0.14820984
000280 2d a4 47 be cc 4e 4e bd fe 3d 2f be 4f 4c e5 bd
       -0.19496222 -0.050368115 -0.17113492 -0.11196195
000290 1f 38 50 3d a0 6e 88 3d f9 df 4f be 4a 8d e9 bd
       0.05083477 0.06661725 -0.20300283 -0.11403902
0002a0 58 a6 99 bc e9 98 ff 3d 96 eb fd 3a 35 42 6b 3c
       -0.018756077 0.12480337 0.0019372578 0.014359047
0002b0 d8 1f a9 3d 66 29 84 bc b9 18 63 bd 56 65 c7 bd
       0.08258027 -0.016133022 -0.0554435 -0.09736125
0002c0 fd e0 fd bd ab 24 d4 bd 71 e2 39 be 02 96 72 3d
       -0.12396429 -0.10358556 -0.18152787 0.05922509
0002d0 9e e7 1f be 0d 41 ff 3c ea c0 af bc d8 15 50 3d
       -0.15615699 0.031158948 -0.021454293 0.05080208
0002e0 30 12 31 bd 99 22 bd bc 10 26 a8 3e 3a c0 82 bc
       -0.043230236 -0.023087787 0.3284154 -0.015960801
0002f0 a2 0f 1f 3d ea 96 fe 3c 00 3e 39 be 08 fa 52 be
       0.038833268 0.03107782 -0.18090057 -0.20603192
000300 b4 73 61 bc 0c 0c c4 bd cb 9d 8a bd 84 8a 7b bb
       -0.013760496 -0.0957261 -0.06768378 -0.0038382122
000310 04 8e c1 3d 52 d8 0d bd 83 0c 6a bd cc 50 94 3d
       0.094509155 -0.034630127 -0.05714084 0.07241973
000320 ec f1 c1 3d 56 72 10 3e 44 49 1a bd ac d2 76 bd
       0.09469971 0.14106116 -0.037667528 -0.060259506
000330 a7 32 22 3e 82 96 1e be c5 d5 36 be da a3 fd bd
       0.15839635 -0.15487102 -0.17854984 -0.12384768
000340 2b ec 56 bc 11 9e c3 bd 3b 87 30 3d 4e 00 c0 3d
       -0.01311783 -0.09551633 0.043097716 0.09375058
000350 fd 09 ed bd 9f e9 10 3d d6 6b a9 bd bb 6d 25 bd
       -0.11574171 0.03537905 -0.08272521 -0.04038785
000360 b0 77 6c 3e 1f a6 aa bd df 7b d8 bd 64 7c 05 bd
       0.23092532 -0.08332466 -0.105705015 -0.03258933
000370 cc ac 8f 3c bd 0e 0f bc cc c2 53 ba 0e d4 39 bd
       0.01753845 -0.008731541 -0.0008078038 -0.045368247
000380 e1 21 00 3d e6 66 a7 3c ab 93 78 bd f3 78 29 3c
       0.03128231 0.020434808 -0.060687702 0.010343778
000390 76 c2 f8 3d 9f 02 04 3c 20 e9 2e 3e 85 20 9e 3d
       0.121464655 0.008057266 0.17081118 0.07721046
0003a0 da 1e 48 bd 9e 45 36 bd 2b ad f6 bd 9c 32 09 bd
       -0.048857547 -0.044499986 -0.12044748 -0.03349553
0003b0 ab ef fd 3d b0 e8 2e bc 05 16 81 bd 46 9b 8a be
       0.12399229 -0.010675594 -0.06303028 -0.2707159
0003c0 70 44 02 3d 92 0e 57 bc 6c bd ad bc 5a a2 e3 bd
       0.03180355 -0.013126032 -0.021208487 -0.111149505
0003d0 6d 14 c3 3d c4 2a 8d bd 25 11 b3 bd 08 1b 80 bd
       0.0952538 -0.068929225 -0.087435044 -0.06255156
0003e0 91 bc 07 bd 10 19 bd bc 74 a5 a9 bd d3 4c c5 3c
       -0.033138815 -0.02308324 -0.08283511 0.024084484
0003f0 9d f4 27 3c 26 8a 15 be 3a 05 fd bc 9f f7 fc bd
       0.010251191 -0.1460348 -0.030886281 -0.123519175

weight f4 [128, 128]
000000 12 3b fb 3b fa c3 26 be ce 4d 9a be 88 b5 3c 3c
       0.007666954 -0.16285697 -0.30137485 0.01151789
000010 5d 38 a5 be ad 2a b9 bd 8d b6 3f 3d ec cd 83 3d
       -0.32269564 -0.09041343 0.046804953 0.06435761
000020 fc 3d 9d bc 7f 28 47 bd b1 c5 c0 bd 2e 8f 3f bc
       -0.019194596 -0.048622604 -0.09412707 -0.011691852
000030 de 88 33 3c 76 18 bb bd fd 2c 87 be e9 38 9c 3d
       0.010957925 -0.09135525 -0.2640151 0.07628042
000040 5d c6 87 3e be e7 3e bd 49 eb ac bd d7 6a 27 3d
       0.26518527 -0.046607725 -0.084433146 0.040873375
000050 e7 22 7b 3e 27 8f 74 bc 8c de ca 3d ac a1 9e bd
       0.24525033 -0.014926708 0.09905729 -0.0774568
000060 dc 8e 0b 3d 7d 6f bf 3d ed 71 22 3e b1 b8 92 bc
       0.03407179 0.093474366 0.15863772 -0.017910333
000070 13 33 5b bd a9 2a 24 3d 75 71 00 3e eb 4a 39 be
       -0.053515505 0.040079746 0.1254328 -0.18094985
000080 c2 14 9d 3d 8e d4 a7 3d 08 c6 68 bd dd 43 ba bc
       0.07669975 0.081948385 -0.056829482 -0.022737438
000090 e9 75 4a be 7a 3a 7a 3e 82 a9 03 be 36 45 3d 3e
       -0.19771542 0.2443637 -0.12857631 0.18483433
0000a0 9f ba c9 bd 02 b7 6d be 56 b4 3b 3e 50 c4 0c be
       -0.09850048 -0.23214343 0.18330511 -0.13746762
0000b0 70 81 71 be aa ea 29 be 00 6e 18 3e e5 a8 ad 3c
       -0.23584533 -0.16593423 0.14885712 0.0211987
0000c0 d4 52 05 bd c8 7b e2 bc 43 4e d4 bd 2e 87 2b 3d
       -0.032549694 -0.027646914 -0.1036649 0.041876964
0000d0 82 f5 aa 3d 8a a6 1f bc 50 0d 83 3d f9 4f 3b be
       0.08347608 -0.009744296 0.063990235 -0.18292226
0000e0 a3 d4 a6 3d 1a 02 e5 3d c9 f0 12 3e f7 a9 3b 3d
       0.08146026 0.111820415 0.14349665 0.045816388
0000f0 a7 01 ff bd 20 cf 40 bc c6 d1 0f 3e bf 39 42 3d
       -0.12451487 -0.011768132 0.14044866 0.047418352
000100 17 3c 0d be 68 cc 0c bc 67 ee 0a 3d 03 86 5e bd
       -0.13792454 -0.008593656 0.033918764 -0.054327022
000110 96 8f aa 3b 30 06 ee 3c 92 77 2d 3d 63 73 5e 3d
       0.005205105 0.029055685 0.04235036 0.05430926
000120 f2 4b 64 3d 5f 48 12 3c 07 4e be 3d a4 4a c0 3d
       0.05573649 0.008928387 0.09292226 0.093892366
000130 93 d0 a7 bd 06 a6 03 be d9 cd 0b 3e a5 5b 98 be
       -0.08194079 -0.12856302 0.13652743 -0.2975742
000140 b7 fa ba bc d5 b5 10 3d 17 06 cf bd 5e 11 13 be
       -0.022824628 0.03532966 -0.101085834 -0.14362094
000150 ac e7 49 be f1 d4 ab 3d bf 2f 68 bd c9 4c d9 3c
       -0.19717282 0.08390225 -0.05668616 0.026525872
000160 b0 f3 2f 3e 49 5f 38 3e 36 e1 34 be 03 16 a8 bd
       0.17182803 0.18005098 -0.17664036 -0.082073234
000170 4c 49 d1 bc 10 01 68 3e f1 2c 52 bd 32 e9 aa bd
       -0.025547646 0.22656655 -0.05131239 -0.0834526
000180 9c 4f 4a be 47 8b cf 3d f5 2f 44 3e 9b 58 4c 3e
       -0.19756931 0.10133987 0.19158919 0.19955675
000190 5e f8 28 3e 67 e3 e1 3c 63 25 42 be b1 c1 ac bd
       0.16500995 0.027574254 -0.18959574 -0.08435381
0001a0 db 91 70 bc f8 a4 19 be 84 15 2e be d7 c6 27 be
       -0.014683212 -0.15004337 -0.17000395 -0.16384445
0001b0 d7 a3 80 3c 06 f9 87 be c9 00 a9 3c f8 c7 b5 b9
       0.015703125 -0.26557177 0.020630257 -0.00034672
0001c0 2d 43 81 3e b1 db 09 be d7 78 44 3e 3a 3a e3 3d
       0.25246564 -0.13462712 0.19186722 0.1109509
0001d0 88 cf 1c bd 59 1c 1c be 3c 89 40 bd 4d 8a 60 3c
       -0.038283855 -0.15245189 -0.047005877 0.0137048485
0001e0 5d b2 a3 bd 93 73 76 bd ae 68 ac bc f6 14 3e 3d
       -0.079930045 -0.060168814 -0.021046009 0.04640671
0001f0 ad 33 92 bd 9a 20 41 3d e2 68 a7 3d a7 6d 85 3c
       -0.071387626 0.047150232 0.08174302 0.016287638
000200 b1 b6 eb 3d 98 34 1c bd 6c 40 35 be 1a df 83 bd
       0.11509455 -0.038136095 -0.17700356 -0.064390376
000210 ff 0f 0a be bd f4 87 be e1 ac 18 ba 66 92 7c bc
       -0.13482665 -0.26553908 -0.0005824101 -0.0154157635
000220 a4 14 ff 3c a1 2e 96 bd cf 25 40 be d6 be 12 bd
       0.031137772 -0.073331125 -0.18764423 -0.035826527
000230 d3 20 92 3d b6 b9 d6 3c 15 29 20 be f9 bc de bd
       0.07135167 0.0262116 -0.15640672 -0.108758874
000240 47 0a 5f 3e 72 29 2c be df 12 33 bd 2e 1a 4c 3d
       0.21781264 -0.16812685 -0.04371917 0.049829654
000250 bd 1c 70 3d af 13 b5 ba 05 77 a4 3d 67 85 d4 bd
       0.058621157 -0.001381507 0.08030514 -0.10377007
000260 4b 6a a7 3e 19 00 47 3e 5a 64 72 3e 9b f7 41 bd
       0.32698283 0.19433631 0.23671094 -0.047355276
000270 f3 5a b5 bd 6b 3e 7a 3e c9 d0 c0 3c 35 cc 06 3c
       -0.08855238 0.24437873 0.023537057 0.008227398
000280 7a f8 42 3d 23 2e cf 3d 6e c5 0a be f0 31 45 bd
       0.047600247 0.10116222 -0.13551876 -0.048143327
000290 5c 22 1b be 36 4b 6b 3e 1a 75 9b bc f5 a2 84 3e
       -0.15149826 0.2297791 -0.018976737 0.25905576
0002a0 4c 7e dc bd 87 2d 6d bd 94 07 74 bb c2 bc 5c 3c
       -0.10766277 -0.057904746 -0.0037235962 0.013472738
0002b0 11 3e 2f be da 76 45 bd 7c c6 0b 3d ea 5a c4 3d
       -0.1711352 -0.04820905 0.034124836 0.09587653
0002c0 0a 3d 05 3c d2 0a 5b 3d 15 bc 23 3d 9e 0b c8 3d
       0.008132229 0.053477116 0.03997429 0.09767841
0002d0 5a 16 54 3d 78 65 16 bd b0 c0 8b bc 76 69 e6 3d
       0.05177913 -0.036717862 -0.017059654 0.11250584
0002e0 81 0c aa 3c 43 43 0c 3e 21 32 ba 3d 7e 98 54 3e
       0.020757915 0.13697533 0.090915926 0.20761296
0002f0 67 d4 67 bd 22 6d cf bd a1 b6 ea 3c dc f1 e4 3d
       -0.056599047 -0.10128237 0.028651537 0.111789435
000300 f0 9a 18 bd 5b 43 3a 3d 35 66 17 3d 55 41 a8 bd
       -0.037257135 0.04547439 0.036962707 -0.08215586
000310 78 b7 0b 3c ce 6e 3f be f6 e6 ea 3c 11 bd 47 bd
       0.008527629 -0.18694612 0.028674584 -0.048764292
000320 da 08 b5 3d b7 54 7a bd d3 c3 d3 3d 4f 1f 36 3c
       0.08839579 -0.061115947 0.10340085 0.011115863
000330 f2 67 ea bc b9 47 5d 3e ee 12 b2 3c 84 e8 8f bd
       -0.028614018 0.21609391 0.021737542 -0.07026771
000340 48 eb 71 3d 6d fc b3 bc d5 95 4e bd 4f ab cf bc
       0.059062272 -0.021970952 -0.05043586 -0.025350241
000350 f5 e1 35 bd a5 b9 97 3b 7e 0a d4 bd 89 7a a2 3e
       -0.044404943 0.004630285 -0.10353564 0.31734112
000360 58 b6 b0 bc 3f ad 71 3e 66 df d2 bd 2b c6 dd bd
       -0.021571323 0.23601244 -0.10296516 -0.10828813
000370 be 40 5c 3d 32 a3 14 3e 20 99 9c bd 97 6b 71 be
       0.05377268 0.14515379 -0.07646394 -0.23576199
000380 bd f6 5d bc d4 1b 32 bd 64 32 09 bd 7d d2 20 3e
       -0.0135475965 -0.04348357 -0.033495322 0.15705295
000390 42 79 28 3e 99 b6 31 3d 7d 2c 02 be 39 58 77 bd
       0.16452506 0.04338703 -0.12712283 -0.06038687
0003a0 b1 5c 0b bd 0b a7 8f be 45 ed be 3b ce 52 5d 3d
       -0.034023944 -0.2805713 0.0058266246 0.054034047
0003b0 98 ac 26 3c ae ef 29 be 1a c8 40 3d 0a 0a ce bd
       0.0101729855 -0.16595337 0.04706583 -0.100605085
0003c0 f5 c8 ec 3d a8 30 d6 bd 98 cc 64 3e 56 6a 15 3e
       0.11561767 -0.10458499 0.22343671 0.14591345
0003d0 3e b9 90 3c 94 48 bd bd 54 0d e4 3d 3f 6f 8d bc
       0.017666455 -0.09242359 0.11135355 -0.01726496
0003e0 f6 86 9b 3d 2a 54 09 be 61 0b b7 3d 7f 53 a2 bd
       0.07594101 -0.13411012 0.08937717 -0.07926082
0003f0 fa 8f 38 be f2 6d b8 bc b7 8c d9 3d 9f 4c f0 3c
       -0.18023673 -0.022513364 0.10622542 0.02933341

bias f4 [128]
000000 2a e5 3a bd c3 50 df 3d 7a 84 51 3e 35 a1 34 bc
       -0.045628704 0.10904076 0.20460692 -0.011024763
000010 a9 93 22 be 86 8f 71 bd 04 c4 a4 3d e3 04 95 3d
       -0.1587664 -0.058974765 0.080451995 0.07276323
000020 50 87 c1 3c c4 37 aa 3c 34 b2 fc ba 15 ce e5 bd
       0.023624092 0.020778544 -0.0019279183 -0.11220948
000030 11 ef 84 be 11 5d 1b bd 8e 64 09 be d6 e5 16 be
       -0.25963643 -0.037930552 -0.13417265 -0.14736113
000040 33 c5 3d be 16 30 c4 bd e3 27 a1 3d b9 f5 dd bd
       -0.18532257 -0.09579484 0.07868936 -0.108378835
000050 56 d2 e3 3c 9f 39 c1 bd 54 28 d1 bd 85 ee 57 be
       0.027810257 -0.094348185 -0.1021277 -0.21087082
000060 d2 39 3c bd 93 db aa bd 60 e5 5c be f5 4e 8b bc
       -0.04595358 -0.08342662 -0.21571875 -0.017005423
000070 b4 97 6f be 3b 85 2d bd 65 cb b7 3d 6d a2 db 3d
       -0.23397714 -0.042363387 0.08974341 0.1072434
000080 09 71 b4 bd a1 fd 0f 3e 06 c9 1d be 55 f7 73 3c
       -0.08810622 0.14061595 -0.15408716 0.0148905115
000090 c6 f7 22 ba 9d b4 7c bd f6 2a 2a be ba 24 0a be
       -0.00062167307 -0.061695684 -0.16617951 -0.13490573
0000a0 30 9c d0 bd 75 e8 58 be a2 d4 c0 3d e2 00 af bd
       -0.101860404 -0.21182425 0.094155565 -0.0854509
0000b0 e0 af 34 bd 9e 50 5f be c6 28 29 be 69 62 13 3d
       -0.04411304 -0.21808097 -0.1651946 0.035982523
0000c0 42 a0 60 be 92 d5 12 3d 7c be 3b be 04 91 59 3d
       -0.21936134 0.035848208 -0.18334383 0.053116813
0000d0 35 5b 38 be 5f a3 46 bd 6a d7 26 be 75 be 21 be
       -0.18003543 -0.048495647 -0.16293111 -0.1579531
0000e0 b5 c5 38 3c 72 24 45 be 4f 3f 96 be 91 6c c7 bd
       0.011277606 -0.19252184 -0.29345176 -0.09737504
0000f0 bb 57 80 be 79 ba b9 bd b5 4c 54 be 99 2c 6c 3d
       -0.25066933 -0.0906877 -0.20732386 0.05765972
000100 2d c7 9a 3d 19 e9 be 3d 97 27 c9 3c 34 5c 0a be
       0.07557521 0.093218036 0.02455501 -0.13511735
000110 b3 d6 8c bd 4b 08 16 bc 18 54 83 bd c5 e9 9f bd
       -0.06876888 -0.009157251 -0.06412524 -0.0780826
000120 91 cf a6 bc 37 66 a4 bd 83 81 0d 3e 31 a5 3a be
       -0.020362647 -0.080273084 0.13818936 -0.18227078
000130 c4 84 f0 bd 78 13 02 bc ac 06 09 be 9d 5a 30 be
       -0.11744073 -0.007939212 -0.13381451 -0.17222066
000140 a5 28 ab bd 49 83 75 3d 78 a8 ac bc 00 63 3d bd
       -0.08357362 0.059939656 -0.021076426 -0.046236992
000150 da e3 b7 bd b5 25 3e 3d f1 4a 13 be 1c b7 02 bd
       -0.08979006 0.04642268 -0.14384057 -0.031912908
000160 bd 06 26 be eb 59 28 be 84 ce 3a bd e3 49 0d be
       -0.16213508 -0.16440551 -0.045607105 -0.13797717
000170 70 05 71 bd a6 79 b9 bc 72 67 ee bd dc b3 31 bd
       -0.058843076 -0.022641014 -0.116408244 -0.043384418
000180 da 05 e3 ba 99 2b b2 bd d4 0c d0 bd 6d a2 20 bd
       -0.001732047 -0.08699722 -0.10158697 -0.0392174
000190 3e 8d 5c be 7f d4 42 be f5 45 70 bc f9 a2 70 bd
       -0.21538255 -0.19026373 -0.014665117 -0.058749173
0001a0 64 08 5e 3c 5a f8 70 bc fb cf 99 bd 78 9f c5 bc
       0.013551805 -0.014707649 -0.07510372 -0.024123892
0001b0 52 68 a2 bd 41 62 eb bd d4 1b 84 be 77 c6 66 bd
       -0.07930054 -0.1149335 -0.2580248 -0.056341615
0001c0 e3 d1 8b bd 87 87 cb 3d 3f 70 5b bd 88 4c 40 bd
       -0.06827142 0.09937959 -0.053573843 -0.046947986
0001d0 92 8a 73 bd 83 f9 72 bd 65 56 c9 bd f2 16 2b be
       -0.059458323 -0.059319984 -0.098309316 -0.16707972
0001e0 70 50 37 bd 8f b6 87 bd 1c 31 0d be fd 39 04 3c
       -0.044754446 -0.06626617 -0.13788265 0.008070466
0001f0 82 e6 97 3d d1 e3 01 be d7 88 89 bd f7 f2 62 be
       0.07417013 -0.12684561 -0.06715553 -0.22162996

weight f4 [128, 128]
000000 a9 74 5d bd d8 fd cd bd bc c8 1b bd 7a 05 bb 3d
       -0.054066334 -0.100581825 -0.038033232 0.09131904
000010 7f b0 c3 bd 0d fb f8 3b c5 d2 c9 bd 3f d0 a0 3c
       -0.09555148 0.007598287 -0.09854654 0.01963055
000020 56 c0 06 be 7d 8f 19 be 75 54 21 3e 6b 39 bd 3a
       -0.13159308 -0.14996143 0.15754874 0.0014436668
000030 7f 7a 24 3d f8 43 47 bc eb 25 44 3e cc 81 33 bd
       0.040155884 -0.012162201 0.1915509 -0.043824956
000040 6e f2 f1 bd 86 fd 37 be ef 05 95 bd e9 38 71 bc
       -0.11813818 -0.17967805 -0.07276522 -0.014723041
000050 a6 b9 70 bd b2 d5 52 3e 49 1a e3 bc d9 ee f5 3d
       -0.0587708 0.20589331 -0.027722495 0.12008447
000060 c9 75 af bc ae d2 42 bd 35 06 a8 3d 7d 8b 3b 3d
       -0.021418469 -0.0475642 0.08204309 0.045787323
000070 f0 66 91 3d 9d 39 79 bd 22 c1 d6 bd d6 f5 36 be
       0.07099712 -0.06084596 -0.10486056 -0.17867216
000080 53 41 e4 3d 1a a9 3c be a3 1d 27 3e 4a 25 9a bd
       0.11145272 -0.18423882 0.163199 -0.075266436
000090 91 8c 27 be 00 06 b8 bd 57 41 6c bd d1 a1 74 3d
       -0.16362216 -0.089855194 -0.0576795 0.059724633
0000a0 d3 ba 3c be 15 8c a2 3d 51 fe 36 bd 55 48 a4 bc
       -0.18430643 0.07936875 -0.04467613 -0.020054022
0000b0 0e c0 82 3d 8e 15 72 bc c4 8e 15 3e a5 a5 d6 bd
       0.06384288 -0.014775647 0.14605242 -0.10480813
0000c0 eb 23 40 3d 32 e4 7f 3d 40 96 5c 3e aa da 4a be
       0.046909254 0.062473483 0.21541691 -0.19809976
0000d0 32 af ed 3c 7f ea 43 3e 66 30 46 3d 14 b3 3d bd
       0.029014204 0.19132422 0.048386 -0.04631336
0000e0 da 33 0c bd a5 0d da bd 0b 4d 6a 3c 44 2d 79 3d
       -0.034229137 -0.10647134 0.014300595 0.060834184
0000f0 9a c0 e2 bd d6 8b 0c be cd fa 02 3e 00 56 11 bb
       -0.11071892 -0.13725218 0.12790985 -0.0022176504
000100 dd 19 14 be de 82 c5 3b 3f da ac 3d db 12 bb 3d
       -0.14462991 0.0060275635 0.08440065 0.09134456
000110 7f ba bd 3d 03 33 76 bd 0a f5 af 3c 24 ea a6 3c
       0.09264087 -0.060107242 0.021479148 0.020375319
000120 e7 65 6c bd 4c a9 c3 bd 46 61 bb bc e2 57 c6 bd
       -0.05771437 -0.09553775 -0.022873532 -0.09684731
000130 3b 97 13 be 69 a3 d4 bc 47 90 f0 3d ce 6f 74 bc
       -0.14413159 -0.025956826 0.11746269 -0.014919234
000140 03 1a cd bd 35 45 9c bd ff b8 fe ba 53 4d 00 3e
       -0.10014727 -0.07630388 -0.0019433795 0.12529497
000150 3a 56 cf bd 16 51 10 3e 75 3c 0f 3d 51 f2 ac bd
       -0.10123868 0.14093432 0.034969766 -0.08444656
000160 84 f0 5b 3d ec ad fa bc bc 41 37 3e cf 75 c5 bd
       0.05369617 -0.03060051 0.1789617 -0.09641611
000170 01 9a d7 bc 46 d2 1c 3d dc ed 7d 3e 60 df 99 bd
       -0.026318552 0.03828647 0.24797767 -0.075133085
000180 1e 14 e6 bd 4d cb 18 3e 9d 5f d7 3d 9c 69 95 bd
       -0.11234306 0.14921303 0.10516284 -0.07295534
000190 5d 1c 9f 3c a9 5f a2 bc cb 30 e3 bd 96 ed e1 3c
       0.019422704 -0.019821005 -0.11093291 0.02757911
0001a0 82 c8 38 bd 27 5a 33 3c 2f eb 44 3d df a7 b7 bd
       -0.045113094 0.010946787 0.04807585 -0.08967566
0001b0 f4 1d 07 3d b5 61 22 be 54 ba 5c 3e e9 66 9b bd
       0.03298755 -0.15857585 0.21555454 -0.07587988
0001c0 cd da 4d bb 0f 2b f8 3d 2e ff 30 3d c0 26 6f 3d
       -0.0031410933 0.12117588 0.04321211 0.058386564
0001d0 ab 32 26 3d 89 48 80 3c 31 a7 c1 3d 54 1b 99 bd
       0.040575664 0.015659587 0.09455717 -0.074759156
0001e0 72 92 2d be fd c6 b1 3d 63 eb 93 3d e9 d4 54 3d
       -0.16950396 0.08680532 0.07222631 0.05196086
0001f0 ea b6 7f bd c4 65 86 3d 99 51 d1 3d 81 3c 8a bd
       -0.0624303 0.06562379 0.10220642 -0.067498215
000200 b6 58 c6 3d b2 57 1d 3c 69 cc 71 3d 00 0b 50 be
       0.09684889 0.009603428 0.05903283 -0.20316696
000210 16 5c 23 be ea 27 dd bd 95 7c 49 3e 30 e5 79 3e
       -0.15953097 -0.10798629 0.1967643 0.24403834
000220 fa 8c 07 3e 8e 99 9e 3d c1 c3 58 be 27 d3 c6 3d
       0.13237372 0.07744132 -0.21168424 0.09708243
000230 d7 21 bb bc dd fa aa bd 24 bc 59 3d 4f b9 5b bd
       -0.022843285 -0.083486296 0.05315794 -0.05364352
000240 4b c2 29 be 2a be a4 bc bd 13 22 bd 4e ef 0e be
       -0.16578023 -0.020110209 -0.039569605 -0.13958475
000250 c1 77 3c be 65 99 61 3d ab b7 2a bc 74 ec 5d be
       -0.18405057 0.05507793 -0.010419766 -0.21672231
000260 d7 c3 e3 bc 69 89 d0 bd 06 f5 54 be 86 92 0a be
       -0.027803345 -0.10182459 -0.20796594 -0.13532457
000270 20 7d 5f be d7 97 0d be cd 6e 9f bd 2f 54 83 3c
       -0.21825075 -0.13827454 -0.077848054 0.016031353
000280 57 9a 8b 3d ec 95 1d bd 26 69 94 bd 54 f7 bc bd
       0.06816547 -0.038473055 -0.07246618 -0.092268616
000290 83 a9 ed bd d4 4b b2 bd cd 09 d6 bc cb 6f 11 be
       -0.116045974 -0.08705869 -0.02612772 -0.14202802
0002a0 12 00 95 bd d0 5a b2 bd e1 0a 03 bd 33 1c 87 3d
       -0.07275404 -0.08708727 -0.031992797 0.065971754
0002b0 4f ae 13 be 3b 4d e6 bd 48 40 77 be 16 1b 82 3d
       -0.14421962 -0.11245199 -0.24145615 0.063528225
0002c0 b3 de 93 bd 35 33 f1 bd eb cc 7b be e9 11 31 3d
       -0.07220211 -0.11777345 -0.24589889 0.04322997
0002d0 b8 ad 28 3b be 48 64 bd 64 d4 4d be a9 2c d1 3b
       0.002573831 -0.055733435 -0.20100552 0.0063834977
0002e0 58 b1 e0 bd 66 b5 ca bd e3 6f 23 be ba 0b 10 bd
       -0.10971326 -0.0989788 -0.1596065 -0.035167433
0002f0 02 e6 cc bd ff 75 dc bd 2c d3 45 be a4 90 7f 3b
       -0.10004808 -0.107646935 -0.19318837 0.0038996125
000300 21 d0 84 3d 0e d0 07 3d 6f fd a9 bc e0 54 89 be
       0.0648501 0.0331574 -0.02075073 -0.26822567
000310 c8 d2 2f be 72 0b 6a 3c 29 dc 1b be f7 59 ce 3d
       -0.1717025 0.014284955 -0.15220703 0.10075753
000320 36 30 d2 3c b4 9e 4c bd a2 48 b1 3d 9a df 3f 3c
       0.025657754 -0.04995604 0.08656432 0.011711026
000330 c0 3d 54 be 39 2e 13 be 48 29 5a be bf 0d e7 bd
       -0.20726681 -0.14373101 -0.2130481 -0.11281919
000340 0d 44 28 be d5 a5 b4 bd 1d 98 e7 3d 78 e2 ad bd
       -0.1643221 -0.088206924 0.1130831 -0.08490461
000350 e2 bd d5 3c b5 54 98 bd 58 59 c4 bd ea f9 8f 3d
       0.02609152 -0.074380316 -0.095873535 0.07030089
000360 c8 0c 27 be af e0 63 bd 17 6a 76 bd 05 32 da 3c
       -0.1631347 -0.055634197 -0.06015977 0.02663518
000370 03 5e 1c bd 98 b6 bc 3d f2 a1 3d be cf cc 72 bd
       -0.038175594 0.092145145 -0.18518808 -0.059277352
000380 2d 77 b7 3d b1 46 93 bd 2e e7 0b be ba ff 55 3e
       0.08958278 -0.07191218 -0.13662407 0.20898333
000390 3a 03 01 bd 68 79 31 3a a3 5f 91 be e8 67 28 bd
       -0.031497218 0.0006770105 -0.28393278 -0.041114718
0003a0 d9 fc 53 be d9 c4 87 bb d0 05 6b 3c be 49 8c bc
       -0.20701922 -0.004143339 0.0143446475 -0.017125007
0003b0 c3 b4 bf bd 74 df 49 be b2 a8 4f be 57 a0 92 be
       -0.093606494 -0.19714147 -0.20279196 -0.28637955
0003c0 7d 36 27 be c6 b3 04 3e b1 17 2a 3d 15 7b 88 3c
       -0.1632938 0.12959203 0.0415265 0.016660253
0003d0 fe a1 87 3d d5 16 4d bd 9a b8 02 bd e1 bd 82 bc
       0.066226944 -0.050070602 -0.03191433 -0.015959682
0003e0 ca cd 45 bd 98 73 82 bd 68 64 c0 bd 12 ca 9c 3d
       -0.04829196 -0.06369704 -0.09394151 0.07655729
0003f0 6e c8 67 3e 19 1f e6 bd 7f cb 5d bb cd 8f 3d bd
       0.22635052 -0.112364 -0.0033843217 -0.046279717

bias f4 [128]
000000 ab 26 b6 bd 20 22 83 3d 1c 05 81 bd a8 99 6f 3d
       -0.08894094 0.06402993 -0.06299803 0.058496147
000010 e2 bd 83 be ec 7d 62 be b6 b0 02 3c 76 1f d2 bd
       -0.25730807 -0.22118348 0.0079767015 -0.10259907
000020 dc a1 15 be df 95 1c 3e 55 a9 19 bd fa ae c1 3d
       -0.14612526 0.15291546 -0.037515003 0.09457202
000030 e2 cd de 3d 71 2f a1 3c 36 f0 38 be 26 b0 e5 bb
       0.10879113 0.019675942 -0.18060383 -0.007009524
000040 df c6 58 bd d4 18 6a bc 41 cd 7a bb e9 38 ac 3d
       -0.052924033 -0.014288146 -0.0038269314 0.08409292
000050 3f f2 56 3d bf 13 f6 bd c0 ff 6a be eb 70 6d 3d
       0.052477118 -0.12015485 -0.22949123 0.057969015
000060 e0 87 d2 bd fa 2e 0c be 75 4f 39 3e f5 b2 2e bd
       -0.10279822 -0.13689795 0.18096717 -0.042651135
000070 9c f3 1b 3e 3b 60 5b be d5 41 39 3e a6 bd 1d 3c
       0.15229648 -0.21423428 0.18091519 0.009627735
000080 1b 24 8e 3d e6 68 79 be 1a cd 0a 3e 76 c0 11 be
       0.0694048 -0.24356422 0.13554803 -0.14233574
000090 a8 cd 97 bd fd c4 11 bd 41 c6 0e 3d c8 e9 0b be
       -0.07412273 -0.035588253 0.03485704 -0.13663399
0000a0 f3 8a 42 be 7f 78 8f be 73 5c 1b 3b 49 1e 08 be
       -0.18998317 -0.2802162 0.0023706227 -0.13292803
0000b0 c6 7a 97 bc e6 25 15 3e 53 1e 18 be 43 12 29 be
       -0.01849116 0.14565238 -0.14855318 -0.16510873
0000c0 75 4c c6 3d ff 0b 10 3e 0e 0b be ba 68 5b 33 3e
       0.09682552 0.14067076 -0.0014499144 0.17515337
0000d0 c8 7c 8e bd 6c 21 41 bd df 2c 0d bc 2f 09 ee 3d
       -0.06957394 -0.047151014 -0.008616655 0.116228454
0000e0 ed 7b 4d 3e 73 7c 1a be 2b 1b 3b 3d d7 1e f4 3d
       0.20066805 -0.15086536 0.045680206 0.11919945
0000f0 c7 85 a6 3d c4 82 07 3e 2d 49 99 3d 6e 90 80 be
       0.08130985 0.13233477 0.0748466 -0.2511019
000100 d2 a3 d0 bd 57 6d 10 3e f1 80 08 3e 19 39 8e bd
       -0.10187496 0.1410421 0.13330437 -0.06944484
000110 83 45 0c 3e 2e 33 21 3e 57 39 d8 3d a9 61 6f 3d
       0.13698392 0.1574218 0.10557812 0.058442745
000120 ab 2e d0 bd 0b 22 ac 3d a9 a4 72 be 35 5a 0e be
       -0.10165151 0.08404931 -0.23695625 -0.13901599
000130 55 48 a0 bd 61 01 5a be 56 f7 96 bd 8f e6 6c be
       -0.07826296 -0.21289589 -0.07371394 -0.23134826
000140 bf 0a 67 be e0 45 83 bd 98 a7 1a bd 34 0f 2d 3d
       -0.22562693 -0.06409812 -0.037757486 0.042250827
000150 87 7c fe bd 40 26 7b 3d 28 8a 02 3d 74 f8 15 be
       -0.124260955 0.061315775 0.031870037 -0.14645559
000160 20 a4 29 3e 64 09 98 3d fc 43 29 be 01 a1 d4 3b
       0.16566515 0.07423666 -0.1652984 0.0064889197
000170 22 f6 c7 bd 19 ba 30 bd 25 4a 29 be 03 99 88 bb
       -0.09763743 -0.043146227 -0.1653219 -0.004168631
000180 2e e1 53 3d 54 0d c2 3d e2 d0 66 be aa 89 09 3e
       0.05172842 0.094751984 -0.2254062 0.13431421
000190 23 71 ae 3d 09 d8 3e be c0 d7 49 be 17 90 5d be
       0.08517673 -0.18637098 -0.19711208 -0.21636997
0001a0 0b de 5f bc 57 db b0 bc e1 d1 94 bd aa 2c 36 bd
       -0.013663779 -0.021588964 -0.07266594 -0.04447619
0001b0 6c c0 8b 3d e7 5a ee bd 05 a6 b9 bd f0 66 c1 bd
       0.06823811 -0.11638432 -0.09064869 -0.09443462
0001c0 21 a6 da bc f3 9c 24 be aa dd 20 3e ed 34 23 be
       -0.026690545 -0.16075496 0.15709558 -0.15938158
0001d0 1b 6f 42 3d 10 0d 23 3d 89 eb 37 be 0a 1f 1e 3e
       0.04746924 0.03980738 -0.17960943 0.15441528
0001e0 3a 01 46 be fa 6f 99 3d bd bb 83 be e5 79 44 bd
       -0.19336405 0.07492061 -0.2572917 -0.04796781
0001f0 40 48 8a bc 96 84 91 bc c0 89 33 be 01 d3 58 be
       -0.016880155 -0.017763417 -0.17533016 -0.21174242
