results/model/union_588.model (torch, 686563 bytes, 21 tensors)

weight_ih f4 [384, 5]
0.09710175 0.03683453 -0.07126016 0.11154239 -0.0893334 0.0110723935 -0.06445666 0.085413925
-0.03575989 -0.135638 0.0030958422 -0.110997595 -0.02002503 -0.0802654 -0.040038098 0.060387943
0.0850728 -0.056786448 0.058133323 -0.023259109 0.09690254 0.017461924 -0.08970771 -0.01911047
-0.21237132 0.03607878 -0.12577015 0.042242263 -0.093760155 -0.14379668 -0.18341774 0.07987517
-0.08226371 -0.027172068 0.08418455 -0.0064728414 -0.06441348 -0.029115295 0.103426345 -0.111157805
-0.10229824 -0.024112856 -0.018041011 -0.10690275 0.08297088 0.08752956 0.009041237 -0.092333384
0.01872174 -0.09025163 0.037723303 -0.023973245 -0.121296085 0.05675703 -0.20830274 -0.096860275
-0.08118426 -0.1056766 0.0011376002 -0.06536151 -0.03986019 -0.075712256 -0.093480974 0.091174915
0.11510031 0.028423607 -0.05942664 -0.095062494 0.06517916 0.0142707685 -0.13728598 0.119805746
0.037590947 -0.0018979657 0.035956707 -0.03384137 -0.057417937 0.0021189335 -0.052884668 -0.029917056
-0.04835039 0.053452957 0.04278976 -0.04270206 -0.18001544 0.045948904 -0.011473955 -0.048808757
-0.04655482 0.06611053 -0.11215468 -0.08095392 -0.09960988 -0.038162727 -0.23312664 0.087285765
-0.20859101 -0.036858965 0.045379248 0.11501302 0.01767186 0.08052339 0.039344687 0.060339715
0.038873993 0.003555636 -0.08044646 -0.06899522 -0.09961084 -0.14955167 -0.16516198 -0.15075608
0.018012179 -0.16552621 0.09023055 0.13788052 -0.005722197 -0.023598358 0.09860348 -0.05782529
0.04644696 0.11273704 0.05385789 0.020018322 0.040231135 -0.080755726 0.14758918 -0.038897455
-0.110852845 0.0043403558 0.0377785 0.084914505 0.10820896 0.122915566 0.11607105 0.079106
0.07294906 0.020161547 0.044495083 -0.13604799 -0.04930417 0.02713292 0.016587812 -0.12498213
-0.021976175 0.113407105 0.036879513 -0.027013278 0.108504035 0.017840395 -0.12031057 -0.03215172
-0.10886853 -0.13178544 -0.08148477 -0.030239496 -0.0633809 -0.027636 0.041860115 -0.1567497
0.031569507 -0.026071822 0.032078292 0.11206705 0.032940436 0.105010845 0.08741562 -0.08861376
0.0016269187 -0.38791823 0.083940245 -0.04363385 -0.06297 -0.03780321 -0.14586365 -0.108368844
-0.0932159 -0.057323247 -0.016716046 -0.08910207 -0.096183985 0.037128575 -0.09488386 0.05044549
0.008492867 0.007688029 0.010539661 0.08690067 0.024393056 -0.020527707 -0.18001768 0.14968272
0.0023522347 -0.089279376 0.21623936 0.083318315 0.09549268 -0.115517884 -0.013901363 0.04706555
-0.017096521 -0.024256589 -0.10936571 0.037221745 0.13991879 0.005120636 -0.09065775 -0.07247933
0.102028474 0.12856907 0.065258555 -0.13077958 0.055137012 -0.040540457 0.36770752 -0.055901192
-0.0358418 -0.052887503 0.01254434 -0.12049798 -0.06868799 0.09318407 0.08184516 0.09395061
-0.0029916745 0.076981 -0.05847566 -0.091757 0.03674547 0.19344409 -0.030316705 -0.011467414
-0.04284523 0.05171141 -0.068944156 0.1092787 0.0049341647 0.06308389 0.007638287 0.18481088
-0.029037952 -0.059783757 -0.007995681 -0.14320813 -0.033783264 0.031131186 0.0006753486 -0.025151106
0.10388891 -0.10154056 -0.0790104 -0.080997646 0.14812678 0.022726951 0.06809188 -0.07914513
00000000: 48dd c63d cedf 163d d9f0 91bd 5670 e43d
00000010: 6ef4 b6bd fc68 353c da01 84bd 7fed ae3d
00000020: f678 12bd b0e4 0abe 9de3 4a3b b552 e3bd
00000030: 880b a4bc 3062 a4bd fdfe 23bd 5959 773d
00000040: a63a ae3d e898 68bd 351d 6e3d e389 bebc
00000050: d774 c63d 4f0c 8f3c adb8 b7bd 8f8d 9cbc
00000060: de77 59be 58c7 133d e4c9 00be 3906 2d3d
00000070: 5305 c0bd 703f 13be dcd1 3bbe 9895 a33d
00000080: e079 a8bd f597 debc f368 ac3d 211a d4bb
00000090: 37eb 83bd 3383 eebc 31d1 d33d b4a6 e3bd
000000a0: bd81 d1bd 5388 c5bc beca 93bc d4ef dabd
000000b0: a3ec a93d b342 b33d b221 143c 4919 bdbd
000000c0: 565e 993c d9d5 b8bd c083 1a3d 8a63 c4bc
000000d0: 156a f8bd 0f7a 683d 504d 55be ae5e c6bd
000000e0: ef43 a6bd f96c d8bd 871b 953a 41dc 85bd
000000f0: 7044 23bd 070f 9bbd f472 bfbd eab9 ba3d
00000100: b6b9 eb3d a0d8 e83c 5969 73bd 20b0 c2bd
00000110: a77c 853d f1cf 693c b294 0cbe b75c f53d
00000120: f7f8 193d 29c5 f8ba 5747 133d 409d 0abd
00000130: 122f 6bbd cedd 0a3b 989d 58bd 9d14 f5bc
00000140: 0f0b 46bd 7df1 5a3d 5144 2f3d 5be8 2ebd
00000150: f855 38be eb34 3c3d 41fd 3bbc b1eb 47bd
00000160: 44b0 3ebd f564 873d 5ab1 e5bd 2bcb a5bd
00000170: 4400 ccbd 8550 1cbd c0b8 6ebe e1c2 b23d
00000180: e298 55be 6df9 16bd 97df 393d f28b eb3d
00000190: 94c4 903c 72e9 a43d e527 213d c726 773d
000001a0: 563a 1f3d ac05 693b 1dc1 a4bd 5e4d 8dbd
000001b0: c500 ccbd 1324 19be 3920 29be cd5f 1abe
000001c0: 478e 933c b47f 29be cbca b83d 8d30 0d3e
000001d0: 4481 bbbb 5851 c1bc 9ff0 c93d 36da 6cbd
000001e0: 2b3f 3e3d ade2 e63d 179a 5c3d 77fd a33c
000001f0: 67c9 243d 4263 a5bd 9e21 173e f052 1fbd
00000200: d106 e3bd 8b39 8e3b a1bd 1a3d a8e7 ad3d
00000210: a99c dd3d 28bb fb3d a9b6 ed3d 5402 a23d
00000220: 5166 953d d429 a53c 7a40 363d 2a50 0bbe
00000230: 2bf3 49bd dc45 de3c 2ae3 873c a2f6 ffbd
00000240: 6107 b4bc fc41 e83d f90e 173d f34a ddbc
00000250: 5d37 de3d 0526 923c 6365 f6bd 86b1 03bd
00000260: 77f6 debd c3f2 06be 7de1 a6bd d2b8 f7bc
00000270: d8cd 81bd e564 e2bc 8375 2b3d fe82 20be
00000280: 074f 013d 9394 d5bc 8764 033d 6983 e53d
00000290: 8dec 063d ed0f d73d f606 b33d 227b b5bd
000002a0: 553e d53a 389d c6be dde8 ab3d 68b9 32bd
000002b0: 6af6 80bd 8ad7 1abd 485d 15be 7cf0 ddbd
000002c0: fae7 bebd c8cb 6abd 17f0 88bc 257b b6bd
000002d0: 1cfc c4bd 2214 183d 7852 c2bd ee9f 4e3d
000002e0: ab25 0b3c ddeb fb3b 8bae 2c3c faf8 b13d
000002f0: f2d3 c73c b929 a8bc 8e56 38be 6d46 193e
00000300: f327 1a3b 1bd8 b6bd da6d 5d3e cba2 aa3d
00000310: ab91 c33d a494 ecbd 8bc2 63bc cec7 403d
00000320: 010e 8cbc c1b5 c6bc 21fb dfbd d475 183d
00000330: df46 0f3e 02cb a73b c5aa b9bd 0b70 94bd
00000340: 4ef4 d03d 9ca7 033e 47a6 853d 15eb 05be
00000350: 59d7 613d c00d 26bd 2944 bc3e a6f8 64bd
00000360: dace 12bd 91a0 58bd c786 4d3c a5c7 f6bd
00000370: 4aac 8cbd 4ad7 be3d 6f9e a73d 2d69 c03d
00000380: f80f 44bb 37a8 9d3d 2c84 6fbd 18eb bbbd
00000390: 6b82 163d 3516 463e bd5a f8bc d2e1 3bbc
000003a0: 7b7e 2fbd 58cf 533d 9832 8dbd 83cd df3d
000003b0: c6ae a13b 2032 813d 984a fa3b 103f 3d3e
000003c0: 00e1 edbc d0df 74bd 5100 03bc 27a5 12be
000003d0: 5260 0abd d406 ff3c e109 313a b109 cebc
000003e0: b5c3 d43d 7ff4 cfbd 34d0 a1bd 18e2 a5bd
000003f0: 8cae 173e df2d ba3c c173 8b3d d816 a2bd

weight_hh f4 [384, 128]
0.1089714 -0.050445054 -0.011097484 0.027373536 -0.0014562183 0.031950485 -0.086912766 0.027984712
-0.015775854 0.03048975 0.04934784 0.11383422 0.034362804 -0.033817094 -0.037757397 -0.13826229
-0.027921738 0.051638376 -0.07880689 -0.037575845 0.040161606 0.004644102 0.011994009 0.0060517513
-0.01224221 -0.07118995 -0.08576429 -0.18598619 -0.023748199 0.0162969 -0.030380653 0.015669739
0.03604828 -0.037153028 0.050372005 0.008249522 -0.0819841 -0.07293933 -0.06407456 0.09996426
0.02577713 -0.07008975 0.01672059 0.033540223 -0.017210906 0.032151315 -0.09956582 0.08394663
0.032142736 0.0723942 0.04155461 -0.06722349 -0.03457867 -0.14060055 0.026874276 0.077425055
-0.14803901 0.03227689 -0.04414753 -0.09655843 -0.06561945 0.048233803 -0.011909428 0.09674691
0.093124434 0.004371892 -0.14899924 -0.074979745 0.119869605 0.011657618 0.04827441 -0.12410069
-0.015697312 0.027469795 0.008353226 0.06797665 -0.06313648 0.024356445 0.06486525 -0.12265583
-0.07603694 -0.023605179 -0.06761872 0.080810376 -0.0007635545 0.060773727 0.011895789 0.10367523
0.020705117 0.0097696185 0.1341105 0.005306378 0.1023964 -0.024829978 0.039872892 0.027543617
0.0598108 0.06654059 0.0072052167 -0.13517693 0.053409588 0.040834684 -0.08772306 -0.102711216
-0.0761567 -0.034456138 0.035633124 0.0128167095 -0.025810242 -0.07531 0.04517426 -0.014739275
0.041534636 0.06119089 0.006127977 -0.10560595 -0.034803413 0.078635186 -0.03947919 -0.07887345
0.08402822 0.021379447 0.044491988 -0.094511844 0.11310411 -0.08705149 0.088995725 0.040835686
0.041127525 0.043554567 -0.0076294295 0.024231168 -0.024228983 -0.1191943 0.14704986 0.15402016
0.1510269 -0.010970717 0.13243382 -0.0011345488 0.060545336 0.07868547 -0.17752826 -0.012567765
-0.11019133 -0.032651797 0.101584546 -0.1507519 0.058795273 0.16543163 -0.11175869 0.20541327
0.172129 0.27181193 -0.1073501 -0.100571826 0.014506301 0.031451598 0.01793108 -0.07168362
-0.10121454 -0.08851546 0.091548 -0.089928605 0.040682003 -0.24276009 -0.117346846 0.0025455991
-0.07055854 0.039613523 -0.026554687 0.10035104 0.07654738 0.027280046 -0.10907162 0.056702655
-0.093540646 0.02078563 0.06707465 0.14438514 0.03486706 -0.119298816 0.058586493 0.11327249
-0.07175992 -0.22478992 0.1144196 -0.126506 0.11071343 0.09682619 0.01678824 -0.013747807
0.024121491 0.06854312 -0.010933154 -0.023959706 0.10568018 0.041209113 0.012142778 -0.15809844
0.019937675 0.033763815 -0.11032006 -0.054293003 -0.047851663 0.015009754 0.02111057 -0.039523892
-0.036313172 0.19113205 -0.08093386 -0.14897576 0.0440291 0.0040060785 0.066955715 0.029583452
0.02498133 -0.16260014 0.106208585 0.07740819 0.08617379 -0.047658183 -0.033840194 0.072580904
0.011363513 0.041618083 -0.09472921 -0.12935457 0.09816437 -0.021540277 -0.012203278 -0.198462
-0.17208473 0.12907542 0.050720815 -0.061355084 0.106168956 0.012629846 0.2393028 0.090061724
-0.059091683 0.005338668 0.10816779 -0.24046072 -0.26977378 -0.26425782 -0.10588813 -0.14215922
-0.04557216 0.105128735 -0.22204451 -0.005757623 -0.054895204 -0.06931918 0.13820605 0.0881539
00000000: 662c df3d 799f 4ebd 39d2 35bc 773e e03c
00000010: 94de beba 83de 023d 52ff b1bd 3240 e53c
00000020: 5d3c 81bc a4c5 f93c f620 4a3d ea21 e93d
00000030: 03c0 0c3d cb83 0abd 80a7 1abd a194 0dbe
00000040: 21bc e4bc c382 533d 8265 a1bd 21e9 19bd
00000050: 7f80 243d 8d2d 983b 8582 443c c54d c63b
00000060: 8d93 48bc 09cc 91bd 30a5 afbd 2a73 3ebe
00000070: 958b c2bc 1481 853c d9e0 f8bc d35d 803c
00000080: 5ca7 133d c62d 18bd e052 4e3d 0129 073c
00000090: 48e7 a7bd 3761 95bd 8639 83bd 10ba cc3d
000000a0: 8f2a d33c 378b 8fbd 9ef9 883c 7961 093d
000000b0: e3fd 8cbc 19b1 033d 2ae9 cbbd 36ec ab3d
000000c0: 1aa8 033d 6943 943d 2b35 2a3d 78ac 89bd
000000d0: 5da2 0dbd 97f9 0fbe 7127 dc3c 0791 9e3d
000000e0: 8a97 17be c634 043d 0ad4 34bd 6dc0 c5bd
000000f0: 7d63 86bd cf90 453d c31f 43bc 3e23 c63d
00000100: 06b8 be3d 1742 8f3b 4293 18be fb8e 99bd
00000110: 327e f53d 98ff 3e3c 63bb 453d 8128 febd
00000120: a697 80bc 5608 e13c f8db 083c 5837 8b3d
00000130: b34d 81bd 2b87 c73c 12d8 843d fb32 fbbd
00000140: 41b9 9bbd a65f c1bc af7b 8abd e97f a53d
00000150: 4629 48ba dfed 783d 8ee6 423c ae53 d43d
00000160: c79d a93c c010 203c 4354 093e 20e1 ad3b
00000170: 34b5 d13d 3d68 cbbc c251 233d 27a3 e13c
00000180: 2bfc 743d 6f46 883d bd19 ec3b d26b 0abe
00000190: 03c4 5a3d 4542 273d 26a8 b3bd 425a d2bd
000001a0: 0bf8 9bbd e121 0dbd 0af4 113d 2dfd 513c
000001b0: 0070 d3bc 213c 9abd a508 393d 007d 71bc
000001c0: 3920 2a3d 4ca3 7a3d 32cd c83b ef47 d8bd
000001d0: 068e 0ebd 7c0b a13d eeb4 21bd 6788 a1bd
000001e0: fd16 ac3d f323 af3c 3b3d 363d 6d8f c1bd
000001f0: 21a3 e73d 0d48 b2bd 6443 b63d 5243 273d
00000200: 5675 283d 4666 323d 4b00 fabb 7180 c63c
00000210: dc7b c6bc 241c f4bd 3d94 163e 76b7 1d3e
00000220: cca6 1a3e 86be 33bc bb9c 073e 24b5 94ba
00000230: 63fe 773d d925 a13d f8c9 35be 07e9 4dbc
00000240: feab e1bd e4bd 05bd 8f0b d03d b55e 1abe
00000250: 50d3 703d e966 293e bde1 e4bd db57 523e
00000260: 9642 303e ef2a 8b3e 5fda dbbd 9af8 cdbd
00000270: d6ab 6d3c 64d3 003d 33e4 923c ddce 92bd
00000280: 9249 cfbd 9847 b5bd 857d bb3d 7d2c b8bd
00000290: 2ca2 263d 1a96 78be 8b53 f0bd 11d4 263b
000002a0: ff80 90bd ca41 223d 3789 d9bc d984 cd3d
000002b0: dfc4 9c3d 677a df3c f160 dfbd 0b41 683d
000002c0: 3d92 bfbd a046 aa3c 6f5e 893d b3d9 133e
000002d0: c3d0 0e3d f052 f4bd 64f8 6f3d 68fb e73d
000002e0: ddf6 92bd 542f 66be d354 ea3d ca8a 01be
000002f0: b9bd e23d cf4c c63d 7e87 893c 7b3e 61bc
00000300: 6f9a c53c 5660 8c3d f920 33bc 2547 c4bc
00000310: da6e d83d e3ca 283d 81f2 463c 8fe4 21be
00000320: 5654 a33c ed4b 0a3d 7cef e1bd 5762 5ebd
00000330: 1b00 44bd 79eb 753c 13f0 ac3c cee3 21bd
00000340: 1fbd 14bd 1fb8 433e a7c0 a5bd 1a8d 18be
00000350: dc57 343d 6c45 833b 1420 893d ff58 f23c
00000360: a5a5 cc3c a780 26be e383 d93d 2f88 9e3d
00000370: e27b b03d 3a35 43bd 049c 0abd 4ca5 943d
00000380: 072e 3a3c b977 2a3d 6301 c2bd 8675 04be
00000390: 670a c93d 3c75 b0bc 42f0 47bc 9f39 4bbe
000003a0: fb36 30be 592c 043e a1c0 4f3d 784f 7bbd
000003b0: 1c6f d93d 6aed 4e3c cb0b 753e 4872 b83d
000003c0: 1f0a 72bd feef ae3b 1387 dd3d 563b 76be
000003d0: ca1f 8abe cd4c 87be e0db d8bd 3092 11be
000003e0: e0a9 3abd bc4d d73d a35f 63be 71aa bcbb
000003f0: cbd9 60bd 37f7 8dbd e385 0d3e 088a b43d

bias_ih f4 [384]
-0.04261734 -0.0058556804 0.025687456 0.07118455 -0.084716894 0.014512067 0.013984277 0.038892634
-0.08147713 0.06576065 0.022906033 -0.12037886 0.045215838 0.009365105 0.16009015 -0.0014994156
-0.029275434 0.037300676 -0.038883936 -0.036921516 0.12964226 -0.0009117633 -0.047587976 -0.010083483
0.06663574 -0.09376259 -0.04399881 0.11226835 -0.057504833 0.040771782 -0.09274711 -0.089038976
0.059092417 0.10310592 -0.040045463 -0.08926561 -0.05057709 0.050732635 -0.039347734 0.0037181221
-0.03843658 0.0052618976 0.02365873 -0.041952573 0.09874223 0.0570237 -0.013961162 0.08763688
-0.13446799 -0.049484126 0.04017806 -0.05777821 -0.04002048 0.002114448 0.051070116 -0.09194658
-0.092428654 0.079657204 -0.0113210995 -0.024758998 -0.008587677 -0.09926296 0.04998201 0.060971126
0.06240743 -0.042526085 0.04005114 0.045018636 -0.07661298 -0.009217608 -0.022225033 -0.11068825
0.022956453 0.055188607 0.015994787 0.05058413 -0.09131422 -0.068194926 -0.010263743 0.09466877
0.03907435 0.041654017 -0.1197254 0.0072464296 -0.0002466328 0.17715359 -0.029475605 0.13302137
-0.0007123619 0.11024513 -0.14644153 -0.005770351 0.020098196 0.068308055 -0.07710828 0.025435222
-0.005763583 -0.05010181 0.03877305 0.057738964 0.06915376 0.08656774 0.05511721 -0.03159755
-0.08443268 -0.08560407 -0.07005426 0.034478392 -0.056872264 -0.085772835 0.10602169 0.008412243
0.006372616 -0.024293344 0.0060764584 0.088147655 0.06854877 0.018865926 -0.01585597 -0.0067650606
-0.011791567 -0.07787044 0.09216028 -0.07707803 -0.009731326 0.043664165 0.10117266 0.017235164
-0.011454711 -0.041409053 0.0919616 0.107032 -0.07901845 -0.045952458 -0.036118314 0.024730844
-0.0029240246 -0.067460515 -0.03746444 0.014789653 0.08135616 0.06269089 -0.18519756 0.0020077762
0.029791467 0.049855817 -0.07375434 -0.017045228 -0.103179894 0.0061242864 -0.045610655 -0.05401579
0.06377649 -0.1114169 -0.09866968 -0.018082533 0.021795886 -0.15784396 0.001570895 -0.053865705
-0.19619972 0.03140784 -0.026962973 -0.12863065 0.02359547 -0.08511424 -0.11570991 -0.08862264
0.06777801 -0.2211298 -0.04634833 0.037713915 -0.053910438 -0.029947242 -0.02483421 -0.08623001
0.064821206 -0.09048512 0.022435475 -0.07081525 0.069380455 -0.20560634 -0.10312669 0.024352595
-0.19588405 -0.056139372 0.019540556 -0.059079673 -0.026768897 -0.0077202893 0.018458761 -0.10519335
0.043070927 -0.047413494 0.053123195 -0.07332549 0.09919712 0.008804027 -0.034778286 0.024606751
-0.06997335 0.039266907 0.07139241 0.07746503 -0.105411306 0.028739044 -0.06343063 -0.038505446
0.09265839 -0.07471256 0.005371866 0.06247165 -0.0312903 -0.13189748 -0.01751841 -0.04409326
-0.034472246 -0.04886774 0.026089547 -0.08403743 -0.18504752 -0.1839353 -0.035244714 -0.051576447
0.06139115 0.007461175 -0.04080123 0.0102001 -0.030642219 -0.05783668 0.117555015 0.066237696
0.078387186 0.09508386 0.08443523 -0.052233607 0.035021026 0.012619635 0.0099589545 -0.051498197
-0.012524219 0.0073410547 0.12861952 0.0074339225 -0.03133761 -0.056633294 -0.07281703 -0.07129612
-0.051271793 0.034726486 0.021947958 0.0733446 -0.09340557 0.052601125 0.007612046 -0.0019941395
00000000: 858f 2ebd 02e1 bfbb 806e d23c 35c9 913d
00000010: 0d80 adbd 05c4 6d3c 4f1e 653c e24d 1f3d
00000020: 7bdd a6bd 85ad 863d 6fa5 bb3c 3189 f6bd
00000030: 3e34 393d 1970 193c acee 233e 0a88 c4ba
00000040: 09d3 efbc 98c8 183d c344 1fbd 043b 17bd
00000050: f1c0 043e 6603 6fba 9ceb 42bd 3135 25bc
00000060: 5278 883d 9a06 c0bd 1938 34bd f3ec e53d
00000070: 308a 6bbd 5000 273d 32f2 bdbd 115a b6bd
00000080: e40a 723d 3229 d33d b606 24bd e3d0 b6bd
00000090: ec29 4fbd 06cd 4f3d 172b 21bd bdab 733b
000000a0: ad6f 1dbd ff6b ac3b f4cf c13c 76d6 2bbd
000000b0: 5e39 ca3d af91 693d 5cbd 64bc f77a b33d
000000c0: fab1 09be deaf 4abd c091 243d d8a8 6cbd
000000d0: 84ec 23bd 8d92 0a3b e62e 513d 7d4e bcbd
000000e0: 3c4b bdbd 5123 a33d 227c 39bc 62d3 cabc
000000f0: 54b3 0cbc 614a cbbd f0b9 4c3d dcbc 793d
00000100: ef9e 7f3d d52f 2ebd aa0c 243d 7665 383d
00000110: 44e7 9cbd 7305 17bc 4611 b6bc 85b0 e2bd
00000120: 2c0f bc3c 730d 623d 8007 833c 4e31 4f3d
00000130: f302 bbbd c8a9 8bbd 4229 28bc b3e1 c13d
00000140: 6d0c 203d 679d 2a3d 9732 f5bd 7573 ed3b
00000150: 7e4e 81b9 c067 353e d376 f1bc c136 083e
00000160: ccbd 3aba 33c8 e13d c5f4 15be 3615 bdbb
00000170: f9a4 a43c 18e5 8b3d f2ea 9dbd 875d d03c
00000180: 70dc bcbb 8e37 4dbd 7dd0 1e3d b17f 6c3d
00000190: 7da0 8d3d 6d4a b13d 95c2 613d 6f6c 01bd
000001a0: 0aeb acbd 3051 afbd 9c78 8fbd 3739 0d3d
000001b0: e4f2 68bd aba9 afbd e621 d93d 81d3 093c
000001c0: 61d1 d03b d602 c7bc 071d c73b c286 b43d
000001d0: 4c63 8c3d b78c 9a3c 61e4 81bc 71ad ddbb
000001e0: 6b31 41bc 8a7a 9fbd 87be bc3d 16db 9dbd
000001f0: 2470 1fbc 32d9 323d 9d33 cf3d c230 8d3c
00000200: 8aac 3bbc 8a9c 29bd 5d56 bc3d 9833 db3d
00000210: 6dd4 a1bd a538 3cbd ccf0 13bd 5798 ca3c
00000220: fea0 3fbb bd28 8abd 5074 19bd 4d50 723c
00000230: 0f9e a63d 1564 803d 6ea4 3dbe e594 033b
00000240: 3c0d f43c 9d35 4c3d 840c 97bd 6fa2 8bbc
00000250: fb4f d3bd 3dae c83b 3dd2 3abd a93f 5dbd
00000260: 409d 823d 8b2e e4bd 5413 cabd d221 94bc
00000270: 498d b23c d9a1 21be 7de6 cd3a 49a2 5cbd
00000280: 94e8 48be 82a5 003d 74e1 dcbc c1b7 03be
00000290: 494b c13c 6050 aebd 51f9 ecbd c97f b5bd
000002a0: 33cf 8a3d da6f 62be bfd7 3dbd e879 1a3d
000002b0: 31d1 5cbd eb53 f5bc 1d71 cbbc 5c99 b0bd
000002c0: fbc0 843d 4350 b9bd 9aca b73c 9607 91bd
000002d0: 5717 8e3d 788a 52be 1634 d3bd 187f c73c
000002e0: d495 48be 66f2 65bd 8413 a03c 87fd 71bd
000002f0: 724a dbbc 7bfa fcbb d436 973c 9c6f d7bd
00000300: 246b 303d a734 42bd b597 593d ad2b 96bd
00000310: dc27 cb3d c43e 103c ad73 0ebd 1994 c93c
00000320: 304e 8fbd 56d6 203d 2f36 923d fca5 9e3d
00000330: e2e1 d7bd 256e eb3c ebe7 81bd e3b7 1dbd
00000340: afc3 bd3d e602 99bd 7a06 b03b 46e2 7f3d
00000350: 422a 00bd 2210 07be c582 8fbc 229b 34bd
00000360: c532 0dbd 8a29 48bd bfb9 d53c d11b acbd
00000370: 197d 3dbe 8959 3cbe c35c 10bd d341 53bd
00000380: 4975 7b3d df7c f43b 311f 27bd 521e 273c
00000390: 6405 fbbc 28e6 6cbd afc0 f03d a1a7 873d
000003a0: 7689 a03d 54bb c23d 61ec ac3d e8f2 55bd
000003b0: 3572 0f3d 96c2 4e3c e22a 233c c6ef 52bd
000003c0: 6232 4dbc 3b8d f03b d6b4 033e 4398 f33b
000003d0: de5b 00bd 50f8 67bd 1821 95bd b303 92bd
000003e0: 5f02 52bd 5c3d 0e3d 34cc b33c b235 963d
000003f0: 6b4b bfbd 4774 573d 786e f93b 1cb0 02bb

bias_hh f4 [384]
0.08105202 -0.03385339 -0.04499001 -0.057225727 0.05528259 -0.12500322 -0.046828397 0.12375224
-2.1624455e-05 -0.049962092 -0.08894801 0.021224525 0.08944174 0.03142105 0.14373226 0.0297833
0.09925709 -0.009720713 0.0081386715 -0.021103224 -0.0013860209 -0.035673507 0.018286273 -0.02770711
0.041662417 -0.092246495 -0.036292456 0.09115903 -0.10386673 -0.023561483 0.007272488 0.063751206
-0.037928656 0.016229838 0.016036818 0.037971612 0.041567333 0.14025083 0.07576182 -0.031377923
-0.064781606 0.020853136 -0.024913976 0.09339208 0.08266683 0.052600037 -0.03274257 0.054302014
-0.13400139 0.038143728 0.07467344 -0.06645715 0.0830955 0.0689587 -0.055979062 0.019809393
-0.045602426 -0.02783193 -0.026865343 -0.08539306 0.05838273 -0.09174772 -0.026793275 0.034706056
0.015414229 0.005804507 0.020584013 -0.0350068 -0.0059146085 0.070677854 -0.053673096 0.04686829
0.054583408 -0.019187719 -0.05365764 0.10293483 0.010560622 -0.044153426 -0.10704957 0.10542431
-0.07459035 0.10802446 -0.04964424 -0.06723308 0.049597304 0.1003194 0.1190002 0.012042285
0.04807038 0.060534116 -0.12855138 0.0355598 -0.0061750775 0.007251335 0.06628531 0.071905695
-0.06783506 0.0880779 0.14867659 0.12877752 -0.061283384 0.1734025 -0.004991617 -0.057556506
0.023623737 -0.060446046 -0.09090923 0.102381706 -0.13885352 0.009448473 0.030917479 0.046694737
0.031430416 0.016450336 0.04820616 -0.059446666 0.084586106 0.043695733 0.070119254 0.12119578
-0.02089974 0.069442876 0.119991444 -0.10539948 -0.046912882 -0.017176643 0.03207533 0.02501649
-0.08131256 0.05841944 0.052399527 0.054726288 0.053045023 -0.0046393755 0.09974777 -0.016491912
-0.0876783 -0.07707197 -0.016153416 0.05122919 -0.02239413 -0.07341323 -0.18036544 -0.023995763
0.021067731 0.084786184 -0.026802933 0.0242926 0.056929443 0.07527963 0.0203669 0.016095858
0.03681804 -0.013689611 -0.12260419 -0.1024129 0.020497335 -0.10094542 -0.09727402 -0.035064552
-0.20899999 0.07248091 0.03763407 -0.06491516 0.029809281 -0.031150164 -0.08826274 -0.051508002
-0.076561764 -0.18242516 0.0418926 -0.073146574 0.07161532 0.083209574 0.080731615 0.02732831
0.04540245 -0.03338203 -0.101092584 -0.06835624 0.0470283 -0.053633504 0.052442417 0.04841822
-0.13977978 -0.12251216 0.071024805 -0.039296 -0.06985661 0.053607438 -0.06119706 -0.106815375
-0.031752363 -0.08227503 -0.006755231 0.027036602 -0.030753653 -0.05220829 0.020871693 -0.008356078
0.051148497 0.01566423 0.026059847 -0.05785083 0.015256048 -0.0021874062 -0.10120737 -0.11627777
0.0477626 0.049205303 -0.056448247 -0.035411447 -0.10399264 -0.149334 0.08706929 -0.061057575
0.11204132 -0.06514925 0.01861617 -0.017697224 -0.18822683 -0.18322834 0.07372631 -0.08660417
0.06640371 -0.045479875 -0.055097878 -0.05510383 -0.115858495 -0.087556496 0.0035160875 0.05038815
-0.07494475 0.017391313 0.025502913 -0.072089836 -0.029483223 0.14863648 -0.01681177 0.0011244483
-0.062203728 -0.11183368 0.098210275 0.102644354 -0.0959514 -0.04483438 0.011542889 -0.10303022
-0.036054183 0.0485105 -0.14481924 -0.015421851 -0.08782484 0.019054838 -0.13323352 -0.07086719
00000000: 9afe a53d daa9 0abd 7247 38bd 8665 6abd
00000010: ff6f 623d d800 00be 22cf 3fbd d071 fd3d
00000020: 2a66 b5b7 0da5 4cbd 602a b6bd 0edf ad3c
00000030: 3b2d b73d 5cb3 003d 8d2e 133e 1bfc f33c
00000040: 4d47 cb3d a043 1fbc 1058 053c abe0 acbc
00000050: 25ab b5ba 621e 12bd 18cd 953c 05fa e2bc
00000060: 36a6 2a3d bbeb bcbd 66a7 14bd 96b1 ba3d
00000070: 15b8 d4bd 0304 c1bc 0d4e ee3b fe8f 823d
00000080: 145b 1bbd 70f4 843c a55f 833c 1f88 1b3d
00000090: 8242 2a3d ea9d 0f3e 0329 9b3d 2386 00bd
000000a0: 38ac 84bd 32d4 aa3c 6518 ccbc 5944 bf3d
000000b0: 3a4d a93d 2373 573d 131d 06bd ca6b 5e3d
000000c0: a937 09be 993c 1c3d 63ee 983d b01a 88bd
000000d0: f92d aa3d 383a 8d3d 4d4a 65bd 4f47 a23c
000000e0: 9cc9 3abd caff e3bc b514 dcbc 8fe2 aebd
000000f0: bb22 6f3d 3be6 bbbd 927d dbbc f027 0e3d
00000100: f68b 7c3c bc33 be3b ce9f a83c 4a63 0fbd
00000110: 55cf c1bb 8dbf 903d 52d8 5bbd f7f8 3f3d
00000120: da92 5f3d 902f 9dbc 1dc8 5bbd 7fcf d23d
00000130: 7606 2d3c 39da 34bd ce3c dbbd b3e8 d73d
00000140: d3c2 98bd ee3b dd3d c257 4bbd 7fb1 89bd
00000150: 8b26 4b3d 4274 cd3d 60b6 f33d 014d 453c
00000160: 72e5 443d 9ff2 773d f9a2 03be 27a7 113d
00000170: 4e58 cabb 9b9c ed3b 98c0 873d 4b43 933d
00000180: 1ced 8abd 3062 b43d ad3e 183e 41de 033e
00000190: 4904 7bbd 6d90 313e b890 a3bb 5fc0 6bbd
000001a0: 9186 c13c 4696 77bd 9e2e babd 80ad d13d
000001b0: 9e2f 0ebe c5cd 1a3c a746 fd3c fb42 3f3d
000001c0: 2ebd 003d dbc2 863c d373 453d 597e 73bd
000001d0: 7b3b ad3d 4cfa 323d af9a 8f3d 7e35 f83d
000001e0: ee35 abbc 1138 8e3d 13be f53d afdb d7bd
000001f0: b927 40bd 08b6 8cbc 6c61 033d 62ef cc3c
00000200: 3387 a6bd 3949 6f3d e3a0 563d ac28 603d
00000210: bd45 593d e705 98bb 8f48 cc3d 0c1a 87bc
00000220: ae90 b3bd e9d7 9dbd 2b54 84bc b3d5 513d
00000230: e573 b7bc ad59 96bd b8b1 38be c392 c4bc
00000240: 3c96 ac3c 61a4 ad3d d391 dbbc 4601 c73c
00000250: d92e 693d 352c 9a3d 7cd8 a63c 76db 833c
00000260: 83ce 163d 644a 60bc e817 fbbd dbbd d1bd
00000270: 07ea a73c 79bc cebd 9a37 c7bd d99f 0fbd
00000280: 1804 56be df70 943d 2f26 1a3d 3df2 84bd
00000290: 9832 f43c a12e ffbc 18c3 b4bd 0efa 52bd
000002a0: 6acc 9cbd a9cd 3abe 9397 2b3d dfcd 95bd
000002b0: 0eab 923d c869 aa3d 9e56 a53d 9fdf df3c
000002c0: ebf7 393d 98bb 08bd a109 cfbd 5bfe 8bbd
000002d0: bfa0 403d ceae 5bbd dccd 563d 2f52 463d
000002e0: 6e22 0fbe a8e7 fabd 7475 913d d8f4 20bd
000002f0: fb10 8fbd 7993 5b3d c5a9 7abd 05c2 dabd
00000300: c40e 02bd d07f a8bd fc5a ddbb dd7b dd3c
00000310: 16ef fbbc 5cd8 55bd 1dfb aa3c eee7 08bc
00000320: 1681 513d 4552 803c 767b d53c fef4 6cbd
00000330: 81f4 793c 965a 0fbb cf45 cfbd 0a23 eebd
00000340: b7a2 433d 808b 493d 4736 67bd 980b 11bd
00000350: 18fa d4bd 03eb 18be 6251 b23d 8217 7abd
00000360: eb75 e53d f86c 85bd f080 983c c5f9 90bc
00000370: 89be 40be 36a0 3bbe d2fd 963d 875d b1bd
00000380: abfe 873d 1b49 3abd 50ae 61bd 8eb4 61bd
00000390: 3847 edbd d250 b3bd 296e 663b ce63 4e3d
000003a0: a27c 99bd 3a78 8e3c 7ceb d03c d6a3 93bd
000003b0: cd86 f1bc 2934 183e d6b8 89bc 3962 933a
000003c0: 56c9 7ebd 0e09 e5bd 7822 c93d 3437 d23d
000003d0: 2b82 c4bd 41a4 37bd 631e 3d3c 8201 d3bd
000003e0: 8dad 13bd f2b2 463d 7f4b 14be eeab 7cbc
000003f0: 82dd b3bd e418 9c3c 5e6e 08be d122 91bd

weight f4 [128, 128]
0.07355762 -0.012433254 -0.100046605 0.0138011165 -0.045596156 0.04611817 -0.18685353 -0.054072462
0.09382069 -0.05420367 -0.06729909 0.114634156 -0.010896778 0.057118386 -0.042818036 0.11722009
-0.014475442 0.10713857 0.056285564 0.024611503 -0.07823944 0.024961714 0.091884874 -0.13228759
0.065507315 -0.15756446 -0.041222986 0.06642054 -0.059878748 0.07255281 -0.02148264 -0.029082881
-0.07112016 -0.050836094 -0.11993852 0.12325187 0.025523461 0.025441477 -0.07901997 -0.15865245
0.09918711 0.047376648 0.030622387 0.093799874 0.041833177 -0.012633795 -0.011302271 0.04922462
0.057821073 -0.08484006 -0.05042693 -0.11031726 0.009539575 0.14662397 -0.03461868 -0.010140093
0.011998611 0.041417822 0.018913237 0.104027696 -0.091635674 -0.08325448 -0.034632176 -0.0017352689
0.19927417 -0.012572602 0.068099976 -0.0120585775 0.100608915 -0.13676086 -0.029420273 0.20051268
-0.021685889 0.11158011 -0.050026987 -0.10299902 -0.053268712 0.14566061 -0.079783835 0.005520155
0.043643568 0.052571412 -0.015378087 -0.024126336 -0.052298885 -0.016440935 -0.09976104 -0.061319835
-0.03657104 -0.075468116 -0.16024551 -0.07385678 0.096935846 0.035742976 -0.11306825 -0.04225466
-0.04491419 0.09047923 -0.093935266 -0.16341144 -0.14564595 0.04355186 -0.14887314 0.04163238
0.12803426 -0.1812658 0.022708105 -0.09670091 -0.116343535 -0.08146744 -0.01822966 0.13631983
0.09831835 0.04204232 -0.14028677 0.02667244 -0.05217166 0.027926283 0.021831384 0.0049606175
-0.09279844 -0.029955491 -0.12516655 0.07831587 0.014919604 0.12009561 -0.0748514 0.022056568
-0.033317454 -0.0023391838 0.02480295 0.032941997 -0.057765417 -0.11581134 0.22474119 0.025231209
-0.1320929 -0.08218615 -0.025212249 -0.18285282 0.10173237 0.083585866 0.05649806 0.0087415315
0.13010249 -0.107052304 -0.016707046 0.08118882 0.06824135 0.04816256 0.040282562 -0.038662307
-0.11261919 0.02585188 0.07242202 -0.015267144 0.12912963 0.06745558 0.16939025 -0.09838663
0.078923464 0.083189234 0.08035879 -0.1936667 0.17149149 0.025625719 -0.04856086 0.04677391
-0.112190776 0.054988883 -0.17887579 -0.05271345 0.11439952 -0.072424024 0.13837261 0.11652106
-0.069080785 0.029395087 0.0090418495 0.19649167 0.048943713 0.007433855 -0.04067697 0.020475725
0.07638371 -0.020020409 0.05084654 -0.06466677 -0.003448052 0.106263444 0.08677949 0.06588792
0.005229664 -0.018030655 0.031730138 0.0063380185 -0.0547585 0.11152252 0.03154902 -0.062037744
0.01094293 -0.0035661585 0.13026074 -0.038779616 -0.16688223 -0.016311672 0.11893562 0.055517346
-0.008679107 0.06038175 -0.14320171 0.05369531 -0.054522853 0.026935773 0.020807391 -0.0319324
0.006048604 0.06307589 0.108044624 0.14568585 -0.042031217 0.037353292 -0.020083353 0.023086995
0.06529898 -0.08651096 -0.094185755 -0.0054470445 0.090368025 -0.03560515 0.1681561 -0.036249906
-0.03418549 0.13063265 -0.08700326 0.024381595 0.094764985 0.06325495 0.04843756 0.17963734
0.07251911 0.044638574 0.0797951 -9.296033e-05 0.0065469914 0.078641534 -0.0034062206 0.09414719
-0.1069947 -0.14675532 -0.03466274 -0.14510383 -0.0022367656 -0.017374374 -0.079072475 -0.0058775474
00000000: 61a5 963d d9b4 4bbc 3ce5 ccbd 141e 623c
00000010: 09c3 3abd 68e6 3c3d 8856 3fbe 167b 5dbd
00000020: 1025 c03d ab04 5ebd 1bd4 89bd 50c5 ea3d
00000030: 6688 32bc f8f4 693d f761 2fbd 1611 f03d
00000040: 672a 6dbc 776b db3d b18b 663d 109e c93c
00000050: 003c a0bd 827c cc3c 232e bc3d 6676 07be
00000060: b328 863d 9458 21be 6fd9 28bd 7e07 883d
00000070: 6b43 75bd 9196 943d 5dfc afbc 393f eebc
00000080: 72a7 91bd 8239 50bd 54a2 f5bd 7a6b fc3d
00000090: 9416 d13c a56a d03c 39d5 a1bd ca75 22be
000000a0: 9d22 cb3d 040e 423d cddb fa3c 261a c03d
000000b0: 4459 2b3d fafd 4ebc 292d 39bc c19f 493d
000000c0: cad5 6c3d a0c0 adbd 788c 4ebd 04ee e1bd
000000d0: e14b 1c3c 9824 163e 51cc 0dbd a222 26bc
000000e0: d295 443c bca5 293d efef 9a3c 790c d53d
000000f0: 7cab bbbd 5381 aabd 78da 0dbd f671 e3ba
00000100: 870e 4c3e 51fd 4dbc 0078 8b3d 5791 45bc
00000110: 0c0c ce3d 0a0b 0cbe c902 f1bc 3253 4d3e
00000120: 9ba6 b1bc 1d84 e43d 19e9 4cbd 26f1 d2bd
00000130: 4b30 5abd 0e28 153e b565 a3bd 6be2 b43b
00000140: 99c3 323d 1f55 573d 5ff4 7bbc 98a4 c5bc
00000150: 5b37 56bd 24af 86bc 844f ccbd 822a 7bbd
00000160: 84cb 15bd 078f 9abd 6617 24be 3942 97bd
00000170: 4d86 c63d 3a67 123d 5490 e7bd 3913 2dbd
00000180: f1f7 37bd 2d4d b93d 2261 c0bd 5455 27be
00000190: 3624 15be 6f63 323d 3372 18be b786 2a3d
000001a0: 6a1b 033e be9d 39be 5906 ba3c 200b c6bd
000001b0: 8545 eebd 67d8 a6bd 5e56 95bc 6d97 0b3e
000001c0: 225b c93d 9134 2c3d 56a7 0fbe 2980 da3c
000001d0: f3b1 55bd a9c5 e43c bbd7 b23c ad8c a23b
000001e0: 1c0d bebd 3865 f5bc a92b 00be 1264 a03d
000001f0: 5b71 743c b0f4 f53d b14b 99bd faaf b43c
00000200: e277 08bd fe4c 19bb 8e2f cb3c 30ee 063d
00000210: 6e9b 6cbd 7f2e edbd 8e22 663e aeb1 ce3c
00000220: 5c43 07be 3651 a8bd eb89 cebc c53d 3bbe
00000230: 1059 d03d 112f ab3d 826a 673d a438 0f3c
00000240: 9639 053e 3d3e dbbd 37dd 88bc 5346 a63d
00000250: 1fc2 8b3d 1b46 453d 54ff 243d 5e5c 1ebd
00000260: e4a4 e6bd 52c7 d33c ff51 943d 0b23 7abc
00000270: 8f3a 043e 2726 8a3d a374 2d3e ee7e c9bd
00000280: a0a2 a13d 1e5f aa3d 2693 a43d 9050 46be
00000290: 779b 2f3e 07ed d13c c1e7 46bd 0096 3f3d
000002a0: 47c4 e5bd 063c 613d 372b 37be 0fea 57bd
000002b0: 4c4a ea3d 0c53 94bd 8db1 0d3e 98a2 ee3d
000002c0: 3a7a 8dbd f7cd f03c 4424 143c 1d35 493e
000002d0: 3479 483d b297 f33b e59c 26bd b5bc a73c
000002e0: 106f 9c3d d701 a4bc 7644 503d 0370 84bd
000002f0: b7f8 61bb a6a0 d93d 72b9 b13d 3ff0 863d
00000300: 9a5d ab3b 06b5 93bc 76f7 013d 27af cf3b
00000310: 734a 60bd eb65 e43d 8c39 013d 4a1b 7ebd
00000320: fa49 333c 36b6 69bb 1263 053e 60d7 1ebd
00000330: 2de3 2abe 0ea0 85bc 8594 f33d 2866 633d
00000340: d032 0ebc db52 773d 78a3 12be 9def 5b3d
00000350: 5b53 5fbd 69a8 dc3c 4374 aa3c 8ccb 02bd
00000360: 5e33 c63b ef2d 813d 8046 dd3d ac2e 153e
00000370: ed28 2cbd c4ff 183d d885 a4bc f020 bd3c
00000380: 79bb 853d a82c b1bd 76e4 c0bd 1f7d b2bb
00000390: df12 b93d b5d6 11bd 1d31 2c3e c87a 14bd
000003a0: 1606 0cbd 91c4 053e c42e b2bd e9bb c73c
000003b0: 2514 c23d d08b 813d 7766 463d daf2 373e
000003c0: e684 943d f0d6 363d 9d6b a33d b2f3 c2b8
000003d0: 2588 d63b d00e a13d e63a 5fbb 3ed0 c03d
000003e0: 0a20 dbbd 0747 16be 84fa 0dbd 1996 14be
000003f0: b396 12bb b454 8ebc c0f0 a1bd 7198 c0bb

bias f4 [128]
-0.021810655 -0.05534316 -0.100120105 -0.14705639 -0.08700855 0.0145449815 0.0020399129 -0.08770312
-0.027394885 -0.035055175 -0.036960427 0.07562673 -0.032476045 0.00074319565 -0.1422602 0.059031367
0.046559725 -0.0059818733 -0.04126098 -0.09180132 -0.14999336 0.059607536 0.027744144 -0.09274441
-0.05208245 -0.17183512 -0.019036813 -0.12088071 0.062135622 0.056496486 -0.10027409 0.053222902
-0.044711944 0.055968113 -0.14589252 -0.069535315 -0.10419022 -0.13115399 -0.011767371 0.037949868
-0.07465977 -0.03282481 -0.07772022 -0.004749626 0.0767454 -0.06272548 -0.09297772 0.0041993335
-0.07481606 -0.058280338 -0.06606936 0.04632859 -0.09011637 -0.016080743 -0.041288726 0.07086096
0.07009354 -0.064480476 -0.14209257 -0.055595487 -0.007923978 0.056435656 0.030240936 -0.035717987
-0.1134105 -0.11366645 -0.096345 -0.07753981 -0.01246202 0.0341813 0.040194474 0.027272737
0.03911087 -0.0055083176 -0.038945924 -0.04516881 -0.05593349 0.058423754 -0.06768765 -0.015605473
0.0890105 -0.09747332 0.007357326 -0.06274031 -0.036398992 0.02241897 -0.11558911 -0.019835547
0.045360263 -0.11231985 -0.109193444 0.05398343 -0.17647476 -0.026703311 -0.06820671 -0.0074399607
0.036544785 -0.057966337 -0.10394302 -0.11325078 0.018753648 0.045256045 0.038731676 0.022982044
-0.010441412 -0.13546993 0.011443212 -0.04466639 -0.032376595 -0.13949265 0.018377364 -0.12057833
0.085664004 -0.019662552 0.004184819 0.019194597 -0.11522439 -0.12393075 0.044485673 -0.043322984
-0.0023550333 -0.071194485 -0.118006386 -0.15113124 0.011973982 0.08135091 0.02132711 0.07768059
00000000: 42ac b2bc 82af 62bd c50b cdbd f395 16be
00000010: 8a31 b2bd 134e 6e3c 0fb0 053b b29d b3bd
00000020: 3d6b e0bc 0496 0fbd d163 17bd 30e2 9a3d
00000030: 9a05 05bd 04d3 423a a8ac 11be e0ca 713d
00000040: 69b5 3e3d 9703 c4bb 4601 29bd 5502 bcbd
00000050: dc97 19be 0827 743d b047 e33c c8f0 bdbd
00000060: 6854 55bd 8cf5 2fbe 17f3 9bbc 4e90 f7bd
00000070: ec81 7e3d dc68 673d 815c cdbd 4200 5a3d
00000080: df23 37bd d23e 653d d964 15be 8868 8ebd
00000090: af61 d5bd 3b4d 06be eecb 40bc 5271 1b3d
000000a0: 39e7 98bd 4f73 06bd c72b 9fbd c0a2 9bbb
000000b0: b12c 9d3d 3776 80bd 1a6b bebd 909a 893b
000000c0: 2a39 99bd 5db7 6ebd 5f4f 87bd 0cc3 3d3d
000000d0: ee8e b8bd c3bb 83bc 5e1e 29bd 8d1f 913d
000000e0: 348d 8f3d 570e 84bd b780 11be 18b8 63bd
000000f0: 93d3 01bc 1329 673d d7bb f73c 064d 12bd
00000100: c443 e8bd f5c9 e8bd 8750 c5bd 31cd 9ebd
00000110: 802d 4cbc b101 0c3d f6a2 243d 136b df3c
00000120: b832 203d 1e7f b4bb c385 1fbd ee02 39bd
00000130: 841a 65bd bf4d 6f3d d39f 8abd 19ae 7fbc
00000140: 234b b63d 18a0 c7bd b915 f13b fe7d 80bd
00000150: 1c17 15bd fda7 b73c fcb9 ecbd 287e a2bc
00000160: afcb 393d f307 e6bd d0a0 dfbd bb1d 5d3d
00000170: cdb5 34be e7c0 dabc f6af 8bbd eaca f3bb
00000180: fcaf 153d 1c6e 6dbd 14e0 d4bd 06f0 e7bd
00000190: 40a1 993c 675e 393d 1ba5 1e3d d744 bc3c
000001a0: 7512 2bbc a1b8 0abe 4f7c 3b3c 1bf4 36bd
000001b0: 529d 04bd 29d7 0ebe 208c 963c c5f1 f6bd
000001c0: 9c70 af3d 5c13 a1bc ce20 893b fd3d 9d3c
000001d0: c4fa ebbd 68cf fdbd 9c36 363d 7173 31bd
000001e0: e756 1abb 6ace 91bd 55ad f1bd 26c2 1abe
000001f0: 852e 443c 4e9b a63d 31b6 ae3c 0017 9f3d

weight f4 [128, 128]
-0.02176221 0.021789614 -0.038189504 0.08470275 -0.10926408 -0.026660299 -0.0728552 -0.0074670627
-0.060425494 0.0066801296 -0.004147425 0.035832763 -0.007859269 -0.03777652 -0.00455248 0.037195466
-0.008804412 0.041798152 -0.029452495 0.030306779 0.063385226 0.0011264351 -0.07987381 0.08871903
-0.046609912 0.037503153 0.009511687 0.050915394 0.009623226 0.0042434568 0.057190288 -0.07611213
-0.033382718 -0.10470298 -0.010129878 0.11651128 -0.010224484 0.012688695 -0.01578079 -0.0306539
0.052002694 -0.09514634 -0.017848073 0.051752664 -0.015720844 -0.058376838 -0.054310225 -0.031214429
0.102752216 0.061578948 0.12692659 -0.031773586 0.0642891 -0.03311972 -0.047317553 -0.09393234
0.020148126 0.06153507 0.030411888 -0.013414514 0.10024104 -0.12059969 -0.061420318 -0.08597733
0.15319446 0.09465615 -0.02062427 0.039406 -0.015894016 -0.059372988 -0.074385576 -0.09482341
-0.07761414 0.08899919 -0.038603693 0.02730123 0.07862188 -0.019026337 -0.05091134 -0.036789935
-0.019485354 0.0563668 0.024628792 0.13975209 0.11651591 -0.01959291 0.05943575 -0.10860507
-0.104760095 0.1175703 -0.028867507 0.08306576 0.09563475 -0.1209981 0.0148571795 -0.1247665
-0.07671056 0.10791958 -0.067487575 0.09131955 0.053171813 -0.076783106 0.046380557 0.09370659
-0.0049511925 0.15501925 -0.033047248 0.044013888 0.0349755 0.18358098 0.06311993 0.081875876
-0.059790403 -0.06133606 -0.009417658 -0.08426936 0.027026076 0.013022503 -0.08213339 0.12576716
0.048556834 -0.021476801 0.031467356 0.00084208325 0.14965966 0.042056803 -0.039181486 0.009570703
0.030799774 -0.008422618 0.048227567 0.12483945 0.0034885379 0.1318695 -0.046976425 -0.060513172
-0.08197303 -0.1025816 0.03241376 0.07011791 0.024434648 0.15191911 0.097808085 -0.10985722
-0.17045534 0.0527475 0.0025878195 0.032768514 0.12482364 0.008318807 -0.018167246 0.05195399
0.15061575 0.045243774 -0.11481169 0.15935153 -0.06168256 -0.06918579 0.10473981 -0.067398585
-0.09248263 0.040544733 0.0349176 0.101529226 0.12275499 -0.02333474 0.10722716 -0.15096876
0.14903174 -0.027846161 0.10285646 0.11346371 -0.0042530363 -0.022485247 -0.05862763 -0.117481075
-0.10992761 0.06414297 0.009105734 -0.06873276 -0.0042614853 -0.05536417 0.029635286 -0.09664822
-0.06333529 0.089625105 0.015414898 0.10525699 -0.16095386 0.0068437476 -0.025729274 -0.14235522
0.0053515136 0.13760374 0.19489713 -0.020957697 -0.0428828 0.09023892 0.0405974 -0.13199674
-0.119737685 -0.1106142 -0.05602632 -0.08343096 -0.04745303 0.063797936 0.10817175 0.080361724
0.033432532 -0.01639028 0.091361746 0.15855898 0.07338037 -0.09719286 0.061715033 -0.08726272
-0.085235365 0.036132388 -0.07039588 -0.042762246 0.04778258 0.020303458 0.074743845 -0.06054189
0.00078148 0.0745006 0.14248776 0.009940807 0.052764792 -0.05238363 0.1310804 -0.047017306
-0.045336116 0.11694004 -0.12688102 0.07002123 0.022353675 0.11392688 0.04291082 -0.009310965
-0.13219692 0.01217435 -0.024624895 0.005874863 -0.039887562 0.04762056 0.13746892 0.04947728
-0.0591751 0.061662264 0.050795563 -0.04713926 -0.12709196 -0.009243895 -0.044453047 -0.080027334
00000000: aa46 b2bc 2280 b23c 996c 1cbd a378 ad3d
00000010: d9c5 dfbd b366 dabc 1b35 95bd 43ae f4bb
00000020: b980 77bd fde4 da3b 1fe7 87bb 60c5 123d
00000030: 2ac4 00bc 8dbb 1abd f82c 95bb 465a 183d
00000040: 6140 10bc 8a34 2b3d 5c46 f1bc ec45 f83c
00000050: 1dd0 813d e4a4 933a e194 a3bd 53b2 b53d
00000060: 09ea 3ebd e89c 193d e8d6 1b3c a98c 503d
00000070: bcaa 1d3c b20c 8b3b 5d40 6a3d ade0 9bbd
00000080: 51bc 08bd 846e d6bd caf7 25bc 779d ee3d
00000090: 9884 27bc 3fe4 4f3c b746 81bc e31d fbbc
000000a0: c700 553d 16dc c2bd 1f36 92bc 9afa 533d
000000b0: 00c9 80bc 8d1c 6fbd 6674 5ebd 67b5 ffbc
000000c0: c16f d23d 353a 7c3d 0bf9 013e 0525 02bd
000000d0: 01aa 833d 8ba8 07bd 0dd0 41bd 995f c0bd
000000e0: af0d a53c 330c 7c3d 5a22 f93c 8dc8 5bbc
000000f0: 2d4b cd3d f8fc f6bd df93 7bbd e214 b0bd
00000100: 02df 1c3e 15db c13d 3bf4 a8bc 3068 213d
00000110: 2b34 82bc 1731 73bd 7757 98bd c732 c2bd
00000120: 2af4 9ebd 3545 b63d e81e 1ebd d4a6 df3c
00000130: 8204 a13d 1fdd 9bbc 6988 50bd 0bb1 16bd
00000140: c09f 9fbc e0e0 663d 52c2 c93c 2c1b 0f3e
00000150: e59f ee3d 4f81 a0bc e772 733d 566c debd
00000160: 768c d6bd b3c8 f03d 8d7b ecbc 621e aa3d
00000170: 27dc c33d dacd f7bd 876b 733c 9485 ffbd
00000180: 6d1a 9dbd f104 dd3d ed36 8abd bf05 bb3d
00000190: b0ca 593d 7640 9dbd 8af9 3d3d 3ee9 bf3d
000001a0: 9d3d a2bb 5ebd 1e3e 8d5c 07bd e847 343d
000001b0: 7842 0f3d a7fc 3b3e 0645 813d 8aae a73d
000001c0: c8e6 74bd 853b 7bbd 854c 1abc 6a95 acbd
000001d0: ca65 dd3c 565c 553c 8d35 a8bd 1bc9 003e
000001e0: 88e3 463d 1ef0 afbc eae3 003d 40bf 5c3a
000001f0: 6240 193e c143 2c3d c47c 20bd 70ce 1c3c
00000200: cf4f fc3c 05ff 09bc 458a 453d d3ab ff3d
00000210: f49f 643b cc08 073e 5a6a 40bd a9dc 77bd
00000220: 7ae1 a7bd 4d16 d2bd 4ac4 043d fb99 8f3d
00000230: 2c2b c83c af90 1b3e 9b4f c83d d2fc e0bd
00000240: d88b 2ebe c30d 583d 6898 293b 4738 063d
00000250: 89a3 ff3d 9b4b 083c 7ad3 94bc b5cd 543d
00000260: 043b 1a3e 8951 393d 6422 ebbd 0c2d 233e
00000270: daa6 7cbd 48b1 8dbd d381 d63d 4508 8abd
00000280: 8867 bdbd 3c12 263d c205 0f3d 8eee cf3d
00000290: f866 fb3d 7f28 bfbc ea99 db3d 8e97 1abe
000002a0: c79b 183e a21d e4bc 68a6 d23d a95f e83d
000002b0: 0e5d 8bbb fb32 b8bc 8723 70bd eb99 f0bd
000002c0: ba21 e1bd 645d 833d 3730 153c c3c3 8cbd
000002d0: eea3 8bbb 8ac5 62bd b3c5 f23c 81ef c5bd
000002e0: efb5 81bd 5e8d b73d c58e 7c3c fa90 d73d
000002f0: 17d1 24be 8441 e03b 33c6 d2bc 91c5 11be
00000300: c05b af3b ffe7 0c3e 1d93 473e 7aaf abbc
00000310: e0a5 2fbd 2fcf b83d 7649 263d 272a 07be
00000320: 0839 f5bd b389 e2bd db7b 65bd dadd aabd
00000330: 1c5e 42bd 7ea8 823d 2789 dd3d b094 a43d
00000340: 8df0 083d e944 86bc de1b bb3d 495d 223e
00000350: 7348 963d 0d0d c7bd e7c8 7c3d ccb6 b2bd
00000360: e18f aebd 8eff 133d b72b 90bd 7727 2fbd
00000370: abb7 433d 7053 a63c 4d13 993d c6fa 77bd
00000380: 3cdc 4c3a c593 983d 50e8 113e c4de 223c
00000390: e51f 583d 3890 56bd f139 063e 3895 40bd
000003a0: 5db2 39bd 427e ef3d 19ed 01be 4a67 8f3d
000003b0: 0e1f b73c 7f52 e93d 42c3 2f3d 058d 18bc
000003c0: a15e 07be ed76 473c 26ba c9bc ec81 c03b
000003d0: 2461 23bd c70d 433d a7c4 0c3e b0a8 4a3d
000003e0: 9761 72bd 9291 7c3d 020f 503d 1915 41bd
000003f0: 6524 02be b573 17bc 6614 36bd 5fe5 a3bd

bias f4 [128]
-0.16240384 0.035668865 -0.018047245 0.011496186 0.009535871 0.025512367 -0.07994378 0.08667303
0.10139196 -0.07532688 0.020630794 0.11645508 0.04735341 0.0054394957 0.08861261 -0.05415399
0.031615492 0.052047234 -0.020559132 0.014201096 -0.15190588 -0.035211638 0.044638872 0.05833163
0.02368402 -0.058586895 -0.033149775 -0.0740584 0.016376635 0.068460345 0.010138452 0.04394296
0.037636243 0.035088763 0.08107419 0.09925098 -0.046969417 0.0413656 -0.14119498 0.026590798
-0.013321317 -0.058371797 -0.056529205 0.016389292 0.019838337 0.113912806 0.12322444 -0.028723031
0.106909856 0.07637798 0.0041306005 -0.018619986 0.08436554 0.0099738855 0.071180955 -0.09082861
0.023619952 -0.08823305 0.07955848 -0.018322898 -0.02807114 0.11070412 0.09188791 -0.09378229
0.12635024 -0.0132268 0.10003576 0.020635732 0.044607464 0.040889796 0.025109483 0.093904145
-0.117102824 0.08176143 0.023059994 0.040752172 0.061077237 0.058337063 -0.031091277 -0.12614888
0.11346298 0.022924839 0.028518815 -0.05284564 -0.026419763 0.045263417 -0.020839097 0.10507112
0.08724038 0.09331135 0.024857445 -0.006936305 -0.12731493 0.12243291 -0.004011189 0.07045479
0.03337127 -0.056449212 -0.129722 0.043069065 0.046028372 -0.023332955 0.076072514 -0.09872712
0.0099288095 0.033779375 -0.07607031 0.081536196 0.058970444 0.052169837 -0.009247261 -0.011475133
0.023810284 0.027964205 0.03744733 -0.038922373 0.009190063 -0.1514487 -0.14464152 0.016390992
-0.011018523 0.06286691 0.019103367 0.021495713 0.05325638 -0.003402369 0.049608864 -0.10808286
00000000: 314d 26be 8419 123d d1d7 93bc 805a 3c3c
00000010: 583c 1c3c 50ff d03c 91b9 a3bd a181 b13d
00000020: 97a6 cf3d fb44 9abd e901 a93c 0080 ee3d
00000030: a6f5 413d cc3d b23b 877a b53d 93d0 5dbd
00000040: 3f7f 013d 7b2f 553d a06b a8bc b7ab 683c
00000050: 378d 1bbe 143a 10bd 40d7 363d 26ed 6e3d
00000060: fd04 c23c d0f8 6fbd 0fc8 07bd eeab 97bd
00000070: 4b28 863c f034 8c3d c01b 263c 89fd 333d
00000080: 7628 1a3d 3cb9 0f3d 3a0a a63d 1944 cb3d
00000090: 0163 40bd fa6e 293d 6b95 10be f2d4 d93c
000000a0: a741 5abc 4417 6fbd 2b8b 67bd d642 863c
000000b0: 0284 a23c 1e4b e93d 185d fc3d 904c ebbc
000000c0: 8ef3 da3d 0f6c 9c3d fd59 873b f188 98bc
000000d0: d7c7 ac3d 8269 233c 52c7 913d 5a04 babd
000000e0: a17e c13c 88b3 b4bd 8eef a23d e719 96bc
000000f0: 73f5 e5bc d7b8 e23d bb2f bc3d ee10 c0bd
00000100: f561 013e 38b5 58bc 8cdf cc3d 440c a93c
00000110: 51b6 363d 0f7c 273d 67b2 cd3c d150 c03d
00000120: 9bd3 efbd 8972 a73d 50e8 bc3c c0eb 263d
00000130: 202c 7a3d d8f2 6e3d 22b3 febc 2c2d 01be
00000140: 475f e83d dfcc bb3c 4aa0 e93c ab74 58bd
00000150: 426e d8bc 2266 393d c1b6 aabc 872f d73d
00000160: 16ab b23d 051a bf3d d7a1 cb3c f249 e3bb
00000170: d85e 02be 1bbe fa3d 4b70 83bb 9a4a 903d
00000180: 50b0 083d 4a37 67bd d8d5 04be 3069 303d
00000190: 3f88 3c3d c124 bfbc e8cb 9b3d 7231 cabd
000001a0: 72ac 223c 3e5c 0a3d c0ca 9bbd 73fc a63d
000001b0: fe8a 713d 0ab0 553d d381 17bc 3202 3cbc
000001c0: c90d c33c 3015 e53c 5f62 193d 116d 1fbd
000001d0: eb91 163c 5e15 1bbe e81c 14be 6746 863c
000001e0: 0987 34bc 5ec0 803d aa7e 9c3c c717 b03c
000001f0: 5d23 5a3d 48fa 5ebb aa32 4b3d 8c5a ddbd
