results/model/union_563.model (torch, 686563 bytes, 21 tensors)

weight_ih f4 [384, 5]
000000 d3 91 36 be 88 57 b8 3c 3b 73 12 3d cf 57 88 bd
       -0.17829065 0.022502676 0.035754424 -0.06657373
000010 25 28 2a be eb 5e b3 bd 02 e4 93 bd 26 60 f5 3b
       -0.16616876 -0.087583385 -0.072212234 0.0074882684
000020 69 54 08 3d 61 23 25 3d 11 fa c7 3b 2d db 27 3e
       0.033283625 0.040316943 0.0061028083 0.16392203
000030 ca 36 96 3d 4c 89 21 be 2a fd 3a bd 74 d5 ce bd
       0.07334669 -0.15775031 -0.045651592 -0.10099307
000040 41 40 6f bd 82 60 af bd 65 b1 18 3d 83 0a c3 bc
       -0.058410887 -0.08563329 0.03727855 -0.023808723
000050 84 db a9 bd 88 ee 9b bd 76 62 9b bd d7 58 a6 3d
       -0.082938224 -0.076138556 -0.07587139 0.081224136
000060 c6 00 b7 3d 3d a3 e2 bb 78 43 6e bd 5a 3a 20 3d
       0.089356944 -0.006916432 -0.058169812 0.03911815
000070 69 a9 07 bd 98 9c 04 3d 70 03 9d bd 69 32 5a bd
       -0.033120546 0.032375902 -0.07666671 -0.05327073
000080 56 86 83 bd 22 9b c4 3c c7 48 6b 3d 85 77 0c bd
       -0.06422107 0.023999754 0.057442453 -0.03429367
000090 fb 6d 26 be 3b a7 84 bb ce 3d d5 3c 1e b6 d2 3d
       -0.16252892 -0.0040482557 0.026030447 0.10288642
0000a0 26 21 c6 bd bf 46 3f 3d a9 e9 00 3c f5 9b 3b 3b
       -0.09674291 0.046698328 0.007868209 0.0028626893
0000b0 14 46 7a bc f9 a4 85 3d 93 26 4d bc ff 46 46 bd
       -0.015275497 0.06525607 -0.012521404 -0.04840755
0000c0 e3 9a d1 3d 1c 74 87 3d 7f 06 bf bc 6c e3 72 3d
       0.102346204 0.06613943 -0.023318527 0.059298918
0000d0 ac d4 1b 3d 43 bd 42 3e 2a 1e a6 bd f4 c6 9e bd
       0.038044617 0.1901751 -0.08111222 -0.07752791
0000e0 60 15 9b bc 01 3f 8a bd b6 c5 ab 3d b6 5b be 3c
       -0.01893109 -0.06750298 0.0838732 0.02323709
0000f0 c7 9b dc bd c4 26 ea bd 49 1a 24 bd cc 1c ff bc
       -0.107719 -0.11433175 -0.04006413 -0.031141661
000100 72 22 ec 3d af c3 9c bd 4d 57 b1 ba c2 69 8d bd
       0.115300074 -0.07654511 -0.0013530046 -0.06904937
000110 0b eb 83 3d bb b8 23 bc cf 29 97 bd 71 91 90 3c
       0.06441315 -0.009992774 -0.07381021 0.017647477
000120 a9 0c b9 bd 15 47 8f 3d 33 70 9c bc ba 45 8f bd
       -0.09035618 0.0699598 -0.01909647 -0.06995721
000130 5e 28 3c be 41 d5 c1 bc 49 88 e1 bc 8a a2 e9 bc
       -0.18374774 -0.023661258 -0.027530806 -0.028519887
000140 97 85 0f be 72 b4 b2 bd 5a 90 94 3d ad 78 ca 3d
       -0.14015804 -0.087258235 0.072540954 0.09886298
000150 a7 d8 4b 3d b1 84 89 bd 58 0c d8 3a a1 35 aa 3d
       0.049767163 -0.06714762 0.0016483171 0.0831101
000160 72 30 6e bd b4 3c e5 bc ba 62 09 bd ee a8 55 bc
       -0.05815167 -0.027983047 -0.03354142 -0.013040764
000170 90 61 79 bc e4 54 99 bd b9 d6 be 3d a6 e0 b7 3d
       -0.015221015 -0.07486895 0.09318299 0.08978395
000180 0a 92 71 3c 67 e0 b4 bd b6 b4 12 bc 30 eb 4d 3c
       0.014744291 -0.08831864 -0.008954218 0.01256828
000190 9c 0b 73 bd 0a d5 1a bc 81 8b df bd 64 7c 91 3d
       -0.059337243 -0.0094502065 -0.1091528 0.07103804
0001a0 ad 23 17 bd 71 53 9b bd 16 47 d2 3a 4e 04 b9 3c
       -0.036899257 -0.075842746 0.0016042914 0.02258506
0001b0 0b 6c c7 bd 14 4b 46 3d 75 a2 f3 3d d7 a0 b1 3b
       -0.097374044 0.048411444 0.118962206 0.005420785
0001c0 55 47 cd bc 85 fb 30 3d 25 c4 04 3e 18 49 39 be
       -0.025058428 0.043208618 0.12965448 -0.1809429
0001d0 cb 97 f2 3d 63 e0 bd 3b 25 c3 45 3c 50 1a 8f be
       0.118453585 0.0057945712 0.012070452 -0.27949762
0001e0 f1 b7 47 be 5d eb 82 bc c7 02 7a bd 3a 8d 13 be
       -0.19503762 -0.01598137 -0.061037805 -0.14409342
0001f0 3d 89 76 bd a0 39 7c 3d 11 2e 85 bd ad fb 52 bd
       -0.060189474 0.061578393 -0.06502927 -0.051509548
000200 70 84 d0 bc 71 0e 88 bd 8c ca b2 3d ed 80 92 bd
       -0.025453776 -0.066433795 0.08730039 -0.07153497
000210 93 cc 00 3d ad dd bb bd a2 d7 e9 3d 13 3d a1 3c
       0.031445097 -0.09173141 0.11418082 0.019682443
000220 c8 49 70 bc 81 45 5f bd 57 d8 b6 bd 06 83 86 3d
       -0.014666028 -0.054509643 -0.08927982 0.065679595
000230 ea 12 3a 3c 9c bb 62 bd c2 d1 7c bd 93 a7 dc 3d
       0.0113570485 -0.0553547 -0.06172348 0.1077415
000240 ca 97 50 3c d3 6c 1c be 96 b6 d2 3d 0c a1 9a 3d
       0.012731502 -0.15275888 0.10288732 0.075502485
000250 67 8b 37 3d 12 0b c5 3c 67 f7 a1 bc 32 a2 03 be
       0.04481068 0.02405313 -0.019771291 -0.12854841
000260 ba 0e 2e bd 3e b4 2c 3d e1 e9 b0 3c 38 cc 3a 3d
       -0.042494513 0.04216408 0.021595897 0.045604914
000270 cc ec b8 bd c5 cd 25 3d fd d6 d2 bc e2 21 2b 3e
       -0.090295404 0.04047944 -0.02573728 0.16712144
000280 cd fe f8 bb 2d e6 7f bc 48 83 be 3d 21 6d 90 3d
       -0.007598734 -0.015618843 0.09302384 0.07052065
000290 d6 f5 70 bc 60 26 4f bd 30 6c d4 bd 25 df 67 3d
       -0.014707049 -0.050573707 -0.10372198 0.05660929
0002a0 84 ab fd bd 07 68 93 3d 8b a8 74 bd 81 bc a8 bd
       -0.1238623 0.07197576 -0.059731048 -0.08239079
0002b0 de 34 03 be 3b b6 90 3d ff c7 fd bc c0 7c 40 be
       -0.12813136 0.07066008 -0.030979155 -0.18797588
0002c0 3e b8 9c bd 20 d4 2d bd a0 71 02 3d 80 6c ec bd
       -0.07652329 -0.042438626 0.031846642 -0.11544132
0002d0 41 51 16 bd 67 b8 a0 bc 8e e8 9a 3d 2d 03 3f 3d
       -0.036698584 -0.01961918 0.075638875 0.046633888
0002e0 69 57 c8 3c 03 93 f4 bc 65 02 d4 bd 8b 43 03 3c
       0.024455743 -0.029855257 -0.10352019 0.008011709
0002f0 e4 78 9c bb f6 74 53 bd 66 2b d2 bd 20 f6 8e 3d
       -0.0047751535 -0.051625215 -0.10262184 0.06980538
000300 d6 ef 23 bd 4c 2d 45 bd fd 45 1f bd b9 08 77 3b
       -0.040023647 -0.0481389 -0.038885105 0.0037694408
000310 4e 93 84 3d dd b8 87 bc 17 26 b2 3d ef 0c b8 3c
       0.06473409 -0.016567642 0.08698671 0.022467105
000320 81 21 e6 bc 43 4b 03 be 71 9b dc bc d9 d4 cb 3d
       -0.028092148 -0.12821679 -0.026929589 0.09952707
000330 76 29 bc bc 44 85 d2 3d 0e 22 73 bc de 93 ab 3d
       -0.022968989 0.10279325 -0.014839662 0.08377813
000340 ba c7 8c bc 74 02 ea bc a6 4d e4 bc 46 cc 06 3e
       -0.01718508 -0.028565623 -0.027869057 0.13163862
000350 d4 04 03 bd ae 32 06 3d 9a 97 2f 3c 0b 93 82 3c
       -0.031987026 0.032763176 0.010717297 0.015939256
000360 41 c9 95 3c 44 dd b3 3d af c1 0f bc b2 64 6a 3d
       0.018284442 0.087824374 -0.008774205 0.057224937
000370 11 3a 0b be c3 90 a3 bd 1a 95 0c 3d e5 36 9e bd
       -0.1359637 -0.079865955 0.03432188 -0.07725314
000380 b7 f0 bf 3d e4 84 b1 3d 51 7d a5 3d fa 8f 28 bd
       0.093720846 0.08667925 0.08080543 -0.04115293
000390 4d d7 3d 3c 98 d4 d4 bc 0a 1f 6a bd 8d ea bc 3c
       0.011586976 -0.025980279 -0.057158507 0.023061061
0003a0 2c 52 a2 3d 93 cf e0 bb 5f bf 96 3d 3f 02 1e be
       0.07925829 -0.0068606823 0.0736072 -0.15430544
0003b0 ec f4 6c 3d 11 5c 35 bc 8d 5e 00 3e 30 c3 52 bc
       0.057850763 -0.011069314 0.12536068 -0.012863919
0003c0 78 dc 5d bc 55 03 7a 3d df 81 10 bd 36 3f e8 bd
       -0.013541333 0.061038334 -0.035280105 -0.113401815
0003d0 c9 04 0c 3d 06 4e cd bd 28 fd 24 3e 23 cf c8 3d
       0.03418425 -0.100246474 0.16112196 0.09805133
0003e0 5f 05 35 3d fd e2 fb 3b 70 bd 2f bd 20 7e 01 bc
       0.044194575 0.007686971 -0.04290527 -0.007903606
0003f0 73 2a 46 3c d7 91 9e 3c 29 78 2d 3d a4 da 1c 3c
       0.012095082 0.019356651 0.04235092 0.009573612

weight_hh f4 [384, 128]
000000 61 e8 ad bd 97 7d f6 3c 87 b5 88 3d 12 03 74 bc
       -0.084915884 0.030089183 0.066752486 -0.01489331
000010 f1 9b e0 bb 3a 6d 3b bd 68 f0 82 bd 9e df 04 3d
       -0.006854527 -0.045758463 -0.0639351 0.03243982
000020 ce 9e b4 bb 87 15 30 3d 59 3e 2b be e9 4b 73 bd
       -0.005512095 0.04298928 -0.16723002 -0.059398565
000030 a3 b0 e6 bd 40 8c 57 3d 5a d8 82 bd a7 23 6a bd
       -0.112641595 0.052623987 -0.06388922 -0.057162907
000040 fc b2 6e 3c 27 d6 46 3d 47 e0 3a bd 6a 21 a6 3d
       0.01456904 0.048544075 -0.045624044 0.08111842
000050 c7 d2 6d 3d e8 26 e3 bd 04 d5 94 bd 94 f7 a9 bd
       0.05806234 -0.11091405 -0.07267192 -0.08299175
000060 6b de 1f 3b e2 a7 67 bd e9 83 06 3e 6f 87 b5 3d
       0.0024394046 -0.05655659 0.13136257 0.088637225
000070 e2 ce 85 bd ae c5 26 3b e0 d7 af 3d 85 ed 8f 3c
       -0.065336004 0.0025447416 0.08586097 0.017569313
000080 34 71 be 3c f8 8b 13 3e 8c d6 8f bd 79 2f b7 3d
       0.023247339 0.14408863 -0.070233434 0.089446016
000090 04 d4 b7 3d 94 86 2d 3d 74 e8 52 bd 22 d3 8f bc
       0.08975986 0.04236467 -0.051491216 -0.01755673
0000a0 0f f9 65 3d 3d 09 6a bd ce 29 24 bd 1d 4b db bc
       0.056145724 -0.057137717 -0.04007893 -0.026769215
0000b0 99 80 73 bc ce f1 a7 3d aa 1b c1 bd 7f 2f 0e 3e
       -0.014862203 0.082004175 -0.094291046 0.13885306
0000c0 11 7d 5b bd 17 f9 88 3d 31 14 02 3d 2a 6d 49 bd
       -0.05358607 0.06688135 0.031757537 -0.049176373
0000d0 c8 02 e7 3d 94 b9 00 3d 5f 49 89 3d ee 38 2a 3d
       0.11279827 0.03142698 0.067034476 0.0415582
0000e0 05 8c 18 3d f0 d0 7c bb fd 35 13 bd 86 57 2e bc
       0.037242908 -0.0038576685 -0.03594016 -0.010640984
0000f0 8f c0 87 3d a4 fb 6f 3d 23 7e 83 bd 6d f2 b7 bd
       0.066285245 0.058589593 -0.06420543 -0.08981786
000100 05 13 0f 3d 33 51 06 bd f0 db 9b bd 14 1e 84 bc
       0.034930248 -0.03279228 -0.07610309 -0.016127624
000110 23 30 75 bd a0 20 4d 3d d5 ea 77 3d 2d ae b9 bc
       -0.05986036 0.05007994 0.060526688 -0.022666061
000120 d4 6a e5 bd b0 22 46 bd c8 7d 6a bd 76 41 d8 3d
       -0.112020165 -0.048372924 -0.05724886 0.10559361
000130 8e 24 4f bd 3e 67 e2 3d a4 4c 3d 3d 13 b5 fe bc
       -0.05057197 0.11054848 0.04621567 -0.031092202
000140 58 49 e5 bc b0 24 98 bd 5d fc 87 bd 69 ea f2 bd
       -0.027989075 -0.074288726 -0.06639931 -0.118611164
000150 60 b7 9b 3d 15 b8 cc 3c e7 31 9b bb 39 59 11 3d
       0.076033354 0.02499012 -0.0047361734 0.03548548
000160 13 76 8a 3d df 86 93 3d 42 b3 07 3b 01 90 be bd
       0.06760802 0.07203459 0.0020706211 -0.0930481
000170 ac 06 06 bc bf 3f ce 3c 21 e1 d6 3c 2c 75 ad 3c
       -0.008180302 0.02517688 0.026230397 0.021174036
000180 f9 df ae bd 5b e2 83 bc 54 26 2f bd 83 99 97 bd
       -0.08538813 -0.016099146 -0.042761162 -0.07402327
000190 bc 98 84 3d 5b af 68 3b f0 5a c0 bd 7a 19 42 bc
       0.06474444 0.003550491 -0.09392345 -0.011846894
0001a0 84 59 97 ba 50 1a a8 3c 5b d3 61 3d 5b c8 03 bc
       -0.0011547063 0.02052036 0.055133205 -0.008043374
0001b0 8d 6f 16 3d 52 5b 1e bd 26 06 15 bd 4e 1a d6 3b
       0.036727477 -0.03866131 -0.036382817 0.0065338975
0001c0 5b 10 8c bd b2 3b 85 3c 20 9b 58 bc 1e fd 68 bd
       -0.06839057 0.016263817 -0.013220578 -0.056882016
0001d0 02 a9 2d bc 6d 7b e4 bd 62 da c7 3b 88 d7 8a 3c
       -0.010599377 -0.11156354 0.0060990313 0.016948476
0001e0 7b 19 26 bd 20 4a e8 3a 93 c9 9f 3d b3 4f d9 bd
       -0.040551644 0.0017722286 0.07802119 -0.106109045
0001f0 64 8c 04 bc 5c 92 0a bd c9 a9 cc bd 35 ea ff bc
       -0.008090112 -0.033830985 -0.099933214 -0.031239608
000200 2e 06 69 bd 28 cf ef 3c 38 40 24 bd 55 74 37 3d
       -0.05689066 0.029273584 -0.040100306 0.044788677
000210 4f 00 be bd ec ad 19 3c 56 ed 3f 3d 7e e2 74 bd
       -0.092774026 0.009379845 0.0468572 -0.059786312
000220 e4 aa d2 3c a2 6b 41 bd e8 63 7d bc d7 ae 65 bd
       0.025716253 -0.047221787 -0.015465714 -0.056074943
000230 92 5d d4 bd 06 e1 04 3d 0c a1 d4 3c 69 69 e5 bd
       -0.103694096 0.03244116 0.0259557 -0.11201746
000240 5d d4 71 3d bb d1 5f 3c eb b0 c3 bd d0 44 ff ba
       0.059040416 0.0136608435 -0.09555229 -0.0019475464
000250 3c ba 04 3d 9d d2 59 bd 4f 97 ec bd 34 ad be bd
       0.03240417 -0.053179372 -0.11552297 -0.093103796
000260 29 b1 e3 3d 41 3a fb bc 2c 82 d6 3d 17 9f 12 bd
       0.11117775 -0.030667426 0.10474047 -0.03579625
000270 f5 d7 63 bd 86 02 38 3d a8 87 e3 bc 3f dd 6c 3d
       -0.055625875 0.04492428 -0.027774647 0.057828184
000280 8f b3 e6 bb f9 7c a7 bd de 1e 81 bc a6 3c 80 bd
       -0.007040448 -0.081781335 -0.015761789 -0.06261568
000290 76 04 e1 bd 8d 30 38 bc 55 86 5e bd a5 f0 eb 3d
       -0.10987179 -0.011242044 -0.054327328 0.11520509
0002a0 a5 04 11 bd 2a d4 52 bd bd 08 da 3c ba 5b d7 bd
       -0.03540482 -0.051471867 0.026615495 -0.10515542
0002b0 01 82 b8 3d b6 a2 95 3c 9d 45 e0 bc 17 5d cd 3c
       0.09009171 0.018266063 -0.027376944 0.025068803
0002c0 ed 9c ea ba 22 2b d0 bd 4c dc 81 bd 97 c7 60 bd
       -0.0017899551 -0.10164477 -0.063408464 -0.054877844
0002d0 bc 1f b1 bd 40 1f 46 3c 8e c4 46 ba bd 6a 67 3d
       -0.08648631 0.0120924115 -0.00075823895 0.056498278
0002e0 de 5f b8 3d 40 61 a2 bd 20 21 ac 3c f4 83 a2 3d
       0.0900266 -0.07928705 0.021011889 0.07935324
0002f0 b8 5d ab bd f1 a4 2e bd 95 5c 85 bd f2 49 8e bd
       -0.08367485 -0.04263777 -0.06511799 -0.06947698
000300 cb c1 f5 bc a9 9f 8d bd 24 c2 d9 3d dc f3 c2 bc
       -0.029999634 -0.069152184 0.106327325 -0.023797922
000310 7a 1a 92 bc 71 7a 80 3d 35 6b c6 3d 88 d8 68 3b
       -0.01783489 0.06273354 0.09688417 0.0035529453
000320 96 f2 21 bd 1e da c5 bc 50 5b bf 3b 22 6e b4 bc
       -0.03953799 -0.024151858 0.0058397427 -0.022025172
000330 f6 8d 58 bc 49 20 7c 3c 04 39 85 bc 0e b3 96 3c
       -0.01321744 0.015388557 -0.016262539 0.018395927
000340 fe 60 d4 bd 56 49 61 bd c6 0f 8c 3d b3 ab 2e 3d
       -0.10370062 -0.05500158 0.06838946 0.042644214
000350 fb 14 aa bc 0a 96 95 3d bb 04 02 bd 33 0d 83 3d
       -0.020761957 0.07304008 -0.031742793 0.06399002
000360 da 0a 76 bc 54 52 ed 3d b2 05 d3 3d 50 6b 8b bd
       -0.015017236 0.115879685 0.10303821 -0.068075776
000370 4a b3 29 3d 96 90 49 3c 7a 3d b4 3d af b1 48 bc
       0.04143075 0.012302538 0.08800788 -0.012249394
000380 93 ad fd bb 98 bc 67 bd df 22 c3 bc df 26 a1 3c
       -0.007741639 -0.05657634 -0.023820339 0.019671855
000390 27 1a a9 bd ab 5a 4e 3d 56 34 be bd b6 1c 0b 3d
       -0.08256941 0.050379436 -0.09287326 0.033962928
0003a0 5b c0 f5 bc 9d 71 69 3b 91 83 b4 bc 71 96 86 3d
       -0.029998949 0.0035620697 -0.022035392 0.06571663
0003b0 c6 2f 99 bd 0c d1 1d 3d 99 13 bc 3c f4 bd c9 bc
       -0.07479815 0.03852944 0.022958564 -0.02462671
0003c0 45 0e ff bc 29 49 e8 bd 38 55 cb 3c 01 ca 01 3c
       -0.031134734 -0.11342079 0.024820909 0.007921697
0003d0 18 16 85 bd 5a c4 7a 3d 76 4a 64 bd dd c6 80 3d
       -0.06498355 0.06122241 -0.055735074 0.0628793
0003e0 1c b1 d7 3c 8d 94 81 bb 98 ba 1e 3d 11 cb ed b9
       0.02632957 -0.003954476 0.03875217 -0.0004535546
0003f0 0d 04 e4 bc 7f 1d e4 b9 ae e0 fa bc f1 f6 d1 3d
       -0.027833963 -0.00043509525 -0.030624714 0.102521785

bias_ih f4 [384]
000000 6a 28 37 3d b7 c0 4b 3c 2a e7 f6 bc af 72 80 3d
       0.044716276 0.0124360835 -0.030139524 0.06271874
000010 1a 17 6d 3c 55 49 fd 3c e9 d9 ce bd 94 97 9b 3d
       0.01447084 0.030918756 -0.10100157 0.075972706
000020 27 c5 17 3d b3 82 c2 3c 1e 1c 48 3d 2b 3f 55 bd
       0.037053254 0.023743963 0.04885494 -0.052062195
000030 ad 2a ff 3a ed b7 80 bb 5a 56 b1 bd cf ba ba bd
       0.0019467674 -0.0039281757 -0.086590484 -0.09117662
000040 b2 86 40 3d 2b 63 50 3d 29 a6 0f bd d8 5e d4 3b
       0.047003455 0.050875824 -0.035070572 0.006481033
000050 78 f2 e1 3c fc 54 07 be e2 c8 bb 3d da 81 40 bd
       0.027581438 -0.13216013 0.09169175 -0.046998836
000060 5c 21 dc 3c 4f fa cc bd dd e0 0b 3d e4 9f e6 bc
       0.026871376 -0.1000868 0.034149993 -0.028152414
000070 a9 54 b7 3d b4 1b 06 be b5 3d c3 bd 6f f6 13 bd
       0.089516945 -0.13096505 -0.09533254 -0.03612369
000080 53 3d d8 3d 9e 52 ad 3d dc 77 b0 bd 28 81 b2 3d
       0.10558572 0.084630236 -0.08616611 0.08716041
000090 92 c6 95 3d 3d 86 49 3c 7e a0 4b 3d 7d eb 82 bd
       0.07313265 0.012300071 0.049713604 -0.06392572
0000a0 7d 7b ab bd d5 88 eb 3d 01 9a 43 bc 5f 5a 78 3c
       -0.08373163 0.11500708 -0.011938573 0.015158265
0000b0 09 06 18 3d 7c e9 cc 3c 11 48 1c 3c ec 83 8d bd
       0.03711513 0.025013678 0.009538666 -0.06909928
0000c0 77 7e cd 3c 4f c0 aa 3d c0 c8 b6 3d 9d b6 d8 bd
       0.025084717 0.08337461 0.08925009 -0.10581706
0000d0 48 62 c3 3d 96 b4 57 bd 29 be e8 bc 5d d0 a0 bc
       0.0954023 -0.052662455 -0.028410988 -0.019630605
0000e0 00 26 87 bc 4d 4f c9 3c 73 6e f6 3c 40 b6 4c 3d
       -0.016497612 0.024573946 0.030081963 0.049978495
0000f0 f2 03 97 bb 52 1f cc bc 07 a9 86 3d b8 12 9d 3d
       -0.0046086246 -0.024917278 0.06575208 0.07669586
000100 37 a7 59 bd 15 30 be 3c 6c c4 13 3b 15 b9 d9 3d
       -0.053137984 0.023216287 0.0022547496 0.10631005
000110 9b 96 79 3b 81 92 99 bd 8f 46 0b 3d f8 15 b3 bd
       0.0038084153 -0.074986465 0.034002837 -0.087444246
000120 9e c4 97 3d 74 47 02 3d e4 6e 8c 3c bb 2a 21 3d
       0.074105486 0.031806424 0.01714272 0.03934739
000130 d7 1d 37 3b 4d f4 85 3c 7f 91 cb bc 33 b1 8b 3c
       0.002794137 0.016351843 -0.024849651 0.017052269
000140 10 94 42 ba c4 80 49 3b 5c ee e8 3c 20 11 14 bd
       -0.0007422576 0.0030746916 0.028433971 -0.036149144
000150 44 11 78 bd b5 23 0c 3d ba e9 af 3b d5 1d 30 3c
       -0.06056334 0.03421374 0.0053684385 0.0107493
000160 37 40 aa bc b9 d1 c6 3d 15 1c 00 bd 18 60 02 bd
       -0.020782573 0.0970797 -0.03127678 -0.031829923
000170 3f 2f d0 3c f2 24 65 3d 37 90 03 3e 16 70 8d 3c
       0.025413154 0.055943437 0.12847982 0.01726536
000180 ad 7f 16 3d e9 34 7f bc e7 e3 b2 3d aa c5 1b 3d
       0.036742855 -0.01557658 0.08734875 0.038030304
000190 98 c8 44 bd 67 13 8f 3d 9d 92 c3 bd 77 59 e2 3c
       -0.048042864 0.069861226 -0.09549449 0.02763055
0001a0 59 ab d7 bd 5d 54 ce 3d 43 94 80 3c dd d7 34 bd
       -0.10530729 0.10074685 0.015695697 -0.044151176
0001b0 d3 78 c9 3d 7a 98 9e 3d a0 7c ad 3d c8 e9 16 3d
       0.098374985 0.07743926 0.08471036 0.036844045
0001c0 e2 85 a6 bc ca 7f 9d bd 20 b5 78 bc dd 31 11 bd
       -0.020327512 -0.076903895 -0.015179902 -0.035447944
0001d0 78 14 69 3d d9 9e d5 3c f8 0f c1 bd 5b 50 f6 3d
       0.056904286 0.026076721 -0.09426874 0.12027045
0001e0 aa db f4 ba 32 57 69 3d 68 a1 67 3c 74 99 1b bb
       -0.0018681188 0.05696792 0.014137603 -0.0023742588
0001f0 84 99 3b bd d5 f7 0a 3d 03 04 9d bd 43 7d 22 bc
       -0.0458007 0.033927757 -0.07666781 -0.00991756
000200 6e 80 6f 3c f5 26 a4 3d 03 a8 c9 bd bb 1f ab bd
       0.014618022 0.08015243 -0.09846499 -0.083556615
000210 c3 86 36 3d 2c ff cc 3d c8 1e ff 3c 1a 13 ff bc
       0.044562113 0.10009608 0.031142607 -0.031137038
000220 da 98 a5 bc 70 75 0a be a0 8e bb 3d 72 5e 97 3d
       -0.020214487 -0.13521361 0.09158063 0.07391061
000230 51 8a 84 bd 8e 91 c0 bd 71 9d e4 bd db fe d4 bd
       -0.06471694 -0.09402762 -0.11162842 -0.10400172
000240 81 78 ea bd a5 a6 54 3c ed e4 f8 bc 80 a3 c5 3d
       -0.114487655 0.012979184 -0.030382598 0.09650326
000250 df 54 a3 bd f5 6a 84 bc 4a 8b 08 3d 04 1c c0 bd
       -0.07975172 -0.016164282 0.03333596 -0.093803436
000260 c8 9c 3f 3d 5f cc 6a 3d 10 78 b1 bd bf 2a 13 bd
       0.046780378 0.05732381 -0.08665478 -0.035929438
000270 97 88 63 bc 23 bc cf 3d b4 bd 9b 3d b8 29 8a bc
       -0.013887546 0.10143306 0.076045424 -0.016865596
000280 ea 60 27 be 40 c9 6c bc 2e 1d 2a 3d b0 d6 29 3c
       -0.16345564 -0.014452279 0.041531734 0.010366127
000290 53 1d ad 3c 7c 10 3d 3d f1 98 49 bd c6 0e 73 bb
       0.021132147 0.0461583 -0.049218122 -0.0037087663
0002a0 a4 05 a8 3c 19 9b 83 3c 89 30 98 3c 14 ae 03 3d
       0.020510502 0.016065167 0.01857783 0.032148436
0002b0 8f 30 80 bd 46 6b 2b be ea e0 15 bd c3 62 4c bc
       -0.06259262 -0.1674014 -0.036591448 -0.0124747185
0002c0 c6 12 ba bc 23 4f 0d 3d c4 a0 d4 3c 69 23 ed bc
       -0.02271403 0.0344993 0.025955565 -0.028947549
0002d0 6b 7e b3 3b 5c 88 f2 bc 0d 42 89 bd 0e 51 36 be
       0.0054777167 -0.029606037 -0.06702051 -0.17804357
0002e0 a2 1e b0 bd cc be e3 bd 7b 01 75 bd 28 05 17 bd
       -0.08599593 -0.11120376 -0.059815865 -0.03687015
0002f0 79 f6 df bd f3 61 d9 bd 4b a9 94 bc ea b0 c9 3c
       -0.10935683 -0.106143855 -0.018147131 0.024620492
000300 a0 27 d7 bd 12 e3 bf bd de 3a 5e bd d5 ff b7 ba
       -0.10505605 -0.09369482 -0.05425536 -0.0014038036
000310 39 f4 93 3d b7 1b ea 3c e8 a8 fd bc be bd 25 3d
       0.07224316 0.028577669 -0.03096433 0.040464155
000320 cb 6e 93 bc d1 85 04 3d 6c a8 c3 bd e3 63 cf bd
       -0.017997166 0.03235418 -0.09553608 -0.10126474
000330 b8 69 5d bc d7 3f 2b 3d c8 37 aa bd fd 44 f8 3b
       -0.013513975 0.04180893 -0.08311421 0.0075765834
000340 44 ef cb bd 0e d0 75 3d ab c7 bc 3d 54 56 9f 3d
       -0.09957746 0.06001287 0.09217771 0.07780138
000350 79 dd ac 3c 73 13 40 bb 0f e3 e5 b9 95 00 4e 3d
       0.0211017 -0.0029308468 -0.00043847456 0.050293524
000360 dd d9 99 bc a8 f3 93 bd 93 b5 95 bc 5e ff c7 bd
       -0.018780643 -0.07224208 -0.018275058 -0.09765504
000370 af 24 81 3d f8 4b 64 bd 41 5d 72 3d e0 17 2b bd
       0.06305825 -0.055736512 0.059170965 -0.041770816
000380 b7 f0 47 bd af 2b 6d bd e6 65 25 3c 7c d6 94 bd
       -0.048813548 -0.057902988 0.010095095 -0.07267472
000390 9b b9 07 3c aa 83 47 3c 18 d8 77 3d fd e1 fb bd
       0.008283998 0.012177387 0.060508817 -0.12298963
0003a0 5e 76 79 bd 50 a0 88 3d 73 31 ad bd 35 93 6b bd
       -0.0609039 0.06671202 -0.08456697 -0.057513434
0003b0 c4 6b 6b 3d 63 14 3f bd 93 5f 02 be 48 8c 8b bd
       0.05747582 -0.0466503 -0.12731771 -0.06813866
0003c0 dd ef da bd 25 31 a6 bd a3 70 2c 3c 09 cf 60 3d
       -0.106902815 -0.08114842 0.010524902 0.054884944
0003d0 0b f0 03 3c e6 b0 35 3d 28 28 ca 3c 3f 66 aa 3c
       0.008052836 0.044358157 0.024677351 0.020800708
0003e0 0a cb 0c 3d b9 0a 4b be a2 4a f0 3b 25 4a 59 3d
       0.03437332 -0.19828309 0.0073331157 0.053049225
0003f0 f0 0e 9a bd 34 7e 9b 3d b8 9d 44 bc 78 f0 82 bd
       -0.0752238 0.07592431 -0.012000494 -0.06393522

bias_hh f4 [384]
000000 be 4e b6 bc 7b 12 e4 3c 2a 80 ea bd 67 4c a0 bd
       -0.022254344 0.027840843 -0.114502266 -0.078270726
000010 51 6d b2 bd aa 25 db 3c b9 56 b9 bd 11 fc 82 3a
       -0.08712257 0.026751358 -0.09049744 0.0009993335
000020 78 9e 1b bd ae 38 cc 3d 93 b0 5e 3d 2f 77 81 3c
       -0.037992924 0.09971748 0.054367613 0.015803901
000030 ff a4 7f bb f5 5e 3d bd cd 41 d7 bb 4a fb 5c bd
       -0.0039008257 -0.046233136 -0.0065691234 -0.053950585
000040 95 42 4e bd 72 11 3f bd 16 4a cd bd 3c c2 ac bc
       -0.050356466 -0.046647497 -0.100238964 -0.021088712
000050 4d d8 05 3d 5c 52 5c bd f6 44 c9 3d 19 80 86 bc
       0.032676984 -0.05378948 0.098276064 -0.016418504
000060 a4 a5 91 3c 37 c6 2d bb 0c ac 52 3d 27 38 c4 bd
       0.017779179 -0.002651585 0.051433608 -0.09581023
000070 e3 f6 b0 bc 25 c0 f6 bd 08 66 56 bd e4 98 b0 3c
       -0.0216021 -0.120483674 -0.0523434 0.021557279
000080 22 a1 13 bb 4d 69 2d bd d1 10 16 bc 0f cc d9 bc
       -0.0022526463 -0.04233675 -0.009159283 -0.02658656
000090 d6 39 ec bc b4 49 2e 3d 70 8b ab bc 30 16 c4 3d
       -0.028836172 0.042550758 -0.020940512 0.095745444
0000a0 52 1a 9c bd 25 0a 22 ba dc 52 5e bd 7a 15 5a 3d
       -0.07622208 -0.0006181321 -0.05427824 0.053243138
0000b0 d0 cc 83 bd f1 78 52 bd f3 66 3f 3d 62 fa 14 bd
       -0.06435549 -0.05138487 0.04672904 -0.036371596
0000c0 40 11 c5 3d 23 d9 04 bd c9 8d fc 3c b0 a2 e0 bc
       0.09622431 -0.03243364 0.030829327 -0.027421325
0000d0 3c 00 87 3c 14 f7 6b 3d 45 1c 23 3d 7c 62 c8 bc
       0.016479604 0.05760868 0.03982188 -0.024461024
0000e0 82 95 8d 3c 5d 85 75 bc 49 c1 f3 ba 81 5a 7e 3d
       0.017283205 -0.01498541 -0.0018597032 0.06209803
0000f0 2f 03 61 bd 5f e8 28 3c eb bf 81 3d 8f 66 f0 3d
       -0.054934677 0.010309308 0.063354336 0.117383115
000100 53 58 27 3d 12 ff 2e bd 5d 4c 7f 3c 65 a3 b6 3d
       0.040855717 -0.042723723 0.015582171 0.08917884
000110 81 ba 9c bc 71 5c 0c 3d 51 b7 9d bb 1c ac 8b 3d
       -0.0191319 0.034267846 -0.004813113 0.06819937
000120 15 a5 f7 bc 03 da c9 3c 99 64 25 bd c6 a3 fa bc
       -0.030230084 0.024640089 -0.04037914 -0.030595671
000130 0c 77 29 3d 5c 73 df 3d 74 be 01 3d 4c 01 d6 3c
       0.041373298 0.10910675 0.03167577 0.026123665
000140 42 4b 5f 3d d9 7b 5b bd 9b a6 65 3c ac b4 5b 3c
       0.05451513 -0.053584907 0.014016773 0.013409775
000150 3b 49 68 bd 58 c2 5f bd 9f f3 5a bc 44 13 31 3b
       -0.056710463 -0.0546287 -0.013363748 0.002701954
000160 f2 f1 9a bd f6 6e 97 3d bf d6 89 bd 0b 84 7f 3d
       -0.07565679 0.07394211 -0.06730413 0.062381785
000170 ab e3 e2 bd 1e be 10 3d a6 f3 dd 3d b2 58 2b bd
       -0.110785805 0.03533756 0.10837488 -0.041832633
000180 f9 9c 80 bd 7b df 4e 3c 3a 03 86 3c 52 cb 86 bc
       -0.0627994 0.012626524 0.01635896 -0.016454373
000190 24 18 da 3c c4 5c cf bc c3 7a 48 bd 00 48 57 bd
       0.02662284 -0.025312789 -0.0489452 -0.0525589
0001a0 95 4b 33 3d a2 23 b8 3c 8b 07 02 bd 9d e7 b0 3d
       0.043773253 0.022477929 -0.031745475 0.08637927
0001b0 f5 3d 5b 3d a9 ef 8b 3b 03 fa c9 3d d9 fc bc 3c
       0.053525884 0.004270513 0.09862139 0.023069786
0001c0 63 2b d6 3d 9d b9 55 3d ab 44 ef 3c 4b b3 cc 3b
       0.10457494 0.052178968 0.029207548 0.0062469593
0001d0 d6 84 ba 3c fd ed 9f bd 97 61 39 bd 93 00 d6 3d
       0.02276842 -0.078090645 -0.045259085 0.10449328
0001e0 c1 40 b0 3d d7 68 53 bd 2f 56 b6 3d 60 20 be 3d
       0.08606101 -0.051613655 0.08903157 0.09283519
0001f0 3a 6e 80 bd f4 08 aa 3d 02 25 99 bd d1 7a a5 3d
       -0.06271024 0.08302489 -0.07477762 0.08080066
000200 be 47 92 3d 86 4c 12 bd df a8 2c bc 2c 90 ff bd
       0.0714259 -0.03571751 -0.010538309 -0.124786705
000210 af 21 6b 3d 81 4b 2e 3d b5 dd 19 3d 0b bc c3 bd
       0.05740517 0.042552475 0.037564952 -0.09557351
000220 14 5d e0 3b 52 a8 56 be 8b 60 02 bb 06 ed 5a 3b
       0.0068470333 -0.20962647 -0.001989397 0.0033405437
000230 96 5c d0 bd b6 f7 84 bd 4a 9e e5 bc dd 94 51 bd
       -0.10173909 -0.064925596 -0.02802958 -0.051167358
000240 ca 1d 1a be 24 2d f3 3c 90 b6 c5 3b 5e a8 bb 3d
       -0.15050426 0.02968461 0.006033726 0.09162973
000250 78 66 8f bb 76 cf c8 3d 65 4c 6a 3d d4 68 9f bc
       -0.004376229 0.09805195 0.05720176 -0.019459166
000260 76 78 1c bd 63 e4 81 bd 4e 0c 97 bd 62 e8 b8 bc
       -0.038200818 -0.063423894 -0.07375394 -0.022571746
000270 32 92 c5 3d ae 6c c7 3d 27 8c b3 3d 60 25 dd bd
       0.09647025 0.09737526 0.08766966 -0.10798144
000280 be 8c 0d bd 1c 13 d2 bb 1c c5 89 39 8a 03 55 3d
       -0.03455805 -0.0064109694 0.00026277534 0.05200533
000290 dc 53 0d bd 14 38 db 3c 2f 77 82 3d 1b 17 8d 3d
       -0.034503803 0.026760139 0.06370389 0.06889173
0002a0 10 a6 84 bd c2 b5 cc bd 7a b9 1a bd 54 5a 66 bd
       -0.064769864 -0.09995605 -0.03777454 -0.056238487
0002b0 02 28 0e 3d 3a b4 0a be db 7b c8 3a 88 fc 17 3d
       0.034706123 -0.13545313 0.0015295701 0.037106067
0002c0 b4 af 94 bd dc 47 88 bd d1 56 9b 3c 06 ce d7 bc
       -0.07260075 -0.06654331 0.018962296 -0.026343357
0002d0 63 2b 1a 3d ee f3 06 bd c6 2a c8 bd 3e 36 3a be
       0.037639033 -0.032947473 -0.097737834 -0.18184754
0002e0 01 6b 02 bd 35 35 33 be 31 fb d7 3b 0d 18 a8 3b
       -0.031840328 -0.17500766 0.0065912236 0.00512982
0002f0 0a d9 1f bd cf e5 9e 3a f1 28 07 bc b7 c7 ac 3d
       -0.039025344 0.0012122932 -0.008249507 0.0843653
000300 f6 a6 0d be 67 37 b9 bd fb 50 a2 3d ee 3b bb bd
       -0.13833222 -0.0904377 0.07925602 -0.0914229
000310 26 b4 c3 3b 34 09 d3 bc b4 ed d9 3d 65 15 73 3c
       0.005972403 -0.025761224 0.106410414 0.014836644
000320 c0 16 10 be 37 43 52 3d f6 f2 9d bd 08 db dc ba
       -0.14071178 0.051333632 -0.07712357 -0.0016849944
000330 18 85 2d bd 7f 3e c3 bd 29 ee 39 bd c2 03 e0 bd
       -0.042363256 -0.095334046 -0.045393143 -0.10938217
000340 d4 e0 2c be 60 01 cd bc b4 f5 c2 3d cc 03 85 bd
       -0.1688264 -0.02502507 0.095195204 -0.06494865
000350 6a 15 47 bd 77 cb bf 3c 3b 0f a2 3d bb 53 82 bd
       -0.048604406 0.02341245 0.07913061 -0.063636266
000360 f3 95 73 3c d5 c1 67 be e9 2d f5 bd c8 b6 50 be
       0.014867294 -0.22632535 -0.11971647 -0.20382226
000370 75 57 0f bc 34 7b 8c bc 86 c1 56 3c cf c7 43 bd
       -0.008748879 -0.017148592 0.013107663 -0.047797974
000380 55 ec 91 bd 8a 31 e4 bc f2 d5 00 bd 80 fd ac bd
       -0.07125155 -0.027855653 -0.031454034 -0.08446789
000390 a4 98 72 3c 8a 48 89 bd 40 9c af 3d 29 eb f3 bd
       0.0148069 -0.06703289 0.08574724 -0.119100876
0003a0 7b 04 12 bc 9c 3c a3 3d b8 4d 9c 3c 73 2f 8f 3d
       -0.008912201 0.07970545 0.019080028 0.06991472
0003b0 81 0b 96 bc ed be 20 bc bc 94 3e bd 82 46 7a bd
       -0.018316032 -0.009811145 -0.046528563 -0.061102398
0003c0 58 4d fe bc b0 8c b0 3c 84 c5 4f 3d f9 69 94 3d
       -0.03104274 0.02155146 0.050725475 0.07246775
0003d0 5c 84 c3 3c 08 85 4b bc b8 94 7e 3c 65 32 03 be
       0.023866825 -0.012421854 0.015538387 -0.12812193
0003e0 a8 84 70 bd 23 c7 45 be c1 a4 41 bc 1c 7f 10 3d
       -0.05872026 -0.19314246 -0.011819066 0.03527747
0003f0 89 1c 79 3d 34 e0 4e bd a6 c3 ac 3b 02 cb a9 3c
       0.06081823 -0.050506786 0.0052723465 0.020726684

weight f4 [128, 128]
000000 b3 36 ae 3d d6 0e ad 3d 34 8e 79 38 f6 35 fc bd
       0.08506527 0.08450095 5.9498663e-05 -0.1231498
000010 93 29 e2 3b c2 90 b2 bd 79 8e ce bc 12 92 66 3d
       0.0069019287 -0.087190166 -0.02521442 0.056291647
000020 b3 4c f3 bd 28 3c ec bc b7 ab d5 bb 81 03 c4 3c
       -0.118798636 -0.028837278 -0.006520714 0.023927452
000030 04 cc 90 bd c1 85 aa bd d7 50 4e bd 91 1d a8 3c
       -0.07070163 -0.08326293 -0.050370064 0.02052191
000040 bf 5f f7 bc 2a a8 67 3d 66 18 5b 3d 85 0d e7 bd
       -0.030197022 0.056556858 0.053490065 -0.112818755
000050 38 86 e0 bd 4c d8 56 3d 37 9f b2 3d 11 98 e2 3d
       -0.109631 0.05245237 0.08721774 0.110641606
000060 f2 8a 06 be 85 4a 29 bd 45 9a 3b 3d 8d a9 da 3d
       -0.13138941 -0.041330833 0.04580142 0.106768705
000070 24 69 b2 3d 65 ce c0 3c f9 16 5f bd c1 da d1 bd
       0.0871146 0.023535917 -0.054465268 -0.10246802
000080 5f 0e 82 3c 8f 68 74 3d 30 c2 12 3c 87 d4 44 be
       0.015875993 0.059670027 0.008957431 -0.19221698
000090 3a 33 0f bc 8d 2f 11 be 21 a0 e8 bd 31 4f b1 3c
       -0.008740241 -0.14178295 -0.11358667 0.021644207
0000a0 52 ca 87 bb 99 02 52 3d 5b 0f 7e 3d 4a e0 05 bd
       -0.0041439915 0.05127201 0.062026363 -0.0326846
0000b0 a6 38 7a bd ec ca c7 3d a4 62 ef 3c c9 87 b5 bc
       -0.06108918 0.09755501 0.02922184 -0.022159474
0000c0 2d c9 05 3e a5 2a eb bc be 2e 74 bd 81 a9 27 be
       0.13065024 -0.028706858 -0.05961489 -0.16373254
0000d0 81 4a d7 3d ab ed b6 bc 75 d2 9a bb 89 36 2e bd
       0.10512257 -0.022330126 -0.0047247955 -0.042532478
0000e0 2a fb a4 3c ad ff e2 3c c2 fb 26 3d 32 cc 81 bd
       0.020139296 0.027709806 0.04076744 -0.06337775
0000f0 ff c0 7d 3d 43 07 c6 bd ce e3 93 3c 8e 8f 01 3d
       0.061951634 -0.09669354 0.018052962 0.031631045
000100 3a 2a 4d 3d d9 67 94 bd 66 98 9a 3d 4b 0e 15 bd
       0.0500891 -0.0724637 0.07548599 -0.036390584
000110 a1 2c 23 3e d3 2e b1 bd e1 d0 0c 3d 10 93 72 3d
       0.15934993 -0.08651509 0.03437889 0.05922228
000120 b5 5b a0 3d 02 48 9f bd 86 99 76 3d 10 35 8e bd
       0.07829992 -0.07777406 0.060205005 -0.069437146
000130 38 46 8a bd bd 6b bf 3d 9d 0a 9d 3b bd 83 33 3d
       -0.067516744 0.09346721 0.004792525 0.043826807
000140 92 ec 05 3d 61 f3 40 3d ff c4 85 bc c3 3a bb 3c
       0.032696314 0.047107104 -0.016329287 0.022855168
000150 38 c2 af 3d cd 27 a8 3d 27 d9 09 bd 96 78 ad 3d
       0.08581966 0.082107164 -0.03365436 0.084702656
000160 65 7b 18 bc 31 65 3f 3d 71 5b a4 3d 5e cf fc bc
       -0.009306763 0.046727363 0.080252536 -0.0308606
000170 0e 06 96 3c 51 af 26 3d 0a b3 dc 3d 21 da 4c bd
       0.018313434 0.04069454 0.107763365 -0.05001271
000180 fa 87 0a 3d 78 0f b7 bd 6f 54 15 3c 73 1d ff 3d
       0.033821084 -0.08938497 0.009114369 0.12456789
000190 62 98 5c bc 38 c5 8c 3d c7 df ab bd 7b 0c 3a be
       -0.013464065 0.06873554 -0.083922915 -0.18168823
0001a0 c7 54 6d bb e3 d9 36 bc 71 31 5f bc a6 f0 73 bd
       -0.0036213861 -0.011160347 -0.013622628 -0.059555672
0001b0 aa a4 dc bd ef 7a 9c bd b2 72 7d 3d b0 d3 97 3d
       -0.10773595 -0.07640635 0.06187696 0.07413423
0001c0 b0 ad 98 3d 23 4f c2 3c a9 f6 be bd 6b dc 49 3d
       0.07455003 0.023719376 -0.093243904 0.049282473
0001d0 c2 24 9c bd 13 3d d7 3a 4a 5f 4e bd 7c 74 00 bd
       -0.076241985 0.00164214 -0.050383843 -0.03136109
0001e0 90 d2 4a 3d 89 81 65 3c 33 7c e1 3a d6 41 78 bc
       0.049517214 0.014007934 0.0017203152 -0.015152415
0001f0 2d 6f af bc 8a f7 a9 bd 4f 4d 4c 3d 28 f9 56 3c
       -0.021415317 -0.082991675 0.049878415 0.013120927
000200 79 db 41 3c 6d 71 da 3d 97 55 a6 bc 9e 1a ce 3c
       0.0118321115 0.106661655 -0.020304484 0.025159176
000210 85 fb 69 3d ba 7b 35 bd 9b 52 d2 39 74 ae b9 3d
       0.057124633 -0.044307448 0.00040115867 0.090664774
000220 5f 39 96 bd 63 c5 a9 bc a1 c5 e3 3d 25 b2 9e bd
       -0.073351614 -0.020724004 0.11121679 -0.07748822
000230 bc 4b 43 3d ac bf bf 3c 31 ef 5f 3d b9 bd 42 bd
       0.047679648 0.023406826 0.05467147 -0.047544215
000240 90 d5 c6 3b 08 6a 1a 3c de bb 80 bd 4a d9 9f 3d
       0.006067939 0.009424694 -0.06285833 0.078051165
000250 31 cc ad bd f0 b8 85 3c 29 34 9f bc d9 bf 0b 3e
       -0.08486212 0.016323537 -0.019434052 0.13647403
000260 18 1b 32 3d a3 13 8b 3d c6 ec d9 bd 35 c2 97 bc
       0.04348287 0.06790855 -0.10640864 -0.018525222
000270 d3 c7 48 3d 96 6b 00 bc c4 d2 44 bd 24 e6 92 3c
       0.049018692 -0.0078381505 -0.048052564 0.017932005
000280 63 06 86 3c 37 95 ea 3b b6 cb 8a bd 86 fd 6a 3d
       0.016360467 0.007158901 -0.06777136 0.057370685
000290 d4 e4 4d 3b 21 0d 44 bd 9d 80 21 bc d0 bd 50 bd
       0.003141691 -0.047864083 -0.009857324 -0.05096227
0002a0 24 cc 93 3d 22 cb ba bd 9a 86 2c 3d 71 8b a7 bd
       0.07216671 -0.09120776 0.042120554 -0.08180893
0002b0 f4 d2 9e 3c 67 dc 02 b9 bc 90 97 3d ec a3 b9 bd
       0.0193877 -0.00012479872 0.07400653 -0.09064469
0002c0 0b 8a 01 be 3d da ac bd 27 8e f3 3c 56 e1 64 bc
       -0.12650315 -0.08440063 0.02973087 -0.01396974
0002d0 51 aa 7e bc ba 8d 5e bd 07 ab 87 3c 1b f7 3d 3d
       -0.015543536 -0.05433438 0.016561044 0.046378236
0002e0 c9 8e 2d bd cd ec 5b 3d 39 03 92 bd 1b fa 10 bd
       -0.0423725 0.053692628 -0.07129521 -0.03539477
0002f0 e3 88 b8 3d fa 0e 02 bc 5c 41 1b bd 3f ef b5 bc
       0.09010484 -0.007938141 -0.03790413 -0.022208808
000300 56 6e 34 bc 31 c3 24 bd b3 c4 23 bd 7a b8 5e 3b
       -0.011012634 -0.04022521 -0.03998251 0.0033984468
000310 05 d7 f1 3d c0 f2 aa 3c ce c5 65 bd 17 f6 a8 bd
       0.1180859 0.020867705 -0.056096844 -0.08250063
000320 e5 92 6b 3c bf 14 48 bd 35 28 99 3d a4 31 ed 3c
       0.014378284 -0.04884791 0.07478372 0.028954335
000330 24 6c ac bd 03 1f 16 3d 36 a1 04 3d 7c 5e 8f bd
       -0.08419064 0.03665067 0.032380305 -0.07000443
000340 cc 3d 8c bd 17 44 a3 bd 54 96 ea bc 60 7c fa 3c
       -0.06847724 -0.079719715 -0.028636135 0.030576885
000350 64 af 65 3d 34 84 98 bd d8 6d 0b 3d e4 80 bc 3d
       0.05607547 -0.07447091 0.034040302 0.092042714
000360 85 e5 04 be 67 c7 b7 bc c4 67 97 bb cb 3a e5 bc
       -0.1297818 -0.02243395 -0.004620524 -0.027982136
000370 1b 06 e0 3d 34 0d 0b 3d b0 c7 a2 bd 50 e0 cc bc
       0.109386645 0.03394814 -0.079482436 -0.025009304
000380 b6 00 ad bd 5d 71 22 bd 40 92 72 3d 65 80 0a bd
       -0.08447401 -0.039658893 0.059221506 -0.033813853
000390 7d a6 a3 3b ab 42 8f 3c 5c 0e 83 bd 28 cd d4 bd
       0.004994212 0.017487844 -0.06399223 -0.10390693
0003a0 45 48 a5 bd 44 fc 86 bd 0f 0d 88 3d b7 6a 32 3d
       -0.08070425 -0.065910846 0.06643116 0.043558802
0003b0 b7 cd 7b bc 6f c4 9b bd 4c 2e 0c bd 47 34 c5 3d
       -0.01536887 -0.07605826 -0.03422384 0.09629112
0003c0 f7 4e b6 bd a5 7c fc 3d 17 f4 d2 3c 66 a1 e1 3d
       -0.0890178 0.123284616 0.025751157 0.110171124
0003d0 72 48 42 bd 30 0d 1b 3d bb 82 a9 bc fe 98 ba 3c
       -0.04743237 0.037854373 -0.02069222 0.02277803
0003e0 31 56 02 bc 75 d5 38 bd 07 b1 54 bd 59 9c 42 bd
       -0.00795512 -0.045125443 -0.05192664 -0.047512386
0003f0 64 db d8 3d 11 24 c6 bd 4e 58 db 3c 1a a1 a2 3d
       0.105887204 -0.09674848 0.026775505 0.07940884

bias f4 [128]
000000 5c 55 7c 3d 94 ef f7 3d 5b d1 5a bd cb 4e af 3c
       0.061604843 0.12106243 -0.053422313 0.021399876
000010 42 69 46 3c d8 5f 2e bb 84 05 e7 bb 96 35 70 bc
       0.012110056 -0.002660742 -0.007050218 -0.014661213
000020 27 2d 24 3d e8 3b 06 be fc f1 42 bd c2 8c 3a bd
       0.040082123 -0.1310879 -0.047594056 -0.045544393
000030 51 5b ef 3c 1d e0 83 3c 32 17 df bb 02 09 d9 bc
       0.029218348 0.016098076 -0.006808185 -0.026493553
000040 2d 79 e7 bc bf 7f 9e bd ee bb 61 bc 93 9b 0b 3d
       -0.028256023 -0.077392094 -0.013777716 0.034083914
000050 b2 e9 8f bd d7 7f 06 be d9 27 31 bd 3c e5 8d bd
       -0.07026996 -0.13134705 -0.043250892 -0.069284886
000060 e5 89 a7 bd f7 ff 98 bd 1d 5f e1 bb 12 ce 17 3d
       -0.08180598 -0.074706964 -0.0068777935 0.03706176
000070 5d 0d b8 3c 3e 60 3c 3d 34 26 db 3d 28 af 56 bb
       0.02246731 0.04599022 0.10700646 -0.003275821
000080 c7 5c e5 bc f5 22 db 3d d2 ca 90 bd 6b 0f e6 bd
       -0.027998341 0.10700027 -0.07069935 -0.112334095
000090 75 36 55 bb a7 95 c5 bc ad fc b2 3d 28 b4 04 3c
       -0.003253368 -0.024119211 0.087396 0.008099593
0000a0 c9 d0 f1 3d 88 4b ad bc 0b cd ac 3c cc 15 a6 3c
       0.11807401 -0.02115418 0.021093866 0.020274065
0000b0 42 30 83 bd b9 b3 04 3e d5 c1 b1 bd 2d fb 12 bc
       -0.06405689 0.12959184 -0.08679549 -0.008971018
0000c0 30 81 09 be 42 e4 c8 bd 37 4c 25 be 0c 5e 25 be
       -0.13428187 -0.09809162 -0.16142355 -0.16149157
0000d0 3a d1 bd 3d a5 d2 79 3c 4e 5d a9 3d 40 cc a0 3d
       0.092684224 0.0152479755 0.082697496 0.078514576
0000e0 1b c2 87 3d bd b2 fe bd 7b 92 99 bc 82 82 10 bd
       0.066288196 -0.12436435 -0.018746605 -0.035280712
0000f0 a3 07 ab bd e1 d8 31 3d 8a a7 2b 3c 18 d3 2b 3d
       -0.08351066 0.043419722 0.010476956 0.04194936
000100 71 cd 80 bb 43 41 b2 bc 63 6a 46 3d f5 fb bc 3c
       -0.0039307405 -0.021759635 0.048441302 0.023069361
000110 6f 4c 0b 3e 50 86 7a bc df 1d 17 3d e1 70 5c 3c
       0.13603376 -0.015290812 0.03689372 0.013454647
000120 d9 15 ab bc 9e 82 8d bc 4e ca 9f 3d 26 12 9f bd
       -0.020884441 -0.017274197 0.078022584 -0.077671334
000130 d3 1e ce 3c 46 fd a7 bd 0e a9 a0 bd 90 f8 ca 3b
       0.025161183 -0.08202605 -0.078447446 0.0061941817
000140 de b7 95 3d 74 66 c6 bd b1 d5 2c bc 8b 14 99 3d
       0.073104605 -0.0968751 -0.010548995 0.074746214
000150 9c c0 67 3c 9f 04 ed bd 68 e0 a1 bc d3 74 e2 bc
       0.014145043 -0.11573147 -0.019760326 -0.027643597
000160 af 88 48 3d 96 d3 5f 3d 96 72 c5 3d 87 d3 1a be
       0.048958477 0.054645143 0.09640996 -0.15119754
000170 95 a5 23 bd f8 95 f8 3c e0 de a1 bb 39 52 8d bd
       -0.039952833 0.030344948 -0.004939899 -0.06900448
000180 6b eb b0 bd be 40 f2 3c 25 0d 53 3d d1 7f 64 bc
       -0.086386524 0.029571887 0.051526207 -0.013946489
000190 c9 6a 4e bd 8e 9a e8 bb 96 2f ad 3d 4e 44 f8 bd
       -0.050394807 -0.0070985025 0.08456342 -0.12122403
0001a0 7f 19 7d 3d 24 be 81 3c a9 07 e4 3c e4 da f1 bd
       0.061791893 0.015837736 0.027835684 -0.11809328
0001b0 c4 c2 81 bc 0e 1e 76 bd 0a 36 b2 bd 25 cc 2f 3d
       -0.015839942 -0.060087256 -0.087017134 0.042919297
0001c0 da c0 5f bb 74 44 e4 bd 30 21 0f 3d b4 09 53 3d
       -0.0034142048 -0.11145869 0.03494376 0.051522925
0001d0 c0 a9 af 3d 23 24 a3 3d ed fb d9 bc 3f ae 6d 3d
       0.08577299 0.07965877 -0.026609385 0.058027502
0001e0 97 c4 fa bb 96 a7 19 bd dd 20 9e 3d 1d 50 13 3b
       -0.00765283 -0.037513338 0.07721112 0.002247817
0001f0 e4 49 56 bd 2c 89 7e 3d fa 0e 0d 3d 9b 6f e9 3c
       -0.05231656 0.062142536 0.03443811 0.0284956

weight f4 [128, 128]
000000 e4 8f 99 bd b0 c5 9a 3d 0c 43 81 3d 91 0d 28 3c
       -0.07498148 0.07557237 0.06311616 0.010257141
000010 e5 97 26 3d 9f fd 66 3d f7 5e 1e bd ea 5c 1a 3d
       0.0406722 0.056394216 -0.038664784 0.037686266
000020 87 5c a2 3d 84 3d 93 bd d6 47 53 3d 46 29 1e 3d
       0.079278044 -0.071894675 0.05158218 0.03861358
000030 d4 1e c3 bd 3a 83 83 3d d6 43 25 bd ad 33 4f bd
       -0.095273644 0.06421514 -0.040347897 -0.05058639
000040 9a 84 3d 3c 82 13 01 be b3 80 d3 bd 4e 37 a1 bd
       0.011567259 -0.12605098 -0.10327282 -0.07871877
000050 87 cc f0 bd 02 3f d1 3c c4 c0 b9 bd 51 40 d3 3c
       -0.117577605 0.02554274 -0.0906997 0.025787504
000060 2a dc d7 3c 2b b1 34 bd 56 2c e6 bd 9f af 13 bd
       0.0263501 -0.044114273 -0.11238925 -0.036056157
000070 cd b0 1b 3d 1a 74 0f be b4 da 4b 3d 97 9e e8 bc
       0.038010407 -0.14009133 0.04976912 -0.028395934
000080 1d 8e 5b bd cd a8 53 bd 50 8c 40 3d a3 43 69 bd
       -0.053602327 -0.051674653 0.047008812 -0.05694927
000090 e4 86 35 bd d0 7c 2c 3d 26 43 5e 3d 22 37 57 bd
       -0.044318095 0.042111218 0.054263256 -0.052542813
0000a0 cc bf bf 3d a2 4f 1d 3d bb 0a 89 3c 7d eb 88 bd
       0.09362754 0.038406022 0.01672875 -0.06685541
0000b0 2d 32 f8 bd 2e ce 15 bd 77 da 57 bd 53 ab fe 3c
       -0.12118945 -0.03657358 -0.05269858 0.031087553
0000c0 dc 2e 69 3b 21 3e 53 3d 13 52 b5 bd 24 c1 8e ba
       0.003558091 0.051572923 -0.08853545 -0.0010891301
0000d0 bb 0c d5 3c 82 6b 29 bc 88 0f 02 3d b4 fc d3 bc
       0.026007047 -0.010340573 0.031753093 -0.025877334
0000e0 06 9b 08 bc 2d b7 3b bb 84 5d 37 bd e3 33 c6 bd
       -0.008337742 -0.0028643117 -0.044766918 -0.09677865
0000f0 f4 2d 18 bd b6 db 8b 3d 48 48 b7 bd 59 9a 4c 3d
       -0.0371532 0.06829016 -0.089493334 0.049951885
000100 53 94 2d bd 8c c5 90 bd 67 cc 97 bd 4d e8 1a bd
       -0.04237778 -0.07068929 -0.074120335 -0.037819196
000110 c3 4f 40 3a 4c 95 88 ba ac 18 09 bd 02 48 52 bd
       0.0007336104 -0.001042047 -0.033470795 -0.051338203
000120 bd 63 ac 3d da 80 80 bd 1a e3 c8 3d fb 4c 72 3c
       0.08417461 -0.062745765 0.09808941 0.014788861
000130 6e 38 c3 bd 10 d9 1a 3d 19 31 9a bd 92 4d 83 bd
       -0.095322475 0.037804663 -0.07528896 -0.0641128
000140 cc fc 5b 3d 61 1f 7c 3d e6 d7 b1 3c 7c 6a 3d 3d
       0.053707883 0.061553363 0.021709394 0.04624413
000150 75 23 c4 bc 34 94 11 bc 1f e3 0c bc b9 e0 3e 3c
       -0.023942688 -0.008885432 -0.008599072 0.011650258
000160 0a d0 16 bd 98 3a ca bc c1 a8 b3 bd da e4 15 bd
       -0.036819495 -0.024686143 -0.08772422 -0.036595203
000170 b9 82 e3 39 f9 a5 9c 3c 00 47 09 3d 38 53 0d 3c
       0.0004339421 0.01912211 0.033514977 0.008625798
000180 70 c5 c0 bd fb cd 4c 3d de 73 82 3d f8 ae 6f 3d
       -0.09412658 0.050001126 0.06369756 0.058516473
000190 e1 c6 9e bc be 7d 65 3d c2 ed 0d 3d 46 3b 35 bd
       -0.019381942 0.05602812 0.03465057 -0.04424598
0001a0 0a c0 fa 3b 3d 64 dc bc dd 1a 86 bd 39 81 50 3b
       0.0076522874 -0.026903266 -0.065480925 0.0031815304
0001b0 3d 83 21 bd f7 8f 6e 3d 2b f6 01 3d 67 2c f5 bc
       -0.0394318 0.058242764 0.031728905 -0.0299284
0001c0 a5 48 bb bd 45 48 90 bd 06 4a 8e bd 70 b0 b0 bd
       -0.09144715 -0.07045034 -0.069477126 -0.08627403
0001d0 3d d6 ec bd 6b bf 86 3d d4 50 38 3b 82 94 57 3d
       -0.115643 0.06579479 0.002812435 0.052631862
0001e0 31 da a7 bc 3f 16 c7 bd c5 b2 b5 bd a1 7e 93 3c
       -0.020489784 -0.0972104 -0.08871988 0.018004717
0001f0 45 58 16 bd 51 1f 8a 3d ac 8a 6a 3c 18 00 14 bd
       -0.036705274 0.067442544 0.0143152885 -0.036132902
000200 ce cb 74 bc 05 6c b8 bc 9a db af bd 33 5e c2 bd
       -0.014941169 -0.022512445 -0.085868075 -0.09490623
000210 bc 99 56 3d fb 96 e3 bd 0f e3 c0 bd 81 3e 7d bd
       0.052392706 -0.111127816 -0.09418308 -0.061827186
000220 e7 cc dd bc d7 0c c4 bd 60 87 d4 bd 74 33 66 bd
       -0.027075244 -0.095727615 -0.10377383 -0.056201413
000230 47 9b 55 3c da 84 a8 bd 16 33 7f 3b de 72 1f be
       0.013037509 -0.082284644 0.0038940362 -0.15571162
000240 c2 64 a6 bd 11 70 a2 bd 94 15 25 bd 51 69 be bc
       -0.08124687 -0.07931531 -0.04030378 -0.023243578
000250 b6 04 94 bd b4 0e 01 be 88 1c 05 be e8 30 26 bd
       -0.07227461 -0.12603265 -0.12999165 -0.040573984
000260 69 16 b2 3c 35 d8 85 bd 94 db 52 bd e4 08 2d bc
       0.021739202 -0.06535379 -0.051478937 -0.010561202
000270 44 60 49 bd 30 de 1a be d4 7d 55 bd 0e 97 43 3d
       -0.04916407 -0.1512382 -0.052121952 0.04775148
000280 99 ea 54 bd 59 a1 b6 3d 69 0b da bd 87 78 a7 bd
       -0.051981542 0.089174934 -0.106467076 -0.08177286
000290 6e c4 f0 bc c8 33 8d bd 0c 9f 04 3c e7 cf 86 bd
       -0.02939054 -0.06894642 0.00809456 -0.06582623
0002a0 d4 88 8c 3d c7 61 96 3c 42 55 bf bc 17 c0 cc bd
       0.068620354 0.01835717 -0.023356084 -0.09997576
0002b0 f1 03 94 3c d1 1a 4e bd b9 08 b3 bd e6 d0 a1 3d
       0.018068286 -0.050318543 -0.08741898 0.07901172
0002c0 a7 88 4f bd b2 4e 07 be d2 70 d7 bd 8c db 02 be
       -0.05066743 -0.13213614 -0.10519566 -0.12779063
0002d0 12 75 19 3d 61 a8 00 3d c2 aa 65 bc 6d 48 98 bd
       0.037465163 0.03141058 -0.014017763 -0.07435689
0002e0 bf a1 23 bd ff 50 f9 bd 82 57 ef bd 38 d0 03 3d
       -0.039949175 -0.12173652 -0.11686613 0.032180995
0002f0 cd 20 1d bd 54 04 51 3c 66 b4 33 bd 26 2c e9 bd
       -0.03836136 0.01275738 -0.043873213 -0.11385374
000300 e2 ba 20 3c 44 33 68 bb 6f 94 e2 3d b1 65 5c bd
       0.009810181 -0.0035430947 0.11063468 -0.053807918
000310 4d c3 08 3e 31 3d d4 3c 5b d1 b7 3d 00 de b8 bd
       0.13355751 0.025908085 0.08975478 -0.09026718
000320 ca da c0 bd de 74 3a bd 5b cc c2 3d 30 a2 c0 bb
       -0.09416731 -0.04552161 0.09511634 -0.0058787093
000330 dc aa 2c 3d 0b 15 13 bd 88 2d 86 bc 3c 92 9f 3b
       0.04215513 -0.03590874 -0.016379133 0.0048697274
000340 bb 48 9a 3d 72 6d c5 bc 0e 73 b9 bd 8e 8b 98 bd
       0.075334035 -0.02410004 -0.09055148 -0.07448493
000350 8f 4a 21 3d 5f fe b6 bd 6d 7f 8f bc 91 1a 23 bd
       0.039377745 -0.08935236 -0.017516816 -0.039820258
000360 35 1c a0 bc 76 99 8f 3c 31 12 89 3d b1 f1 89 bd
       -0.0195447 0.01752923 0.06692923 -0.06735552
000370 cd 48 2d 3d 6e fe aa 3d af 07 c9 3c 29 63 92 3c
       0.042305756 0.0834931 0.024539797 0.017869549
000380 fe 56 3e bd fb d8 b8 3c 18 6d 3a ba d5 5d 3f bd
       -0.04646968 0.022564402 -0.0007111593 -0.046720345
000390 71 4a c1 3c 33 cb 80 bc cd 78 98 3c d1 fe 88 3b
       0.023595067 -0.015721893 0.01861229 0.004180767
0003a0 9c c9 ba 3b 05 f4 1d be c6 b6 b3 bc c6 49 17 3c
       0.0057003032 -0.15425117 -0.02193774 0.009233898
0003b0 42 98 b3 bd 7e 3a 55 bd a5 f4 2f 3d a5 25 e9 3c
       -0.08769275 -0.052057736 0.04295792 0.028460333
0003c0 19 c9 89 bd 13 20 72 bd b5 6c 0a bd 47 60 0e 3c
       -0.067278095 -0.05911262 -0.033795077 0.0086899465
0003d0 c3 60 b8 bc 5b e0 2e bc 07 e8 ba bd 3e 1b 11 be
       -0.022507077 -0.010673608 -0.09126287 -0.14170548
0003e0 38 cb 5e 3d 2a 44 83 bd a9 23 7b bb aa a3 ab bd
       0.054393023 -0.06409486 -0.0038320816 -0.08380826
0003f0 2f 5d 91 bd 6e 46 83 3d b1 74 8b 3d d2 9c 08 be
       -0.070978515 0.06409918 0.068093665 -0.13341072

bias f4 [128]
000000 0b 8c 8f 3c f1 0d d2 3d 73 a0 f7 bd 43 89 42 3d
       0.017522832 0.10256565 -0.1209115 0.047494184
000010 80 81 35 3c 3d e3 2b 3d 24 19 83 bd 44 3e 77 bd
       0.0110782385 0.04196476 -0.064012796 -0.060362116
000020 eb cd c8 3d d7 53 74 3c bc e7 27 3d 0f b1 be 3d
       0.09804901 0.014912567 0.040992483 0.09311115
000030 a6 89 21 3b 3d 87 ee bb f1 b2 bf 3d 32 67 5b 3d
       0.0024648695 -0.0072793053 0.09360302 0.05356521
000040 5a c1 cc 3d b3 13 60 3b 08 3d 81 3d 78 29 16 3e
       0.099978164 0.003419143 0.06310469 0.14664257
000050 f9 6f c3 3b a5 5f 08 3c 9a 61 e2 3d 16 06 1a 3e
       0.005964276 0.008323585 0.11053772 0.15041384
000060 e5 9c 86 3d 4b 8b 17 3e 62 27 8f 3c 1a a1 c0 3d
       0.06572894 0.1479923 0.017474834 0.09405728
000070 6c a8 19 3d 5b f6 09 3c 1d eb 20 3d d3 ea 91 3d
       0.037514135 0.008420552 0.03928672 0.07124867
000080 33 32 5b bd ef 9b d3 3d 61 6d 6b bc e8 73 04 3d
       -0.05351467 0.10332476 -0.01436934 0.0323371
000090 4f e1 22 bd 74 95 cf 3d 2a 85 6d 3d 33 7e 2a 3d
       -0.039765652 0.10135928 0.057988323 0.04162426
0000a0 c5 d4 b7 bc b4 1d 23 bd c5 68 2b bd 1b dc e9 3d
       -0.022440324 -0.03982325 -0.041847963 0.11418935
0000b0 28 57 d3 3d a7 85 e9 3d f7 0b f3 3d 2f ae a2 bd
       0.10319358 0.11402445 0.118675165 -0.07943379
0000c0 d1 27 52 3d 71 e6 76 3d fc ee dc 3d c7 cd 91 3b
       0.051307503 0.06027836 0.1078777 0.0044495794
0000d0 c2 61 cf 3d 43 72 7a 3d 28 4b 18 bd 7d 68 eb 3d
       0.10126068 0.061144125 -0.03718105 0.11494539
0000e0 d5 ff 5c 3d 5d 8c cf 3d 86 e0 d6 3c 46 6c 34 3d
       0.053954918 0.10134194 0.026230108 0.04404857
0000f0 96 a9 bf 3c bb 18 a5 3c 1f 06 0f bd 94 84 45 3d
       0.023396295 0.020153394 -0.034917947 0.04822214
000100 82 8f da bb 91 d0 e6 3c b0 9a 42 3c e9 a9 4c 38
       -0.0066699395 0.028175624 0.011877701 4.879563e-05
000110 77 86 cb 3c bb 4e 17 3e a9 bd 43 bd b1 11 8b bb
       0.024844391 0.14776127 -0.047788296 -0.0042440523
000120 0f 3a 6e 3d 18 95 64 3d 52 af 75 3d 59 a0 86 bd
       0.058160838 0.05580625 0.05998165 -0.06573553
000130 0f e6 9d bc 7e 0c 2f bd f7 a7 b2 3d 97 bc 04 3d
       -0.01927474 -0.042736523 0.08723443 0.032406416
000140 ec f3 14 bd 33 28 0d bd e8 d0 a9 3d 83 3b 92 bd
       -0.036365435 -0.034462165 0.08291799 -0.07140257
000150 09 32 de 3d e5 15 60 3c 8f c6 b4 3c b9 18 d1 bd
       0.10849387 0.013677095 0.022067336 -0.102097936
000160 7e 43 0b bd fc 63 2b 3d ec ab 87 3d 5a e5 3c bd
       -0.033999912 0.0418434 0.06624588 -0.046117164
000170 31 41 8e 3d b6 61 c8 bc f5 83 1a 3d 92 e2 c1 3d
       0.06946028 -0.024460655 0.0377235 0.09467043
000180 fc d5 ed 3c 11 d1 87 3d 14 66 65 3d 5b 20 2d bd
       0.0290327 0.06631673 0.056005552 -0.042267185
000190 04 e1 2f bd a8 fe 55 3d 10 e2 49 bd 4d 42 ec bc
       -0.0429392 0.052244812 -0.049287856 -0.028840208
0001a0 ab 94 ff 3d 81 40 8b bd 5b 13 39 bd 38 29 c9 bd
       0.12479528 -0.067994125 -0.045184474 -0.09822315
0001b0 2a 3d 67 bc 42 59 43 3d 11 3d 9b 3d 21 a5 9f 3b
       -0.014113704 0.047692545 0.07580007 0.00487198
0001c0 41 94 06 be 5a 87 7a bd 96 cf e5 bc 83 2e d2 3d
       -0.13142492 -0.061164238 -0.028053086 0.10262778
0001d0 b3 b2 b7 bc 9a b7 9e 3c 63 b6 21 3d 1c 6c 5b 3d
       -0.022424078 0.019374657 0.03948058 0.053569898
0001e0 a2 db a3 3a 37 24 7a bd 02 ce 39 3d c1 bd 31 bd
       0.0012501369 -0.061069693 0.04536248 -0.043393854
0001f0 ee 33 87 bd 33 b5 e5 3d 4f 86 31 3e be 23 d0 3d
       -0.06601702 0.11216202 0.17336391 0.10163067
