results/model/union_552.model (torch, 686563 bytes, 21 tensors)

weight_ih f4 [384, 5]
-0.23257324 0.10371787 0.11528595 -0.21075095 -0.25985488 -0.12641235 0.012220072 0.13305643
-0.13770764 -0.09675216 0.12456599 0.048108127 -0.052368093 0.054620642 0.12821557 -0.018223317
-0.0408694 -0.044044074 -0.024276344 -0.0954779 0.026616078 0.3597697 -0.16643374 -0.13037425
-0.1592075 -0.18360282 -0.28217575 -0.039948203 -0.07005283 0.4356212 -0.053053197 0.31100556
0.008475254 -0.071117535 0.020509388 -0.105639726 0.086752124 -0.0026552773 -0.055951502 0.07747358
0.031751923 0.22003928 0.263068 0.08201119 0.17012657 0.0080426745 -0.15317523 -0.058679383
-0.035558533 -0.22669438 0.16473402 0.065543525 0.044165816 0.035424545 -0.3021639 -0.101294175
-0.24669929 0.0653035 -0.12683825 -0.2853149 0.06191088 -0.08201195 -0.21521796 -0.008482408
0.07750687 -0.020998571 -0.10653141 -0.09572664 -0.013961395 -0.10528572 0.060818817 -0.14927971
-0.11670094 0.040771678 -0.07274313 -0.18986194 -0.14167649 -0.09097487 -0.11187563 -0.033480864
0.06802551 0.00414636 -0.055369396 0.09809949 -0.34512517 0.08927558 -0.14854118 0.108635455
0.27795866 0.17524087 -0.09948738 0.24663742 0.040325556 -0.14032565 0.056648243 -0.1310406
-0.016306795 -0.1865551 -0.13023658 0.004978979 -0.16553 0.06589045 0.056799617 -0.117596604
-0.0038927519 0.09722825 0.17153159 -0.10373756 0.16815479 0.23907319 0.018815665 0.067320675
-0.13936625 -0.12212723 0.06462915 0.08004015 -0.20277989 -0.08871025 0.090355806 0.1955677
-0.029398736 -0.052873783 0.011590936 -0.01684553 -0.0019996942 -0.17055081 -0.04067951 -0.07171084
-0.07865245 0.2588628 -0.044822466 0.10278618 -0.13147716 -0.05073234 0.10607466 0.062282972
-0.12029476 0.07069922 0.03716826 0.14363188 0.005512755 0.10963709 -0.2027065 -0.03393853
-0.0009280072 0.1404011 0.053690348 -0.089901865 -0.04589058 -0.20941944 -0.13038735 -0.3769493
0.08083116 0.022665408 -0.062253833 -0.023346106 -0.010202867 -0.008960385 0.123795286 0.089831874
0.1089032 0.28315628 0.06909745 -0.07958725 0.08498493 -0.07324899 -0.009351717 -0.060050476
-0.060084417 -0.24637082 0.20576164 0.01688689 0.060434807 -0.06490361 -0.11563724 -0.07772774
0.21712026 -0.04330658 -0.10832886 -0.0815283 0.08166333 0.16834474 -0.10359594 0.026887607
0.009030702 -0.19236529 0.110193424 -0.043968804 0.14347975 -0.4245133 0.1801002 0.19128563
-0.013872044 0.1142261 0.10690286 -0.042107508 0.1576358 0.12674257 -0.12860015 -0.29571193
-0.010537769 0.14689463 -0.037568666 0.024336334 0.09571303 -0.03682542 0.017779153 -0.10255746
-0.035571415 0.011457696 0.042501476 0.010349468 -0.058408555 0.08782862 0.023673406 0.058893505
0.2248471 -0.030972447 0.04998266 0.25660163 -0.09960755 0.23745044 0.0048761396 -0.015484978
-0.15976995 0.17282267 0.054096274 -0.19297531 0.074728616 -0.19767727 0.053023797 0.00929782
0.058559224 0.028738765 -0.02004762 0.12151997 0.21773906 -0.035689734 0.0879744 -0.32187536
-0.07610874 0.09465804 0.07707529 -0.15902616 0.0122156115 -0.022050189 -0.16485153 -0.054528296
-0.042679284 -0.083627425 0.044900116 0.052663974 0.0073051862 0.023237662 -0.26961333 -0.08946517
00000000: ae27 6ebe 096a d43d 0a1b ec3d 19cf 57be
00000010: b30b 85be 3d72 01be b236 483c f23f 083e
00000020: 3b03 0dbe ff25 c6bd 741c ff3d 070d 453d
00000030: ed7f 56bd e5b9 5f3d f14a 033e 1149 95bc
00000040: ac66 27bd 8f67 34bd 2fdf c6bc eb89 c3bd
00000050: f609 da3c bc33 b83e 9b6d 2abe d480 05be
00000060: 4a07 23be 6102 3cbe 5779 90be baa0 23bd
00000070: dc77 8fbd be09 df3e 4f4e 59bd 1f3c 9f3e
00000080: cbdb 0a3c 12a6 91bd 4e03 a83c a459 d8bd
00000090: 19ab b13d 2904 2ebb 672d 65bd 78aa 9e3d
000000a0: 4e0e 023d fa51 613e d9b0 863e 7cf5 a73d
000000b0: a935 2e3e 6cc5 033c f8d9 1cbe cb59 70bd
000000c0: d3a5 11bd 9222 68be 09b0 283e af3b 863d
000000d0: 37e7 343d 5419 113d 3ab5 9abe 5273 cfbd
000000e0: bd9e 7cbe d7bd 853d e3e1 01be cb14 92be
000000f0: 4396 7d3d e2f5 a7bd 1962 5cbe ccf9 0abc
00000100: ecbb 9e3d 3205 acbc 242d dabd 540c c4bd
00000110: 56be 64bc 0aa0 d7bd 271d 793d c8dc 18be
00000120: e700 efbd 3400 273d 5afa 94bd 2b6b 42be
00000130: a413 11be 0851 babd 0d1f e5bd 3b23 09bd
00000140: f550 8b3d 30de 873b 05cb 62bd 63e8 c83d
00000150: 3fb4 b0be 1ed6 b63d 2e1b 18be 447c de3d
00000160: 9950 8e3e 5872 333e 0ac0 cbbd 858e 7c3e
00000170: 692c 253d 87b1 0fbe fd07 683d 822f 06be
00000180: d495 85bc 4d08 3fbe bd5c 05be b426 a33b
00000190: b280 29be 92f1 863d b7a6 683d 7dd6 f0bd
000001a0: 8a1d 7fbb 9b1f c73d faa5 2f3e 5c74 d4bd
000001b0: c530 2c3e 9acf 743e 4f23 9a3c 6cdf 893d
000001c0: 07b6 0ebe d71d fabd 4a5c 843d 17ec a33d
000001d0: 88a5 4fbe b8ad b5bd 770c b93d e642 483e
000001e0: 9ed5 f0bc 2e92 58bd e9e7 3d3c a3ff 89bc
000001f0: 4d0d 03bb dfa4 2ebe 8f9f 26bd 22dd 92bd
00000200: 8914 a1bd aa89 843e c397 37bd 9081 d23d
00000210: f3a1 06be b7cc 4fbd ac3d d93d 6e1c 7f3d
00000220: 195d f6bd c1ca 903d bf3d 183d 3c14 133e
00000230: 57a4 b43b 6989 e03d 4b92 4fbe 2103 0bbd
00000240: 8245 73ba 4ec5 0f3e 69ea 5b3d 781e b8bd
00000250: c3f7 3bbd 0d72 56be 4384 05be 80ff c0be
00000260: cf8a a53d ceac b93c e0fd 7ebd 5540 bfbc
00000270: ed29 27bc 94ce 12bc 6288 fd3d c6f9 b73d
00000280: a408 df3d dcf9 903e f782 8d3d a4fe a2bd
00000290: 940c ae3d 9103 96bd f237 19bc 7df7 75bd
000002a0: 141b 76bd a248 7cbe 2eb3 523e 6056 8a3c
000002b0: 7d8a 773d 2fec 84bd 38d3 ecbd b92f 9fbd
000002c0: c654 5e3e 3e62 31bd 85db ddbd 4ff8 a6bd
000002d0: 1b3f a73d 9062 2c3e 1c2a d4bd 6643 dc3c
000002e0: 82f5 133c 68fb 44be 17ad e13d a218 34bd
000002f0: 5bec 123e cf59 d9be 306c 383e 61e0 433e
00000300: 9247 63bc 60ef e93d e3ef da3d ec78 2cbd
00000310: 476b 213e cec8 013e c2af 03be 8e67 97be
00000320: 9ba6 2cbc 8c6b 163e 9ae1 19bd fe5c c73c
00000330: 3105 c43d 40d6 16bd 96a5 913c a509 d2bd
00000340: 55b3 11bd 0fb9 3b3c 0716 2e3d d190 293c
00000350: cf3d 6fbd 7edf b33d bbee c13c 513a 713d
00000360: 513e 663e eeb9 fdbc 9eba 4c3d 4a61 833e
00000370: 0bff cbbd 3526 733e 06c8 9f3b b5b4 7dbc
00000380: bc9a 23be 6df8 303e 0e94 5d3d 529b 45be
00000390: 510b 993d e96b 4abe 7b2f 593d e255 183c
000003a0: ccdb 6f3d 8f6d eb3c e83a a4bc 76df f83d
000003b0: fdf6 5e3e 662f 12bd ec2b b43d d9cc a4be
000003c0: e6de 9bbd 13dc c13d a6d9 9d3d c1d7 22be
000003d0: fd23 483c 99a2 b4bc d7ce 28be 1059 5fbd
000003e0: 79d0 2ebd db44 abbd 2fe9 373d 2eb6 573d
000003f0: 5860 ef3b e95c be3c c20a 8abe 8439 b7bd

weight_hh f4 [384, 128]
0.139263 0.057052758 0.10726358 0.040505096 0.21170308 0.089459814 0.08825681 -0.06595111
-0.12929362 -0.114081725 0.026522012 0.024579694 -0.13493231 -0.09066627 -0.0898113 0.22209431
-0.14404616 0.05761159 0.15646395 -0.113428235 0.007967344 -0.23580194 -0.19565421 -0.029226877
0.0015600972 -0.06605778 -0.08982476 0.08634816 -0.12015338 0.030097788 0.081235945 -0.0457382
0.26488078 -0.07867171 0.10939971 -0.07774651 0.0173442 -0.031963874 -0.20701975 0.20623532
0.15229109 -0.06756949 -0.12277808 0.019728461 0.09016341 0.00038296898 -0.0028550474 0.043263685
0.034630515 -0.1969493 0.21497549 -0.029502794 -0.0006766138 0.074017696 0.23024993 0.24063775
0.13284262 0.09813648 0.006222311 -0.11254502 -0.06988546 0.02399889 -0.121704265 0.038125623
0.06863627 0.14508456 -0.09069483 -0.10966597 -0.3274613 0.102387644 -0.060665682 -0.16197897
0.013749366 0.14188024 0.27768514 0.04161529 -0.039829228 0.085522525 0.05763241 0.073092975
0.24305663 -0.09724433 0.18150614 0.10129958 -0.070074596 -0.050073113 0.023031492 -0.051029123
0.07782517 0.105754726 0.020555088 0.025252992 0.0676249 0.060076643 -0.072332576 0.07215177
-0.10140622 -0.09810551 -0.1744248 -0.15909006 -0.1252891 -0.16032988 -0.06840164 0.09622777
-0.009646483 -0.23311193 -0.02514318 -0.020499138 0.024659831 0.0944362 0.044057645 -0.004902058
-0.060938075 -0.014229315 0.08879895 0.056555387 0.17853966 0.032996684 0.034011528 -0.05547278
-0.17528301 -0.17814934 -0.02044815 0.019602155 -0.050190747 -0.018577827 0.039467085 -0.22756286
0.021297844 -0.23092568 0.009857461 -0.12275535 -0.08815059 -0.23024653 0.15400855 -0.21779199
0.110167496 0.1369695 0.22080511 0.12280622 -0.06688076 -0.10093039 0.14544936 0.16129528
0.12570135 0.05159162 -0.038269658 0.07673915 -0.03251913 0.099497795 -0.09282488 -0.015885206
0.22749647 0.04820326 -0.047012843 0.10106349 -0.07216162 -0.055144746 0.015376536 -0.14652035
-0.00080299424 0.3124708 -0.37930766 0.33410585 -0.04691277 0.020511676 0.09746138 0.072587565
-0.065366715 -0.04314113 -0.007953307 -0.089335255 0.1399296 -0.1116247 -0.012801253 -0.040241104
0.037765477 -0.10836645 0.09569401 -0.021663168 -0.019704979 0.07910234 0.029677154 0.06039878
-0.27103907 -0.105232954 0.097700045 -0.20954238 0.021626519 -0.18157025 0.24603859 -0.24858989
0.14341559 0.010138123 0.16657116 0.06550667 -0.040265072 0.13559791 0.28746086 -0.061915133
0.17746693 -0.04583969 -0.25201574 0.11628774 0.19771661 0.068477295 -0.010368702 -0.32737172
-0.25818452 0.007768625 0.048869018 -0.099097155 0.05758407 0.017486395 -0.15652342 -0.18578264
0.107031345 -0.050312918 -0.08805589 0.06834092 -0.11952049 -0.12148659 0.16807565 0.09453353
-0.14381169 0.039154805 -0.19824596 0.057957113 0.04254433 -0.064328685 0.025923112 0.098420694
0.008612508 0.18935843 0.075936235 0.014758303 0.10269285 0.002030114 -0.036798976 -0.3593779
-0.15406612 0.036082532 0.010380072 0.03905429 -0.08545843 0.0010554228 -0.057155944 0.1324059
-0.02816756 -0.1920826 0.06857011 -0.04058139 0.11416303 -0.044831358 0.20947038 -0.06195784
00000000: f69a 0e3e 27b0 693d 02ad db3d ace8 253d
00000010: b1c8 583e b536 b73d fdbf b43d 6011 87bd
00000020: 8c65 04be aea3 e9bd b144 d93c 5b5b c93c
00000030: b22b 0abe 3daf b9bd fdee b7bd b16c 633e
00000040: d680 13be 21fa 6b3d 1638 203e 104d e8bd
00000050: 7689 023c 1076 71be 9459 48be 346d efbc
00000060: 2d7c cc3a 4d49 87bd 0bf6 b7bd 4ed7 b03d
00000070: fa12 f6bd a38f f63c 085f a63d fb57 3bbd
00000080: 749e 873e a21e a1bd f50c e03d 9039 9fbd
00000090: 6c15 8e3c 8dec 02bd fcfc 53be 5a2f 533e
000000a0: 32f2 1b3e df61 8abd 1373 fbbd 959d a13c
000000b0: 98a7 b83d 3ac9 c839 bf1b 3bbb 4335 313d
000000c0: bad8 0d3d 14ad 49be 8922 5c3e d8af f1bc
000000d0: c95e 31ba 9796 973d a3c6 6b3e be69 763e
000000e0: e507 083e c7fb c83d 87e4 cb3b 017e e6bd
000000f0: 1c20 8fbd 5299 c43c 1640 f9bd 9d29 1c3d
00000100: 2c91 8c3d 0c91 143e 36be b9bd 8d98 e0bd
00000110: 02a9 a7be 9db0 d13d 947c 78bd d1dd 25be
00000120: 0545 613c 0e49 113e bf2c 8e3e cb74 2a3d
00000130: f923 23bd 6f26 af3d f60f 6c3d c5b1 953d
00000140: d6e3 783e 0928 c7bd bfdc 393e 2776 cf3d
00000150: 4583 8fbd 7719 4dbd 8aac bc3c ea03 51bd
00000160: cd62 9f3d ef95 d83d 2563 a83c 5ddf ce3c
00000170: ec7e 8a3d ed12 763d 1a23 94bd 4fc4 933d
00000180: 10ae cfbd 8beb c8bd 6a9c 32be 81e8 22be
00000190: c94b 00be 842d 24be 2916 8cbd 1113 c53d
000001a0: 480c 1ebc e5b4 6ebe 12f9 cdbc cfed a7bc
000001b0: 6a03 ca3c c467 c13d ca75 343d 71a1 a0bb
000001c0: 349a 79bd 1322 69bc 39dc b53d 9fa6 673d
000001d0: 1ad3 363e 8827 073d ac4f 0b3d 6d37 63bd
000001e0: 647d 33be c86c 36be e182 a7bc b394 a03c
000001f0: d094 4dbd 8730 98bc 3da8 213d 3d06 69be
00000200: d178 ae3c c877 6cbe 3081 213c 2867 fbbd
00000210: 4c88 b4bd bfc5 6bbe 6bb4 1d3e dd04 5fbe
00000220: 7f9f e13d bc41 0c3e bc1a 623e d481 fb3d
00000230: c8f8 88bd 98b4 cebd adf0 143e 972a 253e
00000240: dbb7 003e bc51 533d a5c0 1cbd 6a29 9d3d
00000250: c732 05bd 80c5 cb3d f81a bebd b121 82bc
00000260: d6f4 683e c870 453d 8a90 40bd 60fa ce3d
00000270: 79c9 93bd 75df 61bd deed 7b3c 6e09 16be
00000280: 0880 52ba 2cfc 9f3e 9d34 c2be ec0f ab3e
00000290: 9b27 40bd 1a08 a83c d599 c73d caa8 943d
000002a0: fcde 85bd c1b4 30bd 964e 02bc 67f5 b6bd
000002b0: b449 0f3e 7e9b e4bd 59bc 51bc dbd3 24bd
000002c0: f9af 1a3d 3bef ddbd 39fb c33d f576 b1bc
000002d0: 566c a1bc 6800 a23d 811d f33c b664 773d
000002e0: a2c5 8abe 6084 d7bd f616 c83d 4792 56be
000002f0: 192a b13c 8ded 39be 8af1 7b3e 598e 7ebe
00000300: 89db 123e 5f1a 263c a191 2a3e 5c28 863d
00000310: fdec 24bd 2eda 0a3e 122e 933e b99a 7dbd
00000320: e4b9 353e 66c2 3bbd 3508 81be 4428 ee3d
00000330: 3976 4a3e d33d 8c3d 7de1 29bc 449d a7be
00000340: c330 84be f38f fe3b e12a 483d 73f3 cabd
00000350: 46dd 6b3d a13f 8f3c ad47 20be ce3d 3ebe
00000360: 4033 db3d eb14 4ebd a556 b4bd 53f6 8b3d
00000370: 29c7 f4bd f6cd f8bd 061c 2c3e cc9a c13d
00000380: 5f43 13be ca60 203d fd00 4bbe 7064 6d3d
00000390: f742 2e3d c2be 83bd b55c d43c ca90 c93d
000003a0: 7a1b 0d3c 2de7 413e 7584 9b3d cfcc 713c
000003b0: a150 d23d a90b 053b 86ba 16bd 6100 b8be
000003c0: 82c3 1dbe 47cb 133d 2d11 2a3c 64f7 1f3d
000003d0: d404 afbd 1d56 8a3a 5a1c 6abd 6a95 073e
000003e0: a8bf e6bc 4db1 44be 7c6e 8c3d ac38 26bd
000003f0: 4fce e93d 16a1 37bd 677f 563e 81c7 7dbd

bias_ih f4 [384]
-0.14181069 -0.061076906 -0.002012679 0.018457523 0.00485339 -0.034821264 0.04081264 -0.046287145
0.09777382 0.06603808 0.017756222 -0.12312206 -0.052338783 0.00059002335 -0.0009703409 -0.10012533
0.104995 0.15550533 -0.18809968 -0.16573133 -0.201239 0.15569837 -0.0131659275 0.21430945
-0.02588511 -0.061794754 0.023677416 0.050372854 -0.0375293 -0.03531688 0.038359724 0.14059345
-0.09008954 0.046173703 -0.014319727 -0.012362178 0.07909258 0.00028550037 -0.02707656 -0.1184195
0.053862892 -0.15962885 0.17633775 0.033346914 0.04347525 0.13607652 -0.012025902 0.08431125
-0.0030728173 -0.13686556 -0.018474244 -0.11187747 0.07813446 -0.0864394 -0.09538777 0.041787088
0.07905485 0.14487316 -0.03792996 0.012057583 0.01672057 -0.11901129 0.033716112 -0.077133164
-0.09300206 -0.11028354 -0.0843549 0.056979727 -0.008627743 -0.04265888 -0.10952489 0.055315673
0.0073388615 0.15949434 0.063961305 -0.036656134 -0.13282804 0.08058006 -0.09100211 -0.059282072
0.055350035 0.06421313 -0.08669929 -0.05753928 -0.018576149 -0.102202795 0.07338273 -0.06291922
0.005343177 0.09049803 -0.027365703 -0.07565807 0.10401299 0.024266563 0.002945011 -0.074259765
-0.07639082 0.13154711 -0.12124226 -0.113195434 0.09022584 -0.049875725 0.01990868 0.089780554
-0.02920743 0.0632227 -0.026694164 -0.0720539 -0.065800466 -0.13746257 0.09576113 -0.15358698
-0.12738848 -0.03916037 -0.053895906 0.09213938 -0.04631154 0.09141876 -0.19379517 -0.12426532
0.17973667 -0.017539423 0.04278651 -0.117248744 0.028114758 0.012517825 0.11319626 -0.013897747
-0.0751515 -0.20109099 -0.08607862 0.0074692853 0.049085923 -0.07928747 -0.07794742 -0.0032495228
-0.1878978 -0.2747081 -0.2845002 0.09182484 -0.08397953 0.20319478 -0.1031387 -0.18788378
-0.42440563 -0.2864651 0.04527451 -0.027573949 -0.048911564 -0.008253583 -0.035314526 -0.13044073
0.014834175 0.012272317 0.035191618 -0.04548817 0.00024149728 -0.044910867 -0.1299343 -0.11491491
-0.02884235 -0.22924584 -0.17088613 -0.14641511 0.040208444 0.021097265 -0.06188667 0.09958081
0.13336357 0.025886036 -0.1670303 0.07764715 0.15171903 0.1610643 0.021242987 -0.20122382
-0.18280654 -0.0933219 0.06327277 -0.00919889 0.09567112 -0.20361222 -0.05719292 -0.074866995
0.08729897 -0.09799927 -0.06998572 0.15306391 -0.1844765 0.020633824 0.116931625 -0.021755576
0.16265593 -0.060055897 -0.05755129 0.07908249 0.13639292 -0.10460429 -0.07636283 -0.14004488
0.03143327 0.013052896 0.024373377 -0.026401203 0.13981898 0.04438995 -0.078190625 -0.06254296
0.027933192 -0.2554949 -0.2055638 0.08013666 -0.0811656 0.06017781 0.024416028 0.01285489
-0.27325416 -0.2018963 0.05504479 0.12530911 -0.0448658 0.1417513 -0.07312786 0.0020093261
0.007919883 -0.09557986 0.13760714 0.07324562 -0.17511415 -0.09432218 -0.114556804 -0.004502288
-0.17713703 -0.09088332 0.005709655 -0.102093354 -0.0679228 -0.027121834 -0.017618446 -0.09647858
0.1385699 0.038313337 -0.17727935 -0.3522208 -0.06703018 -0.035338905 0.19719404 -0.12337813
0.035749048 -0.22110832 0.09260737 0.009155628 0.08903742 -0.21841681 -0.07578154 0.026514301
00000000: d236 11be c72b 7abd 26e7 03bb 3b34 973c
00000010: 3009 9f3b bea0 0ebd 282b 273d 9797 3dbd
00000020: a43d c83d f93e 873d 7f75 913c 6b27 fcbd
00000030: 3161 56bd ccab 1a3a 7a5e 7eba 820e cdbd
00000040: 9e07 d73d ca3c 1f3e 349d 40be 79b5 29be
00000050: 9911 4ebe 656f 1f3e e7b5 57bc f073 5b3e
00000060: 030d d4bc 7f1c 7dbd 24f7 c13c c453 4e3d
00000070: 53b8 19bd 6fa8 10bd 161f 1d3d bbf7 0f3e
00000080: dd80 b8bd a320 3d3d 4a9d 6abc bc8a 4abc
00000090: 4afb a13d 36af 9539 a9cf ddbc ec85 f2bd
000000a0: 569f 5c3d bf75 23be e291 343e c696 083d
000000b0: 1b13 323d a557 0b3e 4a08 45bc 60ab ac3d
000000c0: 5261 49bb 7c26 0cbe 4c57 97bc 0420 e5bd
000000d0: f604 a03d 2407 b1bd aa5a c3bd f028 2b3d
000000e0: 82e7 a13d a159 143e 725c 1bbd 2b8d 453c
000000f0: 94f9 883c 31bc f3bd e819 0a3d fef7 9dbd
00000100: dd77 bebd 56dc e1bd 43c2 acbd 9363 693d
00000110: 615b 0dbc 14bb 2ebd 964e e0bd b092 623d
00000120: d57a f03b 7c52 233e 25fe 823d be24 16bd
00000130: 1304 08be 2907 a53d 505f babd c2d1 72bd
00000140: b8b6 623d 2c82 833d 668f b1bd 4fae 6bbd
00000150: 022d 98bc b34f d1bd af49 963d cbdb 80bd
00000160: d115 af3b 0857 b93d 0a2e e0bc 9ef2 9abd
00000170: c304 d53d acca c63c 1601 413b 8115 98bd
00000180: ca72 9cbd 49b4 063e dd4d f8bd 02d3 e7bd
00000190: 53c8 b83d 7d4a 4cbd 8717 a33c dede b73d
000001a0: 6c44 efbc e77a 813d b8ad dabc ff90 93bd
000001b0: 65c2 86bd fdc2 0cbe 691e c43d e845 1dbe
000001c0: 2072 02be a066 20bd f4c1 5cbd 92b3 bc3d
000001d0: 2bb1 3dbd c239 bb3d 3e72 46be d17e febd
000001e0: e40c 383e d6ae 8fbc e840 2f3d 1c20 f0bd
000001f0: ec50 e63c 9017 4d3c 71d3 e73d 60b3 63bc
00000200: 08e9 99bd ccea 4dbe fd49 b0bd e8c0 f43b
00000210: 520e 493d 7861 a2bd e6a2 9fbd f2f5 54bb
00000220: 4868 40be 8aa6 8cbe 03aa 91be a90e bc3d
00000230: 76fd abbd 4b12 503e 623a d3bd 9b64 40be
00000240: b24b d9be 8eab 92be c471 393d c3e2 e1bc
00000250: 7e57 48bd 093a 07bc f7a5 10bd 4192 05be
00000260: 0a0b 733c d411 493c 1625 103d ce51 3abd
00000270: 6f3a 7d39 75f4 37bd 7f0d 05be 8258 ebbd
00000280: cb46 ecbc 6cbf 6abe c6fc 2ebe d8ed 15be
00000290: 9cb1 243d 2cd4 ac3c e07c 7dbd 06f1 cb3d
000002a0: 7690 083e f40e d43c fe09 2bbe 7805 9f3d
000002b0: 3c5c 1b3e 0aee 243e c605 ae3c 9e0d 4ebe
000002c0: a331 3bbe 8d1f bfbd 2795 813d f1b6 16bc
000002d0: 38ef c33d b97f 50be 2043 6abd de53 99bd
000002e0: cdc9 b23d d7b3 c8bd ac54 8fbd c9bc 1c3e
000002f0: 68e7 3cbe 4408 a93c d979 ef3d c038 b2bc
00000300: 478f 263e 2cfd 75bd e7ba 6bbd 00f6 a13d
00000310: 96aa 0b3e c63a d6bd 1e64 9cbd ed67 0fbe
00000320: 2cc0 003d d0db 553c adaa c73c 5647 d8bc
00000330: b52c 0f3e 3cd2 353d 6822 a0bd 8616 80bd
00000340: 26d4 e43c 3ad0 82be 517f 52be b01e a43d
00000350: 263a a6bd 027d 763d 1f04 c83c 519d 523c
00000360: f8e7 8bbe e7bd 4ebe a576 613d 0851 003e
00000370: 33c5 37bd 4127 113e 0fc4 95bd e6ae 033b
00000380: 66c2 013c 60bf c3bd e3e8 0c3e cd01 963d
00000390: 2051 33be fd2b c1bd c29c eabd ee87 93bb
000003a0: 6963 35be 0921 babd 0f18 bb3b 5216 d1bd
000003b0: 1c1b 8bbd 9c2e debc 8f54 90bc 9096 c5bd
000003c0: 45e5 0d3e 72ee 1c3d b888 35be 4956 b4be
000003d0: 1e47 89bd 87bf 10bd 3ced 493e acad fcbd
000003e0: 986d 123d 386a 62be efa8 bd3d 7d01 163c
000003f0: 4059 b63d a8a8 5fbe 5a33 9bbd 8534 d93c

bias_hh f4 [384]
-0.23435017 -0.0646942 0.027366593 -0.0095776925 -0.12210211 0.026386287 0.04560886 -0.050156835
0.13879646 0.08125994 0.10437404 -0.09850071 0.093734615 0.003741912 0.004933435 -0.075298026
-0.036140587 0.1518329 -0.073959544 -0.08965285 -0.10541888 0.024095997 -0.024578616 0.18218815
-0.028249396 -0.003914255 0.07583145 -0.040071707 -0.024269572 -0.050143767 0.0820591 0.12669131
-0.08241302 0.08899444 -0.15874234 0.0006629681 0.043261714 0.13460927 0.1423424 -0.08746495
0.07267508 -0.06371266 0.09138234 0.034117654 0.16467123 0.061831173 0.038410917 0.021641508
-0.013934458 -0.0056496216 -0.09175957 -0.11718085 0.034651063 -0.0043411455 -0.093364365 -0.0015528062
0.07814279 0.042359833 -0.102780014 -0.030994454 0.083368376 -0.0056089466 0.0067891316 -0.074208386
0.03201112 -0.120253086 -0.06658272 0.088444225 0.0027871027 -0.06512928 0.045836955 0.045950722
0.04969763 0.14562249 0.042498052 0.030043937 -0.051999263 0.052436344 -0.106230676 0.048999865
0.13604139 0.09936449 -0.15875915 0.028352058 0.004706505 -0.08957628 0.013691249 -0.1437609
-0.08040788 0.038748946 0.09874413 0.05503615 0.118747026 0.05951936 0.097161 -0.010362248
0.010518196 0.04707308 -0.051714897 0.00476782 0.006827446 -0.049959034 0.030946393 0.16142902
-0.03424246 0.07164976 -0.03324326 -0.045480743 -0.10348534 -0.18688075 -0.0054927985 -0.11382037
-0.10111771 -0.017546063 -0.041827563 -0.05631455 -0.073100545 0.048156958 -0.12531202 -0.15483046
0.11530736 -0.05886534 0.007665128 -0.038303573 -0.03116871 0.010965912 0.11122918 -0.08307978
-0.016072527 -0.22632574 -0.11675976 -0.12537715 -0.074505314 -0.053337928 -0.11954221 -0.01676326
-0.14626153 -0.18424326 -0.28018314 0.05978724 -0.1629385 0.052728646 -0.14352709 -0.27548015
-0.39240736 -0.21841916 0.037744936 -0.015081482 -0.029317638 -0.0152098 0.108060285 -0.14615893
0.14509133 -0.025182879 0.116521575 -0.057176203 0.078052655 -0.052642982 -0.24475458 -0.03488024
-0.139495 -0.2973542 -0.27910474 -0.12421009 0.10485478 -0.041396905 -0.028813839 0.056833245
0.14692684 0.056412503 -0.07561264 -0.022540526 0.07470386 0.07507519 0.15313245 -0.13411163
-0.116361976 -0.13923869 0.015261535 0.019392671 0.10440909 -0.17011532 0.009633475 -0.20004469
0.037222296 -0.05949654 -0.054614823 0.15228157 -0.17153452 0.12932685 0.027353123 -0.11712705
0.19242841 -0.12958676 -0.15511495 -0.02182025 0.16872 0.060964797 -0.09633125 -0.05786675
0.024495948 0.06006395 0.024957668 0.10816441 -0.011459654 0.14019607 -0.009127247 0.017208735
-0.0038096749 -0.27725273 -0.11772134 0.08938165 -0.077094235 0.058256757 -0.06814149 -0.10308041
-0.15766864 -0.19577576 0.089403324 0.13549295 0.024641339 0.063995026 -0.13621294 0.075123474
-0.037098035 -0.23025256 0.05470804 0.055272512 -0.15991348 0.023802962 -0.16068995 -0.08137465
-0.118968144 0.04490127 -0.049628 0.015897445 0.0032282898 -0.06147101 -0.098251715 -0.11045655
0.17940469 0.1378273 -0.07704355 -0.37702796 -0.06511934 -0.07175954 0.08968099 -0.06775962
0.00782889 -0.34218338 0.07504846 0.07751179 0.08509871 -0.13317576 -0.08946497 -0.048367374
00000000: 7ef9 6fbe 657e 84bd e82f e03c c1eb 1cbc
00000010: ac10 fabd 0e28 d83c 5bd0 3a3d 4171 4dbd
00000020: a920 0e3e 9d6b a63d 0fc2 d53d beba c9bd
00000030: eff7 bf3d de3a 753b a7a8 a13b da35 9abd
00000040: 2708 14bd 157a 1b3e 1a78 97bd ea9b b7bd
00000050: dbe5 d7bd f864 c53c 1859 c9bc 888f 3a3e
00000060: 476b e7bc 2743 80bb 854d 9b3d 3b22 24bd
00000070: fbd0 c6bc 8d63 4dbd 9a0e a83d 5ebb 013e
00000080: 28c8 a8bd b842 b63d 5a8d 22be 09cb 2d3a
00000090: 3233 313d 03d7 093e 35c2 113e d320 b3bd
000000a0: acd6 943d c87b 82bd aa26 bb3d f4be 0b3d
000000b0: 939f 283e af42 7d3d c454 1d3d 8849 b13c
000000c0: 5a4d 64bc 7620 b9bb 71ec bbbd 83fc efbd
000000d0: 46ee 0d3d 2b40 8ebb d135 bfbd 8887 cbba
000000e0: 5409 a03d 8181 2d3d 547e d2bd 15e8 fdbc
000000f0: 0abd aa3d 41cb b7bb 5d77 de3b 91fa 97bd
00000100: 181e 033d 4047 f6bd 855c 88bd 3f22 b53d
00000110: d3a7 363b 8062 85bd 88bf 3b3d d336 3c3d
00000120: be8f 4b3d 101e 153e 7012 2e3d b41e f63c
00000130: 2efd 54bd 7ec7 563d 788f d9bd 15b4 483d
00000140: 6f4e 0b3e 9c7f cb3d c291 22be 9342 e83c
00000150: 0739 9a3b c573 b7bd 4351 603c 0f36 13be
00000160: e3ac a4bd 37b7 1e3d 5d3a ca3d 966d 613d
00000170: a431 f33d 93ca 733d 59fc c63d 6bc6 29bc
00000180: 8354 2c3c b4cf 403d 00d3 53bd 5f3b 9c3b
00000190: c5b8 df3b d8a1 4cbd 4a83 fd3c a64d 253e
000001a0: d241 0cbd 1cbd 923d 162a 08bd 044a 3abd
000001b0: 1ff0 d3bd ab5d 3fbe effc b3bb a71a e9bd
000001c0: cd16 cfbd c3bc 8fbc 6153 2bbd 16aa 66bd
000001d0: bdb5 95bd 3b40 453d cb51 00be e08b 1ebe
000001e0: 4426 ec3d c81c 71bd c12b fb3b 35e4 1cbd
000001f0: 8655 ffbc 5eaa 333c 20cc e33d bb25 aabd
00000200: 88aa 83bc efc1 67be be1f efbd de62 00be
00000210: 3e96 98bd df78 5abd 8cd2 f4bd 1b53 89bc
00000220: 95c5 15be 44aa 3cbe 2a74 8fbe 77e3 743d
00000230: 5ad9 26be fef9 573d c4f8 12be bc0b 8dbe
00000240: 9ee9 c8be 46a9 5fbe 6f9a 1a3d 5218 77bc
00000250: 8b2b f0bc 8632 79bc b64e dd3d b0aa 15be
00000260: d292 143e 534c cebc dda2 ee3d 9831 6abd
00000270: 12da 9f3d 2ba0 57bd f2a0 7abe 95de 0ebd
00000280: c7d7 0ebe cf3e 98be d1e6 8ebe dc61 febd
00000290: 1abe d63d cd8f 29bd 000b ecbc fac9 683d
000002a0: fd73 163e cc10 673d cdda 9abd e9a6 b8bc
000002b0: 56fe 983d 05c1 993d c1ce 1c3e 8f54 09be
000002c0: 304f eebd 9694 0ebe 840b 7a3c 61dd 9e3c
000002d0: 6fd4 d53d b632 2ebe b9d5 1d3c 84d8 4cbe
000002e0: 6876 183d a5b2 73bd cbb3 5fbd b3ef 1b3e
000002f0: bfa6 2fbe 426e 043e a813 e03c 4fe0 efbd
00000300: f40b 453e 64b2 04be 74d6 1ebe 62c0 b2bc
00000310: f0c4 2c3e 39b6 793d 5249 c5bd af05 6dbd
00000320: baab c83c 9e05 763d 0674 cc3c 4d85 dd3d
00000330: 46c1 3bbc 8f8f 0f3e 738a 15bc 55f9 8c3c
00000340: bdab 79bb 12f4 8dbe e317 f1bd ba0d b73d
00000350: 95e3 9dbd a39e 6e3d c48d 8bbd d21b d3bd
00000360: e373 21be 7179 48be 1719 b73d aabe 0a3e
00000370: a2dc c93c d30f 833d 687b 0bbe 56da 993d
00000380: 1cf4 17bd 54c7 6bbe 8a15 603d 6e65 623d
00000390: 5cc0 23be 6efe c23c e88b 24be c1a7 a6bd
000003a0: 92a5 f3bd 65ea 373d bb46 4bbd 5c3b 823c
000003b0: b791 533b 07c9 7bbd 3238 c9bd 0b37 e2bd
000003c0: ddb5 373e 9a22 0d3e 02c9 9dbd cf09 c1be
000003d0: 4a5d 85bd aaf6 92bd abaa b73d 8ec5 8abd
000003e0: bf44 003c a932 afbe 02b3 993d 80be 9e3d
000003f0: 3c48 ae3d 3a5f 08be 6939 b7bd de1c 46bd

weight f4 [128, 128]
-0.047367897 -0.03579819 -0.103139766 0.117928974 0.19103192 0.21584408 0.046960954 -0.050481264
-0.07251206 0.07963757 -0.015375928 0.16984457 -0.11508022 -0.0141963605 -0.086513326 -0.18516952
-0.0013128417 0.1344609 0.05219926 0.030653477 -0.15667103 -0.22682056 -0.10923135 -0.22343779
0.055149306 -0.028574783 0.13408774 0.040198546 -0.06578288 0.025020963 0.06314324 -0.12453037
0.06261844 0.27865943 -0.09686543 -0.07566049 -0.03925359 -0.038837645 -0.27369797 -0.117139846
0.08702504 -0.018001577 0.12413989 0.14673 0.18566425 0.047523715 0.21309268 -0.034183025
0.037140246 0.08902556 0.23544471 -0.037867554 0.0012341402 0.2381063 -0.022894438 0.015822109
-0.070222646 0.5293418 -0.064423114 -0.05162251 -0.2096701 0.05392759 -0.045448363 -0.0028219873
0.11216512 0.029201189 -0.25228688 -0.048110794 0.0015914473 0.03783167 0.052685525 -0.032921787
-0.06469097 -0.0022104539 -0.019439254 0.026530536 -0.071904145 0.06609112 0.08231149 0.1354036
-0.18448119 -0.14857472 -0.10322021 0.20925856 0.009830438 0.005982418 0.0045248764 -0.051617797
0.13547066 -0.03970149 -0.030685823 -0.0029304333 0.12081026 0.05242106 0.097268164 -0.031360224
0.07534623 0.05177733 0.038124368 0.003965933 -0.20812638 0.083365716 0.05996344 0.18341814
0.0017188982 -0.16634487 -0.06703278 0.020596942 0.005649055 0.027399398 0.015807131 -0.0372498
-0.046791792 -0.055041324 0.12981904 -0.04538414 0.018230347 0.042499207 -0.07446953 0.06758203
0.083980806 0.2494454 0.18183412 -0.017584864 0.06794003 0.15642445 -0.13135125 -0.12501869
0.08739158 -0.09935976 -0.036746703 -0.15221587 -0.009422551 -0.13165453 -0.00017292103 0.00931866
-0.048424676 -0.14317544 -0.07980896 0.10560931 -0.06930124 0.0043155514 0.04564571 -0.077528484
-0.06077445 -0.1070551 -0.1207456 -0.058940385 0.05719001 -0.014709867 0.010732421 -0.033275053
-0.024335118 0.056040134 0.019813957 0.24269237 0.041149575 0.05621016 0.08087915 -0.04438224
-0.19812007 -0.025361301 -0.15260847 -0.08670763 -0.051326692 0.05061415 -0.0978204 -0.08496373
-0.014347687 0.033437468 0.106894046 -0.048355773 0.26211345 0.021409297 0.02154396 0.04465677
-0.031275388 0.15761712 0.048282318 -0.13442767 -0.27933472 -0.14958768 0.058280356 0.10225412
-0.094394654 -0.1379261 -0.023936218 -0.15223907 0.064966 -0.08317577 0.042209167 -0.08359699
0.0041001546 0.09606456 0.21106663 0.015375555 -0.013038218 -0.029105991 -0.17523302 0.09136451
-0.18718903 0.077397466 -0.030447703 0.10775726 0.054813426 -0.045800753 0.022829464 -0.08768025
-0.078264445 0.12975602 -0.116672054 0.06610685 -0.056959186 0.10374487 0.08755617 -0.16917023
-0.002730463 0.08694224 -0.1206525 0.059443153 -0.08570704 -0.11214797 -0.14700899 0.24149443
0.074325405 -0.13091597 -0.022728566 -0.06468657 0.11363306 -0.18073519 0.02454617 0.21268868
-0.04417504 0.029864138 -0.07070809 0.0055221324 0.03822776 0.15187399 0.039704163 -0.17862353
-0.17615601 -0.08133542 0.008959274 0.068159945 0.03628737 0.1810586 -0.08002556 0.10705324
0.11466303 0.23804398 0.08349472 -0.08446232 -0.015708266 0.095385805 0.15565526 0.11689618
00000000: d704 42bd 1fa1 12bd f13a d3bd bf84 f13d
00000010: df9d 433e 3b06 5d3e 215a 403d 71c5 4ebd
00000020: 3481 94bd 0619 a33d 51eb 7bbc bceb 2d3e
00000030: 2eaf ebbd da97 68bc e62d b1bd 149d 3dbe
00000040: a813 acba 1eb0 093e e4ce 553d 001d fb3c
00000050: 5f6e 20be a643 68be b0b4 dfbd e0cc 64be
00000060: 3de4 613d aa15 eabc 4c4e 093e 3ba7 243d
00000070: 2db9 86bd c3f8 cc3c 3e51 813d c709 ffbd
00000080: 193e 803d 73ac 8e3e 6261 c6bd e3f3 9abd
00000090: 5fc8 20bd 3914 1fbd 2422 8cbe 04e7 efbd
000000a0: 2f3a b23d 0b78 93bc 0e3d fe3d 6440 163e
000000b0: c51e 3e3e 3aa8 423d f834 5a3e 8003 0cbd
000000c0: 5f20 183d 0853 b63d 6b18 713e 021b 1bbd
000000d0: e0c2 a13a 23d2 733e 1e8d bbbc 5e9d 813c
000000e0: e4d0 8fbd f282 073f 44f0 83bd 2072 53bd
000000f0: c2b3 56be 2de3 5c3d 1028 3abd 17f1 38bb
00000100: d4b6 e53d 5537 ef3c bf2b 81be d30f 45bd
00000110: 1c98 d03a 62f5 1a3d c7cc 573d ffd8 06bd
00000120: b37c 84bd 43dd 10bb 123f 9fbc 9156 d93c
00000130: 7b42 93bd c85a 873d ed92 a83d 3ea7 0a3e
00000140: a3e8 3cbe f923 18be 1e65 d3bd e047 563e
00000150: d80f 213c 2908 c43b 6a45 943b 2f6d 53bd
00000160: d2b8 0a3e 089e 22bd d660 fbbc 830c 40bb
00000170: 5f6b f73d 77b7 563d 8834 c73d 9473 00bd
00000180: 204f 9a3d 7714 543d 4c28 1c3d a8f4 813b
00000190: 151f 55be a5bb aa3d 399c 753d f7d1 3b3e
000001a0: a74c e13a 4f56 2abe 7b48 89bd ebba a83c
000001b0: b51b b93b b474 e03c f57d 813c 3f93 18bd
000001c0: c0a8 3fbd 0373 61bd 48ef 043e b8e4 39bd
000001d0: cf57 953c a613 2e3d 7b83 98bd 7368 8a3d
000001e0: 21fe ab3d 9d6e 7f3e b932 3a3e 220e 90bc
000001f0: 2424 8b3d bb2d 203e f180 06be e604 00be
00000200: 5bfa b23d 217d cbbd b683 16bd 7ade 1bbe
00000210: 0b61 1abc 72d0 06be 2352 35b9 4bad 183c
00000220: f458 46bd 959c 12be e172 a3bd b249 d83d
00000230: cfed 8dbd 7869 8d3b fff6 3a3d 41c7 9ebd
00000240: a1ee 78bd b43f dbbd 7849 f7bd 796b 71bd
00000250: 1240 6a3d a701 71bc 09d7 2f3c 6c4b 08bd
00000260: 715a c7bc 578a 653d e150 a23c 5984 783e
00000270: 758c 283d a03c 663d f8a3 a53d 27ca 35bd
00000280: fddf 4abe 81c2 cfbc 6545 1cbe c593 b1bd
00000290: f03b 52bd c850 4f3d 1056 c8bd 7701 aebd
000002a0: 9012 6bbc baf5 083d 44eb da3d b410 46bd
000002b0: bc33 863e 8d62 af3c f57c b03c 04ea 363d
000002c0: 9f1a 00bd 6266 213e aec3 453d 68a7 09be
000002d0: f604 8fbe 832d 19be 62b7 6e3d 9c6a d13d
000002e0: fc51 c1bd 803c 0dbe e315 c4bc 8fe4 1bbe
000002f0: e50c 853d 0f58 aabd 85e3 2c3d e634 abbd
00000300: 975a 863b 7fbd c43d da21 583e c0e9 7b3c
00000310: 409e 55bc b06f eebc 4970 33be 511d bb3d
00000320: 7bae 3fbe 9082 9e3d 766d f9bc d7af dc3d
00000330: 0b84 603d 9299 3bbd db04 bb3c b491 b3bd
00000340: 1c49 a0bd c3de 043e c2f1 eebd 0763 873d
00000350: 094e 69bd 3178 d43d a650 b33d f63a 2dbe
00000360: 91f1 32bb c60e b23d a818 f7bd aa7a 733d
00000370: 2c87 afbd d6ad e5bd 8689 16be 514a 773e
00000380: eb37 983d d60e 06be 4231 babc 647a 84bd
00000390: 73b8 e83d a512 39be 0d15 c93c 10cb 593e
000003a0: e3f0 34bd a3a5 f43c 67cf 90bd 01f3 b43b
000003b0: b694 1c3d db84 1b3e d5a0 223d 16e9 36be
000003c0: 3e62 34be 2f93 a6bd ebc9 123c 7197 8b3d
000003d0: 11a2 143d 6d67 393e 71e4 a3bd bb3e db3d
000003e0: 73d4 ea3d cdc1 733e 48ff aa3d 95fa acbd
000003f0: 9fae 80bc a259 c33d 1864 1f3e 4467 ef3d

bias f4 [128]
-0.09322245 -0.12695244 -0.082764745 -0.13516428 -0.13538024 -0.015863243 -0.11276944 -0.024419291
-0.16552459 -0.047084212 -0.09169875 0.016555497 -0.00584801 -0.082262695 -0.18701245 -0.043545935
-0.06928056 -0.10619204 -0.04101738 0.028636867 0.008198251 -0.031653374 -0.062152643 -0.06946665
-0.04507234 0.010553342 -0.07547977 0.063764945 0.027111338 -0.0006185595 0.018651696 -0.0702777
-0.1825754 -0.20994733 0.011171088 -0.11273446 -0.11558734 -0.059506826 -0.09853269 -0.01067322
-0.053584233 -0.068680614 -0.13923112 -0.12275127 -0.11546344 -0.12639098 -0.1558904 -0.09448743
-0.120710105 -0.025449172 -0.11203198 0.048340283 -0.2194199 6.247553e-05 -0.0076457257 0.051182557
-0.0800615 0.0028410177 0.021920519 -0.07859262 -0.01756918 -0.07884307 -0.13224083 -0.14906456
0.07505287 0.05378808 -0.15041861 0.04353497 0.111145295 -0.015660381 -0.06982014 -0.09020438
0.025304276 -0.07215903 -0.101675496 -0.049460325 -0.059974954 -0.05935213 -0.110133395 0.0036468068
-0.17922309 -0.052496452 0.04168377 -0.2665921 0.0043892483 -0.19692683 -0.026162969 -0.064864896
0.080092914 0.063227534 0.04820283 0.013152523 -0.06616382 0.002195024 0.05869911 -0.009978424
-0.039858375 -0.009070058 -0.1486771 -0.053011842 -0.045829024 -0.10270135 -0.038351033 0.013275143
-0.0031399373 0.07537719 0.022858521 -0.11320067 0.013901498 -0.020641943 -0.008857648 -0.07090695
-0.17076088 -0.06304217 -0.07695762 0.059479382 -0.14585634 -0.120913275 -0.023018485 -0.08556536
-0.12813926 -0.019418033 -0.059356786 -0.1585767 -0.12301053 0.011168871 -0.06166394 0.019919433
00000000: 69eb bebd d2ff 01be 9080 a9bd 8168 0abe
00000010: 1ea1 0abe a2f3 81bc aaf3 e6bd f70a c8bc
00000020: 477f 29be 60db 40bd 8ecc bbbd 659f 873c
00000030: aaa0 bfbb 5879 a8bd 3180 3fbe 395d 32bd
00000040: f7e2 8dbd 367b d9bd d701 28bd dd97 ea3c
00000050: f551 063c f8a6 01bd c593 7ebd 8844 8ebd
00000060: c69d 38bd ede7 2c3c 2395 9abd 3297 823d
00000070: 9918 de3c d326 22ba 71cb 983c c1ed 8fbd
00000080: 0cf5 3abe 6ffc 56be f006 373c 53e1 e6bd
00000090: 0eb9 ecbd 6ebd 73bd 82cb c9bd bbde 2ebc
000000a0: 247b 5bbd 6ca8 8cbd 9a92 0ebe 0565 fbbd
000000b0: 1978 ecbd a36c 01be bca1 1fbe a082 c1bd
000000c0: dc36 f7bd c87a d0bc 0671 e5bd 7600 463d
000000d0: 9caf 60be 4b05 8338 ff88 fabb cda4 513d
000000e0: 49f7 a3bd 5e30 3a3b a992 b33c 2bf5 a0bd
000000f0: 3eed 8fbc 7a78 a1bd 246a 07be 61a4 18be
00000100: 52b5 993d e450 5c3d 5607 1abe ba51 323d
00000110: 25a0 e33d 334a 80bc ddfd 8ebd 13bd b8bd
00000120: ea4a cf3c 1dc8 93bd 3e3b d0bd e996 4abd
00000130: 4ca8 75bd 381b 73bd 9e8d e1bd 44ff 6e3b
00000140: 4286 37be 8506 57bd 9abc 2a3d c27e 88be
00000150: afd3 8f3b 30a7 49be b953 d6bc e3d7 84bd
00000160: c107 a43d 707d 813d 5570 453d ae7d 573c
00000170: e680 87bd 64da 0f3b 7a6e 703d 8b7c 23bc
00000180: 8942 23bd 959a 14bc cf3e 18be f222 59bd
00000190: 37b7 3bbd 1655 d2bd f915 1dbd fc7f 593c
000001a0: 68c7 4dbb 5b5f 9a3d cb41 bb3c c1d5 e7bd
000001b0: 1cc3 633c 4b19 a9bc ab1f 11bc aa37 91bd
000001c0: f1db 2ebe 411c 81bd f59b 9dbd a7a0 733d
000001d0: 5d5b 15be 61a1 f7bd 4391 bcbc e43c afbd
000001e0: f036 03be 9112 9fbc 1a20 73bd ee61 22be
000001f0: f2ec fbbd a4fd 363c 5493 7cbd 142e a33c

weight f4 [128, 128]
-0.15992586 -0.12895311 -0.06461998 -0.009220343 0.05281799 -0.113939 -0.15417378 -0.18910836
-0.00092559826 -0.06016083 -0.02448982 -0.11603834 0.04651599 0.040648144 -0.0028268315 0.04169472
-0.13247763 -0.014529652 -0.103678055 0.088487506 -0.12929817 -0.02269989 0.0066969465 0.0031077059
-0.049337666 0.030834487 -0.091555156 -0.1703217 -0.036527008 0.04287455 0.04377991 -0.080793016
0.015471386 -0.033510406 0.033538256 0.044757105 -0.08203277 -0.0053940644 -0.04350486 -0.061574023
0.06913904 -0.11940257 0.044499632 0.042407326 0.03036452 0.01159265 -0.09186743 -0.09246031
0.01968534 0.022512946 0.028666364 0.035955623 0.064799376 -0.0070983097 0.029387575 0.13776952
-0.003686556 -0.10961925 0.065894194 0.055462893 -0.019216886 0.033901747 -0.031474836 -0.0009891373
0.056686237 -0.076458536 0.020169387 0.015186975 0.04879961 -0.0024839307 0.026022976 -0.033310473
-0.012589492 0.018059539 -0.041096795 0.020820737 0.0623026 -0.07914194 -0.042635795 -0.06238387
0.018578846 -0.040070027 -0.06319739 -0.101775475 0.016393092 -0.2729184 0.018235799 -0.031393413
-0.07126527 -0.21175861 -0.09872596 -0.11493492 0.0903828 0.10182594 -0.0139054125 -0.17178263
-0.054254357 -0.17561539 -0.04323455 -0.07672432 -0.11223138 -0.090030946 -0.15488596 0.05490315
-0.20176108 -0.13826123 0.05619256 -0.031376 -0.19761066 0.02059719 -0.0743699 0.08006827
0.06647476 -0.21067284 0.00017647124 -0.14813063 -0.13822027 -0.19628288 -0.07437449 -0.17833748
0.04024426 -0.026938997 -0.049591392 -0.12292207 -0.14304805 -0.05392088 0.11547676 -0.062042702
0.051695872 0.14680837 0.06672788 -0.08790762 -0.11512358 0.2853469 -0.20913985 -0.17458323
-0.10774717 -0.20097288 -0.0557854 0.09163793 0.20666343 -0.06564297 -0.13380845 -0.007401619
-0.097174264 -0.04951822 0.11318131 -0.11737513 -0.08221025 -0.088922985 -0.058696136 0.112426646
0.008657381 -0.14536898 0.03998055 -0.12771602 0.016820118 -0.11309536 -0.055151857 0.011379774
0.05157241 -0.030970871 0.0045084795 0.05327404 0.057409935 0.10257278 0.06650379 0.023753883
-0.04020586 -0.069893524 0.016455669 0.057175104 -0.06003367 -0.062136013 0.0947284 -0.039520938
0.05014539 -0.26235494 -0.10655375 0.12746957 0.0077004908 0.0341755 0.050927427 -0.13827193
-0.0714438 -0.16115281 -0.09316144 0.04089031 -0.008257739 0.055324804 0.13897166 0.09114773
0.18010359 -0.036637656 -0.023378594 0.0051093283 -0.11880565 0.1875432 -0.11234243 -0.07160319
0.024369605 -0.09513938 -0.075879686 -0.04334422 -0.22242753 -0.001079252 0.10587336 0.031597313
-0.19139247 0.017604731 0.057900045 0.18992794 0.087191075 0.062301617 0.0024058037 -0.035857838
0.1301551 0.076391414 0.07551781 -0.065181196 0.13890639 -0.06414221 -0.025652636 -0.058231816
0.059428215 -0.06324092 -0.06784322 0.10321295 -0.11797531 0.00171379 -0.08446832 -0.012305627
0.078253336 -0.07026378 -0.12987621 -0.12659562 -0.033220604 -0.042582884 -0.20711122 0.0767842
-0.091668874 -0.010965298 -0.08772715 0.070739545 -0.028287964 6.715329e-05 0.046563428 -0.06264072
-0.029589836 0.033326086 0.08468883 -0.031539794 -0.040619835 0.05393619 -0.099423304 0.038210463
00000000: 9bc3 23be 490c 04be 7b57 84bd ec10 17bc
00000010: ad57 583d da58 e9bd bbdf 1dbe 9fa5 41be
00000020: d9a3 72ba 346b 76bd e09e c8bc 82a5 edbd
00000030: 8d87 3e3d ab7e 263d 5d42 39bb 15c8 2a3d
00000040: 37a8 07be c70d 6ebc 2955 d4bd f038 b53d
00000050: bd66 04be 1ff5 b9bc 0f72 db3b a7aa 4b3b
00000060: 4b16 4abd 9b98 fc3c 4581 bbbd d068 2ebe
00000070: 589d 15bd 399d 2f3d 9052 333d cf76 a5bd
00000080: b27b 7d3c 3542 09bd 695f 093d 3a53 373d
00000090: cc00 a8bd b1c0 b0bb 2732 32bd 0b35 7cbd
000000a0: c598 8d3d 5689 f4bd 3f45 363d 4eb3 2d3d
000000b0: 04bf f83c 19ef 3d3c fe24 bcbd d55b bdbd
000000c0: 2643 a13c 126d b83c b9d5 ea3c 3446 133d
000000d0: 89b5 843d f098 e8bb 36be f03c 7413 0d3e
000000e0: 259a 71bb 0f80 e0bd 89f3 863d 0f2d 633d
000000f0: bb6c 9dbc 8fdc 0a3d c2eb 00bd f1a5 81ba
00000100: d42f 683d 4b96 9cbd 453a a53c cad2 783c
00000110: 1ae2 473d 71c9 22bb 232e d53c 9070 08bd
00000120: 2844 4ebc 99f1 933c 1d55 28bd 4090 aa3c
00000130: 0331 7f3d 2b15 a2bd dfa2 2ebd 3b86 7fbd
00000140: aa32 983c 7820 24bd a26d 81bd a96f d0bd
00000150: ce4a 863c f6bb 8bbe 3e63 953c 6196 00bd
00000160: 87f3 91bd 40d7 58be d630 cabd 0063 ebbd
00000170: 9e1a b93d 1e8a d03d 87d3 63bc c9e7 2fbe
00000180: d139 5ebd 85d4 33be b616 31bd a421 9dbd
00000190: 91d9 e5bd 2562 b8bd 6d9a 1ebe 20e2 603d
000001a0: 759a 4ebe 5a94 0dbe 2b2a 663d 1f84 00bd
000001b0: 735a 4abe 70bb a83c 3f4f 98bd d5fa a33d
000001c0: eb23 883d 9fba 57be 230b 3939 8eaf 17be
000001d0: 9d89 0dbe 61fe 48be a751 98bd 1a9e 36be
000001e0: 2ad7 243d 2caf dcbc 5820 4bbd 91be fbbd
000001f0: 307b 12be 24dc 5cbd 147f ec3d 7d20 7ebd
00000200: 0dbf 533d ef54 163e a0a8 883d e908 b4bd
00000210: e9c5 ebbd fd18 923e c228 56be f2c5 32be
00000220: 8caa dcbd d6cb 4dbe 3b7f 64bd abac bb3d
00000230: 949f 533e d26f 86bd 1505 09be 4889 f2bb
00000240: 4d03 c7bd 9ed3 4abd 9acb e73d 5f62 f0bd
00000250: d95d a8bd 411d b6bd 5c6b 70bd f13f e63d
00000260: b0d7 0d3c 9bdb 14be a5c2 233d fdc7 02be
00000270: 58ca 893c 8a9e e7bd eae6 61bd 3b72 3a3c
00000280: 973d 533d a0b6 fdbc debb 933b e135 5a3d
00000290: ae26 6b3d ad11 d23d 2433 883d 8197 c23c
000002a0: e6ae 24bd 5624 8fbd 0ace 863c 7130 6a3d
000002b0: dee5 75bd 5582 7ebd f700 c23d b5e0 21bd
000002c0: 4165 4d3d 6353 86be da38 dabd 6287 023e
000002d0: 6654 fc3b 9cfb 0b3d 4799 503d 2897 0dbe
000002e0: 2151 92bd 3e05 25be 6dcb bebd 997c 273d
000002f0: 784b 07bc 439c 623d 964e 0e3e a9ab ba3d
00000300: 136d 383e 5e11 16bd 7784 bfbc 276c a73b
00000310: 6050 f3bd 530b 403e ca13 e6bd b1a4 92bd
00000320: c4a2 c73c 6fd8 c2bd cf66 9bbd b589 31bd
00000330: 0bc4 63be b075 8dba 22d4 d83d 2f6c 013d
00000340: 63fc 43be cc37 903c 9928 6d3d 787c 423e
00000350: 3c91 b23d fb2f 7f3d b0aa 1d3b abdf 12bd
00000360: 6147 053e 1a73 9c3d 15a9 9a3d b87d 85bd
00000370: 7a3d 0e3e fe5c 83bd 7a25 d2bc 7c84 6ebd
00000380: 006b 733d 7584 81bd 63f1 8abd 5061 d33d
00000390: 0a9d f1bd 40a1 e03a bafd acbd 8a9d 49bc
000003a0: 4943 a03d 75e6 8fbd 45fe 04be 48a2 01be
000003b0: 5412 08bd 646b 2ebd f714 54be 0941 9d3d
000003c0: e4bc bbbd cba7 33bc 4baa b3bd e5df 903d
000003d0: 29bc e7bc a6d4 8c38 4bb9 3e3d c749 80bd
000003e0: 6266 f2bc ef80 083d 5671 ad3d df2f 01bd
000003f0: fc60 26bd 32ec 5c3d 729e cbbd 9382 1c3d

bias f4 [128]
-0.085099645 0.052824426 -0.07634422 0.036336955 0.1121446 -0.12361557 -0.034053408 -0.07610877
0.19432107 -0.16763829 0.05942328 -0.01330877 0.01838146 0.016761722 -0.08277186 0.124183945
-0.066171415 0.20568879 -0.022064524 -0.017403293 0.0034966357 -0.0922874 -0.033025097 -0.13903733
0.010406353 -0.050208844 -0.023727158 -0.16578683 -0.082155876 -0.119869515 -0.045815777 -0.08480821
0.17203872 -0.12257084 -0.072872914 -0.12026366 -0.07122563 -0.08595585 0.15073334 0.17241111
-0.015230217 0.056513634 -0.096754745 0.08647541 0.1393087 0.14069493 0.064759955 0.20132168
0.060624763 -0.16349892 0.09050609 -0.1683937 0.069385156 0.13352719 -0.11886024 -0.09804194
0.11501874 -0.032662913 -0.118649796 0.047111053 0.111960135 -0.0044013825 -0.06608794 0.06609252
-0.21287455 -0.103989944 0.018227883 -0.095127806 0.018566392 -0.013985802 0.14766467 -0.0884517
-0.16006672 -0.08087986 -0.04711516 -0.061550837 0.08905734 0.1727332 -0.08941176 0.07500974
0.04303448 -0.047802176 0.052438874 0.036113884 0.08657278 -0.16680865 -0.010699981 -0.047200903
0.011963186 -0.13686012 0.0068596676 -0.054439593 -0.13133624 -0.0008764 -0.14782527 -0.06440976
0.15985976 -0.009985853 -0.011226378 -0.04967106 0.062808596 -0.031836607 0.044822864 -0.156177
-0.003931575 0.09470473 0.124894075 -0.21082413 0.016099667 0.07573466 0.05504867 -0.0647659
0.07352057 0.08997495 -0.0007726895 -0.047922816 0.017807635 0.16840224 -0.09134281 -0.07852671
-0.0444821 0.06357021 -0.001718333 9.02383e-05 0.0130282575 -0.021899799 -0.16621095 0.12956767
00000000: b948 aebd 6d5e 583d 5c5a 9cbd 0fd6 143d
00000010: 11ac e53d 292a fdbd 967b 0bbd eade 9bbd
00000020: 1afc 463e 5fa9 2bbe d365 733d 070d 5abc
00000030: b794 963c e14f 893c 4b84 a9bd 2754 fe3d
00000040: e184 87bd 15a0 523e a9c0 b4bc 5a91 8ebc
00000050: d027 653b 2d01 bdbd 5345 07bd cd5f 0ebe
00000060: 687f 2a3c caa7 4dbd 755f c2bc 06c4 29be
00000070: 5741 a8bd 267e f5bd 53a9 3bbd edaf adbd
00000080: eb2a 303e 6c06 fbbd 653e 95bd cb4c f6bd
00000090: bede 91bd 9f09 b0bd d759 1a3e 8a8c 303e
000000a0: 2988 79bc d77a 673d 5a27 c6bd 051a b13d
000000b0: f1a6 0e3e 5512 103e dea0 843d 4527 4e3e
000000c0: ac51 783d 436c 27be 425b b93d 666f 2cbe
000000d0: ce19 8e3d 5abb 083e ff6c f3bd 36ca c8bd
000000e0: f28e eb3d 8cc9 05bd aafe f2bd 85f7 403d
000000f0: 5b4b e53d 7939 90bb 1d59 87bd 845b 873d
00000100: c9fb 59be aef8 d4bd a452 953c 5ed2 c2bd
00000110: 8c18 983c b524 65bc 6835 173e 2a26 b5bd
00000120: 88e8 23be 57a4 a5bd d3fb 40bd bb1c 7cbd
00000130: b263 b63d f9e0 303e 831d b7bd b59e 993d
00000140: ec44 303d 37cc 43bd 25ca 563d 27ec 133d
00000150: 124d b13d e3cf 2abe f94e 2fbc bc55 41bd
00000160: 3d01 443c 0f25 0cbe 10c7 e03b 0dfc 5ebd
00000170: 027d 06be 35be 65ba 825f 17be 44e9 83bd
00000180: 47b2 233e b49b 23bc d8ee 37bc e273 4bbd
00000190: cba1 803d 1a67 02bd 2e98 373d ddec 1fbe
000001a0: 71d4 80bb 8ef4 c13d 77c8 ff3d 48e2 57be
000001b0: 73e3 833c c61a 9b3d b77a 613d fca3 84bd
000001c0: f491 963d c944 b83d 518e 4aba b74a 44bd
000001d0: 51e1 913c a371 2c3e f011 bbbd 9dd2 a0bd
000001e0: dd32 36bd 1931 823d b039 e1ba 523e bd38
000001f0: 7974 553c 3567 b3bc 3433 2abe 63ad 043e
