results/model/union_584.model (torch, 686563 bytes, 21 tensors)

weight_ih f4 [384, 5]
000000 c3 18 d1 bd dd 36 84 3d 93 27 8d 38 64 79 c7 3c
       -0.10209801 0.06455777 6.730775e-05 0.024349876
000010 5b b2 5a 3d b1 fb e2 37 a8 7a 82 3c 07 fe ab 3d
       0.05339275 2.7058502e-05 0.015927628 0.08398061
000020 b5 fe 89 bd 02 db 15 3c e1 f9 a6 3c da fe 5d bd
       -0.06738035 0.009146454 0.020382823 -0.054198124
000030 66 5f 81 bd 55 0d 9a bd b4 53 bb bc cf cd bc 3c
       -0.06317024 -0.07522074 -0.022867061 0.023047356
000040 c4 e2 1b 3d 98 54 19 3d 8f b5 d6 3c d7 0d 64 bd
       0.038058057 0.03743419 0.02620962 -0.05567726
000050 cc 80 a9 3c 95 a6 80 bd 58 89 df 3b 73 cf d2 bd
       0.020691298 -0.06281773 0.0068217926 -0.10293474
000060 60 98 c2 3d be 66 ca bd 33 9e 75 3d 18 9c 60 bc
       0.095017195 -0.09882878 0.059965324 -0.013709091
000070 6c 83 c5 bd 19 93 a7 bd bf ad 4f 3d 3d 9b 5e 3c
       -0.09644207 -0.081823535 0.050702807 0.013586816
000080 2d 8f a6 3d d8 49 51 3d db 93 9f 3d e2 8c 08 3d
       0.08132777 0.051095814 0.07791873 0.03333748
000090 ec 61 6b bd cd c9 d7 bc a9 23 74 3d d9 0f 43 bd
       -0.057466432 -0.026341343 0.05960432 -0.047622535
0000a0 4c 06 58 bd 59 13 b0 3d 5b 38 1b 3d 00 7d 38 3d
       -0.05274038 0.0859744 0.03789554 0.045041084
0000b0 d6 e9 61 3d 5f 5b f1 bb 56 63 e4 bc 76 fe c3 bc
       0.055154644 -0.0073656286 -0.027879398 -0.023925047
0000c0 bc df 85 bd 57 0b 8f bd ed dc f5 ba 19 b0 2d 3b
       -0.065368146 -0.06984585 -0.0018757858 0.0026502667
0000d0 63 51 02 be 94 85 2f 3c fb f3 c4 bc 6d 49 b2 bc
       -0.12726359 0.010713 -0.02404212 -0.021763528
0000e0 29 7c 71 3d 02 25 f1 bc 0f ef 9f bc e6 e9 18 bd
       0.0589563 -0.029436592 -0.019523172 -0.037332438
0000f0 21 e2 b9 3d 45 09 b6 bd f1 86 f6 3c 59 9b 33 3d
       0.09076334 -0.08888487 0.030093642 0.043849323
000100 3d 99 85 3c de 64 82 bd 5c a1 96 bc 2b 54 71 bd
       0.016308421 -0.06366895 -0.018387489 -0.05891816
000110 02 9b 95 bd 68 ea 9c 3d 58 c3 73 bc 5e e8 33 bd
       -0.07304956 0.07661897 -0.014878117 -0.043922774
000120 bd 57 d8 bc 5b 1f c3 3c 05 11 12 3d f4 3e c6 bc
       -0.026409024 0.023818662 0.035660762 -0.02419994
000130 2a b8 e6 3d 2c 9d 13 3d 95 19 1d bc 06 37 da 3d
       0.11265595 0.036038563 -0.009588619 0.10655026
000140 d2 db de 3a 1e 5f 61 3d d6 6b 05 3c 88 c7 65 3d
       0.0017002767 0.05502235 0.008143386 0.05609849
000150 c1 83 06 bd 5a e3 9a 3d 9a 03 13 3d b5 2f d1 bc
       -0.032840494 0.07562895 0.035892107 -0.025535444
000160 97 b6 80 3c bc 32 a7 bd 85 02 07 3d 72 dd 9c 3d
       0.015712066 -0.08163974 0.032961387 0.07659425
000170 b4 44 9f bd 45 af 4b bc 34 5a 03 3d f6 e6 2b bd
       -0.07776776 -0.012431924 0.032068446 -0.04196831
000180 a9 85 ad 3d 42 44 88 3d 5a 2c a7 bc 46 6d 0c 3c
       0.08472759 0.06653644 -0.02040689 0.008570975
000190 e8 5e 95 3d db 35 45 bd ae b1 fc bd 40 31 dc bc
       0.072934926 -0.048147064 -0.12338577 -0.026878953
0001a0 bc 59 78 3c 7e c2 a0 bd 18 8b af bd a5 a3 39 3d
       0.015158113 -0.078495964 -0.08571452 0.04532208
0001b0 97 7a 0e 3d e1 0a 78 3b 31 46 11 3d 74 7a 19 bd
       0.03478488 0.0037848281 0.03546733 -0.037470296
0001c0 be 95 68 3d 33 bd a0 3d 09 6d cf 3c df 5a 85 bd
       0.05678343 0.07848587 0.025320547 -0.06511473
0001d0 dd 06 37 bd 7f 2b ba bd 54 c5 86 3c 28 da a2 bd
       -0.04468428 -0.090903275 0.016451515 -0.07951766
0001e0 8a 6a 84 3d e9 22 a2 3d ab 6f 82 3d 3a 53 52 bc
       0.06465633 0.07916815 0.06368955 -0.012837226
0001f0 cf 6b f9 3b 60 da 6a 3d b0 40 bf 3b 8d b3 c1 3c
       0.0076117287 0.057337165 0.005836569 0.023645187
000200 b4 6a 95 3b 11 cd 16 3d 22 50 d2 bb fa 9a 61 3d
       0.004559839 0.03681666 -0.006418244 0.055079438
000210 bb cc b2 3d 6c 82 23 3d a9 e5 5d bd 5e fa 88 bc
       0.087304555 0.039919302 -0.0541741 -0.016720947
000220 23 a9 d5 bc 31 36 bd 3d 74 de 61 3b 3e 50 d8 3d
       -0.026081627 0.09238852 0.0034464868 0.1056218
000230 1f 1f 0d 3d b6 97 03 3c 66 10 2c 3d 17 9a 9c bd
       0.034453508 0.008031776 0.042007826 -0.07646578
000240 5c 8c c7 bd 11 bd 5d bc 99 e6 c3 3d 9d 18 02 3d
       -0.09743568 -0.0135338465 0.095654674 0.031761754
000250 d9 79 9b bc 5c 47 a9 3d 75 bf 9c 3d 05 f0 c6 3c
       -0.018979 0.08265564 0.07653705 0.024284372
000260 b9 b4 37 bc 6f 9c 78 bd 28 f4 86 bd 2b db 66 3d
       -0.011212521 -0.06069606 -0.06589538 0.05636136
000270 c2 e3 71 bd ad 72 8f 3d 2b 4a ce 3b 28 f6 a1 3d
       -0.059055097 0.070042945 0.0062954626 0.07908279
000280 74 cd f6 3c 9c a0 eb 3c d3 66 a4 bc 52 49 47 bd
       0.030127265 0.028763108 -0.020068562 -0.048653908
000290 9b 8e d9 3c c2 c4 37 3d 16 b3 45 3d 9c 8c de 3d
       0.026557257 0.044865377 0.048266493 0.10866663
0002a0 75 ec a7 bd 38 f8 2d 3d 62 1d a3 3c 59 fc bb 3d
       -0.081993975 0.042473048 0.019911472 0.09178991
0002b0 8a a3 43 3d 91 db 06 3e 50 6f 0a 3d 0f 2d 4c 3d
       0.047763385 0.13169695 0.033797562 0.04984766
0002c0 ca 71 a8 3d f2 97 8f bd f7 00 08 3d 5e f8 65 3d
       0.082248285 -0.07011403 0.033204045 0.056145065
0002d0 2f 7a 86 bd 89 ee 31 3d 8e 7f 40 bd 36 f4 89 3d
       -0.065662734 0.043440375 -0.046996646 0.06736033
0002e0 cf 01 ec bd 91 f6 59 bd 5a 57 28 bd dd 21 62 3c
       -0.115237825 -0.05321366 -0.04109893 0.013802019
0002f0 0a c1 92 3d 29 1d ed 37 d0 89 91 bc 82 52 cc 3d
       0.071657255 2.826618e-05 -0.01776591 0.099766746
000300 f3 6d f3 bc 81 0f 8d bc 1d 56 66 bd 44 a7 81 bd
       -0.029715514 -0.017219307 -0.056234468 -0.063307315
000310 94 af 92 bd f0 c4 8d bd 71 1f 28 bd 5a 7d 0b bd
       -0.07162395 -0.069223285 -0.04104561 -0.03405509
000320 60 f0 90 3d c1 19 a2 bd 2d aa 1b 3c e6 c9 8d 3a
       0.07077098 -0.079150684 0.009501022 0.0010817617
000330 0c 4f 7e bc 89 5c bd bc 46 c0 ae 3b 10 b0 69 3d
       -0.015521776 -0.023115413 0.0053329794 0.057052672
000340 25 86 12 bd a3 8b 91 3d fe 36 19 bd 82 a2 8d bd
       -0.03577246 0.07106712 -0.03740596 -0.069157615
000350 dd 76 c3 3d 62 3f de 3c 8d 0a 4d bd 88 3f 02 3d
       0.09544156 0.027129833 -0.05005889 0.03179887
000360 b9 35 04 bc c6 ca 1b bc d9 0c 28 bb 1e 65 b0 3d
       -0.008069449 -0.009508794 -0.0025642423 0.086130366
000370 52 35 c2 bc 1c c4 82 3c 67 f4 cf bc 28 fb ec bc
       -0.023707066 0.015962653 -0.025385095 -0.028928354
000380 5b 3f 60 bd 0e 7b 38 bd bf ff 45 3d f4 78 46 3d
       -0.05474792 -0.04503923 0.0483396 0.048455194
000390 1d 08 58 3c 90 13 5e bd 59 5e 16 3c 42 c2 7e 3c
       0.013185528 -0.054217875 0.009177768 0.015549244
0003a0 a3 1a e7 bd 18 32 38 bd 0b 35 db 3c a2 50 19 3d
       -0.112843774 -0.044969648 0.026758691 0.037430413
0003b0 4f 52 9c bd ca d2 1d bc 80 55 ad 3d 6d 89 b5 3d
       -0.076328866 -0.009632776 0.084635735 0.088641025
0003c0 9a d4 96 3c 55 e3 c0 bd 9b 76 40 bd 19 cd 57 3d
       0.018411923 -0.0941836 -0.04698811 0.05268583
0003d0 cb b4 87 3d 34 5e 1e bd 9b 4a d5 bc da a8 46 3d
       0.066262804 -0.038664058 -0.026036551 0.048500873
0003e0 6c 31 56 3d 21 57 82 3d 62 3d 7a 3d 0e b3 1c bd
       0.052293226 0.06364275 0.061093695 -0.038256697
0003f0 34 50 3d 3d 51 6a 88 bd 53 26 17 bd 7f 4e 80 bd
       0.046219066 -0.06660903 -0.036901783 -0.06264972

weight_hh f4 [384, 128]
000000 70 42 8c 3d 2e ff 39 bd 63 43 44 3d e6 84 84 bd
       0.068486094 -0.045409374 0.047915827 -0.06470661
000010 f5 43 69 bd 7f 29 85 3d c2 39 7b bd cb 84 97 3d
       -0.056949575 0.065020554 -0.06133438 0.07398375
000020 47 6f 4b 3d 91 fc 1a 3d cf 46 3d bd 20 b1 ab bd
       0.04966667 0.037838522 -0.046210106 -0.08383393
000030 32 0e 8e 3d 6d 71 a2 3d 24 ef 3b bd 1d cd 8a bc
       0.06936301 0.079317905 -0.04588236 -0.016943509
000040 2a 75 85 bd b1 28 27 3c 75 6e bc 3d cc 51 06 bd
       -0.06516488 0.010202573 0.092007555 -0.03279285
000050 33 9f aa bd ee ed 5a 3d 66 f3 08 bd 93 34 ca bd
       -0.08331146 0.053449564 -0.033435248 -0.09873309
000060 3e 3a e7 bc b4 43 fb bc 50 d7 12 b6 8d 84 96 3d
       -0.028226014 -0.030671932 -2.1881024e-06 0.07349501
000070 51 9d 69 bb 76 e2 f7 3b 83 fb 85 bd 4d d9 32 bd
       -0.0035646746 0.007564838 -0.06542113 -0.043664265
000080 1a ae 12 3d d1 f7 83 3d a7 e4 1e 3c 26 b0 4f bd
       0.035810567 0.064437516 0.00969807 -0.050705098
000090 46 81 b0 bd 7b 3f b2 bc bf e4 87 3d 30 8a cb 3c
       -0.08618407 -0.021758785 0.06635427 0.024846166
0000a0 26 32 08 bd 82 d6 3c 3b a5 21 e8 3b 70 6a 16 bd
       -0.03325095 0.002881438 0.007084089 -0.0367226
0000b0 ca 71 65 bd 23 b2 b3 bd cb 9d 21 3d cf 50 71 bc
       -0.05601672 -0.08774211 0.039457124 -0.014728739
0000c0 48 bd b2 3c b0 f1 c2 3c 1c 34 35 ba cc 2c 8b 3d
       0.021818772 0.023796886 -0.0006912367 0.06795654
0000d0 b9 99 61 bd c8 12 6c 3d 80 cd 85 3d a5 f2 63 3b
       -0.055078242 0.0576351 0.06533337 0.0034782079
0000e0 46 43 8b 3d 3f 1a 1d bc 39 28 c1 bd 5e 7f 51 3d
       0.06799941 -0.009588777 -0.094315 0.051146857
0000f0 5d 2d 6f 3b d5 fe 10 3d 30 68 09 3d a8 4a 28 3d
       0.0036495544 0.035399277 0.033546627 0.041086823
000100 12 26 a8 bd c0 90 36 bd 8d fd c1 3b c1 2d f7 bc
       -0.08210386 -0.044571638 0.005920118 -0.030173184
000110 c9 5a 3a 3d c3 5b 89 3d d7 e1 e3 bd 02 17 18 3d
       0.045496736 0.06706955 -0.1112706 0.037131317
000120 f4 95 b2 3d 17 63 96 bd 6f 46 22 bc 2a 0f b3 bb
       0.087200075 -0.07343119 -0.009904488 -0.005464454
000130 fc d0 a8 3d 2e d3 35 bd 50 9e b3 bc 78 02 79 3d
       0.082429856 -0.04439085 -0.021926075 0.06079337
000140 40 15 ad 3c 83 72 86 3d b4 36 6b bd 3e 9b 08 3d
       0.021128297 0.0656481 -0.057425216 0.033351175
000150 ba 96 c1 3d 11 a7 41 3d a5 0e e7 bc e8 84 0d 3d
       0.09452577 0.047278468 -0.028205225 0.034550577
000160 d8 11 28 bc f4 1b 3f bd aa 59 c8 ba b2 e0 59 3d
       -0.0102581605 -0.046657518 -0.0015285511 0.0531928
000170 2c af c2 3d a4 d4 a5 bd 64 17 b6 3d 7c 38 dd bc
       0.09506068 -0.080971986 0.0889118 -0.027004473
000180 c7 08 b0 3a 5f 78 b6 3c 8b 46 91 bd 40 4d 86 bc
       0.001343035 0.022274194 -0.07093533 -0.016394258
000190 a6 96 a7 3d 8b 1f c8 3c 3d 7b f9 bc e9 f4 9f bd
       0.08183031 0.024429103 -0.030454272 -0.07810385
0001a0 81 15 3a bd df 05 44 bd 93 01 34 bd 82 df 6c bd
       -0.045430664 -0.04785716 -0.043946814 -0.05783034
0001b0 da 37 1c 3d 2e b0 74 3d 00 19 16 bd 33 3d 51 3c
       0.0381392 0.05973833 -0.036644936 0.012770939
0001c0 f5 fa cb 3d bc e3 56 bb 47 74 84 bc f5 e5 96 bc
       0.09959976 -0.003278955 -0.016168727 -0.018420199
0001d0 bf b9 b4 3d 5b 07 af 3b 5c 65 fc 3c 74 d3 4f 3d
       0.08824491 0.005341453 0.03081005 0.050738767
0001e0 a9 23 a5 3d fd 6e 52 bd 92 01 77 3d 63 11 46 3b
       0.08063442 -0.051375378 0.060304232 0.0030222766
0001f0 13 8d e8 3c 55 ec af 3d 25 87 00 bd 43 5c 4c 3c
       0.028387582 0.08589999 -0.031378884 0.012473169
000200 48 b4 96 3d 66 73 91 3d 34 91 4b 3d fd 78 d2 bc
       0.07358605 0.07102089 0.049699023 -0.025692457
000210 71 27 fe 3c a0 c4 86 bd 97 13 3b 3d 02 ef d7 3d
       0.031024667 -0.06580472 0.04567298 0.10543634
000220 b2 d7 64 bd b2 fc b1 bc 18 38 4b 3d 11 ea 84 3d
       -0.055869766 -0.02172694 0.049614042 0.06489957
000230 e3 ff 2f 3d ce 13 43 bd 2c b3 9f 3a b6 de 2b 3c
       0.042968642 -0.04762631 0.0012184135 0.01049011
000240 b5 9a 9d 3d d5 2e ae bd 53 76 c2 bb bf 52 0c 3d
       0.07695524 -0.08505026 -0.0059345155 0.0342586
000250 0f a2 85 3d f7 c7 55 3d bb f8 02 3d 37 92 48 3c
       0.06525051 0.052192654 0.03197549 0.012241892
000260 dc 79 13 bc 15 50 05 3c 1a be 24 bc 5c ad 2d 3b
       -0.0090012215 0.008136769 -0.010055089 0.0026501035
000270 f0 61 5b bc 46 fb ac 3c 5a 9d b1 bc 3a 8f c5 3d
       -0.013390049 0.02111591 -0.021681476 0.09646459
000280 eb be bf 3d 2e eb 30 3d 39 00 b9 3d 9b fb 30 bc
       0.093625866 0.043193035 0.090332456 -0.010802175
000290 3f 5f c7 3d 20 86 c8 bd 97 05 84 3d d8 66 97 3d
       0.097349636 -0.09791207 0.06446379 0.07392663
0002a0 16 6a 64 bc 3d dd 2b 3c e8 33 91 bb ff 85 1b 3c
       -0.0139413085 0.010489759 -0.0044312365 0.009492396
0002b0 c3 a8 85 3d 3a 42 5f 3d 07 bb ca 3c ca 98 4c 3c
       0.06526329 0.054506518 0.024747385 0.0124876
0002c0 48 8c a6 3c df 4a 02 3b 49 56 57 bd b5 3e 2e bd
       0.020330563 0.0019881052 -0.052572522 -0.04254027
0002d0 39 29 d8 3c 7a 3b ee bc 62 df 80 3a d4 a7 dc bd
       0.026386844 -0.029081095 0.0009832198 -0.10774198
0002e0 f5 8e c3 bd 79 d8 7f 3b 19 b7 38 3d 0a 54 5a bd
       -0.09548751 0.003903894 0.04509649 -0.053302802
0002f0 c4 c6 f9 3c a2 2d 38 bd 68 2e 9f bc 11 d8 ce bc
       0.030490287 -0.044965394 -0.019431308 -0.025249513
000300 6b 6e 28 bd 6a 22 c4 bb 37 70 e0 bd 1b e0 44 bd
       -0.041120928 -0.005985548 -0.10958903 -0.048065286
000310 c7 ac 7f 3d f7 d4 0d bd 80 dc 82 bd 6c 0b 95 3d
       0.062420633 -0.034626927 -0.06389713 0.07277569
000320 2d da 97 bd 1b 5e 0e bd 6e f9 90 bd 55 26 bf 3c
       -0.074146606 -0.034757715 -0.07078825 0.023333708
000330 27 a8 5b 3c 48 a1 48 bd dd b8 a8 bd 5a 53 88 3d
       0.01340679 -0.048981935 -0.08238385 0.06656523
000340 a1 9e d8 bd 9a 33 6b bd 81 57 a1 3d 0c 17 8f 3c
       -0.10577131 -0.057422258 0.07878018 0.017467044
000350 d3 cc 7d ba be 27 8b bd ff 48 26 3d 44 b1 cb 3c
       -0.0009681705 -0.067946896 0.04059696 0.0248648
000360 b8 a1 9c bc 18 14 03 bd 64 bb 3e 3d e1 7b f8 3c
       -0.019120082 -0.032001585 0.04656543 0.030332508
000370 c0 64 97 bd f7 38 9b bd e6 d3 94 bd 87 1f 94 3d
       -0.073922634 -0.075792246 -0.07266979 0.07232576
000380 66 9d 86 bd 9c f0 d7 3c 60 92 e2 3c ba f8 3d bc
       -0.0657299 0.026359849 0.027657688 -0.011594946
000390 ce db 39 3d bc b4 98 bd e4 88 63 3d ce 93 58 3d
       0.045375638 -0.07456347 0.05555047 0.052875333
0003a0 a1 2e 75 bd e2 d6 81 3d 9d 02 a0 bd 05 5e 3e 3d
       -0.059858922 0.06339814 -0.078129984 0.046476383
0003b0 97 87 07 3c 20 de aa bd 68 02 47 bd fb 04 0b bd
       0.008272073 -0.08343148 -0.04858628 -0.033940297
0003c0 96 e7 8f bd 28 36 80 3c 26 64 3b 3c 04 a5 8a bd
       -0.070265934 0.015650824 0.0114374515 -0.067697555
0003d0 c4 eb bf 3c ca 11 51 3c 4b eb c8 3c f6 25 9e bd
       0.023427851 0.012760589 0.024526259 -0.07722084
0003e0 8a aa 82 3d bd 0e cd bc cc dc c7 bc 96 2f 4e 3c
       0.06380184 -0.025031442 -0.024397276 0.012584588
0003f0 12 ed 53 3c db f6 c2 3d bb 8a 86 3c 56 9e 3a 3d
       0.01293494 0.0951974 0.016423574 0.045561157

bias_ih f4 [384]
000000 a1 6e 04 bd 26 92 9a 3d 40 e6 e3 3c ae 48 c6 bd
       -0.032332066 0.07547407 0.027819753 -0.09681831
000010 cf 50 17 3d 31 1a 41 3d b0 7e 86 3d 48 70 8f bd
       0.0369423 0.04714412 0.065671325 -0.07003838
000020 ee 36 8f 3d 71 e2 0e bb c1 43 8f 3d c4 77 f7 3c
       0.06992899 -0.002180245 0.06995345 0.030208476
000030 e9 74 a6 3d 2a a9 18 bd 22 0e 93 ba 68 c3 be 3a
       0.081277676 -0.037270702 -0.0011219422 0.0014554085
000040 6f 80 14 bd fc c7 63 bd 4b f7 11 bd 28 1a 55 3c
       -0.036255296 -0.05561064 -0.035636228 0.013006724
000050 b6 c4 f0 3c d5 2d ca bc d6 1c 5e bd 9a da c1 3c
       0.029390674 -0.024680058 -0.05422672 0.023663808
000060 99 c6 14 bd 52 cb 01 bd 4c f1 52 bd 56 6c 84 3c
       -0.03632221 -0.031688042 -0.05149965 0.01616494
000070 56 39 2b 3d 94 f1 0f 3d ce b7 bc 3d 91 c2 8b 3c
       0.041802727 0.035142496 0.092147455 0.01706055
000080 c3 b6 89 3c 79 28 a7 bc c7 8f ee 3d a6 d8 ab bc
       0.01681078 -0.020405041 0.11648517 -0.02097733
000090 4a 54 b3 3d 4f f6 6a bd 0c 4b 16 bc 7f 1d a5 3b
       0.08756311 -0.057363804 -0.009173166 0.0050389166
0000a0 dc 32 0a 3c 34 d7 91 bd 87 bd 99 bc 9a 00 46 3d
       0.008434977 -0.07121125 -0.018767131 0.048340417
0000b0 b8 54 e0 3c 67 9b b8 bd ed 17 af 3d 08 ee 09 3d
       0.027384147 -0.09014016 0.08549485 0.03367427
0000c0 b8 59 81 3c b7 4c 65 3d 50 21 ba 3d c3 49 82 3c
       0.015789852 0.055981364 0.09088385 0.015904313
0000d0 f4 6a 81 3d ba 78 b9 bc 70 b6 e2 3d 46 11 02 3e
       0.06319228 -0.022640575 0.110699534 0.12701902
0000e0 20 87 a4 3d 55 a7 94 3b 23 c5 bf 3d ec 78 73 3d
       0.080335855 0.004536549 0.09363773 0.059441492
0000f0 f0 fe 76 3c 61 0e 05 3d 17 9f e8 3c 21 e8 29 3d
       0.01507543 0.032484416 0.028396172 0.04148114
000100 4b e4 bf bd 41 ae 81 3d 09 53 00 3e 67 5c b8 bd
       -0.09369715 0.063320644 0.12531675 -0.09001999
000110 2b 71 66 3d 43 27 2c bd 9b db 18 bb 69 fa 1a bd
       0.05626027 -0.04202963 -0.0023324254 -0.037836466
000120 52 6b a9 bd fd 35 19 3d e7 8c 85 bc 33 c5 e5 3b
       -0.08272423 0.037405003 -0.016302539 0.0070120334
000130 20 9e f6 3d 99 8f 0f 3c 67 01 5e 3c 64 8d d9 bc
       0.12041879 0.008762264 0.013550139 -0.026556678
000140 51 4d c9 3c 09 99 f5 3c 1c f0 ac bc 05 f2 12 3d
       0.024573 0.0299802 -0.021110587 0.03587534
000150 69 87 1c bc 3c 0f d5 3d 70 49 7a bd b0 ec e3 3c
       -0.009553769 0.10403296 -0.06110519 0.027822822
000160 ad 8a 7f bd fa 27 01 bd 67 51 27 3d 4c 67 e7 bc
       -0.06238811 -0.031532265 0.040849116 -0.028247498
000170 4c b2 a2 bd 85 c9 a5 3d 60 1e 2d 3d d3 69 7f 3b
       -0.07944164 0.080950774 0.042265296 0.0038972988
000180 20 b0 b1 bd d2 74 b2 3d 0a 35 82 bd 01 1f 64 bd
       -0.08676171 0.08713688 -0.06357773 -0.05569363
000190 47 5f 2f bd e0 02 b9 3c c0 8a 13 3d 0d 4a 9a 3c
       -0.042815473 0.022584379 0.036020994 0.018834138
0001a0 b8 94 a0 3d d9 cb 47 3d fd 74 85 3c ce 87 7a 3d
       0.07840866 0.04877839 0.016291136 0.06116467
0001b0 5c ab 0b bc 7f b4 18 3c 9a f1 67 bd 3d 55 29 bd
       -0.008524742 0.009320377 -0.056626894 -0.041341055
0001c0 8b e0 92 3d 08 a1 0a 3d 40 ae 34 3d 64 d0 f9 3c
       0.071717344 0.033844978 0.04411149 0.030494876
0001d0 85 e0 2e bd ca b4 85 3c 50 27 cf 3c 75 fb cc 3d
       -0.042694587 0.016321559 0.0252873 0.10008899
0001e0 71 41 ab 3c 70 2e a2 3d 78 ee a4 3d 05 fd 93 3d
       0.020905228 0.079190135 0.08053297 0.07225994
0001f0 9e 69 c7 3c e9 24 9a 3d b7 99 1a 3d 0a e7 0e 3d
       0.024342354 0.07526571 0.03774425 0.034888305
000200 30 56 d8 bd a3 24 11 bc de 04 29 3d 7c f5 2b bd
       -0.10563314 -0.0088588325 0.041264407 -0.04198216
000210 4c 18 02 3c 28 33 f6 3c ad 40 05 3d ab d3 92 3d
       0.007940363 0.03005369 0.032532383 0.07169279
000220 b3 cb 40 3d 0c 40 99 3c 8f 69 d2 3c e9 e1 0c bc
       0.047069263 0.018707298 0.0256851 -0.008598783
000230 5c cd 6b 3d 22 c0 07 bd f4 46 23 bd 28 cb 13 bc
       0.057568893 -0.033142217 -0.039862588 -0.009020604
000240 f1 4b 8f bd 41 dc d3 bd b9 6c 66 bd 56 6e 2d 3d
       -0.069969065 -0.103447445 -0.05625603 0.042341553
000250 93 f3 dd bd 19 d1 e4 3c f3 77 93 3b 08 89 d6 ba
       -0.10837474 0.027931737 0.004500383 -0.0016367743
000260 71 7b 60 bd 83 1d 91 bd 6d 93 d1 bc 90 89 bb bd
       -0.054805223 -0.07085707 -0.025582993 -0.09157097
000270 8f ad 1d bc e5 99 45 bd ce 2a c2 3c f2 41 2e 3d
       -0.009623899 -0.04824247 0.023702051 0.04254336
000280 2b 2c 29 bd 4f b6 53 bc 75 50 8a bd 31 67 df bc
       -0.041301887 -0.012921884 -0.06753627 -0.027270885
000290 e7 9a e8 bd 73 4a 17 bd 49 b1 96 3d ad c8 86 bd
       -0.1135767 -0.036936235 0.07358033 -0.065812446
0002a0 9d 8f 6b 3c 32 81 b9 3b 61 4b 23 3d ae 57 bb bc
       0.014377502 0.0056611532 0.03986681 -0.022868957
0002b0 45 4a 9a bd f1 4f a7 bc f6 19 e0 bc 55 2b 8e 3c
       -0.07533697 -0.020423861 -0.02735613 0.017354647
0002c0 3b cb 49 bd 53 1d 82 3c c9 4b 8d bd 25 12 8b bc
       -0.04926608 0.015883124 -0.068992205 -0.016976425
0002d0 f1 5e 0d 3d e6 7c bd bc 6c a2 e0 3c 33 2e ae bd
       0.03451437 -0.023130845 0.027421199 -0.085049056
0002e0 88 c6 e6 bc 38 ba 8b bd a6 24 c8 3c b9 5f a9 bd
       -0.028170839 -0.06822628 0.024431538 -0.08270211
0002f0 2f 91 f9 3c a3 92 03 bd 55 da 3b bc 34 8b b5 bd
       0.030464737 -0.032122266 -0.011465629 -0.088644415
000300 e5 f4 be bb ba 7a d1 bd 8e 24 2b 3d 86 d1 9d 3d
       -0.0058275335 -0.10228486 0.04178291 0.07705979
000310 37 84 69 bc d7 6d 2c bd 40 43 04 bd cb dc 52 bd
       -0.014252714 -0.04209694 -0.032290697 -0.051480096
000320 e9 a1 86 bd 65 07 e9 bd aa 1c 92 3c e8 ec 8d bd
       -0.06573851 -0.113783635 0.017835934 -0.06929952
000330 dc f1 08 be f6 4e 62 bc 87 45 cf 3a ba 2e 19 bd
       -0.13373512 -0.013812771 0.0015813567 -0.037398078
000340 b9 92 23 3d dd 2b 47 bc dc 49 0c bc cb b8 ab 3c
       0.039934848 -0.012156454 -0.008562531 0.02096214
000350 e9 25 2a 3c 39 de cc bd 2f ba 09 3d ef 68 0a 3d
       0.010385015 -0.10003323 0.033624824 0.03379148
000360 f4 b9 cf 3a 51 5f 08 3d 98 72 6b 3d 3a 34 9b bd
       0.0015848265 0.033294026 0.057482332 -0.07578321
000370 66 a5 88 3d bf 72 87 bc 30 32 4c bd 9d 47 56 bb
       0.06672172 -0.016534207 -0.04985255 -0.0032696493
000380 71 a5 34 bd 54 da 6f bd e6 44 1a 3c 77 5f 4c bd
       -0.04410309 -0.058557823 0.009415841 -0.04989573
000390 b5 23 6a bd 91 c3 79 bc cb 22 a5 3b b0 89 dd 3c
       -0.05716296 -0.015244381 0.005039548 0.027043194
0003a0 c2 a9 04 be 78 58 34 3c e0 45 fd bc e8 8f a8 bd
       -0.12955382 0.011007421 -0.030917108 -0.08230573
0003b0 65 9e ec 3c f0 a6 c6 bc 7b 04 4a bd 01 a8 83 3d
       0.028884122 -0.024249524 -0.04932068 0.064285286
0003c0 3e e9 81 bd 91 e3 41 3c c5 6d 54 bd 58 f8 90 bd
       -0.063433155 0.011834041 -0.051862497 -0.07078618
0003d0 7c ea f0 bc a3 0c c1 bd 5a 88 a8 bd 86 3a 32 bd
       -0.029408686 -0.094262384 -0.08229132 -0.043512844
0003e0 19 86 39 bd 08 ab 3d bd 37 0d 10 3d e4 75 8d bd
       -0.0452939 -0.046305686 0.035168853 -0.069072515
0003f0 65 20 29 bd d7 57 dd bc 59 d3 b8 bc 95 36 00 3c
       -0.04129066 -0.027019424 -0.022561716 0.007825513

bias_hh f4 [384]
000000 24 06 93 bd 7a db 95 bb 2f a7 d2 bd 16 48 a9 bd
       -0.071789056 -0.004573283 -0.10285794 -0.082657024
000010 bb c5 12 bd 92 39 a4 bd 49 23 d7 3d 5a be a1 3c
       -0.0358331 -0.08018793 0.10504777 0.019744087
000020 85 cc 43 3d 4e 38 8d bd ce 04 20 bd 67 b6 16 3d
       0.047802467 -0.06895505 -0.039067082 0.036795046
000030 72 a1 c0 3d 2d 7c 60 3d ca ae ba bd 72 ba e3 bc
       0.09405793 0.054805923 -0.091153696 -0.027798865
000040 81 f0 15 bd 64 ca 80 bc 46 fd ae 3d fc 38 16 3d
       -0.036606316 -0.015721507 0.08544402 0.03667544
000050 4c 65 49 bd 01 b7 da bd 2a a5 33 3d 16 72 8f 3a
       -0.04916887 -0.106794365 0.043858685 0.0010944034
000060 13 e0 c8 bc 6f 91 ae 3c 86 27 88 3d d5 25 62 bb
       -0.02452091 0.021309583 0.066481635 -0.0034507413
000070 86 dc 70 bd 71 af 1f bd 85 38 bd 3d 29 be d2 3d
       -0.058804058 -0.038985673 0.09239296 0.102901764
000080 bf c1 bd bd 72 83 56 3d 7c ea ae 3d d7 54 9d 3d
       -0.0926547 0.05237145 0.08540818 0.076821975
000090 fb 4d 55 bc 45 3b 93 bc e7 ba 49 3d 9f 9a bd 3b
       -0.01301908 -0.017972598 0.04925051 0.0057862545
0000a0 0f 30 11 bd 54 67 1a 3d 42 d5 9f 3d 25 6b 5e 3d
       -0.035446223 0.037696198 0.078043476 0.0543014
0000b0 03 c8 9c bd e6 0f 71 3d f3 78 ba bc e6 2b 8b bc
       -0.07655337 0.058853053 -0.022762751 -0.016988706
0000c0 09 5f 61 bd 18 ab 95 3d f6 d9 43 bd 01 46 31 bd
       -0.055022273 0.07308024 -0.047815286 -0.04327965
0000d0 9b ba 37 3d 15 d2 fb bc 01 a4 93 3c 97 cd 09 3e
       0.044855695 -0.030739823 0.01802254 0.13457333
0000e0 c7 ee 1c bd 98 92 5b 3c c8 5e 49 bd 1b 66 81 bc
       -0.038313653 0.01340165 -0.049162656 -0.015795758
0000f0 99 11 68 bd 78 f4 0d 3d 3d af fb 3d e9 a0 4f 3d
       -0.056657407 0.03465697 0.122892834 0.050690565
000100 a9 71 94 bc ca 36 b1 3d 9b fe 2a 3d 31 b3 8a 3b
       -0.018120604 0.08653028 0.041746717 0.004232787
000110 03 f2 7f 3d 7a 76 40 bc 82 44 25 bd d6 b8 f7 3d
       0.06248666 -0.011746997 -0.040348537 0.120958015
000120 0e 99 30 3b 4f c9 f4 3d 43 ee af 3d c0 90 04 3d
       0.0026946696 0.11952459 0.08590367 0.032364607
000130 9b 3c a7 3b c4 02 f8 bb 40 60 06 bc b2 80 21 3d
       0.0051036603 -0.007568689 -0.008201659 0.039429374
000140 f9 70 3f 3d 48 03 84 bd 06 63 8c bd 85 be aa 3d
       0.0467386 -0.06445938 -0.06854825 0.0833712
000150 ec 1a 40 bd 0e d5 63 bd 64 02 c5 3d d9 c4 74 bd
       -0.046900675 -0.055623107 0.096195966 -0.05975804
000160 73 c7 83 bd 57 fa 81 3c 28 e5 92 3d 63 42 8f 3d
       -0.06434526 0.015866442 0.07172614 0.06995084
000170 c7 78 44 3d 8b 86 ed bc 4a 65 6a bc a7 d9 e7 3b
       0.047966745 -0.02899482 -0.014306376 0.0070755067
000180 26 9c e6 bc 40 fe de 3c 23 c8 8e 3d 39 16 48 3d
       -0.02815063 0.027220845 0.06971767 0.04884932
000190 b3 11 13 bd 80 37 af 3d 6b ba 01 3d 36 2a bd 3d
       -0.03590555 0.08555508 0.031671923 0.09236567
0001a0 d0 fd 6b bd a7 ba 51 3c 8e ac 8a 3d 90 a6 d0 3d
       -0.0576151 0.012800849 0.067711934 0.10188019
0001b0 c6 d6 8f 3d f5 c0 df 3b 5a fc 1b 3d 3c 8e 02 bd
       0.07023387 0.006828422 0.038082458 -0.031873927
0001c0 84 b0 7f bb a3 61 87 3d 8c 65 01 3c 73 c2 92 bd
       -0.0039015124 0.066104196 0.007897746 -0.071659945
0001d0 2d 46 ab bd f3 16 4c 3b 90 99 da 3c 27 ae 8f 3d
       -0.08362994 0.0031141608 0.026684552 0.07015639
0001e0 47 aa ae 3c 55 0b 1d 3d eb 70 d2 bb a6 52 38 3c
       0.021321429 0.038340885 -0.0064221523 0.011250174
0001f0 fe 64 89 3b 1d 4a 88 3d 4b ee d0 bc 6c da 62 bd
       0.0041929474 0.06654761 -0.025504252 -0.055384085
000200 e9 3d da 3c 0a f9 8d 3d 65 2c 84 3c fc 85 22 3d
       0.02664085 0.06932266 0.01613445 0.03967856
000210 88 5a 91 bd d7 b1 35 bd 66 0f 5b bc 4a c5 67 bd
       -0.070973456 -0.044359054 -0.0133703705 -0.056584634
000220 37 b1 b2 bc 05 18 64 3d f2 5f 80 bd 0c 09 8a bd
       -0.021813018 0.05568697 -0.062683 -0.06740007
000230 41 8c aa bd 0e 6e 95 bd 84 96 cd bc 8b 7f ba ba
       -0.083275326 -0.07296382 -0.025096186 -0.0014228685
000240 8c 6a 8a bc 4e f7 64 bd 1b 3b 0d 3c fe 22 82 3d
       -0.016896509 -0.05589991 0.008620049 0.063543305
000250 ee d6 90 bc b1 e9 e2 3c 04 1e 0d bd 86 91 98 bc
       -0.017680611 0.027699323 -0.034452453 -0.018624078
000260 47 12 20 bd c5 44 3f 3d 40 59 47 3c a0 e7 80 3d
       -0.03907993 0.046696443 0.012167275 0.06294179
000270 cb 5b a8 bc d5 53 72 3c 94 07 42 3c 03 e9 09 bc
       -0.020551583 0.014790495 0.011842627 -0.008417371
000280 50 26 73 3d ef 30 18 3d c0 fb f0 bb 3c 6f 77 3c
       0.05936271 0.03715604 -0.0073542297 0.015102204
000290 06 9e 30 bd 7c af 7b bc 51 18 ff 3b b2 f8 cb 3c
       -0.043119453 -0.015361663 0.007784881 0.02489886
0002a0 7c d5 76 bd 11 50 0c bd 53 8f ee 3c 06 27 a1 bd
       -0.06026219 -0.034256045 0.029121077 -0.07868771
0002b0 21 38 a8 3d 43 c1 b5 3d a2 35 5b bc 51 7d cb bd
       0.08213831 0.08874752 -0.013379486 -0.099360116
0002c0 a8 d0 1d 3d 0b 0b 6f 3d ea cf 33 3d ba ee 71 bd
       0.03852907 0.05836014 0.043899454 -0.059065558
0002d0 4b 54 38 3d 1a e6 16 3a f8 48 a1 3d de 85 a4 3c
       0.045002263 0.00057563337 0.07875246 0.020083364
0002e0 d5 1f 81 3d f8 4c 24 3d 65 9b cd 3c 89 62 69 bd
       0.063048996 0.040112466 0.025098512 -0.056978736
0002f0 63 0b 8e bc cb 5e 8f 3c 81 bd 96 bd df 8e 93 bd
       -0.017339414 0.017501255 -0.07360364 -0.07204985
000300 b3 27 f5 ba 69 e0 93 3a c4 43 f2 bc 5c 2f 4e 3b
       -0.0018703848 0.0011282089 -0.029573329 0.0031461334
000310 9f ef a2 bd 2c ff 2c bd bc cd 21 bd ce 29 1d 3d
       -0.0795586 -0.04223554 -0.039502844 0.038369946
000320 d3 64 3c 3d 74 e2 c0 bd c8 08 d1 3c 0b 7d 8f 3d
       0.04599459 -0.094181925 0.025516883 0.07006272
000330 ac 9e 84 bc 29 86 58 3d 15 cb 20 bc 4d e7 0e bc
       -0.016188942 0.05286232 -0.0098140435 -0.008722139
000340 04 a1 cb bb e7 1b 99 bd 76 6a df 3b cc 64 49 3d
       -0.006214263 -0.07476025 0.006818111 0.049168393
000350 fa a0 9b bd f3 4b c6 bd e4 e9 93 3d df 04 d5 bc
       -0.07599063 -0.09682455 0.072223455 -0.0260033
000360 49 67 21 bd 66 01 54 3d 7f da 3a bd 4f 97 62 3d
       -0.03940514 0.051759146 -0.04561853 0.05532008
000370 87 29 92 bb b5 14 05 3d 94 95 00 be 34 1c be bd
       -0.004460517 0.03249045 -0.1255706 -0.09282723
000380 6e fe 37 3d 20 3f 80 bd 88 ab 53 3d c5 76 a3 bd
       0.044920377 -0.0626204 0.051677257 -0.07981638
000390 52 60 c0 bd 69 96 a4 bc f3 52 0d bd 06 0a 9e bd
       -0.09393372 -0.020091252 -0.034502935 -0.077167556
0003a0 47 0e eb bd 3c a2 5f 3c c6 51 84 bd d4 19 a0 bd
       -0.114773326 0.0136495195 -0.064609095 -0.07817426
0003b0 de 02 8c bd 15 ca b9 bd c2 d8 eb 3c 50 43 94 bd
       -0.068364844 -0.09071747 0.028789882 -0.07239401
0003c0 39 dd 50 bd e9 46 8c bd 32 87 1d 3c a6 46 a6 3d
       -0.050992224 -0.068494625 0.009614753 0.08118944
0003d0 d4 db 6c bd ad 29 77 3c 0f 15 67 3d 9c 8d 41 bd
       -0.057826832 0.01508562 0.056416567 -0.04725419
0003e0 29 15 39 bc 15 65 1b 3d d7 01 71 3d 42 75 53 3d
       -0.011296549 0.037938196 0.058839645 0.051625498
0003f0 61 96 ee bd ea a8 c9 3c d8 4d 2c bd b8 6a 0a bd
       -0.11649776 0.024616677 -0.042066425 -0.03379318

weight f4 [128, 128]
000000 73 be 10 3d 64 a6 c6 bc 06 9d 23 3d 96 3c b2 3d
       0.035337877 -0.024249263 0.03994467 0.08702962
000010 a5 0f 52 3d f6 9a 19 3c e9 0b 6d bd 69 2b b3 3b
       0.05128445 0.0093753245 -0.057872687 0.0054678214
000020 c3 33 07 3c d0 fb 88 bd 69 9c 79 3d 1f 17 9e bc
       0.008252087 -0.066886544 0.06094018 -0.019298134
000030 00 d8 ff bc 6a c3 a5 bc 9d fb 63 bd bf 1d a3 3d
       -0.031230927 -0.020234782 -0.05565988 0.07964658
000040 3c c6 85 3d 67 88 aa bd b4 4f 81 bd 30 40 a9 3d
       0.06531951 -0.08326798 -0.0631403 0.08264196
000050 dd ee 72 bd 90 86 ec 3c 3d 6a 36 bd 3d 52 47 3d
       -0.05930983 0.028872758 -0.04453491 0.048662413
000060 a7 c3 91 3d 1a 82 87 bc cd f0 f4 bc fe 37 82 3d
       0.07117396 -0.01654153 -0.029899979 0.06358336
000070 c5 7e 11 bd 79 cb 52 3d 28 69 c3 3a e6 d0 02 3d
       -0.035521287 0.051463578 0.0014908658 0.031937502
000080 73 fd f2 bb ff 10 24 bc 35 37 32 bd 4a b9 97 3d
       -0.0074154674 -0.010013818 -0.04350968 0.07408388
000090 62 a2 a5 bd a3 35 82 bd 5a 25 29 bd 5c 38 5a b9
       -0.08087613 -0.06357887 -0.041295387 -0.00020811096
0000a0 a0 6c 21 3c 24 66 90 3a 5c e7 7a bd 71 7f ac bd
       0.009852558 0.0011016768 -0.061255798 -0.08422745
0000b0 79 cf 62 3c b7 56 92 bd 99 2f 2f 3d be f1 ac 3c
       0.013843411 -0.07145446 0.042770002 0.021111365
0000c0 a1 83 53 bb 82 fc b6 bd 08 d6 8c bd a6 32 40 3b
       -0.0032274502 -0.08934881 -0.06876761 0.0029327064
0000d0 e1 87 13 bd d5 e8 a4 bd 8f f2 be 3d c8 35 8b 3d
       -0.036018256 -0.08052222 0.09323608 0.06797367
0000e0 0e 6f 31 bd 91 1c ab 3d 9c d5 f4 3a fa 8e 67 bd
       -0.0433188 0.08355058 0.0018679383 -0.056532837
0000f0 87 6d bc 3b 21 30 7b bd bb 27 87 3d eb 5d ad 3d
       0.0057503614 -0.061325196 0.06599375 0.08465179
000100 60 02 8a bd 12 65 4d 39 61 bc 79 3d 8a 1b 8f 3c
       -0.06738734 0.00019587975 0.060970668 0.017469186
000110 36 46 a2 3d f3 12 96 bb 09 96 9c 3c ff 67 8e bd
       0.07923548 -0.0045798956 0.019114511 -0.069534294
000120 a7 9b f0 3c 2b 5c 2d 3d 75 a4 98 3d be 23 38 bd
       0.029371096 0.042324226 0.07453243 -0.04495596
000130 2a e7 35 bd f7 c4 d1 3c 68 29 ce bc 5e d2 8e 3d
       -0.04440991 0.025606615 -0.025166228 0.06973718
000140 f4 de 82 3c b3 e7 8f 3d 43 10 45 3d 94 8e a9 bd
       0.015975453 0.07026615 0.04811121 -0.08279148
000150 4d a4 fb 3c 2e 1a 72 3d 6b d8 23 3d c3 66 64 bc
       0.030717993 0.059107 0.040001314 -0.013940516
000160 1b 76 95 3d 98 49 a6 3c 6e c5 27 3b 6d 1d 31 bd
       0.072979175 0.020298764 0.0025599855 -0.043240953
000170 93 b9 97 bd c8 61 28 bb d1 72 ad bd 0c ce da 3c
       -0.07408442 -0.0025693048 -0.08469165 0.026709579
000180 66 81 58 bd af 02 69 bd 7e a6 35 3d 16 b9 a7 3d
       -0.05285778 -0.056887325 0.044348232 0.08189599
000190 bc 11 5e 3d a9 33 3b 3d 8e 1b 44 bd 29 f8 f4 bc
       0.05421613 0.045703564 -0.04787784 -0.029903488
0001a0 03 36 e5 3c 07 70 65 bc ce e2 ac 3c f1 77 95 bd
       0.027979856 -0.01400376 0.021104243 -0.07298268
0001b0 c3 26 19 bc 78 49 25 bd 5e 94 77 3c 83 5c 78 3d
       -0.00934762 -0.04035327 0.015111057 0.0606351
0001c0 de 69 80 bd ad d8 42 3d 75 04 49 bc 57 6b ff 3c
       -0.062701926 0.04756992 -0.012269129 0.031179113
0001d0 c5 97 48 bd 7e 50 02 3c f9 d3 48 bd 6e 5f 47 bd
       -0.048972864 0.007953761 -0.049030278 -0.048674993
0001e0 43 f4 8f 3c 95 3c 36 3b 2a 2c 51 3d d6 fe 9b 3d
       0.017572528 0.0027807106 0.05106751 0.076169655
0001f0 64 b6 78 bc 2b cb 89 3b 35 4c a0 bd 5b 78 86 bd
       -0.015180204 0.0042051277 -0.07827035 -0.06565925
000200 f7 35 49 3d 5f 83 d7 3d 45 eb 3f 3d d8 59 9c 3d
       0.04912373 0.10523104 0.04685523 0.07634324
000210 4a 1f 40 bd 23 96 85 bd e4 f7 20 bd b3 15 b5 3d
       -0.04690484 -0.06522777 -0.039298907 0.088420294
000220 82 7d bf bc a9 12 5a bd 83 f5 91 3d 29 61 9f bc
       -0.023375276 -0.053240452 0.07126906 -0.01945551
000230 6b f8 23 bd b4 2a d5 3c d5 08 dd 3c b2 c0 80 bd
       -0.04003183 0.026021339 0.02698175 -0.06286754
000240 ca 7b c2 bc 89 04 ab bd e0 30 b4 3d e3 06 ff 3c
       -0.023740668 -0.083504744 0.08798385 0.031131214
000250 46 94 79 3b 92 fc 9a 3d c9 6a 75 3d 47 2b 8b bc
       0.0038082763 0.07567705 0.05991629 -0.01698841
000260 6b 04 12 bc 65 ef b8 3d 8f 4f 19 bd eb 55 58 3d
       -0.008912186 0.09030036 -0.03742939 0.052816313
000270 99 5a e4 bc 92 09 24 bd 93 e5 b1 bd a1 8e 20 bd
       -0.027875232 -0.04004819 -0.08686366 -0.03919852
000280 1d 23 9d bd ff 42 70 3c e0 76 51 3c 2a 1b 8b 3d
       -0.07672713 0.014664411 0.01278469 0.067922905
000290 66 d6 b1 bd 86 83 94 bd 2e 58 77 3b 55 96 81 3c
       -0.086834714 -0.072516486 0.0037741768 0.015818754
0002a0 3c 7b 17 bc 05 3b 61 bb f7 72 82 3d 76 53 1a 3c
       -0.00924569 -0.0034367454 0.06369584 0.009419313
0002b0 9e c4 56 bd a0 07 80 bd f6 76 8f 3c 19 98 90 3d
       -0.052433603 -0.06251454 0.01751278 0.0706026
0002c0 67 2f a4 bd 32 a6 a4 bd 8e 7f 76 3c ee af e1 3c
       -0.08016854 -0.08039512 0.01504506 0.02754971
0002d0 c6 11 bc bc e0 a5 ac 3d 83 ab c6 3b 7f 92 f7 bc
       -0.022957694 0.08430076 0.0060629263 -0.030221222
0002e0 9f 5c 88 bd d1 a7 90 3d 4e 31 af 3d 4d 47 e5 bc
       -0.06658291 0.070632584 0.08554326 -0.0279881
0002f0 17 1f 93 3d 0c a4 8c bd 19 7f 20 bd 60 b5 5e 3d
       0.07183664 -0.06867227 -0.03918371 0.05437219
000300 82 ec aa 3d 7d 9b 4b bc 29 38 4f 3d 4c 39 39 3c
       0.083458915 -0.012427208 0.050590668 0.011305165
000310 3d b1 1d bd 6e c1 67 bd bf f6 8b 3d bf 75 4e bd
       -0.038499106 -0.056580953 0.068341725 -0.05040526
000320 9f 61 2d bd 84 72 56 3d 05 ef 53 bd c5 f4 a6 bd
       -0.042329427 0.052355304 -0.05174162 -0.08152155
000330 3a 7f eb 3c 9f 5f 71 bd d0 71 fb 3c 57 02 9b 3d
       0.02874719 -0.058929082 0.030693918 0.07568806
000340 c5 eb 95 3d be e5 b1 bd 2c 9d 24 3d 6d 6d d2 3c
       0.0732036 -0.08686398 0.040188953 0.025686944
000350 4e 0e 44 bd 4b b7 61 bd b0 12 a6 bd 72 2f ab 3c
       -0.047865205 -0.055106442 -0.08109033 0.020896647
000360 b6 30 65 bd 33 c1 bf 3c 8b b2 b6 3d c4 e1 e8 3a
       -0.055954657 0.023407554 0.08920773 0.0017767479
000370 a4 cd 8e 3d 40 45 84 bd 73 41 49 3c 30 c1 9e bd
       0.069728166 -0.06458521 0.012283671 -0.07751691
000380 90 bd 94 bc 2a 67 a8 bc 23 0d 2c 3d c8 7d 55 3d
       -0.018156797 -0.020557005 0.042004716 0.052121907
000390 28 4f 94 bc 4f 90 70 3d c2 9a c4 bc 71 4d 02 3d
       -0.01810415 0.058731373 -0.023999576 0.031812135
0003a0 26 a1 a4 3d 0c 20 44 3d 0e 99 aa 3d 70 ba f5 bb
       0.08038549 0.047882125 0.08329974 -0.0074990317
0003b0 13 b9 8a 3d a1 83 8e bd e4 5b 88 3d 29 c8 85 bb
       0.06773581 -0.069587 0.06658152 -0.004082699
0003c0 25 f3 c3 3c 3c e6 59 3d 3a 7e b3 bd 36 e7 5d 3d
       0.023919651 0.053198084 -0.0876431 0.054175578
0003d0 2d 9c 85 bd 8f 59 a4 3d a7 d5 57 3d 62 ca 9d bd
       -0.06523929 0.080248944 0.05269399 -0.07704617
0003e0 b0 d5 a2 bd c0 52 8b 3d 35 61 87 3d 69 8e b0 3d
       -0.07950914 0.06802893 0.06610338 0.086209126
0003f0 47 c3 ad 3d 5f 5e 97 3d ce cc 21 bc 5a 5c 41 3d
       0.08484512 0.07391047 -0.009875489 0.047207214

bias f4 [128]
000000 2f b2 29 bd 35 6e 93 bd fc e0 64 bd bc d9 c5 3c
       -0.041429695 -0.07198755 -0.055878624 0.024151675
000010 6a 04 c6 3c f2 9c 3a b8 62 cb ee bd 8e 5a c8 3c
       0.024172027 -4.4492022e-05 -0.11659886 0.024457242
000020 55 4f 3f 3d 30 68 ce 3c 09 dd 94 3d ad 87 b5 bc
       0.046706516 0.025196165 0.072687216 -0.022159422
000030 8f c7 e8 3c 52 17 39 3d 00 5f 9e 3c d3 74 38 3d
       0.02841547 0.045188256 0.019332409 0.045033287
000040 83 f4 14 3d 41 90 08 bd 20 47 97 3c 0d 9f 20 3b
       0.036365997 -0.033340696 0.018466532 0.0024508864
000050 fa 43 98 bd 6a 3e 3b 3d 00 55 82 bd 10 5a cc bc
       -0.074348405 0.04571382 -0.06363869 -0.024945289
000060 af 73 94 bd 2c de 67 3d 3b 3c 55 bd 6b a1 a1 3d
       -0.072486274 0.056608364 -0.052059393 0.07892116
000070 f4 29 dd 3c aa e1 72 bd e0 cf de bb 5c fa 9c 3d
       0.026997544 -0.05929724 -0.006799683 0.0766494
000080 ea ad 70 3d 31 b2 7a 3d 1f 27 23 bc 1c 19 4a 3d
       0.058759607 0.061205093 -0.009958058 0.049340352
000090 92 81 a8 3d 40 c9 48 3d e9 1b 39 3c 0a 72 3a bc
       0.082278386 0.049020052 0.011298158 -0.011379728
0000a0 db 3a 03 bd 40 bc 50 bc 41 14 31 3d 5b a7 03 be
       -0.03203855 -0.012740195 0.043232206 -0.1285681
0000b0 90 c5 81 bb 65 b5 73 bd 68 90 37 bd c8 7d 25 bd
       -0.003960319 -0.059499163 -0.04481545 -0.040403157
0000c0 3c f2 a3 3d ed 19 fc bd 33 11 b9 3b 4a a1 d8 bd
       0.08005187 -0.123096325 0.0056478023 -0.105776384
0000d0 a2 d1 66 3d ea f1 a0 bd 9a cb 99 3a 25 b3 66 bc
       0.056352265 -0.078586414 0.0011733652 -0.014080797
0000e0 70 70 8c 3d 38 e1 17 3d 12 8c 9d bd b5 39 7c 3d
       0.06857383 0.03708002 -0.07692732 0.06157847
0000f0 c7 4a 55 bd 45 87 44 3d bc a3 7e bd 68 4e c0 bb
       -0.052073266 0.047980566 -0.062167868 -0.0058687218
000100 b9 e9 42 3d 8d 7f ac 3d f8 42 6c 3d c1 e6 3b bd
       0.047586177 0.08422766 0.057681054 -0.04587436
000110 45 29 75 bd 06 ee 13 3d c9 7f 25 bd 09 f5 a2 3d
       -0.05985381 0.03611567 -0.04040507 0.07956893
000120 56 e6 d1 39 7d d3 b4 3c 8f 21 bb 3c f5 8b 38 3d
       0.000400352 0.022073502 0.02284315 0.04505535
000130 b1 ad 37 bd 6a e0 4f 3d 32 61 ac bc 44 f0 8b 3d
       -0.04484338 0.050751127 -0.02104244 0.068329364
000140 5f 1f 26 3d 83 fb 66 3c 02 62 a2 3b dd 00 32 bd
       0.04055726 0.014098051 0.004955531 -0.043457855
000150 a0 85 ba 3a 86 86 62 bd a3 47 37 bd 39 c5 00 3d
       0.0014230497 -0.055304073 -0.044746052 0.031438086
000160 62 ef ee bc f2 80 27 bd 3d 50 bf 3d 47 77 9b bd
       -0.029166881 -0.040894456 0.09341476 -0.0759111
000170 ae 72 5c 3d 9b 4b 8d 3d 3b cd 99 3d ef 4a a8 3d
       0.053820305 0.06899186 0.07509848 0.082174174
000180 cf 69 02 3c ad 81 d8 bd bd 5c e9 3c ff bb 5d 3d
       0.007959797 -0.10571609 0.028486604 0.054134365
000190 f2 af ad 3c 52 41 cc bc 9f 01 28 3d cc 1c a2 3c
       0.021202061 -0.02493349 0.04101717 0.019789122
0001a0 08 d5 bd 3c ec 30 d1 3d 73 1f ad 3c 94 7b d0 bc
       0.02317287 0.10214409 0.02113316 -0.025449552
0001b0 b6 d7 40 3d fe 67 45 bd a7 a6 70 bd 46 33 f4 3c
       0.047080718 -0.048194878 -0.058752682 0.029809605
0001c0 86 c3 82 bd 4a 30 58 3c 11 94 8d 3d 0c b9 df bd
       -0.063849494 0.013195107 0.06913007 -0.10923967
0001d0 2e 5a 9c 3b 55 10 49 3c 13 31 ea 3c 72 10 81 3d
       0.0047714924 0.01227196 0.028587854 0.06301965
0001e0 56 d9 07 be fb db e8 3c 3f ba 0a bd 5e 12 07 3d
       -0.13266501 0.028425207 -0.033869024 0.0329765
0001f0 65 0a 29 3c d8 7f c5 bc e5 85 01 bd b7 9e 1f bd
       0.01031742 -0.024108812 -0.031621832 -0.03896972

weight f4 [128, 128]
000000 af 15 de bc b8 27 91 3d da 86 c1 bb 5d 50 a9 bc
       -0.027109949 0.07087654 -0.005905968 -0.020668203
000010 af 11 59 bd cb 1e ac bd 34 b5 9b bd d5 61 99 3d
       -0.05299538 -0.08404311 -0.07602921 0.07489363
000020 1d 63 7c 3d e0 9e e8 bc 38 58 81 3d 72 cb ac bd
       0.06161796 -0.02839607 0.063156545 -0.084372416
000030 d9 00 7b 3d 63 fa 26 bd 2f ee 97 3c a3 82 78 3d
       0.061280105 -0.04076613 0.018546192 0.06067146
000040 5d 41 22 3d d5 4c 39 bd 65 be 29 3d 07 2b 3c bd
       0.039613117 -0.04523929 0.04144134 -0.04593947
000050 90 b8 a2 bc f9 1b 8e bd 07 8c 87 3d 87 83 cd 3c
       -0.019863397 -0.06938929 0.06618505 0.025087131
000060 1a 77 89 bd f1 7b 0e 3d 07 fd 46 bc 0f 98 3a bd
       -0.0671217 0.03478617 -0.012145287 -0.04555517
000070 11 84 50 3d 3b 56 ae 3d 89 42 89 3d bb 30 d9 bc
       0.0509072 0.08512541 0.06702144 -0.026512494
000080 91 8c 44 3d a2 34 a3 bd 74 65 f6 3c 1e b2 20 bd
       0.047985617 -0.07969023 0.030077673 -0.039232366
000090 d5 a1 54 3b b5 ec 6a 3d 1a a8 b7 3c 97 2f 44 bd
       0.0032445092 0.057354648 0.022419024 -0.047896948
0000a0 58 25 8f 3d 11 e5 98 3c 94 67 a9 bc 92 da 21 bd
       0.06989545 0.018663915 -0.020679273 -0.039515086
0000b0 77 bd 5a bd 67 ce 16 bd 46 e4 06 3c 5d 31 89 3d
       -0.053403344 -0.036817934 0.008233136 0.066988684
0000c0 71 c0 80 3d 41 16 86 bd 97 9e 94 bd 41 ac 96 bd
       0.06286705 -0.06547213 -0.07256811 -0.073570736
0000d0 93 7b fa bc cc 6a bc 3d 92 f4 f1 bb 9e 3b 83 3d
       -0.030576503 0.092000574 -0.0073838914 0.064078555
0000e0 ae fb a8 bd a7 7e 63 3d 43 bb 45 3c 5c 6d 7e 3d
       -0.08251129 0.055540707 0.012068572 0.062116012
0000f0 5e b3 f8 3c c3 0a c5 bc 92 4b 70 3d 75 a7 a3 bb
       0.030358966 -0.024052983 0.05866582 -0.0049943277
000100 a7 eb 88 bd af 1d 33 bd ae 73 82 bd 5c e8 70 3b
       -0.06685572 -0.04372948 -0.063697204 0.003675959
000110 ba 99 34 bb c9 55 92 3d 31 b2 ae 3d 98 86 b5 3d
       -0.0027557448 0.071452685 0.08530081 0.08863562
000120 51 92 9f bd ca 5c 9b bd 49 c3 f5 3c df 71 36 3c
       -0.077915795 -0.075860575 0.030000346 0.011135547
000130 5a a6 8c bd 80 ca fd bc c4 7b 85 bd 74 ff 84 bd
       -0.068676665 -0.030980349 -0.06517747 -0.06494036
000140 e6 1a 35 3d 25 6a 84 3c ce 9f a0 3d 6b c7 a0 bd
       0.044215105 0.016163895 0.0784298 -0.07850536
000150 d8 7d 0d bb 2b a5 78 3d 25 9e 86 bc c7 e1 eb bb
       -0.0021589901 0.06070439 -0.016432831 -0.0071985456
000160 3b 69 f2 3c 45 08 9a 3d e9 eb 53 bd 92 a3 86 bd
       0.029591193 0.075211085 -0.051738653 -0.06574167
000170 cd 17 9c 3d 25 dc 18 bb 6a d2 4b bc 8a 5f a8 3d
       0.07621727 -0.0023324576 -0.012440303 0.08221348
000180 f9 d8 43 3d 4c 0c 96 3c 32 0e 28 3d d3 45 16 3d
       0.047814343 0.01831641 0.041029163 0.036687683
000190 29 8f 9c 3d 80 66 52 bd 28 4a 68 bd 9b 6a e2 3c
       0.07644493 -0.051367283 -0.056711346 0.027638724
0001a0 21 a9 35 3d 3f ac 89 bd 1b 32 73 bc b3 94 96 3d
       0.044350747 -0.067223065 -0.014843489 0.07352581
0001b0 10 49 8f bc 38 91 d9 3c e4 c7 df bb b1 59 83 bc
       -0.017490894 0.026558504 -0.0068292487 -0.01603398
0001c0 32 94 88 bd 54 3b 14 bd 7a 49 e0 bb 64 f4 ab 3c
       -0.06668891 -0.036189392 -0.0068446966 0.020990558
0001d0 9c ea 82 3d 67 18 2a 3d 53 ab b9 bc 4c 7a d1 bc
       0.063924044 0.04152718 -0.022664702 -0.025571011
0001e0 bd 84 21 3d bc fb 17 bd 04 8c 06 bd d3 3f 9c bd
       0.03943323 -0.037105307 -0.032848373 -0.07629361
0001f0 3b 3f 81 3d 56 20 c4 bd 07 2e 17 3c 29 b2 85 ba
       0.063108884 -0.0957648 0.009227282 -0.0010200191
000200 48 40 04 bd 6c 0b b1 3c ba 36 44 3d db d3 50 bb
       -0.032287866 0.021611892 0.047903754 -0.0031864557
000210 c7 d0 b8 bd 97 a0 bb 3b 62 7b 7f bd 6b d2 f6 3c
       -0.09024196 0.005725931 -0.062373526 0.030129632
000220 e6 6f 69 3d 48 38 95 3c c6 d9 b6 bc 44 67 29 bd
       0.05699148 0.018215314 -0.02232064 -0.041358247
000230 22 1e 6b bd 42 14 ea bc 2e ed 7f bc 97 cd d5 bb
       -0.057401784 -0.028574113 -0.015620513 -0.0065247524
000240 d6 bf 66 bd 56 b6 ba 39 4a 9d 3b 3d ad ae 1a 3d
       -0.056335293 0.00035612535 0.0458043 0.03776424
000250 65 fd 95 bd d6 2e f4 3c 4d 01 92 3c cb c5 52 3c
       -0.07323722 0.02980749 0.017822886 0.01286454
000260 6d 0f 9a bd e2 ec cf bc d6 82 8a bd e0 ca f9 bc
       -0.075224735 -0.02538151 -0.06763236 -0.030492246
000270 88 f5 1d 3d f6 37 fe 3b 5d 22 7d 3d b9 8d 09 3d
       0.038564235 0.007758136 0.06180035 0.033582423
000280 9b 4f 37 bd 49 bf 4e 3c ac 1c a1 3d cd cb 4d bd
       -0.044753652 0.012618848 0.07866797 -0.050243188
000290 83 91 3e 3d b3 a2 a0 bd de fe 7e bd 94 b5 84 bd
       0.04652549 -0.078435324 -0.06225478 -0.06479946
0002a0 34 d6 b9 bd 6f 3d 47 3c d4 34 7f 3d d8 05 b5 3d
       -0.09074059 0.012160643 0.06230624 0.08839005
0002b0 ac fc 0e bc 55 f7 29 bd 9e 5e da 3c 06 e9 16 bd
       -0.008727234 -0.04149564 0.026656445 -0.036843322
0002c0 c6 86 3b 3d 4c 67 ac bc 52 a5 a9 3b 78 a2 0c bc
       0.045782827 -0.02104535 0.0051771784 -0.008583657
0002d0 26 27 1d bd 8a 60 27 39 fa 61 93 3d 76 3d 6a 3d
       -0.038367413 0.00015962325 0.07196422 0.05718752
0002e0 4b 12 05 3d 21 ef e3 bc 0c 95 b6 3d 78 ad 98 bc
       0.03248815 -0.027823986 0.08915147 -0.018637404
0002f0 7d b9 d2 3c 61 4a a1 bd c5 f9 9b bd b2 cd 47 3d
       0.025723213 -0.07875515 -0.07615999 0.04878015
000300 79 7d d0 3c b9 fc 76 3d 60 cd b4 bd 50 b5 c7 bd
       0.025450455 0.06029961 -0.08828235 -0.097513795
000310 82 2e 84 bd 1b 87 87 bd 0c d9 60 bd 93 07 c9 bd
       -0.06454183 -0.06617566 -0.054894492 -0.09815898
000320 7b de be 3c d3 56 8d bd b2 84 a3 3d 19 f1 7e bc
       0.023299446 -0.06901326 0.07984294 -0.015560412
000330 6c 49 8a 3c b4 0b be bc 01 b8 2f bd d0 c4 65 3d
       0.016880713 -0.02319894 -0.04290009 0.0560959
000340 6b e3 e9 bc 67 d6 9f 3d ef 5a 54 bd d4 51 3a 3d
       -0.028550824 0.07804566 -0.051844534 0.045488194
000350 34 26 67 bc 3e 2e 8d 3d 99 3e 36 3d e5 b1 18 3d
       -0.014108229 0.068935856 0.04449329 0.03727903
000360 cb 50 a3 3d 1b e3 54 bc 04 7e 70 bd fb a1 75 3c
       0.079743944 -0.012993599 -0.058713928 0.014992232
000370 b9 26 ba 3d 03 3e 84 3c 86 3b 27 3c 4e 99 5a bc
       0.09089417 0.01614285 0.010207063 -0.013342215
000380 b1 9c 61 3d 41 a9 55 3d 7d 19 8b bc ef ca 5f 3d
       0.055081073 0.052163366 -0.016979927 0.054636892
000390 97 83 43 3c 14 47 69 3d 6f f4 10 3d 1f 63 c5 3c
       0.011933229 0.05695255 0.03538936 0.024095116
0003a0 b4 5b c9 bb 56 2e 63 bd 32 2f 5b bd 2b 92 db 3c
       -0.006144965 -0.05546411 -0.053511806 0.026803097
0003b0 9b f2 0b bc 67 21 99 bc b6 6f 06 bb 1b 18 d6 bc
       -0.008541728 -0.018692685 -0.0020513362 -0.026134541
0003c0 b6 bd 2f bd 6f 67 ae bd c5 68 4c 3d 2c d7 f7 3c
       -0.04290553 -0.08515822 0.049904604 0.03025397
0003d0 56 70 1a bc 82 11 8d bd 5c 4c b6 3b ac 0f 27 bd
       -0.009426197 -0.06888105 0.005563302 -0.04078643
0003e0 0f fc 85 bd 99 b0 90 bd 50 b2 34 bd 51 dc ec bb
       -0.06542217 -0.07064933 -0.044115365 -0.007228412
0003f0 e0 8b ad bc 8f 55 48 3d 35 3b 62 3d 29 e3 81 bd
       -0.021184862 0.04890972 0.055232245 -0.063421555

bias f4 [128]
000000 8d 4a 93 3d e2 42 03 bd 31 1e c7 3d f2 db b5 bc
       0.07191954 -0.032046206 0.097225554 -0.022199605
000010 43 42 91 3c fc 63 7c 3d 51 46 08 3d c3 49 75 bb
       0.017731791 0.06161879 0.033270184 -0.0037427999
000020 a7 1f 8d bd b4 3b dc bd e4 68 5c 3d 49 5d b7 3d
       -0.06890803 -0.10753575 0.05381097 0.089533396
000030 b1 9b d1 3c e1 f2 02 3d 4b 57 01 3d 56 79 a7 3d
       0.025586935 0.03196991 0.03157739 0.0817744
000040 ce 75 9e bd 2d 61 aa 3d f8 b4 5c 3d 54 f7 b6 bd
       -0.07737313 0.08319316 0.053883523 -0.08933893
000050 67 17 77 3d 6c d2 76 bd 36 84 13 3d c7 f8 98 bd
       0.060325053 -0.060259268 0.036014758 -0.074693255
000060 50 b6 28 3b b0 28 86 bc 9a 1e 8b bd 67 62 95 3d
       0.0025743432 -0.016376823 -0.06792946 0.072941594
000070 4d 93 60 3d 19 3e 7a 3d 64 af f0 bc df a7 ea bd
       0.054827977 0.061094377 -0.029380508 -0.114578
000080 4a 5f 1a 3d c2 51 75 3d 88 85 3f bd b9 7c 43 bd
       0.03768853 0.059892423 -0.046758205 -0.047726367
000090 cf ef 93 bd 1f 7d b5 3d 1e 9b 91 bd 25 57 23 bc
       -0.07223474 0.088617556 -0.071096644 -0.009969507
0000a0 fe fd ad 3c 44 d5 a4 bb d8 fb 69 3d 1a ce 24 3d
       0.021239277 -0.005030306 0.057124943 0.040235616
0000b0 13 6e 63 3d a0 ca b8 3d f7 04 05 3d e5 f1 af 3d
       0.055524897 0.09023023 0.032475438 0.085910596
0000c0 51 82 98 bd 14 ee 63 3d a2 c2 64 3c eb 1b b5 bd
       -0.07446731 0.05564697 0.01396242 -0.088432156
0000d0 da 5b 81 3b 9e 40 24 3d 7a e6 b7 bd 7c 80 ce bd
       0.003947717 0.040100686 -0.08979507 -0.100831
0000e0 c1 8e ab 3d b3 2d 8e bd ea ee 15 bd db 7c b8 bc
       0.083768375 -0.0694231 -0.0366048 -0.022520473
0000f0 0a 02 60 3d dd 7b 97 3d 5f 25 6d bd 3c 6f 1c 3d
       0.054689445 0.07396672 -0.057896968 0.03819202
000100 96 0c ec 3c 12 73 5b bc 68 6b 2d 3d 2b bc ea bc
       0.028814595 -0.013394134 0.04233876 -0.028654179
000110 0b 75 b1 3c 82 7e 66 3d 56 31 b6 3c d7 11 b3 3c
       0.021662256 0.05627299 0.022240322 0.021859093
000120 21 c0 96 bd 73 4e b1 3d d5 b9 55 3d 2b 56 90 3d
       -0.073608644 0.08657541 0.052179176 0.07047685
000130 2f 9a f4 3c 31 65 8f bd 66 20 93 3d 4e 20 12 bd
       0.029858677 -0.070017226 0.07183914 -0.03567534
000140 e8 08 16 bc 6d f2 53 bd 04 f0 8c bd 6b a3 03 3d
       -0.009157397 -0.051744867 -0.06881717 0.03213827
000150 4d 54 af bd c9 2f 62 bd 05 cb de bd fc 66 1d 3d
       -0.08561001 -0.055221353 -0.10878567 0.03842829
000160 a8 85 0c 3c 66 4b 04 3d eb a1 41 3d 0c fc 06 3d
       0.008576788 0.032298468 0.047273558 0.032955214
000170 92 a3 5a bc 28 43 93 3c 4b 91 bf 3d 5b 68 dd bb
       -0.013344662 0.017976359 0.09353884 -0.006756825
000180 48 9e 91 3b 20 26 81 bc ee 90 20 bd f3 d0 7a 3d
       0.0044439174 -0.01576525 -0.039200716 0.061234426
000190 77 19 1c 3d 37 2b 42 3d 7d cc 21 3d a9 2e ca bc
       0.038110223 0.047404494 0.039501656 -0.024680452
0001a0 f2 f5 56 bd f8 70 4f 3d d9 90 86 3d ab 24 cf 3c
       -0.052480645 0.050644845 0.06570596 0.02528604
0001b0 51 04 1d 3d 96 9e 8f 3d ab 98 0c bd 34 5d e5 bb
       0.038334195 0.0701267 -0.034325283 -0.006999636
0001c0 e8 ee 36 bc e1 8b 00 3c 58 55 a7 bd 19 78 1c bb
       -0.011165358 0.00784585 -0.08170575 -0.0023875295
0001d0 35 ee 99 3d 78 19 65 bd 88 33 d2 bc 0d e0 c1 bc
       0.075161375 -0.055932492 -0.025659338 -0.023666406
0001e0 f2 36 96 3d 86 c2 fd 3c e3 d8 ac 3d 4e db d2 3c
       0.07334699 0.030976545 0.08439805 0.025739338
0001f0 32 f6 b5 3d 03 3a 2e bc a9 22 f5 bb 3e 23 94 3d
       0.08884849 -0.010633948 -0.0074809385 0.072332844
