results/model/union_544.model (torch, 686563 bytes, 21 tensors)

weight_ih f4 [384, 5]
000000 41 74 a1 bd 77 34 a0 bc a4 d6 01 be f2 5e 54 bc
       -0.07883502 -0.019556267 -0.12679535 -0.01296209
000010 80 a1 43 3c 4d de 32 3e e9 3d 46 be 57 51 21 3d
       0.01194036 0.17467614 -0.19359554 0.039384212
000020 ad 6c 95 bd 69 97 24 bf e3 a8 15 3e d1 7c 02 be
       -0.07296119 -0.64293534 0.14615206 -0.12742926
000030 57 17 4b 3d d1 3e 5e 3e bf 0c 58 bc 82 59 f2 bc
       0.049582805 0.2170365 -0.013186633 -0.029583696
000040 ad 60 d1 3d 4b 2b ce bc 45 e9 ed 3c 59 c8 dc 3b
       0.102235176 -0.025167128 0.029041896 0.0067377505
000050 f9 cf 57 3d 24 e9 1b be f1 cc 84 be 40 f3 78 3d
       0.052688573 -0.15225655 -0.25937608 0.060778856
000060 84 b9 bb bd c2 47 9f bd 70 3a d9 3d 35 3d 21 3e
       -0.09166244 -0.077773586 0.10606849 0.15746005
000070 de a3 37 be fe cf f1 3d 23 c2 b1 bd b3 4c 6b 3d
       -0.17933604 0.118072495 -0.08679607 0.057446193
000080 12 93 a3 bd 82 a8 63 3e 29 00 fc bd cc 83 39 3e
       -0.07987036 0.2223225 -0.12304718 0.18116683
000090 bf 5a e3 bd 0e d6 0b be ac 17 dd 3d c5 5c 1e bd
       -0.11101293 -0.13655874 0.10795531 -0.03866269
0000a0 ce e0 8e bd 30 58 57 3e b6 a7 51 bd 38 a5 a8 3d
       -0.06976472 0.21029735 -0.051185332 0.08234638
0000b0 f0 cb da bc ed d2 66 bc ea d8 dc bc fd f8 ab 3d
       -0.026708573 -0.014088375 -0.026958901 0.083971
0000c0 71 9b 0a 3e 55 6e fa 3d dc 91 76 bd e1 1d d8 3c
       0.13535859 0.122280754 -0.060197696 0.026381435
0000d0 16 bf 24 be 40 24 29 3c cc 7d a8 3c d6 e9 9e bd
       -0.16088519 0.010323584 0.020567797 -0.077594444
0000e0 a0 b9 14 bd 8d 2e e1 3d a4 4c de 3d 39 dc 9e 3d
       -0.03630984 0.10995207 0.10854462 0.07756848
0000f0 67 28 43 3e 0e 7a 3b bd 26 e5 db 3d 7a e5 13 3e
       0.19058381 -0.045770697 0.10737066 0.14443007
000100 7b b1 d8 3d 3b d1 f2 bc 0f fd 0e 3d f4 14 05 bd
       0.10580727 -0.029640784 0.034909304 -0.032490686
000110 a4 0d bb bd 5a 59 cd bd 71 3c 05 be eb 26 8b bc
       -0.09133461 -0.10026808 -0.13011338 -0.016986331
000120 97 be aa 3d db e8 05 3b ff 57 03 bd 02 ba ae 3c
       0.083371334 0.0020432982 -0.03206634 0.02132893
000130 5a b8 d3 3d 15 d6 dc 3d 2e a4 ae 3d 40 59 ba bc
       0.10337897 0.107830204 0.085274085 -0.022747636
000140 81 bb 59 3d f1 b4 d4 3d ea 95 18 3e a5 08 b4 3d
       0.053157333 0.10386074 0.14900938 0.08790711
000150 0a 6a e8 bb 90 5b 1b 3e 3e 0a 5a 3e 27 bf 5d 3e
       -0.007092719 0.15171647 0.2129297 0.2165495
000160 df 07 5c 3d af 25 b2 3d 2a 71 87 3e 9d e4 ae bd
       0.053718444 0.08698594 0.26453525 -0.08539698
000170 8b 5a aa 3d 26 4a dc bc 38 8c a8 3e 74 b4 d4 bd
       0.08318051 -0.026890825 0.32919478 -0.10385981
000180 49 c3 a0 3e 8b 99 4d bc 6a 06 66 3d 32 a2 e7 be
       0.3139899 -0.0125488145 0.05615846 -0.45240933
000190 18 8d a8 bb f7 4b 94 bc 68 68 95 3d 42 2b df 3b
       -0.005143773 -0.01810263 0.072953045 0.0068105767
0001a0 d7 32 83 3e 17 75 89 bd 09 cd e2 3d 4a 42 01 bd
       0.25624725 -0.06711786 0.110742636 -0.03155736
0001b0 47 69 33 bb cd 73 13 bf fe fb 84 3d f2 91 43 bd
       -0.0027375983 -0.5759857 0.06493376 -0.047746606
0001c0 85 31 13 3d 66 71 cb bc f8 44 0b be 45 02 85 3c
       0.035935897 -0.024834346 -0.13600528 0.016236434
0001d0 06 ed 50 3d 5c 3d b7 3c c8 ff c9 3d 88 98 c7 bd
       0.051007293 0.022368126 0.098632395 -0.0974589
0001e0 a5 0b 13 bd f9 65 1e 3e da e1 91 bc 73 ee b8 3d
       -0.035899777 0.15468587 -0.01780789 0.090298556
0001f0 b0 ae f8 3b 6a be 47 bc 60 ca 98 3d 23 1c 94 3d
       0.0075891837 -0.012191394 0.07460475 0.07231929
000200 23 9f 0e bd 91 a1 18 3e a6 04 0c 3e 09 4e 89 3e
       -0.034819733 0.14905383 0.13673648 0.2681735
000210 22 51 b0 bc 41 1d 7a 3c bd ff 55 3d 69 7f 21 3d
       -0.021523062 0.015265764 0.052245844 0.03942815
000220 09 42 3a bd 60 25 16 be 77 d9 2d 3d 68 c4 02 be
       -0.045473132 -0.14662695 0.04244372 -0.12770236
000230 ce 78 4c bd 64 b4 ee bc 70 5c 2d be 7a e2 25 bd
       -0.049919896 -0.029138751 -0.16929793 -0.040499188
000240 7f b0 5e be 9c e3 98 3c 43 78 16 3e e2 80 c6 3d
       -0.21747015 0.01866322 0.14694314 0.09692551
000250 a5 3d b4 3d 6a 0e db 3d a7 a2 90 3b fb 20 c4 3d
       0.0880082 0.10696109 0.004413921 0.09576603
000260 45 7d ee bd 07 85 b3 ba d2 4b 95 3e 81 d8 f7 3c
       -0.11644987 -0.0013696261 0.2915941 0.030254604
000270 d9 e4 19 be 38 e7 59 be ec d8 e5 bb 27 e4 a8 bc
       -0.15028705 -0.21279609 -0.0070143845 -0.020616604
000280 d6 b2 68 3e 90 97 8f 3d b3 02 ed 3d 48 b2 e7 3d
       0.2272447 0.0701133 0.115727805 0.11313301
000290 da d0 eb 3d 31 e9 40 bd 4e aa fc 3d 66 e7 44 bd
       0.11514445 -0.04709739 0.123371705 -0.04807224
0002a0 18 c7 17 bd d0 b7 da 3d 08 7f 2d be 00 54 84 3e
       -0.037055105 0.10679591 -0.1694299 0.25845337
0002b0 57 c3 f4 3d 3d c0 6f bd 71 53 96 bd 1c 1c 71 3d
       0.119513206 -0.058532942 -0.07340134 0.058864698
0002c0 6a 0f 3e be 87 4a 27 be ed 25 5c bd bb 4f 00 3e
       -0.18560567 -0.16337024 -0.053747106 0.12530415
0002d0 83 b5 dd 3d ee 8f 48 bd 4f 0b 53 3d 82 3d 73 3b
       0.10825636 -0.048965387 0.051524457 0.003711552
0002e0 cc 3d 9c 3e d6 86 79 ba 62 c4 8c bd 2b a7 fd bd
       0.30515897 -0.00095186883 -0.068733945 -0.123854004
0002f0 8e bd 58 3d dc 82 04 3d bb 7a 8a be a1 2f ca bd
       0.05291515 0.03235136 -0.2704676 -0.09872366
000300 f0 5d 49 bd bc ff 8b 3e 51 ca cc 3e 26 e2 7e bd
       -0.04916185 0.27343547 0.39998105 -0.06222739
000310 ae 4a 04 3e 1d 03 ff 3d 35 a6 16 ba f9 8c 7f be
       0.12919113 0.12451766 -0.00057468127 -0.2495612
000320 65 e2 4e bd b7 98 d6 3d 5b b3 c6 bd 84 30 ac 3d
       -0.050508875 0.10478347 -0.09702178 0.08407691
000330 9d 4b 1c 3d e1 de 19 3e 6a 5f cc bd 7a de f7 3c
       0.038158048 0.15026428 -0.09979136 0.030257452
000340 0c 07 32 3e a2 d2 ed 3d 1d ff ed bc 58 56 c9 3b
       0.173855 0.11612441 -0.029052312 0.006144326
000350 8f ed 8e 3d 17 32 c0 3d fb a0 1d 3e 44 22 72 3e
       0.069789045 0.09384554 0.1539344 0.23645884
000360 a7 0d 6c bc 34 0b ef bc ba 2b 20 3e 21 22 f7 3d
       -0.014407552 -0.029180147 0.1564168 0.120670564
000370 51 e6 3a 3d 9d 16 19 3e e5 35 ac bd c9 69 b5 3d
       0.045629803 0.14950033 -0.08408717 0.088580675
000380 b2 e8 60 bc 23 bc c5 bd e9 2f dd 3d 21 b4 c4 bd
       -0.013727354 -0.09655025 0.10800154 -0.09604669
000390 a0 1c 15 3e 8a bf 77 3e 16 b5 56 3e d4 dd 7c bd
       0.14561701 0.2419416 0.20967516 -0.06173499
0003a0 02 73 4b 3d 71 3c ec 3d 27 6e cb 3d e3 02 64 3d
       0.049670227 0.11534966 0.09933119 0.055666815
0003b0 ad 67 5d be 0e 90 c5 3c e0 cb 02 3d 80 58 f2 3d
       -0.2162158 0.024116542 0.03193271 0.11833286
0003c0 b5 b6 10 3e 5c bd a7 bd 3f c7 02 be 7d 98 50 3e
       0.14132197 -0.08190414 -0.12771319 0.2037067
0003d0 e1 52 1b 3e 9f 46 06 be f3 60 81 bd 1a 72 c2 3c
       0.15168335 -0.13112877 -0.0631732 0.023736048
0003e0 7b 8e 16 bd cb ae 2b 3e fe 1e 68 bc af d1 37 3e
       -0.036756974 0.16765897 -0.014167545 0.17951082
0003f0 73 a1 a8 3d c5 9f b3 bb 5c 3a a5 bc f8 8a bd 3c
       0.08233919 -0.0054816925 -0.02016943 0.023137555

weight_hh f4 [384, 128]
000000 1f 63 46 3d 4e d6 e6 3c c9 32 14 3d f9 6d c9 bc
       0.048434373 0.02817836 0.036181245 -0.024588572
000010 d4 51 d9 b9 cd a8 b3 3d 12 05 8a be 99 20 33 3d
       -0.00041450432 0.087724306 -0.26956993 0.04373226
000020 b3 7a e6 3c fe 4f 95 bc d4 68 63 3e f0 ce 88 bd
       0.02813468 -0.01822662 0.22207958 -0.06680095
000030 d2 de a8 bd 1c 71 60 bd a4 1d d6 bd 5d 11 c7 3d
       -0.082456246 -0.05479537 -0.10454872 0.09720109
000040 ab e0 9a bd ea 05 71 bd 68 89 bc 3c 6c 87 9f 3c
       -0.07562383 -0.05884353 0.02301474 0.019473754
000050 51 19 27 bd 91 0e d0 3d 25 df c7 bd ab 26 90 3d
       -0.040795628 0.10159028 -0.09759358 0.07038625
000060 f6 82 c3 bd 1c 05 04 3e b2 e6 09 3e 1c 9b 0f 3d
       -0.09546463 0.12892574 0.1346691 0.035060033
000070 a2 4c c0 bd d7 d1 2d 3d 95 ef 84 bd c4 d5 8a bd
       -0.093896165 0.042436447 -0.06491009 -0.06779054
000080 ed 8e 80 be 40 66 4c 3e 5c f6 c3 bd 4a 6c a5 bd
       -0.25109044 0.1996088 -0.09568474 -0.08077295
000090 e3 28 3b 3d ae 90 81 3e b6 b2 c6 bc 92 8b 02 bd
       0.04569329 0.25305694 -0.024255138 -0.031871386
0000a0 51 11 63 be d7 a0 87 bd 4b 3c 5c bb fb 6e e2 3d
       -0.22174574 -0.06622475 -0.0033605273 0.11056324
0000b0 9b 08 16 3d 74 8b 05 be 0f a5 ff bd d5 5f 06 be
       0.0366293 -0.13041478 -0.12482654 -0.13122495
0000c0 c6 9f b0 3d 90 52 bd bd 99 17 e9 3d 10 6a 0b be
       0.08624224 -0.09244263 0.11381454 -0.13614678
0000d0 e1 80 35 bd 51 06 c5 bd 8e 1f 59 3c 31 32 1f 3e
       -0.04431236 -0.096203454 0.013252152 0.1554649
0000e0 75 5c 76 3d 6a ad e4 3d c0 06 c1 bb d2 c5 04 be
       0.060146768 0.111658886 -0.0058906972 -0.12966087
0000f0 30 21 9d 3d be ad 11 bd 2b 8e 8e 3d 42 59 b7 3c
       0.07672346 -0.035566084 0.0696071 0.022381429
000100 80 13 4d 3d 8b 37 7b 3c fc d4 26 3d f5 95 ac bd
       0.050067425 0.015333067 0.04073046 -0.084270395
000110 33 51 1a be 0b 0c 62 3d 5b a1 0e 3e ce 85 ca bd
       -0.15070038 0.055187266 0.1392874 -0.098888025
000120 f1 c8 78 bd d3 51 4d 3d 6b fe 8c be 25 e0 99 bb
       -0.060738508 0.05012686 -0.27537856 -0.0046959096
000130 44 3b 9d bc 33 eb 72 3d b2 e2 de 3b 9f 39 01 be
       -0.0191933 0.059306335 0.0068019265 -0.12619637
000140 04 98 e8 3d 90 e2 5d 3d f7 e3 b7 bc ca 38 12 3d
       0.1135712 0.054171145 -0.02244757 0.03569869
000150 52 fb 6c bd 21 23 d1 bc 57 89 97 bc 47 0e 5c bd
       -0.057856865 -0.025529446 -0.018498106 -0.053724553
000160 aa 33 ce bd 5f aa ca 3d e2 df 65 b8 87 b4 9e bc
       -0.10068448 0.09895777 -5.480636e-05 -0.019373192
000170 25 97 3a 3e f7 9f b4 3d 01 32 3a 3e 96 ae 7d bc
       0.1822172 0.088195734 0.18183137 -0.015483519
000180 15 c2 9d be 7c e6 ef 3d 05 f9 9d ba f1 4f 13 bd
       -0.30812135 0.11713883 -0.0012052363 -0.03596491
000190 10 39 2c bb 1a 6a 50 3e 22 9d a4 bd 93 9d 1a 3e
       -0.002627913 0.20352975 -0.08037783 0.15099172
0001a0 0b 06 a6 3c 42 d3 9d bd 9e 42 59 3e 32 3e 90 3d
       0.020266553 -0.0770631 0.21216819 0.07043113
0001b0 dd 10 4b be 56 d5 2b bd d0 1d a8 3c 70 e7 7c bd
       -0.19830652 -0.0419515 0.020522028 -0.061744153
0001c0 db c8 29 3e ba fd 4b bd 8b 71 2c 3e 71 41 ad 3d
       0.16580527 -0.04980252 0.16840188 0.084597476
0001d0 48 05 19 bd ec 4c 06 3e f3 40 d9 3c 69 7f 3a be
       -0.037358552 0.13115281 0.026520228 -0.18212666
0001e0 39 b0 19 bd ce 86 3e bd ad bc ca 3d 04 89 66 bd
       -0.037521575 -0.04651528 0.09899268 -0.056283012
0001f0 a5 c3 07 3d 26 fb ae ba 2d c1 a4 3d 32 c5 01 3e
       0.033145566 -0.0013349995 0.08044658 0.1267288
000200 ad 40 21 bc 63 4a 2f bf 27 d4 15 be 48 ce cf bd
       -0.00984208 -0.6847288 -0.14631711 -0.10146767
000210 45 05 71 3e 2d 0d 15 be ba 9b 41 bd 00 27 76 be
       0.23537166 -0.14555807 -0.047267653 -0.24038315
000220 49 de 10 bd 45 42 f1 bd cf 8a 02 3e c8 ea 00 be
       -0.035368238 -0.11780218 0.12748264 -0.12589562
000230 64 68 10 be 3f 0b 02 be bf 5e e5 bd 23 cd d5 3d
       -0.14102322 -0.12699603 -0.11199712 0.10439517
000240 51 80 33 bc 53 a0 95 bd ff 91 a6 3e b1 8b e8 3d
       -0.010955886 -0.0730597 0.3253326 0.11354769
000250 94 eb c9 3d ee 27 be be ab 48 64 bc 23 8b a8 3d
       0.09859386 -0.3713984 -0.013933341 0.08229663
000260 0c 01 97 3c c4 f9 3c ba c6 0f 86 bd 12 5f 8e 3b
       0.018433116 -0.0007208849 -0.06545977 0.0043448294
000270 ad a8 0b 3d 31 5f f3 bd e4 d3 40 bd 60 5f 24 bd
       0.03409641 -0.11883391 -0.047077075 -0.04013002
000280 01 f4 ea bc a5 79 46 3e fb 2d d1 bd 77 ac ea bd
       -0.028680803 0.19382341 -0.10213848 -0.11458676
000290 ef 27 9a 3d e1 95 4d 3d 9f 5e 53 3e 83 33 2f be
       0.07527148 0.050191764 0.20641564 -0.17109494
0002a0 2c 9e 84 be 80 2a a4 3d 12 31 2d 3e 43 ff 80 bd
       -0.25901926 0.08015919 0.1691325 -0.06298687
0002b0 eb 73 db bd bf 0c bd bd 93 a0 a8 3b 20 ee 93 bd
       -0.10715469 -0.09230947 0.005146095 -0.07223153
0002c0 cd 31 29 bd 1d e0 14 be fc 79 d2 bd 0e 86 4d be
       -0.04130726 -0.14538617 -0.10277173 -0.20070669
0002d0 32 a2 01 be 3d 7f c5 be 7f c3 94 3d 59 cd 47 3d
       -0.12659529 -0.38573638 0.072638504 0.04877982
0002e0 90 37 f2 3b bb 7b 10 bd 84 96 63 3c 36 e0 27 be
       0.0073918775 -0.03527425 0.013890866 -0.16394123
0002f0 b8 26 e4 3c bf 25 24 3e 93 24 19 3e a0 e8 62 be
       0.027850494 0.16030024 0.14955358 -0.22159052
000300 08 a0 a7 bd 5f d2 15 3d f9 d5 6c 3b 8e 6a d8 bd
       -0.081848204 0.03657758 0.003613828 -0.10567199
000310 ae 4a ae be 1c 77 1e 3d 44 a8 d8 bd 18 d5 e0 3c
       -0.3404135 0.03868781 -0.10578969 0.027445361
000320 5e 16 4a 3e 9a 4d 52 bb 0d 3c 94 be 7c 64 4f be
       0.19735095 -0.0032089711 -0.28952065 -0.20253175
000330 55 73 0c 3e 29 e1 67 3e 91 ef d7 bd 2e 5a 5b 3c
       0.1371587 0.22644486 -0.105437405 0.0133882
000340 42 21 3e be e1 d0 b7 bd 01 b3 df bd 4b d5 dc bc
       -0.18567374 -0.08975387 -0.10922814 -0.026957175
000350 c0 4e e3 3c 79 44 c0 3d d1 e2 45 be e9 5c c2 bc
       0.027747512 0.0938806 -0.19324805 -0.023725944
000360 34 8c bb 3d d8 af 37 be 35 0d 82 3d de 16 05 3e
       0.09157601 -0.17938173 0.06350175 0.12997004
000370 59 2d d0 bc a0 b4 28 3e ec 66 50 3e e4 db f3 bd
       -0.025412248 0.16475153 0.20351762 -0.11907175
000380 71 aa 21 be fd 08 db bd 54 32 71 bc 49 b6 72 bd
       -0.15787674 -0.10695074 -0.014721472 -0.059255872
000390 dd da 6f 3d 38 4f 3b 3e e3 46 c4 3d 2b 4c f0 3c
       0.058558334 0.18291938 0.09583833 0.029333195
0003a0 fd 9a 42 be 9a d2 59 bd 42 3e fb bc f6 8e 97 3b
       -0.19004436 -0.05317936 -0.030669335 0.0046251966
0003b0 35 42 3c be 31 dc a2 3d 65 3b f1 bd 98 de 10 bb
       -0.18384631 0.079521544 -0.11778907 -0.0022105332
0003c0 0d 82 5a bd c4 b2 05 3e b5 b2 b5 3e ec 8b 30 3e
       -0.053346682 0.13056475 0.35487905 0.17240876
0003d0 36 04 49 be e1 b5 2b be 93 04 87 3e 3e 23 9e 3e
       -0.19630513 -0.167686 0.26370677 0.30886263
0003e0 ab 43 4b bd 1f 81 40 3b 62 96 86 3e 53 66 93 3d
       -0.04962508 0.0029373837 0.26286608 0.07197251
0003f0 e7 a7 95 3d b0 2b 32 be 4c 8a 79 be f0 12 f7 bc
       0.073074155 -0.17399478 -0.24369162 -0.030160397

bias_ih f4 [384]
000000 a3 2e 95 3c b6 e8 b0 3c e3 7e cb 3d e4 7f 82 3c
       0.018210715 0.02159534 0.09936311 0.015930124
000010 7d db 38 3d 95 ab 08 bd af a2 a4 3d 45 d3 c3 3d
       0.045131195 -0.03336676 0.08038842 0.09561781
000020 cf c2 85 bd 3b 64 82 3a 19 d1 bb 3c 41 95 6d bd
       -0.065312974 0.0009948084 0.022926854 -0.058003668
000030 90 30 16 3e b8 7e 1d bd 62 eb 13 be 20 39 9e 3d
       0.14666963 -0.038450927 -0.1444526 0.077257395
000040 90 80 18 3c 3d 4a e6 3d e6 91 18 3d ea 8a 5b 3b
       0.009307995 0.112446286 0.037248515 0.0033499547
000050 f5 c5 f1 3c f3 40 06 3d 60 2f 12 bc 2c 58 d8 3d
       0.029513339 0.032776784 -0.008922428 0.105636925
000060 16 d8 41 bd 71 37 2a 3d ff 35 1e bc 7d 45 fd 3d
       -0.047325216 0.04155678 -0.009656428 0.123667695
000070 97 fb eb 3d 46 3b fc 3c aa 73 71 3d 6a 96 73 3d
       0.11522596 0.030789983 0.058948196 0.059469618
000080 86 24 6d 3e 89 79 db 3c e0 13 59 bd 22 1d 45 3d
       0.23158464 0.02679135 -0.05299747 0.048123486
000090 86 fc 47 3d 1c 7b cb 3c 74 89 5d 3e 7b 7a ad bd
       0.04882481 0.024838977 0.21634465 -0.08470627
0000a0 d8 38 e1 bd f6 89 32 3e 85 51 e9 bc ca 2d b9 3d
       -0.1099717 0.1743544 -0.028481254 0.09041937
0000b0 e1 b8 1d 3e 4f 2c d0 3b b1 37 97 3d f8 fb f2 bb
       0.15402557 0.0063529382 0.07383669 -0.007415291
0000c0 e8 90 15 3e 52 0f 07 be 05 25 da bd ca 4a b6 3d
       0.14606059 -0.13189438 -0.10651592 0.08900984
0000d0 fa 30 91 3d 78 5f fb bd 75 80 cf bc d1 3b 74 bd
       0.0708942 -0.122740686 -0.025329808 -0.059627358
0000e0 f3 b9 cf 3c 5e e8 b4 bd 5f 47 df 3d 2b b1 dc 3d
       0.025357222 -0.08833383 0.10902285 0.107759796
0000f0 fb ea e0 3c db 43 71 3d 06 60 ee 3d 81 70 24 3e
       0.027455797 0.058902603 0.11639409 0.16058542
000100 80 3b b4 3d c7 db 4b 3e c5 6f 1f 3d 73 8e 80 bd
       0.08800411 0.19908057 0.03892495 -0.0627717
000110 ae 52 a7 3e db 49 de bb 56 b5 d6 3c b5 68 6b 3d
       0.32680267 -0.0067837066 0.026209515 0.057472903
000120 92 f5 f3 3c 47 f6 38 3d 0f fa aa 3e df 58 b1 3e
       0.029780183 0.045156743 0.33393905 0.34638116
000130 c7 03 b5 3d 1f 8b a4 3d 0c 03 37 3b 28 29 9c 3d
       0.08838611 0.08034348 0.00279254 0.076250374
000140 a2 10 14 be e5 01 48 3d 81 9b ce 3d f5 fd b2 3d
       -0.1445947 0.04882993 0.10088254 0.08739845
000150 9d 16 d3 3c a3 09 02 bd 8f 02 bc 3b 4f 64 87 3d
       0.025767619 -0.03174747 0.0057376097 0.06610929
000160 dd fb 79 bd 0f 1c 51 bd 74 14 8b 3c 6e 2f 4f ba
       -0.06103121 -0.05105215 0.016977526 -0.0007903491
000170 2a 82 d0 3d 1b 3c d8 3d be 92 0e be e7 74 bf bc
       0.10181077 0.10558339 -0.13923165 -0.023371173
000180 6e 46 de 3d ea 37 4d 3b c6 ff 30 bd e9 2f 94 3d
       0.10853277 0.0031313845 -0.043212675 0.07235701
000190 c2 aa a5 bc bb d3 99 3d 27 d0 89 3d 72 55 96 bd
       -0.020223025 0.075110875 0.06729155 -0.07340516
0001a0 20 76 73 bd a9 86 2b 3e f7 5c 29 3e 8a bc 20 3e
       -0.059438825 0.16750588 0.1653937 0.15696922
0001b0 f2 e5 a5 3d 1f 1d 9f bb 33 56 f1 bb 03 bb 95 3d
       0.08100499 -0.0048557664 -0.007365012 0.0731106
0001c0 ad dd ac bc 64 97 9d 3d 95 07 61 3e 61 a2 61 3d
       -0.021101797 0.07694891 0.21975549 0.055086497
0001d0 85 42 b1 3d 93 4c 4e 3d 74 fa bf 3d 29 17 c8 3b
       0.08655266 0.050365996 0.09373942 0.0061062765
0001e0 c9 78 b9 bc 96 98 2c 3d 70 ea b0 3c 94 6b 0e 3e
       -0.022640603 0.042137705 0.021596164 0.13908225
0001f0 88 24 2f bc d9 e9 d2 3c 02 79 45 3d ad 5f c9 3d
       -0.010689862 0.025746273 0.048211105 0.09832702
000200 9d 9a b5 3d c4 45 a4 bb 0e 64 ec 3d 5a 37 d4 3d
       0.08867381 -0.0050131995 0.115425214 0.1036212
000210 e1 95 fd bd 1c 7a 36 3e eb 1c 48 3d f5 d0 51 3c
       -0.12382103 0.17820019 0.048855703 0.012806167
000220 ad 60 c5 3d 89 4c 23 be a1 d4 44 be 8f 1e 4a 3d
       0.0963758 -0.15947165 -0.19221736 0.04934555
000230 61 b8 82 be 46 a1 87 3e 7a 47 30 3e ad 60 19 3e
       -0.25531295 0.2649023 0.17214766 0.14978285
000240 a7 03 a5 bc 9e 6a 93 3d 73 e7 eb 3b 06 0a ba bc
       -0.020143343 0.0719807 0.0071992218 -0.022709858
000250 55 fe 8a bd 7d 6b 32 bd 37 7c 8b be 74 b9 07 3e
       -0.06786791 -0.04355954 -0.27243206 0.13254339
000260 1b ad 17 be 15 9e 99 bd dd bc 38 3e e7 1e 4c be
       -0.14812128 -0.07500855 0.18040796 -0.19933663
000270 de 3d 99 3c 8f 6a 61 bc c5 3a 45 bd 0a 92 e2 bd
       0.018706258 -0.013758316 -0.04815175 -0.11063011
000280 25 43 21 3d 20 05 33 bc 43 2c fb 3d 3d 01 3f 3d
       0.039370675 -0.010926515 0.12264302 0.04663204
000290 e6 bb 60 be 5a e8 5a be 14 fe bd 3e ce 31 fb bd
       -0.21946678 -0.21377698 0.3710791 -0.12265359
0002a0 c0 46 4f 3e fb d3 29 3d 27 b7 c7 3d 91 84 57 be
       0.20241833 0.041461926 0.097517304 -0.21046664
0002b0 e2 8c d2 3d 27 09 02 bd 71 ea 4d bd c2 e5 c0 3c
       0.102807775 -0.03174701 -0.05027241 0.023547057
0002c0 83 f8 b6 be 6d d2 49 bd c4 3f 09 be 1d 6e 89 3e
       -0.35736474 -0.049272943 -0.13403231 0.26841822
0002d0 e6 84 7b be af 21 0a 3b 68 a8 f4 3c fc bb 76 bc
       -0.24562415 0.0021077206 0.029865459 -0.015059467
0002e0 e1 79 43 3d 4f 28 90 be 21 ff 31 be 9d b1 db 3c
       0.047723655 -0.28155753 -0.1738248 0.026818091
0002f0 48 be 66 3d ac 35 03 3e d9 d8 a2 3d 96 7c ec bd
       0.05633381 0.12813443 0.07951517 -0.115472004
000300 ae 97 5c be f5 3f 83 be c5 2e fe 3c b9 7c 0f 3e
       -0.21542236 -0.25634733 0.03102816 0.14012422
000310 ce 38 fb 3d fd 23 52 bd ac 84 68 be 84 2a 98 3c
       0.12266694 -0.051303852 -0.2270686 0.01857496
000320 c7 9a 0b bd 9f e3 0b 3e 06 43 49 3d 56 bc 77 be
       -0.034083154 0.1366105 0.049136184 -0.24192938
000330 83 f7 d6 bd 56 ba c8 3d 69 59 ea bb 08 e6 f9 bc
       -0.10496428 0.09801166 -0.007151772 -0.030505195
000340 c2 8a e7 bd 3c 6c ff bd 7f 1c a0 be 0f f3 8e 3d
       -0.11305763 -0.12471816 -0.3127174 0.069799535
000350 72 25 db 3d 95 39 1e 3c d0 0c a4 be 03 57 34 3d
       0.107005015 0.009657283 -0.32041025 0.044028293
000360 4c 0d 41 bd bd 94 23 3d ce 13 9f bd 37 f0 b2 3d
       -0.04713182 0.03993677 -0.07767449 0.087372236
000370 f9 17 37 be 6d 8c 76 bd 6c 6e 4e bd 3f f8 13 3d
       -0.17880239 -0.060192514 -0.050398275 0.036125418
000380 08 c2 ce bc bd 7f 86 be 99 52 23 be 32 82 11 bd
       -0.025239006 -0.26269332 -0.15949477 -0.035524555
000390 88 3f bb bd b0 42 b2 3d ce 0b 13 bd 7d d0 0d 3e
       -0.09142977 0.08704126 -0.03589993 0.13849063
0003a0 18 4d 34 3e 27 12 4d be 6e 9e cd bd 22 65 d9 3d
       0.17607534 -0.20026456 -0.10039984 0.10614993
0003b0 8a e9 a5 bd 3c 35 e3 bd e2 df 19 be 56 b7 85 bd
       -0.08101185 -0.11094138 -0.15026811 -0.06529109
0003c0 2b a1 23 be 51 8b 81 3c c7 a9 22 3d 30 82 bc bc
       -0.1597945 0.015813502 0.039712694 -0.023011297
0003d0 5b 43 4c be d1 30 8a bd ca ca 27 be 9a df 81 bc
       -0.19947569 -0.06747592 -0.16385952 -0.015853692
0003e0 6f 80 ca bd 73 e2 25 be a3 4c a6 3d eb e1 fe bc
       -0.09887778 -0.16199665 0.08120086 -0.031113585
0003f0 88 a1 3a be df b9 a2 bd e1 d8 83 be 9d 89 78 bd
       -0.18225682 -0.07945608 -0.25751403 -0.060678113

bias_hh f4 [384]
000000 19 0c c0 3d 8e aa 31 bd cd cf d5 3d 2b aa b3 3c
       0.093773074 -0.043375544 0.104400255 0.021931728
000010 12 7a a4 3d c8 68 85 bd ba 3d d9 3d 7d 8d 03 3d
       0.080310956 -0.06514126 0.106074765 0.032117356
000020 5c 1b 1b 3c c6 e6 84 bc fe a4 a2 3c a8 6e 64 bd
       0.009466972 -0.016223323 0.019854065 -0.055769593
000030 81 ee e3 3d a7 09 f0 bd 5b 4c f4 bd ba 7e f7 3d
       0.111294754 -0.11720591 -0.11928626 0.12084718
000040 61 ea be bc 3b 72 aa 3c c9 51 8f 3d 30 78 10 bd
       -0.02330512 0.020806422 0.06998021 -0.03527087
000050 3b 19 2c bd bb 62 74 3c 83 69 db 3d 11 79 98 3d
       -0.04201625 0.014916117 0.10713484 0.074449666
000060 00 ec 90 bd d8 69 2b bd 06 38 cc 3d 62 2d f2 3d
       -0.070762634 -0.041848987 0.09971623 0.11825062
000070 25 d0 14 bd f7 a2 a4 3d 11 b4 8e 3c ae ce 30 bc
       -0.036331315 0.080388956 0.017419847 -0.010791464
000080 75 63 00 3e 20 90 7a 3b 31 fc e7 bd 03 ac 23 bd
       0.1253794 0.0038232878 -0.113273986 -0.039958965
000090 69 3c 07 3e da 67 0b 3e 75 cc 1f 3e 36 5d 56 3d
       0.13206638 0.13613835 0.15605338 0.052334987
0000a0 65 03 d4 bd f9 e3 48 3e 6e 4b 68 3c a2 cc 18 3e
       -0.1035221 0.19618215 0.01417814 0.14921811
0000b0 0b 7f b3 3d 0e 9c 38 3d 00 ae 3b 3e 67 d9 34 3d
       0.08764466 0.0450707 0.18328094 0.044152644
0000c0 ab c4 33 3e 84 2e 9e bc c1 d4 bc bd bc 35 51 3e
       0.17555492 -0.01930929 -0.09220267 0.20430654
0000d0 9e 12 44 3e 47 35 25 be 24 3d 40 3b 5c ca d9 3d
       0.19147727 -0.16133605 0.0029333318 0.106343
0000e0 c3 40 3a 3c 63 e0 93 bd 49 60 bd 3c f8 8c 91 3d
       0.011367979 -0.07220533 0.023117201 0.07106966
0000f0 82 eb a5 3d f7 ea cb bc e4 64 43 3d 49 70 21 3e
       0.0810156 -0.024892313 0.04770364 0.1576549
000100 9a ab b7 3d 84 d9 de 3d 03 7f ee bc a8 21 bb bc
       0.08968277 0.108813316 -0.029113298 -0.022843197
000110 2e e0 8c 3e 9f 6a 14 3e ff ef f2 3c 8b 2b 87 3d
       0.27514786 0.14493798 0.029655455 0.06600102
000120 3c fe 63 3d 41 3b 6f 3d de 6a 76 3e ac 5b af 3e
       0.05566238 0.05840612 0.24064204 0.34249628
000130 d6 72 1d bd 71 9a a9 3d a1 56 00 3e 12 32 3d b9
       -0.038439594 0.082814105 0.12533046 -0.00018043097
000140 16 27 98 bc de dc 61 bc 5b 31 f8 3d c8 89 76 3d
       -0.018573325 -0.013785569 0.12118789 0.060189992
000150 f0 f8 52 bc 9b 83 63 3d 71 24 7c bc f9 0d 4a 3d
       -0.012876734 0.05554543 -0.015389548 0.04932973
000160 6c a8 08 bd d6 d6 ee bd 1b 7c ab 3c ba f0 bb ba
       -0.033363745 -0.116620705 0.020933202 -0.001433871
000170 9f 21 18 3e 97 c2 b1 bb 42 ed d8 bd 0f 2b 19 bd
       0.14856575 -0.0054248082 -0.10592128 -0.03739458
000180 e3 45 16 3e 60 dc df 3d 18 02 17 be 41 09 af bc
       0.14675097 0.10930705 -0.14746892 -0.021366717
000190 6f 31 81 bd 80 1e 42 3e 50 40 0c 3e 69 82 f8 bc
       -0.06308257 0.18956947 0.13696408 -0.030335622
0001a0 19 b4 93 bd 43 12 83 3d 64 cc 27 3e 84 f6 ef 3d
       -0.07212085 0.063999675 0.16386563 0.11716941
0001b0 07 bb 06 3e 03 54 14 3d f2 4e 8a 3d 13 11 e3 3d
       0.13157283 0.036212932 0.06753339 0.11087241
0001c0 d3 15 13 3d 06 9a aa 3d e8 2b 08 3e b8 ee 01 3e
       0.035909485 0.08330159 0.13297999 0.1268872
0001d0 b2 c8 8a bd 0e 07 0f 3e c5 f1 f9 ba 18 3f 0e 3e
       -0.06776561 0.13967535 -0.0019069245 0.13891256
0001e0 0d b4 8c bd 57 b4 85 3d 7a ce 21 3e ac 36 7b 3d
       -0.068702795 0.06528538 0.15801421 0.061331436
0001f0 95 e1 02 3b a3 2f fb 3d ed 34 13 3d 6c 28 d8 3d
       0.0019970883 0.12264945 0.035939146 0.10554585
000200 7e a4 58 3e f5 cf 80 bc 71 31 22 3e 4f 3e 48 3d
       0.21156499 -0.015724162 0.15839173 0.048887547
000210 e1 33 17 be df 3e 89 3d ad 77 08 3e ba 49 00 bc
       -0.14765884 0.06701445 0.13326903 -0.007830078
000220 d6 23 35 3e 24 3e 47 be ed a4 46 bd 19 2c 2f 3e
       0.17689452 -0.19457299 -0.04849713 0.17106666
000230 12 99 a5 be 15 d7 7e 3e f3 4f ed 3d 18 3d ac 3d
       -0.32343346 0.24886735 0.11587515 0.0841009
000240 b0 87 83 bd ee 96 bb bc 8c 13 b6 bd 93 38 b1 bd
       -0.06422365 -0.022899117 -0.08890447 -0.08653369
000250 56 1a b2 bc 29 f0 84 bd 6b 15 60 be c2 3d 0f 3e
       -0.021741074 -0.064911194 -0.2188317 0.13988402
000260 a2 7f 39 be bc 8f 3a bd 36 fa 9a 3d 07 c2 2a be
       -0.18115094 -0.045547232 0.07567255 -0.16675578
000270 7d d5 03 bd 95 64 d8 3d 9b b6 09 be 3c 46 95 bd
       -0.03218602 0.105660595 -0.13448565 -0.07288787
000280 01 f4 66 3c 3b b2 49 3d 0a 6e 48 3e 92 af 1e bd
       0.014096261 0.04924224 0.19573227 -0.038741656
000290 63 95 00 be 98 21 6d be 26 68 b4 3e f1 60 40 bc
       -0.12556987 -0.23157346 0.3523571 -0.011741863
0002a0 28 67 40 3e c1 9b 3a 3d 43 30 94 3c 53 37 8a be
       0.18789351 0.045558695 0.01808942 -0.26995334
0002b0 84 9b 92 3d 5f 04 9b bc 0c dd 1b bd 62 b0 fa ba
       0.071585685 -0.018922983 -0.038052604 -0.0019126053
0002c0 f4 6f 9e be a6 0b e8 3b 4e 13 29 bd f8 06 53 3e
       -0.30944788 0.0070814667 -0.041278176 0.20608127
0002d0 3c 94 9e be 36 d3 16 3e 8b 98 9a bd ba 1a 2f 3d
       -0.3097247 0.14729008 -0.075486265 0.042750098
0002e0 15 d7 0d 3d e3 03 a3 be 97 5b 4a be 9d 78 23 3d
       0.034628946 -0.31838903 -0.19761501 0.039909948
0002f0 d7 46 21 3d be f1 d2 3d 37 3e 0f bd 1a c4 12 be
       0.0393742 0.10300015 -0.034971442 -0.1433262
000300 e3 42 40 be 0d 77 cc bd c4 a8 aa 3d 7c b7 dc 3c
       -0.18775515 -0.09983645 0.08332971 0.02694296
000310 fc 15 87 3c 7b 9d 0d be 44 48 2c be 64 e2 8c 3c
       0.016489975 -0.13829605 -0.16824442 0.017197795
000320 4e fe dd bd d3 ee 5d 3e b4 5b 9f 3c a9 77 57 be
       -0.108395204 0.21673135 0.019452907 -0.2104174
000330 f3 43 2a be 6a 47 22 3e 45 24 b0 3d 2e 08 cd bd
       -0.16627483 0.15847555 0.08600668 -0.10011326
000340 de 4c 1e bd 2c b6 5f be 2f 8e 9b be 75 b7 b7 3c
       -0.038647525 -0.21846837 -0.30381915 0.022426346
000350 f9 85 87 bd 55 a7 dd 3c c3 ad 90 be df 59 e9 3c
       -0.0661735 0.02705733 -0.2825757 0.028485237
000360 8d fc 5b bd 8b c5 be 3d 88 bf d8 bd c7 de 9c 3d
       -0.053707648 0.09315022 -0.10583407 0.07659679
000370 ae a8 3f be 52 64 46 bd a3 d3 cf bc bb f1 b3 bc
       -0.1871669 -0.048435517 -0.025369471 -0.021965852
000380 ec 8b 63 3d ff ed 9d be 05 5e c2 3b b2 ee f6 bd
       0.05555336 -0.3084564 0.005931618 -0.12057246
000390 95 cd 96 bd d1 06 a0 3d 3b ae 69 3d cb 73 84 3c
       -0.073634304 0.078138 0.057050925 0.016168496
0003a0 ef c8 8c 3d 02 e2 fc bd 45 22 7e be 7a f9 69 3d
       0.068742625 -0.12347795 -0.2481776 0.057122685
0003b0 49 87 2d be ce 9d 3e be db de 12 be 02 4f 0e 3b
       -0.16946138 -0.18614885 -0.14342825 0.0021714573
0003c0 4c 0c 38 be 74 80 89 bc 79 77 67 3d d4 b7 81 bd
       -0.17973441 -0.016784884 0.056510422 -0.063338906
0003d0 47 cd 2b be 03 83 13 be 4f ee 5b be a6 32 13 3b
       -0.16777526 -0.14405446 -0.21477626 0.0022460609
0003e0 b9 32 da bd f7 7a 09 be 93 0a ac 3d 07 bc 09 bd
       -0.10654206 -0.13425814 0.08400454 -0.033626582
0003f0 99 32 9e be 28 09 7d bd 9e b0 88 be a6 44 55 bd
       -0.30897978 -0.06177631 -0.26697248 -0.05206742

weight f4 [128, 128]
000000 8a 85 8d bd 53 cb e5 bc 55 b0 a8 3d 6e d6 d2 bd
       -0.06910236 -0.028051054 0.08236758 -0.102948055
000010 8c 49 9b bd e8 4f a7 3d a3 62 65 bd 17 3a 1e be
       -0.07582387 0.08169538 -0.05600227 -0.15451847
000020 ce 65 49 3d 84 2d d6 bd e2 8e b8 bc 6c ab ee 3a
       0.049169354 -0.104579 -0.02252907 0.0018209047
000030 96 ea 5a bc 6a 87 44 bd bd bc d8 bd a1 24 41 bd
       -0.013361594 -0.047980703 -0.10582874 -0.047154073
000040 66 7e 92 bb e9 32 0d 3d a5 30 a6 bd 88 ef b8 3d
       -0.0044706343 0.03447238 -0.08114747 0.09030062
000050 c5 e4 0b bb aa 11 ae bd 41 bc f8 3c 1b e1 44 3d
       -0.0021346074 -0.08499463 0.030363204 0.04806624
000060 f4 17 aa bd 73 48 bb 3d 19 a7 53 bc 5e 95 1b 3e
       -0.0830535 0.09144678 -0.012918257 0.15193698
000070 fa ee ca 3d 3d e8 4c 3d f6 fa 84 bd 93 16 ae 3d
       0.099088624 0.050026167 -0.064931795 0.085003994
000080 48 94 cf 3d e3 aa 46 bd 3d 66 71 3d ef 46 84 3c
       0.10135704 -0.048502814 0.058935393 0.016147105
000090 ad 1f a0 3c 7d ed a2 3d 7a 8b 26 bc 1e 3d d3 3c
       0.019546354 0.079554535 -0.01016509 0.025785979
0000a0 af 0a c1 3d 92 9a 9d bd bf 7f 97 bd 33 a6 a7 bd
       0.09425866 -0.076954976 -0.073974125 -0.08185997
0000b0 05 57 90 bb 0b f8 66 3c de b2 2f be 44 59 f0 bc
       -0.004404905 0.014097224 -0.17158076 -0.02933944
0000c0 fd ac 1e be fe 1e a4 bd fd ee 3a be 41 c3 0b 3e
       -0.15495677 -0.08013724 -0.1825523 0.13648702
0000d0 17 a8 f5 3d 21 4a b4 3c cd b7 d2 bd f0 c9 78 3c
       0.11994951 0.022008004 -0.102889635 0.015184864
0000e0 c5 00 49 bd c2 df fd bd cb ec 41 3c 63 44 d0 bd
       -0.049073 -0.12396194 0.011836241 -0.10169294
0000f0 89 c9 11 bd bf 0f 5e bd 13 57 37 3c 42 06 85 3d
       -0.03559259 -0.054214235 0.011190194 0.06495334
000100 8e 8c 90 3d 26 7f 30 3d a9 07 0a be 0c 7e 5f bd
       0.07058059 0.04309001 -0.13479485 -0.054563567
000110 2e 20 8f 3d 5d 35 1e 3c 12 44 15 3e 80 45 3c 3e
       0.0698856 0.0096562775 0.14576748 0.18385887
000120 31 94 7c bb 6f 54 9b 3d 8e 0d 82 3d 0f 7c 89 3c
       -0.0038540477 0.07584464 0.063502416 0.016782789
000130 0d ff c2 3d 56 40 fc bc 7f a9 03 bc c5 a6 0c bd
       0.09521303 -0.030792397 -0.0080360165 -0.03433873
000140 5c c7 e3 3c d1 e8 3d 3d 11 06 52 bc bb 52 2f 3d
       0.027805023 0.04636461 -0.012818829 0.042803507
000150 4d 73 d2 3d 4e d2 d7 3c 15 03 0f 3e 2a c8 d4 3d
       0.10275898 0.026345398 0.1396602 0.10389741
000160 76 02 26 3e 3e 0b 6a 3d 9e 65 1e bd e1 c9 58 bd
       0.16211876 0.057139628 -0.03867113 -0.0529269
000170 f5 a1 14 bb 52 5f 15 be b5 d8 a9 bd cc 48 c4 3c
       -0.0022679542 -0.14587143 -0.08293287 0.023960494
000180 21 73 1b 3d 8d eb a9 bc ac 6b 8d 3d 47 7b 2a bc
       0.037951592 -0.020742202 0.069053024 -0.010405368
000190 54 cf b6 bb 14 68 db 3b 7d 40 4a bd 25 05 82 3d
       -0.0055789147 0.0066957567 -0.049377907 0.063486375
0001a0 d1 cb a2 3d a4 33 2b 3e 5d 65 a6 3c 9a ea 0f 3d
       0.07949031 0.16718918 0.020312006 0.035135843
0001b0 63 9f 6f bd 74 98 0a bb d9 e6 27 be e4 56 0a 3c
       -0.058501612 -0.0021147998 -0.16396655 0.008443568
0001c0 2b 00 88 bd ec cf ff 3c 4e 4c b0 3d 35 5a 1d bd
       -0.06640657 0.031227075 0.08608304 -0.038416106
0001d0 d8 41 86 bd f3 74 1f 3d a5 3f e0 bd b8 d9 be 39
       -0.065555274 0.03892989 -0.10949639 0.00036401837
0001e0 15 c3 61 bd 31 5d 23 3e 97 1c 27 bb ed 18 e9 3c
       -0.055117685 0.15953518 -0.0025499219 0.028454268
0001f0 63 ac f5 3d 6b cd 5a bd 59 8a 5f bd 54 eb 45 3c
       0.11995771 -0.053418558 -0.054575298 0.012080032
000200 35 44 95 bd ea d7 94 bd 00 17 18 bd ec 9f 1f 3e
       -0.072884 -0.07267745 -0.03713131 0.15588349
000210 45 6a 6d bd 39 cd 4d 3e fb 90 98 bd c3 38 22 bd
       -0.057962675 0.20097817 -0.07449528 -0.039604913
000220 74 77 06 bb 76 8a 7f bc 7f 0d f3 3d 6a 77 79 3e
       -0.0020517977 -0.0155969765 0.118678086 0.24361959
000230 e7 04 dd bd 0c 26 99 3b c1 a1 26 3d b5 cf 83 3c
       -0.10791951 0.004673725 0.040681604 0.016090253
000240 00 d7 91 3d 93 2a e8 3c d2 79 e0 bc cb 6d 11 3e
       0.07121086 0.028340613 -0.027401838 0.14202039
000250 13 78 e0 3d 22 db 7a 3e 4d 6e aa bc e8 83 86 bd
       0.10960402 0.24497655 -0.020804549 -0.06568128
000260 cc 23 b5 bd 97 f6 21 3e 93 11 13 3e 4b 9d 11 bd
       -0.08844718 0.15816723 0.14362173 -0.035550397
000270 d0 80 33 3d 84 1f c0 3d 56 a2 8f 3c 05 af 35 bd
       0.043824017 0.09381011 0.017533462 -0.044356365
000280 70 08 2d be 3c 88 01 3e 28 38 1c 3d 43 c1 a8 bd
       -0.1689775 0.12649626 0.038139492 -0.08239987
000290 35 ed 0a bd 62 9c 73 3d 89 d8 0c bc 9d 92 c5 3d
       -0.033917625 0.05947531 -0.008596548 0.09647105
0002a0 f9 57 7f 3c 31 e4 88 39 1b 6c 37 3e 00 4b 3a be
       0.015584939 0.00026109957 0.17912333 -0.18192673
0002b0 9b f8 e8 bd 51 df c9 bd 4f 7a 4f 3d cb 6e 65 bc
       -0.11375543 -0.09857047 0.050653752 -0.014003466
0002c0 bb 00 bb bc 90 2a 2c bd c6 19 54 bd cb 16 0e be
       -0.022827497 -0.04203278 -0.051782392 -0.13875882
0002d0 c1 e2 16 be 25 80 e6 bd 39 35 69 bd cb 34 ff bc
       -0.14734937 -0.112549104 -0.056935523 -0.031153103
0002e0 16 34 1c 3d 82 de 44 3e 38 33 5a 3d 42 6a 18 3d
       0.03813561 0.19225505 0.053271502 0.03721071
0002f0 2f 47 f0 bd b3 b7 9b bd 28 69 b8 bd b0 d6 bb 3d
       -0.11732327 -0.07603397 -0.09004432 0.09171808
000300 90 f5 9b bd bd c7 64 bd e8 c9 d0 bd d3 a5 e0 bd
       -0.07615197 -0.055854548 -0.101947606 -0.109691285
000310 b3 23 64 3d 7e 84 4f bd db e8 c8 3d d0 1f 4c 3e
       0.055698108 -0.050663464 0.09810039 0.1993401
000320 9e c8 22 be f6 95 e3 bc db 9a 79 bd 92 b2 4b 3e
       -0.15896842 -0.027781468 -0.060938697 0.19892338
000330 13 39 b5 3d 68 bd dc 3d 8f cf 4b bc 78 75 79 3d
       0.08848777 0.10778314 -0.012439623 0.060903043
000340 46 f0 f4 3c 0b d9 3e 3c 63 5d dd 3d ed 98 9e 3c
       0.029899728 0.011648427 0.10808828 0.01936003
000350 bf 82 a9 3d 64 3b d5 bc 79 60 18 3c a5 05 3d 3d
       0.08276891 -0.026029296 0.009300345 0.04614796
000360 08 f5 66 bd e4 d4 2e bd eb 93 df bd 3d c4 cd bc
       -0.056386024 -0.042683497 -0.10916885 -0.025117988
000370 bb f8 4c bd 68 2c dc 3d 3f 0f 74 3d 02 2b 44 3e
       -0.050041895 0.10750657 0.059584852 0.19157031
000380 08 dd 41 be 46 c5 80 bd 50 3d cd 3c e6 7c 4f 3d
       -0.18931973 -0.06287627 0.02505365 0.05065622
000390 b5 cd ef bd 47 93 9d bd ef 96 f3 3c 6c 90 1d be
       -0.117091574 -0.076941065 0.029735057 -0.15387124
0003a0 99 6e 93 bc 7a 57 3c 3d 0a 1b be 3d 09 8f f8 3d
       -0.017997073 0.04598186 0.09282501 0.12136657
0003b0 ec af bd 3d 43 81 68 3e 8e ba c2 3c 21 87 39 bc
       0.0926207 0.2270556 0.023770597 -0.011323721
0003c0 07 42 fd bd 25 12 0d be 5e 61 61 bd 65 39 de 3d
       -0.12366109 -0.13776453 -0.055024497 0.10850791
0003d0 00 18 41 bd 29 07 28 3e af 86 eb 3c 12 27 dc bd
       -0.04714203 0.16408981 0.028750746 -0.107496396
0003e0 41 2c be bc cd 09 00 3e ae 93 c7 3d 39 f8 a0 3c
       -0.023214461 0.12503739 0.097449645 0.019649612
0003f0 24 31 3c 3d d5 2b 3a be 61 02 86 3d ec 0f d6 bc
       0.0459453 -0.18180783 0.065434225 -0.026130639

bias f4 [128]
000000 7e 83 a6 bd a2 db 83 bc 4e f7 c7 bd bd 6a 05 be
       -0.08130549 -0.01609594 -0.097639665 -0.13028999
000010 ab c4 08 be 48 77 0b be f4 16 6e bb cb af 9d 3d
       -0.13356273 -0.13619721 -0.00363296 0.076995455
000020 a8 eb f9 bc 1b d3 26 bd 58 32 c7 bd a0 75 84 3d
       -0.030507877 -0.04072867 -0.09726399 0.06467748
000030 f0 aa 0e be 09 be dd bd df 77 90 bc cd ad 16 bd
       -0.13932395 -0.10827262 -0.017635284 -0.036786843
000040 6e 13 ac bd a2 6b 51 bd 2d f6 bf bd 75 d0 5a 3d
       -0.084021434 -0.051128037 -0.09373126 0.053421456
000050 f8 8a ee bc 1e 9d 9a 3d 55 11 88 bd 3c 30 7a 3b
       -0.029119 0.07549499 -0.06643931 0.0038175723
000060 fa 0a 09 be 71 8e 34 bd ce ba 2e bd 15 38 97 bd
       -0.13383093 -0.044081155 -0.04265862 -0.07383744
000070 15 18 a3 bd 87 d9 99 bc b3 7e dc bc 6d b9 8e 3c
       -0.07963578 -0.018780483 -0.026915884 0.017422402
000080 c0 29 59 3d ad 97 7c bd 29 b5 94 bd d3 f7 89 bd
       0.05301833 -0.061668087 -0.07261116 -0.06736722
000090 b2 b0 26 3d 15 bd 3c 3c 0c 77 a2 3c db dc e1 bd
       0.040695854 0.01151969 0.019832157 -0.11028453
0000a0 1e e1 a5 bd 74 2d 90 3d a2 1c b7 bd 20 05 8a bc
       -0.08099578 0.070399195 -0.08941008 -0.016848147
0000b0 89 6d c1 3c 30 60 c9 bd 1e 50 d2 bd 0e f3 fd bd
       0.0236118 -0.098327994 -0.102691874 -0.12399875
0000c0 48 3b d3 3d 9b 9d e0 bd 88 dc e5 bd 20 7f 51 3d
       0.103140414 -0.10967561 -0.112237036 0.051146626
0000d0 ee 49 a0 bd 15 d3 62 3d 07 47 db 3c 60 ef 48 3d
       -0.07826601 0.055377085 0.026767267 0.04905641
0000e0 a1 71 a4 bd 6e dd 04 be 01 6b 6e bd 97 ae a6 3d
       -0.080294855 -0.12975094 -0.058207516 0.08138769
0000f0 76 c6 41 bd 1d 6c 05 bc 97 d2 1e be b4 9e 82 bd
       -0.047308408 -0.008143452 -0.15510021 -0.063779265
000100 4f 8c 02 be 8b a3 eb bd 88 50 93 bd 53 de 38 bc
       -0.12748836 -0.11505803 -0.071930945 -0.011283475
000110 bf c2 bb bc 8f 5f 78 bc b8 f5 21 bc 5c 74 fe bd
       -0.02292001 -0.015159502 -0.009885244 -0.124245375
000120 c1 47 29 3b 67 a4 41 3d ff 9a 2d 3d ab 15 a7 bc
       0.0025830122 0.047275927 0.042384144 -0.020396074
000130 bf 70 b0 bd 78 55 0d be 28 fd af bd 42 7c 83 3b
       -0.086152546 -0.13802135 -0.085932076 0.0040126154
000140 4e 43 ed bd 52 bc 97 3b 79 71 2c be 9f 64 3f bc
       -0.11585103 0.004630604 -0.16840161 -0.011681705
000150 27 39 c9 bd 00 74 1d be 8b 1e 5d bd 1e a5 e9 bc
       -0.09825354 -0.15376282 -0.053984206 -0.028521117
000160 34 01 fb bd 3a e5 65 bd ba d3 c6 bd f4 07 bb bc
       -0.12256089 -0.05612681 -0.097083524 -0.02283094
000170 0f 88 fa bc fd d4 4a bd 5c 0f fe bc 6a 38 06 be
       -0.030582456 -0.049519528 -0.031013183 -0.13107458
000180 5a 44 83 3d 2e d6 84 bd 42 3e bb bd e9 d2 11 bc
       0.064095214 -0.06486164 -0.09142734 -0.008900383
000190 f2 6f 53 bb 24 01 7a bc 3a d0 81 bd 6c 36 97 3d
       -0.003226277 -0.015259061 -0.06338544 0.07383427
0001a0 ce fc e3 3d 63 88 27 bd c4 b7 ce 3d 26 89 88 bd
       0.11132203 -0.040901553 0.10093644 -0.06666784
0001b0 53 d3 c2 bd 10 cd ec bd 1c d7 8e bd b4 9b ab bc
       -0.09512963 -0.1156255 -0.069746226 -0.020948268
0001c0 42 33 a3 bc e4 bd cb 3d 39 b2 23 3c 66 1e 5e bc
       -0.019921903 0.09948328 0.009991222 -0.013557052
0001d0 49 b4 3b bd d4 54 8a bc 7b 5c 5b 3c 89 cc 7a b9
       -0.04582623 -0.016886152 0.013388748 -0.00023918053
0001e0 99 f0 13 be 64 56 56 bd 1d 7f cf bb 22 6e 54 bd
       -0.1444725 -0.052328482 -0.0063322918 -0.051862843
0001f0 0b e2 04 3d a6 2c 9c bd c1 c0 63 bd 83 d5 92 bd
       0.032442134 -0.076257035 -0.055603746 -0.071696304

weight f4 [128, 128]
000000 7f b1 48 3d ad 68 eb 3d fe 31 ef 3c b8 d2 19 bd
       0.0489974 0.11494575 0.029198643 -0.037554473
000010 f0 3b e0 bd 35 a7 06 be e9 b2 ca 3c c4 9b 81 bd
       -0.10948932 -0.13149722 0.024743514 -0.06328538
000020 72 a6 87 3d 7c 53 4c be 77 27 72 bc 0a 72 77 3d
       0.06623544 -0.19953722 -0.014779917 0.06041149
000030 f5 e6 29 bc 5a 62 ef bd f1 a0 39 be 73 43 3a 3d
       -0.010370006 -0.11688681 -0.181278 0.04547448
000040 fc 06 1e 3e 2d 66 4f bd 42 56 33 bd 94 c2 ca bd
       0.15432352 -0.05063455 -0.043783434 -0.09900394
000050 fd a0 8d 3d 01 b7 d5 3d 88 76 97 bc 33 31 5d 3c
       0.06915472 0.10435296 -0.018489137 0.0135005
000060 d2 0a 00 be 02 1e 5c be c4 0b 9a bd a9 89 69 3d
       -0.12504128 -0.21495822 -0.07521775 0.05701605
000070 73 f9 69 bb 81 08 dd bd 71 bd 3c bd d2 a8 69 3d
       -0.0035701662 -0.107926376 -0.046079103 0.057045765
000080 ff 96 70 3d 91 21 1c be 99 6b 43 bc 2e 0a f1 bd
       0.05873775 -0.1524718 -0.011927509 -0.1176952
000090 4f cc 0a be c6 b0 d6 3d 4f ef cf bc e9 4f c6 bd
       -0.135545 0.104829356 -0.025382666 -0.096832104
0000a0 ae 7e 32 3e ad de 06 be 36 32 5a 3d 0f ee e6 bd
       0.17431137 -0.13170882 0.05327054 -0.11275875
0000b0 9d 09 9e 3d 02 c3 33 3c b3 c9 1e bc b8 52 76 bc
       0.07716677 0.010971786 -0.0096916435 -0.01503437
0000c0 ed ad 2e 3d b9 bc 90 be ec b4 1e bd 3d 4a 79 3d
       0.042646337 -0.28268984 -0.03874676 0.060861815
0000d0 8b a1 ee bd 4c 58 1f bd 36 f8 ab 3c 6c e4 db bd
       -0.116519056 -0.038902566 0.02099238 -0.107369274
0000e0 ea 17 ca bd 1e 15 1b be e3 60 0b be 8a 80 96 bd
       -0.098678425 -0.15144774 -0.13611178 -0.07348736
0000f0 3d 8e 2d be b6 aa 16 be 6c de 17 be 37 5e 01 3e
       -0.16948791 -0.14713559 -0.14830941 0.12633596
000100 52 0d 02 3d a5 17 ce bd 77 d2 48 39 f8 d8 33 bd
       0.031750984 -0.100631036 0.0001915189 -0.04390809
000110 82 74 88 3d 99 42 44 3d 52 27 5a bd 79 40 1f be
       0.06662847 0.047915075 -0.053260155 -0.15551938
000120 b9 5f 88 bd bb 8c fd bd 27 20 f5 3d 26 51 78 3d
       -0.06658883 -0.12380358 0.11969023 0.060624264
000130 25 2c 2c 3d 77 b5 5f bd 1a 85 36 3d af 59 bf bd
       0.042034287 -0.054616418 0.04456053 -0.09343278
000140 cd a4 c9 3d ba 3d 59 3d 1e cb 59 be f2 50 68 3d
       0.098458864 0.053037383 -0.2126889 0.05671782
000150 d0 b8 90 bd ee fe 13 be 79 89 b7 bd e4 99 9d 3d
       -0.070665 -0.14452717 -0.08961768 0.07695368
000160 df 17 61 3d bd 82 91 bd cd 48 00 bc 8c 47 5f 3d
       0.054954406 -0.071050145 -0.007829857 0.05451159
000170 15 5a 21 bd 34 97 78 3d 38 ac 31 bd f0 dc 8c bd
       -0.03939255 0.060691074 -0.04337713 -0.06878078
000180 de c1 df 3d f6 d9 cb 3d 36 6f bd 3c 1d 70 65 3c
       0.10925649 0.09953682 0.023124319 0.014003781
000190 e2 01 dd bb 54 7e 4b 3d 5c c1 48 bd ec 1f d0 bd
       -0.006744609 0.049681023 -0.049012527 -0.101623386
0001a0 95 f6 f6 3b 0d 52 9d bd 70 55 0c bd 01 53 6e be
       0.007536719 -0.076816656 -0.034261167 -0.23273851
0001b0 b7 3f 1d b9 00 ed 7b 3d da 10 ab 3d 69 28 20 3d
       -0.00014996422 0.061505318 0.083528236 0.039101038
0001c0 92 f4 12 3d 7a e6 92 3d 91 8e 9b bd 80 9a ec bd
       0.03587777 0.07172866 -0.07595552 -0.11552906
0001d0 85 9e cd 3c 86 e7 e7 bd 78 af 8f 3d ff b7 84 3b
       0.025100002 -0.113234565 0.0701589 0.0040502544
0001e0 55 4c b2 bd bb 78 62 3d 4c ca ba bd 38 f4 bd bd
       -0.087059654 0.05529092 -0.09120616 -0.09275097
0001f0 04 2c 5b bd f9 13 6b 3c b5 c6 84 3c ac f2 2c 3c
       -0.053508773 0.014348024 0.016208032 0.010555904
000200 51 95 11 be 97 ed 04 bd cc 96 e1 bd 03 d5 cd bd
       -0.14217116 -0.032453146 -0.1101509 -0.100503944
000210 ac f1 26 3e 8f 24 b6 3d 25 3d 1b be 8b 6f 0e bd
       0.16303128 0.08893692 -0.15160044 -0.034774344
000220 f7 68 c2 3c 29 8e 44 3e 1d dc 61 bd 08 28 c0 be
       0.023731692 0.19194855 -0.055141557 -0.3753054
000230 9f d2 4d 3e cf 3d 8a 3d 11 89 c6 bd 82 c8 04 3e
       0.20099877 0.0675007 -0.09694112 0.12967113
000240 18 47 ee bd 67 a7 34 bd 07 78 3c 3d 09 56 8f be
       -0.11634654 -0.04410496 0.046012904 -0.27995327
000250 c8 e9 60 bd 6b d0 bf bd e2 d8 69 bd 8d 0e 11 3d
       -0.05491045 -0.093659244 -0.0570916 0.035414267
000260 36 c7 57 3d 98 27 36 bd 8b 2f 6c bb b6 04 a7 3b
       0.052680217 -0.044471353 -0.003603908 0.005096997
000270 30 ab 1e be 62 35 ca bd d7 d5 77 bd 22 3f 51 3d
       -0.1549499 -0.09873463 -0.060506668 0.0510856
000280 81 69 7c bc 3d ce 8d bd 40 33 f0 3d b2 57 61 3d
       -0.0154060135 -0.069241025 0.11728525 0.055015273
000290 20 83 43 3e 5f 6a 93 bd 54 33 a2 ba c7 2d 2b 3d
       0.19092989 -0.07198023 -0.0012374916 0.041791704
0002a0 dd 33 57 be 3e e8 c6 bd ba 27 20 be 2c 92 a2 3d
       -0.21015878 -0.097122654 -0.15640154 0.07938036
0002b0 24 b6 46 be d7 09 19 bd 01 d6 b1 3c 1c 5d 09 3e
       -0.19405419 -0.0373629 0.02170849 0.13414425
0002c0 5e f8 54 be dd 48 f6 3c bc 59 43 3d cf 25 30 3d
       -0.2079787 0.03006404 0.047693 0.043004807
0002d0 22 ec 85 bc be 11 06 bd f9 a4 20 bc a8 df eb bd
       -0.016347948 -0.032731764 -0.009804958 -0.115172684
0002e0 7f 8f 24 3d c1 0f 01 3d b0 47 a2 bd 5f 56 2c be
       0.04017591 0.031509165 -0.079238296 -0.16829823
0002f0 40 8d 2c 3e 6e 27 67 3c 31 96 b0 3d 1b 7d 9e be
       0.16850758 0.014108522 0.08622397 -0.30954823
000300 91 b3 cf ba 74 13 5c bd 52 e3 8c 3c c4 f7 0d be
       -0.0015846362 -0.05372949 0.017198239 -0.13864046
000310 77 07 ec bb 65 7d a4 be 86 f9 76 bd c3 69 8b 3d
       -0.0072030383 -0.32126918 -0.060296558 0.06807282
000320 6c 14 ba 3d b2 38 51 3e 73 ac 87 3d a6 70 1b 3c
       0.090859264 0.20431784 0.06624689 0.009487307
000330 21 dc 3f 3e 1e 62 13 3d df f6 bb bc 11 8c 72 bc
       0.18736316 0.035982244 -0.022944866 -0.014803902
000340 80 2c c1 bd 3f 3f 68 bc 60 97 cf 3d 06 b0 0a be
       -0.09432316 -0.014175235 0.10136294 -0.1354371
000350 59 d6 0f 3e fe db e8 bd 25 6b a9 3d d4 ae 29 3c
       0.14046611 -0.11370085 0.08272389 0.010356624
000360 54 9b 38 3d 95 f6 cc bd cc 15 b8 bd 43 c8 60 3d
       0.045070007 -0.10007969 -0.089885324 0.054878484
000370 63 fe bb 3d a5 a1 46 be c6 66 4c bc 10 0d 3f bd
       0.0917938 -0.193976 -0.012475675 -0.046643317
000380 25 19 5b be a0 31 22 be 4e fa 99 bc ba 7e 01 3d
       -0.2139631 -0.15839243 -0.018796112 0.031614996
000390 3b 5f 12 bd 06 31 c8 bc a9 e1 5f 3c 5c 38 93 bd
       -0.03573535 -0.024437439 0.013664641 -0.07188484
0003a0 eb 85 6e be 09 65 81 3d d1 b3 61 3e 59 38 d2 3d
       -0.23293273 0.06318099 0.22041251 0.10264654
0003b0 9b c5 f9 bc 6d 1d 64 bd 91 38 a4 bd 51 93 f1 3c
       -0.030489733 -0.055692125 -0.08018602 0.029489191
0003c0 b5 a0 c8 3d d9 b0 50 be 81 c1 1a 3b 0f 9d ad bd
       0.097962774 -0.20379962 0.0023613872 -0.08477222
0003d0 39 b7 d7 3c 7b 0b e9 3c 92 99 84 be 07 10 4a 3d
       0.026332485 0.028447857 -0.25898415 0.04933169
0003e0 18 e3 2e 3d 66 3c 47 bd ab 82 e9 bd 79 78 cd bd
       0.042697042 -0.048641585 -0.11401876 -0.10032744
0003f0 00 9b 29 3d 01 8f c1 3d a0 22 60 3d 77 78 21 3c
       0.041407585 0.09451104 0.05472052 0.009855381

bias f4 [128]
000000 de b9 df 3d 6f b9 6a 3d 72 fe f5 bd 53 b6 9d 3c
       0.10924123 0.05730575 -0.12011422 0.019251978
000010 6f 69 18 3d ac 07 25 bd d9 7f 09 be 4a 87 b5 3d
       0.037209924 -0.04029052 -0.13427676 0.08863695
000020 ac ce 0e 3c 7a d0 01 bd 2a 8f d0 bc 3a b8 8f bd
       0.008716267 -0.03169296 -0.025458891 -0.0701756
000030 1e 0e ed bb dc 45 ef 3d 85 37 81 3d 80 0e f2 bd
       -0.007234349 0.116832465 0.06309418 -0.11819172
000040 b7 dd aa bd 2e 37 59 3c bc 86 ea bc 59 e9 35 bd
       -0.0834307 0.013257785 -0.0286287 -0.04441199
000050 b0 b4 21 bd e1 05 c7 bd 7e d0 6a bd b5 42 6c bb
       -0.039478958 -0.09717918 -0.05732774 -0.0036050503
000060 81 fa c1 3d 44 75 47 3d f1 28 fc bc 8d e9 8c 3d
       0.09471608 0.048695818 -0.030781241 0.06880484
000070 e4 cd 8f 3d 8d 36 8b bd 5c 60 d3 3d 85 f0 ac bc
       0.070216924 -0.06797514 0.103211135 -0.021110782
000080 b4 2c db 3d 7f a5 1a bc 13 f7 73 3d 3d 25 8a bb
       0.10701886 -0.009438871 0.0595618 -0.004215865
000090 e7 9b f6 bc d3 f3 3f bb 6a 4e c5 3d 58 a4 d9 bc
       -0.030103637 -0.0029289618 0.09634097 -0.026567623
0000a0 56 aa bc bd 3a 71 0e 3e 24 ea 41 3c 7c f9 9e bd
       -0.092121765 0.1391038 0.011835609 -0.07762429
0000b0 29 79 1a 3e 1e 32 76 3e 5d 18 43 3d 52 36 9a 3c
       0.15085281 0.24042556 0.047630657 0.01882473
0000c0 48 58 d2 3c 11 2d e4 bd b1 e9 62 3c d2 d4 d8 bd
       0.025676861 -0.11141408 0.013849662 -0.10587467
0000d0 b9 ee c2 3c e8 86 0c 3e 33 47 19 3e df 59 84 3c
       0.023795472 0.13723338 0.14968567 0.016156135
0000e0 57 32 cd 3d d0 46 09 3c 18 ed 31 bd 9f 98 1d bd
       0.10019367 0.008378699 -0.043439 -0.03847563
0000f0 1e 28 64 3e 00 f6 3d be ad cb 82 3c 92 73 78 bc
       0.22280928 -0.18550873 0.01596626 -0.015164273
000100 c7 c6 e0 bb ef 84 cc 3c 56 47 48 bd e5 ee ef bd
       -0.0068596336 0.024965731 -0.048896156 -0.117154874
000110 3e ac 50 3d a0 4e 57 3d bb db d7 bd e4 44 86 3d
       0.050945513 0.052565217 -0.10539957 0.065561086
000120 4b 90 0c be 4a c6 2e be 25 55 2d be f4 dd a1 bd
       -0.13726918 -0.17067829 -0.16927011 -0.07903662
000130 10 b0 64 bd 69 39 d8 bc cd b3 52 3d 12 6c a5 bc
       -0.05583197 -0.026394563 0.051441003 -0.020193134
000140 df 90 23 3d c8 87 a3 3d 27 13 ff bd 46 6b da 3c
       0.03993308 0.079848826 -0.12454825 0.02666248
000150 70 a1 92 3d fb 55 74 3d f3 83 64 3c 45 a0 ea 3c
       0.07159698 0.05965231 0.013947475 0.028640876
000160 02 53 46 3c c4 1b a1 bd 01 9c 13 3b 93 3b 47 3e
       0.012104752 -0.07866624 0.0022523405 0.1945632
000170 5d f9 4a be e5 18 3b be c8 d1 ec 3d a4 78 b6 bc
       -0.19821687 -0.18271215 0.1156345 -0.022274323
000180 09 8f 1f bd 6d f3 d5 3b a2 83 62 bd 99 04 40 bd
       -0.03895477 0.0065292628 -0.055301316 -0.046879385
000190 b2 b3 47 3d 40 6c 8c bc 86 a5 8a bd 92 17 f9 bc
       0.048755355 -0.017141461 -0.06769852 -0.030406747
0001a0 59 d4 30 3d 47 53 bc bd e8 b4 d1 bc 3b 36 8f bc
       0.04317126 -0.091955714 -0.025598958 -0.017481914
0001b0 30 66 56 bd df 1e 90 3d 23 73 bc ba 48 95 85 bd
       -0.052343547 0.07037138 -0.0014377575 -0.06522614
0001c0 f5 56 8a bc 5b 3e 78 3d 3c 81 0c 3e 78 cd 5e bd
       -0.016887167 0.06060634 0.13721174 -0.05439517
0001d0 51 06 aa bd 53 b4 bf bd 93 43 80 bd 57 4e 03 be
       -0.08301986 -0.09360566 -0.06262889 -0.12822853
0001e0 02 73 e6 bd 74 2c f0 bd e9 e9 eb bd 3d 7c 97 bd
       -0.11252405 -0.11727229 -0.11519224 -0.073967434
0001f0 a1 0f b1 3d 4f 3f 6a bd 9a 04 ef bc 48 00 8c 3d
       0.08645559 -0.057189282 -0.029176999 0.06835991
