results/model/union_559.model (torch, 686563 bytes, 21 tensors)

weight_ih f4 [384, 5]
-0.034600813 -0.069042526 -0.1086219 -0.026784863 -0.10389972 -0.0032805584 -0.067824595 0.06499573
0.06843362 -0.003337062 -0.06849289 -0.022905344 -0.041775398 0.07585156 -0.13064562 0.033568263
0.029195495 0.10630259 0.103890896 0.072811365 0.054120414 0.0057331827 -0.09533157 0.078176916
0.26303202 -0.045675833 -0.02094347 -0.03117994 0.031912748 -0.0876879 -0.005324703 0.09152822
-0.022493897 0.12185404 0.06734169 -0.030033091 0.047716632 0.036010914 -0.07860794 -0.029930873
0.031791516 -0.11787762 0.07111181 0.11616825 0.025431778 0.001438528 0.06456202 -0.12134522
0.06821639 -0.0678985 0.020736303 -0.05108728 0.07549871 0.059021305 0.0062781773 0.088785954
0.13032338 -0.046477623 -0.013485387 0.041747764 0.08149443 -0.016731301 -0.11724322 0.100191735
0.1030589 -0.019287612 0.03744376 0.021772685 0.11805002 0.14964738 0.08295723 -0.03099935
0.06303855 0.02706967 -0.15946364 0.09743257 0.04155912 -0.03930824 0.0075101936 0.04210583
-0.02884823 -0.0051925336 -0.11470528 -0.06691204 0.0129707055 0.12357038 -0.10064888 -0.07270957
0.023206525 0.0850734 0.088479675 0.09668772 -0.041537408 -0.022003962 0.012388198 -0.03532412
0.07991156 -0.029788207 -0.060507458 0.017821565 -0.008274812 -0.117459536 -0.08223533 0.014890562
0.01279326 0.08953129 0.010685464 -0.12229207 -0.0041066986 0.2227332 0.15152605 0.046112888
0.008694299 0.1514987 0.11039362 0.015815493 -0.05286894 0.01378333 0.0892929 0.08588893
-0.0091220355 -0.03305317 -0.07240882 -0.0026344205 -0.008917379 -0.01784929 -0.076879755 0.039495595
0.0837819 -0.10352697 -0.07733115 -0.003293884 0.07681944 0.08069376 -0.07799696 -0.021672485
-0.035584904 -0.020430503 -0.032273956 -0.02479481 -0.011522802 0.05450425 0.010974259 0.101265125
0.0440294 -0.11865866 0.0037993717 0.019084677 -0.1135018 -0.040342826 0.059029657 0.16546802
-0.00072209147 0.096972965 0.13724591 0.0896912 0.09008928 0.07864136 0.06006361 0.049233597
-0.0019622846 0.04771742 0.048833117 0.095125355 0.04806434 0.007833791 -0.05087953 -0.041173663
0.06595733 0.047020674 0.056152556 -0.097493224 0.027632881 -0.038382698 -0.026373954 0.040013555
-0.013715866 -0.040807016 0.045016754 0.11151421 -0.01964627 -0.0061736074 -0.06145446 0.02988388
0.1623703 -0.09945323 0.0912839 0.031515434 -0.08826887 -0.062667035 -0.030834872 -0.04223658
0.028051296 -0.026656952 0.04906989 0.058276303 -0.008658393 -0.012930931 0.07600238 -0.08598315
0.039264586 0.06335192 0.105705746 0.05379339 0.028900407 0.08263187 0.04723564 -0.19920386
-0.023866538 0.06633295 0.1027637 0.071939915 -0.01304426 -0.006021116 0.10714463 0.033354875
0.037958447 -0.019232882 0.08898763 -0.07885768 -0.0047745537 0.03365026 -0.14321235 -0.0033976298
0.060318913 0.14016008 -0.059461497 0.08489975 0.11516271 -0.013494734 -0.031334843 0.046804845
-0.042213418 0.03129854 0.08432192 0.11441659 -0.031818505 -0.022102317 0.016197026 0.118999064
0.021848017 -0.019457722 0.036702707 -0.025375351 -0.01237184 0.120344274 0.09081251 -0.029572695
0.06716249 0.030645471 -0.007980095 -0.010412168 0.12029091 0.041283317 0.0314229 0.018243203
00000000: 95b9 0dbd 2b66 8dbd 2975 debd ee6b dbbc
00000010: 60c9 d4bd a3fe 56bb 9fe7 8abd 7b1c 853d
00000020: ed26 8c3d 9cb2 5abb 0046 8cbd fda3 bbbc
00000030: ae1c 2bbd 1058 9b3d f7c7 05be e07e 093d
00000040: 642b ef3c 2cb5 d93d c0c4 d43d 201e 953d
00000050: 5ead 5d3d 6cdd bb3b 333d c3bd 381b a03d
00000060: 22ac 863e 9516 3bbd a491 abbc 136d ffbc
00000070: f1b6 023d b795 b3bd d97a aebb 2673 bb3d
00000080: 1f45 b8bc 9c8e f93d 71ea 893d f507 f6bc
00000090: 8472 433d 2e80 133d 33fd a0bd 9731 f5bc
000000a0: d237 023d d269 f1bd 12a3 913d 9fe9 ed3d
000000b0: 4e56 d03c fd8c bc3a 1839 843d d883 f8bd
000000c0: 09b5 8b3d 5e0e 8bbd 2edf a93c e540 51bd
000000d0: 119f 9a3d 53c0 713d 2bb9 cd3b 69d5 b53d
000000e0: 7e73 053e 525f 3ebd d0f1 5cbc b4ff 2a3d
000000f0: 8de6 a63d 1510 89bc 371d f0bd 5331 cd3d
00000100: 8b10 d33d 0e01 9ebc a15e 193d a15c b23c
00000110: 35c4 f13d 2a3d 193e 7be5 a93d 59f2 fdbc
00000120: 5b1a 813d 36c1 dd3c 704a 23be ba8a c73d
00000130: e539 2a3d ad01 21bd 1218 f63b 2a77 2c3d
00000140: 2053 ecbc 2126 aabb 9aea eabd 2e09 89bd
00000150: 1583 543c 7812 fd3d 0021 cebd c1e8 94bd
00000160: 9c1b be3c f63a ae3d d534 b53d 3604 c63d
00000170: 2123 2abd a741 b4bc def7 4a3c 06b0 10bd
00000180: aca8 a33d 6606 f4bc abd6 77bd 88fe 913c
00000190: 1493 07bc a08e f0bd ff6a a8bd 8bf7 733c
000001a0: d29a 513c 2e5c b73d 1612 2f3c 4474 fabd
000001b0: 7c91 86bb 2c14 643e a529 1b3e dee0 3c3d
000001c0: 8872 0e3c 7a22 1b3e 0d16 e23d 7e8f 813c
000001d0: 1a8d 58bd 7ad3 613c 32df b63d 89e6 af3d
000001e0: 9774 15bc c362 07bd 134b 94bd 3ea6 2cbb
000001f0: 331a 12bc ad38 92bc 2273 9dbd 22c6 213d
00000200: d895 ab3d f305 d4bd cb5f 9ebd 34de 57bb
00000210: 8353 9d3d c542 a53d dfbc 9fbd 7f8a b1bc
00000220: 7ac1 11bd df5d a7bc b231 04bd 7c1e cbbc
00000230: 22ca 3cbc d93f 5f3d 61cd 333c 1764 cf3d
00000240: 2c58 343d 5003 f3bd e1fe 783b 7857 9c3c
00000250: a273 e8bd 853e 25bd 15c9 713d 7370 293e
00000260: bd4a 3dba c399 c63d 318a 0c3e 05b0 b73d
00000270: ba80 b83d b90e a13d 4305 763d 2ba9 493d
00000280: ac99 00bb 5773 433d 3c05 483d 15d1 c23d
00000290: 1ddf 443d 4d59 003c 0e67 50bd b7a5 28bd
000002a0: a314 873d c098 403d 3900 663d 87aa c7bd
000002b0: 5a5e e23c 2d37 1dbd 310e d8bc 41e5 233d
000002c0: 83b8 60bc 4225 27bd 7d63 383d 9061 e43d
000002d0: 37f1 a0bc f94b cabb acb7 7bbd 0acf f43c
000002e0: 6644 263e 23ae cbbd 0ef3 ba3d 5416 013d
000002f0: 4fc6 b4bd 9357 80bd 6a99 fcbc 4400 2dbd
00000300: d5cb e53c ae5f dabc 82fd 483d 22b3 6e3d
00000310: efdb 0dbc 41dc 53bc 23a7 9b3d ef17 b0bd
00000320: e7d3 203d a7be 813d 417c d83d 7556 5c3d
00000330: 8cc0 ec3c e63a a93d 297a 413d 19fc 4bbe
00000340: c283 c3bc 92d9 873d c675 d23d 3c55 933d
00000350: 98b7 55bc c84c c5bb a56e db3d 1f9f 083d
00000360: 517a 1b3d 478e 9dbc 263f b63d 2380 a1bd
00000370: dc73 9cbb dbd4 093d 42a6 12be c5aa 5ebb
00000380: f710 773d 2086 0f3e e68d 73bd ecdf ad3d
00000390: 6dda eb3d 0419 5dbc f758 00bd 70b6 3f3d
000003a0: fae7 2cbd e632 003d f9b0 ac3d 3f53 ea3d
000003b0: 1f54 02bd eb0f b5bc a0af 843c c8b5 f33d
000003c0: 9dfa b23c cd65 9fbc 9455 163d f8df cfbc
000003d0: 42b3 4abc 0f77 f63d e9fb b93d 7042 f2bc
000003e0: 7d8c 893d 360c fb3c f2be 02bc cc97 2abc
000003f0: 155b f63d b218 293d 4cb5 003d c572 953c

weight_hh f4 [384, 128]
-0.05183988 -0.0021298502 0.0024983773 0.07759482 -0.034323134 -0.049071193 -0.09635354 0.06444453
-0.021115623 -0.08799488 -0.004353745 -0.017529018 -0.10122496 0.030055918 -0.013298196 -0.022958167
0.06187013 -0.075093344 -0.002626422 -0.05974988 -0.09717615 0.06677659 -0.07774895 0.03157667
-0.09917169 -0.041839186 -0.002217539 -0.03913438 0.10106836 0.07548975 -0.024221482 0.02505806
0.01785936 0.101267904 0.05833174 -0.004687241 -0.08803489 -0.06806661 -0.009289692 0.055368654
0.080047585 -0.008619449 0.10926779 -0.0015213308 0.025736118 0.025069684 -0.08123078 -0.07042516
0.017704513 0.08393939 -0.087410055 -0.015397029 0.043097813 -0.0359086 0.114565514 0.07234038
-0.029671809 -0.0026071125 0.06278152 0.09935787 0.04390981 -0.043429356 0.020171069 -0.08130012
-0.018096887 0.04310725 0.022205543 -0.085912056 0.058848172 -0.09066815 0.026613336 0.04249619
0.061142206 -0.038078964 0.06105117 0.024300305 0.06303518 -0.07689217 0.022197394 -0.06243963
-0.04535175 -0.032646306 -0.039762 -0.077691466 -0.03922994 -0.04222724 -0.044946704 0.05082134
-0.005352113 -0.06589694 -0.033524543 0.09190063 0.08635634 0.044096395 0.09226289 0.04184303
0.0930331 0.093859255 -0.0010514992 -0.04292202 -0.0997678 0.07626532 0.057616543 0.09980402
-0.061057102 -0.11661489 0.056345794 0.015370303 -0.055758845 -0.013314239 0.084580496 0.024314642
0.023371473 0.062144928 0.048531067 -0.11214507 0.07848973 0.06228939 -0.0148517 0.022118835
-0.06964171 -0.10191238 -0.039379623 0.060450505 -0.04838549 -0.027592855 0.09987494 -0.010789841
0.049223613 0.051992755 -0.12594655 0.093395054 -0.035143733 -0.023954287 0.07736889 -0.013944411
0.100588694 0.05462782 0.017444165 -0.09060547 0.03203255 -0.047420155 0.0520307 -0.04736682
-0.075717434 -0.092469804 0.05431193 -0.10293013 0.08108655 0.03443802 0.06779893 0.027870774
0.0787582 0.05336421 0.020940486 -0.0077195596 -0.09778999 0.13218817 -0.109388754 -0.017050931
0.09099877 -0.0033800264 0.04771166 -0.017341634 -0.003871059 0.035515428 0.034289625 0.06070516
-0.082106955 -0.0075085214 0.015365363 -0.06678219 -0.04331023 -0.009325013 -0.074481234 0.07941262
-0.003571448 -0.109833375 0.04809697 -0.023647308 -0.074090235 -0.044773947 -0.07989069 0.03965292
0.11670069 0.015471952 -0.01832519 -0.054806948 -0.017035576 -0.03568553 -0.02782187 0.04438432
-0.0076456377 0.04832853 0.074620925 -0.04044415 0.027064178 0.05870514 -0.1375874 0.08041413
-0.032847535 0.083624616 0.088938855 0.016999355 -0.09940755 -0.00979848 -0.016724883 -0.026605405
-0.017060574 -0.0029596412 0.0053927936 0.101473205 0.07052977 -0.030487198 -5.8569698e-05 -0.01976906
0.075850174 -0.066217974 0.0012933068 -0.06323948 0.06100974 0.0763266 0.041871622 0.05006454
0.03503282 -0.038497496 0.13273452 0.057436295 -0.0072156824 -0.044983197 -0.01909761 -0.07111836
-0.0116089685 0.066951565 0.040386315 0.03980504 -0.08491907 0.060449157 -0.031105395 -0.07876947
0.08693886 -0.099473916 0.050231405 -0.079355694 -0.04783834 -0.11021985 -0.09016125 0.06881611
0.0038786903 0.0011374768 -0.052930165 0.03082893 0.01799784 0.00079715764 0.06731338 0.047666967
00000000: 0e56 54bd f594 0bbb d1bb 233b 08ea 9e3d
00000010: 6a96 0cbd e0fe 48bd 0155 c5bd 7efb 833d
00000020: acfa acbc a936 b4bd dca9 8ebb 0499 8fbc
00000030: 084f cfbd d437 f63c ade0 59bc c412 bcbc
00000040: 896b 7d3d 8aca 99bd 0d20 2cbb 4abc 74bd
00000050: 4a04 c7bd 2ac2 883d d73a 9fbd 8a56 013d
00000060: 871a cbbd 915f 2bbd 2154 11bb 5f4b 20bd
00000070: eefc ce3d 5f9a 9a3d 216c c6bc 9046 cd3c
00000080: cb4d 923c 8c65 cf3d 43ed 6e3d 6d97 99bb
00000090: a34b b4bd 8266 8bbd cb33 18bc 3eca 623d
000000a0: fdef a33d 9738 0dbc cbc7 df3d 6467 c7ba
000000b0: 8dd4 d23c f05e cd3c 535c a6bd 113b 90bd
000000c0: 0e09 913c 6ae8 ab3d 0b04 b3bd d243 7cbc
000000d0: 5587 303d e514 13bd 53a1 ea3d 3127 943d
000000e0: 4b12 f3bc 17dc 2abb 9993 803d 247c cb3d
000000f0: c6da 333d fbe2 31bd cc3d a53c ad80 a6bd
00000100: ec3f 94bc 3a91 303d 66e8 b53c a9f2 afbd
00000110: c80a 713d 39b0 b9bd 3604 da3c 7c10 2e3d
00000120: 4070 7a3d b0f8 1bbd cb10 7a3d 6f11 c73c
00000130: 9718 813d a479 9dbd 4fd7 b53c b3c0 7fbd
00000140: c2c2 39bd 22b8 05bd 7bdd 22bd b41c 9fbd
00000150: 93af 20bd 78f6 2cbd 091a 38bd 0a2a 503d
00000160: c760 afbb faf4 86bd 0851 09bd 6636 bc3d
00000170: 98db b03d 6c9e 343d 53f4 bc3d 9963 2b3d
00000180: 2388 be3d 4839 c03d 75d2 89ba 00cf 2fbd
00000190: 0f53 ccbd fe30 9c3d 53ff 6b3d 0d66 cc3d
000001a0: 0317 7abd cad3 eebd d9ca 663d b9d3 7b3c
000001b0: 6363 64bd f723 5abc 8a38 ad3d 802f c73c
000001c0: 8875 bf3c ae8b 7e3d 83c8 463d 51ac e5bd
000001d0: 39bf a03d 2923 7f3d 8b54 73bc 8f32 b53c
000001e0: 50a0 8ebd 70b7 d0bd 874c 21bd f39a 773d
000001f0: dd2f 46bd 690a e2bc 3c8b cc3d e0c7 30bc
00000200: b39e 493d 5bf6 543d 22f8 00be e845 bf3d
00000210: e0f2 0fbd c83b c4bc 9573 9e3d 1977 64bc
00000220: 7201 ce3d 6cc1 5f3d 11e7 8e3c 5c8f b9bd
00000230: 9034 033d a33b 42bd 251e 553d b603 42bd
00000240: be11 9bbd cf60 bdbd 3076 5e3d 08cd d2bd
00000250: b510 a63d e20e 0d3d 2ada 8a3d 4051 e43c
00000260: fb4b a13d 6e94 5a3d 628b ab3c 5cf4 fcbb
00000270: 1e46 c8bd 565c 073e 3607 e0bd 65ae 8bbc
00000280: 905d ba3d 6f83 5dbb 4d6d 433d 0b10 8ebc
00000290: 98b1 7dbb a078 113d 4773 0c3d f9a5 783d
000002a0: b127 a8bd 0b0a f6bb 01bf 7b3c 1ac5 88bd
000002b0: 1166 31bd f0c7 18bc 9e89 98bd 15a3 a23d
000002c0: f40e 6abb 52f0 e0bd 5401 453d 00b8 c1bc
000002d0: 9fbc 97bd e364 37bd bb9d a3bd 1a6b 223d
000002e0: c500 ef3d 127e 7d3c b51e 96bc 407d 60bd
000002f0: 318e 8bbc fe2a 12bd b1ea e3bc 55cc 353d
00000300: 4288 fabb 23f4 453d dbd2 983d c4a8 25bd
00000310: b2b5 dd3c cd74 703d b6e3 0cbe 2ab0 a43d
00000320: 238b 06bd 6243 ab3d 9325 b63d 3b42 8b3c
00000330: 3096 cbbd ce89 20bc 9f02 89bc 94f3 d9bc
00000340: 9ec2 8bbc 8af6 41bb 08b6 b03b 2fd1 cf3d
00000350: e971 903d 4ac0 f9bc bca8 75b8 b9f2 a1bc
00000360: 5657 9b3d 4a9d 87bd 2d84 a93a b383 81bd
00000370: 59e5 793d 1f51 9c3d 9481 2b3d 7a10 4d3d
00000380: 937e 0f3d 8daf 1dbd 8feb 073e 5242 6b3d
00000390: 8871 ecbb 4d40 38bd 9772 9cbc 81a6 91bd
000003a0: 8b33 3ebc e71d 893d 1f6c 253d 9c0a 233d
000003b0: 0dea adbd 8999 773d bed0 febc e351 a1bd
000003c0: 000d b23d fbb8 cbbd 72bf 4d3d 3d85 a2bd
000003d0: 23f2 43bd f2ba e1bd 76a6 b8bd 76ef 8c3d
000003e0: a031 7e3b 6317 953a 4dcd 58bd f48c fc3c
000003f0: 3570 933c 58f8 503a 99db 893d 703e 433d

bias_ih f4 [384]
0.018166399 0.08801398 -0.017726596 0.0029346226 -0.033066675 0.07794735 0.084646955 0.06649297
0.045671426 0.09909853 0.124523245 0.0980437 -0.03933091 0.0695263 -0.060230248 -0.05131686
0.007446462 0.029963125 -0.038335506 -0.025753759 -0.055033714 0.082814984 0.06708745 0.028801026
0.014834097 0.042900067 -0.0135531165 0.053458072 0.064804494 -0.11289785 -0.04058346 0.044674024
0.09854179 0.015146605 0.0017766417 0.09574498 -0.036348335 -0.12440456 0.04913126 0.09917926
0.04388083 -0.012281479 0.06403755 -0.006904669 0.01976393 0.10582302 -0.03138161 -0.02425882
0.052605737 0.09177119 0.014584189 -0.042681016 0.024681782 0.019956974 0.096485846 0.08725041
0.12555113 0.012758234 0.03788715 -0.017678691 -0.01914519 0.074439764 -0.009482114 0.18143915
0.09984555 -0.09278622 0.11823519 0.007963574 -0.0020922027 0.116177484 0.020098746 -0.03455075
0.014210806 -0.019790797 0.12729356 0.06741925 0.052941978 -0.08622064 0.0558748 0.12392147
-0.033059493 0.026574258 0.069776125 0.010174276 -0.03544483 0.011715 -0.022970494 -0.03736022
0.13231514 0.008060258 -0.007872959 -0.08029167 0.014873146 -0.031080158 -0.03624338 0.10424789
-0.052893642 -0.0921201 0.08661236 0.10169198 -0.0034647125 0.09655726 0.10696391 -0.008644622
-0.08605928 0.012962958 -0.04549132 0.0053226273 -0.012250011 -0.034437478 0.039351642 0.041384824
-0.05260572 0.10776458 -0.028601646 0.04832539 0.14350443 0.04347578 0.006319701 0.064305946
0.043026004 -0.020052945 0.12106688 0.035190582 0.047634535 -0.05157225 0.105324894 0.10526998
0.029239424 0.062708974 0.036919184 -0.014116769 0.065607265 -0.15320897 -0.01840465 0.061005957
-0.06911263 0.063130945 -0.08965615 0.026852462 -0.16568118 -0.042601842 -0.013706766 -0.07191965
0.06041933 -0.048224423 -0.013073251 -0.04209283 0.017147219 -0.040132973 -0.04832076 -0.12886754
0.033216532 -0.052719012 3.644875e-05 -0.0402796 -0.13342227 -0.07709723 -0.11179852 -0.037830334
0.036837287 -0.12888603 0.08256985 -0.026876993 -0.06860876 -0.049309112 0.039396238 -0.021247232
0.083284885 -0.12883238 -0.10112523 0.09108107 -0.08691659 -0.016770134 0.08476102 -0.0115623055
0.00092802075 -0.096492365 -0.009379409 -0.0009314071 -0.14664374 -0.004393449 0.0059761344 0.037976127
-0.08404602 -0.0058041243 0.043865114 0.061973996 0.07891796 -0.098210335 -0.021462519 -0.1532654
-0.098237686 -0.026023334 -0.009895994 -0.03774437 0.028826928 -0.18942787 -0.04832179 -0.08071152
-0.14693217 0.036327902 -0.06371105 0.04296425 -0.0020717732 0.07337596 -0.042645596 -0.087855935
-0.10629095 -0.0075028935 -0.036633637 -0.014439205 -0.08751759 0.014439792 -0.09544883 0.016205773
0.062037904 -0.11008904 -0.07504977 -0.035520956 -0.11938329 -0.104008675 0.04229711 -0.12981205
-0.072028145 -0.04464873 -0.09126984 -0.05325139 -0.1074962 -0.030088598 -0.03800034 -0.067735426
-0.088225365 0.009685558 0.022807324 0.06450045 -0.042660322 0.059134822 -0.08600265 0.0054559237
-0.033734355 -0.08682062 -0.024794558 0.010760988 -0.014301659 -0.17577916 -0.014734142 -0.010021105
-0.0017925501 -0.08325067 -0.111091495 -0.053345848 -0.14871407 -0.008798778 -0.07669482 -0.04183909
00000000: b3d1 943c ac40 b43d 5e37 91bc cc52 403b
00000010: ec70 07bd dca2 9f3d 625b ad3d 772d 883d
00000020: f611 3b3d 2cf4 ca3d 0b06 ff3d 23cb c83d
00000030: 7319 21bd ce63 8e3d feb3 76bd a131 52bd
00000040: 7301 f43b 3a75 f53c b105 1dbd 8cf9 d2bc
00000050: 086b 61bd e79a a93d 2565 893d 21f0 eb3c
00000060: b60a 733c fbb7 2f3d e40d 5ebc daf6 5a3d
00000070: 38b8 843d fd36 e7bd d83a 26bd 1cfc 363d
00000080: 47d0 c93d 7729 783c 34de e83a f215 c43d
00000090: fee1 14bd d1c7 febd dc3d 493d 7f1e cb3d
000000a0: 63bc 333d 4238 49bc 1e26 833d 9040 e2bb
000000b0: f7e7 a13c bdb9 d83d 018a 00bd 6fba c6bc
000000c0: 1d79 573d 89f2 bb3d 86f2 6e3c 4ad2 2ebd
000000d0: 7331 ca3c cf7c a33c 5f9a c53d 58b0 b23d
000000e0: 7a90 003e e907 513c 8e2f 1b3d e7d2 90bc
000000f0: 60d6 9cbc e073 983d de5a 1bbc 2fcb 393e
00000100: d37b cc3d b406 bebd 4b25 f23d a679 023c
00000110: 561d 09bb 76ee ed3d 20a6 a43c 1685 0dbd
00000120: 71d4 683c 4f20 a2bc 3e59 023e 1b13 8a3d
00000130: b0d9 583d 7294 b0bd f9dc 643d 8aca fd3d
00000140: 6469 07bd 42b2 d93c c9e6 8e3d 02b2 263c
00000150: 992e 11bd 45f0 3f3c 9e2c bcbc 0807 19bd
00000160: 9f7d 073e 2c0f 043c 95fd 00bc f66f a4bd
00000170: 7fae 733c d19b febc f073 14bd eb7f d53d
00000180: 01a7 58bd 77a9 bcbd d261 b13d e343 d03d
00000190: 3b10 63bb d0bf c53d e50f db3d 2ca2 0dbc
000001a0: d93f b0bd 9662 543c 1b55 3abd 6f69 ae3b
000001b0: 45b4 48bc 500e 0dbd 302f 213d 2283 293d
000001c0: 1879 57bd adb3 dc3d 004e eabc d8f0 453d
000001d0: d3f2 123e a913 323d 7f15 cf3b d6b2 833d
000001e0: 093c 303d 1346 a4bc eaf1 f73d 0024 103d
000001f0: 6e1c 433d 6c3d 53bd 94b4 d73d ca97 d73d
00000200: 8487 ef3c 906d 803d 9238 173d 054a 67bc
00000210: 1a5d 863d d0e2 1cbe 59c5 96bc 62e1 793d
00000220: ec8a 8dbd cc4a 813d a59d b7bd b2f9 db3c
00000230: 54a8 29be 457f 2ebd 5892 60bc 9c4a 93bd
00000240: 427a 773d f986 45bd 3031 56bc 8869 2cbd
00000250: 5378 8c3c 7962 24bd fdeb 45bd daf5 03be
00000260: 0f0e 083d e4ef 57bd 8ce0 1838 39fc 24bd
00000270: d99f 08be 27e5 9dbd 9ff6 e4bd fbf3 1abd
00000280: b2e2 163d b3fa 03be 621a a93d 242d dcbc
00000290: c082 8cbd 5af8 49bd f35d 213d ad0e aebc
000002a0: 4491 aa3d a3ec 03be bf1a cfbd b688 ba3d
000002b0: 5301 b2bd 8561 89bc 3097 ad3d d36f 3dbc
000002c0: 6b46 733a ca9d c5bd 18ac 19bc ac29 74ba
000002d0: c729 16be ecf6 8fbb 73d3 c33b db8c 1b3d
000002e0: 5220 acbd 8630 bebb e8ab 333d 72d8 7d3d
000002f0: bd9f a13d 8022 c9bd 2ad2 afbc 9bf1 1cbe
00000300: d730 c9bd e32e d5bc cf22 22bc d799 1abd
00000310: 7326 ec3c 61f9 41be 12ed 45bd 154c a5bd
00000320: 6375 16be 91cc 143d f07a 82bd 48fb 2f3d
00000330: 96c6 07bb 2346 963d 26ad 2ebd d0ed b3bd
00000340: 12af d9bd d5da f5bb 270d 16bd 6a92 6cbc
00000350: 6c3c b3bd e194 6c3c ad7a c3bd f8c1 843c
00000360: 751b 7e3d 5d76 e1bd b2b3 99bd 6c7e 11bd
00000370: 3a7f f4bd 8002 d5bd bc3f 2d3d 73ed 04be
00000380: 7e83 93bd 96e1 36bd afeb babd 211e 5abd
00000390: f826 dcbd 5d7c f6bc 3fa6 1bbd dfb8 8abd
000003a0: 80af b4bd 2db0 1e3c 6dd6 ba3c d018 843d
000003b0: 97bc 2ebd 5b37 723d 2822 b0bd 9bc7 b23b
000003c0: 092d 0abd 02cf b1bd f51d cbbc db4e 303c
000003d0: 8151 6abc 74ff 33be 7967 71bc 902f 24bc
000003e0: 00f4 eaba 547f aabd f083 e3bd 2d81 5abd
000003f0: 8048 18be c028 10bc 2c12 9dbd 775f 2bbd

bias_hh f4 [384]
-0.07518517 0.01622688 -0.010210543 0.004041443 0.1171457 0.013943392 0.12571634 0.00442806
0.061958022 -0.05122022 0.08858836 0.07344793 -0.03505345 0.0565361 -0.014996405 0.10204377
-0.059111267 0.054037523 0.12903492 -0.002105196 0.06254485 0.0049216687 0.13582994 0.044211682
-0.042584494 -0.016620284 -0.017388847 -0.020039003 -0.01389461 0.01841243 -0.05615479 -0.04952849
0.053595055 0.049287993 0.03022909 0.018834885 -0.054363072 -0.12553698 -0.007506656 0.017311638
0.057068594 0.112521134 0.0761128 -0.050878357 -0.041446492 0.096988514 0.047598876 -0.008913257
-0.061968155 0.11670544 0.049743205 0.07808799 0.08633978 0.1264831 -0.0075523504 0.1318539
-0.03800051 0.051104758 0.09047444 0.03634839 0.0043027755 0.04603078 0.1215114 0.02574847
0.073094636 -0.046871834 -0.025964104 0.060105696 0.12152361 -0.0146961855 0.033175908 -0.04056433
-0.032230087 0.024396542 0.04522769 0.045450024 0.013170683 -0.031925395 0.06391944 0.018657474
0.049098987 0.0022706103 0.046150703 0.07564611 -0.0319004 0.00419283 -0.07490985 0.05521415
-0.02381765 -0.05004541 0.013347593 -0.011068398 0.027817957 0.020791883 0.014799586 -0.052687045
0.0811719 0.04975146 0.15068875 0.07323103 0.025890192 0.13052574 -0.05478362 0.0742756
0.015075033 0.074892454 -0.13084087 -0.005979216 0.03013979 0.04166869 0.02577519 -0.031172827
-0.052007645 0.12656973 -0.08512123 -0.07370211 0.015525843 0.034912672 -0.012804007 -0.10930775
-0.011156112 0.0065473616 0.055567153 -0.031206425 0.05328549 0.0790319 0.000108927656 -0.0366222
-0.031222418 -0.0694777 -0.050608966 -0.015758192 -0.097714216 -0.1211708 -0.020463686 -0.07420491
-0.04648937 -0.0885412 -0.15093821 -0.07521907 -0.18594036 -0.13647372 0.08116852 -0.069123305
0.09212765 -0.052200664 -0.118263744 -0.024074309 -0.06852181 -0.041442033 -0.056147777 -0.0012896755
0.022345359 -0.08842927 0.0889008 -0.022791814 -0.12213115 -0.0069368077 -0.122669645 -0.118114576
-0.11971993 -0.08463744 0.0682089 -0.0014759916 -0.13609669 0.015888786 0.012004954 -0.09242012
-0.03073892 -0.13937478 -0.16785967 0.0008114409 -0.11362734 -0.10067435 -0.011293797 -0.0036899166
-0.09511062 0.05742671 0.048599746 0.013582597 0.019070888 0.04826886 -0.051955063 -0.026211083
-0.13265865 0.05082512 -0.059149444 -0.029254593 -0.058159627 0.013428278 0.021684676 -0.023459923
-0.09235126 -0.01998614 0.013904186 0.034385685 -0.010281494 -0.15926768 -0.08058035 0.055452976
-0.09680895 -0.081295684 0.05285014 -0.035250187 -0.043054163 -0.012625061 -0.12734133 -0.14012396
-0.060164858 -0.06547941 -0.059071578 0.032133218 0.020263717 0.05336929 -0.009862047 0.038212303
0.06327565 0.040318422 -0.018831147 -0.014500102 -0.045107756 -0.022900263 -0.08466463 -0.12218917
-0.031115012 -0.055201773 -0.09124966 -0.06530961 -0.010219267 -0.01499935 -0.07931515 -0.016408926
0.027072985 -0.03675733 -0.042899933 -0.10665174 -0.13902469 -0.08418395 -0.09495047 -0.07943217
-0.067310706 -0.12205754 0.01615655 -0.08065302 0.030540364 -0.049897354 -0.031758618 0.07806161
-0.06403913 -0.048247017 -0.078999855 -0.0717025 -0.031060241 0.034366135 -0.024063524 0.06731167
00000000: affa 99bd 3cee 843c 1f4a 27bc 156e 843b
00000010: 16ea ef3d d372 643c c9bb 003e 4219 913b
00000020: b2c7 7d3d 4bcc 51bd d06d b53d de6b 963d
00000030: 3594 0fbd 6692 673d 7bb3 75bc 53fc d03d
00000040: a81e 72bd 7356 5d3d bb21 043e 54f7 09bb
00000050: 8417 803d f345 a13b 0117 0b3e 4f17 353d
00000060: 146d 2ebd 4327 88bc 0e73 8ebc d628 a4bc
00000070: 38a6 63bc aad5 963c 9102 66bd 63de 4abd
00000080: 7d86 5b3d 35e2 493d ffa2 f73c 9e4b 9a3c
00000090: d0ab 5ebd c48c 00be 65fa f5bb 23d1 8d3c
000000a0: c2c0 693d 7b71 e63d 07e1 9b3d d365 50bd
000000b0: ccc3 29bd eaa1 c63d 0af7 423d e908 12bc
000000c0: 52d2 7dbd 4303 ef3d 88bf 4b3d 99ec 9f3d
000000d0: e9d2 b03d c984 013e b579 f7bb b504 073e
000000e0: 6ca6 1bbd 3953 513d aa4a b93d 0de2 143d
000000f0: 4cfe 8c3b c58a 3c3d f8da f83d 75ee d23c
00000100: a4b2 953d aefc 3fbd acb2 d4bc 6431 763d
00000110: 5fe1 f83d 45c8 70bc 76e3 073d c826 26bd
00000120: b203 04bd 42db c73c ac40 393d ce29 3a3d
00000130: d9c9 573c 34c4 02bd 32e8 823d 8fd7 983c
00000140: 051c 493d 85ce 143b 8508 3d3d 59ec 9a3d
00000150: fea9 02bd 0264 893b 566a 99bd 3c28 623d
00000160: 3b1d c3bc 6afc 4cbd ddaf 5a3c 3a58 35bc
00000170: 7ce2 e33c bd53 aa3c f679 723c 5fce 57bd
00000180: 743d a63d 30c8 4b3d 274e 1a3e 26fa 953d
00000190: ab17 d43c 8aa8 053e ca64 60bd ce1d 983d
000001a0: 45fd 763c 3761 993d 26fb 05be 4ded c3bb
000001b0: b9e7 f63c caac 2a3d 7e26 d33c 285e ffbc
000001c0: f805 55bd 7f9b 013e 0a54 aebd 22f1 96bd
000001d0: 1b60 7e3c 9700 0f3d e6c7 51bc bedc dfbd
000001e0: 20c8 36bc 408b d63b 629a 633d 9ea4 ffbc
000001f0: e341 5a3d 7adb a13d 1770 e438 2901 16bd
00000200: 28c6 ffbc 534a 8ebd 594b 4fbd 5317 81bc
00000210: 641e c8bd 6528 f8bd 76a3 a7bc bef8 97bd
00000220: a36b 3ebd 1755 b5bd 8c8f 1abe 750c 9abd
00000230: 2667 3ebe c4bf 0bbe ae3b a63d 8590 8dbd
00000240: 6cad bc3d 5dd0 55bd 4334 f2bd 7c37 c5bc
00000250: 2a55 8cbd 1fbf 29bd 36fb 65bd 540a a9ba
00000260: 9d0d b73c 681a b5bd 9f11 b63d e6b5 babc
00000270: e51f fabd 294e e3bb 393a fbbd 0ee6 f1bd
00000280: b92f f5bd 6556 adbd 1cb1 8b3d 0f76 c1ba
00000290: ee5c 0bbe 3329 823c 6db0 443c c346 bdbd
000002a0: 30d0 fbbc 43b8 0ebe 68e3 2bbe e1b6 543a
000002b0: 73b5 e8bd 5b2e cebd 9e09 39bc 87d2 71bb
000002c0: 5bc9 c2bd 4538 6b3d 8710 473d 8a89 5e3c
000002d0: 8d3a 9c3c 91b5 453d d5ce 54bd a0b8 d6bc
000002e0: abd7 07be 002e 503d b046 72bd 54a7 efbc
000002f0: ca38 6ebd 4802 5c3c 10a4 b13c 062f c0bc
00000300: a822 bdbd f9b9 a3bc 62ce 633c 01d8 0c3d
00000310: b673 28bc 1117 23be 4f07 a5bd a922 633d
00000320: c543 c6bd 5a7e a6bd 6379 583d 8062 10bd
00000330: 9059 30bd 58d9 4ebc c465 02be a87c 0fbe
00000340: 6d6f 76bd 121a 86bd 0af5 71bd 1f9e 033d
00000350: 1800 a63c c299 5a3d 6c94 21bc 8184 1c3d
00000360: aa96 813d ee24 253d c743 9abc d691 6dbc
00000370: e9c2 38bd 5599 bbbc a664 adbd 513e fabd
00000380: e9e4 febc 411b 62bd 1ae1 babd 0bc1 85bd
00000390: b66e 27bc d5bf 75bc fb6f a2bd 036c 86bc
000003a0: 2ac8 dd3c db8e 16bd d7b7 2fbd 3a6c dabd
000003b0: 7d5c 0ebe a368 acbd 6475 c2bd 55ad a2bd
000003c0: 32da 89bd 4ef9 f9bd be5a 843c 692d a5bd
000003d0: c92f fa3c 2b61 4cbd 5315 02bd c4de 9f3d
000003e0: f326 83bd aa9e 45bd adca a1bd c3d8 92bd
000003f0: 0c72 febc 81c3 0c3d de20 c5bc b3da 893d

weight f4 [128, 128]
0.07909081 -0.052348383 0.039443977 -0.053426918 0.057593703 0.0711649 -0.06981432 -0.0032497991
0.06771628 0.11207939 0.06469402 0.010184603 -0.091581315 0.029410405 0.035564642 -0.0921563
-0.16426614 0.04258641 0.021974588 -0.023801103 0.05978602 -0.06341749 -0.04256501 0.03851787
-0.050848026 -0.08423345 -0.0118939085 0.09587717 0.05861178 0.11093992 -0.0710134 0.037975002
0.01579959 -0.11870855 0.07835294 -0.013455731 0.03579478 0.045328125 -0.041479994 -0.023165314
0.0433425 -0.034463096 -0.008357382 -0.0054232567 0.051002517 0.07012693 -0.04837226 -0.03401499
0.062174838 -0.045255974 -0.035923924 -0.054067973 0.070786364 0.07883494 -0.06468996 -0.037156478
0.03422143 0.069945395 0.05121447 -0.008848157 0.10611281 -0.012594449 0.09465785 -0.024980195
0.12052659 -0.056252394 -0.053594742 -0.036754575 -0.055798978 -0.024620727 -0.007127339 -0.029963624
-0.038312882 -0.017748851 0.06485279 0.024734624 -0.026611818 0.035702445 0.053642076 0.07381612
-0.002557254 -0.030852456 0.00283481 0.04129844 -0.0435802 -0.0016060618 0.003119861 -0.004477164
0.0029216134 -0.021903383 -0.06804654 0.021305418 0.00018902912 -0.106810205 -0.057216395 -0.042334203
0.06730124 0.015994662 -0.021204438 -0.009751148 -0.033622075 0.047905035 -0.018141113 -0.006916212
-0.093033895 0.040469274 0.08690778 0.004493015 -0.02322078 -0.019344633 -0.064555645 0.03487039
0.012991987 -0.025414115 0.04316618 -0.05309153 -0.060362317 -0.024500713 -0.03181383 -0.12766467
-0.05126283 0.03036505 0.06081446 0.038755078 -0.09660867 -0.10027395 0.08392871 -0.07970361
-0.04873077 0.022313071 0.03893591 0.08915987 -0.016283952 0.040392846 0.06932932 -0.060569808
-0.08956221 -0.07622799 -0.048833456 -0.047003165 0.013827135 0.0602505 0.06553413 0.082039334
-0.027337082 -0.024876831 -0.053367335 0.09385729 -0.0751372 0.031949554 0.031521186 0.057480913
-0.076467015 0.006478664 0.0639819 0.05836696 0.081019826 0.03335525 0.010605866 0.037307482
-0.032598708 0.03369171 0.043052386 0.029849622 -0.09320549 -0.05737269 0.010832979 -0.068765216
0.039022926 0.05682007 0.040046524 -0.0066529256 -0.012622991 0.0025068524 0.032630842 -0.06780064
0.058276244 0.12299645 0.010263334 0.00024254042 0.060426474 -0.010229859 0.06123256 -0.022557711
0.04822103 -0.027258068 -0.047549497 0.04933022 -0.0044121845 0.04278497 -0.08717859 0.020330505
0.039501827 -0.01239005 -0.09463827 -0.06953342 -0.009777004 0.014987936 0.027253674 -0.01285916
0.075653896 -0.11865503 -0.052120544 -0.06453185 -0.01604661 -0.08049972 0.048442252 -0.05713641
0.010152066 0.039093632 -0.05250644 -0.030799147 0.016043266 -0.067147255 0.0112063065 -0.026827162
-0.04952799 -0.04781916 0.08500276 -0.033221833 0.03916713 0.0620203 0.10582461 0.023992907
0.02498644 -0.057446938 -0.04704453 0.09703956 0.02357541 -0.00963785 0.078030035 0.016776655
-0.07988146 -0.0017188159 0.054727145 -0.010412533 0.0038420185 0.09501927 -0.05088421 -0.036312412
0.09252315 0.06736606 -0.02056794 0.017371047 -0.07641966 -0.0020669561 -0.030526688 0.0027973636
0.04029799 -0.029468177 -0.02610301 0.06345625 -0.025749689 -0.0022254612 0.10661199 0.092043474
00000000: 5dfa a13d 426b 56bd 0290 213d 2fd6 5abd
00000010: 60e7 6b3d e7be 913d cffa 8ebd 95fa 54bb
00000020: d5ae 8a3d e189 e53d 4c7e 843d 52dd 263c
00000030: fc8e bbbd 17ee f03c 3bac 113d 71bc bcbd
00000040: 6235 28be 166f 2e3d 0d04 b43c 88fa c2bc
00000050: 30e2 743d 07e1 81bd a658 2ebd eac4 1d3d
00000060: 0546 50bd 9682 acbd abde 42bc 405b c43d
00000070: e812 703d 7834 e33d 796f 91bd ad8b 1b3d
00000080: 246e 813c 781d f3bd 8277 a03d 6d75 5cbc
00000090: 8c9d 123d fca9 393d ede6 29bd 2fc5 bdbc
000000a0: e887 313d 2d29 0dbd 67ed 08bc 93b5 b1bb
000000b0: 04e8 503d b59e 8f3d fe21 46bd 4d53 0bbd
000000c0: 0bab 7e3d 545e 39bd f724 13bd 6176 5dbd
000000d0: 71f8 903d 3774 a13d 2b7c 84bd 6431 18bd
000000e0: c52b 0c3d 883f 8f3d 44c6 513d dcf7 10bc
000000f0: ac51 d93d f358 4ebc fadb c13d 44a3 ccbc
00000100: a5d6 f63d e968 66bd 2986 5bbd f78b 16bd
00000110: 788d 64bd 68b1 c9bc 748c e9bb 4676 f5bc
00000120: f8ed 1cbd 0a66 91bc 8ad1 843d 44a0 ca3c
00000130: 0701 dabc ba3c 123d cbb7 5b3d e82c 973d
00000140: 9a97 27bb 4abe fcbc 38c8 393b 8e28 293d
00000150: 2781 32bd 7e82 d2ba 9576 4c3b 2cb5 92bb
00000160: 8a78 3f3b b96e b3bc fc5b 8bbd b388 ae3c
00000170: 1e36 4639 4fbf dabd bd5b 6abd a166 2dbd
00000180: 3cd5 893d 3d07 833c eeb4 adbc 47c3 1fbc
00000190: 4db7 09bd 1238 443d ac9c 94bc 64a1 e2bb
000001a0: 8e88 bebd 1cc3 253d b5fc b13d 243a 933b
000001b0: 8139 bebc a378 9ebc c035 84bd 41d4 0e3d
000001c0: 58dc 543c 4331 d0bc 05cf 303d 8176 59bd
000001d0: 7a3e 77bd b8b5 c8bc 384f 02bd 87ba 02be
000001e0: f9f8 51bd 20c0 f83c 9518 793d a5bd 1e3d
000001f0: c4da c5bd 6e5c cdbd d1e2 ab3d a53b a3bd
00000200: ea99 47bd e7c9 b63c 437b 1f3d 7399 b63d
00000210: ec65 85bc f872 253d 88fc 8d3d 0c18 78bd
00000220: 646c b7bd 6c1d 9cbd 9705 48bd 6486 40bd
00000230: 358b 623c 3ac9 763d c236 863d 3d04 a83d
00000240: 04f2 dfbc 7fca cbbc b597 5abd 4038 c03d
00000250: 88e1 99bd 89dd 023d 5c1c 013d 1b71 6b3d
00000260: bd9a 9cbd f94a d43b f108 833d 3212 6f3d
00000270: b9ed a53d 849f 083d 3ac4 2d3c bbcf 183d
00000280: 3986 05bd 5200 0a3d b357 303d 3287 f43c
00000290: 85e2 bebd a0ff 6abd cf7c 313c c7d4 8cbd
000002a0: 81d6 1f3d 29bc 683d d307 243d c900 dabb
000002b0: a9d0 4ebc 014a 243b eba7 053d 10db 8abd
000002c0: 12b3 6e3d 90e5 fb3d 8b27 283c 7352 7e39
000002d0: c081 773d 239b 27bc fece 7a3d f3ca b8bc
000002e0: 6a83 453d 504c dfbc 43c3 42bd 7c0e 4a3d
000002f0: 1694 90bb 4b3f 2f3d b08a b2bd 298c a63c
00000300: abcc 213d a3ff 4abc b6d1 c1bd 8a67 8ebd
00000310: ba2f 20bc f68f 753c 1943 df3c 3aaf 52bc
00000320: 6ef0 9a3d 6901 f3bd 5a7c 55bd 4629 84bd
00000330: 2e74 83bc 0add a4bd 626b 463d de07 6abd
00000340: da54 263c a520 203d fe10 57bd 7e4e fcbc
00000350: 2b6d 833c 8084 89bd a89a 373c a3c4 dbbc
00000360: dddd 4abd 06de 43bd ed15 ae3d 9e13 08bd
00000370: b66d 203d 0009 7e3d 93ba d83d c68c c43c
00000380: 5db0 cc3c 7b4d 6bbd c4b1 40bd adbc c63d
00000390: 3821 c13c 13e8 1dbc 36ce 9f3d 326f 893c
000003a0: e498 a3bd e449 e1ba 9229 603d 5499 2abc
000003b0: 60ca 7b3b 7799 c23d f66b 50bd 53bc 14bd
000003c0: c77c bd3d 38f7 893d 197e a8bc ba4d 8e3c
000003d0: e981 9cbd c575 07bb 1b13 fabc f953 373b
000003e0: 810f 253d 3f67 f1bc fbd5 d5bc 5af5 813d
000003f0: 03f1 d2bc 0bd9 11bb 6357 da3d 4a81 bc3d

bias f4 [128]
0.09535589 -0.0855711 0.05173572 -0.039471973 0.008067787 0.0052940426 0.04572557 -0.024782982
-0.025911171 0.07333452 -0.033215642 0.031867336 0.042512767 0.0625645 -0.06262829 0.07340696
-0.075134225 -0.057324488 0.04633977 0.071082175 0.040156744 0.1334002 -0.0051446655 -0.05565745
-0.08828968 0.06195166 0.103855446 0.02131174 0.07185706 0.08085828 -0.066557154 0.004367451
-0.07836826 -0.051572 -0.08217541 0.05106946 0.038789842 -0.07798732 0.03355358 0.019772599
0.022740142 -0.03833653 0.064232185 0.024812661 -0.047476992 -0.012493538 0.010670455 0.03752252
-0.09625322 0.034299657 -0.036761183 -0.088549726 0.012665482 -0.011875059 -0.07259748 -0.03550037
0.004696483 0.007537474 0.008633422 -0.055220366 -0.13623375 0.1474361 0.05418745 -0.03184223
0.010704874 0.0997964 -0.04750208 -0.0029020489 0.14543612 -0.09239538 -0.062499642 -0.087748714
0.1354642 -0.020575564 0.106887594 -0.048860285 -0.024540126 0.090964705 -0.0730752 -0.063950494
0.011109624 -0.02352994 0.12103004 -0.035233308 0.027567716 0.09988762 -0.02618723 -0.044401184
-0.027033282 -0.030312221 0.12807801 0.06542075 0.021500813 0.03739437 -0.033032432 -0.055152155
0.11641662 -0.1277765 0.12639892 0.05606812 -0.039551567 -0.068502 -0.030601505 0.11626769
0.0062498315 -0.07242068 0.06974497 -0.09655795 0.04278867 0.12250966 0.10030075 -0.08180477
-0.11548011 -0.091900066 -0.10117329 0.042353373 -0.12010286 -0.024931217 0.026774183 0.039593965
0.04872079 0.061691195 -0.018011712 0.012448919 -0.15289754 -0.005225406 0.15468031 -0.20597254
00000000: f349 c33d e73f afbd d6e8 533d 5dad 21bd
00000010: c02e 043c a679 ad3b bc4a 3b3d ae05 cbbc
00000020: aa43 d4bc 6930 963d 200d 08bd 5387 023d
00000030: de21 2e3d d121 803d 4343 80bd 6356 963d
00000040: f9df 99bd 15cd 6abd c5ce 3d3d 8893 913d
00000050: 667b 243d 109a 083e 9594 a8bb 11f9 63bd
00000060: 38d1 b4bd 06c1 7d3d 2ab2 d43d f595 ae3c
00000070: cb29 933d 0799 a53d 1e4f 88bd d61c 8f3b
00000080: 8a7f a0bd 293d 53bd 954b a8bd 362e 513d
00000090: 19e2 1e3d d1b7 9fbd 7b6f 093d 25fa a13c
000000a0: 8949 ba3c c406 1dbd 2a8c 833d ec43 cb3c
000000b0: 3c77 42bd b2b1 4cbc 22d3 2e3c 37b1 193d
000000c0: 6920 c5bd cc7d 0c3d e592 16bd 8f59 b5bd
000000d0: e282 4f3c 9c8f 42bc fdad 94bd d668 11bd
000000e0: f4e4 993b eafc f63b 3273 0d3c c02e 62bd
000000f0: dc80 0bbe 7df9 163e a9f3 5d3d 006d 02bd
00000100: 7f63 2f3c 0e62 cc3d 8b91 42bd 4d30 3ebb
00000110: 35ed 143e ca39 bdbd a0ff 7fbd 99b5 b3bd
00000120: 21b7 0a3e 168e a8bc e2e7 da3d b921 48bd
00000130: 6008 c9bc b44b ba3d 73a8 95bd 7af8 82bd
00000140: 2405 363c dcc1 c0bc 99de f73d cd50 10bd
00000150: b1d5 e13c e191 cc3d 9a86 d6bc 04de 35bd
00000160: e774 ddbc 5651 f8bc e226 033e 50fb 853d
00000170: 7922 b03c d72a 193d 044d 07bd 3ae7 61bd
00000180: d66b ee3d d8d7 02be b86e 013e afa7 653d
00000190: d300 22bd c74a 8cbd 02b0 fabc c11d ee3d
000001a0: 63cb cc3b 4b51 94bd 73d6 8e3d 2dc0 c5bd
000001b0: 2c43 2f3d 58e6 fa3d 7b6a cd3d 4289 a7bd
000001c0: d680 ecbd 1a36 bcbd f133 cfbd bb7a 2d3d
000001d0: 7df8 f5bd 8d3c ccbc 8855 db3c 482d 223d
000001e0: 738f 473d e8af 7c3d 4c8d 93bc 8df6 4b3c
000001f0: 2c91 1cbe e239 abbb 8464 1e3e 77ea 52be

weight f4 [128, 128]
0.090613596 -0.055790547 -0.10396022 0.051402744 0.16089633 0.04093819 -0.03175537 0.04963034
-0.11718414 -0.0024807458 -0.02387946 0.0106572425 -0.0047897394 -0.056035344 -0.11448823 0.123708464
-0.041086856 -0.10910048 0.1764413 0.15017621 -0.09387444 0.08034383 -0.023502422 -0.08230519
-0.0130479215 -0.05524206 0.096213296 0.012858064 -0.04137651 0.068574384 -0.07426262 -0.0033011462
0.032359842 0.14554274 -0.15190089 -0.05455884 -0.054699052 -0.011058933 0.015620797 -0.09113426
0.07782808 0.016863925 0.061894566 0.02792803 -0.09349286 -0.07014366 0.02581646 0.08797809
0.038463067 -0.084213495 0.031046502 0.078219324 -0.08586971 -0.020006053 0.034677982 -0.07375594
0.04769982 0.08925769 -0.071439475 -0.0634559 -0.08782677 0.14375784 0.02831914 0.09227845
0.031124044 0.23128343 -0.083891265 0.13188988 0.12951225 -0.011967807 -0.03851353 -0.0743263
0.16815877 0.044327915 0.06819595 -0.02805236 0.023317682 0.022107475 0.015289436 0.0739096
-0.118790366 0.03130028 0.15808024 -0.1306977 -0.07950737 0.095102005 -0.041991517 -0.024148954
0.026265146 -0.10631099 0.0343136 -0.024474636 -0.07981035 0.049448404 0.014935908 -0.07414921
0.06081478 0.013083043 0.11456499 0.003818797 0.07164122 -0.025405088 -0.052919246 0.20708081
-0.056215033 -0.06110745 0.11149709 0.025581673 0.1068229 0.16174065 0.10910874 0.06276169
-0.104994036 0.09937817 0.004458864 -0.023591833 -0.032838132 0.032010417 0.035489548 0.012259292
-0.07293383 -0.009258312 -0.010823186 0.014370378 0.022117907 0.027344322 0.01740064 -0.020206893
-0.054684125 -0.07566662 0.07498909 -0.0056702318 -0.07082415 -0.04417977 -0.021832783 0.0836139
0.055724707 0.0009862868 -0.0388469 -0.036021557 -0.005770635 -0.030353418 -0.03619809 -0.084409475
-0.05511393 0.047785867 0.07772161 -0.077958256 0.0050694193 0.022325773 -0.05347009 0.07371857
-0.024204861 0.0011152765 -0.08907654 0.022672566 0.02818419 -0.048424814 -0.0676024 -0.03622238
0.07051402 -0.09538173 0.091155834 -0.03512162 -0.049252704 -0.062493008 -0.01117298 0.081477396
-0.06318621 -0.06702581 0.021061696 0.0484787 -0.03860057 0.017404102 0.02753875 -0.022982825
-0.06940422 -0.01042008 0.08742928 0.019120023 0.010355718 -0.034943055 0.05142411 -0.051045313
-0.049926817 0.002618049 -0.047562756 0.011255921 -0.05507551 0.031115191 0.02362738 0.0010509044
-0.10469823 0.032848876 -0.08324125 0.0026877937 -0.030597351 0.00851493 0.05511957 0.011481792
-0.048836693 0.05996025 -0.011992594 0.007131281 0.009185623 0.08455136 0.04848964 0.02828975
-0.05667713 -0.050618615 -0.09086322 -0.008262254 0.07981345 0.011621159 0.06192967 -0.0137007525
-0.007668919 0.095214605 0.027272062 -0.017460678 -0.0514941 0.030237116 -0.09123784 -0.080966055
0.060761068 -0.0007619719 0.0665093 -0.060684837 0.06535987 0.0061496007 -0.07553525 -0.055492364
0.05484551 -0.03204518 -0.01890942 0.08666605 -0.08913421 -0.04886776 -0.019123765 0.048163064
-0.061407022 -0.043495927 -0.01042918 -0.07511761 -0.0059939744 -0.024091681 0.050023362 -0.07319167
-0.0060705333 -0.0057649775 -0.022382174 0.030952362 0.061682325 0.074024275 0.019315397 0.011152535
00000000: 9f93 b93d a184 64bd 19e9 d4bd af8b 523d
00000010: 02c2 243e ceae 273d eb11 02bd 2f49 4b3d
00000020: 3dfe efbd 0294 22bb db9e c3bc b79b 2e3c
00000030: 3ff3 9cbb 5185 65bd ce78 eabd dd5a fd3d
00000040: b14a 28bd 1370 dfbd 07ad 343e cbc7 193e
00000050: 3e41 c0bd 4e8b a43d 2788 c0bc a08f a8bd
00000060: f3c6 55bc 8045 62bd 7a0b c53d a1aa 523c
00000070: 6a7a 29bd ba70 8c3d 0017 98bd 0b58 58bb
00000080: c18b 043d 2809 153e e88b 1bbe 1779 5fbd
00000090: 1d0c 60bd 8730 35bc 5fee 7f3c 99a4 babd
000000a0: 5464 9f3d 3726 8a3c 2885 7d3d 53c9 e43c
000000b0: 2f79 bfbd 7ba7 8fbd 0a7d d33c db2d b43d
000000c0: 738b 1d3d 2078 acbd 3c55 fe3c 7431 a03d
000000d0: 75dc afbd bce3 a3bc 800a 0e3d 5b0d 97bd
000000e0: e360 433d bccc b63d dc4e 92bd 2bf5 81bd
000000f0: 86de b3bd 4135 133e 8bfd e73c 7cfc bc3d
00000100: daf7 fe3c 90d5 6c3e 2fcf abbd 240e 073e
00000110: dc9e 043e 9f14 44bc 5dc0 1dbd 6338 98bd
00000120: d031 2c3e 3091 353d 51aa 8b3d 10ce e5bc
00000130: b904 bf3c bc1a b53c 8b80 7a3c eb5d 973d
00000140: 5d48 f3bd b934 003d c9df 213e 9ed5 05be
00000150: c3d4 a2bd d7c4 c23d 4cff 2bbd 07d4 c5bc
00000160: 012a d73c 94b9 d9bd 6b8c 0c3d 087f c8bc
00000170: 9c73 a3bd 698a 4a3d bdb5 743c 8adb 97bd
00000180: eb18 793d 425a 563c 0da1 ea3d c844 7a3b
00000190: a2b8 923d 551e d0bc dac1 58bd fe0c 543e
000001a0: bc41 66bd ce4b 7abd 9658 e43d a890 d13c
000001b0: f7c5 da3d 579f 253e 6774 df3d 3389 803d
000001c0: 1d07 d7bd c886 cb3d aa1b 923b a943 c1bc
000001d0: 4781 06bd 5b1d 033d 7d5d 113d 33db 483c
000001e0: 555e 95bd 2db0 17bc bb53 31bc bc71 6b3c
000001f0: 9d30 b53c 3301 e03c c98b 8e3c ed88 a5bc
00000200: 76fc 5fbd 1af7 9abd e193 993d 5acd b9bb
00000210: 410c 91bd d9f5 34bd aada b2bc c43d ab3d
00000220: 973f 643d 4b46 813a ed1d 1fbd 578b 13bd
00000230: 9817 bdbb bba7 f8bc 7344 14bd e0de acbd
00000240: 25bf 61bd 1dbb 433d 822c 9f3d 94a8 9fbd
00000250: 5f1d a63b 8ae4 b63c 7403 5bbd c3f9 963d
00000260: 4649 c6bc 782e 923a c36d b6bd d1bb b93c
00000270: 88e2 e63c 1959 46bd 2173 8abd eb5d 14bd
00000280: a869 903d 7f57 c3bd e9af ba3d b0db 0fbd
00000290: 34bd 49bd abf8 7fbd e00e 37bc 9fdd a63d
000002a0: c667 81bd d444 89bd 9489 ac3c 9a91 463d
000002b0: a21b 1ebd 0c93 8e3c f298 e13c 7a46 bcbc
000002c0: cd23 8ebd fcb8 2abc 1f0e b33d 98a1 9c3c
000002d0: 08ab 293c 7320 0fbd 16a2 523d e414 51bd
000002e0: 1080 4cbd 9393 2b3b 2ad1 42bd c16a 383c
000002f0: dc96 61bd 49e5 fe3c 358e c13c 80be 893a
00000300: 076c d6bd 8b8c 063d 637a aabd b225 303b
00000310: 4ca7 fabc 3482 0b3c 0fc5 613d 201e 3c3c
00000320: fc08 48bd e198 753d 967c 44bc 85ad e93b
00000330: 4c7f 163c 4329 ad3d 139d 463d e8bf e73c
00000340: 4726 68bd 7755 4fbd 7f16 babd 685e 07bc
00000350: 3c75 a33d ac66 3e3c f7a9 7d3d 1f79 60bc
00000360: 8e4b fbbb e0ff c23d a969 df3c b209 8fbc
00000370: 7aeb 52bd d4b3 f73c e8da babd 88d1 a5bd
00000380: 99e0 783d 12bf 47ba 0736 883d aa90 78bd
00000390: 65db 853d 9782 c93b 3ab2 9abd f64b 63bd
000003a0: afa5 603d cf41 03bd eee7 9abc f87d b13d
000003b0: ff8b b6bd 8f29 48bd 71a9 9cbc a246 453d
000003c0: ee85 7bbd c928 32bd 27df 2abc 43d7 99bd
000003d0: 1a69 c4bb eb5b c5bc 4ce5 4c3d 84e5 95bd
000003e0: 53eb c6bb 23e8 bcbb d25a b7bc cf8f fd3c
000003f0: 9ba6 7c3d 0a9a 973d 533b 9e3c 1fb9 363c

bias f4 [128]
0.11147628 -0.08169411 0.0159454 -0.00044164484 0.02478638 0.0024032183 -0.0028933925 -0.016046576
-0.13417384 -0.10214093 0.111879125 0.0034524917 0.044424415 0.052435536 -0.031659566 0.07075739
-0.09784141 0.11449785 -0.039704006 -0.03586995 0.023070259 0.07618424 0.04373423 -0.04827925
-0.06260446 -0.018034544 -0.00045319105 -0.016104465 0.07212005 0.046333984 0.097389676 0.041591052
-0.039971825 0.03186005 0.020642672 0.055718694 -0.027562749 0.009209339 -0.039074097 -0.01853143
0.07923062 -0.0736807 -0.07163528 0.018423554 0.046718538 0.013431229 -0.034883663 -0.05035003
0.02299189 0.01477077 -0.038133062 0.03582208 -0.03420148 0.041672897 0.00053379394 -0.037104253
0.04257843 -0.078901224 -0.06304444 0.05080385 0.14153823 0.04553235 -0.08895126 0.08936692
0.097588256 0.060447145 -0.025077472 0.112992875 0.01250784 0.049435735 -0.021741558 0.093391314
0.0010068628 -0.09284547 0.030827586 -0.06368689 0.087815024 0.10760164 -0.0322441 0.024177108
0.12355734 -0.047747873 -0.05999406 -0.092832215 0.099881135 -0.030325215 0.004731604 0.011156709
0.06564979 0.04588767 0.1246285 0.008001863 0.11545422 0.070607886 0.014773207 0.099572636
-0.08846337 0.050631467 0.06018558 0.07392826 0.06017811 -0.016355714 -0.06436013 -0.04661809
0.04821751 0.011541266 0.0116724605 0.079919696 0.017844165 -0.038704164 0.074637145 -0.0127930995
-0.03488479 0.07307071 -0.0627337 0.050077353 -0.010279559 -0.029013067 0.049489558 0.057201833
0.08676834 -0.11163197 0.042374413 -0.06450054 -0.094210304 0.1444475 0.11638705 0.081873484
00000000: ad4d e43d 3e4f a7bd ed9f 823c 918c e7b9
00000010: ce0c cb3c 507f 1d3b 129f 3dbb 1c74 83bc
00000020: de64 09be 442f d1bd e220 e53d 3343 623b
00000030: 60f6 353d a5c6 563d 76ad 01bd 40e9 903d
00000040: 1461 c8bd d97d ea3d aba0 22bd 5eec 12bd
00000050: d7fd bc3c 7c06 9c3d aa22 333d 76c0 45bd
00000060: c436 80bd 2ebd 93bc 469a edb9 83ed 83bc
00000070: adb3 933d b4c8 3d3d 3d74 c73d 615b 2a3d
00000080: 7fb9 23bd af7f 023d d21a a93c 4939 643d
00000090: 46cb e1bc c4e2 163c 290c 20bd 3acf 97bc
000000a0: aa43 a23d e8e5 96bd 85b5 92bd feec 963c
000000b0: f05b 3f3d a80e 5c3c 2ce2 0ebd d53b 4ebd
000000c0: 7d59 bc3c 1a01 723c 6a31 1cbd 2cba 123d
000000d0: da16 0cbd 33b1 2a3d 4eee 0b3a a1fa 17bd
000000e0: b866 2e3d f796 a1bd 711d 81bd b317 503d
000000f0: 66ef 103e 2180 3a3d 142c b6bd 0106 b73d
00000100: 5adc c73d 6d97 773d 456f cdbc cf68 e73d
00000110: afed 4c3c 207d 4a3d 5a1b b2bc f243 bf3d
00000120: b6f8 833a c425 bebd 228a fc3c 466e 82bd
00000130: 5dd8 b33d 405e dc3d 6412 04bd 120f c63c
00000140: a10b fd3d 4693 43bd 55bc 75bd d11e bebd
00000150: 7b8e cc3d 966c f8bc 920b 9b3b a1ca 363c
00000160: 6673 863d b6f4 3b3d 3a3d ff3d 3f1a 033c
00000170: 4373 ec3d de9a 903d 520b 723c bdec cb3d
00000180: 492c b5bd f162 4f3d 2885 763d b367 973d
00000190: 527d 763d 6bfc 85bc 3ecf 83bd 9cf2 3ebd
000001a0: b97f 453d 9417 3d3c d93d 3f3c f0ac a33d
000001b0: ed2d 923c 4288 1ebd 5cdb 983d 269a 51bc
000001c0: 5be3 0ebd 19a6 953d 877a 80bd e91d 4d3d
000001d0: 986b 28bc d0ac edbc 90b5 4a3d 784c 6a3d
000001e0: 99b3 b13d 4d9f e4bd cb90 2d3d dc18 84bd
000001f0: 55f1 c0bd 0cea 133e 555c ee3d 49ad a73d
