results/model/union_540.model (torch, 686563 bytes, 21 tensors)

weight_ih f4 [384, 5]
0	0xbe1f915f	-0.15582798
1	0xbeaca6cf	-0.33721015
2	0x3db20c53	0.08693757
3	0xbe9d2988	-0.30695748
4	0xbe6c32bf	-0.23066233
5	0xbe51c93d	-0.20486923
6	0xbe149287	-0.14509021
7	0x3d7d3336	0.061816417
8	0xbdb238c1	-0.08702231
9	0x3e0fd57e	0.14046285
10	0x3d67adce	0.056562237
11	0x3da5e976	0.0810117
12	0xbd79a4c9	-0.060948167
13	0x3db519cb	0.0884281
14	0xbdeb8bfa	-0.11501308
15	0xbe3745b0	-0.17897677
16	0x3d15a994	0.036538675
17	0x3ea2b76b	0.31780562
18	0xbe643aa5	-0.22287996
19	0x3ea67be4	0.32516396
20	0xbda42aac	-0.080159515
21	0xbc9886e0	-0.018619
22	0x3da68081	0.08129979
23	0xbd3fd1a6	-0.046830796
24	0x3d11d560	0.03560388
25	0xbdded01a	-0.10879536
26	0xbd8c7fa9	-0.06860287
27	0xbe22ac46	-0.1588603
28	0xbc62261d	-0.013803032
29	0x3d0d734d	0.034533788
30	0x3dd65e34	0.104671866
31	0xbcc059c5	-0.023480305
32	0xbd913c33	-0.0709156
33	0x3e899fd9	0.26879767
34	0xbdf995a5	-0.121867456
35	0x3e02f093	0.12787084
36	0xbe04f4e3	-0.12984042
37	0x3dd8dbd9	0.105888076
38	0x3e0c389e	0.13693473
39	0x3d9352ee	0.07193552
40	0xbe2824e9	-0.1642033
41	0xbe9392c2	-0.28822905
42	0xbccbe385	-0.024888763
43	0xbe19faa9	-0.15037026
44	0xbf8259c5	-1.0183645
45	0xbd9e50a5	-0.077302255
46	0xbc43d3bf	-0.01195234
47	0xbe3bb9c4	-0.18332583
48	0xbdd39e47	-0.103329234
49	0xbe0820cf	-0.13293765
50	0x3ced8f3c	0.028998964
51	0xbdbaca50	-0.09120619
52	0x3c07c19c	0.008285906
53	0x3d5cb5c8	0.053884298
54	0xbdc0d01f	-0.09414696
55	0xbd2ac19b	-0.041688543
56	0x3e8d42a9	0.2758992
57	0xbd8f2d2c	-0.06991038
58	0xbd6b7fac	-0.057494804
59	0xbdf403ea	-0.11914809
60	0x3deb3eeb	0.1148661
61	0xbdce59b4	-0.10075703
62	0xbe32f6e2	-0.17476991
63	0x3d29cd17	0.041455355
64	0xbd804e63	-0.06264951
65	0x3d9e24b1	0.07721842
66	0x3e069989	0.13144507
67	0xbe2f42c3	-0.17115311
68	0xbde5ffd0	-0.11230433
69	0x3e06a9b1	0.1315067
70	0xbe6a6c75	-0.22892936
71	0xbe35335a	-0.1769537
72	0xbd5165b0	-0.051122367
73	0xbdb07882	-0.08616735
74	0xbe444fae	-0.1917102
75	0x3e879def	0.2648768
76	0xbdfa8dc4	-0.12234071
77	0xbdce4db4	-0.100734144
78	0x3e6f6951	0.23380019
79	0x3d9bc2e7	0.07605534
80	0x3d0a4951	0.033761326
81	0x3e2c64bb	0.168353
82	0xbdc05674	-0.093914896
83	0x3e9c338d	0.3050808
84	0xbe5004ff	-0.20314406
85	0xbded8ab2	-0.1159872
86	0x3d877f39	0.06616063
87	0xbd82c326	-0.06384878
88	0xbe8ced4b	-0.2752479
89	0xbe4e8cb4	-0.20170861
90	0x3d27f8b2	0.04100866
91	0x3d969435	0.07352487
92	0x3d5cbfd7	0.05389389
93	0x3e9a2220	0.3010416
94	0xbee12661	-0.43974593
95	0xbdc8d287	-0.0980578
96	0xbe3524e7	-0.17689858
97	0xbdc5aad9	-0.09651727
98	0xbddb3dcd	-0.10705147
99	0xbf06455b	-0.5244958
100	0x3d62088f	0.055183943
101	0x3e041894	0.12900001
102	0x3e55163c	0.20809263
103	0xbdf906cd	-0.121595
104	0xbe8778a1	-0.2645922
105	0x3e8c10fc	0.27356708
106	0xbd682ef0	-0.056685388
107	0xbd2caeaf	-0.04215878
108	0x3dddade0	0.1082418
109	0xbec73254	-0.38905585
110	0x3e068c5a	0.13139477
111	0x3dd6f7bb	0.104964696
112	0x3d857f70	0.065184474
113	0x3e8eff09	0.2792895
114	0xbe1b367c	-0.15157503
115	0xbc778e79	-0.015109652
116	0xbe7b75e1	-0.24556686
117	0x3d9ad729	0.0756057
118	0x3dac3826	0.08409147
119	0x3e1f16f0	0.15536094
120	0xbcafc46c	-0.021455966
121	0xbda40700	-0.08009148
122	0xbc95e7a8	-0.018298939
123	0xbe870f22	-0.26378733
124	0xbc89c629	-0.016818123
125	0x3e7a578f	0.24447463
126	0xbec73ea6	-0.38914984
127	0x3be53ba3	0.0069956346
128	0x3e40933f	0.1880617
129	0x3cc1e6e4	0.023669668
130	0xbe1ebdde	-0.15502116
131	0xbdf5e576	-0.12006657
132	0xbc832cd7	-0.016012592
133	0xbe70bff2	-0.23510721
134	0x3d89ba00	0.0672493
135	0x3e179d0b	0.14806001
136	0x3e6125b1	0.21987034
137	0x3d01ab86	0.031657718
138	0x3d13b76a	0.03606359
139	0x3ec77e59	0.38963583
140	0xbe2d8dbf	-0.16948603
141	0x3cc4b464	0.024011798
142	0x3de42536	0.1113991
143	0xbb932f5d	-0.00449173
144	0xbda5b5b4	-0.08091298
145	0xbe0b5bbf	-0.13609217
146	0xbd049308	-0.032366782
147	0x3d8a2d3b	0.06746908
148	0x3dbc263a	0.09186979
149	0xbec65a9e	-0.3874101
150	0xbc8bdec2	-0.017073993
151	0x3dc46a4a	0.095905855
152	0xbc7a1351	-0.015263394
153	0x3e02fc9d	0.12791677
154	0xbd60da50	-0.0548957
155	0xbe4becd2	-0.19914559
156	0x3dd88fed	0.10574327
157	0xbe1cbea7	-0.15307103
158	0xbe5e39e1	-0.21701767
159	0xbe5a1587	-0.21297275
160	0x3e188d06	0.14897546
161	0xbe08ab13	-0.1334651
162	0xbd9c636b	-0.0763615
163	0x3e39eb77	0.18156229
164	0x3d9a3b73	0.0753087
165	0x3caaa0b9	0.020828592
166	0xbdb3a07b	-0.087708436
167	0xbdab1e17	-0.083553486
168	0xbe75f656	-0.24019751
169	0x3d5fd4c9	0.054646287
170	0x3e3b0327	0.18262921
171	0x3e35937e	0.17732045
172	0xbdd4d011	-0.10391248
173	0xbd0fc46d	-0.035099436
174	0x3f05ab35	0.52214366
175	0xbe06837d	-0.13136096
176	0x3e621087	0.22076617
177	0x3d93da05	0.07219318
178	0x3dbfdfbc	0.09368846
179	0x3d099cd3	0.033596825
180	0xbdddb4da	-0.1082551
181	0xbcd24b34	-0.025670625
182	0x3d2c0e41	0.04200578
183	0x3deb0847	0.11476188
184	0xbf18fa78	-0.59757185
185	0x3d30483b	0.043037634
186	0xbda0e2c2	-0.078557506
187	0xbe0deb88	-0.1385938
188	0x3e3fddeb	0.18736999
189	0x3e05e7f3	0.13076763
190	0x3e07bc59	0.13255443
191	0x3d07ece5	0.033184905
192	0x3e510af7	0.20414339
193	0x3db7922d	0.08963428
194	0x3e95fc5a	0.2929409
195	0x3ddaa144	0.1067529
196	0x3ea52110	0.32251787
197	0xbe0583c9	-0.13038553
198	0x3d0b354d	0.03398638
199	0x3df8f748	0.1215654
200	0x3df1d072	0.11807336
201	0xbdd5d0e4	-0.10440233
202	0xbde50bb5	-0.111838736
203	0xbd3cdc2a	-0.046108402
204	0x3de43ca6	0.1114438
205	0xbea9da0e	-0.33174175
206	0x3a9f9569	0.0012175265
207	0x3d113581	0.035451416
208	0x3e76f9cf	0.24118732
209	0xbf143f5a	-0.57909167
210	0xbdcab4d9	-0.09897775
211	0x3db72ef4	0.089445025
212	0x3d9b88db	0.075944625
213	0xbe9f9bb9	-0.31173494
214	0x3ebb896d	0.36628285
215	0xbe07cfe4	-0.13262898
216	0x3d3e0c7b	0.04639862
217	0xbcdfa5b4	-0.027300693
218	0xbddc720b	-0.107639395
219	0x3da904b6	0.08252852
220	0xbc74f855	-0.014951785
221	0x3d587022	0.052841313
222	0x3e236273	0.15955524
223	0x3db491ee	0.088168964
224	0x3dc7216d	0.09723172
225	0x3dd6933b	0.10477301
226	0x3e421040	0.18951511
227	0x3e0f9f5c	0.14025635
228	0xba48c122	-0.00076581736
229	0xbe023d22	-0.12718633
230	0xbd83f0d9	-0.064424224
231	0xbdfcf68a	-0.12351711
232	0x3e6cfc95	0.23143227
233	0xbe9285c1	-0.2861767
234	0x3e5141f3	0.20435314
235	0xbdc4d862	-0.09611584
236	0xbe83048c	-0.25589406
237	0x3df5e5ad	0.12006698
238	0x3e1e15a4	0.15437943
239	0x3e1b4120	0.15161562
240	0xbdac5aaf	-0.08415734
241	0xbf05de5c	-0.5229242
242	0xbc4500e8	-0.012024142
243	0xbd98dd97	-0.0746414
244	0xbf260351	-0.6484881
245	0xbc2d9d65	-0.010596608
246	0xbc77a410	-0.015114799
247	0x3c90f466	0.017694663
248	0x3e375f5d	0.17907472
249	0x3dfe941f	0.124305956
250	0xbde3854f	-0.11109411
251	0xbddbac8c	-0.1072627
252	0xbde07aea	-0.10960944
253	0xbe48ac81	-0.19597055
254	0x3d8b2fdd	0.067962386
255	0x3c526198	0.012840651

weight_hh f4 [384, 128]
0	0xbe236614	-0.15956908
1	0x3e24d9c4	0.16098696
2	0xbe073cef	-0.13206838
3	0x3d7a19df	0.06105983
4	0x3d50213b	0.05081294
5	0xbe145ca7	-0.14488469
6	0xbc216ead	-0.009853047
7	0x3e35e68a	0.17763725
8	0xbe5d01b3	-0.2158268
9	0x3de24afd	0.11049459
10	0xbdd275bc	-0.10276362
11	0x3e1ae284	0.15125471
12	0x3e001807	0.12509166
13	0xbd0f4f57	-0.034987774
14	0x3ce08454	0.027406849
15	0x3d0deb63	0.03464831
16	0xbd8a5a3c	-0.06755492
17	0xbb2e7ebc	-0.0026625833
18	0x3e92ec92	0.28696114
19	0xbc39a24d	-0.011330199
20	0xbdd597d6	-0.10429351
21	0x3e93eb5e	0.28890508
22	0x3db3ec7a	0.08785339
23	0x3d52d58f	0.051473197
24	0x3d7c2d94	0.061566904
25	0x3e0252f5	0.12726958
26	0xbe1921fb	-0.14954369
27	0xbda825d6	-0.08210342
28	0x3cfb6ac0	0.03069055
29	0xbd62bd70	-0.055356443
30	0x3e0d02e1	0.1377063
31	0x3e945b86	0.28976077
32	0x3c85f44f	0.016351847
33	0xbee10750	-0.43950891
34	0x3d685b78	0.056727856
35	0xbd0718d7	-0.032982673
36	0x3ea65f6e	0.32494682
37	0x3de36358	0.11102933
38	0xbc4ea6c5	-0.012613003
39	0xbe410e16	-0.1885303
40	0xbbb7cb31	-0.005608939
41	0x3e57d782	0.21078303
42	0xbd91ca4b	-0.071186624
43	0xbd906869	-0.07051165
44	0x3c3ff84f	0.011716916
45	0x3cdfc7c3	0.027316933
46	0x3b9e85f1	0.0048377444
47	0xbbda34d7	-0.006659131
48	0xbce392c3	-0.027779942
49	0xbe989548	-0.29801393
50	0xbd0ccf8c	-0.03437762
51	0x3e3480a7	0.17627202
52	0x3d8b01e6	0.067874715
53	0xbd06d51c	-0.03291808
54	0x3d19129c	0.037371263
55	0x3ec86e0d	0.39146462
56	0xbd309c76	-0.043117963
57	0xbcfcfbb5	-0.030881742
58	0x3e950a4c	0.29109418
59	0xbdb5e59c	-0.08881685
60	0xbe7489ce	-0.23880693
61	0x3e5fab9d	0.21842809
62	0xbda69033	-0.081329726
63	0xbd3c4aa6	-0.045969628
64	0x3d9a3535	0.0752968
65	0x3e291511	0.16511942
66	0xbe2bbdf7	-0.16771685
67	0xbe2d0f20	-0.16900301
68	0xbb1f2964	-0.0024286145
69	0xbcfc4580	-0.030794859
70	0x3d26cb31	0.040721122
71	0xbd0650b6	-0.032791816
72	0x3e933ec2	0.28758818
73	0xbe593380	-0.21211052
74	0xbc57a3b5	-0.013161589
75	0x3e62e9ae	0.22159454
76	0x3d228261	0.03967512
77	0xbe24044e	-0.16017267
78	0xbe48a0dc	-0.19592613
79	0xbd81c1bf	-0.06335782
80	0xbe133f72	-0.14379671
81	0x3e2f2b72	0.17106417
82	0xbccab3d3	-0.02474395
83	0xbe53e78f	-0.20693801
84	0xbd54c4c4	-0.051945463
85	0x3d7b046d	0.061283518
86	0x3cd7cb97	0.026342196
87	0xbeca68a1	-0.3953295
88	0xbe6b4e2b	-0.22979037
89	0xbe052ece	-0.13006136
90	0xbce40075	-0.02783225
91	0x3e24f3bd	0.16108604
92	0x3c16ba39	0.009199672
93	0x3d6dc635	0.058050353
94	0x3df7a412	0.12091841
95	0xbda65e20	-0.08123422
96	0x3e28cd54	0.16484576
97	0x3f340ec8	0.70335054
98	0xbd77b73b	-0.060477477
99	0xbd3ff7cb	-0.046867173
100	0x3df08d9c	0.1174576
101	0xbcec39da	-0.02883618
102	0xbd48e4d6	-0.04904636
103	0xbde46251	-0.11151565
104	0xbd801c55	-0.06255404
105	0x3e8156b1	0.25261453
106	0x3cb8d2d0	0.02256146
107	0xbb76acc0	-0.0037639588
108	0x3d90c22f	0.070682876
109	0xbde6ca26	-0.112690255
110	0x3e63df28	0.22253096
111	0xbb4f7030	-0.0031652562
112	0xbcae99e8	-0.021313623
113	0x3c046886	0.008081561
114	0xbdfcf8b6	-0.12352125
115	0x3e8b888b	0.27252612
116	0xbda7acab	-0.08187231
117	0xbd88d9da	-0.06682177
118	0xbe3705c9	-0.178733
119	0xbc18d0c3	-0.009327116
120	0x3dc70678	0.09718031
121	0xbdf7b243	-0.120945476
122	0x3e7c0f0a	0.24615112
123	0xbcb49cd2	-0.022047434
124	0x3e87e472	0.26541477
125	0xbe345a55	-0.17612584
126	0xbe7fe7a7	-0.24990712
127	0x3d066198	0.032807916
128	0xbe20d1a1	-0.15704967
129	0x3b050384	0.0020296285
130	0xbd177fef	-0.03698724
131	0xbdfc7df3	-0.123287104
132	0xbe0e0faf	-0.1387317
133	0xbde01d0d	-0.10943041
134	0xbdcee635	-0.10102502
135	0xbc339f2a	-0.010963241
136	0x3e6942f1	0.22779442
137	0x3d1cae6e	0.038252287
138	0x3e6b534a	0.22980991
139	0xbe3ade25	-0.18248804
140	0x3da3ee78	0.08004469
141	0x3db7c7e5	0.08973674
142	0x3bc743f5	0.006081099
143	0x3d9c560f	0.07633602
144	0x3de7e7e1	0.11323524
145	0x3c34bc28	0.011031188
146	0xbd9585c0	-0.073009014
147	0xbe5acbee	-0.21366856
148	0xbd7ed07c	-0.062210545
149	0x3de5b1ad	0.112155296
150	0x3d835554	0.064127594
151	0x3b552f80	0.0032529533
152	0xbcb7b0fb	-0.022423258
153	0x3d531535	0.051533896
154	0xbdd5e4eb	-0.10444053
155	0x3e2a1246	0.16608533
156	0xbde9746a	-0.11399157
157	0x3e3bbe3a	0.18334284
158	0x3d3eb97b	0.046563607
159	0xbe95937f	-0.29214093
160	0xbbbb4af8	-0.005715724
161	0x3e1884a9	0.14894356
162	0x3d1f3ede	0.038878314
163	0x3d954d7a	0.07290168
164	0x3d9c27e8	0.07624799
165	0x3e2c71f8	0.1684035
166	0x3ddc0dc8	0.10744816
167	0xbe08daa4	-0.13364655
168	0x3c954379	0.01822065
169	0x3db78e6e	0.08962713
170	0xbd255fb2	-0.040374465
171	0xbe190949	-0.14944948
172	0xbdf8050c	-0.121103376
173	0x3e6259fa	0.22104636
174	0x3d3cbf3b	0.04608081
175	0x3da3067e	0.07960223
176	0x3e435665	0.19075926
177	0x3e3ea93d	0.18619247
178	0xbd988f78	-0.074492395
179	0x3e1db924	0.15402657
180	0x3d166a1f	0.0367223
181	0x3e4b9210	0.19879937
182	0xbdc20377	-0.09473317
183	0x3db3b233	0.08774223
184	0xbd7d4901	-0.0618372
185	0xbc23f0eb	-0.01000617
186	0x3e2c668b	0.16835992
187	0xbe18a20a	-0.14905563
188	0xbdefb267	-0.117039494
189	0xbdfdb55e	-0.12388109
190	0x3dc8fab8	0.09813446
191	0x3e03603c	0.12829679
192	0x3dc14c04	0.09438327
193	0xbdb08418	-0.08618945
194	0xbcfdaf9a	-0.030967522
195	0x3d9033fb	0.070411645
196	0xbe1bb1f3	-0.15204601
197	0x3d6af747	0.05736473
198	0xbe2f60b2	-0.1712673
199	0xbec57c6d	-0.38571492
200	0xbc243265	-0.010021781
201	0xbd917c8b	-0.07103833
202	0xbda16719	-0.078809924
203	0x3cc837ab	0.024440607
204	0xbe1c0e3c	-0.15239805
205	0xbe0bea8b	-0.1366369
206	0x3cebc9fa	0.028782833
207	0xbc7cc8ac	-0.015428703
208	0xbe5953f4	-0.21223432
209	0xbe389be2	-0.18028215
210	0x3e4ad8af	0.1980922
211	0xbd685ca0	-0.05672896
212	0xbc0588ad	-0.008150262
213	0x3e7a8040	0.24462986
214	0xbd1a1d8f	-0.037625846
215	0xbd87ab1a	-0.06624432
216	0x3dca7edc	0.09887478
217	0xbe071542	-0.13191703
218	0x3ded6b32	0.115927115
219	0xbccca2d8	-0.024979994
220	0x3dcb37a9	0.09922726
221	0x3d9ea570	0.077463984
222	0x3e10a23a	0.14124385
223	0xbd7aa77f	-0.061194893
224	0xbd91ceda	-0.07119532
225	0x3e79ec27	0.24406491
226	0x3e851fd0	0.26000834
227	0xbe0b8f22	-0.1362882
228	0x3dc7cf21	0.097563036
229	0x3dceb179	0.10092444
230	0xbd147c67	-0.03625145
231	0x3e88a73b	0.26690087
232	0xbc14ccc5	-0.009082024
233	0x3d2bf79f	0.041984197
234	0x3dd2b04d	0.10287533
235	0x3d099e77	0.03359839
236	0x3bd09cb3	0.0063663363
237	0xbe0d1c57	-0.13780342
238	0xbd97938e	-0.07401191
239	0xbd8a4d5a	-0.06753035
240	0x3e0fcc18	0.140427
241	0x3dd4da1a	0.10393162
242	0xbe307eab	-0.1723582
243	0xbc14186a	-0.009039024
244	0x3e0bbac2	0.13645461
245	0x3d979c91	0.074029095
246	0xbc1ab42e	-0.009442372
247	0x3d913b69	0.0709141
248	0x3e812e9a	0.25230867
249	0x3e486a0b	0.19571702
250	0x3b75d5f9	0.003751157
251	0xbbcf8b18	-0.00633372
252	0x3e80fdc7	0.25193617
253	0xbdcde187	-0.100527816
254	0xbd51fc1c	-0.05126582
255	0x3da548f7	0.080705576

bias_ih f4 [384]
0	0xbdc02ba4	-0.09383324
1	0xbdcd5177	-0.10025304
2	0x3e223308	0.1583978
3	0xbcc64b91	-0.024205955
4	0xbd08f4b8	-0.033436507
5	0x3da2809b	0.07934686
6	0x3dc05ba4	0.09392479
7	0x3d9d137c	0.07669732
8	0x3d276ec3	0.040877115
9	0xbdd9aa9e	-0.10628246
10	0x3dcbf56a	0.099589184
11	0xbd85e25c	-0.06537315
12	0xbd04ef4a	-0.032454766
13	0x3dbe5b8b	0.09294804
14	0xbddf720a	-0.10910423
15	0x3d55605e	0.052093856
16	0xbbc82f5d	-0.006109162
17	0x3ca8f7c9	0.020625966
18	0x3c0fd5f5	0.008779039
19	0x3d7b29eb	0.061319273
20	0x3c10f8df	0.008848398
21	0xbe098a5a	-0.13431683
22	0x3de2b840	0.11070299
23	0x3d4aecbd	0.049542177
24	0xbd507ea6	-0.05090203
25	0x3dee6dda	0.11642046
26	0xbdf5a93f	-0.11995172
27	0x3d8430e6	0.06454639
28	0xbdd44784	-0.10365203
29	0xbcf5b618	-0.029994056
30	0x3dac391f	0.084093325
31	0x3d788fa5	0.060683865
32	0x3db360f2	0.08758725
33	0x3c61f145	0.013790433
34	0x3c12c2f1	0.00895761
35	0x3bb63802	0.005560876
36	0xbd37f3d0	-0.044910252
37	0xbdaa962c	-0.08329424
38	0x3de46f33	0.11154022
39	0x3deedc9b	0.11663171
40	0x3e152a0a	0.14566818
41	0xbd88380a	-0.066513136
42	0x3d53d9bf	0.05172133
43	0xbd36fe77	-0.04467627
44	0x3d034e47	0.032057073
45	0xbd07b31b	-0.033129793
46	0xbde1f07f	-0.11032199
47	0xbc79e6b4	-0.015252758
48	0xbd7e441d	-0.062076677
49	0x3d14bef9	0.03631494
50	0x3d2d5bb4	0.042323783
51	0xbd39fe52	-0.045408554
52	0xbd8c71b1	-0.068576224
53	0x3e2e7fff	0.17041014
54	0x392d8015	0.0001654628
55	0xbe0e287b	-0.1388263
56	0xbda3e5ad	-0.080027916
57	0x3ce03e8e	0.027373578
58	0xbd84aba6	-0.06478052
59	0xbdfa43d4	-0.122199684
60	0x3de8111d	0.11331389
61	0x3e366ada	0.17814198
62	0x3e2557dc	0.16146797
63	0x3dbb917f	0.091586106
64	0x3cc662ab	0.02421697
65	0x3e29229e	0.16517112
66	0xbc991de3	-0.018691009
67	0xbde7cfbd	-0.1131892
68	0x3d6090c6	0.054825567
69	0xbd41304a	-0.047165193
70	0x3e1719af	0.14755891
71	0xbe3d736f	-0.18501066
72	0x3e11fce1	0.14256622
73	0x3d46340a	0.048389472
74	0x3de08e8d	0.109646894
75	0xbde4d636	-0.1117367
76	0xbda3968d	-0.079877
77	0xbd5aaabe	-0.05338549
78	0x3b8b13c4	0.0042442996
79	0x3cfbb0b9	0.030723916
80	0x3c85da62	0.016339485
81	0xbd42cca8	-0.047558457
82	0xbc195440	-0.009358466
83	0x3c2231eb	0.009899597
84	0x3d82bb0f	0.06383335
85	0xbd237a14	-0.039911345
86	0x3e3b5c72	0.18296984
87	0x3d38626d	0.04501574
88	0x3d8985d2	0.06714977
89	0x3dc4bfcf	0.09606897
90	0xbe147331	-0.14497067
91	0xbdc17269	-0.0944565
92	0x3d435674	0.04768987
93	0x3dfc869a	0.12330361
94	0x3e068ea2	0.13140348
95	0xbc1f2061	-0.00971231
96	0x3d67bc0f	0.05657583
97	0xbda54d4d	-0.080713846
98	0x3de84162	0.11340596
99	0xbdd8938e	-0.10575019
100	0xbcc5706b	-0.024101457
101	0x3e0e2501	0.13881303
102	0xbd17188e	-0.03688865
103	0xbb526553	-0.003210385
104	0x3d448d67	0.047986414
105	0x3d90be9b	0.07067605
106	0x3b0ee004	0.0021801004
107	0xbc64fe12	-0.013976591
108	0xbd47196e	-0.048608236
109	0x3b9573c2	0.0045609185
110	0x3d2eaa1d	0.0426427
111	0x3ce589b2	0.02801976
112	0x3da5547e	0.08072756
113	0x3d6c1799	0.057639692
114	0x3d857734	0.06516877
115	0x3e3307af	0.174834
116	0xbdd5663f	-0.104198925
117	0xbe29e4de	-0.16591212
118	0xbd4e1d95	-0.05032118
119	0x3c551658	0.013005815
120	0xb94fcfab	-0.0001981842
121	0xbccb9a03	-0.024853712
122	0xbdca8a37	-0.09889644
123	0xbd7f0438	-0.062259883
124	0x3df7194f	0.12065374
125	0x3db4d6e5	0.088300504
126	0x3d6f2ee5	0.05839433
127	0x3d321818	0.04348001
128	0xbe0542e7	-0.13013802
129	0xbdbbf4c3	-0.09177544
130	0xbe585238	-0.21125114
131	0xbdc55a73	-0.096363924
132	0x3da2b7aa	0.079451874
133	0x3ddb2d5d	0.10702012
134	0xbbb743af	-0.0055927853
135	0xbe19dedc	-0.1502642
136	0xbd892eac	-0.06698355
137	0xbc9c0f70	-0.01905033
138	0x3d20ad44	0.03922774
139	0x3d9ecddc	0.07754108
140	0x3df50563	0.11963918
141	0x3e02e619	0.12783088
142	0x3e447d65	0.19188459
143	0x3d7a6fff	0.061141964
144	0xbd8bbbf6	-0.0682296
145	0x3d098e59	0.03358302
146	0xbdb5a67a	-0.088696435
147	0x3da504b9	0.080575414
148	0x3dde60df	0.108583204
149	0xbe16585e	-0.14682147
150	0xbe1b2148	-0.15149415
151	0xbe624b56	-0.22099051
152	0x3e88d596	0.26725453
153	0xbdca3593	-0.098735
154	0xbe5104db	-0.20412008
155	0x3d3df1a7	0.046373036
156	0x3d986a57	0.07442158
157	0xbba6299a	-0.0050708773
158	0x3d85ce36	0.06533472
159	0xbd524001	-0.05133057
160	0xbd98a1b9	-0.07452721
161	0xbe1a5d83	-0.15074734
162	0xbd9bd82f	-0.07609593
163	0xbcb45e1a	-0.022017527
164	0x3c9af2f7	0.018914683
165	0xbdb11e92	-0.08648409
166	0x3d3c061c	0.045904264
167	0xbd604d5f	-0.054761287
168	0xbd25f023	-0.040512215
169	0x3b706e6f	0.0036686917
170	0x3de70be3	0.11281564
171	0x3c35309f	0.011058955
172	0xbe0c0a16	-0.13675722
173	0x3d0da9c1	0.034585718
174	0xbd090ab3	-0.03345747
175	0xbe091032	-0.13385084
176	0x3c3cc24d	0.011520934
177	0x3c33314e	0.010937048
178	0xbd0a68c4	-0.03379132
179	0x3e8f3fd9	0.279784
180	0xba629bdc	-0.00086444407
181	0xbd315ea2	-0.04330314
182	0xbd50054e	-0.05078631
183	0xbd964f8c	-0.07339391
184	0xbe27c8c5	-0.16385181
185	0xbe27007b	-0.16308777
186	0xbeb79aeb	-0.3586038
187	0xbe53092a	-0.20608965
188	0x3e53845e	0.20655963
189	0xbc0f2115	-0.008735915
190	0xbd48d833	-0.04903431
191	0x3db346f9	0.08753771
192	0xbe1818da	-0.1485323
193	0xbd3878cf	-0.045037087
194	0xbe4a09af	-0.19730256
195	0x3dcbfe36	0.09960596
196	0xbddbcc47	-0.10732322
197	0xbc5d14b4	-0.013493706
198	0xbe184023	-0.14868216
199	0xbcaf5d8f	-0.021406917
200	0x3e5b8bc9	0.21440043
201	0x3d05c7a4	0.032661095
202	0xbe316846	-0.17324933
203	0xbe2bcaa1	-0.16776516
204	0xbea0d2ef	-0.3141093
205	0xbe21fb99	-0.15818633
206	0xbcb5dbbc	-0.022199504
207	0x3e58669d	0.21132894
208	0x3dce3547	0.100687556
209	0x3e475c25	0.19468744
210	0xbd36dca2	-0.044644006
211	0x3d6ab70d	0.057303477
212	0xbe14746c	-0.14497536
213	0xbd11b6fb	-0.035574894
214	0xbdc2accb	-0.09505614
215	0x3e178eb3	0.14800529
216	0x3d6bfe7e	0.05761575
217	0xbbac670b	-0.005261307
218	0xbc1c19e7	-0.00952766
219	0x3d89a146	0.067202136
220	0xbdce97b2	-0.10087527
221	0xbe7cc15a	-0.24683133
222	0xbdf856bf	-0.121259205
223	0x3d4c64cd	0.04990082
224	0x3d5e9694	0.05434282
225	0xbe3a2627	-0.18178616
226	0xbca9470e	-0.020663764
227	0xbd518995	-0.0511566
228	0x3ea9b31a	0.33144456
229	0x3e4b2e21	0.19841816
230	0xbe034411	-0.12818934
231	0x3de234c1	0.11045218
232	0x3e10b051	0.1412976
233	0xbcfbec1e	-0.030752238
234	0xbe6db001	-0.23211671
235	0x3d7b5edb	0.061369758
236	0xbe90f128	-0.28308988
237	0x3d268757	0.040656414
238	0xbb94494a	-0.0045253383
239	0xbd30d0f7	-0.043168034
240	0x3dc08422	0.09400202
241	0xbd755790	-0.05989796
242	0xbea12f0c	-0.31481206
243	0xbc03ead2	-0.008051591
244	0xbd612819	-0.05496988
245	0x3c617269	0.013760188
246	0xbc003588	-0.007825263
247	0xbdc3c69c	-0.09559366
248	0x3dda0d3f	0.10647058
249	0xbe160e85	-0.14653976
250	0xbd99ffba	-0.07519479
251	0xbe51ea47	-0.20499526
252	0xbe93dd61	-0.28879836
253	0xbe6e8ba0	-0.2329545
254	0xbd052b49	-0.032511983
255	0x3d8bf2c2	0.06833412

bias_hh f4 [384]
0	0xbd23ad3c	-0.03996013
1	0xbe2ccbfa	-0.16874686
2	0x3db5b3aa	0.08872159
3	0x3c82d604	0.015971191
4	0xbe09eaee	-0.13468525
5	0x3dea80d0	0.1145035
6	0x3ddc1e12	0.10747923
7	0x3e13022e	0.143563
8	0x3de462cb	0.11151656
9	0x3c4120db	0.0117876185
10	0x3c9e7049	0.019340651
11	0xbe2c6024	-0.1683355
12	0xbd4979c2	-0.049188383
13	0xbcddf202	-0.027092937
14	0xbd5a4ac4	-0.05329396
15	0x3d9f8055	0.07788149
16	0xbb64167e	-0.0034803445
17	0x3c819358	0.01581733
18	0xbce03d47	-0.02737297
19	0x3d09a66d	0.03360598
20	0x3cff637c	0.031175368
21	0xbb28c76e	-0.0025753635
22	0x3da4a366	0.08038978
23	0x3de0ef39	0.10983128
24	0x3d2680fb	0.04065035
25	0x3dc64b62	0.09682347
26	0xbcf81d93	-0.03028754
27	0x3e190392	0.14942768
28	0xbdf7f781	-0.121077545
29	0x3d97c0c2	0.074098125
30	0x3b057ad9	0.0020367412
31	0xbdadf32a	-0.084936455
32	0x3e303f83	0.17211728
33	0x3c94aae6	0.018147897
34	0x3d9fc81e	0.07801841
35	0xbd116db1	-0.035505
36	0x3d73dd43	0.059537183
37	0xbd41f3ec	-0.047351763
38	0x3dfca077	0.12335294
39	0x3d3462c3	0.0440395
40	0x3d39cff6	0.045364343
41	0x3db8dea6	0.09026842
42	0x3caed853	0.021343386
43	0xbde3e34c	-0.11127338
44	0xbcba6374	-0.022752501
45	0x3defb6fb	0.11704823
46	0xbdabb95d	-0.083849646
47	0xbc9a46d2	-0.018832598
48	0x3cd4c7f3	0.02597425
49	0xbd6a1643	-0.057150137
50	0xbc1dbe0a	-0.009627828
51	0xbcf4abcb	-0.029867074
52	0xbd1c5dc0	-0.038175344
53	0x3e1f952f	0.15584253
54	0x3ca4d3ad	0.020120466
55	0xbd5acd6d	-0.053418566
56	0xbda25ffa	-0.07928462
57	0x3cfca3a3	0.030839747
58	0xbd0a6b21	-0.033793572
59	0xb8f637fa	-0.000117406205
60	0x3d83498c	0.06410512
61	0x3df3da80	0.1190691
62	0x3d23481c	0.03986369
63	0x3ddb28c1	0.107011326
64	0x3c15c799	0.009141826
65	0x3d7890aa	0.060684837
66	0x3c7b0be4	0.015322659
67	0xbdac52e8	-0.084142506
68	0x3ca3840e	0.01996043
69	0x3d9434ac	0.07236609
70	0x3e831277	0.25600025
71	0xbe8a1b8e	-0.26974148
72	0x3e38409e	0.179934
73	0xbaf7d5b5	-0.0018908294
74	0x3c212fc7	0.009838051
75	0xbdc096ab	-0.09403738
76	0xbdd9f377	-0.1064214
77	0xbda2f74f	-0.079573266
78	0xbbb0fbfc	-0.0054011326
79	0x3e210a18	0.15726507
80	0x3d6f140a	0.05836872
81	0xbc057a62	-0.008146854
82	0x3da703aa	0.08154996
83	0x3acbb811	0.0015542527
84	0x3d9308d2	0.07179417
85	0x3d40349a	0.046925165
86	0x3d8b314f	0.06796514
87	0x3d689611	0.05678374
88	0x3bb44dd2	0.005502441
89	0x3b9e1242	0.004823954
90	0xbdb2e028	-0.08734161
91	0xbdbbd1e9	-0.091708966
92	0x3dc2226e	0.09479223
93	0x3e8785cf	0.26469275
94	0x3e31a080	0.17346382
95	0x3d5c2a4b	0.05375127
96	0x3d5ebf1c	0.054381475
97	0xbd243cfc	-0.04009722
98	0x3d1b4061	0.037903193
99	0xbc1916e5	-0.009343837
100	0x3c566378	0.013085239
101	0x3e7618c5	0.24032886
102	0xbd6c943e	-0.057758562
103	0xbcdaa278	-0.0266888
104	0xbcbfc3fa	-0.023408879
105	0x3d69ac30	0.057048976
106	0x3cd36410	0.02580455
107	0x3dd257b3	0.102706335
108	0xbd24ee0e	-0.04026609
109	0xbdddf529	-0.10837776
110	0x3e1fe5ea	0.15615049
111	0xbceb6fb8	-0.028739795
112	0x3e3cea9c	0.18448871
113	0xbd4a5daf	-0.04940575
114	0x3df4981b	0.11943074
115	0x3dc5dfd1	0.0966183
116	0xbda88eb6	-0.08230345
117	0xbe298522	-0.16554692
118	0x3cee18d3	0.029064571
119	0xbd4e0a14	-0.05030258
120	0x3d2f3f98	0.042785257
121	0xbbd23a54	-0.0064156447
122	0xbdaadfac	-0.08343443
123	0x3d1811cf	0.03712636
124	0x3da8e86e	0.082474574
125	0x3d86382a	0.06553681
126	0x3d43a6a5	0.047766346
127	0xbb6c99f7	-0.0036102512
128	0xbd96db8a	-0.073660925
129	0x3c1559bc	0.009115633
130	0xbe90e8d2	-0.28302628
131	0xbdaf5f8b	-0.08563145
132	0x3dd76ae8	0.105184376
133	0xbd31f901	-0.04345036
134	0xbcfef2dc	-0.031121664
135	0xbcfa0d6b	-0.030523976
136	0xbdfaab0a	-0.12239654
137	0x3dbabda5	0.09118203
138	0x3e00eafa	0.12589636
139	0x3ce1cb6b	0.027562818
140	0x3e137f85	0.14404114
141	0x3e133854	0.14376956
142	0x3e0d3d1f	0.13792847
143	0xbd8fc4fa	-0.07019992
144	0xbe0b9b75	-0.13633521
145	0xbcefcbe4	-0.029272027
146	0xbcb3e5d6	-0.02196018
147	0x3dfc7450	0.12326872
148	0x3df5e7a6	0.12007074
149	0xbe15c2ab	-0.14625041
150	0xbe9793f7	-0.29605076
151	0xbe9793de	-0.29605
152	0x3e9f1930	0.31073904
153	0xbdb0fc98	-0.086419284
154	0xbd896214	-0.0670816
155	0x3dad2234	0.08453789
156	0xbd702b06	-0.05863478
157	0xbc9870c9	-0.018608468
158	0x3ddd350d	0.10801134
159	0xbdedbe5c	-0.11608574
160	0x3c923d1c	0.017851405
161	0xbdb62d24	-0.08895329
162	0x3da57d3e	0.08080529
163	0xbcc551f2	-0.024086926
164	0x3e08cf86	0.13360414
165	0xbdc288f6	-0.094987795
166	0x3e2ce7cc	0.16885298
167	0xbe360416	-0.17774996
168	0x3c07eca5	0.008296167
169	0x3e0249cc	0.12723464
170	0xbcce1bb5	-0.025159696
171	0xbac0b8e6	-0.0014703542
172	0xbe7ab26a	-0.24482122
173	0x3d63fe92	0.0556627
174	0x3d92357a	0.07139106
175	0xbd540b72	-0.051768728
176	0x3c2c00b4	0.0104982145
177	0x3d964ded	0.07339082
178	0xbdac95c0	-0.08427
179	0x3e6f1740	0.23348713
180	0x3cdef35a	0.027215648
181	0xbd51d0de	-0.051224582
182	0xbd386b4f	-0.045024212
183	0xbd37a3a4	-0.044833794
184	0xbe5a1fd9	-0.21301211
185	0xbcdc1960	-0.026867568
186	0xbea1d6e0	-0.3160925
187	0xbe14a049	-0.14514269
188	0x3da0de48	0.07854897
189	0xbe154924	-0.14578682
190	0xbe2daa0c	-0.16959399
191	0xbd156a89	-0.036478553
192	0xbe632e52	-0.22185639
193	0xbde00363	-0.10938146
194	0xbe8ef1b2	-0.27918774
195	0x3bb4551a	0.005503309
196	0xbd1b4cdd	-0.0379151
197	0xbe102fe0	-0.14080763
198	0xbd689214	-0.056779936
199	0x3dbc8073	0.09204187
200	0x3e604a02	0.21903232
201	0x3d6f2416	0.058384024
202	0xbd42d293	-0.0475641
203	0xbe50715d	-0.20355745
204	0xbea18363	-0.31545553
205	0xbd348333	-0.044070434
206	0xbcb1bb7d	-0.021695847
207	0x3e44dee7	0.19225655
208	0x3e2292e4	0.15876347
209	0x3e29512b	0.1653487
210	0xbe1fffba	-0.15624896
211	0x3d1a2472	0.037632413
212	0xbd41d1c3	-0.047319185
213	0xbd361ea4	-0.044462815
214	0xbe0b11fa	-0.13581076
215	0x3e2f0325	0.17091043
216	0x3c411de7	0.011786914
217	0x3dc5073f	0.09620523
218	0xba6b8d4c	-0.00089855934
219	0x3dcb5389	0.099280424
220	0xbc726dbd	-0.014796671
221	0xbe013da6	-0.12621173
222	0xbe7ad0c3	-0.24493699
223	0x3d8f309b	0.06991693
224	0x3d955c90	0.072930455
225	0xbdf25585	-0.11832718
226	0xbdc82456	-0.097725555
227	0xbdeac3c3	-0.1146312
228	0x3e8a1fb7	0.26977322
229	0x3e817cab	0.25290427
230	0xbe570258	-0.20996988
231	0xbc6a4b99	-0.01430025
232	0x3db7c291	0.089726575
233	0x3d82b60c	0.06382379
234	0xbe7e211a	-0.24817315
235	0x3e4f464c	0.2024166
236	0xbe03e81b	-0.1288151
237	0x3dfa8af2	0.12233533
238	0x3df7888c	0.12086591
239	0xbd6c99a7	-0.05776372
240	0x3e431ed2	0.19054726
241	0xbdf316b0	-0.11869562
242	0xbe71e16f	-0.23621152
243	0xbd848d73	-0.06472292
244	0xbd6d199c	-0.05788575
245	0xbdd18a04	-0.102314025
246	0xbdfc238b	-0.12311467
247	0xbe5463e7	-0.20741235
248	0x3e26db80	0.1629467
249	0xbdad9d2b	-0.08477243
250	0x3c834741	0.016025187
251	0xbe583f3f	-0.21117876
252	0xbed595a0	-0.41715717
253	0xbe72b61b	-0.2370228
254	0x3e01e211	0.12683894
255	0x3d8ac8f0	0.06776607

weight f4 [128, 128]
0	0x3d860d28	0.06545478
1	0x3d99086e	0.07472311
2	0x3d830b7a	0.06398673
3	0xbcf75a8f	-0.030194549
4	0x3e76807c	0.2407245
5	0x3dfe37e2	0.124130026
6	0xbd889d43	-0.0667062
7	0xbec0df24	-0.37670243
8	0xbddabf1d	-0.10680983
9	0xbe678bc5	-0.22611912
10	0xbd434341	-0.04767156
11	0xbd9df385	-0.07712463
12	0x3cec03bd	0.028810376
13	0x3d8819f9	0.06645579
14	0xbe17ceeb	-0.14825027
15	0x3d8616dc	0.06547329
16	0xbe17bd23	-0.14818244
17	0xbd788aae	-0.06067913
18	0xbe9c4a3a	-0.3052538
19	0xbe830f64	-0.2559768
20	0x3e1a162a	0.15047517
21	0xbcae7b95	-0.021299163
22	0x3da677d8	0.08128327
23	0x3daa89a7	0.08327036
24	0x3e25cb04	0.16190726
25	0xbdeb4ef7	-0.11489671
26	0xbe0c3850	-0.13693357
27	0xbccbe0aa	-0.024887402
28	0x3e8833bd	0.26601973
29	0x3db98b2d	0.09059749
30	0x3e2c6dcc	0.16838759
31	0xbd81752b	-0.06321176
32	0xbd8c4019	-0.06848163
33	0x3d685910	0.05672556
34	0x3e3d7289	0.18500723
35	0xbdbf79a6	-0.093493745
36	0xbdebd699	-0.11515541
37	0xbe4b721c	-0.19867748
38	0x3e899311	0.26870015
39	0x3da72ed8	0.081632316
40	0xbc0bf981	-0.008543373
41	0x3e63a71b	0.22231714
42	0x3de93260	0.113865614
43	0xbe4ddc95	-0.20103677
44	0xbd903e3b	-0.070431195
45	0x3d9643d1	0.07337154
46	0x3d3a628d	0.04550414
47	0x3e27295c	0.16324371
48	0x3d484eb4	0.048903182
49	0x3aeb8ae7	0.0017970473
50	0x3dad4193	0.08459773
51	0xbd7ce544	-0.061742082
52	0x3dbfcde3	0.09365442
53	0xbdc33c07	-0.09532934
54	0xbd950447	-0.072762065
55	0xbdf1848e	-0.11792861
56	0xbdb24227	-0.08704024
57	0x3d3a7164	0.045518294
58	0xbe6b41b1	-0.22974278
59	0x3ed2f5d9	0.41203192
60	0xbe3cf0dd	-0.18451257
61	0xbd5860c7	-0.05282667
62	0xbc0302eb	-0.007996301
63	0x3a2a6620	0.0006500203
64	0x3d96ea21	0.07368875
65	0x3be2dc56	0.0069232387
66	0x3d9cea45	0.07661871
67	0x3db4d933	0.0883049
68	0xbdafc646	-0.085827395
69	0x3d858de3	0.06521203
70	0x3db229ed	0.08699403
71	0x3d2a1197	0.04152068
72	0xbdb4f9db	-0.08836719
73	0xbe20f804	-0.1571961
74	0xbcf2c820	-0.029636443
75	0xbdd65756	-0.10465877
76	0x3ce2ee46	0.027701508
77	0x3e14473c	0.14480299
78	0xba88d7f8	-0.001044034
79	0x3d17d2b0	0.03706616
80	0xbe68b205	-0.22724159
81	0x3d7a2380	0.06106901
82	0xbd6fac23	-0.05851377
83	0x3e096c6a	0.13420263
84	0x3e1170ac	0.14203137
85	0xbd35a7df	-0.044349547
86	0x3e214d73	0.15752201
87	0x3e59e002	0.21276858
88	0xbd2bbfb9	-0.041930888
89	0x3e0bee76	0.13665184
90	0x3d91e202	0.07123186
91	0x3e0f1a5e	0.13974902
92	0x3e0b7cd6	0.1362184
93	0x3df5e02e	0.120056495
94	0x3dac02e6	0.0839899
95	0x3b05a8ef	0.0020394882
96	0xbae056c1	-0.0017115698
97	0xbe3652a5	-0.17804964
98	0x3d51767e	0.051138394
99	0x3de58f1e	0.11208938
100	0x3e3d2a21	0.18473102
101	0xbe5854cf	-0.21126102
102	0x3d1f9c36	0.038967334
103	0xbd26fab1	-0.04076642
104	0xbd1ad375	-0.037799317
105	0x3d960c54	0.0732657
106	0xbdf7d461	-0.12101055
107	0xbe22d592	-0.15901783
108	0xbccc1398	-0.024911687
109	0x3e38aaab	0.18033855
110	0x3d245ff1	0.04013056
111	0x3e6f9d63	0.23399882
112	0xbe330989	-0.17484106
113	0x3d8b792a	0.068102196
114	0xbc81104c	-0.015754841
115	0x3e7e4353	0.2483037
116	0x3ef81a6f	0.48457667
117	0xbd67d062	-0.056595214
118	0xbddfd7b9	-0.10929818
119	0xbd34cc4f	-0.044140156
120	0xbe1f5a24	-0.1556173
121	0xbb9c1830	-0.0047636256
122	0x3db4afd4	0.08822599
123	0x3db77a37	0.089588575
124	0xbe6b2c27	-0.22966062
125	0xbde9c4cc	-0.11414489
126	0x3e059c7c	0.13047975
127	0x3e0355d4	0.1282571
128	0xbd0aeb0a	-0.033915557
129	0x3e020431	0.12696911
130	0x3e15dd56	0.14635214
131	0x3dd96e10	0.10616696
132	0xbda7f9e0	-0.08201957
133	0x3d847274	0.06467143
134	0xbe165834	-0.14682084
135	0x3e007ec3	0.12548356
136	0xbdd08229	-0.10181076
137	0xbcc6b4c2	-0.024256114
138	0xbce0eb75	-0.027456025
139	0x3e233822	0.15939382
140	0xbdc464ec	-0.09589562
141	0xbe905aac	-0.28194177
142	0xbe2e7182	-0.17035487
143	0x3df4b35b	0.11948272
144	0x3d09d15a	0.03364692
145	0xbeafa8a7	-0.3430836
146	0xbd52d177	-0.051469292
147	0xbe178a22	-0.14798787
148	0x3dc99258	0.09842366
149	0xbcab5ad7	-0.02091734
150	0x3e2cfffa	0.16894522
151	0xbd20341b	-0.03911219
152	0xbd0f04d6	-0.03491672
153	0x3d739522	0.059468396
154	0xbe324c51	-0.17411925
155	0x3ca8d3b1	0.020608755
156	0xbd0382d6	-0.032107197
157	0x3e1368d7	0.14395462
158	0x3dd6d568	0.10489923
159	0x3d8878bd	0.06663654
160	0x3dc2dcc8	0.09514767
161	0x3b04192d	0.0020156607
162	0x3d8b0503	0.06788065
163	0xbe24ae41	-0.16082098
164	0xbde81af8	-0.11333269
165	0xbdf0ec7c	-0.11763856
166	0x3d93ea93	0.07222476
167	0x3d0d6f02	0.034529693
168	0x3da273fd	0.07932279
169	0x3f01dc01	0.50726324
170	0x3aa0a4e9	0.0012256178
171	0xbda38f13	-0.079862736
172	0xbe1670fd	-0.14691539
173	0xbd847745	-0.06468061
174	0xbc39a547	-0.011330909
175	0xbd906335	-0.07050172
176	0xbe5056f0	-0.20345664
177	0xbdaf5484	-0.08561042
178	0x3d77d0ef	0.06050199
179	0x3ddc0124	0.10742405
180	0xbe5dac4a	-0.21647754
181	0xbd5e1828	-0.054222256
182	0xbe6f5b62	-0.23374704
183	0x3e11ee10	0.1425097
184	0x3d851431	0.06497992
185	0xba87b159	-0.0010352536
186	0xbd8c62ab	-0.06854757
187	0x3da617a8	0.08109981
188	0x3d8d856f	0.06910216
189	0x3d8d3898	0.0689556
190	0xbd82122b	-0.063511215
191	0x3d1ee20f	0.038789805
192	0xbce40259	-0.02783315
193	0xbe306022	-0.17224172
194	0xbda8ada5	-0.08236245
195	0xbcba5cfa	-0.022749413
196	0xbd9a4f54	-0.07534662
197	0x3d5e03b6	0.054202758
198	0x3eb60f9c	0.35558784
199	0x3cdc125f	0.026864229
200	0xbdecfa19	-0.1157114
201	0x3d2c8390	0.042117655
202	0x3d6cb32d	0.057788063
203	0xbe171a97	-0.14756237
204	0x3da2d5cb	0.07950934
205	0x3d214b63	0.039378535
206	0x3dd1467b	0.10218521
207	0x3c207c05	0.009795194
208	0xbe140ca9	-0.14457954
209	0x3cb900aa	0.022583324
210	0xbdd4e59a	-0.103953555
211	0xbe4740f2	-0.19458368
212	0xbd70203c	-0.05862449
213	0xbcd6d0da	-0.026222635
214	0xbd838908	-0.06422621
215	0x3e12233e	0.14271256
216	0x3ea2509a	0.3170212
217	0x3e36f6b4	0.17867547
218	0xbe3a503f	-0.18194674
219	0x3c3c9659	0.011510455
220	0x3dec6611	0.11542905
221	0xbd643731	-0.055716697
222	0x3da467b4	0.08027592
223	0x3e3f60b3	0.18689232
224	0xbd3fd610	-0.046835005
225	0xbe23e4db	-0.1600527
226	0xbdc44105	-0.09582714
227	0xbe12aff3	-0.14324932
228	0x3e221ad0	0.1583054
229	0xbc9a74d8	-0.018854544
230	0x3d414b78	0.047191113
231	0xbd9f0c48	-0.07766014
232	0xbe21cbee	-0.15800449
233	0xbde7403a	-0.11291547
234	0x3d03eff5	0.032211263
235	0x3d376824	0.04477705
236	0x3c7257a1	0.0147914
237	0x3e5bd69f	0.2146859
238	0x3e045c8c	0.12925929
239	0x3d25bd42	0.040463693
240	0xbe05a81a	-0.13052407
241	0xbda46957	-0.080279045
242	0xbe0b715f	-0.13617466
243	0xbd1897ec	-0.03725426
244	0xbd809cff	-0.06279945
245	0x3d720b7e	0.05909299
246	0x3d9ad07b	0.07559296
247	0x3e441e8d	0.19152279
248	0x3d351126	0.044205807
249	0xbc8516c9	-0.016246216
250	0x3d1add17	0.037808504
251	0x3d31ba5c	0.043390617
252	0xbca09a9a	-0.01960497
253	0xbe06cf05	-0.13164909
254	0x3dd928c1	0.10603476
255	0x3e616463	0.2201095

bias f4 [128]
0	0xbe49bb04	-0.19700247
1	0x3c9a12b1	0.01880774
2	0xbd6ef3b7	-0.058337893
3	0x3bc99a9f	0.0061524655
4	0xbd913e4c	-0.0709196
5	0xbe801805	-0.25018325
6	0xbdc43127	-0.095796876
7	0xbd082cd0	-0.03324586
8	0xbcf006d4	-0.02930013
9	0x3cba40d1	0.022735985
10	0xbdfc28a8	-0.12312442
11	0xbdd18c60	-0.102318525
12	0xbdbfc1bf	-0.09363126
13	0xbe03cf2f	-0.12872003
14	0xbe13b8a0	-0.14425898
15	0xbe20f6d2	-0.15719154
16	0xbe09f583	-0.13472562
17	0xbe0508a4	-0.12991577
18	0xbcd81bf9	-0.026380526
19	0x3d96470e	0.07337771
20	0xbe3037d7	-0.17208801
21	0xbe880c48	-0.2657187
22	0xbce53bc3	-0.027982598
23	0xbe7f3156	-0.24921164
24	0xbd5e3a1b	-0.054254632
25	0x3c01c3a0	0.007920176
26	0xbe0a4bde	-0.13505504
27	0xbe01b436	-0.12666401
28	0xbdc2aed8	-0.09506005
29	0x3c24824f	0.010040834
30	0xbd94b402	-0.07260896
31	0xbd59d273	-0.053179216
32	0x3d45bea3	0.04827751
33	0xbdcb76d5	-0.09934775
34	0xbdb5a9db	-0.08870288
35	0x3c26200e	0.010139478
36	0xbdd7e240	-0.10541201
37	0x3d8a0582	0.06739332
38	0xbc577d1f	-0.01315239
39	0x3d9ba84c	0.076004595
40	0x3d80ad32	0.062830344
41	0xbdfdedf6	-0.12398903
42	0xbe074cdb	-0.13212912
43	0xbe094558	-0.13405359
44	0xbe2c2773	-0.16811924
45	0xbe56ffdf	-0.20996045
46	0x3d3869db	0.045022827
47	0xbda56037	-0.08074992
48	0xbd2944b9	-0.041325305
49	0xbe216538	-0.15761268
50	0xbdac2688	-0.08405787
51	0xbc9dfd8a	-0.019285936
52	0x3dd7201b	0.105041705
53	0xbcb8d251	-0.022561224
54	0x3db3e9f7	0.0878486
55	0xbe471c45	-0.19444378
56	0xbcdf1638	-0.027232274
57	0xbc9a695e	-0.018849071
58	0x3c2c2e99	0.010509157
59	0x3d744881	0.059639458
60	0xbd8bc497	-0.06824606
61	0xbd92d7ce	-0.07170068
62	0xbe1a914d	-0.1509449
63	0xbdb596c5	-0.08866648
64	0xbd0c0a30	-0.034189403
65	0x3d4ecfb0	0.050491035
66	0xbcc291a7	-0.023751093
67	0xbcd5af04	-0.02608443
68	0xbe33b18d	-0.17548199
69	0xbdb012a0	-0.085973024
70	0xbc0f94a9	-0.008763471
71	0xbd6a9e24	-0.05727972
72	0x3d7c0a6e	0.061533384
73	0x3cec1eab	0.028823217
74	0xbe7e07b5	-0.24807627
75	0xbe28138e	-0.1641371
76	0x3add2eb0	0.0016874876
77	0xbe875984	-0.26435483
78	0xbe022117	-0.12707935
79	0xbdeeea44	-0.11665776
80	0x3cd62aba	0.02614342
81	0x3c9126ea	0.017718751
82	0xbe3ef472	-0.18647936
83	0x3d07af81	0.033126358
84	0xbd8e35d3	-0.0694386
85	0x3dc2240a	0.0947953
86	0x3d9d158c	0.07670125
87	0xbe6fefa3	-0.23431258
88	0xbde939ef	-0.11388003
89	0xbe08d3b7	-0.13362013
90	0xbd7149f4	-0.058908418
91	0xbd8bc2db	-0.06824275
92	0xbd956be1	-0.07295967
93	0x3ceab906	0.02865268
94	0xbcdaece1	-0.02672428
95	0x3dacac46	0.08431296
96	0xbd9e812f	-0.077394836
97	0xbd7c94e6	-0.061665438
98	0xbe00379d	-0.12521215
99	0xbe8c65f8	-0.27421546
100	0x3cac6334	0.021043397
101	0x3d558937	0.05213281
102	0xbe405a53	-0.18784456
103	0x3cda7a91	0.026669772
104	0xbc8e5199	-0.017372893
105	0x3b7d130e	0.0038616094
106	0x3cb2554c	0.021769188
107	0xbd7fdcc1	-0.062466387
108	0xbe0059ed	-0.12534304
109	0xbd92b7e4	-0.071639806
110	0x3ca75aea	0.020429093
111	0x3ce4905a	0.027900863
112	0xbe323b58	-0.1740545
113	0x3d7f68b5	0.062355716
114	0xbd9c9ac5	-0.076467074
115	0xbe7288d5	-0.2368501
116	0xbe99bc66	-0.3002655
117	0xbe80b7d8	-0.25140262
118	0xbdf4f1cd	-0.11960182
119	0xbe0a6d6f	-0.13518308
120	0x3cf8be83	0.03036428
121	0x3db4696c	0.0880917
122	0xbc43ed57	-0.011958442
123	0xbd918271	-0.07104958
124	0xbdd156ba	-0.1022162
125	0xbc8a2cd7	-0.016867084
126	0x3d92ba6d	0.07164464
127	0xbca5ccdf	-0.020239292

weight f4 [128, 128]
0	0x3e6a7c57	0.22898994
1	0xbc4928ef	-0.012277826
2	0x3dd5fb5d	0.10448334
3	0xbcd89c5a	-0.026441742
4	0xbd77f6ea	-0.06053821
5	0x3dc28d93	0.094996594
6	0xbcf71e00	-0.030165672
7	0xbd35342f	-0.04423922
8	0x3dfc1dfa	0.12310405
9	0x3c64b97e	0.01396024
10	0x3a0f8531	0.0005474864
11	0x3d40086d	0.046883035
12	0xbd0ac53e	-0.03387951
13	0x3e1a7152	0.15082291
14	0x3e0ba646	0.13637647
15	0x3dcb9c20	0.09941888
16	0xbe68a4a6	-0.22719058
17	0xbda2be73	-0.079464816
18	0xbd215dc6	-0.03939607
19	0x3c5b96cc	0.013402652
20	0x3db6684a	0.0890661
21	0xbdd32e56	-0.10311572
22	0x3e687569	0.22701038
23	0x3d3951b4	0.045243934
24	0xbe24dd00	-0.1609993
25	0xbde4f097	-0.11178701
26	0xbdffa4fb	-0.124826394
27	0xbdb3b4f6	-0.0877475
28	0x3e036e14	0.1283496
29	0x3e2d4e2e	0.16924354
30	0xbdff223a	-0.124577
31	0xbd8b8230	-0.06811941
32	0x3e165ed3	0.1468461
33	0xbe41e22b	-0.18933932
34	0xbc5af61c	-0.013364341
35	0xbda4ce62	-0.08047177
36	0xbdbd2b6a	-0.09236796
37	0x3e234119	0.15942802
38	0xbdf72d96	-0.12069242
39	0xbd8ac87e	-0.06776522
40	0xbbba8645	-0.0056922757
41	0x3da52819	0.08064289
42	0xbd9e6ef6	-0.07736008
43	0x3cf3a339	0.029740917
44	0x3d6c2f7d	0.057662476
45	0x3db1ee9d	0.0868809
46	0x3d7e1097	0.06202754
47	0x3e0527c6	0.13003454
48	0xbd96510f	-0.073396794
49	0x3c212d8f	0.009837522
50	0xbd5c1568	-0.053731352
51	0x3dd04e50	0.10171187
52	0xbd55b5d7	-0.05217537
53	0xbdeb9ec6	-0.11504893
54	0xbd06ba19	-0.03289232
55	0x3d2a0c4b	0.04151563
56	0xbd86523a	-0.06558652
57	0x3e872b38	0.2640016
58	0x3e1fbab6	0.15598568
59	0x3adc6e6c	0.0016817576
60	0x3d3604aa	0.04443804
61	0xbe3d05ec	-0.1845929
62	0xbcdf2912	-0.027241264
63	0xbde055bc	-0.109538525
64	0x3aa3e629	0.0012504506
65	0xbe027974	-0.12741643
66	0xbd9c5916	-0.07634179
67	0x3cabb266	0.02095909
68	0xbc593d1a	-0.013259197
69	0xbdb462e7	-0.088079266
70	0xbe492375	-0.19642432
71	0xbddfa3cf	-0.10919916
72	0xbe12c786	-0.14333925
73	0x3c12c786	0.008958703
74	0xbcde1ae0	-0.027112424
75	0xbd776e13	-0.06040771
76	0x3d88ade6	0.066737935
77	0xbcadff5d	-0.02123993
78	0x3ddc4b0f	0.10756504
79	0xbe189003	-0.14898686
80	0x3e441b1d	0.19150968
81	0x3e298d81	0.16557886
82	0xbc595996	-0.013265988
83	0x3e145014	0.14483672
84	0xbca95eb4	-0.02067504
85	0xbdca143e	-0.09867142
86	0xbd0b9957	-0.034081783
87	0x3e4428ae	0.19156143
88	0x3db0c899	0.08632011
89	0x3dba1a41	0.09087039
90	0xbda66a86	-0.081257865
91	0x3c8bcb94	0.017064847
92	0xbe304e14	-0.17217284
93	0x3c0b11fa	0.008488173
94	0xbd899f3b	-0.06719824
95	0x3d82d406	0.063880965
96	0xbc61b400	-0.0137758255
97	0xbd02d57d	-0.03194188
98	0x3da62736	0.08112948
99	0xbdc91d16	-0.09820001
100	0xbd590e74	-0.0529923
101	0xbd7ee521	-0.062230233
102	0x3e540eea	0.20708814
103	0xbb8e3e02	-0.004340888
104	0xbda70490	-0.08155167
105	0xbd9a53df	-0.075355284
106	0xbd34ed7d	-0.0441718
107	0x3d829bfd	0.06377409
108	0x3e3f9aa0	0.18711329
109	0x3dffd9fe	0.124927506
110	0x3df49b8b	0.1194373
111	0xbcc8ddbe	-0.024519797
112	0x3cdd2628	0.026995733
113	0xbd2d9427	-0.042377617
114	0xbcd170b4	-0.025566436
115	0xbdffb6ac	-0.12486014
116	0xbd264abe	-0.040598623
117	0x3d9bddb5	0.07610647
118	0xbceda8d4	-0.029011168
119	0x3ccafbfb	0.024778357
120	0x3cc870b2	0.0244678
121	0xbdccb988	-0.09996325
122	0x3d9b42ec	0.07581124
123	0xbd5d004a	-0.053955354
124	0xbdec975d	-0.11552308
125	0x3c6e282c	0.014535945
126	0xbe2d86c8	-0.16945946
127	0xbdb06adb	-0.08614131
128	0x3d375830	0.044761837
129	0x3dfd2088	0.123597205
130	0x3d9bffa4	0.07617119
131	0x3db091e4	0.086215764
132	0x3dab64b3	0.08368816
133	0xbd94124d	-0.07230053
134	0x3e19d5da	0.15022984
135	0xbc32bf60	-0.010909885
136	0xbde03b75	-0.109488405
137	0x3e01c21d	0.12671705
138	0x3e184501	0.14870073
139	0x3d554c6a	0.052074827
140	0x3d64ea2d	0.05588739
141	0x3d767379	0.060168717
142	0xbc2b1024	-0.01044086
143	0x3d87bd57	0.066279106
144	0xbbb60952	-0.0055553103
145	0x3dea0cfe	0.11428259
146	0x3d49abca	0.049236096
147	0x3db97d5f	0.09057116
148	0x3dd2accb	0.10286864
149	0xbd5bc249	-0.05365208
150	0x3cbd068e	0.023074415
151	0x3d7780df	0.060425635
152	0xbd5a0d12	-0.05323512
153	0x3e0d9c0a	0.13829055
154	0xbe0461d1	-0.12927939
155	0x3bfb4a9b	0.007668806
156	0x3e3ba449	0.18324389
157	0xbd97eac1	-0.07417823
158	0xbd0026fc	-0.03128718
159	0xbd864e1c	-0.06557867
160	0xbe19b2f6	-0.15009674
161	0xbccdb262	-0.025109474
162	0x3d8c5e9b	0.06853982
163	0xbca5055d	-0.020144159
164	0x3be7a2d7	0.0070689726
165	0xbc5b18df	-0.013372629
166	0xbd2d8308	-0.04236129
167	0x3c49fc8e	0.01232828
168	0xbdcbde56	-0.099545166
169	0xbcbb1f68	-0.022842124
170	0xbd9ab7a4	-0.07554558
171	0x3da8ea20	0.08247781
172	0x3d67eb2c	0.05662076
173	0xbe36fda6	-0.17870197
174	0x3dacc84e	0.084366426
175	0x3ca9ff7a	0.020751704
176	0x3d6aea1d	0.057352174
177	0x3cee0344	0.029054292
178	0xbd9a957d	-0.07548044
179	0x3d821415	0.063514866
180	0xbd133d07	-0.035946872
181	0xbbf5808d	-0.007492131
182	0xbc79310a	-0.015209446
183	0x3d3f23b3	0.046664905
184	0xbcd1bf05	-0.02560378
185	0x3cfb06b7	0.03064285
186	0x3da0520e	0.07828151
187	0xbcc0534e	-0.023477223
188	0x3ddb2fe6	0.10702495
189	0x3e36c28d	0.17847653
190	0xbcb444f1	-0.02200553
191	0x3d51aba4	0.05118908
192	0xbd872623	-0.06599071
193	0xbe0ee565	-0.13954695
194	0xbdf91ca7	-0.12163668
195	0xbcad18c5	-0.021129975
196	0x3e466dc6	0.19377813
197	0xbe248c95	-0.16069253
198	0xbdc38d97	-0.095484905
199	0xbd39470d	-0.045233775
200	0xbdc15b28	-0.09441215
201	0x3e100792	0.14065388
202	0x3c631227	0.013859308
203	0xbd9c4718	-0.076307476
204	0xbbc11fc1	-0.005893678
205	0x3d451e5c	0.048124656
206	0x3e4cdc3b	0.20005886
207	0x3da6080a	0.08107002
208	0x3e47ffca	0.1953117
209	0xbc8cca5c	-0.017186336
210	0x3c044487	0.008072979
211	0xbe20c46f	-0.15699933
212	0xbda898bc	-0.08232257
213	0xbdaeea95	-0.08540837
214	0x3d0ba601	0.03409386
215	0x3e77c5bb	0.24196522
216	0xb94661e3	-0.00018919217
217	0x3d19a3ee	0.03750985
218	0xbde2bdbd	-0.11071346
219	0x3da3dfdc	0.08001682
220	0xbd2b6008	-0.04183963
221	0xbd61f7b1	-0.055167858
222	0xbc3fe0a3	-0.011711272
223	0x3c936fdf	0.01799768
224	0x3c1c5fb4	0.009544302
225	0xbe2580ce	-0.16162416
226	0x3b426abe	0.0029665674
227	0x3b3c372f	0.0028719415
228	0xbcd22e4e	-0.025656845
229	0xbd900cf3	-0.0703372
230	0x3d511bb1	0.0510518
231	0xbddc2922	-0.10750033
232	0x3d1f5d1a	0.038907148
233	0xbd9828cc	-0.074296564
234	0xbd0ddbc3	-0.03463341
235	0xbd282d69	-0.04105893
236	0x3db4757e	0.08811472
237	0xbdcfcb57	-0.10146206
238	0x3e2c3319	0.16816367
239	0x3c809fbd	0.01570117
240	0xbe5edd26	-0.21764049
241	0xbb61486c	-0.0034375442
242	0x3d80a5c1	0.06281615
243	0x3b5eb8ce	0.0033984664
244	0x3ded96bd	0.11601017
245	0x3d9ac177	0.07556432
246	0xbb2ebf18	-0.0026664194
247	0xbd26a8f8	-0.040688485
248	0xbdadced5	-0.08486716
249	0xbe1796af	-0.14803575
250	0xbc2e419a	-0.010635758
251	0xbe1d05c5	-0.15334232
252	0xbd5dc78b	-0.054145377
253	0xbc801c1b	-0.015638402
254	0x3c074ea7	0.008258498
255	0xbd1d2133	-0.03836174

bias f4 [128]
0	0xbe2186d7	-0.15774094
1	0xbdbdf7ac	-0.09275755
2	0x3cdc0f99	0.026862906
3	0xbe00ad26	-0.12566051
4	0x3e3ee3ca	0.18641582
5	0x3dbe53d2	0.09293331
6	0x3dee059a	0.11622162
7	0xbe087b78	-0.1332835
8	0xbe71f8b1	-0.23630024
9	0x3e29a293	0.16565923
10	0x38146e90	3.538892e-05
11	0xbc993890	-0.018703729
12	0xbe415092	-0.18878391
13	0xbd92c3ca	-0.0716625
14	0xbd9fb618	-0.077984035
15	0xbda321ab	-0.07965406
16	0xbe0558ed	-0.13022204
17	0xbd237687	-0.03990796
18	0x3c570df2	0.013125883
19	0x3d8b38f2	0.06797971
20	0xbd1b0977	-0.037850823
21	0x3dfcf68f	0.12351715
22	0xbdd3202d	-0.103088714
23	0xbd3cd294	-0.04609926
24	0x3d86e78e	0.06587134
25	0x3d41b140	0.04728818
26	0x3c8f330c	0.017480396
27	0x3e016bbb	0.12638752
28	0xbdd6b4d7	-0.10483711
29	0x3d0149d0	0.031564534
30	0xbda5e1b7	-0.08099692
31	0xbe57a45e	-0.21058795
32	0xbd64282f	-0.055702385
33	0xbd44642c	-0.047947094
34	0xbce64958	-0.028111145
35	0xbd07af71	-0.0331263
36	0x3e04455a	0.1291708
37	0xbe6c42bf	-0.23072337
38	0x3d06aea7	0.032881405
39	0x3c68f272	0.01421796
40	0xbe75d59c	-0.24007267
41	0xbe7f2194	-0.24915153
42	0xbcc7d89a	-0.024395276
43	0xbe8aba58	-0.27095294
44	0xbbe357e0	-0.0069379658
45	0xbc5fe098	-0.013664387
46	0xbe35f913	-0.17770796
47	0xbdeaabd2	-0.114585534
48	0x3d675d8e	0.056485705
49	0x3d905bf3	0.07048788
50	0xbe120c21	-0.1426244
51	0xbcf06e51	-0.029349478
52	0x3e2a6f5b	0.16644041
53	0x3d085b62	0.033290274
54	0x3b37472d	0.0027966008
55	0xbe49812a	-0.19678178
56	0xbd1ee7a2	-0.03879512
57	0xbc7e566b	-0.015523533
58	0xbe989c4c	-0.29806745
59	0x3de44337	0.11145633
60	0xbe33218b	-0.17493264
61	0xbe7417e2	-0.23837236
62	0xbc1711bf	-0.00922054
63	0xbe6b19b8	-0.2295903
64	0x3e1b87b4	0.15188485
65	0xbda83345	-0.08212904
66	0xbd2fa7f3	-0.04288478
67	0xbdcf8a7f	-0.10133838
68	0x3ca4add3	0.020102417
69	0x3e1fb775	0.15597327
70	0xbcbdf6c7	-0.023188962
71	0x3cde80f5	0.0271611
72	0x3de33402	0.11093904
73	0x3d615d59	0.055020664
74	0x3d8d82c3	0.069097064
75	0x3dd10f8d	0.10208044
76	0x3d673985	0.05645134
77	0xbe1ea061	-0.15490867
78	0x3da3458a	0.07972248
79	0xbe485024	-0.19561821
80	0xbd3d903c	-0.04628013
81	0x3e05e148	0.13074219
82	0xbbb88266	-0.005630779
83	0xbda5e8a0	-0.0810101
84	0x3b76ae9e	0.00376407
85	0x3dc11178	0.0942716
86	0x3c62374e	0.013807131
87	0xbbeabf8f	-0.007163949
88	0x3c6f01c8	0.014587827
89	0xbd557147	-0.052109983
90	0xbb255e5e	-0.002523325
91	0xbc237c8f	-0.009978428
92	0x3e3fba21	0.18723346
93	0x3d109b0b	0.03530411
94	0xbde75857	-0.11296146
95	0x3d966da4	0.07345131
96	0x3dcd6251	0.10028518
97	0xbd9825e1	-0.074291
98	0xbe835e50	-0.25657892
99	0x3d1da158	0.038483948
100	0xbd3df1bb	-0.04637311
101	0xbde94c1e	-0.11391471
102	0xbe068b5c	-0.13139099
103	0xbd6d38b7	-0.057915416
104	0x3d98b4d2	0.07456364
105	0x3da53420	0.08066583
106	0xbdafb601	-0.08579636
107	0x3b274f69	0.002552951
108	0x3dd161c4	0.102237254
109	0xbd495758	-0.049155563
110	0x3d8e3c4a	0.06945093
111	0xbcc30c28	-0.023809507
112	0xbdee0957	-0.11622875
113	0x3d2eef2a	0.042708553
114	0xbca0b7cc	-0.019618891
115	0xbd8ed427	-0.069740586
116	0x3e045636	0.12923512
117	0x3e26af68	0.1627785
118	0xbddebbc5	-0.10875658
119	0x3da4bca4	0.08043793
120	0x3dec7070	0.11544883
121	0xbe3ac637	-0.18239675
122	0x3da84f12	0.082182065
123	0x3dc7fd6b	0.097651325
124	0x3daab8b8	0.083360136
125	0xbe574158	-0.2102102
126	0x3c449de8	0.012000538
127	0xbc9a4f9a	-0.018836785
