results/model/union_596.model (torch, 686563 bytes, 21 tensors)

weight_ih f4 [384, 5]
000000 8c ac 01 be 69 9a 0f 3b a3 f2 0e be 01 80 b1 bd
       -0.12663478 0.0021912104 -0.13959746 -0.08666993
000010 49 1d 47 bb 95 44 39 bd a0 c5 30 bd d4 10 97 3c
       -0.0030382446 -0.04523142 -0.04315722 0.018440641
000020 e3 b9 9f bd e6 2c 71 bd 1f f6 9e 3d 54 5f 41 bd
       -0.07799127 -0.05888071 0.077617876 -0.047210053
000030 a9 65 65 3c 84 c1 28 bd 9e 46 c2 3d bb 44 e6 bb
       0.014001288 -0.041200176 0.094861254 -0.0070272363
000040 43 15 7c 3b e1 18 9c bd e1 d0 b7 3c ae 4f 46 3b
       0.0038464821 -0.07621933 0.022438468 0.0030259895
000050 60 47 df 3d b1 12 6e be 19 a1 db 3d 2a f2 95 bd
       0.109022856 -0.23249318 0.10724086 -0.0732158
000060 0b 9b a5 3d c3 4c dd bd 2a 28 07 be d9 41 ad bd
       0.08086213 -0.10805657 -0.13198915 -0.08459825
000070 ba 47 96 bd f5 17 45 be a5 35 da 3d 0b e9 bc 3b
       -0.073378995 -0.1924742 0.10654763 0.0057650856
000080 f6 4a 76 bd 35 8e 22 3c 19 f1 1f 3d 35 07 78 3d
       -0.060130082 0.0099216 0.039048288 0.06055375
000090 c8 f8 6c bd b4 29 82 bd 3f be 72 bc 46 00 df bc
       -0.057854444 -0.063556105 -0.014815866 -0.02722181
0000a0 9a a9 6b bd cb 86 1a bc ea b9 0a be 79 d9 63 3d
       -0.05753479 -0.009431551 -0.13547483 0.05562732
0000b0 f5 5a b2 bd 7e b6 06 3c f2 26 bc bc 44 a3 00 be
       -0.08708755 0.00822222 -0.02296779 -0.12562281
0000c0 9c 9c 0c 3d dc c7 63 3d 8e 9b f2 3b 02 90 02 3d
       0.03432904 0.055610523 0.0074037975 0.031875618
0000d0 48 52 fa bc 9c 7a d4 bc 71 87 98 bd c6 20 c2 bd
       -0.030556813 -0.025937371 -0.074477084 -0.09478907
0000e0 64 bc eb 3c d3 81 d6 bd 2a 08 33 bd a7 de 3a 3d
       0.028776355 -0.10473981 -0.043708958 0.045622494
0000f0 f2 76 d0 3c 41 08 09 3e f7 da 5c 3d 0c 8f 79 bd
       0.025447343 0.13382055 0.05391976 -0.060927436
000100 8f 8b dd 3d 79 7b 54 bd 40 9e bf 3c 09 0f fd bc
       0.10817634 -0.051875565 0.02339089 -0.030890958
000110 a9 58 85 3c fa c9 65 be a1 6d c0 bd 4f 68 bb bb
       0.016277628 -0.22440329 -0.0939591 -0.0057192217
000120 f5 5c 3d 3d f4 17 98 3d 10 55 fc 3d 3d ce ce 3d
       0.04623123 0.07426444 0.12320912 0.100979306
000130 73 9e d5 3c b4 ac af 3b ce 51 f8 3c 4d ce 97 bd
       0.026076531 0.005361164 0.030312445 -0.074123956
000140 fe ac 69 3c d2 75 a0 bc f3 68 8b bd b6 58 c7 3d
       0.014262436 -0.019587431 -0.06807127 0.09733717
000150 73 b0 a7 bd 4f 47 4f 3d 9e 8d 0d 3d 44 98 c5 3d
       -0.08187952 0.050605115 0.034558885 0.09648183
000160 b9 cb a4 3d a1 8b ae bb 1a 18 9f 3c e0 5c bb bd
       0.080466695 -0.0053267037 0.019420672 -0.09148574
000170 58 6c f7 bd 28 41 a9 bd fd 5e 3d bc e5 7b 6a 3d
       -0.12081212 -0.08264381 -0.0115582915 0.05724706
000180 d5 88 41 bd 7a 40 ad 3d 12 1e b4 bc 60 9c fc 3c
       -0.047249634 0.084595636 -0.021986995 0.030836284
000190 55 e4 a6 3d 1c 4f 98 bb 0a 4b 6d bd 13 06 12 bd
       0.0814902 -0.0046481024 -0.05793289 -0.035650324
0001a0 03 84 95 3d 17 44 16 3e e6 61 00 3e 04 ac 80 bc
       0.0730057 0.14674412 0.12537345 -0.015707023
0001b0 45 75 24 bd f6 fa 80 3c d5 e9 bb 3d 1a ac 2a bd
       -0.0401509 0.015744668 0.09175459 -0.041668035
0001c0 53 93 98 bd 8f 4c 6a bc d1 f7 70 be 5d d8 e5 bc
       -0.07449975 -0.01430048 -0.23532034 -0.028057272
0001d0 10 bc 34 3d b8 d1 10 3e 10 df 09 3c cb 04 5f bd
       0.044124663 0.14142501 0.008414999 -0.05444793
0001e0 11 c7 d9 3d 8f 06 a3 bb da 52 c1 bd 44 b9 41 3d
       0.10633672 -0.004975147 -0.09439631 0.047295824
0001f0 a8 df 6c bd 54 79 3f bd 1b 9e 7d bd 87 b6 e2 bc
       -0.057830483 -0.046746567 -0.06191836 -0.027674926
000200 2b 7d 90 3d 35 07 68 bd cc 19 b6 bd e6 80 c3 bd
       0.07055124 -0.0566475 -0.08891639 -0.0954607
000210 d5 eb a0 bd 92 0c 3e bd a7 ed a7 3d db 19 d3 3d
       -0.078574814 -0.046398707 0.081996255 0.10307666
000220 bb 19 b4 3b 31 9c 92 3d 80 f2 cd 3c 3a 35 ad 3d
       0.0054962314 0.071586974 0.025140047 0.08457418
000230 ec bb 1e bc b4 0b df bd ca 56 9d bc 3f 30 2b bb
       -0.009688359 -0.10890904 -0.019206423 -0.0026121286
000240 f6 42 fe bc 3d 89 91 bc fa 86 92 bc c0 dc 5a 3d
       -0.031037789 -0.017765636 -0.017886627 0.05343318
000250 18 3c 1d 3c ed 2b 08 be 84 ee a2 3d 82 a2 13 3d
       0.009596847 -0.13298006 0.079556495 0.03604365
000260 59 56 1a bd 89 5a 0c bd 42 75 85 3d 21 5b 8a bb
       -0.037680004 -0.03426603 0.06516506 -0.004222289
000270 3e 34 e9 bc b9 5d ee bc ae 92 cc 3d aa 3a 3e 3d
       -0.028467294 -0.029097425 0.099889144 0.046442665
000280 4a 74 f2 3d 57 3d 73 3d 5f 0a c2 bd 4f 4a b5 bd
       0.11838587 0.05938467 -0.094746344 -0.08852064
000290 06 7e ba 3b 32 a6 3d 3d 2f 68 57 3d 91 bb 38 bd
       0.0056912927 0.046301074 0.05258959 -0.045100752
0002a0 a2 63 1f 3b 48 3c 17 bd 9a d5 40 bd 24 1a 33 be
       0.002432086 -0.036922723 -0.047078706 -0.1749044
0002b0 42 9c c5 3b dd 79 0e bc f8 ff ce 3b 75 a0 b4 bd
       0.0060305903 -0.008696047 0.006317135 -0.08819667
0002c0 e7 e5 a5 3d 1d b9 c3 bd 2d 53 7a 3b 45 94 b1 bd
       0.08100491 -0.09556792 0.003819655 -0.08670858
0002d0 bb dd 3d 3d 2d e7 87 3d 48 33 99 bd 6f 83 41 bd
       0.046354037 0.0663589 -0.07480484 -0.047244485
0002e0 1f 99 f5 3c a2 7d cf 3d 72 26 c9 3d 59 0e 40 3c
       0.02998024 0.101313844 0.09821786 0.011722171
0002f0 96 5d b7 3d a5 c9 1f 3e 67 2e 67 3d e8 7b d6 3c
       0.08953397 0.15604265 0.056440737 0.02618213
000300 6a e5 a2 3d 53 36 93 3c 84 28 95 bd 85 80 9e bd
       0.079539135 0.01797024 -0.07283118 -0.07739357
000310 7b 3b 2d 3d 62 95 c2 bd c1 5d cb bd 53 1d 81 bd
       0.042293053 -0.09501149 -0.099299915 -0.06304421
000320 03 91 7c 3d 54 eb b3 bd f8 9c 9c 3d cf 76 9c bc
       0.06166173 -0.0878512 0.07647127 -0.019099621
000330 a5 76 c9 3d fb 04 07 3c 35 d6 be bd 30 2a 16 3d
       0.09837083 0.0082409335 -0.093182005 0.036661327
000340 b0 4a b2 3c 3e 17 a8 3c 80 a8 09 3d 9e a5 f0 3d
       0.02176413 0.020518895 0.03360796 0.11750339
000350 30 33 5f bd d4 54 81 3d a6 a8 1e 3e 4a 9a 58 bb
       -0.054492176 0.06315008 0.15494022 -0.0033050948
000360 d5 48 03 bd b8 7a b1 bd 6c 95 f7 3c 6c 5d e1 3c
       -0.03205188 -0.08665985 0.030222617 0.027510367
000370 30 89 44 bd e9 ac 8c bc 26 8e a2 3d f5 1b 06 bd
       -0.047982395 -0.017172294 0.07937269 -0.032741506
000380 e8 55 de 3c 74 29 91 3d 0a 41 95 bd 75 f4 c8 bd
       0.027140573 0.07087985 -0.07287796 -0.098122515
000390 45 63 c2 bd bc e7 25 3c d6 2a d1 3d e9 a7 e5 b9
       -0.094915904 0.010126051 0.102132484 -0.00043803387
0003a0 88 05 b1 bc 50 eb 62 3a 9a ac 4e 3d 74 a4 03 3d
       -0.021609083 0.000865628 0.050457574 0.032139257
0003b0 70 ac e2 bd 08 a9 b8 3d c4 a0 06 bd 3f e3 64 3d
       -0.11068046 0.09016615 -0.03286816 0.05588078
0003c0 0b 7a 9a 3d dc ac 2d bd 42 60 95 bd 54 5a 5f bd
       0.07542809 -0.04240118 -0.0729375 -0.054529503
0003d0 af df 17 be 52 7e 38 3d 62 5e d8 bd 45 b2 7b bc
       -0.14831422 0.045042343 -0.10564877 -0.015362327
0003e0 0e 2f 00 bd cc b8 f6 bd 1f d2 0f 3e fd 4c 99 3c
       -0.031294875 -0.12046966 0.14044999 0.018713469
0003f0 cf 46 74 bd 3a 98 bc 3d 79 48 96 3d 08 18 24 bd
       -0.05963784 0.092087224 0.07338042 -0.04006198

weight_hh f4 [384, 128]
000000 c0 2b 5b 3d 0f 1f 40 3d c3 52 01 be a2 63 b9 3b
       0.05350852 0.04690462 -0.12629227 0.005657629
000010 a4 f4 da bd 21 94 2f bd d8 3f 8d bc 22 39 14 3d
       -0.10691193 -0.042865876 -0.017242357 0.0361873
000020 92 e2 89 3d 76 c3 79 bd 3f 32 d9 bc 12 74 07 bd
       0.06732668 -0.06097742 -0.026513217 -0.033069678
000030 bc 0a ad 3b 07 29 ad 3b 6e 2b a4 3d 23 b4 b9 3c
       0.0052808207 0.005284432 0.08016096 0.022668904
000040 6f f0 a3 bc 83 0f ac 3c 70 d6 d1 bd 76 88 ed ba
       -0.020012109 0.02100349 -0.10245979 -0.0018122334
000050 e1 0d c4 bd 35 05 bc bc 3e 61 38 3d c5 c9 83 b9
       -0.0957296 -0.022951702 0.045014612 -0.00025136597
000060 e0 55 39 3d 7a f5 02 3c d7 4f 0c 3e c6 44 ca 3d
       0.045247912 0.0079930965 0.13702331 0.09876399
000070 6a 7a 97 3d 82 f5 a2 3d d3 a2 06 be f8 55 eb ba
       0.073963955 0.07956983 -0.1314805 -0.0017954698
000080 81 0f 5e 3d 28 bb 8c bd 2f e2 fd bd 21 0f 35 3d
       0.054214004 -0.06871635 -0.12396657 0.04420388
000090 38 d3 bf 3a 03 03 fb 3c 3b 91 64 bc a1 5d 5e 3c
       0.0014635092 0.030641085 -0.013950641 0.013572128
0000a0 0a b1 82 bd 68 c1 f4 bc 4f 3c dd 3d b2 65 61 bd
       -0.06381424 -0.02987738 0.108025186 -0.055028625
0000b0 4e 5d 9b bd b7 3b 56 3d 93 40 db 3d 2f 5e b5 bd
       -0.07586156 0.052303042 0.10705676 -0.08855855
0000c0 ed 86 ba bc ba cf 30 3c 0d 87 75 bc 43 6c ea bd
       -0.022769416 0.010791713 -0.014985812 -0.114464305
0000d0 86 58 b9 bd ea 35 88 3d 63 f1 c1 bc e1 c6 d6 bd
       -0.09050088 0.06650908 -0.023674672 -0.10487152
0000e0 61 93 41 bd cc 73 c6 3d 95 38 90 bd 52 ee d3 3d
       -0.047259692 0.09690055 -0.07042042 0.1034819
0000f0 e1 b9 c7 bd e0 da f5 bd 3d b3 3a 3d 6f a1 24 bb
       -0.097522505 -0.12004638 0.04558109 -0.0025120636
000100 b2 14 d3 3d b4 04 74 3d 44 04 db bd 99 e5 46 3d
       0.10306682 0.059574798 -0.10694173 0.048558805
000110 91 4a 6b bc 56 57 8b 3d 05 7b ad 3c 91 19 28 bd
       -0.01436104 0.068037674 0.021176824 -0.041040007
000120 52 8a a0 3d 5e af 0f bc 50 00 4b bb 29 31 18 3d
       0.078388825 -0.008769838 -0.0030975528 0.037156258
000130 80 64 4f 3d 02 ad 34 bd fb aa 96 bd 20 29 b7 3d
       0.050632954 -0.044110306 -0.07356831 0.08943391
000140 92 3b 70 3d 24 71 99 bd 40 54 e2 bd 82 43 be bd
       0.05865056 -0.07492283 -0.11051226 -0.0929022
000150 5e 64 b3 3d f0 fa 01 bc 67 0d 27 3d 65 7e 29 bd
       0.08759378 -0.007933363 0.040784266 -0.041380305
000160 23 2c f4 3c 40 02 0d bc 3b e0 ce bd 64 fb d1 bd
       0.029806202 -0.0086064935 -0.10101362 -0.10253027
000170 24 63 93 3d e0 bb 02 3d 40 b9 32 bd 8b 4d 08 3c
       0.07196644 0.031917453 -0.0436337 0.008319269
000180 8b 0f 8c 3d 2d 22 8a bd dd 4f 95 bd cd 37 7c 3d
       0.06838902 -0.067448 -0.07290623 0.061576653
000190 7d 85 b1 3d 6f 45 43 3d 56 e5 b9 b9 f7 b4 59 bd
       0.08668039 0.04767364 -0.00035456818 -0.053151097
0001a0 43 45 90 3d b8 4b 8e bb cb ca 78 3c 64 b6 84 3c
       0.070444606 -0.0043425225 0.015185068 0.016200252
0001b0 9b 6a a9 3d 42 0b 00 3d e4 11 20 3d 91 5b e4 3d
       0.082722865 0.031260736 0.03907956 0.111502774
0001c0 0d 35 da 3c 2e 83 00 bc 11 6e 38 3c b2 8c 27 bd
       0.026636625 -0.007843776 0.011256711 -0.040905662
0001d0 36 f7 30 3d af a8 e4 bd f6 d0 e3 3a 87 9a 89 3d
       0.04320451 -0.11164986 0.0017381001 0.06718927
0001e0 32 b1 fe 3c 58 9c 84 bd 39 9f 8a bc ae 36 79 3c
       0.031090353 -0.06475133 -0.016921626 0.015210791
0001f0 6b ee d7 bd 0b fb 1b 3d 95 d4 da ba 16 0d bd 3c
       -0.105435215 0.03808121 -0.0016695434 0.023077529
000200 1e 91 44 3e 61 08 3d 3d b3 4e c2 3a c0 98 06 bd
       0.19195983 0.04615057 0.001482448 -0.032860518
000210 18 f1 8b 3d 54 5b ee 3c 69 e1 6a 3d 33 01 93 3d
       0.06833094 0.029096283 0.057343874 0.07177963
000220 83 b7 3a bd 17 cc a6 3d 6f a8 34 bd 16 8d c3 3b
       -0.045585167 0.08144396 -0.044105943 0.0059677465
000230 d5 14 0c 3d 0b de d8 bd c1 49 83 3d 9e c5 9b 3d
       0.034199554 -0.10589226 0.06410552 0.07606052
000240 0f 89 83 3d 04 0a 8f bd 70 a9 d2 bd 04 50 33 3e
       0.06422626 -0.06984332 -0.10286224 0.17510992
000250 91 f4 bd 3d 3e 42 d3 bd 39 ae 8b bb 6e d3 ce bb
       0.09275163 -0.10315369 -0.0042627123 -0.0063118255
000260 6d cb 5e 3b 37 8e 16 bb f0 d4 03 3d 19 dc 25 bc
       0.0033995763 -0.002297295 0.032185495 -0.010123276
000270 71 0e 20 3d cd eb 6b bb 4c 3b 75 bd 9a 36 b7 ba
       0.039076272 -0.0035998703 -0.059871003 -0.0013978065
000280 49 3d 5a bd d7 e2 38 3c e5 20 2e 3c 2e af 9f bc
       -0.053281102 0.011284552 0.01062796 -0.019492712
000290 56 6b b7 bc 6e 12 50 bc bb ee 64 bd 15 62 6e bd
       -0.022390049 -0.0126997065 -0.055891734 -0.058199007
0002a0 34 b3 7b be 39 16 51 3c bd f7 2f bc 6b e9 9a bd
       -0.2458008 0.012761646 -0.010740218 -0.07564052
0002b0 e2 45 eb bd df 6c 57 3c 4c 5b fa 3b 4e 8a fc bd
       -0.114879385 0.0131485155 0.007640278 -0.12331067
0002c0 b5 54 a2 bd fd 9d ff bc 5f b1 85 bd 7c 07 a9 bd
       -0.07926313 -0.031203264 -0.065279715 -0.08253381
0002d0 0a ed 93 3b 15 9c 8f 3d ad 63 30 bd 18 37 7a 3d
       0.0045143412 0.07012192 -0.04306381 0.061087698
0002e0 69 ad 6a 3d 6d 94 93 3d e1 29 9b 3d 60 fb 64 3c
       0.057294283 0.07206044 0.07576347 0.013975948
0002f0 e4 f2 47 ba 6e 7a 19 3b c5 c5 1b bc 0b 7b ba 3d
       -0.0007627441 0.002341892 -0.009507601 0.091055
000300 d8 6b b9 3d 97 50 b7 bd df 84 ef ba 2d c8 ae bb
       0.09053773 -0.08950918 -0.0018273852 -0.0053339214
000310 57 dc f4 3d 80 7b 8b 3d 4b 7d 19 bd e8 cb 34 3d
       0.11956089 0.06810665 -0.037473004 0.044139773
000320 2b ed 62 3e 14 07 a7 bc 36 fa 88 3d 74 68 5b 3e
       0.22160785 -0.020389117 0.06688349 0.21426564
000330 4f 62 e7 3c ef 7a 61 bb 25 65 57 bc cf 91 99 3c
       0.02824512 -0.003440555 -0.013146673 0.018746285
000340 a0 08 97 3d ab a0 c4 bd 37 4a a5 3b ba 9f 2c ba
       0.07374692 -0.096009575 0.0050442475 -0.00065850804
000350 72 30 0d bd 30 1b a4 3d be 09 11 3e 7d b3 c6 bd
       -0.03447003 0.08012998 0.14163873 -0.097022034
000360 05 aa 86 3b 7f ca e8 3c b0 e2 05 bd 82 1f 26 bd
       0.0041096234 0.02841687 -0.03268689 -0.040557392
000370 98 c1 a7 3a 75 86 04 bd b2 57 fb bd 89 7d cb bd
       0.0012798784 -0.03235479 -0.12272586 -0.09936053
000380 a9 64 6e 3d 9b 82 d2 3d 95 d4 28 3c be 7c 89 3d
       0.058201466 0.10278817 0.01030459 0.06713246
000390 4f 68 28 bd 6c ae 96 3d 1d 98 27 3b 9d 42 0d 3e
       -0.0411151 0.07357487 0.0025572844 0.13794942
0003a0 00 d6 77 3c 69 8b 0f be f0 02 4a bc 90 85 c8 bb
       0.015126705 -0.14018025 -0.012329802 -0.0061194375
0003b0 26 5a 2f 3c 90 92 0e be 9d 88 16 be 2e db e1 b9
       0.010702645 -0.13923097 -0.14700551 -0.00043078646
0003c0 94 03 32 3e 76 07 4e bd e7 d6 99 3d fa 6a 3e bb
       0.17384177 -0.050300084 0.075116925 -0.0029055462
0003d0 dc 13 e7 3d 13 5d 8c 3c f3 36 14 3e 29 ec bb 3c
       0.11283085 0.017134225 0.14474086 0.022939758
0003e0 55 4a 2d 3e 89 04 81 bd f6 a6 1c bd 29 2e 5a 3c
       0.16922887 -0.06299693 -0.038245164 0.0133166695
0003f0 82 4a ba 3d 66 9a f0 3b 2d e9 30 3e f4 5c 39 3b
       0.090962425 0.0073426245 0.1727645 0.0028284164

bias_ih f4 [384]
000000 76 76 98 bd de 84 72 3b 39 5d a2 3d 87 4f af 3d
       -0.0744447 0.0037005465 0.07927937 0.085600905
000010 66 c7 97 3d c5 0d 5a 3d 8e 80 c8 bd 52 01 77 3c
       0.07411079 0.053235788 -0.09790145 0.015075998
000020 b1 3e 71 3d bc 82 74 bb bb dc 7c bc e6 9f a7 bd
       0.058897678 -0.003730937 -0.015433486 -0.08184795
000030 39 20 a1 3d 04 48 7f bd 67 0c 0f bd a5 67 32 bd
       0.07867474 -0.06232454 -0.034923937 -0.043555874
000040 be f5 5c 3d 5b dd 0b bd b5 0f 61 3d 13 31 c5 bb
       0.053945296 -0.034146648 0.05494662 -0.006017813
000050 48 a8 7b 3d d2 96 80 3d a9 cd 83 3d 36 01 e5 3d
       0.061439782 0.06278767 0.06435711 0.111818716
000060 e9 45 31 3c 6c cc da 3c 5c 9f 2c 3a b4 6b 06 3d
       0.010819891 0.026708804 0.00065850257 0.032817557
000070 5a 79 cc bd 3e 3b 7d 3d 4f ae 3f bd 71 ab 45 3d
       -0.099840835 0.061824076 -0.046797093 0.048259202
000080 50 26 96 3d 0c 20 f3 bc c8 4e 5f bd 84 1d 84 bc
       0.07331526 -0.029678367 -0.05451849 -0.016127355
000090 a3 cb 31 3c b4 8f 8f 3d 90 40 b6 3d 57 9d 94 bc
       0.010851773 0.07009831 0.08899033 -0.018141432
0000a0 99 52 c9 3c cc d0 04 bd d4 e8 9a 3d bb 94 e6 3d
       0.024575518 -0.032425687 0.0756394 0.11258837
0000b0 6a a2 3b bc 41 7e 22 bd 74 d5 90 3d 0c 74 05 bd
       -0.011452297 -0.039671186 0.07071963 -0.032581374
0000c0 d1 7d 3a 3d 98 7c 05 3d 39 8f 3e 3d c3 f3 f7 3b
       0.045530144 0.032589525 0.046523307 0.0075669005
0000d0 4b 48 11 bd 66 c3 81 3d 3d d3 14 3d 06 92 36 bd
       -0.035469335 0.063360974 0.036334265 -0.044572853
0000e0 2f 9e c5 bc 51 2f e1 bd 8e 71 40 bd df 25 01 be
       -0.02412328 -0.10995353 -0.046983294 -0.12612103
0000f0 95 3c 82 bd ac f6 e2 3d 07 3c 6b 3b 13 30 a1 3d
       -0.06359211 0.11082205 0.0035893933 0.078704976
000100 4f 37 b3 3d 93 38 89 3c fb 7f 2e 3e 6f 50 34 bd
       0.08750784 0.01675061 0.17041008 -0.04402202
000110 b1 ef 9c 3d 0c fc 7a 3b 85 6b bb 3d 2b bf 7f bd
       0.07662905 0.0038297204 0.09151367 -0.06243817
000120 f9 98 c4 3c b7 b2 d1 bc 54 f9 11 bc 18 c6 16 3d
       0.023998724 -0.025597913 -0.008909542 0.03681001
000130 a8 90 62 bd 35 b6 88 bd 7f ff 21 bd 8e 52 14 3b
       -0.055313736 -0.06675378 -0.0395503 0.0022632214
000140 c4 93 a9 bd 0b f7 8e 3d b8 ce 83 bd 21 76 1a bd
       -0.08280137 0.069807135 -0.06435913 -0.037710313
000150 1f df 57 3d 37 6c d4 3c bb 83 c0 3d bd 83 01 3d
       0.05270302 0.025930507 0.094001256 0.031619776
000160 bb 52 b5 3d e6 f4 c8 3d 84 4d 5c bd 7c b0 9e 3d
       0.0885367 0.09812336 -0.053784862 0.077485055
000170 0f 0a b8 3d 6c 0f 3c bc 75 32 61 bd ae c8 a3 bd
       0.089862935 -0.011478286 -0.05497976 -0.07997261
000180 9d b3 1f 3d 8a 5b bb bd e1 c7 85 3d 9b ea 0b 3d
       0.038989652 -0.09148319 0.065322645 0.034159284
000190 98 34 1e 3d df f2 90 3d 62 d6 87 bd dc ce c1 3d
       0.038624376 0.07077574 -0.06632687 0.094632834
0001a0 58 01 64 3d a2 e1 8b bd be 3e b7 bd 5d 24 3f 3d
       0.055665344 -0.068301454 -0.08947514 0.046665538
0001b0 7f a7 4b bc f7 dd 86 bd 1a 8d 10 bd 5f 4e 28 3c
       -0.012430071 -0.06585305 -0.035290815 0.010272591
0001c0 f9 cc 1b bd a2 ff 5a 3d e7 30 b2 3d b0 37 fb bc
       -0.038037274 0.053466447 0.08700734 -0.030666202
0001d0 38 53 85 3d 98 d3 5b 3d eb 9f a4 bd d7 3b 6c bd
       0.06510013 0.05366859 -0.080383144 -0.057674255
0001e0 39 7f 88 3b 6c d1 a0 3d 5e b8 48 bd 24 e2 a8 bd
       0.0041655567 0.07852444 -0.04900395 -0.08246258
0001f0 af 3f 7d 3d 4f 19 a0 3d db fd 1a 3d 76 ce 99 bd
       0.06182831 0.07817327 0.03783975 -0.075100824
000200 d7 bb df 3d 37 f1 39 3d e4 55 20 be 5e dd 3c bd
       0.109244995 0.045396056 -0.15657765 -0.04610955
000210 a9 cc b3 3c a8 02 7b 3d ce bc 20 3d 1c 39 5d bd
       0.021948176 0.06128183 0.03924256 -0.054009542
000220 99 17 92 bd 57 01 89 3c e0 f2 ec bc a3 fc 89 3c
       -0.07133407 0.016724272 -0.028924406 0.0168441
000230 ff 4a d7 ba c3 6b 79 3a 58 a4 4f 3d d4 03 05 be
       -0.0016425549 0.0009514654 0.05069384 -0.12989742
000240 e3 45 aa bd ed bd 63 3c 67 4f 38 bc 7e d4 89 bd
       -0.08314111 0.013900262 -0.0112494 -0.06729983
000250 4a ba 09 3d 9a 1b 20 be 78 f6 5d bd a4 f9 9e bd
       0.033624925 -0.15635529 -0.05419013 -0.07762459
000260 d9 fb 12 bd 0e b6 1e 3d f1 71 74 bd 96 ed 96 3c
       -0.035884712 0.03874784 -0.059678975 0.018423837
000270 4b 2b 8c bc b8 74 d4 bd 9a 60 36 3c d6 79 59 bd
       -0.017110487 -0.10373825 0.01113143 -0.053094707
000280 67 68 14 be f8 83 af bd 6b 4b 0b bd 09 9f 81 bc
       -0.14492951 -0.08570093 -0.03400747 -0.015822904
000290 86 81 c7 bc f0 6d b7 bd a5 18 89 3d 9c be 72 3d
       -0.024353754 -0.08956516 0.06694154 0.05926381
0002a0 5e 98 a2 bc d1 25 b1 bd 22 68 2e bd 4f 76 ac bc
       -0.019848045 -0.08649791 -0.042579778 -0.021052508
0002b0 8b a5 21 3d 7b b9 f2 bd 26 35 68 bc 2b f0 d0 bd
       0.039464515 -0.11851784 -0.014172828 -0.102020584
0002c0 c5 a2 54 bd a4 45 86 3d 10 30 c6 bd 37 dc ad 3c
       -0.05191304 0.06556252 -0.09677136 0.02122317
0002d0 23 7e a0 3d 48 87 4d bd 2e 49 be 3d 6d ec 07 3b
       0.07836559 -0.050177842 0.09291302 0.0020740286
0002e0 4e 3f 97 bc aa 34 80 bd d6 00 1b bc 03 7a 10 3c
       -0.018462803 -0.06260045 -0.0094606485 0.008818152
0002f0 ff d2 83 bc b5 bf 37 bd af c3 fe bd 8a 8c ad bc
       -0.016091822 -0.04486056 -0.124396674 -0.021185178
000300 f7 f1 fb bd cd bd 84 bc 87 ef c1 bd f1 4b 3f 3d
       -0.123020105 -0.016203785 -0.09469514 0.046703283
000310 51 15 a6 bd 7e 9d fd bd 7a 9b 06 be 6c 99 4e bc
       -0.081095345 -0.12383555 -0.13145247 -0.012609821
000320 ec 0b 69 bd b5 0a 38 be a5 07 d0 3c 2d 02 8d 3d
       -0.056896135 -0.17972834 0.02539427 0.068851806
000330 58 9a a8 3d 18 02 c9 bc 62 c8 43 3b f8 7f 09 bd
       0.08232564 -0.024537131 0.0029874076 -0.033569306
000340 90 17 fd bd d4 46 b4 bd 5e bc 0c bd 8a 0c 75 3c
       -0.1235801 -0.08802572 -0.03435933 0.014956603
000350 31 72 cd bd 23 f3 24 bd 0f d0 73 bd d8 47 a5 bd
       -0.10031546 -0.040270936 -0.059524592 -0.08070344
000360 66 23 82 3b 57 03 30 3d 30 3b 45 3d ec da 07 bd
       0.003971505 0.042971935 0.04815215 -0.033167765
000370 c2 3e 2f bc 5b 4b 90 bd 54 52 a4 3c 5a 5d 4a bd
       -0.010696115 -0.07045623 0.020058788 -0.049405433
000380 68 fb 62 3b 41 82 79 bc fd 07 a1 3c de 2c 7e 3c
       0.0034634713 -0.015228809 0.01965713 0.015513627
000390 a8 46 ec bc 21 15 ea bd 3a b5 f4 3b eb 8e d7 3d
       -0.028842285 -0.11429811 0.007467893 0.10525306
0003a0 b9 29 33 be 23 12 08 be db ed 04 3d b6 90 c2 3d
       -0.17496385 -0.13288169 0.0324534 0.09500258
0003b0 f6 a4 09 be 19 bd 6a 3d e5 26 59 bd f3 65 b2 3c
       -0.13441834 0.057309244 -0.05301561 0.021777129
0003c0 20 b2 13 3d f8 69 0a bd 64 2b e0 bd 92 f9 08 bd
       0.036058545 -0.033792466 -0.10945776 -0.033441134
0003d0 02 03 44 be ab 7a 37 3d aa ea f2 bd 1a ab b8 bd
       -0.19141772 0.04479472 -0.11861165 -0.0901701
0003e0 01 9a 6a bd 00 1a 1a bb 25 e7 4e 3b 92 54 23 bc
       -0.057275776 -0.0023514032 0.0031570878 -0.009968894
0003f0 e3 24 2d bc d6 8f a3 bd 95 fd cb bd 3c d8 ae 3d
       -0.0105678765 -0.07986419 -0.09960476 0.08537337

bias_hh f4 [384]
000000 69 1f 84 bd d0 e7 80 bc 0e ea 97 3d 7d 89 8b bd
       -0.064513035 -0.015735537 0.07417689 -0.06813333
000010 c1 41 c8 3d a5 66 c4 bd be 2e 8b bd 71 8f 8a bd
       0.097781666 -0.095898904 -0.06796025 -0.067656405
000020 60 c6 a5 3d 89 81 44 bd d2 0d c1 3c 49 7f 9c 3c
       0.08094478 -0.047975097 0.02356616 0.019103663
000030 46 d3 94 3d e4 57 13 3c c2 07 01 bc af 3f be 3c
       0.0726686 0.008993123 -0.007875385 0.023223726
000040 d8 7e 45 bd ab 2f 35 3d c3 e8 ee 3c fa 90 20 bd
       -0.04821667 0.044234913 0.029163724 -0.03920076
000050 a9 db d5 3c 1c 4a 30 3d fe 84 a4 3d 0d a1 e9 3d
       0.026105719 0.043039426 0.08033179 0.11407671
000060 cf 7c 38 3c f8 89 ac bd 0f 15 e3 3b c1 70 65 bd
       0.011260225 -0.08424753 0.0069300006 -0.056015734
000070 71 42 ab bd a1 85 27 3d 32 d0 04 bd 61 c6 22 bc
       -0.08362282 0.040898923 -0.032425113 -0.0099349925
000080 53 53 a9 3d b9 88 93 3d 24 a1 38 bd b4 dd 28 bd
       0.08267846 0.07203812 -0.04507555 -0.041227058
000090 ba c0 18 bd 74 0a d0 bc 4b 02 c1 3d 4e ab fb bd
       -0.037293173 -0.02539561 0.094242655 -0.12288533
0000a0 bc 1f 1f 3d 69 41 8c 3d f1 5f c2 3d 38 8e 2a bd
       0.038848624 0.068484135 0.094909556 -0.041639537
0000b0 62 54 34 bd 60 0c 38 bd 8d b0 33 bd 42 a6 ba 3d
       -0.044025786 -0.044933677 -0.043869544 0.091137424
0000c0 8d 1b 76 3d ac eb c7 bd ec cb 8f bc 8d a7 60 3c
       0.06008487 -0.09761748 -0.017553292 0.013711822
0000d0 43 a7 1c bb b6 8a 32 bc 72 66 65 3c 7e 66 ca bc
       -0.0023903407 -0.010897329 0.014001476 -0.024707075
0000e0 bd c5 b8 bc c1 05 b7 bd d9 14 f0 bc 01 af fb bc
       -0.022555226 -0.08936644 -0.029306816 -0.030723097
0000f0 08 02 dd 3d a1 7e 85 3d ee 0d 81 3c 92 7b 9d 3d
       0.10791403 0.06518293 0.015753713 0.07689585
000100 7f e5 9c 3d a6 d8 50 bd 85 05 da 3c 14 62 49 3b
       0.076609604 -0.050987862 0.02661396 0.0030728625
000110 cd 65 75 bd 65 35 03 bd 9f 24 4f 3d 1f 5f 91 3d
       -0.059911538 -0.032033343 0.050572034 0.07098221
000120 d8 26 08 3e 37 cb b2 3a 5b b8 d6 3d 3e 84 b3 bd
       0.13296068 0.0013640885 0.10484382 -0.087654576
000130 46 ff 60 bd 15 5e 7e bd c9 65 38 bc ea 7a 80 3a
       -0.054930948 -0.062101442 -0.011254736 0.0009802256
000140 15 1e bf bd 51 04 a1 bd c7 14 30 3c 00 15 ed 3c
       -0.093319096 -0.078621514 0.010747141 0.028940678
000150 e7 ab f0 bc 5a d3 a1 bd 08 1c 85 3d 4a b3 70 bd
       -0.029378844 -0.0790164 0.06499487 -0.058764733
000160 13 53 98 3d f4 44 8e bc fe d0 24 bd 2d bc 41 3c
       0.0743772 -0.017366864 -0.040238373 0.01182465
000170 6d 69 75 3c 40 c9 b2 b8 83 66 b2 3d 69 ed d4 bd
       0.014978749 -8.525187e-05 0.08710959 -0.10396845
000180 2b ba aa bc 4d 6d 50 3c d5 ef 27 3d 26 a2 83 bd
       -0.020840725 0.012721372 0.041000206 -0.06427412
000190 56 9f cd bc 61 82 c5 bb af 8f c5 3c 86 bc ef 3d
       -0.025100391 -0.0060275053 0.024116365 0.1170588
0001a0 83 1d 37 3d 7a c9 6e bd c9 8a 0a bc eb 09 da 3c
       0.04470588 -0.05829761 -0.0084559405 0.026616057
0001b0 05 01 85 bd a4 7d a8 3d 9f cc 78 3d 81 6d 12 3c
       -0.06494335 0.08227089 0.060742017 0.008937241
0001c0 ce 98 e9 3d 6b 54 7f 3c c0 92 39 bd f0 71 fb 3c
       0.11406098 0.015584092 -0.045305967 0.030693978
0001d0 f7 89 9a bc c1 44 9d bd 15 3b 81 bd 2c bb a2 3c
       -0.018864615 -0.076791294 -0.06310097 0.019864641
0001e0 92 a1 85 bc 35 e5 2d 3e 09 1e 52 3d b0 ad 06 bd
       -0.016312394 0.16981967 0.051298175 -0.032880485
0001f0 a0 2f 41 bd f6 5f c2 3d 84 85 4c bd 56 4b b8 bc
       -0.04716456 0.09490959 -0.049932018 -0.02249686
000200 e0 14 88 3d 5f 1e f4 bd 4c a2 8e bd ce 3b 6f 3d
       0.066446066 -0.11919855 -0.069645494 0.058406644
000210 b0 9b d0 3d 57 94 21 3d d5 23 83 3d 2b d8 fd 3c
       0.10185945 0.03944811 0.06403319 0.030986866
000220 70 aa ec bc f0 ff e2 bd c1 55 9f bd 5f e8 89 bc
       -0.028889865 -0.110839725 -0.07780028 -0.016834436
000230 5b b8 ac bd c6 a5 09 bc 38 9c 84 bd fd 19 7c bd
       -0.084336005 -0.00840134 -0.06475109 -0.06154822
000240 5f 42 71 bd f5 57 96 3c 54 75 62 3d 9c c4 c8 bd
       -0.058901187 0.018352488 0.055287674 -0.09803125
000250 ce dc 9e 3d 0d 27 0c be 49 56 27 bd 57 b7 c8 bd
       0.07756959 -0.13686772 -0.040853772 -0.09800594
000260 ce 31 2a 3b a2 bd 8e 3b 8e 71 96 bb d7 e8 18 3d
       0.0025969627 0.004356102 -0.0045911735 0.03733143
000270 5f 59 c3 bc 6e 34 b7 3c 3b e1 c3 bd c7 2a cd bd
       -0.023846326 0.022363868 -0.09564444 -0.10017925
000280 d8 d3 2a be b6 d6 33 bd ca 0d d0 3a 32 c3 c8 bc
       -0.16682374 -0.043905936 0.001587325 -0.024507139
000290 91 d4 9f bd cf 62 91 bd 13 b4 c8 bc a1 38 d4 bd
       -0.07804216 -0.07098924 -0.024499929 -0.103623636
0002a0 cb 45 b3 3d 54 04 e6 bc 9c 90 9a 3c ec cd 8d bd
       0.08753546 -0.028078236 0.018867783 -0.06924042
0002b0 a7 29 b4 3d bf e0 4c bc 42 ec 0f bb f0 00 1c be
       0.08797007 -0.0125047555 -0.002196089 -0.15234733
0002c0 8b bb a2 3c ce 3d 80 bd e8 f3 85 bc 7d 45 9e bd
       0.019864818 -0.06261788 -0.016351655 -0.077280976
0002d0 6b bd be 3d 5d 79 ca bd 5b ed 8d 3d 43 9e 82 bd
       0.09313472 -0.098864295 0.069300376 -0.06377842
0002e0 67 25 69 bd d2 66 09 be 29 93 2e 3c 7b a1 43 3d
       -0.056920435 -0.13418129 0.010655203 0.04776142
0002f0 92 00 e1 bd 43 fd a9 3d 37 5a 0b bd 66 38 be 3c
       -0.10986437 0.08300259 -0.034021582 0.023220252
000300 22 ea a0 bd 03 4e 0f be 49 2b 49 be c1 d2 f1 bd
       -0.07857157 -0.13994603 -0.19645418 -0.11807776
000310 74 d7 87 bd ce 7b 8b bd 3f 74 28 be ae 9b 00 be
       -0.06632891 -0.06810723 -0.16450594 -0.12559387
000320 e7 f4 f1 3c 25 8a 90 bd 67 ec a3 bd 5d 29 8b bc
       0.029535724 -0.07057599 -0.080040745 -0.016987497
000330 ea dd 53 bd 11 e9 8b bd 37 d6 0a be 39 ed 08 3d
       -0.051725306 -0.06831563 -0.13558279 0.03342936
000340 c4 dd 62 bb 5c a7 92 bd fb 8b ee bd eb 5c 28 bc
       -0.0034617046 -0.071608275 -0.11647793 -0.01027606
000350 50 fb 2d bd a5 e7 28 bd 86 6a 02 be 8e 7d fd bb
       -0.042476 -0.04123654 -0.12735948 -0.0077359146
000360 24 a0 b9 bd 7e 82 0e 3d da f9 27 3d ea 4a f3 bb
       -0.090637475 0.034792416 0.04100976 -0.007424702
000370 0f e3 37 3d 36 a6 53 bd 3e e8 0f bc b1 12 73 3d
       0.044894274 -0.051672183 -0.008783398 0.059343997
000380 0e 59 8a 3c d4 fe 12 bc 60 ec 09 be d3 c0 95 3d
       0.016888168 -0.008971889 -0.13469076 0.07312169
000390 d8 41 02 be b3 49 34 bd 16 54 66 3d 34 c1 0c bd
       -0.1272043 -0.044015598 0.056232534 -0.03436394
0003a0 8d 95 37 bb 68 98 94 b9 57 24 de bd 50 51 df bc
       -0.0028012723 -0.0002834231 -0.10846775 -0.027260453
0003b0 50 a1 0e be 21 13 9b bc c2 7a 91 bd 1d 91 1e 3d
       -0.13928723 -0.01893002 -0.07103492 0.03871261
0003c0 73 0d 09 3c c8 b8 9e bd 0e 8f 8c 3b 2a 06 81 bd
       0.008365023 -0.07750088 0.0042895144 -0.06300004
0003d0 51 23 51 be ea 5a be bd 46 83 6c bd 87 cb b2 bc
       -0.20423628 -0.09294684 -0.05774238 -0.021825565
0003e0 01 ca 2f bc 1e 2d 25 be 4b 33 b1 3d 25 f6 a5 bd
       -0.010729314 -0.16130492 0.086523615 -0.08103589
0003f0 9e b6 5c 3d 5d e0 b3 bd 8c 8a 32 3d b8 0b f0 3d
       0.053885095 -0.08783028 0.04358916 0.11720985

weight f4 [128, 128]
000000 d8 75 7d 3b ef e2 26 bd d6 d2 89 bd 1f 43 0d 3e
       0.0038674977 -0.040743764 -0.06729667 0.13795136
000010 ff 46 05 3d f8 6f 25 3d f4 58 2b 3a a8 69 92 3d
       0.03253841 0.040389985 0.00065363874 0.071490586
000020 8b 63 a2 3d d1 72 cb 3c 5b 90 8e 3d 1e 80 f4 bd
       0.079291426 0.024835022 0.06961127 -0.11938499
000030 84 9d bb 3c cb 65 01 be 44 9c 1c bd e0 5f c0 3d
       0.022902258 -0.12636487 -0.038234964 0.09393287
000040 e8 c7 88 bc 4a 54 94 bd c0 9f 73 3d ea d4 cc 3c
       -0.016696885 -0.07242639 0.05947852 0.02500387
000050 7b ad 8b bd 74 72 81 bd b3 05 91 bc 9c 5a cb bc
       -0.06820198 -0.06320658 -0.017702913 -0.02482348
000060 78 f6 25 3d cd c2 cd bc a8 39 0e 3e e0 f1 9b bc
       0.040518254 -0.025117302 0.13889182 -0.019036233
000070 5e 52 b3 3d 33 d1 fc 3d 62 f7 93 3d ce f0 eb bd
       0.08755945 0.12344589 0.07224919 -0.11520539
000080 fb a3 b5 3d b5 e3 2b be 85 bc 86 3d f6 58 85 3c
       0.088691674 -0.16786082 0.06578926 0.016277771
000090 8c 19 f7 bc 2e de a0 bd 67 62 cf bc 7c e6 74 bc
       -0.030163549 -0.078548774 -0.025315477 -0.01494753
0000a0 b2 eb a1 3d 4b 0a 06 3d ff 38 cd 3c 29 27 8e 3d
       0.079062834 0.03272466 0.025051592 0.06941063
0000b0 b7 4d e6 3b 7c 13 1e 3d 17 0e b6 bc 44 a5 1b bc
       0.0070283073 0.0385928 -0.022223515 -0.009499852
0000c0 ca 24 02 3e dc 97 02 3e 9f 0d 97 3b c3 e5 9e bd
       0.12709346 0.12753242 0.004609778 -0.07758667
0000d0 71 51 93 3d 98 a2 c0 3c 95 6a b6 bd fa df a0 bc
       0.07193268 0.02351503 -0.08907048 -0.01963805
0000e0 5f c0 e5 bd 93 fa 52 bd 5f 05 23 3c 3f 9e 8f 3d
       -0.112183325 -0.051508497 0.009950011 0.07012605
0000f0 6e fd f0 3c c7 07 36 3d 19 b2 a0 3d 8e 8d 9b bd
       0.02941772 0.04444101 0.078464694 -0.07595359
000100 ae 7f 87 bc a0 80 9a bd e3 5c 97 3c 4b e5 f8 3c
       -0.016540375 -0.075440645 0.018476909 0.030382773
000110 01 68 89 3d c9 92 0b bc 35 52 ee 3c b4 fb b6 3d
       0.0670929 -0.008518883 0.029091934 0.08934727
000120 8d 6e d2 bd 85 40 91 bd 45 02 84 3d 59 bd b9 bd
       -0.10274992 -0.07092384 0.064457454 -0.09069318
000130 11 03 f3 3d 31 c0 3c 3d c1 e0 fd 3a cb eb ce bc
       0.11865819 0.046081726 0.001936935 -0.02525892
000140 f5 f5 18 bd c9 68 38 3d 43 41 29 3d 0f 88 e0 bd
       -0.037343938 0.045021806 0.041322004 -0.10963451
000150 b6 6e da 3d b7 f7 2b 3d 2b 15 00 bd f4 03 02 bd
       0.10665648 0.041984286 -0.031270187 -0.03174205
000160 19 10 bc 3d e7 46 66 bc c3 fc 1d 3c ee c7 25 be
       0.09182758 -0.01405499 0.009642783 -0.16189548
000170 1c 05 15 3b 34 d6 ab 3c 33 4a 0e 3e 46 52 43 3d
       0.002273864 0.020976163 0.13895492 0.047685884
000180 f1 05 06 bd 8c 7e 91 bd e0 45 fa 3c 21 40 2c bc
       -0.03272051 -0.07104215 0.030550897 -0.010513336
000190 2f b3 42 3c 88 e0 e5 3d cf 76 33 3c 14 9d d7 bd
       0.011883541 0.112244666 0.010953619 -0.10528007
0001a0 69 6e b2 3d aa 19 e9 3b 9c 07 9a bc 5f 98 b8 3c
       0.08712465 0.007113655 -0.018802457 0.022533594
0001b0 30 2f c8 3d ce cc 88 3b 42 e5 8e 3c 1d bd 10 bd
       0.09774625 0.0041748052 0.017443303 -0.035336602
0001c0 36 26 87 bd 84 ce b0 3b 3e f2 03 3d ef 36 a8 3d
       -0.06599085 0.0053957123 0.032213442 0.08213603
0001d0 71 4a c9 3c 4c a6 01 be 55 c1 92 3d 9a d2 9e bc
       0.02457163 -0.12661093 0.071657814 -0.019387532
0001e0 9f 3f 3c bd 04 e5 0c 3c 47 d8 b8 bd c1 1b e4 bd
       -0.04595911 0.008599523 -0.09025627 -0.11138106
0001f0 23 33 7a bd 5f be 93 bd 43 52 a7 3c 6f cb 83 3d
       -0.061083924 -0.07214045 0.020424968 0.06435286
000200 80 48 54 3d c7 b0 8e 3d d9 53 f3 bd f6 9f 1a bd
       0.051826954 0.06967311 -0.11881227 -0.037750207
000210 b7 95 a5 bd 41 a5 7e 3d 02 8c 96 3b c3 a3 24 3c
       -0.080851965 0.062169317 0.004594327 0.010048809
000220 21 d1 e6 3b ec 92 fe bc ff a0 b7 bd f2 67 6a 3d
       0.007043973 -0.031075917 -0.089662544 0.057228036
000230 1c 4d 84 bd 90 4a fa bd 73 24 c3 3d e4 6b f5 3c
       -0.0646002 -0.12221253 0.095284365 0.029958673
000240 f3 a3 12 3d 5b 55 23 bc da fc 7b bd 03 c1 bb bc
       0.035800885 -0.009969081 -0.061520435 -0.022919184
000250 43 8e a2 bd f2 a5 06 3d c9 ae 30 bc 3e 07 e4 3a
       -0.079372905 0.0328731 -0.0107838595 0.0017397178
000260 25 e6 18 3d bb 82 50 3d 09 ba 00 bd 6e 54 9d 3d
       0.037328858 0.050905924 -0.031427417 0.07682119
000270 cb 65 c0 bd e7 23 9a bc 3a f6 09 be c2 8f cb 3c
       -0.093944155 -0.018815948 -0.13472834 0.024848823
000280 f1 a4 61 3d 62 df 9c 3c 91 a4 2c 3c 2a 0d ab 3c
       0.05508894 0.019149486 0.010537283 0.0208803
000290 3a 4b ae bd 0c 9d d4 3c a6 42 59 bd 1d bf 1c 3b
       -0.08510442 0.025953792 -0.053042077 0.0023917623
0002a0 e5 ba 68 3d 21 c3 a4 3c 99 13 f4 3d d8 41 16 bd
       0.05681886 0.020112576 0.119178005 -0.036683887
0002b0 41 c5 28 bc ed e6 c3 bc 3d 5c 7d bc fa 59 b5 bd
       -0.010300935 -0.023913825 -0.015463886 -0.08855052
0002c0 b9 c8 1e bc f0 d2 4f bc f0 14 04 3d cb c0 d3 bd
       -0.009691411 -0.012684569 0.03224653 -0.10339507
0002d0 3a 19 80 bd da e0 5a bc a7 37 7a bc ad bf 86 bd
       -0.062548116 -0.013359273 -0.015272058 -0.06579528
0002e0 67 2a 87 3d 68 b7 de 3d 53 18 af 3c 0c 0a 96 3d
       0.065998845 0.10874826 0.021373903 0.07326135
0002f0 b9 e5 10 be ce 14 c3 3d 23 26 ea bc 11 32 04 bd
       -0.14150132 0.095254526 -0.028582638 -0.03227431
000300 68 37 0d 3e c4 f4 aa bd 92 92 dc bd 6c 0f 15 be
       0.13790667 -0.083474666 -0.107701436 -0.14556664
000310 9f 1b f5 3d 5c d1 98 3d 19 4d e4 3c c9 a6 74 3d
       0.11968159 0.07461807 0.027868794 0.05972937
000320 d0 73 91 3d 0c 5a 46 bd 6e 6f 72 3d e1 79 3a bd
       0.071021676 -0.04842572 0.0591883 -0.04552639
000330 ca 8d c9 3d 98 42 00 bc 31 ea 45 3d cc 6f 25 3d
       0.09841497 -0.007828377 0.048319045 0.04038982
000340 8e 59 7d 3c e8 09 5d bc cf 75 81 bd 36 56 51 3d
       0.015463246 -0.013491131 -0.06321298 0.051107608
000350 a5 0b 0e 3d d1 54 73 3d b2 95 11 3c 43 19 52 3d
       0.034679074 0.05940706 0.008885788 0.051293623
000360 bf 96 d8 3d d6 dc 2d 3d 6d 5a eb bd 00 88 a1 3c
       0.105756275 0.042446934 -0.11491857 0.01971817
000370 7e 1a fd 3c 9a f3 cb 3d a3 5b a3 bd ce 52 51 3d
       0.030896422 0.09958573 -0.07976463 0.05110436
000380 3b 2f b5 3b 52 d0 b6 bd 3e 10 62 bd 8a 3a 9c 3c
       0.005529312 -0.08926453 -0.05519127 0.019070882
000390 ee 12 34 3d 12 85 08 3d 5f e0 26 3c a3 ec 32 36
       0.043963365 0.03333003 0.01018533 2.6661808e-06
0003a0 c8 16 7b 3d 6a 9a b7 3c c7 9e 6c 3d d1 1b 90 3c
       0.061301023 0.022412498 0.05776861 0.017591389
0003b0 48 a8 94 3d 79 c5 d9 3c df 37 9c bd 84 ed 19 bd
       0.072586596 0.02658342 -0.07627844 -0.03758003
0003c0 ca a4 0e bd 05 50 0d 3c 24 cc 9c 3d 6c 98 29 bd
       -0.034825124 0.008625035 0.07656124 -0.041405126
0003d0 95 3f 81 3d df 7d 8c 3d 95 00 c2 3d 3b 91 81 3c
       0.063109554 0.068599455 0.09472767 0.015816322
0003e0 59 0b 1a bd 1c fd d7 bd e7 31 65 3d 02 75 03 be
       -0.03760848 -0.10546324 0.055955794 -0.12837604
0003f0 37 e9 b2 bd 56 6c aa bb e4 56 8e 3d e6 81 53 3b
       -0.087358885 -0.005200903 0.06950167 0.003227347

bias f4 [128]
000000 03 73 4c bd f4 22 e6 bd 9a 92 9a bd 69 b9 bf 3c
       -0.04991437 -0.112371355 -0.07547493 0.02340384
000010 df 91 09 be 14 38 7e 3c 4d d1 aa 3c 36 9c 62 3d
       -0.13434552 0.0155163 0.020851756 0.055324756
000020 ce e0 3b bd 1a ab 96 bc c1 77 bb bd cf 71 25 bc
       -0.045868687 -0.018392134 -0.091537006 -0.010097935
000030 e3 5d b2 bc 97 1e 91 3c 37 e3 ab bd 3b 55 a4 bd
       -0.021773284 0.017714782 -0.08392947 -0.08024069
000040 79 63 9f bd 92 54 10 bd d9 08 08 3c 4c a7 38 bd
       -0.07782645 -0.035236903 0.008302891 -0.04508142
000050 32 1d 9f bd 9a fc c7 3c a4 bc 01 be 80 93 64 bd
       -0.077692404 0.024412442 -0.12669617 -0.05580473
000060 4e 30 53 bd 02 96 30 3d 29 8b f0 3a c2 70 ae bd
       -0.05155974 0.04311181 0.001835202 -0.085176006
000070 3c 2c b1 3d ee d5 b0 bc 4b 22 aa bd eb 6d a3 bc
       0.08651015 -0.021586385 -0.08307322 -0.019949874
000080 cc 19 bd bd 01 bb 2b 3d c3 35 7f bd 4c 07 e8 bc
       -0.09233436 0.041926388 -0.06230713 -0.028323792
000090 ec e1 8d 3c 4e a4 84 bb 0b 94 8e bc cf 3f ac 3c
       0.017319642 -0.004047907 -0.017404577 0.02102652
0000a0 cb 82 13 bd ed 7d c6 bc 70 84 3d bd 3d 36 14 bc
       -0.036013406 -0.024229968 -0.04626888 -0.009046135
0000b0 7c d9 0a 3d 8c 03 1b 3d 19 4e 6a bd 0b c4 2f 3d
       0.033898816 0.03784518 -0.057203386 0.04291157
0000c0 47 14 18 bd 5c 0f a2 bd 9c 01 86 3c e1 56 97 3c
       -0.037128713 -0.07913086 0.01635819 0.018474044
0000d0 90 1f 1a 3d f3 bc 8b bc 6b c5 b2 bd 18 6f 53 bd
       0.037627757 -0.017057871 -0.08729061 -0.05161962
0000e0 e2 5c 54 bd 2c c1 e5 bc f6 44 1d bd ba 4b 0e 3d
       -0.051846392 -0.028046213 -0.038395844 0.034740187
0000f0 94 f7 58 bd e7 3e e2 3c f1 e9 ae bd 4a b4 ac bc
       -0.052970484 0.027617885 -0.085407145 -0.021082062
000100 09 46 f2 3c 1d 7d e6 3c ef 2c 71 3d 60 c6 8d bb
       0.029574411 0.02813583 0.058880743 -0.0043266267
000110 15 de 87 bd 07 a1 da bd 19 9a ee bd 30 3d ed bc
       -0.06634156 -0.10675245 -0.116504855 -0.02895984
000120 da a0 d0 bc 7a 3b c1 3c 46 5c 2d 3d 19 1c f5 bd
       -0.025467325 0.023587931 0.042324327 -0.1196825
000130 9e 68 d7 3c 16 c6 1d 3d f4 2a 37 3d ce fc a5 bc
       0.026295003 0.038518988 0.044718698 -0.020262148
000140 0a ef 5f 3d fd f4 97 bd ab 98 89 bd aa 77 09 bd
       0.054671325 -0.07419775 -0.06718572 -0.033561386
000150 c9 21 a3 bd dd fb 42 3c 17 b8 06 3c dd 98 3c bc
       -0.079654284 0.011900869 0.008222601 -0.011511055
000160 8a 06 b9 3d e7 22 21 3c 5c 92 da bc f3 05 6e 3d
       0.0903445 0.0098349815 -0.026681118 0.058111142
000170 fb d6 3a 3d 2f 3a 19 3d da 05 a8 3d cb ef b9 bd
       0.045615178 0.037409004 0.08204241 -0.0907894
000180 a2 0d a6 bd 61 a9 92 bd e1 33 7a bd fa 59 03 3d
       -0.08108069 -0.07161213 -0.06108463 0.03206823
000190 0d 96 4b 3b 71 85 81 bd fc b1 9f bd fa 1a 3e bd
       0.003106478 -0.0632428 -0.0779762 -0.046412446
0001a0 26 fb 81 3d db ab 90 bd 82 28 96 3c 40 20 5b 3c
       0.06346731 -0.07064029 0.018329863 0.013374388
0001b0 2c 0d 98 bd fe ab 0e 3d 3f 64 ee bb 0d f4 a1 3c
       -0.07424387 0.034831993 -0.007275134 0.019769693
0001c0 25 54 d4 bd 44 17 58 bb 4e c6 51 bd 3e 01 cf bd
       -0.10367612 -0.0032972852 -0.05121451 -0.10107659
0001d0 1b f0 10 bd 0e 10 d5 bd a5 e2 a5 bc 3a 41 cb 3c
       -0.035385232 -0.10403453 -0.020249674 0.024811376
0001e0 ea d0 15 b8 64 02 88 bb aa 07 1a 3d 27 1f 98 3d
       -3.5718935e-05 -0.0041506756 0.037604965 0.07427817
0001f0 58 a2 90 bc 75 55 04 3d 36 0e a9 bd e3 c9 bd bd
       -0.017655537 0.03230806 -0.08254664 -0.092670225

weight f4 [128, 128]
000000 ba e0 3d 3d 4c 9c 54 3b f5 4c 1b 3e c7 a3 84 3d
       0.046356894 0.0032441793 0.15166076 0.064765505
000010 07 00 97 3c 36 82 92 bd 0e 94 4f bd 3a 2b e7 bd
       0.01843263 -0.07153742 -0.050678305 -0.11287542
000020 2d 5c 61 bd 60 3c df 3d 4d 04 cd bd f4 1a 37 3d
       -0.055019546 0.109001875 -0.10010586 0.04470344
000030 47 5d 0b 3c 97 4f 3e 3c 9c 71 21 bd 84 61 01 bc
       0.008506126 0.011615655 -0.039414987 -0.007896785
000040 dc 63 53 3b 49 dd 4d bb 70 74 c1 3c 2f ce 16 3d
       0.0032255566 -0.0031412414 0.023615092 0.036817726
000050 48 39 89 3d f7 d3 08 be fa 81 78 3d de 39 16 bd
       0.06700379 -0.13362108 0.06067083 -0.03667628
000060 18 65 a4 bd ef 8c 6e 3d e0 b8 8c 3d 4a 28 cb bd
       -0.080270946 0.058239873 0.068711996 -0.09919794
000070 b2 9f a1 bd 42 06 b3 3d 04 2f 84 bc 9f 0e bc bd
       -0.078917876 0.08741428 -0.0161357 -0.09182476
000080 2c df d0 bb 25 3c c7 3c 35 e3 ab 3d a7 09 bc 3d
       -0.0063742604 0.024320671 0.08392946 0.091815285
000090 b2 d0 11 bd 77 1c 42 3d c6 71 59 3c 73 68 58 bd
       -0.035599418 0.047390427 0.013271755 -0.052833986
0000a0 98 6e f0 3c 20 e5 01 bc 49 e8 47 3d 7f 32 c1 3d
       0.02934961 -0.007928163 0.04880551 0.094334595
0000b0 5f ef 78 3d f8 8d 27 3b 17 59 e3 3c f1 91 ae bd
       0.060775157 0.0025566798 0.027752442 -0.0852393
0000c0 9e 2a 0f 3e 8b db 5f 3d 40 b8 4d bd 10 ac b0 bd
       0.13981101 0.054652732 -0.050224543 -0.08626568
0000d0 a1 45 89 bd 1a 8d 60 3c ef 15 68 3d 9c b8 0f 3e
       -0.06702734 0.013705516 0.056661543 0.14035267
0000e0 6f d0 88 bc 7c c7 e9 bd af 4b f9 bd 60 4c 0c 3e
       -0.016700951 -0.11415002 -0.121726386 0.1370101
0000f0 66 e1 cf 3d be 50 81 3d 3e 9f 3f 3d c4 7f bf 3d
       0.10150413 0.063142285 0.046782725 0.09350541
000100 4d d1 af 3d 4b 1a 3e bd 63 c8 bb 3d ff e2 20 be
       0.08584843 -0.046411794 0.0916908 -0.15711592
000110 da c1 00 3e 68 78 4c 3d be e2 21 3e c5 b7 17 3e
       0.12573949 0.049919516 0.15809152 0.14816196
000120 88 a0 91 3d 63 cc a7 ba 13 f9 18 3d fa 6f a4 3d
       0.07110697 -0.0012802001 0.03734691 0.0802917
000130 93 b1 43 bd 4d 2a c4 bc 64 45 b6 3d 86 cb e9 3b
       -0.04777677 -0.023945952 0.08899954 0.0071348576
000140 e2 36 44 bc 9e 0d 49 3d e6 0c b1 bd e6 ef e8 3d
       -0.011975976 0.049085252 -0.08645038 0.11373882
000150 af e9 37 bb 3a ec dd 3c 5e f6 2a 3d 07 7a f9 ba
       -0.002806287 0.02709018 0.04173886 -0.0019033559
000160 9f 79 a0 bd 41 2a bd 3d 56 8d 6e 3d 11 b3 c7 3a
       -0.078356974 0.09236575 0.058240257 0.0015235861
000170 f5 20 00 3e 54 dd 90 bd f7 9f 6e 3d 31 4f ec bb
       0.12512572 -0.07073465 0.058258023 -0.007211589
000180 e0 d7 58 bd 9f 4f 0c 3e 02 e6 21 bc e3 11 21 be
       -0.05294025 0.13702248 -0.009881498 -0.1572948
000190 10 28 f4 bd 5c 86 a1 bb 58 6b 91 3d e8 28 6f bd
       -0.11921704 -0.004929347 0.07100552 -0.05838862
0001a0 71 64 43 3c 7a 00 eb bc 1b 70 4c 3d 78 78 54 3c
       0.011925803 -0.02868675 0.0499116 0.012968175
0001b0 4b 4e 4f bc 41 3d 22 3d 72 62 e8 3d 7f c5 a7 3d
       -0.012652944 0.039609198 0.11346902 0.08191966
0001c0 42 00 16 3d 45 cd fd bd 90 4d da 3c a4 ba ad 3d
       0.03662134 -0.12392668 0.026648313 0.084828645
0001d0 6b ae 26 3b 01 7c 88 bd 23 b6 ed 3d 45 cb d8 3d
       0.002543355 -0.06664277 0.116070054 0.105856456
0001e0 41 3e b4 3d 1e 10 a5 3d 3b be 57 3d a1 3d aa bd
       0.088009365 0.08059715 0.052671652 -0.08312536
0001f0 a4 e1 8c 3d 62 56 f8 3d a8 7f af 3d fc 52 0a be
       0.06878975 0.12125851 0.0856927 -0.13508219
000200 95 ae 33 bd 85 70 c6 3d b1 9e aa 3d 28 dc e5 3c
       -0.043867666 0.0968943 0.08331049 0.02805908
000210 52 98 14 bd 88 de f7 bc 7e 42 78 3b ae 13 2c bd
       -0.036278076 -0.030257478 0.003788143 -0.042010956
000220 ac 75 14 bd 88 52 37 3c f0 41 cd bd 1d 55 34 bd
       -0.036245033 0.011189111 -0.10022342 -0.044026483
000230 fb 01 d5 3d 93 ba 9d 3d b1 cf 69 bd 38 e9 85 bc
       0.10400768 0.07701602 -0.057082836 -0.016346559
000240 49 e8 ac bd 39 e4 a2 bd 3e ee 89 bd e4 13 d3 bc
       -0.084427424 -0.07953686 -0.06734894 -0.02576632
000250 45 cb 9e bd 7f f9 29 3d 13 a6 15 bd 91 5b 8b 3d
       -0.07753614 0.041497704 -0.036535334 0.06804574
000260 72 1c 86 3c df ef 64 3c f9 cd 60 bd 61 5c 0c 3c
       0.016370986 0.013973205 -0.05488393 0.008566947
000270 20 03 a7 bd bf 7b bd bd 72 44 20 bd db 27 d5 bd
       -0.08154893 -0.09252118 -0.039127775 -0.104079925
000280 7d 96 6b bd ec ad 97 3d e1 f4 07 3d 7b 69 9a 3d
       -0.057516564 0.0740622 0.03319252 0.0753965
000290 a1 9f 73 3d c4 5d a2 3d 85 a0 e1 3d 86 05 7f 3d
       0.059478406 0.079280406 0.11016945 0.062261127
0002a0 cd e6 e4 3d 0c e7 36 bd 02 3e b7 3d a8 1d b5 bd
       0.11176834 -0.044653937 0.08947374 -0.08843547
0002b0 39 9d b2 3a 85 26 c5 3d f4 25 8e 3d 80 41 12 bd
       0.0013627178 0.09626488 0.06940833 -0.035706997
0002c0 cf 7d a5 bd d1 56 9b bd fe b2 90 bd 77 23 24 3d
       -0.08080637 -0.07584918 -0.0706539 0.040072884
0002d0 74 2b 3e bd dd 3f 95 3d c4 07 db bd a2 bd 93 3d
       -0.04642816 0.072875716 -0.106948406 0.07213904
0002e0 5a fd a4 3d c2 56 b5 bc 99 57 2a bd c8 d4 64 bc
       0.080561355 -0.022136096 -0.041587446 -0.013966747
0002f0 43 fc 74 bd 49 56 a7 bc d1 4c b2 3d c2 f4 de 3c
       -0.059810888 -0.020426886 0.08706058 0.027216319
000300 ff 13 d3 3d f9 05 10 3d e3 e0 23 3d b0 78 87 bd
       0.10306548 0.035161946 0.04000939 -0.06614816
000310 ec d4 45 bd 1e 01 16 bd 18 3c a7 3d ad 54 e3 3c
       -0.04829876 -0.03662216 0.08165759 0.027750337
000320 12 f2 e0 3d 3e 2c 40 3d 75 41 d2 3c 76 99 31 3d
       0.10983671 0.046917193 0.025665978 0.043359242
000330 c7 b8 38 3c ac 23 3a 3c 99 2b aa 3d ec 8d 53 3d
       0.011274523 0.011361044 0.08309097 0.05164902
000340 d7 56 bb bc 1a 25 cf 3d 87 d4 c2 bd 3e 72 04 3c
       -0.022868557 0.101144984 -0.095131926 0.008083878
000350 55 88 21 bd 19 c6 18 bc 78 86 38 3b 7e 0a d2 3c
       -0.039436657 -0.009324574 0.0028156321 0.025639769
000360 fe 64 a8 3d 8d fc 7f bd ea f0 af 3d e1 66 98 3c
       0.08222388 -0.06249671 0.085908726 0.018603744
000370 c1 5b 57 bd 68 f4 73 3d e9 5c 2f 3d 57 e1 8b bd
       -0.052577738 0.059559256 0.042813215 -0.068300895
000380 e0 cb d7 bc 54 cf 4a bd 5f cd 6f 3d 75 1f b8 bd
       -0.026342332 -0.04951413 0.058545467 -0.08990375
000390 ec aa c6 bd 76 81 54 3d 41 2f 95 3d fb ec 3e 3c
       -0.097005695 0.051881276 0.072844036 0.01165318
0003a0 76 cf 93 bc 09 1a d6 3d 15 13 cb ba 73 9b 89 3c
       -0.018043261 0.104541846 -0.0015493358 0.016797757
0003b0 00 95 86 bc 08 51 17 3d 3c 2c ef b9 95 c8 1c 3d
       -0.01642847 0.03694251 -0.0004561859 0.038277227
0003c0 cb 2d 46 bd a0 2f 1e bd a2 57 35 bd 64 64 31 3d
       -0.048383515 -0.038619637 -0.044273026 0.04330863
0003d0 8f 90 67 3d ef fd b0 bd 3e 09 88 3d 89 b7 2d 3b
       0.056534346 -0.08642184 0.06642388 0.00265071
0003e0 ff a9 6d bd 04 35 09 3d c1 76 29 3d 63 37 9c bc
       -0.05802345 0.033497825 0.04137302 -0.01906938
0003f0 e4 53 a1 3d ca f1 cc 3d c1 1d 96 3d c9 8f 7a bd
       0.07877329 0.10007055 0.07329894 -0.06117228

bias f4 [128]
000000 de a7 0b bd 3f 50 24 3d 9a 83 fc bc 74 1e 5d 3d
       -0.034095638 0.04011559 -0.030824471 0.05398412
000010 97 4e 93 3d f5 5a 80 3d ad a3 72 3c 79 d5 0b 3d
       0.07192724 0.06267349 0.014809531 0.03413913
000020 ed 2c c0 3d eb 08 a7 3c 2f 62 cf bd ae 6c d4 bd
       0.09383569 0.020389995 -0.10126149 -0.103722915
000030 fa a0 31 3d 17 40 d8 3c a5 2a 31 bd b7 d7 dd 3b
       0.04336641 0.026397748 -0.04325356 0.0067701
000040 87 a9 9f bd 9c 75 a9 bd ea 10 ba bd fc 9e 9b bc
       -0.07796007 -0.08274385 -0.09085257 -0.018996708
000050 e7 e3 8d 3d a1 eb 8c 3d 7e 49 52 3c d9 ba 3b 3d
       0.069282345 0.0688088 0.012834905 0.04583249
000060 c1 43 28 3d 5b 20 83 bd 60 f3 95 3d 8c b1 50 3b
       0.04108024 -0.06402656 0.07321811 0.0031844107
000070 fe e7 ce 3d 02 77 fc bc c6 ca 9f bd 0c ef 5a bd
       0.10102843 -0.030818466 -0.07802348 -0.05345063
000080 ff 23 c9 bc 68 2e 99 3c 84 46 b9 3d f4 2b e3 3c
       -0.024553297 0.018698886 0.09046653 0.02773092
000090 9c 9a a1 bc d7 19 f4 bb 8d 85 16 3d bf a5 75 3c
       -0.019727044 -0.0074493694 0.036748458 0.01499313
0000a0 4f 8e c4 bc 2f 24 8e 3c 13 b1 1e bc 0d 46 06 3c
       -0.02399364 0.017351238 -0.0096857725 0.008195412
0000b0 bc 0e 35 bc 17 b4 98 3c 1f a0 0a bd ea 9a 9a 3c
       -0.011050876 0.018640561 -0.03384411 0.018872697
0000c0 e1 b9 d0 bd f8 14 7b bd a5 29 97 3d b4 dd b9 3c
       -0.101917036 -0.061299294 0.0738099 0.022688724
0000d0 ee a6 f1 3c eb eb db 3c 71 25 89 3d b3 6d 3a 3b
       0.029498544 0.026845893 0.066965945 0.0028446733
0000e0 ad 74 5e 3d 36 e4 11 bc 72 15 a4 bc 4d 5f 92 3a
       0.05431049 -0.008904507 -0.020029757 0.0011167318
0000f0 55 eb bb bd 85 73 4a 3b 56 89 b5 3d bb d2 ce bd
       -0.091757454 0.003089161 0.088640854 -0.100987874
000100 ae bd e9 3d 98 1d ae bb 97 5f 89 bd f8 e9 2e bd
       0.11413132 -0.0053135864 -0.067076854 -0.0427036
000110 3d 00 de bd 3c 90 c8 bd 04 2c dc bd b8 d3 b5 3d
       -0.10839889 -0.097931355 -0.10750583 0.08878273
000120 25 fe 9f 3d a7 d0 61 bd 9c 32 bd 3d 16 d6 fc bd
       0.07812146 -0.055130627 0.092381686 -0.12345521
000130 cc b0 db 3c 20 ef 88 3c 87 da b0 3d c4 da 4f 3d
       0.026817702 0.016715586 0.08635431 0.05074574
000140 ef 88 0a 3d 1e 0c 4c bd bb e7 b8 bd 3d d4 1e be
       0.033821996 -0.049816243 -0.09028574 -0.1551065
000150 0c 97 fd bd 8e 8a 01 bd f6 a3 57 3d 1d c3 34 3b
       -0.123823255 -0.031626277 0.0526466 0.0027582117
000160 c5 37 fc bc 04 8a a9 bd c8 97 89 3d 7a 6d c3 bd
       -0.030788312 -0.082782775 0.06718403 -0.09542365
000170 36 a3 8b bd 8d db 84 3d 86 0f c7 bd c7 10 38 3d
       -0.068182394 0.064871885 -0.09719758 0.044937875
000180 29 81 2c bd cf 92 64 3c a8 fa 34 3d 78 92 0e bd
       -0.042115364 0.0139510175 0.044184357 -0.034807652
000190 8b 4c 0d bd 78 61 88 3b f1 c6 82 bd 33 df 08 be
       -0.034496825 0.00416201 -0.06385601 -0.13366394
0001a0 66 de 06 be c5 b4 2d bd 6d 6c 69 3d 4f 9c bb 3d
       -0.13170776 -0.042408723 0.05698817 0.09160673
0001b0 19 f7 e1 3c ee 79 f8 3a 67 e8 5c 3d 05 e2 90 3d
       0.027583646 0.0018957236 0.053932574 0.0707436
0001c0 88 02 1b be 26 27 3d 3c 17 cb 51 3d dd 25 11 be
       -0.15137684 0.011544978 0.051219072 -0.141746
0001d0 e6 48 84 bc 36 59 c0 bd 51 9f 96 3d 16 5a b8 3d
       -0.016148042 -0.09392016 0.07354606 0.090015575
0001e0 39 8f 54 3d 6c 69 8c 3d fb e5 ac bc f0 14 94 bc
       0.0518944 0.06856045 -0.021105757 -0.01807639
0001f0 c8 e4 7c bd 03 a5 0f 3d 0c 9b 10 bd c6 ab 7b bd
       -0.06174162 0.035069477 -0.035304114 -0.061443113
