results/model/union_570.model (torch, 686563 bytes, 21 tensors)

weight_ih f4 [384, 5]
00000000: 4ee8 c93b c312 da3c 7bb7 b63d d1f3 c93d
00000010: 3262 113d b556 963d 3bb8 67bd 269a 843c
00000020: 1f42 b03c 673a b6bc 0196 423d 51ae 103d
00000030: 42c5 bbbc f710 05bc e935 9ebd 6847 963d
00000040: 45f4 5abd dbda 063d 19a1 683c 6a79 af3d
00000050: 9d16 ae3c b3af b1bc 0184 7e3d 1549 10bc
00000060: 7f29 dd3a e0b3 9d3d b1c6 a83c 550c 7fbd
00000070: 2f05 3d3d 792b c3bd c075 c7bd de90 493d
00000080: 154e f33c 8ad5 1fbe 0336 003e b707 a63c
00000090: a15c 5f3d 0fdb 46bd 7091 85bd 4546 42bd
000000a0: 52ce fcbc 143d 1fbb 6c0f 2c3d 1904 c4bd
000000b0: c7d7 a1bb 9645 d73d 04ac 8c3d 52e4 88bc
000000c0: c8cd 943d 3640 8e3d bef5 bdbc 20ef 2d3d
000000d0: dae0 b2bd 132f a4bd c5de 783d fa73 973d
000000e0: 5773 0cbd f762 7a3c 15fd 683b 5d6c 1a3d
000000f0: d279 ff3c 3042 a6bd ead8 823c b4a9 cdbc
00000100: d636 eabd 2247 833d a0ae 113d 6d42 67bd
00000110: ca68 9dbd b8cd e5bc 08f0 1f3d 6543 8bbd
00000120: 0a68 923c 908e 89bd b26c aa3b cf0d 363c
00000130: 19fd e7bd b7ba 4fbd 5c3e 71bb 435e 983d
00000140: 04a0 4fbc 2bfa c53c 2c17 a03c 5a5d 84bd
00000150: 06b9 87bb 3b3d df3d 80db 90bd fdd1 d23c
00000160: 320e 043e 9b84 99bc acb9 a9bd f234 e7bb
00000170: 4185 47bc 8e2c a9bd 211d 5bbd f98a 99bb
00000180: 18df 3dbe d4cf 1bbd 2e4e a9bc c8c1 5e3c
00000190: 57d4 b83d b5ba 9ebd 6d0a 0dbd 5547 9cbc
000001a0: 744c 6cbb 7e08 8b3d 200b 1cbd a9c6 f23c
000001b0: d5e1 d6bc a76c d23d 5234 c03d d539 d63c
000001c0: 57ef 9bbc 9333 983d 7fc5 aabc 05c3 53bd
000001d0: b131 d0bc 4eed 683d fa61 03bd c2b4 713d
000001e0: 4601 bbbc 2c7c 8fbd 6edd 84bd 42d6 833d
000001f0: 8b56 723d eef9 783c c602 ba3c 4ab9 973d
00000200: 997b 6b3d 4a85 b53b 78f0 823d 3166 24be
00000210: a66f 6abd d13e cbba 635a a7bd b271 dfbc
00000220: 9252 64bd d961 db3b ba7b 3a3c 118e 04be
00000230: 9323 eabb 0f16 afbd 09fb a8bd 6626 923d
00000240: e2f5 2abe c212 b2bd 6086 b0bd 63f1 483d
00000250: 15df b9bd 87a2 cd3d 153a 36bd edff 01be
00000260: 8e6c 55bd ebdf 6cbd 864f ba3b f101 00bd
00000270: 2d72 9f3d 0af3 3cbd 7604 bb3d 97b9 d8bc
00000280: d377 43bd d9a0 853c 8871 77bc 307d 18bd
00000290: 4dcd 8b3d 0a46 553d 36bf ea3d 7673 8fbd
000002a0: c116 ef3c bcec a33d a4aa f73b 3cee a6bd
000002b0: f666 9f3d ceba 9c3c 6ee2 983c 6f65 62bd
000002c0: fdbf fb3d d9c8 fe3c a57f 88bd 5af9 e23d
000002d0: 56b2 00bd 83f6 07be ffb3 51bd f93c d03d
000002e0: 7476 8b3c 4338 b73c a6a7 f73d 46a4 01bc
000002f0: cb1b 89bd dd63 533d 0d78 2ebc faab 3fbd
00000300: ee20 66bd 5de1 763d da3b 28be a6f3 a23c
00000310: 7877 b4bd 682e d4bc 77e2 823d d8b3 4bbd
00000320: 3012 953c 625f 97bd 8866 26bd 19b1 093d
00000330: 063d 5fbd 380f 6cbd f9cc 8dbd 0646 38bc
00000340: 2466 9fbd 7679 a93d 69cd b6bc 6c09 523d
00000350: 0d7d 073d cbff 373d 1735 dd3c be9e 953d
00000360: a151 e3bc af96 743d 6179 b93d 8a20 583d
00000370: a30b b53c 3aa0 0e3c 283d 98bc b0b4 dfbc
00000380: 18f5 74bd 551c c0bc 67b9 bfbd 0ad9 6d3b
00000390: 2611 1c3d 7e25 22bd d147 21bd 84f9 073e
000003a0: 9412 6abd b76b 30bd 8356 f43d a4d8 65bd
000003b0: aafe a43c 50fe 65bd a0be 723d 15ea 9bbd
000003c0: 8eb6 bfbd b75a 38bc 31ac e4bd 2915 0dbd
000003d0: c7a1 563c aa51 f5bb bada 84bb d7dd babd
000003e0: f511 82bc 1f51 693d 0416 95bc 17e5 c43d
000003f0: e699 463d 088c db3b adc2 a43d f50f 8c3c
0.006161726 0.026620274 0.08921715 0.098609574 0.035494037 0.07340757 -0.05657218 0.016186785
0.021515904 -0.022244645 0.047506336 0.03532249 -0.022921208 -0.0081217205 -0.07725126 0.073378384
-0.05345561 0.03292356 0.014198565 0.0856808 0.021251017 -0.021690225 0.062137607 -0.008806487
0.0016873329 0.07700324 0.020602556 -0.06226762 0.04614752 -0.09529776 -0.09739256 0.04921042
0.029700318 -0.15608802 0.12520604 0.02026735 0.054531697 -0.048548754 -0.065218806 -0.047430295
-0.0308601 -0.002429788 0.042006895 -0.09571094 -0.0049390527 0.10511319 0.06868747 -0.016710434
0.07265812 0.06945841 -0.023188468 0.042464375 -0.08734293 -0.08016791 0.060759325 0.07395168
-0.034289684 0.015282384 0.003555124 0.037701 0.031186018 -0.08118093 0.015972573 -0.025105335
-0.114362404 0.06410052 0.035566926 -0.056459833 -0.076860026 -0.028052196 0.03904727 -0.06799964
0.017871875 -0.06716645 0.005200946 0.011111691 -0.113275714 -0.050715175 -0.003681085 0.07439854
-0.012672428 0.024167141 0.0195423 -0.06463118 -0.0041419296 0.10900351 -0.07073116 0.025734896
0.1289604 -0.018739989 -0.08287367 -0.007055872 -0.012177766 -0.08260451 -0.053494576 -0.0046857563
-0.18542135 -0.038039997 -0.020667162 0.013596006 0.090248756 -0.07750455 -0.03443377 -0.019076983
-0.0036056312 0.06788729 -0.038096547 0.029635744 -0.026230732 0.1027463 0.09384979 0.026150623
-0.019035025 0.07431712 -0.020846127 -0.051699657 -0.02541432 0.056866936 -0.03207586 0.059010275
-0.022827756 -0.07006106 -0.06487547 0.06437351 0.059164565 0.015196307 0.0227064 0.07408388
0.05749092 0.005539571 0.06393522 -0.16054608 -0.057235382 -0.0015506392 -0.08171537 -0.027275894
-0.055742808 0.006695014 0.011382038 -0.12944819 -0.007145354 -0.08549129 -0.08251006 0.0713623
-0.1669536 -0.08694984 -0.0861938 0.04905833 -0.09075753 0.10040765 -0.044488985 -0.12695284
-0.05210548 -0.057830732 0.0056857495 -0.03125185 0.07785449 -0.046130218 0.0913171 -0.026455684
-0.047721695 0.01631205 -0.015102752 -0.037228763 0.068262674 0.052068748 0.11462252 -0.07004444
0.029185655 0.08004138 0.0075581837 -0.08150908 0.0778331 0.019132044 0.018662658 -0.055272516
0.12292478 0.031101631 -0.06664971 0.11082716 -0.031420074 -0.1327763 -0.05119705 0.101678796
0.017024256 0.022365695 0.12092523 -0.007912701 -0.06694754 0.05160891 -0.0106487395 -0.04679487
-0.056183748 0.060273517 -0.16429082 0.019891571 -0.08811849 -0.025901034 0.06390851 -0.04973206
0.018197149 -0.0739124 -0.040625125 0.03361616 -0.054501556 -0.0576317 -0.06923861 -0.011247164
-0.07783154 0.0827512 -0.022314744 0.051278517 0.033078242 0.044921678 0.027002854 0.07305668
-0.027748885 0.059714016 0.09056354 0.052765407 0.022100275 0.008705193 -0.01858385 -0.027307838
-0.059804052 -0.02345101 -0.093615346 0.0036292695 0.03810229 -0.039586537 -0.03937513 0.13278776
-0.057146624 -0.043071475 0.11930563 -0.056114808 0.020140965 -0.056150734 0.059263825 -0.07613007
-0.093609914 -0.011252097 -0.111656554 -0.034444008 0.013100094 -0.0074865418 -0.0040543946 -0.09124344
-0.015877703 0.05696213 -0.018198974 0.09614008 0.048486613 0.0067000426 0.08044944 0.017097453

weight_hh f4 [384, 128]
00000000: 7b84 963d 6e74 5f3a bd39 4ebc b00a b9bd
00000010: 0fb4 03bd 7618 65bd dadc 4cbd f046 0e3d
00000020: 393a f13c 6008 b83d 5943 4f3d 2aa7 13bd
00000030: 0d58 b7bd 105a 54bd 7603 01bd 1668 b53d
00000040: 700b 8dbb 6414 e7bc a8ea 853d 65cd bb3c
00000050: 907f 7ebd dcba 8b3d 52a5 b9bd 05dd 6cbd
00000060: 7ba8 6f3c 0080 70bd bddc 0fbc 27ac f7bc
00000070: 987b a7bd 1c17 0e3c 6b23 b23c a859 8c3c
00000080: 5a31 a2bd d630 98bd 830c d3bc f433 4a3d
00000090: fefa ccbc 8512 a5bd 6758 5fbd bdf7 b43c
000000a0: 58bd 59bd f2cb ba3d b868 983d 384c 49bc
000000b0: fdf3 b7bd 9b8b ccbd 51dd 65bd 2643 c13c
000000c0: b790 5cbd d46c 3abd d7ba bc3d 1f20 7cbc
000000d0: 0ab2 933d 60bf bd3d 4f56 c5bc 2a28 6cbd
000000e0: 5f6b 59bd 0862 0fbd 2e36 afbb bb47 183d
000000f0: 7452 4ebd 5de2 d73c 6e3d 4b3d fe31 b23c
00000100: 235f 213d eae1 54bb 4eec 13bd 3502 2d3d
00000110: 1559 353d b7aa 99bd de2e 0f3c fdee e6bc
00000120: f6db babd 471a 8bbd fb25 abbc 81f6 6c3d
00000130: 6f32 16bd 085a 8cbd e1b9 773d a7f7 a4bd
00000140: ab52 c03c 84aa f23c f028 a63c 2ac0 b8bc
00000150: b2d4 e2bb 5df1 17bd 0825 dabb 7a40 fcbc
00000160: c435 d6bc 528b 61bd 23c9 c3bc 4781 b4bd
00000170: 922c b93d 443a d93c baff 97bc 6a85 343d
00000180: 531f e8bb be36 8dbd e5c2 473c e2d6 6e3d
00000190: ec63 473d 59c4 8dbd 97b9 9b3d 3fb7 313d
000001a0: a1ba 3b3d 0465 81b9 3f68 8dbd 16b8 633d
000001b0: 1bd3 dfbc 3c80 3c3d e0bf ab3d 26b5 593d
000001c0: 8bf8 b43d 67b2 63bb eecb 2fba ec6b 13bd
000001d0: 7318 9dbd 51cf 5e3d 399b 48bd 719d bf3d
000001e0: 92b1 94bd 2da7 93bd 026a ac3d f21f 95bc
000001f0: 1e25 cebc 4925 c03d 3f1f 223d 835f cabb
00000200: a3f9 763d 781d 323d ff3d 7a3d 1316 34bd
00000210: 9d81 dfbd d9a5 a1bc d5be f33c b69a 733d
00000220: 60bb 96bd 9eb4 493b 83a0 9bbd f2c3 c13d
00000230: 91d9 363d 74bc 13bd 4900 ddbb eb4f a83c
00000240: 944b 68bd 481f d43d 5ef6 f53d 7924 943d
00000250: f0cb debd 96d6 643d 9238 a53d a928 b4bd
00000260: f543 18bd 8f5d a0bd 0365 bfbd e0b5 073d
00000270: c7a9 633b 1b0e 523c 0c39 64bd 026e 2bbe
00000280: ee1d b03d 057f ea3c 9225 2c3d 953b 16bd
00000290: 1f5a 993d ba3c ffbc 1268 c6bd 5e02 45bc
000002a0: 76b3 d7bd baf3 89bd 273b ba3b 6745 09bd
000002b0: af8e cdba 4fc5 f3bb 0019 7d3d 17f8 a1bd
000002c0: e139 ba3c cf9e 7b3d 5403 9f3c aa41 00bd
000002d0: 73bc 913d 08d6 8fbd 7ac3 b93d 7acd a2bc
000002e0: 9c3e 843d f71d 943d ddac 5a3d 0d65 b23c
000002f0: 21ce 35bd f7d8 fc3c 6812 d23d b9f5 e93d
00000300: 3d58 e8bc 7a92 9e3c da90 f93c 8eae ac3d
00000310: c4e5 ea3b a2f0 11bd 648e 0a3c 5d6e 8d3d
00000320: 77b7 adbd a6e8 8fbd b3d9 8a3c 81d1 00bd
00000330: 3ae8 f33a 29f5 89bd f4ca 82bd a994 633d
00000340: 8fa0 033d c1b0 41bd f80b b7bd 56ee 54bd
00000350: 944b 7fbd 2ab1 a23d 6008 68bc e567 68bd
00000360: 26e6 34bd fa9c c93c b039 4dbd 05be 793c
00000370: a09a bdbb 3a90 5fbc 94ef 3d3d 7dd2 553d
00000380: da22 04bc 3bf6 a33a 40f1 5c3d 9f10 61bd
00000390: f328 983c eb2d f23c 75c2 2c3d c1e0 603d
000003a0: 9153 183c 4679 d83b ad3d 38bd 8463 86bd
000003b0: 79b4 623d 40b2 87bd 58f7 183d 94fd dc3d
000003c0: cb75 8f3c c247 4fbd 475d b73b 7e8f abbd
000003d0: 970a 64bd f0fa 64bc afa6 8dbd fb44 dabc
000003e0: c729 de3c 5c22 a4bd 5965 443c f793 4ebd
000003f0: d6ab a7bc 740d 783d 4120 533d ae5e bc3d
0.073494874 0.0008524124 -0.012587008 -0.090352416 -0.03215414 -0.05593153 -0.050015308 0.03473562
0.029446708 0.089859724 0.050601337 -0.036048092 -0.08952341 -0.051843703 -0.03149744 0.088577434
-0.004304342 -0.028207965 0.06538898 0.022925088 -0.06213337 0.0682275 -0.090647355 -0.05782797
0.014627571 -0.05871582 -0.008780655 -0.030233456 -0.081778705 0.008672502 0.021745404 0.017132595
-0.07919569 -0.0743119 -0.025762802 0.049365953 -0.025022026 -0.08060173 -0.054527666 0.022090787
-0.053159088 0.09120931 0.074418485 -0.012286238 -0.08982084 -0.09987565 -0.056119267 0.02359159
-0.05384895 -0.045513943 0.09215324 -0.015388518 0.07211693 0.092650175 -0.024089007 -0.05765549
-0.053080913 -0.0350056 -0.005347035 0.037177783 -0.050371602 0.026353056 0.04961913 0.021752354
0.03939737 -0.0032483288 -0.03611403 0.042238433 0.04427441 -0.075032644 0.008739201 -0.02819013
-0.091239855 -0.067921214 -0.020892134 0.057852272 -0.03666919 -0.068531096 0.060480002 -0.080550484
0.02347692 0.029622324 0.020283192 -0.022552568 -0.006922328 -0.037095416 -0.0066572465 -0.030792464
-0.026148684 -0.055064507 -0.02389962 -0.0881372 0.09041704 0.026517041 -0.018554557 0.044072546
-0.0070838123 -0.06895207 0.012192463 0.058310397 0.048679277 -0.06922216 0.07603758 0.043387648
0.04583228 -0.0002468006 -0.06904649 0.05559548 -0.027322343 0.04602073 0.083862066 0.053151272
0.08836468 -0.0034743787 -0.0006706108 -0.035991594 -0.07670679 0.05439693 -0.048976157 0.093562014
-0.07260431 -0.072096206 0.08418657 -0.01820371 -0.025164183 0.093821116 0.03958058 -0.0061759367
0.060296666 0.043485135 0.06109428 -0.043966364 -0.10913394 -0.019732403 0.029754082 0.059473716
-0.07359958 0.0030777822 -0.075989746 0.09461202 0.04464108 -0.036068395 -0.0067444188 0.02054592
-0.056712702 0.10357529 0.120098814 0.07233519 -0.10878742 0.055868708 0.080674306 -0.08796818
-0.037174184 -0.07830345 -0.09345438 0.033132434 0.0034738646 0.012820746 -0.055718467 -0.16741183
0.08599459 0.02862502 0.042028017 -0.036677916 0.07487892 -0.031156886 -0.096878186 -0.01202449
-0.10532276 -0.0673594 0.005683321 -0.033513453 -0.0015682782 -0.0074392925 0.06179142 -0.079086475
0.022732677 0.06143075 0.019410767 -0.031312622 0.07116022 -0.07023245 0.09070487 -0.01987337
0.06457254 0.07232278 0.05338751 0.0217767 -0.044386033 0.030865176 0.10257417 0.11423821
-0.028362388 0.019356955 0.030464578 0.08431731 0.0071685035 -0.035629876 0.0084568 0.06905816
-0.08482259 -0.07026796 0.01694951 -0.0314498 0.0018608638 -0.06736214 -0.063863665 0.055561695
0.032135542 -0.047287706 -0.0893783 -0.051985107 -0.062327936 0.079439476 -0.014162153 -0.056739707
-0.0441648 0.024610985 -0.050103843 0.015243058 -0.005786255 -0.013645226 0.046371058 0.05220269
-0.00806495 0.0012509295 0.05394101 -0.05494749 0.018574214 0.029562911 0.042177636 0.054901842
0.0092972675 0.006606254 -0.044980694 -0.0656195 0.055347893 -0.06625795 0.03734526 0.10790554
0.017512223 -0.050605543 0.0055958363 -0.08376978 -0.05567416 -0.013975844 -0.06916558 -0.02664422
0.02711953 -0.08014366 0.011987054 -0.05043408 -0.02046768 0.060559705 0.05154443 0.09197746

bias_ih f4 [384]
00000000: 777c 963d 35e4 a4bd c038 0bbb 7f47 7a3d
00000010: b1bc 7d3d 0ad4 df39 f747 35bd e198 723d
00000020: 1d1a 9ebd e96c f13d 47ea a3bd 03ab 74bd
00000030: 2de5 913b 37be b03b 84ba 8abd 1867 723d
00000040: 83b0 4c3c 3b70 973b 0509 7ebb ce4f edbb
00000050: 804b 97bc 5b04 d4bd ccd5 9cbc 744e 22bd
00000060: 9f89 933d fd72 af3c 5f44 533c ac40 9cbd
00000070: ff93 86bd e001 87bd 5c30 703d 0c53 f6bc
00000080: e2bc 85bd 51c6 dbbb 3656 59bd f50e f73c
00000090: 0a96 8a3d b484 913d 0a1c a53c 2dcb 79bd
000000a0: e2ff 84bd 314b 963d 8778 443d 8e6d 713d
000000b0: 5d5b 7fbd 6e72 8c3c 2fe4 1e3d df13 9b3d
000000c0: 7805 a1ba b194 963c 64cd e5bd ad70 45bd
000000d0: f885 e93c 294b 6bbc 36a9 ad3c a4f3 72bd
000000e0: 64e2 8cbc 3e22 0dbd 42c8 34bd fcb3 d6bc
000000f0: c3fa 4c3d 8d67 5dbd e072 8abd c04d 05be
00000100: bf2a 1abd 4758 763d a84f 9cbc 583b 833d
00000110: 3a7a bfbb 7139 cfbd 5405 1b3c 3ee8 473d
00000120: 043b 143d e3e8 983d fdf1 fbbc 77ab bc3b
00000130: 0264 b5bd a483 7e3d 7121 743c 26d0 97bd
00000140: 9f3d 44bc b2ab 5bbc 1ca6 24bc e1d7 0fbd
00000150: 3cc7 69ba 633f ca3d 3782 9fbd 4d37 a93d
00000160: 1c0a 743d 22d8 03bc 4d2f 073d e05b 9ebd
00000170: 8dd1 e03d c9bf 593c 9b12 bc3c 1fb4 913b
00000180: 761b fdbb 7a8f 47bd 835d 5b3c ba24 073d
00000190: 0538 113d 9bbb 77bd 0d97 bfbc c5be f3bc
000001a0: f745 67bc 3ac2 aebc 5e95 02bd 0e9c 53bd
000001b0: 6e65 883d 25d0 843d c424 70bd 39cd 39bd
000001c0: 3ec2 583d 021d b33d 7076 b73c c3aa d03d
000001d0: 9de2 fe3c cd65 4f3a 4241 a0bd b435 2abc
000001e0: a32a 063e ce92 5ebd 8c43 c8bd aaeb e8ba
000001f0: 4854 f43c a93c 65bd 98bb 253d ad80 b2bd
00000200: 2cf5 563d 9a71 4dbd 497f cbbd a6de 863d
00000210: 2f61 823c aa02 d93c e79a 2a3b e923 96bd
00000220: 9665 a7bb 06ef eebc 03ba 943c 59a1 1bbd
00000230: 1267 1d3d b6ef ac3b 8ab6 24bb 5b50 933c
00000240: 5cdf ad3d 0ce5 fcbb ad3a a6bd b0a0 203d
00000250: 408e f3bc e230 bbbd daeb 23bd 643b 143c
00000260: efe5 83bd d780 423d 0011 e3bd 9860 30bc
00000270: 3418 30bb 33dd 8cbd c7f4 8ebd 17c1 65bd
00000280: 7740 78bd 4b62 08bd 5a43 f3bc eece f5bc
00000290: 7c2c 28bd 9a44 8c3d 771a 3dbd bed3 b6bc
000002a0: 924c 763c fd15 a73d 5ca9 9dbd e264 a8bd
000002b0: a684 12bd 10e4 4cbc 235d 9a3d f1d8 1cbd
000002c0: e5d8 983c 5c22 adbc 0075 8ebd 52e6 56bc
000002d0: 54e8 993d c263 0f3c 4ae6 29bd 16c0 243d
000002e0: 9468 23bc 7ea0 aebd 088c 7abc ccb5 c3bd
000002f0: dd88 cabd 4739 983c e8d2 0c3c 521e 12bd
00000300: feeb f93c c521 83bd d7ad 8cbd ac24 3fbd
00000310: 6b51 f03b 8382 bcbc 6128 abbd ef94 02bd
00000320: 59c7 953d 0a7a 18be 1285 ad3d fb40 abbc
00000330: 95a5 03bb 4b62 64bc f5c0 9b3d 740c d03d
00000340: fd55 0cbd fe29 3b3d e456 983d 05bb bebc
00000350: 0e70 a53d 5db6 9c3d 25d1 a3bb b8d0 b0bd
00000360: 7541 b73c 216e b8bc cef3 46bd 4467 ca3d
00000370: 9c26 893c f220 dfbd 7037 61bc f153 8abd
00000380: 06a5 aabb 6b08 34bc 2770 02be 8d2f 10be
00000390: cd42 80bd 5f32 f8bd 5972 64bd 3044 ffbd
000003a0: 5a36 5d3c 8740 9e3c 8f16 21bc 005f a3bc
000003b0: 46e1 07be dc3a 0abd 1820 b5bd 9001 653d
000003c0: e233 23bd 637c f4bd b4fc f4bd 795f 7bbd
000003d0: dc92 a3bd 0e1a bb3c ac4e 77bd bbdd ce3b
000003e0: 5473 18bd 02a9 a83c 4f87 a4bd 8844 da3b
000003f0: 98dd a7bd cae3 5cbc 3a22 e4bd 8b5b 52bd
0.073479585 -0.080513395 -0.0021243542 0.06110334 0.06194753 0.00042691856 -0.044258084 0.059227828
-0.077198245 0.11788351 -0.08003669 -0.059733402 0.0044523687 0.005393769 -0.06773856 0.05918035
0.012493256 0.004621533 -0.00387627 -0.0072421795 -0.018468618 -0.10352393 -0.019144915 -0.0396256
0.072039835 0.021417135 0.012894719 -0.07629523 -0.06571197 -0.065921545 0.05863987 -0.030068897
-0.06530167 -0.006706991 -0.053060733 0.0301585 0.06766899 0.07105389 0.020154972 -0.06098478
-0.06494118 0.073385604 0.047966506 0.05894237 -0.06234299 0.017144408 0.03879183 0.075721495
-0.0012284955 0.018381448 -0.11220816 -0.04820316 0.028506264 -0.014361181 0.02119885 -0.059314385
-0.017197795 -0.034456484 -0.044136293 -0.02620887 0.050043833 -0.05405383 -0.06760192 -0.1301794
-0.037638422 0.06014278 -0.019080952 0.06407803 -0.005843428 -0.10118378 0.00946172 0.048805468
0.036189094 0.074662946 -0.030755037 0.005757745 -0.088569656 0.06213726 0.014900551 -0.07412748
-0.011977582 -0.013407635 -0.010049369 -0.035117988 -0.0008917933 0.09875371 -0.077885084 0.08262501
0.059579954 -0.008047136 0.033004094 -0.077323675 0.10977469 0.013290354 0.02295809 0.004446521
-0.007724221 -0.048720814 0.013388994 0.03299401 0.035453815 -0.06048165 -0.023387456 -0.029754052
-0.014115802 -0.021332849 -0.03188073 -0.051662497 0.06659971 0.06485013 -0.058628812 -0.04536173
0.05291962 0.08745767 0.022395343 0.1018882 0.031113917 0.0007911593 -0.07824947 -0.01038878
0.13102202 -0.054339223 -0.097785085 -0.0017770429 0.029825345 -0.055966053 0.040462106 -0.08715949
0.052479908 -0.050157167 -0.09936387 0.065854356 0.015915481 0.026490528 0.002603227 -0.07331068
-0.0051085455 -0.02916671 0.018155104 -0.03799567 0.038428374 0.005277599 -0.0025133216 0.017982652
0.08489868 -0.007717734 -0.0811666 0.039215744 -0.029730916 -0.09140183 -0.040019847 0.009047363
-0.06440341 0.047486152 -0.11087227 -0.010765217 -0.0026869895 -0.06878128 -0.06980281 -0.056092348
-0.060608353 -0.033296864 -0.029695202 -0.030005898 -0.04105805 0.06849022 -0.046167817 -0.022317763
0.015032904 0.08158491 -0.07698318 -0.08222367 -0.035771035 -0.012505546 0.07537296 -0.03829283
0.01865811 -0.021134548 -0.0695591 -0.013116436 0.07515016 0.008751811 -0.041479386 0.04022225
-0.009973664 -0.08526705 -0.015292175 -0.095561594 -0.09889386 0.018582 0.008595206 -0.035673447
0.030508038 -0.064029254 -0.06869095 -0.046665832 0.0073339245 -0.023011452 -0.08357311 -0.031880315
0.07313413 -0.14890304 0.08472647 -0.020905009 -0.0020087708 -0.0139394505 0.07605163 0.10158625
-0.034261692 0.045694344 0.07438448 -0.023282537 0.08078013 0.076519705 -0.004999297 -0.0863356
0.02237008 -0.022513451 -0.048572354 0.098829776 0.016742043 -0.10894956 -0.0137461275 -0.06754292
-0.0052076606 -0.010988335 -0.12738095 -0.14080639 -0.06262741 -0.121189825 -0.055773113 -0.124641776
0.013501728 0.019317878 -0.009832039 -0.01994276 -0.13269529 -0.03374754 -0.08844012 0.055909693
-0.0398444 -0.119377874 -0.11962262 -0.061370347 -0.079869956 0.022839572 -0.06037776 0.0063130534
-0.03721936 0.020588402 -0.080336206 0.0066610016 -0.081965625 -0.0134820435 -0.11139341 -0.051356833

bias_hh f4 [384]
00000000: 90d1 33bd 3e6f 2bbd 0053 afbd c413 6b3d
00000010: 1ba3 1dbd 2895 613d 7d6a 163c c7d4 34bd
00000020: 1825 a2bd 3a8a 853c 5787 a53c f386 12bd
00000030: a87c 7e3d d073 90bc c87b acbd d954 1dbd
00000040: 1a63 91bd 7048 76bc 9a7a 80bd b7ad 9b3d
00000050: f6ed aebd 76a7 4a3d ffda 743a aa2a b23d
00000060: f60c 8fbb d143 983c f0e5 66bd 2a7e abbd
00000070: 9220 8b3d bbb7 b4bc 1a6b bb3d c9b9 203d
00000080: 93d8 62bd 0486 4c3d 670e d33d d150 a43d
00000090: e7a1 283d 4070 273b e64c 95bd 7dcd 9dbd
000000a0: 435f 303d b5b6 9ebd 8fa8 963d 6a20 3abd
000000b0: a600 f3bc 5ddb 033e 8c1e 0abd f325 b23c
000000c0: 1f88 223c af0a 9b3d a47f a4bd 0787 adbd
000000d0: ccd7 ccbd e088 c23d 8fbe 903d cfa6 cbbd
000000e0: f31a 35bd d526 6f3d fc5d f7bc 139d 0f3c
000000f0: 8eb7 d13c 1433 3dbd 06df 93bd 3985 b7bc
00000100: 8f61 c93d 8ce2 a23d 4b82 5b3d 9d25 edbb
00000110: e77b 23bd bb5d bdbd 7886 163d 5eeb 62bc
00000120: 5c71 8f3d 25d5 063d 0b3d 903d bf41 fc3c
00000130: 80c7 b3bd fe6d c33d 0d20 473d d9fb 4d3d
00000140: 77c7 dc3c a1c3 383d 3478 42bd e3ce 893b
00000150: 77a1 8c3d ba49 f53c b7db 91bd e93b 5c3d
00000160: c41b 78bd 70cb 9d3d bb91 11bc aa64 0ebd
00000170: 3562 ec3d 7928 cf3c fc13 60bc 9d24 8f3c
00000180: 88c8 03bb c127 da3c d10b 043d a1be 55bd
00000190: 998a 353c 3f01 d0bd dcbc c33c 3b03 363c
000001a0: 7733 5e3d 5a01 1c3d 900e b23c 4424 303c
000001b0: f4e6 ba3d 7181 2f3d d42b c73d e5ec b53d
000001c0: 7bb3 77bd 18e3 863d b130 22bd fe1d 3b3d
000001d0: c14c e93d 2e84 343d 8a00 a6bd f9d3 673d
000001e0: bd48 bdbc 832c 8a3d ea80 61bd 9d93 013d
000001f0: 625d c83d 5fdf 83bd 3ec1 243d b0f8 6bbd
00000200: cb4f cdbc 8ae1 ab3c f4e6 933d d3b3 30bc
00000210: e2d9 433c 079c 1a3c 98a7 94bd 35f2 453d
00000220: 78e1 693d 70a3 c53c b3ac 233d bfd4 97bd
00000230: 23fa a7bd a730 573d e58e 6abc 2e8a 6c3d
00000240: 168d 8f3d c2ff abbd dff6 df3c 23be e73c
00000250: c502 4ebc 0fbf 14ba 6c8e 8f3c b8cb 8abb
00000260: 07ac 0cbe fe93 913c 87b1 afbd 6db3 82bc
00000270: 939d 75bd e125 b4bd 695d 663d f83a 833d
00000280: 0f8f 013d a9ce bb3c 240c 3dbd 4ff6 30bd
00000290: 2533 d23c 0a8b d93c fc3b 26bc 09df fabc
000002a0: 7101 94bd c151 e33c 37ec a2bd fa81 1fbe
000002b0: ff22 9ebd 7863 06be adeb fabc 01b3 293d
000002c0: 6bf1 3d3c 10e0 68bc 550f 6f3c 0ea1 4c3d
000002d0: 4b0c 973d 05d2 ee3c 9418 b0bd 13c1 23bd
000002e0: 99cb 51bd 0578 0939 0dbb d4bc db10 79bd
000002f0: f6bb 1cbe 4a9b 8ebc 8315 c1bd 1a0f 883d
00000300: 4934 0bbe e3c0 7fbd 7e0c 533d a908 a8bd
00000310: 4089 90bc de8a 33bc 1a7e 823d 21d1 e7bd
00000320: 14f0 953d 8219 d63a 739b 313d 17c1 8bbd
00000330: 674c 0bbe 0ffc a33d 7519 b63c b4fd 0f3c
00000340: 2657 5a3d f6d8 9cbc e201 443c a7e1 12bd
00000350: d631 9c3a 0690 ac3d d532 b23c 4144 963b
00000360: 0b9e 3dbd c34f 93bd 2637 0fbd db0a 0c3d
00000370: ea1d a7bc 9461 a3bc bf4b e6bd ec98 35bc
00000380: 540f 503d 2ac5 dd3d 2ba0 b33b 398b 60bd
00000390: 6a76 913c a4fb ffbc 5dd9 72bc ec68 c83c
000003a0: 4c2c afbd d9e1 5abd afcf b8bd 7038 26bd
000003b0: 20fd 11be 59fc cab9 f553 b639 c1aa aa3d
000003c0: 0372 1cbd 6cdb 9ebd b299 d8bd d046 6dbd
000003d0: 6a70 d4bd 37ed b0bc f162 0f3d b1da 8ebd
000003e0: c1a0 c93b e9f9 713a 3196 983d f86f 2bbd
000003f0: 358e 92bd f5fa 98bc acf5 dabd 1229 383d
-0.043901026 -0.041854136 -0.08560753 0.057391897 -0.038485628 0.055073887 0.009180662 -0.044148233
-0.07917231 0.016301263 0.020206137 -0.03577323 0.0621306 -0.017633349 -0.08422047 -0.038410995
-0.0709898 -0.015031919 -0.062733844 0.07601493 -0.08541481 0.04947611 0.0009340494 0.08699544
-0.0043655587 0.018587025 -0.05637163 -0.08373673 0.06793322 -0.022060266 0.091512874 0.03923968
-0.055382323 0.049932495 0.103054814 0.08023227 0.041170027 0.0025549084 -0.07290058 -0.077052094
0.0430596 -0.07749692 0.07356369 -0.04544107 -0.029663395 0.12876649 -0.033720538 0.021746611
0.009920149 0.07570397 -0.08032158 -0.0847302 -0.100020975 0.09498763 0.07067596 -0.099439256
-0.044215154 0.058386642 -0.030196182 0.008765477 0.025600221 -0.04619129 -0.07220273 -0.022402393
0.09833061 0.07953367 0.053591054 -0.00723715 -0.039913084 -0.09246393 0.036749333 -0.013850061
0.070040435 0.032918114 0.07042893 0.030793069 -0.08778286 0.09542464 0.04861455 0.05028901
0.026950581 0.04510844 -0.047477916 0.004205571 0.068667345 0.029942382 -0.071219854 0.053768072
-0.060573354 0.07704818 -0.0088848425 -0.03476397 0.11542169 0.025287854 -0.01367664 0.017473513
-0.002010854 0.026630284 0.03223783 -0.05218375 0.011080408 -0.10156488 0.023893766 0.011109169
0.0542483 0.038087226 0.02173546 0.010750834 0.09126082 0.042848054 0.097251564 0.08883075
-0.0604739 0.065862834 -0.039597217 0.0456829 0.11391593 0.04407137 -0.081055716 0.056598637
-0.023105973 0.06746771 -0.055054583 0.031634916 0.09783436 -0.06439089 0.040223353 -0.057610214
-0.025062462 0.020981569 0.07221785 -0.010785061 0.011953803 0.009436614 -0.072585285 0.04832669
0.05709979 0.024125785 0.03995962 -0.07413625 -0.08202007 0.052536633 -0.014316295 0.057748966
0.07009332 -0.08398391 0.027339397 0.028288906 -0.0125739025 -0.0005674222 0.017523967 -0.004235711
-0.13737498 0.017770763 -0.085787825 -0.015954698 -0.059964728 -0.08796287 0.056241427 0.06407732
0.031630572 0.022925692 -0.046154156 -0.04320365 0.025659153 0.026555557 -0.010146137 -0.03062393
-0.072268374 0.027748944 -0.07955211 -0.15576926 -0.07721519 -0.13123882 -0.030629957 0.041430477
0.011593203 -0.014213577 0.014591058 0.04995828 0.073753916 0.02915288 -0.08598438 -0.03997905
-0.051219556 0.00013110049 -0.025968099 -0.06080709 -0.15306076 -0.017408032 -0.09427931 0.066435054
-0.13594164 -0.06243981 0.051525585 -0.08204777 -0.01764357 -0.0109584015 0.06371708 -0.11319185
0.07321182 0.0016334506 0.04336114 -0.06823938 -0.13603364 0.08007061 0.022228936 0.008788515
0.053305767 -0.019146424 0.0119633395 -0.03585973 0.0011916708 0.08425908 0.021752754 0.004585773
-0.0462933 -0.07192948 -0.034964703 0.03419004 -0.020400006 -0.01994399 -0.11244916 -0.011083823
0.050795868 0.10828622 0.00548174 -0.054820273 0.01775666 -0.031247921 -0.014822331 0.024464093
-0.08553371 -0.05343804 -0.090239875 -0.040581167 -0.14256716 -0.00038716456 0.00034776298 0.0833335
-0.038194668 -0.07756695 -0.1057619 -0.05792886 -0.10373004 -0.021597488 0.035006467 -0.06975306
0.0061531966 0.000923066 0.07450522 -0.04185483 -0.0715603 -0.018674353 -0.106913894 0.044961043

weight f4 [128, 128]
00000000: 2d18 343c 2ba5 8a3c b962 44bd 45f2 263d
00000010: 91fc f8bc 7669 9f3d d163 9c3c a470 db3c
00000020: e47d e43c a58e 3b3d 1711 7b3c 756c 8c3d
00000030: 53d1 a7bd 8a37 febc 4516 30bd fe8d 973b
00000040: 6c79 073d e71c 2dbc 45c3 54bd ebdb 5abc
00000050: f0ef 753d 5789 353c 5a41 213d 5ff2 a5bd
00000060: 1344 813d edd4 853d aa61 05bd 2da0 bb3c
00000070: ff24 4dbd 3fed ba3c 97cf 223c 5d61 ebbc
00000080: 1230 e9bc da09 12bd ecb5 853d bef2 ba3d
00000090: 374f fabc cc84 6b3d 03d1 9abc 8c7d 64bd
000000a0: 5d39 0f3c 014f 903d 0b8e 623c ea30 af3d
000000b0: f9db 0a3d d7d7 ab3d dd43 5f3d 6b79 9dbd
000000c0: 3fc6 c63c 9e67 5fbd 2679 4bbc 9e0a ffbb
000000d0: 957d 6bba fccc ab3d 2478 b1bc 6323 843d
000000e0: 23cf 7b3d b3d8 8c3d 59e0 883d 3f7f 81bc
000000f0: f89c c5bc 46eb 8dbd 1581 073c 8c2f 8fbd
00000100: 7842 c2bc 05c7 23bd 41c9 473d 8493 16bc
00000110: be4c 4c3d d34d 8bbd e1b8 3f3d 3c50 5ebd
00000120: 2074 b53d 7965 493c 001c fcbb b7d9 51bd
00000130: 5d57 b03d 4d22 333d edd9 e2bb 8b83 6abc
00000140: 859d eb3c 9734 573d 474e 253d 6df8 7bbc
00000150: 8cd3 b3bd 2086 5b3d 6c9e 31bd 221f 673c
00000160: 9967 96bd 4fcd e73c 405d d0bd b5ea 9a3d
00000170: dcb6 173c 3fad 6abd 8393 56bd bca7 20bc
00000180: 8624 4e3d edc3 613d ff09 e43c 455d 873d
00000190: adf8 993c 6bba 82bd b6ac 62bd 2f21 303b
000001a0: 15b1 52bd 5f17 733d 2f9e 5bbb 95e7 ee3c
000001b0: 2447 873d a34e 82bd 9b74 3cbd db3f dcbc
000001c0: a329 6f3d 4d52 1f3d 9dfc c7bc 2836 aebd
000001d0: 2370 92bd eb25 b0bd 521d 98bd 2a40 a83b
000001e0: d21c 17bb 192d 2a3d 3006 a4bd 317c d3bc
000001f0: 7066 873d 9e1a 583d fc30 67bd 32e2 b8bc
00000200: e82c 473d 13e9 18bc e3a2 3f3c b108 993c
00000210: 6c7b 983c 4e8f ac3d 4993 d1bc aff2 7dbb
00000220: 8b5e bcbd 5531 5fbd a2c0 1f3d f855 553d
00000230: 6316 343c dbb5 abbd c0a5 8d3d de75 fe3c
00000240: 8aba af3d 1957 88bc 299b 343c fe8a 7b3d
00000250: 3fa4 0cbd 0b28 d9ba 1e96 9fbd 5a85 c03d
00000260: 34aa f0bc af33 253a 07e5 54bd 0c54 373d
00000270: c925 09bd 7e82 16bd 0d53 e73c ce0e 5d3d
00000280: 6d66 9c3d c63e 72bd 80f8 c7bc cf38 7fbd
00000290: 6615 a63d f1ba 963d c599 dabd e7b5 60bd
000002a0: 45aa cc3a 9be2 c13c bff4 a5bc 9853 89bb
000002b0: d77c 313d 3ccb ac3c d347 5c3d 797b bb3d
000002c0: 33e8 493d fa61 61bd 770d bb3d eb52 85bd
000002d0: c33a 78bd 2963 8f3d 4227 8fbc 9abf 91bd
000002e0: ebd7 2fbd 7809 90bd b389 6e3d b734 b5bc
000002f0: 9dcc 453d c80d 41bd 8881 af3d 4f0c 0e3d
00000300: f584 9b3d 187f a1bc 749b 553c bcdf 053c
00000310: 1726 9b3d f873 643d d276 13bd ce9b 403d
00000320: a96b 86bd 8ff5 30bb afa8 773d 610a 713c
00000330: 1cf7 6bbd 37b4 283b 3fd4 15bd 0f47 bfbc
00000340: a029 cf3a f3fe 543c 50fe 03bd 6d59 783d
00000350: f4ab 113d ea92 b43c d52b acbd e2ca 05bd
00000360: c2e9 ca3c 8067 0cbd 2654 9b3d c6f5 813c
00000370: 79c0 a53d c987 053d ca2f a23d 3266 c2bc
00000380: f9d8 97bd 792c 383b 611c 72bd dc50 1d3d
00000390: 6436 263d 9d85 e23c 8967 95bd fcec fcbc
000003a0: a06f 88bd f1b3 b2bd 113c f8bc 7bdc 69bd
000003b0: 1e29 5abd 3383 443d ef1a 96bd 4067 ff3c
000003c0: 4729 9e3d 3e32 78bc 426e 61bd 9b59 d43c
000003d0: 96fe ab3d 50c7 813d d51f 4a3d 618f 90bc
000003e0: d5a5 903d 8029 c5bc 1e62 db3c 2c39 08bd
000003f0: 7d26 41bc 1632 0abd a2f3 433d da95 903c
0.010992092 0.016924461 -0.04794571 0.04075839 -0.03039387 0.07783787 0.019090565 0.02678711
0.02789206 0.045790333 0.015323899 0.06856624 -0.08194222 -0.031032342 -0.042989988 0.004625081
0.03307478 -0.010565973 -0.051944036 -0.013358097 0.060043275 0.011080108 0.039368965 -0.08102869
0.06311812 0.06534753 -0.032563843 0.022903526 -0.05008411 0.022818206 0.009937189 -0.02873295
-0.028465305 -0.035653926 0.065288395 0.09128331 -0.03055535 0.05749969 -0.018898493 -0.055783793
0.008741704 0.07046319 0.013827811 0.085542515 0.03390119 0.083907776 0.05450808 -0.07689174
0.024264453 -0.054542176 -0.012419021 -0.007783248 -0.0008983252 0.08388707 -0.021663733 0.06452062
0.061476838 0.068772696 0.06683416 -0.015807746 -0.0241227 -0.069296405 0.008270522 -0.06991491
-0.023713335 -0.03998472 0.048775915 -0.009190444 0.049877875 -0.06801953 0.046807174 -0.054275736
0.0886004 0.012292259 -0.0076937675 -0.05123302 0.08610413 0.043733884 -0.0069229514 -0.014313589
0.028761635 0.052540388 0.040357854 -0.015379054 -0.08780584 0.05359471 -0.043363973 0.014106544
-0.073439784 0.028296141 -0.10174036 0.07564298 0.009259906 -0.057294127 -0.052386772 -0.009805616
0.0503278 0.05511849 0.027836798 0.066095866 0.018795336 -0.06383213 -0.05534049 0.0026875248
-0.05143841 0.05934846 -0.0033511033 0.029163161 0.06605366 -0.06362655 -0.04600964 -0.026885917
0.058389317 0.038896848 -0.024412448 -0.08506423 -0.07150295 -0.08600982 -0.074274674 0.005134602
-0.002305795 0.041546915 -0.08008993 -0.025816055 0.06611335 0.05275976 -0.0564432 -0.022568796
0.04862681 -0.009332913 0.01169655 0.018680902 0.01861354 0.08425771 -0.025582926 -0.0038749387
-0.0919772 -0.054490406 0.03900207 0.05208394 0.010991666 -0.083842956 0.0691638 0.031062063
0.085805014 -0.016643094 0.011023321 0.06141185 -0.034336325 -0.001656772 -0.077923045 0.09400435
-0.029378034 0.0006301952 -0.05197623 0.044757888 -0.0334833 -0.03674554 0.028237844 0.053969197
0.07636724 -0.059141897 -0.024410486 -0.062310036 0.0810955 0.07359875 -0.106738605 -0.054860976
0.0015614709 0.023667624 -0.020258306 -0.0041908734 0.043331947 0.021093003 0.053779434 0.0915441
0.049293708 -0.05502508 0.091334276 -0.06509956 -0.060602915 0.07001335 -0.017474774 -0.07116623
-0.042930525 -0.07033056 0.05823679 -0.022119863 0.048290838 -0.047132283 0.08569628 0.034679707
0.07593719 -0.019713923 0.013037551 0.008171018 0.075756244 0.05577466 -0.036001988 0.047023587
-0.06563503 -0.0027001833 0.060463604 0.014711947 -0.05760871 0.0025742182 -0.036579367 -0.023349313
0.0015805252 0.013000238 -0.032224953 0.060632158 0.035564378 0.02204271 -0.08406798 -0.032664187
0.024769668 -0.034278393 0.075844094 0.015864264 0.08093352 0.032600198 0.07919271 -0.023730371
-0.07414431 0.002810268 -0.059109095 0.03840719 0.040579215 0.027651602 -0.072951384 -0.030874722
-0.06661916 -0.08725727 -0.03030208 -0.057095032 -0.05326187 0.047976684 -0.07329356 0.031177163
0.07722717 -0.015148697 -0.05503679 0.025921633 0.08398168 0.06336844 0.049346764 -0.017646493
0.0706288 -0.02406764 0.026780184 -0.03325765 -0.0117889615 -0.033739172 0.04783977 0.01764958

bias f4 [128]
00000000: 3739 923d 41c5 453d ee35 013d 6fbe a2bd
00000010: ac54 aa3d 500b fa3c 836d 8a3d e5df d3bd
00000020: 3ac1 be3d ec2a b2bb 4f45 253d aede a6bc
00000030: 519a 803c f484 093d 687c 77bd c209 13bd
00000040: 70cf d1bc a394 30bd e025 3b3d 2b0c 5ebd
00000050: 9996 ccbc 13bd 553c fb00 9cbd 8d49 11bc
00000060: e3c1 1b3c e17f 94bd c7e1 653c a58f 943c
00000070: 60c4 94bc dd19 853a 0462 c7bd 727d 1fbc
00000080: dec6 4c3d 8ef9 eebc 6ad1 fc3b 709d 90bb
00000090: a66f b73c 0ddf 903d 5211 04bd e317 b2bd
000000a0: 2e4e 663d af90 71bd e82c b2bd 9622 643d
000000b0: aa8c 81bd d6b9 673d 3425 dcbd 0a85 a13c
000000c0: 2b6b 013d 4868 57bc c254 9ebc 0a64 4fbd
000000d0: b410 b1bc 0133 2bbd 1891 403d 0c4d 043d
000000e0: b800 4e3d 8139 69bd 1aa6 c73c 8f78 12bd
000000f0: 38ea 97bc a4c1 623d ea6d edbc d887 cd3c
00000100: a73e f23c 1c18 9cbd 9a9b ab3d 89eb c1bd
00000110: 185e 863c c8d7 4b3d 35a9 2ebd f13e 183b
00000120: a82a 033c 27dc 5cbd ced6 b3bd 1470 c1bd
00000130: 87e0 21bd ce11 7e3d ddf1 9cbd 9785 9c3d
00000140: 0214 b0bd d2e1 aebc 9f56 0dbd 587b 9ebd
00000150: 0493 40bc 3b0d 363d 73c5 2e3d ff44 6a3d
00000160: 9f42 003d 70f4 1d3d b43d a0bc 0262 b3bd
00000170: 9b89 7ebc 26ee c0bd 7c06 363d 5812 683d
00000180: 793f 5abd 13aa 79bd 652d 733d 46dc 63bd
00000190: cad7 a63c 1e2d 5c3d 06e1 2dbd 3167 fd3c
000001a0: 6625 6e3d c35d 563d a2ca b2bd 375a c5bc
000001b0: b79d c4bd 3a25 e33c cc97 4d3d e2cb 8cbd
000001c0: 7184 453d 649c 523c d327 bebd bf50 fdbc
000001d0: fc2c 0a3d 2de6 debc c772 703d 8e3e a5bc
000001e0: c584 debc 813b 3fbb 0437 26bc b619 67bd
000001f0: f805 9dbd 629f e9bc b5a0 b93c 077c 113a
0.07139819 0.04828382 0.031545572 -0.079464786 0.08316931 0.030522972 0.06759169 -0.10345439
0.09314199 -0.0054372456 0.0403493 -0.020369854 0.015698584 0.03357406 -0.060421377 -0.035897978
-0.02561161 -0.0431105 0.045690417 -0.054210823 -0.024974154 0.013045567 -0.076173745 -0.0088676335
0.009506675 -0.072509535 0.01403088 0.018134901 -0.018160045 0.0010154803 -0.09735492 -0.009734498
0.049994342 -0.029171731 0.007715394 -0.0044132993 0.022392105 0.070737936 -0.03224308 -0.08695962
0.0562269 -0.05897587 -0.086999714 0.055697046 -0.06325658 0.05657371 -0.107492834 0.019716758
0.031596344 -0.013147421 -0.019327525 -0.050632514 -0.02161441 -0.041796688 0.047013372 0.03230004
0.050293654 -0.056939606 0.024371196 -0.035759505 -0.018544301 0.05536045 -0.028983075 0.02508919
0.02957089 -0.07621786 0.08379288 -0.09468753 0.01640229 0.049766332 -0.042641837 0.0023230875
0.0080057755 -0.05392089 -0.08781205 -0.09445205 -0.039520767 0.0620287 -0.07663319 0.07642668
-0.08597566 -0.021347914 -0.034506436 -0.0773837 -0.011753801 0.04444621 0.04266877 0.057194706
0.031313535 0.038563192 -0.019560672 -0.08758928 -0.015535737 -0.09420423 0.044439778 0.05665812
-0.05328319 -0.06095321 0.059369463 -0.05562999 0.020366568 0.053753965 -0.042450927 0.030932995
0.058141135 0.052335512 -0.087300554 -0.02409087 -0.09600394 0.027727712 0.050193593 -0.06874825
0.04822201 0.012854669 -0.092849396 -0.030922292 0.033734307 -0.027209366 0.05870321 -0.02017143
-0.027162919 -0.0029179754 -0.010144953 -0.056421004 -0.07667154 -0.028518382 0.022659639 0.00055497925

weight f4 [128, 128]
00000000: cc1a ac3d 38ac c13b 7dea ba3d 4f8e 5ebc
00000010: 3d4f 823d 9a12 933d 27f5 7cbd bc29 123b
00000020: 7d81 43bd f7b5 bbbd 6f5d a8bd 71bb db3c
00000030: 9d96 a0bd 2679 123b 216f cebc 30a3 a9bd
00000040: fb23 91bd 0544 b53d 5b4e 98bd a533 8ebd
00000050: c00c 5f3c c2ea 103d 18fa 7f3d d29b c9ba
00000060: 6df7 533d de1b bebd 290d 943d bf7b 71bc
00000070: c562 06bc 3ac1 7abd 8228 3fbd 62da 5bbc
00000080: feee 6cbd 0b41 2a3d 159d 10bb b698 1a3d
00000090: 8bd5 643b 5c36 4a3c e543 9b3d eb67 39bd
000000a0: ae02 5dbd 7b4b 14bc 82b2 973d 31da 23bd
000000b0: ea9c 99bc e07f 6dbd 0516 2ebd a360 863d
000000c0: 2d27 e5bc 3b75 93bb 8d40 8cbd 9325 b73d
000000d0: 7270 97bd cd7d 333d e273 b03c 806d 88bd
000000e0: 785d 62bd f09d bdbd 5b21 63bd f066 a2bd
000000f0: dcb0 61bd 3500 e8bc e411 f83c 8921 bdbc
00000100: f600 96bc 3895 213d f4ca 6a3c 8957 0b3d
00000110: 4161 5d3d 2ba9 873d 867f 0dbc 2925 3fbd
00000120: 4fcd 2abd 06bd bdbc b848 d23c f63c 373d
00000130: 59fb 023d 1a52 b63d 6dac 69bc 0f09 373d
00000140: 4c33 ab3d 7da7 dbbc 9505 563d 601e 343d
00000150: 45d1 553d 0e79 a0ba 95f8 81bd fe86 003d
00000160: 5364 393d 3dbf af3d 0398 5b3c 99c1 a43d
00000170: 6c24 6e3d d6e1 183c a613 2c3d d3f8 95bd
00000180: 5557 b3bd c4db b63c 23b9 76bd 3b4c adbd
00000190: d87f da3c 9029 8b3d e762 87bd cc02 813d
000001a0: a310 99bd fec4 64bd 9fb2 a13d 63bf 673d
000001b0: f83a acbc 3102 b83c 0fe4 283d df0f c93b
000001c0: b962 99bd 5e39 143d c5bc f53c c4d1 103d
000001d0: fb48 4c3d 882d ba3d 94ec de3c 195f 58bd
000001e0: ea5a 06bc dbee f93b 0914 95bd 8fbd 9d3d
000001f0: 8ef9 bfbc 6490 d8bc e0ab 0e3d 5159 953d
00000200: 3f5d b9bd bd20 7ebd 5ca8 36bc 6f62 ca3c
00000210: d470 83bd 1faa 423c 2932 1fbc 1c60 d8ba
00000220: da66 8abd fbca a3bd d6a3 df3b a882 3abd
00000230: 5d11 cdbc cde1 a0bd 6e91 14bd 155e 6f3d
00000240: ee66 a13d cf96 693d 8b3b 39bd cb9d 583c
00000250: ae5a e2bc 4de2 313d e39d 30bd 27d7 21bd
00000260: 041a dfbb d813 ed3c a8f0 b1bc b08a aa3d
00000270: 2b43 883c 692c a33c 0577 a8bd cdb9 9c3d
00000280: 2cd6 5ebc f8c7 0dbd 349f 4f3d bf13 6cbd
00000290: c6fe 743c adb7 62bd 4e01 1b3d 1512 113c
000002a0: 76ac 833c 3320 0f3d ee0d c4bd d99e 893d
000002b0: a53b df3c 1b79 2b3c 3bab c53c 051a a73d
000002c0: 0dca c8bd 528d b73b e5b6 3dbb 5b35 0a3d
000002d0: 3aef 09bc b472 91bd 6312 1c3d b23f a63d
000002e0: 5fa5 993d f9dc 0ebd 4d23 3fbd 78a4 b0bd
000002f0: 5aa6 8abd 8a3a 4a3d 497e d8bc 5e3e 573d
00000300: 8d14 57bd d286 803d d416 92bd dbd5 923d
00000310: 46d8 433d 4bcf 903d b99b f43c 8a0e da3b
00000320: 27ac 453b ab0c 583d 091a 4d3d e3e2 d73c
00000330: 7457 aabd be8b 0ebb 2f40 963d d533 5a3d
00000340: bac3 85bd 28e7 933b 8285 8dbd b74b 6bbd
00000350: e1f0 9c3d e393 263d a9b1 aabd d4e4 99bd
00000360: f37b 94bc 71ac 993d 9e44 993c 9944 32bd
00000370: 3824 25bc 6b25 733d ab20 a83c c09e eeba
00000380: 305e 3fbd c114 a73d 436f 36bd cdfb 9b3d
00000390: 00f4 003c a0de 93bc d68a ab3d 03c6 993b
000003a0: 8835 6a3a 287f f53c 74ba 8a3d 1bee 6cbd
000003b0: 3529 59bd c8a0 20bd 1e2b ea3c fb84 163d
000003c0: 6e38 9a3d ae29 34bc cf22 24bb a3f7 e73c
000003d0: 82a9 f4ba 2840 68bd 6bd6 09bd e169 a5bc
000003e0: fe6f 893d 6f3a 5ebd 82cc b33c d91a 1a3c
000003f0: 05d7 18bc c2ff fdbc 80ab eabc 97b2 003b
0.084035486 0.0059104227 0.09126756 -0.013583734 0.0636277 0.07181282 -0.061757233 0.0022302708
-0.04773091 -0.091655664 -0.08220946 0.026822777 -0.07841227 0.0022350042 -0.025199475 -0.08283079
-0.07086941 0.08850864 -0.0743682 -0.06943444 0.01361388 0.035380132 0.062494367 -0.0015381521
0.051749635 -0.09282659 0.072290726 -0.014738976 -0.008202259 -0.06121943 -0.04666949 -0.013418766
-0.05784511 0.041565936 -0.0022066284 0.037743293 0.003491732 0.012342062 0.07581309 -0.04526512
-0.053957634 -0.009051199 0.074070945 -0.040003005 -0.01875158 -0.05798328 -0.04250147 0.06561401
-0.027972782 -0.004500059 -0.068482496 0.089427136 -0.07394494 0.043821145 0.021539632 -0.066615105
-0.05526492 -0.0925864 -0.055451732 -0.0792979 -0.055100307 -0.028320411 0.030281968 -0.02308728
-0.018311005 0.039448947 0.014330614 0.034019027 0.054047827 0.06624063 -0.008636361 -0.046666298
-0.041699704 -0.023161422 0.02566944 0.04473587 0.031977985 0.089023784 -0.014262301 0.044686373
0.083593935 -0.026813263 0.052251417 0.04397428 0.052201528 -0.0012243108 -0.063462414 0.03137874
0.045261692 0.08581398 0.013402942 0.08044738 0.058140203 0.009331187 0.042010926 -0.0732285
-0.08756892 0.02232159 -0.060235154 -0.084618054 0.026672289 0.06795037 -0.06610661 0.062993616
-0.07473876 -0.05585193 0.078953974 0.056579005 -0.021024212 0.022461982 0.04123312 0.006135925
-0.07489533 0.036187522 0.029997239 0.035356298 0.049874287 0.09090716 0.027212419 -0.052825067
-0.008200387 0.0076273507 -0.07279212 0.07702171 -0.023434427 -0.026436038 0.03483188 0.072924264
-0.090509884 -0.06204294 -0.011148538 0.02470514 -0.06418005 0.01188138 -0.009716549 -0.0016508135
-0.06757899 -0.079977 0.0068249507 -0.04553476 -0.025032694 -0.07855568 -0.036271505 0.058439333
0.078809604 0.057028588 -0.0452228 0.0132212145 -0.02763113 0.043428708 -0.043119323 -0.039511826
-0.006808521 0.028940126 -0.0217212 0.08327234 0.01663359 0.019918637 -0.08225826 0.07652626
-0.013600867 -0.034614533 0.050688937 -0.05763602 0.014953321 -0.055350948 0.03784304 0.008854409
0.016073447 0.034942817 -0.095729694 0.06719751 0.02725012 0.0104658855 0.0241295 0.0815926
-0.09804163 0.0056015635 -0.0028948125 0.03374229 -0.008418852 -0.07101956 0.038103472 0.08117618
0.07502245 -0.034878705 -0.046664525 -0.0862512 -0.0677001 0.049372233 -0.026427405 0.052549712
-0.052509833 0.06275715 -0.0713326 0.07169696 0.047813676 0.07070788 0.02985941 0.006654565
0.0030162425 0.052746456 0.050073657 0.026353305 -0.083174616 -0.0021750773 0.07336461 0.053272087
-0.065314725 0.00451364 -0.0691023 -0.057445254 0.076631315 0.04066838 -0.08334667 -0.075143486
-0.01812551 0.07503594 0.018709477 -0.04352245 -0.010079436 0.059361856 0.02052339 -0.001820527
-0.046720684 0.08158255 -0.0445397 0.076163866 0.007870674 -0.018050492 0.0837609 0.0046927943
0.00089343684 0.02996786 0.06773844 -0.057844263 -0.053017814 -0.039215833 0.028585013 0.036747914
0.07530294 -0.010996265 -0.0025045162 0.028316325 -0.001866624 -0.05670181 -0.03365175 -0.020192089
0.06710814 -0.054254945 0.021948103 0.009405815 -0.009328608 -0.031005744 -0.02864623 0.0019637698

bias f4 [128]
00000000: c5b1 473d 2fe2 943d 7910 913c 2fef 1dbc
00000010: 1d7e 223d 8a0b fdbc cc75 763d 3529 693d
00000020: 9d6b 06bd 24c2 7e3b 163f 38bb f8d9 c5bc
00000030: 7af1 65bd c98e 343d 4d75 823d e2a8 e63a
00000040: dca8 793d 5df5 a8bd aed5 a13c e136 483d
00000050: 6f1d ea3c 5c44 a6bd c4ed cd3d 2115 bb3c
00000060: 01ae 8c3d cf6f 4c3d fb73 8abd 1af5 213d
00000070: 9f4e c0bd 9fef 323d daa1 36bd 8c50 b1bd
00000080: 0bb6 823d 8aa4 8b3d aa29 593d 9c69 d93c
00000090: a553 703c 81d1 a03d 611d d0bd ebb2 723d
000000a0: 0a55 8bbc bff3 1b3d 5cc8 9939 1b9b f0bd
000000b0: cd70 a1bd c4f1 4fbc d7b2 85bc d830 373d
000000c0: 454f 4dbd 555f 473d 988e 93bd 06ef ad3d
000000d0: 7ffd 52bd e2e4 3b3d 949e 9b3d aad0 9a3d
000000e0: 4b79 033d 85e5 41bd 56b5 92bd 5fda 143c
000000f0: c8f8 7bbd 1295 99bd a1de 393d fc08 c2bc
00000100: 4003 bf3b 684d f63c a410 683d 5cae 733c
00000110: d102 9c3c 5dea 6fbd b222 6f3d 404d 36bd
00000120: 2ed7 a83d 7a97 88bb 84b8 89bd 3302 0b3d
00000130: 7078 7ebd ea5f dd3c 71c3 cbbb de6b ffbb
00000140: 654b a0bd 4bfe 99bd 3383 913d 1e3a edbd
00000150: 8dac 60bc 7c21 b4bd d685 ad3d 8ce1 943d
00000160: 2f4f 803c 03db 313d a7c2 10bd 5115 92bd
00000170: c34c c9bd 6711 53bd d24f a8bc 4c2a aa3c
00000180: 016e 65bd 4df2 da3c f803 20bd e929 973d
00000190: d9f1 663d 16d8 0d3d 88b4 453d 4bfc c9bc
000001a0: a29f 24bd 1604 c83d 4a45 90bd 58b0 fb3c
000001b0: 147f a0bb db2d eabd f713 e03c 7aab d1bc
000001c0: fe49 c4bd 8c3e 45bd 4bec 573c 3a58 b73c
000001d0: 7e0b 3fbd 9492 a23d 648f 2bbd 43dc 2e3d
000001e0: 6d40 0f3d c528 22bd 8f0b b7bd 47f1 ed3c
000001f0: 22f4 b5bd 1034 863d 5691 99bc 2e3f 3fbd
0.04875352 0.072697036 0.01770805 -0.009639545 0.039671052 -0.030889291 0.060170934 0.056924064
-0.03281747 0.003887304 -0.0028113774 -0.024151787 -0.056138493 0.044081483 0.063700296 0.0017597938
0.060952052 -0.08249924 0.01975521 0.04888046 0.028578488 -0.08118507 0.10055116 0.022837223
0.06869126 0.049911316 -0.06760403 0.039540388 -0.09389996 0.04368555 -0.044587947 -0.08657941
0.06382378 0.06818493 0.05301825 0.026539616 0.01466838 0.0785246 -0.101618536 0.05925266
-0.017008323 0.03807425 0.00029331713 -0.11748334 -0.07882843 -0.012691919 -0.016320629 0.044724315
-0.050124425 0.0486749 -0.07204932 0.08492856 -0.051511284 0.045872577 0.07598606 0.07559331
0.032098096 -0.047338028 -0.07163493 0.009085267 -0.061516553 -0.07499136 0.04537833 -0.023685925
0.005829245 0.030066207 0.056656495 0.0148731135 0.019044312 -0.058573116 0.058382697 -0.044507265
0.08244167 -0.004168448 -0.06724647 0.033937644 -0.062126577 0.027023274 -0.006218367 -0.007794841
-0.0782688 -0.07519206 0.071051024 -0.115833506 -0.013713014 -0.08795449 0.08472793 0.07269582
0.015662758 0.043421756 -0.035341885 -0.07132972 -0.09829094 -0.051530268 -0.020545874 0.020772122
-0.05601311 0.026726866 -0.039066285 0.073810406 0.056382988 0.034629904 0.04826787 -0.024656435
-0.0401913 0.09766404 -0.07044466 0.030723736 -0.0048979614 -0.114345275 0.02735327 -0.025594462
-0.095844254 -0.048155352 0.013178895 0.022380937 -0.04664182 0.07938114 -0.041884795 0.042690527
0.03497355 -0.039589662 -0.089377515 0.029045714 -0.08884455 0.06552899 -0.01874606 -0.046691112
